reports/ml/auto_improve_factorized_long_live/iter_002/factorized_model.npz (npz, 72093 bytes, 17 tensors)

W1 f4 [48, 192]
00000000: 4c8c af3e e67c 9e3e 7ded e2bd 17b1 64be
00000010: 6820 d93d 003d ddbd 1f68 d2be b4c7 973e
00000020: d219 4dbd 123e 56bc d4b8 6b3e 9aad e93c
00000030: fcb0 1d3e d52b 9cbd 7d29 7cbd cc48 9cbd
00000040: feb8 6a3e d0fa 223e 1a60 4d3e ea4e 89bd
00000050: 5125 18be 4643 583c 4647 363f 24b8 7cbe
00000060: a28a e9bd cee5 ce3e 0d8f b2bd f23f 41be
00000070: 4098 683d 7220 22be 50a8 a4bd a524 c63e
00000080: 8d28 05bf b277 db3e 79d3 45bc 5c81 42bd
00000090: e5a6 a5bd 398b 873e dcb0 69be 2368 32be
000000a0: d420 43be ea23 143e d3a2 c03e f46f 3d3c
000000b0: cd14 4c3e 92ee 7dbd 0b0f f4be 482e 56bd
000000c0: 6160 36bf 672a 2c3d 9d05 f23d 823d 233e
000000d0: 2f2c 60be 6faf af3e c52e 203e 1788 163e
000000e0: e0ff 80bd e06e a6be 7c24 9b3e 5903 73be
000000f0: 225d b23e e8c8 fc3b c892 683d 79bc 77be
00000100: 7529 f9bd 7d95 993d 2115 67be 5b4f 62be
00000110: b197 693e fddf 5b3d 5fe0 213e 9dc0 cf3c
00000120: fb3c fb3e 2342 e4be de9f 933d cf2c bfbe
00000130: adf7 2c3d 1779 b23e 58a5 48be 602e d13e
00000140: 9df4 ba3e c631 f7be 6da2 0a3d 0e7d 863e
00000150: 2ac3 113e 48fa f53c 8878 d23d 9819 ab3d
00000160: 5673 3cbd 26f6 213e 77d8 adbe 6724 b2bc
00000170: 509b a6be 20d7 ed3c 8e9f 293e 92ae 093e
00000180: 3fa0 75be d921 b6bd d75e ad3d 19ba 5e3e
00000190: 1782 febd 56d0 993e 9c78 6ebe d691 68be
000001a0: c00a 89be 59b5 61be f3b5 2abd b0de bc3e
000001b0: 3deb b63d 5f87 053e 5c55 33be 81fe 823e
000001c0: 7fb4 9ebd 87ab 8c3e eef3 e63e f12c f0bc
000001d0: d16a 8bbd 98bc a1be 0ac3 e3bd 48c5 f03e
000001e0: 343c 823e 012d f6be 802c 213f 66f2 b73e
000001f0: 9c40 9e3d eec2 9e3d b089 a13e 8d1a 16be
00000200: 6972 31be ee78 1d3e 4900 cfbc 47f9 3a3e
00000210: 14a6 c33e d629 53bb 9f00 f73e 335d bf3d
00000220: 6c11 413e be41 253d b28f babe 1581 53be
00000230: 2971 e0bc 5441 56be d216 f3bd 1255 ad3c
00000240: 190c 1f3e a903 b9bc 3a7e 1bbd 3ca0 c6bb
00000250: 6500 5a3d c9d9 7c3e 7877 d6bd 9f2a 2c3e
00000260: 3b20 2fbe 7ff1 95bd 5268 0abe 5b7b 39bb
00000270: ae29 a5bd ffcf b5be b503 bbbe 9cba 6e3d
00000280: 7483 ed3c 3a5e 163e d58a d73d 6793 50be
00000290: fc1b 1c3e c9ba 04be 8ca9 efbb aef5 a3be
000002a0: d99a 6d3e f9b4 9ebe a045 57bd 25b5 c5bd
000002b0: eb1d 5ebe ed2f 2b3e d0fa b9bd cabf 3cbe
000002c0: e2bd 233e b9d3 8a3e f70a 4cbc b621 103c
000002d0: b8b3 0c3d 6da0 b23d ddd8 f6bd 7835 733d
000002e0: d115 123d 4301 613e 68a9 3cbe 8daf ebbc
000002f0: ef86 03bf 2c93 8c3c a614 473e d5c2 dc3d
00000300: a731 713d 65f5 99bd 6e87 b43e 2194 80be
00000310: 88d4 8dbd 5ff4 81bd 55b9 aebd 0633 8bbe
00000320: f103 853e b09d 3bbc edb2 5bbd 835d d9be
00000330: 6ec5 383e 394a 6a3d 86bd 913e 8e10 a03e
00000340: b5df d73d fe73 223d 1a6a e53e 3002 8bbe
00000350: d7ce deba 9760 bebd fea2 9cbe 9090 24be
00000360: b790 8a3d 68ce 3bbe a7a1 0cbe 62a6 edb8
00000370: e515 22be de91 333d ae3f 513e b967 ffbd
00000380: 910e a43e 8a9b c0be f059 9cbc be17 dabd
00000390: 1d4d 5cbd 6b05 82be 58c1 a1be dd40 89be
000003a0: 2fca 00be 0b92 1bbd bed6 b4bd d88d ff3d
000003b0: bf46 12be 5c4b edbd abf6 a43d 41bd de3d
000003c0: 88fe c5bc a492 e2bd 0540 86bd f2ce 90be
000003d0: 7e46 f73c 98e3 7c3e 1d8c 71be 91cb 883e
000003e0: 2a1e 463e 9efc 8fbd b6e3 06be f831 ec3e
000003f0: 38f4 b53d 7203 cebe a9ed 4fbe 74aa a1bd
0.34286726 0.30954665 -0.110804535 -0.2233318 0.10601884 -0.108026505 -0.41095063 0.2964455
-0.050073452 -0.013076322 0.23019725 0.028525162 0.15399545 -0.07625548 -0.061563004 -0.076310724
0.22922131 0.1591599 0.20056191 -0.06704505 -0.14857985 0.013199633 0.71202505 -0.24679619
-0.11403395 0.40409702 -0.08718691 -0.1887205 0.056785822 -0.1583269 -0.080399156 0.38699833
-0.52015 0.42864758 -0.012074345 -0.047486648 -0.08088473 0.26473406 -0.22821373 -0.17422538
-0.19055492 0.14466825 0.37624225 0.011562336 0.1992981 -0.061995097 -0.47667727 -0.05229023
-0.7124081 0.042032626 0.11817477 0.15941432 -0.21891855 0.34313533 0.15642841 0.14700352
-0.06298804 -0.32506466 0.30301273 -0.23731746 0.3483668 0.0077143796 0.056780607 -0.2419299
-0.121661104 0.07499216 -0.22566654 -0.22100584 0.22811772 0.05368041 0.15808247 0.0253604
0.49069962 -0.44581708 0.072082266 -0.37338874 0.04222839 0.3485801 -0.19594324 0.40855694
0.3651475 -0.48280162 0.033846308 0.26267284 0.14234605 0.03002657 0.10276896 0.08354491
-0.04600843 0.15816554 -0.33954212 -0.021745874 -0.3254037 0.029033244 0.16564772 0.134455
-0.2398691 -0.08893175 0.08465355 0.21750678 -0.124271564 0.3004176 -0.23288196 -0.22711882
-0.26766014 -0.22041835 -0.041677427 0.36888647 0.08931587 0.13039921 -0.17513031 0.25584796
-0.07749271 0.27474615 0.4510798 -0.029318305 -0.06807483 -0.31589198 -0.11121185 0.47025514
0.25436556 -0.4808121 0.62958527 0.35927123 0.07727167 0.07752024 0.3155036 -0.14658566
-0.173288 0.15378162 -0.02526869 0.18259154 0.38212645 -0.003222098 0.4824266 0.09343948
0.18854302 0.0403459 -0.36437756 -0.2065471 -0.027397709 -0.20923358 -0.11869587 0.021158729
0.15531959 -0.022584753 -0.037962176 -0.006061582 0.053223033 0.24692453 -0.104720056 0.16813134
-0.17102139 -0.07321452 -0.13516358 -0.0028302285 -0.080645904 -0.3551025 -0.36526266 0.058283433
0.028993346 0.14684382 0.10524527 -0.2036873 0.1524505 -0.12961878 -0.0073139127 -0.32023376
0.23203601 -0.30997446 -0.052556634 -0.09653691 -0.216911 0.16717501 -0.09081042 -0.18432537
0.15990403 0.27114657 -0.012453786 0.0087971 0.03435108 0.08722005 -0.12053082 0.059377164
0.035665337 0.21973138 -0.18423998 -0.028770233 -0.5137777 0.01716002 0.1944147 0.10779349
0.058885243 -0.075175084 0.35259575 -0.25113013 -0.06925303 -0.06345438 -0.08531443 -0.27187365
0.2597957 -0.01145117 -0.053637434 -0.42454156 0.18044063 0.05719969 0.28464907 0.3126263
0.105407156 0.0396614 0.44807512 -0.27150106 -0.0016998899 -0.09295767 -0.30593103 -0.16070771
0.067658834 -0.18340456 -0.1373354 -0.00011332032 -0.15828665 0.04384028 0.20434448 -0.124709554
0.32042363 -0.37618667 -0.019085854 -0.1064906 -0.05378448 -0.2539476 -0.31592822 -0.268073
-0.12577127 -0.037981074 -0.08830021 0.124782264 -0.142848 -0.11586639 0.08054861 0.10875941
-0.024169222 -0.11063126 -0.065551795 -0.28282887 0.03018498 0.24696195 -0.23588605 0.2671781
0.19347444 -0.07030605 -0.13172802 0.46131873 0.08884472 -0.40237004 -0.20305504 -0.078938395

b1 f4 [192]
00000000: 2a07 7a3c 74f3 a3ba e83d 36bb 0000 0000
00000010: d5b1 d4bb f5c2 483b a4b0 13bc 30fb ec3a
00000020: 0000 0000 cae6 21b9 7565 80bc 64bf 06bc
00000030: 74c2 093c 9bdb 20bb 7ec9 c239 3ffb c73a
00000040: f658 48b7 b8e9 883b 0382 8aba 6467 283b
00000050: 0000 0000 c7ce 0c3c 5401 5b3c 1ee2 c1b9
00000060: c295 8a36 d758 57bc 420a b83a c448 6cbb
00000070: 2dcc 0436 a511 b03c 0000 0000 1d27 cdb7
00000080: c3cc 6d3b f125 a43a ff16 c438 1243 39b9
00000090: d4ed 9737 9a4b 91bb 0000 0000 0000 0000
000000a0: 36f2 c1ba 12bd 2fbb 4b73 e8b9 a880 173b
000000b0: 13ba c23c 7281 9538 16ff 91bb a534 99b8
000000c0: 39a8 99b9 0fb1 cab7 20cb 12bc ac22 103c
000000d0: d191 d6bb 6b36 22bc d693 deb9 54ef a0bb
000000e0: 4bcd 0dbc 1e5d b3b9 1ea8 03ba 4174 d5ba
000000f0: 0a13 ae3b a6d2 213b fefa 52bb 847a 80bc
00000100: 5e46 52bb 2f55 a8ba 0000 0000 9754 4038
00000110: 3c89 d83c dc9b 573a 07aa 263b 8597 8638
00000120: ad6c 763b aeb5 9639 ffa8 9db9 0000 0000
00000130: e7c7 3438 fdb9 5a3b ac6b 233c 199f 64bc
00000140: 9001 3eba 7c1a 7139 2910 a2bb 4eed de3b
00000150: 9cfa ba39 965c cdb7 0000 0000 718b cb3c
00000160: ef40 50b7 0000 0000 0000 0000 0000 0000
00000170: e945 3d3a 0a14 a73b f6c8 203c 18f2 b2bb
00000180: fe96 acb7 20f0 44bb 903c 063c 3b9b 803b
00000190: f8c3 893a 1d2b 99b9 c9ef 843c 6603 6a3b
000001a0: c5cd f13b 4087 a83a fe51 d33c da54 193b
000001b0: bb5f deba 5d65 c6bb eeff 3cb9 8709 353c
000001c0: e566 193c 30cf 60ba 919c 503c 1ad6 94ba
000001d0: 4543 4fbc ad0b 18bc 3e94 743b 4c68 80bc
000001e0: abe4 e93b 8ebb 6abc f32d 08bb 7598 b9bb
000001f0: afec 96bc 43bd b8bb 6f14 333a 874b 4438
00000200: 8145 aeba d88a a0ba 6692 84bb 6dfc 563c
00000210: e6d2 b23c 6a49 3eba bd05 09bc bb79 50bb
00000220: 9e47 a0ba 6553 85bb dab4 8fbb 2ad4 9d3a
00000230: 0000 0000 e3f6 70bc 025d 56b9 b6f5 f93a
00000240: 990b 85bb 0000 0000 4410 f537 ec47 26bb
00000250: 01d8 513b 422d 9e3b 21a1 91bc 83a9 0e3a
00000260: 54d9 87ba d128 c0ba b50a 2e39 aa92 29bc
00000270: 16b1 d33a a462 943b 8f6e 0a3c 879a 84b6
00000280: 7d96 1838 ffd7 1839 bd6a 80ba 0000 0000
00000290: 0000 0000 e604 b7bb 847d 2ab9 0000 0000
000002a0: bf2e 0ebb 1ce6 9eb9 fdde a83c 0000 0000
000002b0: b44c 773a ca75 77bb 6f8e 93ba ffa9 d939
000002c0: fd0a 293b 6769 0b3c 024d cc3c 4cf2 00bc
000002d0: 63aa 71bb a4ac 583c b631 3ab6 0000 0000
000002e0: 505c 6fb9 21b3 e8ba 95b0 a13b efd6 22bb
000002f0: 0fe0 ca37 b1ff abbb 06b5 49b9 60c8 42bc
0.015260497 -0.0012508468 -0.0027807895 0.0 -0.006490926 0.0030633782 -0.009014282 0.0018080231
0.0 -0.00015440132 -0.015673378 -0.008224342 0.008408178 -0.0024544958 0.00037152687 0.0015257372
-1.1941642e-05 0.004178252 -0.0010567311 0.0025696391 0.0 0.008594221 0.013367016 -0.000369803
4.1301546e-06 -0.01314374 0.0014041143 -0.0036054114 1.9788379e-06 0.021492789 0.0 -2.4456118e-05
0.0036285378 0.0012523514 9.350292e-05 -0.0001766796 1.811135e-05 -0.0044340612 0.0 0.0
-0.0014796916 -0.0026815576 -0.00044336388 0.0023117457 0.023770368 7.128985e-05 -0.0044554574 -7.305414e-05
-0.0002930777 -2.4162726e-05 -0.008959562 0.008797329 -0.0065481444 -0.00990067 -0.00042453286 -0.0049113426
-0.008654903 -0.00034210918 -0.0005022305 -0.0016285257 0.005312328 0.0024692207 -0.003219306 -0.01568342
-0.00320854 -0.001284277 0.0 4.5855148e-05 0.026432626 0.0008224824 0.0025430934 6.4178406e-05
0.0037601397 0.0002874559 -0.00030071285 0.0 4.3101518e-05 0.0033375018 0.009974401 -0.013953947
-0.00072481576 0.00022993417 -0.004945774 0.0068031913 0.00035663403 -2.4481018e-05 0.0 0.024846764
-1.2412885e-05 0.0 0.0 0.0 0.0007220195 0.0050988244 0.009813538 -0.0054609887
-2.0574309e-05 -0.0030050352 0.00819315 0.003924755 0.0010510674 -0.00029214556 0.01622762 0.0035707592
0.007379266 0.001285769 0.025795933 0.0023396523 -0.0016965786 -0.006054564 -0.00018024418 0.011049635
0.009362911 -0.0008575795 0.012732641 -0.0011355311 -0.012650316 -0.0092801275 0.0037319805 -0.015674733
0.007137855 -0.014326943 -0.002077934 -0.0056639262 -0.018423406 -0.005637796 0.0006831353 4.6800382e-05
-0.001329586 -0.001224841 -0.0040457724 0.013121706 0.02182908 -0.00072588644 -0.0083631845 -0.0031810838
-0.0012228375 -0.0040687793 -0.004385573 0.0012041379 0.0 -0.0147073 -0.00020443278 0.001907042
-0.0040602204 0.0 2.921385e-05 -0.0025372459 0.0032019618 0.0048271725 -0.017777028 0.00054421293
-0.0010364451 -0.0014660602 0.00016597922 -0.010349909 0.0016150798 0.0045283604 0.008449211 -3.951896e-06
3.6379777e-05 0.00014576314 -0.0009797435 0.0 0.0 -0.0055853007 -0.00016259222 0.0
-0.0021695343 -0.00030307553 0.020614142 0.0 0.0009433732 -0.0037759417 -0.0011257658 0.00041516122
0.0025793903 0.008509017 0.024939064 -0.007870268 -0.003687524 0.0132247545 -2.7745095e-06 0.0
-0.00022827205 -0.001775358 0.0049343803 -0.0024847349 2.4184612e-05 -0.0052489867 -0.0001923629 -0.011888593

W_action_type f4 [192, 4]
00000000: c564 98bd 7b88 3bbd 00b6 dd3d 8163 5b3e
00000010: 5b0a aabb 1d0b bc3d 4c9e 573d 390a 3a3c
00000020: 504c 373e 59e1 9ebc b3ae 143e 5418 8a3d
00000030: fc7b 2abd 4811 c2bd 07cc 0dbe 2d60 07bc
00000040: edf0 4d3d 442a da3d 98c4 3abe 850f 763d
00000050: 920a 1ebd a59c 5f3e d544 15be d0e0 4a3b
00000060: 5c39 113d 23e9 cabd 5543 84bd 57e9 08be
00000070: fcbe bfbd ae58 a73d 3459 393d bfdc df3d
00000080: 8f7f 573d 732b babc 80be b03d c7e0 8d3c
00000090: a501 96bd 144c 193e 47bc c53d 5270 2dbc
000000a0: 0c05 323e 1078 f6bd 8a70 d33c f9b0 5c3b
000000b0: 6010 a43d f1ef 2c3d a48f 4c3e 3126 06bd
000000c0: c237 f1bd 7fa3 92bd b4a0 acbc 977a 513e
000000d0: af0e a93d 76aa 1fbe 85ea 233b 89fc 02bd
000000e0: db78 89bd 719f 843c 6761 ea3d 910f dd3d
000000f0: 7b31 043e 12fb 8cbb 3849 8b3d aca4 7d3c
00000100: 69b9 7e3c 0e88 50be 4afe f7bb 04f2 3f3e
00000110: 809b e0bd ddf8 f2bd 05d4 b3bd 91d8 913d
00000120: bdd4 ff3c 0e0b ba3d 30f6 8f3c af50 27be
00000130: f9e1 a5b9 7c10 7cbe e0dc de3c 2461 523b
00000140: 3e83 e43d 7541 113d f019 f6bc e642 9abd
00000150: 036f 39bd 801b bb3c 35fc 383e 9c7b bdbd
00000160: 744f d7bd a7fd 4a3e 4cd5 ea3c a9f4 cd3d
00000170: ae4e 973b b481 8d3b 0d64 74bd 25bc 143d
00000180: a2ea 57be 8e89 bbbd 3052 b4bd d22f 3abd
00000190: 7de0 c9bd cb8c 6abd 64dd efbd 632f 0dbc
000001a0: 5060 6abc 7691 34bd 3fd0 b4bd 2b7b cb3d
000001b0: 2cf8 2d3e 533d 5bbd 3088 103d cca6 773d
000001c0: e245 fdbd 2bc6 c0bc 01c0 01bd c70e adbd
000001d0: 0f48 81be a257 92be 29da 4fbd 3b04 c03d
000001e0: 09ff e43c 36d3 1dbe 1bd1 59bd de28 1c3e
000001f0: c6cf 93bd 29fc 2d3e 42ad 913d e6c3 e23c
00000200: e282 cf3d 86d5 90bd 8348 be3d 6432 893d
00000210: 4f68 ac3d ea7a 683c 0b7c 173e 8915 c9bd
00000220: 70fa 1e3e 9b1b a53d e50e c6bd ceae 80bc
00000230: 2572 503c b9a1 313e 3440 1c3a f2e6 56bb
00000240: 6cf0 d3bd 7c00 9dbd ec9f e63a 9fdc b0bc
00000250: 572e b83d db79 203d d72e 6fbd bb35 5fbc
00000260: 735e 673d d716 8dbd a6a2 593d 0e72 1b3e
00000270: 2e7b 863c 7d3e 92bd df62 f53a 273c 8a3d
00000280: c77e a23c f4ca 5c3e 3bb9 b33d 440f 29bd
00000290: fd4a 0bbe 0aac 2dbc 0d70 a63c a71c dfbd
000002a0: 732c 49bd f635 0d3e d08f 38bc cfaf 5c3d
000002b0: ba38 f83c 2ad3 04be e6b5 3e3c ba54 0b3e
000002c0: d45f e6bd 8a14 383e 7d1c c63d 2e25 b93d
000002d0: dd29 76bb 7040 2e3e c717 083c e08f 313e
000002e0: 8aa9 32bd 1841 8ebd 94f0 db3d cb72 92bd
000002f0: 65bc c83d 075f bfbd 8185 80bd d01b c1bd
00000300: bab7 0bbb 4d9f e63c dcd9 06bd b00d 8e3c
00000310: b130 a93d c027 aebd 6a5b 293e 21e7 fb3d
00000320: 9963 27be 72f2 19be efe3 ad3c bdab a23c
00000330: 09ec 0d3e c743 48bd 224f 4fbe b632 383e
00000340: ed37 893d 1dec c3bd a529 22be b281 92bd
00000350: e851 063e 8d2b 19bd 9919 103e 719a 133d
00000360: c574 233c 4790 0fbe 6f5a 35bd b27b 2fbe
00000370: 69c1 b93d 8e36 903d 81ca 57bd de65 9ebd
00000380: caca 6abd d82e 293d f8f1 0f3e c055 6abc
00000390: 6476 f33d 801b f23c 7537 c53d 7ce7 de3d
000003a0: 99ad 0a3e 2185 c1bd 48d9 10be 7db9 323d
000003b0: 05be d93d 21ec e13d 6ed3 02be 53b1 20be
000003c0: b10f 41be b00c f33c e1a6 83bc bbaa a7bd
000003d0: 1478 7a3d f355 eabd f487 bc3d e988 90bd
000003e0: dfd4 9f3c 7fbe d13d 5fef 653d af98 b7bd
000003f0: 7138 59bb 3751 203d 3341 1cbe 0bab 42bd
-0.07441095 -0.045784455 0.10825729 0.21424676 -0.0051892227 0.09181807 0.052641198 0.011354976
0.17900205 -0.019394564 0.14519767 0.067429215 -0.041622147 -0.094759524 -0.13847362 -0.008262676
0.050278593 0.10652593 -0.18239057 0.060073394 -0.0385843 0.21837099 -0.14577039 0.0030956753
0.035455093 -0.099077486 -0.06458155 -0.13370262 -0.09362599 0.08171211 0.045251086 0.10930776
0.052611884 -0.022725796 0.08630085 0.017319096 -0.073245324 0.14970428 0.09655052 -0.010585861
0.17384738 -0.12034619 0.025810499 0.003367482 0.08010936 0.042221013 0.1997667 -0.032751266
-0.11778213 -0.07160091 -0.021072723 0.2045692 0.08254754 -0.1559237 0.002501161 -0.031979118
-0.067125045 0.016189309 0.11444359 0.10793985 0.129095 -0.004302391 0.06801075 0.015481155
0.015547135 -0.203644 -0.0075681554 0.18744665 -0.10967159 -0.11863873 -0.08780674 0.07121385
0.031229371 0.0908414 0.017573446 -0.16339372 -0.00031639615 -0.24615663 0.02720493 0.0032101357
0.11157845 0.035462815 -0.030041665 -0.07532291 -0.045271885 0.022840261 0.1806496 -0.09252092
-0.10513201 0.19823323 0.028666161 0.10056431 0.0046175336 0.0043184403 -0.05966573 0.03631224
-0.21085599 -0.09157096 -0.088047385 -0.04545576 -0.09857271 -0.057263177 -0.11712149 -0.008617255
-0.014305189 -0.044084035 -0.08828782 0.09935602 0.16989201 -0.05352528 0.03528613 0.060461804
-0.12366845 -0.023531994 -0.03167725 -0.08450084 -0.2525029 -0.28582484 -0.050745163 0.09375807
0.027953641 -0.15412602 -0.053177934 0.15249965 -0.07217364 0.16990723 0.071131244 0.027681302
0.10132386 -0.07071976 0.09291174 0.066990644 0.08418333 0.014189461 0.14793412 -0.09818561
0.15525222 0.08061906 -0.0967081 -0.015708353 0.012722527 0.17346849 0.0005960495 -0.0032791463
-0.10348591 -0.07666108 0.0017595268 -0.021589575 0.089932136 0.03917871 -0.05839428 -0.01362365
0.05648656 -0.06889122 0.05313363 0.15180227 0.016416159 -0.07140825 0.0018721482 0.067497544
0.019835843 0.21561795 0.08775564 -0.041274324 -0.13602825 -0.010600099 0.020317102 -0.10894137
-0.049114656 0.13790116 -0.011264756 0.0538786 0.030300487 -0.12971178 0.011640048 0.1360654
-0.112487465 0.17976585 0.096734025 0.090402946 -0.0037561574 0.17016768 0.00830645 0.1734004
-0.043618716 -0.069460094 0.10739246 -0.07150801 0.098015584 -0.09344297 -0.06275464 -0.09429133
-0.0021319226 0.028152132 -0.03292261 0.017340511 0.0826124 -0.085036755 0.16538778 0.12299944
-0.16346587 -0.15033892 0.021226851 0.019857282 0.13859572 -0.048892763 -0.2024503 0.17988095
0.0670012 -0.095665194 -0.15836199 -0.07153644 0.13117182 -0.03739505 0.14072265 0.03603596
0.0099765705 -0.14019881 -0.044275697 -0.1713703 0.09070093 0.070416555 -0.052683357 -0.077342734
-0.0573223 0.04130444 0.14057148 -0.014302671 0.118878156 0.029554129 0.09629718 0.10883996
0.13542785 -0.094492204 -0.14145386 0.043633927 0.106319465 0.11031366 -0.12775967 -0.15692644
-0.18853642 0.029669136 -0.016070785 -0.08186861 0.06114967 -0.11442175 0.092056185 -0.070573635
0.019510685 0.10241412 0.056136485 -0.08964669 -0.0033145214 0.039139953 -0.15259247 -0.0475264

b_action_type f4 [4]
00000000: 10d1 d8bc 5e71 90bc fc54 2dbb 8c76 3f3d
-0.026466876 -0.017632183 -0.002644836 0.046743914

W_play_habitat f4 [192, 4]
00000000: 8cf3 923c 9f2c b03d 9aec 523e 755e afbc
00000010: a6b5 b0b9 a4c5 a53d 45cc 253d 636c 3e3d
00000020: db90 8bbd 9cc7 cb3d 57f3 833d 1823 20bb
00000030: 3144 513c fab8 25bd 75d9 edbc e746 97bb
00000040: bba7 e13b e93c 2cbd 3e41 323e fe2f 7a3c
00000050: c111 89bd d01b 6eba cff8 8e3c a411 a1bd
00000060: 9b32 9abc 1e3b 36be 7961 713d 214f 8fbd
00000070: 677a 073e 5063 313d 8461 a93c 4e37 da3d
00000080: 56c7 6b3d 864e e3bd de7d 31be b9fb a33c
00000090: 7b77 c73d a9dd 46bb 4546 13be 7953 9e3d
000000a0: 977e 923d 545a 7fbd a000 e93d 9bda cb3d
000000b0: 14c0 5d3d 25eb 05be d7ac 503d e3d5 21bd
000000c0: e27d 053e f5ba 14be e219 733e dd5c b03b
000000d0: 37ca 03be 792e 8a3e 2d45 98bd 43a7 fc3d
000000e0: 29db eb3c f4d6 42be 449e 9b3d 6e66 e23d
000000f0: c873 ee3d 166d 9abd 2a3f ab3d 5701 d5bd
00000100: 76d6 a2bd e4ed 563d 2498 ebbd 1e35 6c3e
00000110: ceda 55bc e6c6 09be 8c41 44bd eee2 3e3e
00000120: 5d2a 74bc 56bb 85bb a9b0 e6bc 159a 03be
00000130: 2b4e 61bc a5cc d73d 9221 193e e000 a73d
00000140: 0935 15be 046b 873b b2b3 45bd 1e2e 7dbc
00000150: 9567 d1b9 ee11 6a3e f3ed ee3d 4c75 07be
00000160: ae16 91bc 12af 823d 2218 afbd ed5b acbb
00000170: cca8 11be d43f edbd d44f ad3d 7035 18be
00000180: ad08 34bd 6615 e8bd c03e ab39 c645 243d
00000190: 8a61 e4bd 4cd4 393e 2668 6fbd ca0e 24be
000001a0: 120f 853d 3bfe 49bd 6942 d33c 6048 ccbd
000001b0: 5deb 473d 069d c33d 581e b2bd daad 183e
000001c0: 37b6 a3bc 80d8 d1bd 0f5b fcbc d0b6 e2bb
000001d0: c41c 5dbd c64d d33c 540a 2ebe 194d dc3d
000001e0: 8086 acbd f279 3c3e 731c 833b d1d5 71bc
000001f0: 9be8 8d3c bb10 09bc 4e4a 8d3a ab8f e4bd
00000200: 726b 9bbd 5314 63bb 7b29 babb 6298 a4bd
00000210: 9052 bfbd 1d1f ab3c 3614 55bd 7881 bc3d
00000220: 57b3 3fbe 5907 70bc 7e7f d7bd e26f 773d
00000230: fb44 8a3e 0c73 d8bd eeab 16bd b9a9 a53c
00000240: 8a30 aa3d 5784 72bd e497 e7bb 7905 133d
00000250: e518 9e3d 056f 9e3d 90fa 333c c23b 23bd
00000260: 495c 45be 08ce 6e3d 873c 40bc ec24 13be
00000270: 3ffe 25be ee79 b23c ee6e 49bd 285b 5dbd
00000280: 7900 19bd 04fd 18be dab0 b7bc 8fff 2fbd
00000290: d662 f8bc a530 1b3e 974c 7ebd a51a d4bb
000002a0: a214 063e 22af 143e 0aa9 713d 4dbe 00be
000002b0: 8b4b 1ebd b21e 553e bedb c23d 30f4 023e
000002c0: 890d 783d d247 5b3d c8bf 263e 2f16 87bd
000002d0: e57f 773d f7e9 223d 9722 423e 1cd1 3b3d
000002e0: 08da 083d 84db 343d ec77 08be 0679 073d
000002f0: 31b1 f2bd cfed bfbb 2c25 c53d 1a8f 10bd
00000300: c5b8 56be 7009 83bd e2a0 06be 3932 473d
00000310: 34b6 edbc c6db 03bc d96b 143e f3a6 263d
00000320: b61a 27bd 4ba2 dcbd 3bfe e23d bfe0 973d
00000330: 5a5b 45bd a9ce 5bbd 6ce7 39bd 76d2 edbc
00000340: d6d9 0bbe bc70 1fbd 7459 51bd a75c 1c3d
00000350: 1cad bbbc 3b7f da3d 04ee a0bd 8946 a53d
00000360: d127 58bd 2b19 d7bc 40fa 833d ab20 803c
00000370: 7826 d03d 8559 813d f4bc 4cbe 0b13 6ebd
00000380: 9be6 aebc 687e f03c 1929 a3bc aa5b c63c
00000390: 1c12 4f3e 6449 523e 2596 dc3d 468a 483d
000003a0: f79a a4bd 304b fdbc 6d51 47be fad5 1b3d
000003b0: 8c04 60bd 11f9 b8bd 5a46 cebc 513c d9bc
000003c0: d1ef a5bd 5c10 cdba 8489 743e 0c86 20be
000003d0: 37bd 6fbd 14f8 c03c 8bde ecbd f3ae 37bb
000003e0: cd27 c7bd f1cf d2bd 67cd f33c e16d 7dbd
000003f0: 4c5d 74bb 8ca6 41bd ec14 06be a005 3e3c
0.017938398 0.08602261 0.20598069 -0.021407345 -0.00033704675 0.080943376 0.04047801 0.046490084
-0.06814738 0.09950182 0.06442898 -0.002443498 0.012772606 -0.04045961 -0.029034356 -0.0046166065
0.00688645 -0.042050276 0.174077 0.015270231 -0.066928394 -0.0009083124 0.017452626 -0.07864693
-0.018822959 -0.17795989 0.058930848 -0.069975145 0.13230287 0.043307602 0.020676382 0.1065508
0.05756315 -0.110989615 -0.17333171 0.020017492 0.09739586 -0.0030344522 -0.14382274 0.07730765
0.07153051 -0.062342003 0.11377072 0.09953805 0.054138258 -0.13077982 0.050946083 -0.03951062
0.13036302 -0.14524443 0.23740342 0.005382164 -0.12870108 0.2698858 -0.07435069 0.1233659
0.028791027 -0.1902731 0.07598546 0.11054693 0.11643177 -0.07540338 0.08361657 -0.10400646
-0.079510614 0.052472964 -0.11503628 0.23067138 -0.013052655 -0.1345478 -0.047914073 0.18641254
-0.014902678 -0.00408117 -0.02816041 -0.12851746 -0.013751547 0.1053708 0.14954212 0.08154464
-0.14571013 0.0041326303 -0.048267074 -0.01545289 -0.0003994076 0.22858402 0.11666479 -0.13228339
-0.01771101 0.06381048 -0.08549525 -0.005259982 -0.14224547 -0.1158444 0.08462492 -0.14864135
-0.043953586 -0.113322064 0.00032662414 0.040105604 -0.111514166 0.18147391 -0.058448933 -0.16021267
0.06497015 -0.04931472 0.025788503 -0.09974742 0.048808444 0.09551434 -0.08697194 0.14910069
-0.019984348 -0.10246372 -0.030805139 -0.0069187656 -0.05398251 0.025793921 -0.16996127 0.10756893
-0.08424091 0.18405893 0.004001194 -0.01476045 0.017322829 -0.008365805 0.0010779591 -0.11160215
-0.07588853 -0.0034649565 -0.0056812144 -0.08036877 -0.093419194 0.02088886 -0.052021228 0.09204382
-0.18720756 -0.014650189 -0.10522364 0.060409434 0.27005753 -0.105688184 -0.03678506 0.020222532
0.08310039 -0.05920824 -0.0070676673 0.03589389 0.07719592 0.07736019 0.010985032 -0.03985191
-0.19273485 0.058301955 -0.011733181 -0.14369553 -0.16210268 0.021786656 -0.049178056 -0.05404201
-0.037353966 -0.14940268 -0.022423197 -0.04296833 -0.030320566 0.15155275 -0.06208476 -0.006472903
0.13093808 0.14519933 0.0589991 -0.12572594 -0.038646262 0.2081249 0.09514569 0.12788463
0.060559783 0.05353529 0.16284096 -0.06596028 0.060424704 0.039773908 0.18958507 0.04585372
0.033411056 0.04415466 -0.13326997 0.0330744 -0.11850203 -0.0058572064 0.096262306 -0.035292722
-0.20968921 -0.063982844 -0.1314731 0.04863188 -0.029017545 -0.008048004 0.14494266 0.04068656
-0.040796958 -0.107731424 0.11083647 0.07415914 -0.048182823 -0.053663883 -0.045386717 -0.02903102
-0.13657317 -0.03892587 -0.0511107 0.038174298 -0.022909693 0.106687985 -0.07857898 0.08070094
-0.052772347 -0.026257118 0.06444216 0.015640577 0.10163587 0.063159026 -0.19993955 -0.05812363
-0.021350196 0.02935715 -0.019917058 0.02421363 0.20221752 0.20535809 0.10770825 0.048959993
-0.0803737 -0.030919641 -0.19464655 0.03804586 -0.054691836 -0.09031881 -0.02518003 -0.026518019
-0.08102382 -0.0015645134 0.23880583 -0.15676135 -0.05853006 0.023555793 -0.11565884 -0.0028027862
-0.09724388 -0.10293568 0.02976103 -0.061872367 -0.0037287055 -0.047277972 -0.13093919 0.011598021

b_play_habitat f4 [4]
00000000: 8d9b 2c3c f762 c83b 7e63 373a a321 8ebc
0.010535133 0.006115313 0.00069957215 -0.017350024

W_gain_food_primary f4 [192, 7]
00000000: dc6a 053b 6008 0b3e f572 d5bd 7b94 a83c
00000010: 4bbc 3b3d de4f 353d 6cb5 7bbd b86b 0bbe
00000020: 9f6b 8c3c 7639 09bd 2fbc 693e 207c 58be
00000030: 237b 7dbe 8f0a 11be 598d 3b3b 3cb9 403c
00000040: 18b4 9b3c 90b6 5fbe b0de 8a3c 4aa3 5ebe
00000050: 06b5 70bc 89b4 603d d2aa cfbd 6075 cb3b
00000060: 088e 513b 1a72 58be 6386 10be c8f3 c73c
00000070: d35d a93d a317 f43c ffcd 343c a1cc 97bd
00000080: 7393 7abd a807 11ba 2585 fdbd 25a3 08be
00000090: 000a 0c3d 5387 283d d56f 20be 70cc e6bd
000000a0: 3180 c0bd 646e 1dbe 5621 873e f562 413d
000000b0: cbb3 a23c 7a81 183e 4bdd 0fbd e7ae bfbd
000000c0: 4d38 b1bd 64f6 df3b f418 fa3c 7983 75bd
000000d0: e43a 213e ba2c 723d b215 043e b4ba 2e3d
000000e0: 83d9 65bc 6240 7fbc f9db 7fbd a713 743d
000000f0: a781 683e 4705 5fbd d937 3bbe 377c ab3c
00000100: bd60 923d 3aca 3d3c 8eb1 eebd b3c4 3bbe
00000110: ff81 5fbe ecf5 92bc f5a4 c7bd 0965 0bbd
00000120: e71a cf3d 5464 513d b8b6 963b f70c 443d
00000130: ee29 f3bd 9956 b13d 6db0 58bc 780c 5e3d
00000140: 9c77 5ebd bbbe 7fbc 5fd2 993c 9f9a 56be
00000150: cdd3 633d 6fda 473d 86ff 0e3e a506 08bd
00000160: c145 463e 5f11 723d df4e 91bd b01d 263d
00000170: 6bed cdbd ce00 c5bb 212b 0cbe c415 143e
00000180: 2991 a73d 71a3 2d3e 7063 d9bd 03e8 43bd
00000190: da32 efbd 324a 95bd 4504 b1bd c493 96bd
000001a0: f670 4d3d fb14 45bc 0def 32be 1b7a 013e
000001b0: bda4 94bc 0b3d d0bd 8018 4ebc 606c 24bc
000001c0: b6f4 0d3e 3e8f 0bbd 0b3d d83d 0df2 b7bd
000001d0: 4e10 0e3d 7aca 263d 2e49 9d3c 40dc 323c
000001e0: c14c c5bc 982e b63b 2820 023e 0b81 cf3c
000001f0: 0ec3 ac3c cf49 073e 61fe 0d3e 2900 0bbe
00000200: c664 263e a4ba 22bc c292 6f3c 0b4e 85bc
00000210: 35b1 173d 8f55 4a3e 3862 33be f644 22bd
00000220: 91c0 323e e81a be3c 3f01 823d f457 953d
00000230: 44aa 18be d0bb a0bd 85e6 19be 2410 9c3d
00000240: 4478 21bd f02f 693d 041b 493b e335 d7bd
00000250: 0bb5 b4bd 9aa2 23bd 133c 6abe 98a9 7f3d
00000260: d7a4 f93a a05a df3c 4e95 163e 5ac7 1a3d
00000270: 043c b9bb 9a89 77bd 9d3a 1bbd 7551 1ebe
00000280: 6520 413d 2924 b2be 3790 d33c 4d19 c6bd
00000290: 1b7b 27bc 26f6 4b3d 04fb fcbb 1700 663d
000002a0: 0f87 c73d 61ab f03d 357f 033d e8f6 0fbe
000002b0: 2ffb a33d 072e 59be 74df f53d 7277 ce3d
000002c0: f93f ed3d fdea bebc 0f17 25be f508 41bd
000002d0: c639 e2bd c7d9 023e c389 65bd 312f 2b3e
000002e0: db39 6c3e f697 8bbd 8a15 ad3d da02 083b
000002f0: a3f2 113c df3b 94be 716f 36bd a17e ccbc
00000300: c9bc 403d e155 f23c 9e42 693d bac8 05be
00000310: 892b 0c3d c624 f6bc 3af8 a8bc 5541 0a3e
00000320: 66fd 873d 5ade d6bc 8fbe 87bd 7bcb 9fbd
00000330: 001d 803d 31c0 ed3d 2bba 233e b9e2 133e
00000340: 35e3 583c d334 8bbd aadf 863d aa37 78bd
00000350: 5e8a 73bd 0822 3e3d 9718 0abe 44d8 c23d
00000360: a3d5 733d 6aec 963d fccc 7abe 7f00 a43c
00000370: 5895 73bc 0b63 0bbe e92a 0ebe cd08 17bb
00000380: 885b 2d3e 074e 29bd de60 083d d5df 47bd
00000390: 38ec c6bd 8b20 f33d 5bf3 db3a 15cc 07be
000003a0: 8ac5 553d ebc7 a8bc 4909 553d 7250 82bd
000003b0: 6bad 583d 7337 0c3e 4072 cebd bf13 5abd
000003c0: ace8 dd3d a0d2 b8bc d693 91bd e305 4c3d
000003d0: 495e fbbc 73bf 73bc 760b 69bd c108 a1bc
000003e0: fc93 5f3d 8b7c f2bb 357b 8b3d 6614 88bd
000003f0: 5965 9c3d b3b7 5fbd 26a1 603d 129d 59bc
0.0020357883 0.13577414 -0.10422317 0.020578614 0.045833867 0.04426562 -0.061452314 -0.1361531
0.017141161 -0.033502065 0.22825693 -0.211411 -0.24754004 -0.14164184 0.0028618185 0.011762913
0.019006774 -0.21846986 0.016951889 -0.21741977 -0.014691597 0.05485967 -0.10140003 0.0062090605
0.0031975526 -0.21137276 -0.14113764 0.024408236 0.08269849 0.029796427 0.011035441 -0.07412077
-0.061175775 -0.0005532452 -0.12378911 -0.13343485 0.034189224 0.04114468 -0.1566766 -0.11269462
-0.093994506 -0.15374142 0.2639262 0.047213513 0.019861123 0.14893141 -0.03512315 -0.09359532
-0.08653317 0.006834792 0.030529477 -0.059939835 0.15745121 0.059124686 0.12898901 0.042658523
-0.01402891 -0.015579315 -0.06246564 0.059589054 0.22705708 -0.054448392 -0.18283023 0.020933254
0.071473576 0.011583859 -0.116549596 -0.18336754 -0.21826933 -0.01793953 -0.0974826 -0.0340319
0.10112553 0.05112107 0.0045994185 0.047863927 -0.11873232 0.08659095 -0.013225657 0.05421111
-0.054313287 -0.0156094385 0.01877707 -0.20957421 0.05562191 0.0487923 0.13964662 -0.03320946
0.19362547 0.059098598 -0.070951216 0.040555656 -0.100550495 -0.006012059 -0.13688327 0.14461428
0.08181984 0.16956879 -0.10614669 -0.047828685 -0.11679621 -0.07289542 -0.086433925 -0.07352403
0.050156556 -0.012028928 -0.17474003 0.12644236 -0.01814496 -0.10167893 -0.012579083 -0.010035604
0.13862881 -0.034072153 0.10558518 -0.089817144 0.034683518 0.04072044 0.019199934 0.0109167695
-0.02408445 0.0055597536 0.12707579 0.025330087 0.021089103 0.1321175 0.13866569 -0.1357428
0.1624938 -0.009932194 0.014622392 -0.016272565 0.037034232 0.197592 -0.17517936 -0.039616548
0.17456271 0.02320619 0.06347894 0.07292166 -0.14908701 -0.078483224 -0.15029342 0.07620266
-0.039421335 0.056930482 0.0030686269 -0.10508325 -0.08823594 -0.03994999 -0.22874479 0.062417597
0.0019046318 0.027264893 0.14705393 0.037787773 -0.0056529064 -0.06043396 -0.037897695 -0.15460761
0.047150034 -0.34793213 0.025825603 -0.096727945 -0.010222222 0.049795292 -0.007720353 0.05615243
0.09742557 0.11751438 0.032103736 -0.14059031 0.08006894 -0.21208964 0.12005511 0.10081376
0.115844674 -0.02330541 -0.16122077 -0.047127683 -0.11046176 0.12778388 -0.056039583 0.16717221
0.23068945 -0.068160936 0.08451374 0.0020753653 0.008907947 -0.28951928 -0.044539873 -0.024962725
0.04705504 0.029581966 0.056948297 -0.13064852 0.034221206 -0.030046832 -0.020626176 0.13501485
0.06640129 -0.026229072 -0.06628143 -0.07802483 0.06255531 0.11608923 0.15988986 0.14441957
0.013237764 -0.06797185 0.06585629 -0.06059996 -0.05945813 0.046419173 -0.13485943 0.09513906
0.05952991 0.07369311 -0.24492258 0.020019768 -0.014867149 -0.13612 -0.13883556 -0.0023046017
0.16929448 -0.04133418 0.033295505 -0.048797447 -0.09713024 0.118714415 0.00167809 -0.13261445
0.05219034 -0.02060314 0.05201081 -0.06363 0.05289976 0.13693027 -0.10080385 -0.053241488
0.10835394 -0.022561371 -0.071082756 0.0498103 -0.030684607 -0.014877188 -0.056895696 -0.019657495
0.05458449 -0.0074001006 0.06810609 -0.06644516 0.07636518 -0.05461855 0.054841183 -0.013282077

b_gain_food_primary f4 [7]
00000000: dc33 673b 1952 fdbb 4b2e a43b c1b3 9d3b
00000010: bef1 08bc 37d5 463c 5ff8 19bc
0.0035278713 -0.007730734 0.0050104014 0.004812688 -0.008358417 0.012135795 -0.009397595

W_draw_mode f4 [192, 4]
00000000: f752 56be 08a8 6d3b b323 72bd d943 643d
00000010: ad32 34bd 6cae aabd f8c7 88bd 64b5 98bc
00000020: be4e a0bc a572 cc3a 4a0b 42bc b172 113d
00000030: 5c50 bcbd 2b9b c43c c2b2 0c3d 376d d83c
00000040: 0de5 83bd a218 08be 2033 37bd 6705 5a3d
00000050: 69c8 b7bd 0483 a93d 262e c4bb 5f9f 6ebd
00000060: a16f 80bc d0b6 80bd fd64 f73c da7d 963d
00000070: 1a07 543c 7cc8 a5bd 1ba8 c73d cd25 9a3d
00000080: 31d9 92bd 9df7 c2bc 4c36 cf3c d254 1cbe
00000090: a857 e5bd 6b5c 49bd ca7a cf3d fd96 a7bd
000000a0: b068 c8b9 ae1a 9abd 4994 d43d 34df ecbd
000000b0: 4bec 00be 049e 5bbd 99de 50bc 3838 863b
000000c0: 8579 07bd 3497 77bc 29e4 7cbe de3f 9a3d
000000d0: 5419 74bd 22b9 92bd 5559 053d 360a ec3d
000000e0: 9a43 acbd fe9b c8bd 6944 afbd 418d 01be
000000f0: 8ada 903c bcbd c93c 335c c63c 181c afbc
00000100: d593 403d 5301 883e dacf 9ebb 1c53 0b3d
00000110: 2e79 863d 80cc 663d 7b89 ac3d 3d97 edbd
00000120: 237a 1b3e c62c 823d b4ea dbbc b403 33bd
00000130: 9558 20bc 860f 96bd 25ac 5c3c 49a4 043c
00000140: 0af4 70bc 3560 b63d 50bf 13bd cbb7 dd3d
00000150: 495c 4abe be04 353e cff3 a6bc e62d 04bd
00000160: 284c 20bd be69 723d eb22 8dbd c673 6fbc
00000170: 07ca 9f3d 83c0 15bd e896 fa3d b312 a03c
00000180: 6e1b 363e 95e8 4b3d 6c04 72bd ab52 6bbe
00000190: 6bfc 76bd ab75 1cbe c42a fb3d 1ee4 813e
000001a0: 9efa 1a3d d8ac 263e 95fd 293e 6d52 1e3e
000001b0: 5f15 a43d 37c9 42bd 2b80 f7b8 dffe bfbd
000001c0: 2d43 debc 75c3 1d3e c2a2 e63d 372d e3bd
000001d0: 8dec a3bd 4914 8b3d b2d6 96be 0aad cf3d
000001e0: dfa1 27be 6c2e 9ebc ddee b2bd a6e5 373e
000001f0: 5f60 6c3e 0cf7 df3d fa39 bb3d 40de 26bd
00000200: e053 0c3d d01e 813d 5df8 d63d 1dca 6bbd
00000210: 86ce bc3d b4b0 d2bc 0b22 203b a617 a4bd
00000220: 3a4c 01bd b02e d3bc a0fc f0bb fb1e aebd
00000230: cd09 e53d 9eaf 48be 9944 4a3d 62ed 1d3e
00000240: b754 b0bd 1ece 483c 3fb6 dd3d 1cfe 25bd
00000250: 4151 fc3d d892 6cbd 086d a2bc df35 b2bd
00000260: 2886 2a3c 1622 7abc 71c0 963d e366 503b
00000270: d7ed bfbd e61f 38bd 1423 aa3d 714a 113c
00000280: 818e 4b3e 0bf6 5d3d b75a d3bd 16b1 5dba
00000290: 49d0 1ebd 0f1a 7f3d 4283 03bd 22d7 ca3d
000002a0: 40ef 743d a4f5 f7bc 878a eb3d 7d85 67bd
000002b0: 6877 203e 8671 6a3c 61ce 603d 1f34 cabc
000002c0: 30b5 063e ba97 4f3e 071d 1a3b e105 17be
000002d0: 15d3 c4bc 81be 9ebd 68ea 5ebc fa2f 933d
000002e0: f63b 11bd aa0a ea3d 2cf6 8ebc 1e49 ea3d
000002f0: bdb0 033e af85 113e 0b2c f73d 4496 13bd
00000300: 47a2 eb3d 9ce0 a33d 23ee 5cbd 2e24 9fbc
00000310: a7f9 133e e7d3 bdbd 4226 02bd ad59 a3bc
00000320: 83a8 e23d 3242 5dbc a625 f63d 42cc 92bc
00000330: 14f3 bc3d 08b1 5b3d b35b 3f3e a8c9 9dbd
00000340: 6776 a3bd 6c64 213e e87f dc3d 6e5a 4bbd
00000350: 8629 33bd 2ce4 693c 6502 213e ccdf 02be
00000360: 0443 c83d 617c 5a3d 2798 fbbd ecd7 f23d
00000370: 1707 443d 3aa2 e23d 4f28 00be 9086 e63d
00000380: 4b0f 51bd 4f84 f63d b138 4f3e 6982 293e
00000390: 6600 5c3e f94c f9bc 0030 9c3c b15f 1dbe
000003a0: af0f 173e bc05 903d bfdb 803c 0e1c bcbb
000003b0: a190 fc3c ade5 bf3d 4c70 fe3d 977e a33d
000003c0: 742d 063d 7199 de3c a961 7abe 35d1 02bc
000003d0: 07ce a3bc 25eb fd3c 8e51 2bbe 2d2d f03d
000003e0: 82fc 3a3e e44f 71be 88ef eb3d d911 803d
000003f0: 1742 a33d d0e6 a83c f190 923c 286e 403e
-0.20930086 0.0036263485 -0.059116077 0.055728767 -0.04399364 -0.083340496 -0.06678766 -0.018641181
-0.019568797 0.0015598132 -0.011843512 0.03550977 -0.09195015 0.023999771 0.034350164 0.026419265
-0.06440172 -0.13290647 -0.04472649 0.05322781 -0.08973772 0.08276942 -0.0059869466 -0.058257457
-0.015678229 -0.06284869 0.030199522 0.07348223 0.012941146 -0.0809488 0.097488604 0.07526741
-0.07170332 -0.023799712 0.025294445 -0.15266731 -0.1119836 -0.049160402 0.10130842 -0.081830956
-0.0003822497 -0.0752462 0.10379846 -0.1156601 -0.12590139 -0.053617492 -0.012748384 0.0040960573
-0.033074874 -0.015111733 -0.24696411 0.07531713 -0.059594467 -0.071642175 0.032555897 0.11525385
-0.084113315 -0.09795378 -0.0855797 -0.1265154 0.017682333 0.024626605 0.024213886 -0.0213757
0.047015984 0.2656351 -0.004846555 0.034014806 0.06566082 0.05634737 0.0842466 -0.11601112
0.1518331 0.06356196 -0.026845314 -0.043704703 -0.009786745 -0.073271796 0.013468777 0.008095809
-0.014706621 0.08905069 -0.03607112 0.10826071 -0.19761766 0.1767759 -0.020379929 -0.032270335
-0.03913513 0.059182875 -0.06891426 -0.014615005 0.078022055 -0.036560547 0.12235814 0.019540166
0.17783901 0.049782354 -0.05908625 -0.22980754 -0.06029932 -0.15279262 0.12264016 0.25369352
0.037836663 0.16276872 0.1660064 0.1546113 0.08011889 -0.047555175 -0.00011801751 -0.09374785
-0.027131641 0.15406592 0.11261512 -0.110926084 -0.08004103 0.067909785 -0.29460675 0.101404265
-0.16370343 -0.019309245 -0.08736966 0.17958698 0.23083638 0.10935792 0.091419175 -0.040739298
0.034259677 0.06304705 0.1049659 -0.057565797 0.09219079 -0.025719024 0.0024434354 -0.08012323
-0.031566836 -0.025779098 -0.007354334 -0.08502003 0.1118351 -0.19598243 0.049381826 0.15422586
-0.08609908 0.012256173 0.10825776 -0.04052554 0.123201855 -0.05775723 -0.01982738 -0.08701681
0.010407962 -0.015266916 0.07360924 0.0031799607 -0.09371536 -0.044952296 0.08307472 0.008867846
0.1987858 0.054189723 -0.10320037 -0.0008456869 -0.038772855 0.06228071 -0.0321076 0.099043146
0.05979848 -0.030268498 0.11501031 -0.05652379 0.1567055 0.014309293 0.05488432 -0.024683056
0.13155055 0.20272723 0.0023515837 -0.14748336 -0.024026433 -0.077511795 -0.0136056915 0.07186885
-0.035457574 0.11427815 -0.017451368 0.11439727 0.12860389 0.14211152 0.120689474 -0.036031976
0.11505561 0.08001825 -0.053938042 -0.019426432 0.14450704 -0.09268933 -0.031774767 -0.019940222
0.11067297 -0.013504552 0.120188996 -0.017919663 0.09226051 0.053635627 0.18687324 -0.077044785
-0.07981568 0.15760964 0.10766584 -0.049646787 -0.04374077 0.014275592 0.1572357 -0.12780684
0.09778407 0.053341273 -0.1228488 0.1185759 0.047858324 0.110660985 -0.12515377 0.112561345
-0.051039975 0.120369546 0.2023647 0.16553654 0.21484527 -0.030432211 0.019065857 -0.15368535
0.14752077 0.07032344 0.015729783 -0.005740649 0.030830683 0.09369979 0.12423763 0.079831295
0.03275819 0.027172776 -0.24451317 -0.007984449 -0.019995702 0.030995915 -0.1673033 0.117273666
0.18260387 -0.23565632 0.11520296 0.06253404 0.0797159 0.020617872 0.01789138 0.18792021

b_draw_mode f4 [4]
00000000: b9ee a7bc c554 8f3d dd0c c6bc 8157 cfbc
-0.020499574 0.069985904 -0.024176056 -0.02531028

W_lay_eggs_bin f4 [192, 11]
00000000: b5b5 0a3e 5d0c 7e3d 8a89 fa3d dfeb 78bd
00000010: c896 c0bc 7a9b cbbd 09a5 73bc cecf 36bc
00000020: 051e 48bd 6880 633b d136 a33d 1bde bf3c
00000030: 60dc 113e 8ed5 a9bd 3d52 a4bd feda fbbd
00000040: 37b2 8b3d f7bc 71bc 11e9 06be 658c e4bd
00000050: cfd2 8dbd 6c32 85be 3862 103c e699 7a3e
00000060: fac1 a03d c3d3 b0bd efa5 11bd 3cb7 7fbd
00000070: 6d1b 0bbe 9c3c 043d f967 3e3e 755a 453d
00000080: d364 96bd a45e 803b a28b 26be 85ca 99bd
00000090: 5645 b7bd 31cf 753d 3379 a83d a802 d13a
000000a0: cc2f b63c e055 b4bc 2196 783d 993a 023c
000000b0: 1105 31be 2916 edbd 71e5 45bc f8c6 fdbd
000000c0: e405 d93d 6620 c1bd c0d0 4e3e 8e11 dbbd
000000d0: 96ed 20bd 9af8 c4bd d073 783c 23d3 06be
000000e0: 6d96 18be f6e0 aa3d 32e9 a3bb 0f3f 0bbd
000000f0: 54eb 033e a590 adbd a946 113b f4d9 29be
00000100: 5f5c 5e3d d4de 793d bcd5 803d a319 b4bd
00000110: f927 a7bd 0578 c2bd a6d7 143e f6ed 933c
00000120: 4fe5 47be 8610 6d3c 4d0a d6bd 6b50 b1bd
00000130: 06c2 36bd 36b0 c0bc 7852 16be 01fc 193e
00000140: 4bf5 8e3c 0594 233e 0be3 edbd 37fa b03b
00000150: ebfa 283b d5dc f1bd cb1e c33d 492b 6e3d
00000160: 4309 283e b1b6 eb3d 64aa 0abe 4dd0 ffb9
00000170: 45db a3bc 1f40 303e 162a 7d3c 80c8 bcbd
00000180: a1bd 033d 9d25 84bd 8fbb e6bd a73c d439
00000190: 6e56 f13d 796a b7bd 0d0b 23be 1f13 30be
000001a0: 34b3 63bc 1e47 78bd 6545 f5bb 1e83 343b
000001b0: 6fc4 06bc e537 3abe 44ac 433d 32ed 00be
000001c0: 13e4 10bd 54a2 f73d 8192 a0bd a510 98bd
000001d0: c1ff 8b3d e777 52bd 88a5 0abe 18d7 60bc
000001e0: 3167 ac3d 4b2b d03d 8892 38bd 3f6a e7bc
000001f0: 43b5 20be 1a03 21be 5842 8cbc 5e31 3a3c
00000200: 4983 92bd f8e3 1e3e 0c44 b43d 96ed 9b3d
00000210: 8a40 263d c7b2 bf3d 2469 91bd 4c14 b33c
00000220: 320d 06bc 3ca5 0d3e f5f8 a3bd af81 a83d
00000230: 4996 663e 1152 163e af7a df3c 5512 073e
00000240: df32 75bd e066 3bbd 1369 e53c 6d9b 893d
00000250: 8259 a83c f349 2a3e c357 f93b b219 f93d
00000260: abb0 253e a60f 63be 9d9e bebd 773c d7bd
00000270: 1b05 423d d26d 0b3d a022 593c ba62 0b3d
00000280: 6071 7bbe 1778 33bd f80a 5e3d d204 c1bd
00000290: 14ed 0a3e fa01 903d 57dc 473d 4512 a93c
000002a0: 0b0a eeba b1f2 153e 0c11 313e bac7 1b3e
000002b0: cb2c 6e3d 9ca8 12be 6815 993d a9ba 78bd
000002c0: a451 51bd 1319 1f3e 273b b83d da0b e5bc
000002d0: 09e6 45bd 97ba 173d 0d9f 2f3b 9e8a febc
000002e0: 1f81 8ebd 7f87 9cbc 814b 4cbd dc5b 39be
000002f0: 4934 aabd 9f66 fe3c a2c5 adbe c3c2 8abd
00000300: 5e2c d0bd 6628 e13d f012 b2bc 9d45 f03d
00000310: d0a1 0dbe 41bb cabd 1f01 9a3d 5d23 48bd
00000320: 128f 7f3b 3964 13bd 264e 35bd 06e3 1f3e
00000330: 1e3c 8dbd 967f 37be 0c7c 36bd 873d febd
00000340: 241e 103e 7139 ecbd b7e1 813e 0fff 8cbb
00000350: 8754 02be a981 47be b6be 89bc 7e75 0c3c
00000360: 3979 403d 50f6 d33a 75a5 febd 00e7 453e
00000370: d5b2 45be eb61 4c3e b97a efbd e403 91bd
00000380: 6841 883c 0207 81bd baad ef3d c49a df3d
00000390: eeeb 75bc 705e aabd 701a c9bd a1dd a5bd
000003a0: e3f9 80bc 7a2f 1abe e035 dbbd 6b97 85bd
000003b0: 1294 febd 1cc5 a8bd 3140 aabc dbfd 17bd
000003c0: 5a0a febc ebbb 6aba bcb4 1fbe 6c9e f03d
000003d0: 296d 8f3d ed87 f83d be67 0dbe 3d70 d6bd
000003e0: 1cf3 89be 04ca 2d3c c567 fb3c a714 77bc
000003f0: d422 363e 5757 84be bd4d 13be 3511 b73d
0.13545878 0.06202351 0.12233265 -0.06077182 -0.023509398 -0.09941764 -0.01487089 -0.011157943
-0.048856754 0.0034713987 0.0796944 0.023421338 0.14244223 -0.082926854 -0.08023498 -0.12297629
0.06821101 -0.014754525 -0.13174845 -0.11159591 -0.06924974 -0.2601503 0.00881248 0.2447277
0.07849498 -0.0863414 -0.035558637 -0.062430605 -0.13584681 0.032284364 0.1859435 0.04818197
-0.073434494 0.003917532 -0.16264203 -0.07509331 -0.08948772 0.060012046 0.08226242 0.0015946226
0.022239588 -0.022013605 0.06069005 0.007948541 -0.17287089 -0.11576492 -0.012078629 -0.12391466
0.10596827 -0.09430008 0.2019682 -0.10696708 -0.03928908 -0.096177295 0.015164331 -0.1316648
-0.14901133 0.08343689 -0.0050021643 -0.033995684 0.1288274 -0.084748544 0.002216736 -0.16587049
0.05428731 0.06100352 0.062907666 -0.08793952 -0.08161921 -0.09495548 0.14535388 0.018057805
-0.19521068 0.0144692715 -0.104511835 -0.08657917 -0.04461863 -0.023521524 -0.14679897 0.15037538
0.01745095 0.15974434 -0.11615571 0.0054009217 0.0025784324 -0.118096985 0.09527358 0.05814675
0.16409783 0.11509455 -0.13541561 -0.00048792586 -0.020002017 0.1721196 0.015451929 -0.0921793
0.032163266 -0.06452487 -0.11266243 0.0004048098 0.11784063 -0.08955855 -0.15922184 -0.17194794
-0.013897706 -0.060614698 -0.007485079 0.0027543972 -0.008225544 -0.18185385 0.047771707 -0.12590483
-0.03537376 0.120915085 -0.078404434 -0.0742505 0.068358906 -0.05138388 -0.13539708 -0.013723157
0.0841812 0.101645075 -0.045061618 -0.028248904 -0.15694146 -0.1572384 -0.017121479 0.011364309
-0.07153947 0.1551665 0.088020414 0.07613675 0.040588893 0.09360271 -0.07100132 0.021860264
-0.008181857 0.13832563 -0.08006469 0.0822786 0.22518267 0.14679743 0.02728018 0.13190587
-0.059862968 -0.045752406 0.028004205 0.06719098 0.020550493 0.16629772 0.007609339 0.12163104
0.16180675 -0.22173938 -0.09307597 -0.1050958 0.04736815 0.03404028 0.013252884 0.0340297
-0.24554968 -0.0438157 0.05420968 -0.094247475 0.13567 0.07031627 0.048794117 0.020638594
-0.0018160952 0.1464336 0.17291659 0.15212908 0.058148187 -0.14322132 0.07474786 -0.060724888
-0.05110325 0.15536909 0.089956574 -0.027959753 -0.04831508 0.03704318 0.0026797683 -0.031071957
-0.06958222 -0.019107578 -0.049876694 -0.18101448 -0.08310754 0.031054793 -0.33939844 -0.06775429
-0.10164712 0.109940335 -0.021737546 0.11732028 -0.13831258 -0.09898997 0.07519745 -0.04886185
0.0038995189 -0.03598425 -0.04426398 0.15613946 -0.06896232 -0.17919764 -0.044551894 -0.12414079
0.14073998 -0.115343936 0.2536752 -0.0043028663 -0.12727557 -0.19483055 -0.01681457 0.008572934
0.046990607 0.0016171429 -0.12433902 0.19326401 -0.193065 0.19959228 -0.11693329 -0.0708082
0.01663275 -0.06300165 0.117030576 0.10918191 -0.015009863 -0.08318794 -0.09819496 -0.08098913
-0.015744155 -0.15057173 -0.10703635 -0.06523021 -0.12430586 -0.08240721 -0.020782562 -0.03710733
-0.031010795 -0.00089543936 -0.15596288 0.117489666 0.070032425 0.12135301 -0.13809106 -0.104706265
-0.2694329 0.010607246 0.03068913 -0.0150806075 0.17786723 -0.25847885 -0.14385124 0.08938829

b_lay_eggs_bin f4 [11]
00000000: e866 e6ba 59f9 2cbb 06a4 be3c 1fba 1e3c
00000010: c642 ed38 7a1a b5bb 2769 12bb 6ff0 88bb
00000020: 13a2 9dbb e9e3 82bb c1ee 01bc
-0.0017578276 -0.002639374 0.023271572 0.009687929 0.00011313478 -0.005526838 -0.0022340508 -0.0041790525
-0.0048105805 -0.003994454 -0.0079304585

W_play_cost_bin f4 [192, 7]
00000000: c9e1 29bc 4c51 cb3d 9de7 053e ba9d af3c
00000010: 7d25 733d b431 d0bc 5938 7dbc 2ad8 193e
00000020: 2c00 64bd 7219 edbd d907 29bd cb54 1a3e
00000030: 06e6 91bd 5d06 d4bd c3e7 8ebd 7297 fa3d
00000040: 04e3 cdbd 2ac8 89be 2eb7 c8bd 1a66 c23c
00000050: 502e c33d 9255 d3bc 50d7 adbd 1929 9ab9
00000060: a5cd e8bd 60bf 593d db97 6abd bf7f e1bd
00000070: 9fde e5bc 329c 073e 5f77 87be 8c55 e0bc
00000080: 5acf aabc 7ac6 04be 427c c93d ea53 3e3d
00000090: 872d 41be 3156 fe3b 0418 e7bc 570f cd3d
000000a0: 9a17 a73d 02ee 9dbd 56e8 cf3d 4192 afbd
000000b0: 0049 0c3e fa9a 7a3d e9ba cf3d 2047 07be
000000c0: 2511 15be 4240 433e 4d1f babd 654a 9d3d
000000d0: 8b60 a4bd 862f 2c3a d4f0 8f3c c2ec 083e
000000e0: 2557 823c 1043 153e 1d04 22bd 399d 553e
000000f0: 7a7f 66bc 1738 213e cfab 013e 7ef4 843d
00000100: c975 52bd bef5 273e c92e 633e 6a96 f13d
00000110: 69e5 1e3c c5a5 a23c 2d8d 443e 42be e23d
00000120: 8df7 15be be4c 7e3c 2b5b fcbc 3738 673d
00000130: 7a5d 3d3e baf7 3c3e 0c50 6fbc 06b2 80bd
00000140: 8f52 263c 063e 943d 5089 123d 5cb1 a7be
00000150: fc32 cd3d a0df 0c3e ae86 20be f0fb 37be
00000160: 1c53 14be b25b 5b3c 244f d53d 3d54 d23d
00000170: b433 e0bd d627 adbd e51e b03d 1266 c73d
00000180: 71c7 823d 3aae 00be bce3 52bd 3435 633d
00000190: 63fb f7bd 2790 35bc b515 06be 2a16 203e
000001a0: 9887 cbbd bf2e bdbc 63d3 17be e265 9a3c
000001b0: 91ba c6bd df2c 6fbd 1d58 643e 8bd0 b3bb
000001c0: fe2d e5bd 785a debd fa8a 4f3d aefa 6fbc
000001d0: 4cce bcbd a246 56be 6bc3 0d3e c0c0 ea3d
000001e0: 35dd c53d 63dd debd 436b 44bc f126 d73c
000001f0: 6e34 ba3c 9531 6a3d 7e37 e8bc cb48 8e3c
00000200: bdef 033d 59a4 6abc 09d2 e4bd d9a8 893d
00000210: 7396 e8bd f047 2b3e 39ab a03d 25e9 5d3d
00000220: 9fa5 573d 3ca1 28bc 3511 753c 79d7 0abe
00000230: 3bd9 e73d ac45 063e 63b6 823c 6b52 aebd
00000240: 8114 4ebc c8b3 afbc 60c9 313d da40 0fbc
00000250: 508a 283e 7c5a 5f3c 3019 393e 6069 c3bd
00000260: f98f 253e 371b bc3d ee7b 90bd e43d 0ebe
00000270: ccad 9abd 9e35 42bd 3800 f2bb ebb7 383d
00000280: 5c77 483c 2098 49bd 65cd 743e dde5 ebbc
00000290: b3d4 983d 89cb b33d 9e45 8fbd 1520 c03d
000002a0: bf52 c8bd bd4a e13b c6c0 d5bd 37a4 6a3d
000002b0: 0e83 08bb e350 a73d 51f9 f23c b7e3 5c3d
000002c0: ce14 623e 218c 61bc ea22 be3a dc46 033d
000002d0: 5c75 6a3d 3a77 3bbd d3ec 0ebe 4cbb c93b
000002e0: dd84 e63d a46f a33d b275 c1bd b6ce 613a
000002f0: 1f51 8e3d 952b 833d af73 25be d35e 31be
00000300: 7b35 28bc 77b3 f53d e94f 21bd d457 05bd
00000310: 52d6 683d cd0d 173e 5b6d ce3d 7dc7 9dbd
00000320: bd61 213e 9ff7 16be b75f 28bd 4d34 e5bc
00000330: 27c5 21be 5fd4 1fbc 0fa6 b7bd c837 953b
00000340: 1b84 0ebe 6a6d 2bbe 42f6 943c e558 9c3d
00000350: dc7c 9ebd bc54 d7bd ff15 22bc cb58 c13e
00000360: 95cf 94bd b8a3 bf3c 0523 033d 4d35 e7bd
00000370: fc54 94bd 1c75 3c3e 8a4d ad3c 8b53 34be
00000380: 0b28 79bc dfa4 c33c c633 cc3d 02d5 3bbe
00000390: 8ffc c13d 0231 333b 8ef8 cc3d 1c5e e5bd
000003a0: f9b8 39bd ccdc 503d a3f3 4d3d 994d 1a3e
000003b0: b1ab d8bc 43d8 c7bc 6237 05be c2a4 95bd
000003c0: 8d41 2ebe 6e01 ff3d d6fd cc3d 57f7 f0ba
000003d0: 796b 25bc f0e1 7a3d 4e0a 373e 3178 4fbd
000003e0: eeeb f3bd b5a9 c7bd 93c9 293d d267 2ebe
000003f0: 4eb3 bc3d cc5c b3bd 18e9 dc3d 6443 0e3e
-0.010368773 0.099276155 0.13076635 0.021437515 0.059361923 -0.025414325 -0.015455329 0.15023866
-0.055664226 -0.11577119 -0.04126725 0.15071408 -0.071239516 -0.10352776 -0.06977799 0.12235917
-0.100530654 -0.26910526 -0.09800564 0.023730326 0.09530318 -0.025797639 -0.08488333 -0.0002940379
-0.113673486 0.053161025 -0.057273727 -0.11010694 -0.028060256 0.13243178 -0.2645826 -0.027384542
-0.020850826 -0.12966338 0.098381534 0.046466745 -0.18865024 0.0077617397 -0.028209694 0.100126915
0.081587985 -0.07711412 0.101517364 -0.085728176 0.13699722 0.061182953 0.10143072 -0.13210726
-0.14557321 0.19067481 -0.090880014 0.07680205 -0.080262266 0.0006568361 0.01757089 0.13371566
0.015910694 0.14576364 -0.039554704 0.20860757 -0.014068479 0.15744053 0.12663196 0.06491946
-0.05138186 0.16402337 0.22185816 0.11796267 0.00969825 0.019854436 0.1919448 0.11071445
-0.14645214 0.015521226 -0.030805191 0.056450095 0.1849269 0.18453875 -0.014606487 -0.06283955
0.010151519 0.072383925 0.035775483 -0.32752502 0.1001949 0.13757181 -0.15676376 -0.179672
-0.14484829 0.013388561 0.104154855 0.102699734 -0.109473616 -0.08454864 0.08599643 0.09736265
0.06385697 -0.12566462 -0.051486716 0.05547066 -0.12108495 -0.011081732 -0.13094218 0.15633455
-0.09937972 -0.02309358 -0.14826731 0.01884741 -0.097035535 -0.0583924 0.22299238 -0.0054875067
-0.11190413 -0.10857099 0.050669648 -0.014647169 -0.092190355 -0.20925382 0.13844077 0.114625454
0.096613325 -0.1088207 -0.011988464 0.026263686 0.022730079 0.05717619 -0.028346773 0.017368695
0.032211054 -0.01432141 -0.111728735 0.06721658 -0.11356821 0.1672666 0.07845158 0.054177422
0.052648183 -0.0102923475 0.014957716 -0.13558759 0.1132073 0.13112515 0.01595611 -0.08511814
-0.012578131 -0.021448031 0.043404937 -0.008743489 0.16459012 0.013632413 0.18076015 -0.09541583
0.16168202 0.09184878 -0.07054888 -0.13890797 -0.075526804 -0.047414415 -0.00738528 0.045097273
0.012235489 -0.049217343 0.23906477 -0.02879613 0.07462444 0.087790556 -0.069957 0.09381119
-0.097814076 0.0068753646 -0.10437159 0.057285514 -0.0020830068 0.08169725 0.029659899 0.053928103
0.22078249 -0.0137663195 0.0014506255 0.03205 0.05724083 -0.045768 -0.13957529 0.0061563607
0.112558104 0.07980278 -0.09446277 0.0008613871 0.06949066 0.06404797 -0.16157411 -0.17321329
-0.010266657 0.11997121 -0.03938285 -0.032554463 0.056845017 0.14751358 0.10079452 -0.07704065
0.1575994 -0.14742897 -0.041106906 -0.02797904 -0.15797864 -0.009755223 -0.0896722 0.004553769
-0.13917582 -0.16740957 0.018183831 0.07634143 -0.07738659 -0.10514209 -0.00989294 0.37763056
-0.07266156 0.023393497 0.03201582 -0.11289463 -0.07242772 0.18404049 0.021155138 -0.17609994
-0.015207301 0.023882328 0.099708125 -0.18342975 0.09472 0.0027342443 0.100083455 -0.111995906
-0.04534242 0.05099182 0.05028118 0.15068664 -0.026449056 -0.024395114 -0.13009408 -0.07306816
-0.17017193 0.124514446 0.10009353 -0.001838426 -0.010096424 0.061250627 0.17875025 -0.050651733
-0.119102344 -0.09749166 0.041452 -0.17031792 0.09213887 -0.08757934 0.107866466 0.13892895

b_play_cost_bin f4 [7]
00000000: 5461 a7bb 4481 cc3b 1b2c 283c 20e5 2d3c
00000010: 9400 03bc 55d7 d3bb e769 f7bb
-0.005108038 0.0062409956 0.010264422 0.01061371 -0.007995743 -0.0064648786 -0.0075504663
