reports/ml/auto_improve_factorized_phase3_smoke/iter_001/factorized_model.npz (npz, 38391 bytes, 17 tensors)

W1 f4 [48, 96]
000000 f0 21 8c 3e e8 0c 98 3e 1e 98 ce be 4f dd 51 bd
       0.27369642 0.29697347 -0.4035043 -0.051236447
000010 f1 56 43 be a5 ae 22 be f5 13 2e be df 62 10 be
       -0.19076134 -0.15886934 -0.169998 -0.14100216
000020 40 cd e1 be 5b c7 ef bd 5c 8b c5 bd 59 23 3b bd
       -0.44101906 -0.11707946 -0.09645721 -0.045688007
000030 24 5e 36 be 54 2a 89 bd b3 64 eb bd 05 7f c6 bd
       -0.1780935 -0.066975266 -0.11493816 -0.09692196
000040 61 8d 85 be 32 6c 43 be 79 10 57 be a4 b8 ae be
       -0.26084426 -0.19084242 -0.21002378 -0.34125245
000050 2f d6 78 3e b6 e6 54 bd a7 b1 44 3e 11 83 2b 3c
       0.24300455 -0.051977836 0.19208394 0.01046826
000060 a8 65 c3 3d 38 bd bd 3c 79 c8 2f bd b5 d0 a2 3d
       0.09540874 0.023161516 -0.042915795 0.07949964
000070 53 f2 f0 3c f8 57 7b 3e 52 b0 17 ba b0 85 01 3e
       0.029412424 0.24545276 -0.00057864666 0.12648654
000080 e2 23 0d bd 75 7b 99 be 62 e7 13 be 4d c5 92 3e
       -0.03445805 -0.29977003 -0.14443734 0.28666154
000090 e6 45 44 3e 92 19 45 3e f2 fa a1 3e ab d5 a2 3e
       0.19167289 0.19248036 0.3163677 0.3180364
0000a0 24 7a fb bc 85 7b ce bd f9 b2 c2 3d e7 e8 88 3d
       -0.03069789 -0.10082153 0.095067926 0.066850476
0000b0 b2 2b 45 be a5 aa fa 3c a2 66 12 3e 87 e4 20 3d
       -0.1925495 0.030598948 0.14296964 0.03928044
0000c0 de cd fc bd 12 63 3c 3e b5 4b 25 3e cc 12 04 3d
       -0.123439535 0.18397167 0.16142161 0.03224449
0000d0 fb 9f 8b 3e b1 66 05 be 08 44 02 3e 9c 6a 66 3e
       0.27270493 -0.13027455 0.12721264 0.22501606
0000e0 0b b5 2a bd d1 28 98 bd b2 eb 13 be 65 7f d5 3e
       -0.041676562 -0.0742966 -0.1444538 0.41698757
0000f0 96 e8 04 3e e6 c1 c1 3e ff 09 f1 3e c4 b8 59 3e
       0.1297935 0.37843245 0.4707794 0.21261889
000100 61 c0 99 bd b0 17 6d be 6c 4f a4 3e 88 9a ba 3d
       -0.075073965 -0.23153567 0.32091844 0.09111506
000110 40 44 17 bd 21 b6 4f 3d b1 c2 ee 3d 8f 1d 8b 3d
       -0.036930323 0.0507108 0.11658228 0.06792747
000120 d4 d0 44 be eb db 09 3d c9 7d 9a 3e c5 b9 e6 bd
       -0.19220287 0.033656996 0.3017409 -0.112659015
000130 7c b1 c0 3e 92 4a d7 3e 69 e2 b6 bd 50 4f 10 3f
       0.3763541 0.4204908 -0.08929903 0.5637102
000140 22 66 35 be de 83 a9 3e bd b7 b2 3d 55 94 9c 3e
       -0.17714742 0.3310842 0.087264515 0.30581918
000150 bc e7 88 be 28 24 a5 be b7 75 4c be 7c 11 09 bf
       -0.267393 -0.32254148 -0.1996678 -0.53542304
000160 f3 c1 a3 be 69 88 c1 3e 22 2e 2e be ad 21 c5 be
       -0.3198391 0.37799385 -0.17009786 -0.38502255
000170 20 f5 65 3d e9 d4 17 3e ab 09 ea 3c 42 83 d0 3d
       0.056141973 0.14827313 0.028569063 0.101812854
000180 bd 1f d3 bd c2 d0 b6 3e a3 a9 4e 3e 08 cf c7 3e
       -0.10308788 0.35706145 0.20181899 0.3902514
000190 d8 21 8a 3d a4 3c d0 3d 51 b3 59 3e 90 55 95 3d
       0.067447364 0.10167816 0.2125981 0.072917104
0001a0 9f 5e 3b 3e 36 8a 9e 3c 5f 6e 13 bd 9e c0 ae be
       0.18297814 0.019353013 -0.03599393 -0.3413133
0001b0 c0 3d 45 3d df eb 4f 3e cf d9 7c 3e 1a 70 c2 3d
       0.048154593 0.20304821 0.24692462 0.09494038
0001c0 62 ad c1 be d9 79 4a 3d 35 43 a3 3d a2 33 01 bd
       -0.37827593 0.04943261 0.07971803 -0.03154338
0001d0 03 23 e5 3e 25 ed eb 3b c9 b7 2c 3c 92 a0 4d 3e
       0.44753274 0.0071999007 0.010541865 0.20080784
0001e0 d1 2a 94 3d 2b 4c 00 bd a7 08 68 3e af b4 7e be
       0.07234729 -0.03132264 0.2265955 -0.24873613
0001f0 68 6a 2c be a8 f6 05 3f 92 30 e2 3d ee a7 2f bd
       -0.16837466 0.5232949 0.1104442 -0.04288476
000200 2b 06 17 be 8b 37 9a be 7d 1c 21 be 21 c6 55 3e
       -0.14748447 -0.301205 -0.15733524 0.20876361
000210 83 7f 38 ba 6e cb 80 be f2 58 24 3e 06 1e da 3e
       -0.00070380437 -0.25155205 0.16049555 0.4260103
000220 e4 39 3d be 68 88 28 3e 05 7d a8 3e b2 88 28 3e
       -0.18479115 0.16458285 0.32907882 0.16458395
000230 85 f7 32 bd 96 77 05 3e 5a f7 85 3e 65 82 fc bd
       -0.043693084 0.130339 0.26165277 -0.12329558
000240 8a 5f a3 3a 4c c4 1e 3d 72 e7 1e 3e e5 48 54 be
       0.0012464386 0.038761422 0.15517977 -0.20730932
000250 59 3c c3 3e c5 67 21 be d4 09 f2 3e 43 c7 4d be
       0.3813198 -0.15762241 0.47273123 -0.20095544
000260 6f 67 5a 3e ea 2c b6 be e3 d6 6e 3e ea 24 36 3d
       0.2132852 -0.35581142 0.2332416 0.044468798
000270 6a 85 f0 be dd 30 61 3e 92 3c 49 be b0 dc 7b be
       -0.46976787 0.21991296 -0.19652012 -0.24595904
000280 b4 cd 87 be db 23 1a 3e 0f ce 2f be 99 75 e1 be
       -0.26524127 0.1505274 -0.17168449 -0.44035032
000290 b9 a0 ed 3e 45 09 53 3e cf 85 ca 3d 0b 64 94 3e
       0.46411684 0.20609005 0.09888803 0.28982577
0002a0 d9 c3 85 be 2c 56 33 3d 3e d0 66 bc 62 5a c1 bc
       -0.26125982 0.04378335 -0.014087735 -0.023602668
0002b0 dd ab 27 bd a1 44 03 be b1 ae 8d 3d 10 ee 1b be
       -0.040935386 -0.12819149 0.06918085 -0.15227532
0002c0 8c 21 be be ef b8 06 be 89 1e 13 3e 6f c3 3c be
       -0.3713497 -0.13156484 0.14367117 -0.18433927
0002d0 64 f8 b4 3e 15 cc cd be 81 1a 84 3e af 7d 79 be
       0.35345757 -0.40194765 0.2580147 -0.2436435
0002e0 61 73 d8 3e 9e 3f 53 be b8 11 c4 3d 99 de 73 3d
       0.42275527 -0.20629737 0.09573692 0.059538458
0002f0 c0 e3 04 be 9d 28 0e be 20 2f 1e 3e 07 cb 71 3e
       -0.12977505 -0.1388268 0.15447664 0.23612605
000300 35 4b c2 bd b9 92 29 be a6 7e 36 3e b0 46 7a 3d
       -0.09487001 -0.16559877 0.1782175 0.06110257
000310 da 97 18 bf 2d 9b 03 3f 11 41 58 bc 10 48 ae 3e
       -0.5960671 0.51408654 -0.013199107 0.34039354
000320 cf c4 c1 3d 6e ea 1c 3d cf 75 ad 3e 1a 7b 30 3d
       0.094613664 0.038309507 0.33878943 0.04308615
000330 74 3a 0c be 46 5b 89 3d dd f1 8e 3e 84 05 19 be
       -0.13694173 0.06706862 0.27918902 -0.1494351
000340 6b b9 c7 3d a6 cd 9f bc 87 79 e8 bd ab 30 52 be
       0.097521625 -0.01950724 -0.113513045 -0.20526378
000350 85 10 60 3d b3 96 01 3e e7 9f 0f be 0f a4 60 bc
       0.054703254 0.12655143 -0.14025842 -0.01371099
000360 cb a6 06 3d 8c c7 bd bd a0 cb 0e 3d 0a d1 8f 3d
       0.03287391 -0.09266576 0.03486216 0.07022293
000370 af 09 a9 bd d5 ca bf 3d 71 19 8e 3e f6 e1 83 be
       -0.082538 0.09364859 0.27753785 -0.25758332
000380 76 6d 1e 3d d3 73 7d be d8 b2 d7 3d d4 ae 29 3e
       0.03867861 -0.24751215 0.105321586 0.16570598
000390 90 4e 5e 3d 2f 56 ec 3d c4 5e 86 3e 95 65 3e 3d
       0.05427414 0.11539876 0.26244175 0.046483595
0003a0 21 f5 f9 3c a6 ed 98 bd 5f 8f 96 3d 39 b6 11 bd
       0.030512394 -0.07467203 0.073515646 -0.03557417
0003b0 0a 8d 26 3e e3 54 a8 be 23 c1 34 3e 6b ea 22 be
       0.1626474 -0.32877263 0.17651801 -0.15909736
0003c0 2f 62 25 3c a5 be fc bd e3 27 02 be 4d 27 17 3e
       0.01009421 -0.1234105 -0.12710528 0.14761086
0003d0 6a 06 3e be 40 1b 99 3e 96 f3 02 3e 21 63 7e 3e
       -0.18557134 0.29903603 0.12788233 0.24842502
0003e0 47 71 b3 bd b9 1c d3 be 7f 35 f3 3d 76 74 69 be
       -0.0876184 -0.4123285 0.11875438 -0.22798333
0003f0 13 1c 77 3e 49 80 c5 be 56 0e d9 3d 68 a8 18 be
       0.24131803 -0.38574436 0.105984375 -0.14907992

b1 f4 [96]
000000 02 b1 88 b7 4d ed a0 b9 c7 19 b0 37 1e ae a4 37
       -1.6294889e-05 -0.0003069438 2.0992838e-05 1.9631403e-05
000010 1b 12 cb b7 41 45 b4 b8 3e 19 42 b8 00 00 00 00
       -2.4207917e-05 -8.5959684e-05 -4.6276713e-05 0.0
000020 6b db 41 b8 00 00 00 00 83 43 f1 39 f6 1e 8b b9
       -4.6219135e-05 0.0 0.00046017402 -0.00026535214
000030 32 f1 dd b7 b9 65 ff b6 00 00 00 00 3c 17 50 37
       -2.6457568e-05 -7.6114343e-06 0.0 1.2403176e-05
000040 00 00 00 00 db 08 80 39 00 00 00 00 f0 dd 2c 39
       0.0 0.0002442066 0.0 0.00016485876
000050 7e cc 56 38 1e 6e a0 b8 24 75 cc 35 8e 3a a9 39
       5.1212024e-05 -7.6499055e-05 1.5233277e-06 0.00032277819
000060 00 00 00 00 42 13 b2 b8 9c 2d 49 38 1c be cc 36
       0.0 -8.4912885e-05 4.796461e-05 6.1018054e-06
000070 1a 32 49 b9 b7 39 80 b9 6c d5 f3 38 67 81 8c 37
       -0.00019187518 -0.00024457063 0.00011626896 1.6749558e-05
000080 dc 69 40 b9 00 00 00 00 2a 92 91 36 b2 4c 24 ba
       -0.00018349983 0.0 4.3383525e-06 -0.0006267532
000090 84 c1 96 b8 e4 ee 75 b7 46 20 9e 39 7e fb a5 37
       -7.1886025e-05 -1.4658759e-05 0.00030160154 1.9786643e-05
0000a0 08 51 e1 b8 49 16 05 b9 7c 7d 00 39 b3 8a 6a 39
       -0.00010743929 -0.0001269217 0.00012253778 0.00022367648
0000b0 9a c3 8b b9 74 32 88 b6 8c a7 ed 37 31 c3 3a 37
       -0.0002665788 -4.0589894e-06 2.8330622e-05 1.11319105e-05
0000c0 02 80 36 37 00 00 00 00 00 00 00 00 9f b5 af b7
       1.08778495e-05 0.0 0.0 -2.09462e-05
0000d0 4e 2c 23 39 b8 79 94 b9 d2 16 45 36 62 c0 a5 b9
       0.00015561396 -0.00028319447 2.936857e-06 -0.0003161459
0000e0 a4 ee 85 b9 c8 41 29 38 31 8f 81 39 a2 98 e4 b8
       -0.00025545538 4.0354003e-05 0.00024711483 -0.00010900317
0000f0 43 02 7f b9 70 8e 80 39 e4 03 4b b9 e4 30 10 35
       -0.00024319538 0.00024520187 -0.00019361038 5.3715326e-07
000100 40 72 99 b9 6f 37 7e 38 44 52 c0 b7 6c a5 df b6
       -0.00029267557 6.0609946e-05 -2.2926492e-05 -6.6651755e-06
000110 33 4b 12 b9 38 1e cb b8 56 1e ae 38 94 68 b0 b8
       -0.00013951659 -9.685423e-05 8.302617e-05 -8.411813e-05
000120 90 02 60 b9 cd dd 30 b8 c6 0d 33 b8 44 7f a8 37
       -0.0002136326 -4.2168238e-05 -4.2689753e-05 2.0086423e-05
000130 00 00 00 00 38 f6 26 39 d0 ca 7c 34 62 b4 c0 b7
       0.0 0.00015922717 2.3543112e-07 -2.297218e-05
000140 e4 ae 4b 39 b0 e7 c4 b8 63 13 a0 39 72 ca 24 b9
       0.0001942474 -9.3891635e-05 0.00030532022 -0.00015715676
000150 34 ac 3e b9 7d 2e e6 34 59 20 cc b7 90 8f 91 38
       -0.00018183963 4.2874663e-07 -2.4333758e-05 6.9408794e-05
000160 a2 4d 91 38 4a 3e 5d 39 65 70 b3 b9 31 d8 91 37
       6.928599e-05 0.00021099407 -0.0003422528 1.7386019e-05
000170 48 f9 a0 b7 58 58 fa 35 00 00 00 00 ed a0 34 39
       -1.9189567e-05 1.8652163e-06 0.0 0.00017226087

W_action_type f4 [96, 4]
000000 87 de a9 3d e4 c7 dd 3c 29 56 ea 3c 32 d6 15 3e
       0.08294397 0.027072854 0.028605537 0.1463249
000010 c9 a6 cc 3d 4e 4f b7 bc 92 ad 26 3e a1 14 a2 bd
       0.09992749 -0.022376683 0.1627715 -0.07914091
000020 c1 fa 20 be 5e 5a 2d 3e 83 ef 8b bb 53 b5 0b 3d
       -0.15720655 0.16929004 -0.0042704954 0.03410847
000030 14 94 4a bb 20 77 e2 bd 19 a5 15 bd 2e 69 59 3e
       -0.0030911015 -0.110578775 -0.036534403 0.21231529
000040 2c 47 11 3d a4 ed 57 3e d3 88 3c 3c 84 e1 a2 3c
       0.035468265 0.21086746 0.011507231 0.019882925
000050 a9 44 e6 3d 0b ba 19 3e 62 68 5e 3d 03 6d ad bd
       0.11243565 0.15012376 0.054298766 -0.08468058
000060 c5 d3 31 be 7c 3b 1f be 77 81 04 3e 38 79 f0 bd
       -0.1736594 -0.15550035 0.12940012 -0.11741871
000070 f2 24 0c be 8f be 3d 3c 25 7d cf bd 24 be 12 be
       -0.13685969 0.011581077 -0.10131291 -0.14330345
000080 c0 2f ec bd 45 37 51 3c 59 93 da bd ac 39 04 3f
       -0.11532545 0.012769525 -0.106726356 0.516505
000090 62 5e 77 3e a6 94 56 3d a8 4f 91 bd 48 9d e4 bd
       0.24157098 0.052387856 -0.07095271 -0.111628115
0000a0 3a ab 33 be 88 83 35 be 17 01 43 bd 2b ff 76 3e
       -0.17545786 -0.17725956 -0.04760846 0.24120776
0000b0 7e 9a 9f 3d 2c 89 10 bd 14 12 9f 3c 62 e9 aa bd
       0.07793139 -0.035287067 0.0194178 -0.083452955
0000c0 8d 88 6b 3d e3 81 3b 3d a7 b8 36 bd 73 ab 91 bd
       0.05750327 0.045778167 -0.044609692 -0.071127795
0000d0 fb 92 1d bd 71 b7 12 3d 11 00 d5 3d 9e 13 8e 3c
       -0.03847025 0.035819475 0.10400403 0.017343339
0000e0 d5 80 8d 3d 2a 12 84 be 78 4c c5 bd 2d 7c c5 3c
       0.069093384 -0.25795108 -0.09633726 0.024107063
0000f0 16 89 8e 3e fb f7 5e bd a8 82 c3 3c 20 f1 05 3e
       0.27838963 -0.05443571 0.023866013 0.13080263
000100 60 9b c4 3c ed 54 f7 3d d0 59 8d bd c6 02 4f 3d
       0.02399987 0.12076745 -0.06901896 0.050539754
000110 4d 8a 2f 3e 4e f6 93 3d d2 dd 08 be 1a c2 98 3e
       0.17142601 0.07224713 -0.13365868 0.29835588
000120 cc b3 a6 bd 87 80 3b bd 6e a3 72 3e da e6 3f be
       -0.08139762 -0.04577687 0.23695156 -0.18740407
000130 13 14 c3 bc 3d 67 8d 3d c9 ca 00 be 59 13 39 bd
       -0.023813283 0.06904457 -0.12577356 -0.045184467
000140 f1 1f 97 bd db b5 ab 3d c3 36 73 be f9 d8 51 be
       -0.07379139 0.083842956 -0.23751359 -0.20492925
000150 8d 3a 07 3f f2 22 cb bd 61 ed ef bd 5c 5c e2 bb
       0.52823716 -0.09918775 -0.11715198 -0.0069079828
000160 b5 5a 0c be a0 b9 91 be b2 a8 ad 3c a7 34 84 3c
       -0.13706477 -0.28461933 0.021198604 0.016138388
000170 2b 88 9e 3d eb 18 1f 3d db 3e 83 bc 96 8e 55 3d
       0.07740816 0.038842123 -0.016021183 0.052137934
000180 c5 4b 6a 3e 75 b7 43 be de cb 8a 3d 45 39 66 be
       0.22880466 -0.19112952 0.06777166 -0.22482784
000190 6b 47 04 3e 28 77 da 3c 61 6d 39 3e 21 5f cb bd
       0.12917869 0.026668146 0.18108131 -0.09930254
0001a0 43 3c f7 bd 12 7d f0 3d c8 5a e9 bc be 71 08 3e
       -0.12072041 0.11742605 -0.02848567 0.13324639
0001b0 ac c8 5a be b4 5e d3 3d fa 27 2a 3d 61 71 c3 bd
       -0.21365613 0.103207976 0.04154203 -0.0954311
0001c0 55 3f 27 bd 60 19 b0 bd a4 94 8c be b6 24 91 be
       -0.040831883 -0.0859859 -0.27457154 -0.2834832
0001d0 14 19 34 be 39 26 8c be ea 33 9d bc e4 d2 9e bd
       -0.17587692 -0.27372912 -0.019189794 -0.07755068
0001e0 7c fa 88 be 3f 4d a9 bc 64 3a 93 bd d8 94 b0 be
       -0.26753604 -0.020666717 -0.071888715 -0.3448856
0001f0 3e bb db bc fc cf a9 bd 48 20 36 be 14 4d 01 be
       -0.026822682 -0.08291623 -0.17785752 -0.12627059
000200 ad d1 10 be 66 45 60 3d ef 2c 7d 3d 87 ac a0 bc
       -0.14142485 0.054753684 0.06181043 -0.019613517
000210 44 94 44 3e 41 7b ba bd a0 f3 84 3d 05 84 9f 3e
       0.19197184 -0.0910554 0.0649178 0.3115541
000220 d3 6f e3 3c a4 39 96 3d 4e b5 f7 bd a1 f8 d5 bd
       0.027763283 0.07335213 -0.12095128 -0.10447813
000230 10 0c 14 bd bf c7 a0 bd 48 f4 00 3e 09 cc 45 be
       -0.036144316 -0.078505985 0.12593186 -0.19316114
000240 da 4a ac 3d 82 ad 8a be 5d cf 37 bc 28 f7 1e bd
       0.08412714 -0.270855 -0.011218873 -0.038809925
000250 68 f4 ed 3d 13 15 01 3d 17 19 03 bd 18 a5 7b 3d
       0.116188824 0.03151424 -0.03200635 0.061436743
000260 cf 96 e7 bd b6 26 09 3e d8 f5 54 bd 63 d3 a8 bc
       -0.11308061 0.13393673 -0.051992267 -0.02060861
000270 ae 16 8d 3d 44 d4 ac bd 36 da 47 be 52 34 37 3e
       0.068890914 -0.08438924 -0.19516835 0.17891052
000280 90 7f 16 bd 56 e8 14 3e 19 6f 8f bd eb 34 d0 bc
       -0.036742747 0.14541754 -0.07003612 -0.025415858
000290 6d 5d bf 3d f5 7c 5a 3d 27 6d 45 3e 36 d2 87 bd
       0.093439914 0.053341825 0.1927992 -0.066318914
0002a0 84 53 19 bd 00 9e 84 3c a0 c4 46 3d c8 a6 20 3e
       -0.037433162 0.016188622 0.04852736 0.15688622
0002b0 8e e8 c1 3d 4c f4 e3 3d a2 e6 9d bd fe 98 f6 3d
       0.094681844 0.1113058 -0.07710005 0.120409
0002c0 29 8f 09 3d 5e dd cb bd 74 b6 12 3e 80 f6 af bc
       0.033583794 -0.09954332 0.14327413 -0.021479845
0002d0 6b a6 65 be 5c 9a bc 3d b5 16 c2 3d c4 50 16 bd
       -0.22426765 0.09209129 0.09476987 -0.036698118
0002e0 4f 7f 19 be 3f d2 05 3e 59 c1 2f 3d 21 93 a7 3d
       -0.1498997 0.13068484 0.042909 0.081823595
0002f0 09 79 e2 3d 41 e5 43 3e 61 2e 33 bd 63 7a 2f be
       0.11058242 0.19130422 -0.043745402 -0.1713653
000300 8f 89 3d bd 60 2f ff bc b3 2f b9 bc fd c7 74 3d
       -0.046273764 -0.03115052 -0.022605753 0.059761036
000310 44 3f 81 bd 30 2d 8e bd a0 f9 6d be 28 12 c7 bd
       -0.06310895 -0.069422126 -0.23239756 -0.0972026
000320 57 a6 3c 3e 91 59 9b bc 4a 90 41 bd a1 52 88 be
       0.18422829 -0.018963607 -0.047256745 -0.2662554
000330 ba b7 66 3c 76 b5 01 3e 98 0c 92 3d 2a 2e 14 3e
       0.01408189 0.12666878 0.07131308 0.14470735
000340 0a 5e e9 3c a9 0c ac bd a4 f9 0e be 60 37 00 3e
       0.028487224 -0.08400852 -0.13962418 0.12521124
000350 e7 c5 9b bd a3 1c 3f bc 0d ce 8a bd 4c 8b ba 3c
       -0.07606106 -0.011664542 -0.06777582 0.0227715
000360 77 47 70 be 7b f9 9b bd c7 22 78 3d 6c f3 fb 3c
       -0.23464762 -0.07615944 0.06058004 0.030755721
000370 de 74 5e be 14 e4 90 3e 85 60 02 3e 44 e6 74 be
       -0.21724269 0.2829901 0.12732132 -0.23915964
000380 73 e2 40 3e fb ee f0 bd e2 05 11 be db 80 3a bd
       0.18836384 -0.11764332 -0.141624 -0.045533042
000390 8a 84 59 be a0 f4 3b bd 23 0f 01 3e f1 4e 7f 3e
       -0.21241966 -0.04588759 0.1260343 0.24932458
0003a0 cc 4c 9d 3e a6 c7 90 3d a0 c7 37 3d 2f 91 0a bd
       0.30722654 0.0706933 0.04486811 -0.033829864
0003b0 ff c3 29 3b bc 60 4a 3d 02 ae bf 3c 93 ad 74 be
       0.0025904176 0.04940866 0.023398403 -0.23894338
0003c0 02 4c cc bb 54 ed 35 3d 34 15 44 bb 9b e4 73 3d
       -0.006234647 0.044415787 -0.0029919865 0.059544187
0003d0 29 2b 7a bd bc 0f 85 3d dc db a4 bc a7 77 d6 bd
       -0.061076317 0.06497142 -0.020124368 -0.104720406
0003e0 dd 04 96 3e 58 68 04 be 5b e8 8d bd 82 ce 0b 3d
       0.29300585 -0.12930429 -0.06929084 0.034132488
0003f0 06 24 22 3e db c4 90 3e 13 a9 ec bd 60 39 26 be
       0.15834054 0.2827519 -0.11555686 -0.16232824

b_action_type f4 [4]
000000 e0 1e ab b9 3c 35 d2 39 a6 9e 23 ba 78 13 10 3a
       -0.00032638665 0.00040093984 -0.0006241597 0.0005496065

W_play_habitat f4 [96, 4]
000000 5f 79 12 be fe a0 02 be 1e 77 6d 3e ad 49 4a be
       -0.14304112 -0.12756726 0.23189971 -0.19754668
000010 97 f0 42 3d e6 fa 40 3e 9d b3 d3 bb ed ee 0b 3d
       0.047592726 0.1884571 -0.0064606206 0.034163404
000020 bc 67 f1 bd 02 8f a8 3d d4 ae b1 3d 3b 13 3e 3e
       -0.11787364 0.082304016 0.08675924 0.18562023
000030 69 b2 5f be 66 72 9e be aa f4 13 3c da 98 25 be
       -0.21845402 -0.30946654 0.0090305 -0.1617159
000040 ee 9d 35 bc 25 79 db 3d 0b c5 aa be cb cd 74 bd
       -0.011085017 0.10716466 -0.33353457 -0.059766572
000050 3d 93 5f bd c7 0e 9b 3d 94 e1 c7 bd bf 54 22 3d
       -0.054583777 0.07571178 -0.097598225 0.0396316
000060 46 89 bc 3d 91 37 32 bd 7a 33 b4 3c 2a bc 82 3d
       0.0920587 -0.043510024 0.021997202 0.06383546
000070 c4 bb fb bd ab 83 3b be 6e 38 6f bd 60 cc ce 3d
       -0.12291673 -0.18311946 -0.058403425 0.10097575
000080 b7 d3 73 be 84 9d 40 bd cf 25 8d bd 12 9c 18 3d
       -0.23811232 -0.04702522 -0.06891977 0.037258215
000090 2c e6 e0 3d 8d 8c c7 bd 39 a5 c4 bc ac 81 be bd
       0.10981402 -0.09743605 -0.024004566 -0.09302077
0000a0 5c f0 36 3e 47 a8 e6 3c 47 5b d0 3d d4 5c 95 be
       0.17865127 0.028156413 0.1017366 -0.29172385
0000b0 4d c6 80 3c e8 15 6f 3d 5d 8c 4f bd 09 91 23 3e
       0.015719557 0.0583705 -0.05067097 0.15973295
0000c0 f3 f7 b1 be 31 b7 9b bd 89 a3 d2 3c d3 00 67 3e
       -0.34759483 -0.076033 0.025712745 0.22558908
0000d0 2f 64 cd bd d4 26 b7 3d ca de 1a 3d 07 d8 96 bd
       -0.10028874 0.08942953 0.037810124 -0.07365423
0000e0 68 5c 17 be fd 0d fc 3e ad ed d2 be 64 9f 8e bd
       -0.14781344 0.49229422 -0.41196957 -0.06963995
0000f0 df 91 8e 3e aa 63 e8 bb 18 d9 22 3e 8d f7 1b be
       0.27845666 -0.007091959 0.15903127 -0.15231152
000100 93 ed 6b be 16 df 3a be af f7 f0 3d 39 49 37 bd
       -0.23039846 -0.18249163 0.11765992 -0.044747565
000110 bf 97 3c 3e b8 47 0b bd f3 21 7b bd 3c 10 8e 3e
       0.18417262 -0.034003943 -0.061311673 0.2774676
000120 ee 59 fc bd c8 c0 b5 bd 07 ad 10 3e 45 f9 a5 3e
       -0.1232184 -0.08874661 0.14128505 0.3241674
000130 62 5f 86 bd 7c ca 2b 3b bf 29 f1 3c 61 06 2c 3d
       -0.065611616 0.002621322 0.029438851 0.04199827
000140 50 0a 8e 3c 08 96 fd 3d a9 0c 30 be ff 34 25 3e
       0.017338902 0.12382132 -0.1719233 0.16133498
000150 c1 9e 93 bd 49 ce 14 bc 8e 4a 1d 3c 50 c8 d6 3d
       -0.07208014 -0.009082385 0.009600295 0.10487425
000160 89 fb 5d bc b5 25 3a bd f1 e6 82 bd c8 f2 b4 bd
       -0.01354874 -0.045446116 -0.06391705 -0.08835369
000170 3c b0 25 3e e0 04 1c 3e 0e 87 1f be 3e e8 ae be
       0.1618051 0.15236235 -0.15578863 -0.34161562
000180 a4 ed 21 bd e0 2f 64 3e 57 cb 01 3d e5 db c9 3c
       -0.039533272 0.22283888 0.03168806 0.024640987
000190 5e 5f 21 be 0c 9a 07 3d 74 69 ad 3d c0 81 0f 3e
       -0.15759036 0.033105895 0.08467379 0.1401434
0001a0 58 c3 a9 3b 9b 07 bf bd 4d 10 83 be 2c 37 7e 3c
       0.0051807575 -0.093276225 -0.25598374 0.015516084
0001b0 21 87 4f be d8 57 5c 3e a7 3d 14 be 03 65 13 3c
       -0.20266391 0.21517885 -0.14476644 0.008996251
0001c0 b4 4c 1d be 1c 3b a6 3d 98 80 22 3d db 5e 07 3d
       -0.15361291 0.08116743 0.039673418 0.033049446
0001d0 2d 1a 60 be 20 b1 44 be 61 79 9a bd 8f 9a a0 3d
       -0.21884985 -0.19208193 -0.075426824 0.0784198
0001e0 0a d3 be be 73 5a f1 bc c7 c5 93 3c c0 1c 58 3e
       -0.37270385 -0.029462075 0.018038644 0.21104717
0001f0 a2 2d ad 3d 06 75 7b 3e fb 7e 4d 3e 2a 8c 0a 3e
       0.084559694 0.2455636 0.2006797 0.13530031
000200 5c 8c 3d be e9 62 87 bc f2 9a b3 3d 4d 1b 54 be
       -0.18510574 -0.016526656 0.08769788 -0.2071354
000210 b8 8d 7a bd 08 64 48 be 83 d6 dd 3d cd f3 10 be
       -0.06117031 -0.19569409 0.108319305 -0.14155503
000220 f6 0c 9e be 24 b1 c9 3d ae 2a 82 bd 28 0d 95 3d
       -0.30869263 0.0984824 -0.06355797 0.072779
000230 94 9b 08 be ee 2e 9f 3c 28 ae e8 3d 97 9f 3e 3e
       -0.13340598 0.019431558 0.11361343 0.18615566
000240 78 22 3c 3b c7 fe 82 be aa 21 3b be 54 5d 9e 3d
       0.0028707068 -0.25585005 -0.1827456 0.07732645
000250 a6 8f c5 3b 54 2c 78 3d 55 12 e6 bd 23 17 a6 3d
       0.006029087 0.06058915 -0.11233965 0.08109882
000260 38 ec 6f be d5 56 67 bc 0e 4f 89 3d 56 3c fc 3d
       -0.23429954 -0.014119823 0.067045316 0.12316196
000270 d4 01 59 3e c4 08 33 3e b3 68 ab 3c 04 36 04 be
       0.21192104 0.17483813 0.020923948 -0.1291123
000280 48 27 ad 3d f6 e2 ac bc 58 54 93 bc f7 4d 51 bd
       0.08454758 -0.021104317 -0.017984554 -0.051099744
000290 79 54 06 3e 34 9f a8 bc 28 52 1e 3e c5 30 03 be
       0.13118161 -0.020583726 0.15461028 -0.12811573
0002a0 0f d6 02 3d 47 4f 82 3e f9 f4 cf 3d d7 52 81 3d
       0.031942423 0.2545111 0.10154147 0.063146286
0002b0 cc c7 c0 bd cf 90 87 3c 1b 18 e1 ba 4e b9 59 be
       -0.09413108 0.016548542 -0.0017173322 -0.21262094
0002c0 42 27 64 bd 5a 58 01 bb 0f 8a dc bd e6 a8 5e be
       -0.0557015 -0.00197365 -0.1076852 -0.21744117
0002d0 50 b5 55 3e 3a 59 1b be 6f ce 8a bd e1 07 51 3d
       0.20869946 -0.15170756 -0.06777655 0.051032905
0002e0 51 b6 43 3d 19 d5 68 be 9f 35 c6 3c d1 bc e1 bb
       0.047781292 -0.2273754 0.02419549 -0.0068889637
0002f0 ee 67 a9 3b 01 c7 93 3d a6 a1 62 be 4a fe 62 be
       0.00516986 0.07215691 -0.22131976 -0.22167316
000300 92 b1 13 be 23 bf 58 3e cd 27 d7 3d 1c 7b 86 bd
       -0.14423206 0.21166663 0.10505638 -0.0656645
000310 8e 18 09 be fd 3d 03 3e 28 05 48 be e1 27 95 3c
       -0.13388273 0.12816615 -0.19533217 0.018207492
000320 c2 63 c5 bc dd 25 4c 3c 14 cf 26 be b3 54 ab bd
       -0.02409542 0.012460199 -0.16289932 -0.083657645
000330 5c 33 32 bd 74 b2 eb bd 75 e3 af bd 8d a7 0d 3e
       -0.04350601 -0.115086466 -0.08588306 0.13833447
000340 a4 7d 0a 3d b6 52 fb bc 22 fe 68 3d 56 39 f5 bd
       0.033811226 -0.030679088 0.056882985 -0.119738266
000350 f0 16 30 be 4d 34 41 be 5d 19 90 be ad e6 44 bc
       -0.1719625 -0.18867607 -0.2814435 -0.012017888
000360 b9 90 1f 3d a0 b5 bf 3b 73 45 2d 3e ac 0f c4 3d
       0.038956378 0.005850509 0.16921024 0.09573302
000370 f3 52 84 3d 4d 4c 83 3e 3c 3b 92 3d be 07 3d 3e
       0.06461134 0.2564415 0.07140204 0.18459985
000380 02 2d 04 3d 17 2e 8c 3d b2 c2 af be df fd 7d 3e
       0.032269485 0.068447284 -0.34328228 0.24803875
000390 40 b3 47 be c3 dc 08 3e 22 05 1d be 16 62 5a 3e
       -0.19501972 0.13365464 -0.1533399 0.2132648
0003a0 99 f7 50 be ac 6e 6a 3e 2b 04 b3 bd db a0 bd b9
       -0.20406951 0.2289378 -0.08741029 -0.00036168736
0003b0 4f ed d5 3c e2 67 3b bc 54 45 3b 3e 74 29 ab bd
       0.026114134 -0.011438342 0.18288165 -0.08357516
0003c0 1a ba 9a bc a9 d2 ae be a9 e0 75 3e eb e3 71 3d
       -0.018887568 -0.34145096 0.24011482 0.05905525
0003d0 ea b8 12 3d c4 11 59 bd 49 30 f1 3d 78 d1 9d be
       0.03582088 -0.05299546 0.11776788 -0.30823874
0003e0 c1 8a 80 3e 7c 6c 79 be 95 53 bc bd f6 29 8a be
       0.2510586 -0.2435779 -0.091956295 -0.2698514
0003f0 62 f9 b0 3e da 3e 41 3e 8f e3 d9 bc 5c 72 07 3e
       0.34565264 0.18871632 -0.026597766 0.13227218

b_play_habitat f4 [4]
000000 46 fd 92 38 33 23 ba 37 6c f4 14 b8 bc 17 6e b8
       7.008998e-05 2.2189319e-05 -3.5513585e-05 -5.6765726e-05

W_gain_food_primary f4 [96, 7]
000000 2e 21 ae 3d 85 a8 f9 3d 1f 0c 1e 3d ce c2 77 bc
       0.08502422 0.12190346 0.03858578 -0.015122129
000010 8d d3 f1 3d 7c 53 97 bd 7e c7 75 3e 7b 41 b8 3d
       0.11807928 -0.0738897 0.24001881 0.089968644
000020 ff b0 9f bd a2 6a 96 3d 23 a3 8f be b1 84 78 3c
       -0.07797431 0.07344557 -0.2805415 0.015168355
000030 ea 6b 81 be fe 46 bd bd 81 a5 64 be 56 07 ce 3c
       -0.25277644 -0.09242056 -0.2232876 0.025149982
000040 eb c0 87 be e5 b0 04 be 37 aa f5 3c d4 06 c4 3d
       -0.26514372 -0.12958105 0.029988391 0.09571615
000050 79 47 48 3e 10 76 48 3e ac a2 35 bc ef c2 a1 3c
       0.19558515 0.19576287 -0.011086147 0.019746272
000060 e2 c4 63 3e 3e 05 dc bd c6 9e 41 3e 1e da b5 3d
       0.22243074 -0.10743187 0.18908224 0.08879493
000070 c3 da df bd b4 a8 d9 bd 44 b7 04 be 08 c2 e9 bd
       -0.10930397 -0.10627881 -0.12960535 -0.11413962
000080 a0 8b ca 3d 03 5d 57 bd 1d be 3d be 5a 3d 77 3e
       0.098899126 -0.052578937 -0.18529554 0.24144498
000090 df 67 04 3e bf 0a bb bd 94 f0 49 3c ef 45 38 3a
       0.12930249 -0.09132909 0.012325425 0.0007029464
0000a0 41 40 51 bd 4f d7 fa 3c c5 86 29 bd bc c6 98 3e
       -0.051086668 0.030620245 -0.041388292 0.29839122
0000b0 fa 61 ca bd 5d 37 3e be 62 1a 88 3e cc a6 81 3b
       -0.09881969 -0.18575807 0.26582628 0.0039566513
0000c0 0c 99 82 bd b4 2b ea bd 76 d7 4b be 19 9c 06 3e
       -0.063768476 -0.11434117 -0.1990641 0.13145484
0000d0 7d c3 08 b9 74 76 98 bd 33 54 10 3e c3 4e af 3d
       -0.00013042796 -0.07444468 0.1409462 0.085599445
0000e0 2f f8 41 3e ed ee 2a 3e 34 06 ad bd 13 09 da bd
       0.18942331 0.16692705 -0.08448449 -0.10646262
0000f0 d9 b0 4f bd 08 8b 72 bd cd ce 2c bc d8 e7 03 be
       -0.050705764 -0.05921462 -0.010547352 -0.1288141
000100 7e c2 e2 bd 41 ee 32 be fa 84 ca bd bb 83 34 3d
       -0.11072253 -0.17473699 -0.098886445 0.04407094
000110 f3 58 8a 3b 6d 64 6d 3b 16 64 30 3e fc c3 8b 3e
       0.0042220294 0.0036223189 0.1722568 0.27297962
000120 0d c3 79 3e 73 59 76 3e fa d1 35 be ab 4e 14 3d
       0.24390812 0.2405756 -0.17755881 0.036207836
000130 ab 76 7e 3d 1e 38 14 3e f1 c2 ab 3d 92 5a 98 bd
       0.06212489 0.14474532 0.083867915 -0.0743915
000140 67 81 a1 bd f7 84 0e 3e 11 0e 2d bd 2d 07 05 3d
       -0.0788601 0.1391791 -0.042249743 0.032477546
000150 5f fb 42 be b9 f5 ca 3d 9d 44 13 3d da 81 02 bc
       -0.19041203 0.09910149 0.035954107 -0.007965529
000160 82 3e 8b bd 9e a8 93 be bd 65 21 3e 5a 61 9a 3e
       -0.06799032 -0.28839582 0.15761466 0.30152398
000170 23 5f 18 3e b0 df 78 bd 56 b8 66 3b 3a 16 8a be
       0.14880042 -0.0607602 0.0035205088 -0.26970083
000180 0b 8d 0a be 42 2e 90 bd c6 b6 77 3e 18 58 84 3e
       -0.13530366 -0.07040073 0.24190816 0.2584846
000190 5c 30 57 be 62 75 74 bc 27 34 4d bd d7 4a 4f 3e
       -0.21014541 -0.014920564 -0.050098564 0.20243393
0001a0 c5 38 32 3e 2e 3d 9a be 84 a3 04 be f0 95 5d 3d
       0.17404468 -0.301248 -0.12953001 0.05409807
0001b0 39 92 98 bc b5 7e 8f 3d 9d 6a 0d 3e 5d 01 60 bd
       -0.018624412 0.07006589 0.13810201 -0.0546888
0001c0 96 7f c7 bb 23 86 a5 bd b4 74 c3 bd 92 b1 c3 bd
       -0.0060882075 -0.08082225 -0.09543744 -0.09555353
0001d0 e6 94 1e 3e a2 56 b8 3d 27 7d 00 3d c2 52 e2 3d
       0.15486488 0.09000899 0.031369355 0.11050941
0001e0 c8 a0 98 bd d8 13 98 3d 2e 2d 10 3e cc e8 6d bd
       -0.074525416 0.0742566 0.14079735 -0.05808334
0001f0 77 44 9e bd dc fa b1 bd d5 1d 53 be c8 d5 0b be
       -0.077279024 -0.08690426 -0.20616849 -0.1365577
000200 9d e4 87 be 56 56 7b be 23 3f 9b 3d 7e 6d cf 3c
       -0.26541606 -0.24544653 0.07580402 0.025320765
000210 86 72 1c 3e 81 5a f5 3d 8a 4b 0a bd ba 57 1e 3d
       0.15278062 0.11980153 -0.033763446 0.03865788
000220 a6 c7 dd 3d db 0e c1 3d 6b a6 4c bd ac c4 6b 3e
       0.108290955 0.094266616 -0.049963396 0.23024243
000230 db f1 80 3d 5e 3c 5d bd ca ba 4a 3e e5 79 40 3d
       0.0629613 -0.05401265 0.19797817 0.046991248
000240 e5 48 07 be 19 80 22 3e 85 fb 4f bd d1 cb 0f bd
       -0.13211401 0.15869178 -0.050776977 -0.035106484
000250 45 ca f6 3d 80 a6 19 bc 61 4c 81 be 32 c1 0b 3d
       0.120502986 -0.009378076 -0.25253585 0.034119792
000260 44 3c ad be 9e 11 7d 3e 0f 54 88 3e a8 16 37 3e
       -0.33835042 0.24713752 0.26626632 0.17879736
000270 f8 19 02 3c 20 b2 5f 3e 0c db 45 3e 35 63 02 bd
       0.007940762 0.21845293 0.19321841 -0.031832892
000280 ed 30 6b 3e f7 87 be bd a0 c4 65 bd 1b 14 a9 bd
       0.22967882 -0.09303277 -0.05609572 -0.08255788
000290 b4 51 82 3e a2 6f 3a 3e 71 ad 8d bd ca 40 45 bd
       0.2545296 0.18206647 -0.06917847 -0.04815749
0002a0 88 0e d7 bd b0 18 0d bc 22 2c 3b 3e 09 07 8a be
       -0.105008185 -0.008611843 0.18278554 -0.26958492
0002b0 78 c9 d2 3d 3d ce 80 3e d5 64 1e bd 87 e8 37 be
       0.10292333 0.25157347 -0.03867038 -0.17959796
0002c0 4d a6 9d be fd c5 49 3e c8 19 59 be e6 07 9d bd
       -0.3079094 0.19704433 -0.21201241 -0.07667522
0002d0 1a 55 52 bd 5f 73 35 3e d1 89 eb 3a 41 c2 97 3d
       -0.05135069 0.17719792 0.001797015 0.07410098
0002e0 1d bd 07 be 45 b1 83 be 15 1b c1 bd 6b 17 3e be
       -0.13255735 -0.25721183 -0.094289936 -0.18563621
0002f0 b7 31 e3 3d 37 48 ea 3d 20 c4 6c 3e 32 a5 36 be
       0.11093467 0.11439555 0.23121691 -0.17836455
000300 b4 9e 88 3c db 76 11 3e 35 13 e7 3c 1c 89 fe be
       0.016677238 0.14205496 0.0282074 -0.4971398
000310 f0 dc 03 3e c2 e0 f6 bc 9d dd 65 3d ee c3 a0 bd
       0.1287725 -0.03013647 0.05611955 -0.078498706
000320 17 ee 1e 3d 59 d0 d9 bd bd 0b be 3e 32 77 da 3c
       0.03880128 -0.10635442 0.3711833 0.026668165
000330 f3 1d 5c bd 0a 7c 45 be 50 b1 bd bd 68 65 06 3e
       -0.0537395 -0.19285598 -0.09262335 0.13124621
000340 63 99 c6 3c 2c 11 53 3d c6 ff 02 be 5a 7c 7f be
       0.024243062 0.05153005 -0.12792882 -0.2494978
000350 47 f7 92 bd 20 f0 41 bc 0a d3 b1 bd 44 f4 4b be
       -0.07176071 -0.011837035 -0.08682831 -0.19917399
000360 9b e0 cb bd cd 9f e9 ba 51 2b d0 3e 74 e1 33 3e
       -0.099549495 -0.0017824114 0.40658048 0.17566472
000370 e1 5d d9 3d f8 03 61 be db 4c 8b 3e 78 0a f7 3b
       0.10613609 -0.2197417 0.27207074 0.00753909
000380 58 72 5d 3d f3 a6 b1 bd 0f 4a ca bd a8 65 0c 3e
       0.054064125 -0.08674421 -0.09877407 0.13710654
000390 2d 94 89 bd e0 14 2c bd cc 59 03 3d fc 93 60 bc
       -0.067177154 -0.042012095 0.03206806 -0.013707157
0003a0 03 df 60 3d b3 68 5d 3e 0b 43 84 3d e0 75 86 3a
       0.05490018 0.21621971 0.064581 0.0010258518
0003b0 4b 9e a7 3d be 41 a3 3e a3 2b 2c 3c 5b 76 b4 bd
       0.08184489 0.31886095 0.010508451 -0.08811637
0003c0 e0 bc ce 3b 44 e0 9a 3c 77 f3 cb bd 65 a1 62 bd
       0.0063091367 0.018905766 -0.099585466 -0.0553297
0003d0 56 be c1 bc 04 fd e0 3d 3f a6 05 bc cb c1 1a be
       -0.02365033 0.10985759 -0.008157312 -0.15112989
0003e0 36 0d 59 3c 33 0a ad bd a3 41 f9 bd 62 f0 49 be
       0.013247779 -0.08449211 -0.12170722 -0.19720605
0003f0 57 11 08 be 0f 98 8d 3d 5b 0c e7 bb d9 f8 9a 3d
       -0.13287865 0.069137685 -0.0070510334 0.07566995

b_gain_food_primary f4 [7]
000000 18 5a 1a b9 72 a7 b9 b7 6e 9f 04 39 72 57 88 37
       -0.00014720147 -2.2131691e-05 0.00012647893 1.6253183e-05
000010 f5 02 e2 b8 a4 1f 85 39 42 b2 fa b8
       -0.000107770706 0.0002539131 -0.00011954132

W_draw_mode f4 [96, 4]
000000 95 b1 a0 bc ab 38 1b bd 54 a6 65 bd c6 9b 21 bd
       -0.019615928 -0.03789584 -0.056066826 -0.039455198
000010 8c 42 a3 bd 47 28 27 be 94 26 99 bd 60 7b 48 3c
       -0.07971677 -0.16323958 -0.07478061 0.012236446
000020 0d 40 40 be 4f b5 15 be a9 77 c1 3d fa d1 5b 3d
       -0.18774433 -0.14619945 0.094466515 0.053667046
000030 c8 65 23 be 64 b0 85 bd 17 04 0f 3e df ad 99 bd
       -0.15956795 -0.065277845 0.13966404 -0.075038664
000040 03 b8 69 3b 74 6d ed bd 3e 50 34 3e 0e 35 2f 3e
       0.0035662658 -0.11593142 0.17608735 0.17110083
000050 b7 23 73 bd 10 6f bc 3d d2 6e 1a 3e ab b0 c7 3d
       -0.059360232 0.09200871 0.15081337 0.097504936
000060 4c 10 29 be 5d 38 20 3d 89 20 a6 3c b8 bf b6 bb
       -0.16510123 0.039116252 0.020279186 -0.005577054
000070 12 18 b5 bd d4 e3 b1 3c 57 34 d1 3c fc 79 ee 3e
       -0.08842482 0.021715082 0.025537653 0.46577442
000080 b4 ba d7 bc e7 f1 82 3c 1a 85 56 3d f9 1a 16 be
       -0.026334144 0.015984489 0.05237303 -0.14658727
000090 12 eb 48 bd 46 e2 b4 bd 2f a7 19 be 3b 5c 01 3e
       -0.049052306 -0.08832221 -0.15005182 0.1263284
0000a0 31 6d 68 be 26 aa 7b 3b 3f 6f b1 be 11 37 c9 bd
       -0.22697903 0.0038400977 -0.34655187 -0.09824956
0000b0 2e f9 66 3e 1c a5 0e bd e4 4b 2d bd 3c db c4 bd
       0.22555992 -0.03482543 -0.042308703 -0.09612128
0000c0 16 15 d3 3d fd 30 57 bd 66 2f 7b 3e c3 fa d3 3e
       0.10306756 -0.052536953 0.245298 0.41402254
0000d0 68 be e7 bd d9 78 b6 bd d6 86 b9 3d 85 00 de 3c
       -0.11315614 -0.089097686 0.09058921 0.027099857
0000e0 18 44 94 bc 3b 39 64 bd a0 8f 8b 3c 15 b5 f3 3d
       -0.018098876 -0.05571864 0.01703626 0.11899773
0000f0 1d 22 3e bd 9c 98 79 bd 3c 8a 0d be 83 5a b4 bc
       -0.04641925 -0.060936555 -0.13822263 -0.022015816
000100 3c dc 03 bd 48 92 9e bd 14 08 90 be 3d cb 52 3d
       -0.032192454 -0.07742745 -0.28131163 0.051463354
000110 05 43 ce 3d 92 6c b7 bc 3b 40 38 be 91 57 89 be
       0.10071377 -0.022390638 -0.17993252 -0.2682462
000120 f3 27 54 3d 3e 41 20 bd 82 55 16 3c a3 85 a5 bd
       0.05179591 -0.03912472 0.00917566 -0.0808213
000130 51 2c 83 3e c0 1f 19 3e 05 9b d5 bc 10 2d ba bd
       0.25619748 0.14953518 -0.026074896 -0.09090626
000140 65 71 18 3c 5b 55 a0 bc 8b 69 f4 3c 8b e6 8b 3e
       0.009304379 -0.01957195 0.029835483 0.27324328
000150 a9 86 2b 3e a1 ce 67 bd 78 c1 ee bd f2 fa 4e 3d
       0.16750588 -0.05659354 -0.11657995 0.05053229
000160 b0 d3 e5 bd 17 46 26 3c 72 8d 62 be 4c f6 ed bd
       -0.11222017 0.010148547 -0.2212427 -0.11619243
000170 3b fb 08 bd 20 7f e7 3d 01 79 79 3d 19 ed 45 be
       -0.033442717 0.11303544 0.060906414 -0.19328727
000180 d6 95 2d 3e 37 e1 4b 3e 50 49 69 be 26 8f ce bd
       0.16951689 0.19910131 -0.22781873 -0.10085897
000190 9f 7b d6 bd 56 17 90 3c a7 59 c5 bc 24 81 0b 3d
       -0.104727976 0.017589252 -0.024090601 0.034058705
0001a0 2e 26 01 3c 07 69 22 3c 5d db 69 be 8f ea 77 3e
       0.007882638 0.009912736 -0.22837587 0.24210571
0001b0 e8 99 10 3e 7a 84 79 bc 6f e7 89 bd 63 44 84 bb
       0.1412121 -0.015229339 -0.067335956 -0.0040364726
0001c0 fd d8 6e 3d f3 f9 f3 bc 0a 95 98 3d b2 23 9e 3d
       0.058312405 -0.029782271 0.07450302 0.07721652
0001d0 e0 83 06 be 4c da 98 bd 66 1c 9b 3d 80 ba f9 3c
       -0.13136244 -0.07463512 0.07573776 0.030484438
0001e0 ad 16 e7 3d f5 e1 8f 3d 3f 51 e0 bd 57 1a 8f be
       0.11283622 0.0702552 -0.109529965 -0.27949783
0001f0 19 c1 bd 3c 9a 70 b0 3c e2 45 1e bb 63 95 41 3e
       0.023163365 0.021538068 -0.002415054 0.18904643
000200 4c 10 3f 3d 52 c5 82 be da 3e e5 3d 37 1c 39 be
       0.0466464 -0.25541168 0.111936286 -0.1807717
000210 6d c2 9e 3b d2 a8 85 3e ea 36 cd bd e4 b5 04 bd
       0.0048449547 0.26105362 -0.1002024 -0.032400027
000220 a5 23 e0 bd 2c 30 d0 3d 48 23 7c bd f5 ef 34 3e
       -0.10944299 0.10165438 -0.061557084 0.17669661
000230 1f 4a 38 bd e3 7c de be 44 57 13 bd e0 2c 8e bd
       -0.044992562 -0.43454656 -0.035971895 -0.06942153
000240 36 87 e7 bc cb 84 ac 3c cc e6 3b 3d 8c 55 b7 3c
       -0.028262716 0.021059414 0.045874402 0.02237966
000250 82 e7 96 3c 2a 04 99 bb 6a 54 9b 3c 6a 61 17 3d
       0.018420938 -0.004669686 0.01896115 0.036958136
000260 72 67 13 be d7 95 c7 3d dc 5a b8 ba 99 ff 60 be
       -0.1439493 0.097453766 -0.0014065164 -0.21972503
000270 aa ec 07 be e4 21 02 bd 48 6c 7e 3d c0 ce 9f 3d
       -0.13273874 -0.031770602 0.062114984 0.07803106
000280 62 88 76 bc 3b d9 32 be 4b 79 a6 bd 3b d3 9b bd
       -0.015047165 -0.1746568 -0.081286035 -0.076086484
000290 eb fb 80 bd 75 a9 68 3d f1 a5 86 bd 9a f7 a3 3e
       -0.062980495 0.05680223 -0.065746196 0.32024843
0002a0 f3 ea 71 bc b0 6c f3 3d 7a 79 d1 bd 1e bf 8e bd
       -0.014765489 0.11885965 -0.10228248 -0.069700465
0002b0 82 15 62 bd d9 07 1f 3e 8b b3 e4 3a c3 02 3a 3e
       -0.055196293 0.15530337 0.0017448528 0.18165116
0002c0 0b 1f 23 bd 46 c1 da bd 31 30 33 3e ed 89 46 bd
       -0.039824527 -0.10681395 0.17498852 -0.04847138
0002d0 ef 8c 35 3e a6 7b ac bd 84 90 d5 bc ed 6e 2c 3e
       0.17729543 -0.084220216 -0.026069887 0.1683919
0002e0 be 10 3f 3e d4 f8 88 3e ac 89 f3 bd 89 cc 54 3e
       0.1865873 0.2675234 -0.11891493 0.20781149
0002f0 18 ee 1a 3e 96 09 ff bd 94 96 b8 3d 8c e2 38 be
       0.15129888 -0.12453 0.090130955 -0.18055171
000300 9e 52 55 bd 35 67 5d 3e 3b 9a 88 bd 17 60 17 3e
       -0.052080743 0.21621402 -0.06670042 0.14782749
000310 62 b8 38 3d 27 ac db 3c 05 87 95 3d 9c 81 11 bc
       0.045097716 0.026815487 0.073011436 -0.008880999
000320 d0 ed c7 3c 7f 6d 51 bd ee 28 ee 3d c7 b3 17 3c
       0.02440539 -0.051129814 0.116289005 0.009259171
000330 94 4e 20 3b 38 33 55 be 1f c2 83 3d b3 ec 49 be
       0.0024460899 -0.2082032 0.0643351 -0.197192
000340 f1 3d 01 be 08 90 e4 3d 6a b5 14 bd f2 8a 32 3e
       -0.12621285 0.11160284 -0.036305822 0.17435816
000350 8a f7 98 3d c6 1a 34 be b2 c1 94 3d 7d 5d e2 bd
       0.07469089 -0.17588338 0.07263507 -0.11052988
000360 1a 09 63 bd f7 52 84 3d b5 60 70 bd 05 a5 dc 3d
       -0.0554286 0.06461137 -0.058685977 0.107736625
000370 42 84 52 3e cb 2e be bd be ba 9a 3e cf f0 19 3e
       0.20558265 -0.09286269 0.30220598 0.15033267
000380 14 70 1c bd 7f 69 21 be fd 81 32 3d 05 96 33 3e
       -0.038192824 -0.157629 0.043580998 0.17537697
000390 cf 39 f3 3c 95 02 3d 3e 71 8d e3 bd f6 86 37 3e
       0.029690651 0.18458016 -0.11110962 0.17922577
0003a0 97 c7 9f bd 6f 0d 44 3e cd 3e bc 3d 39 ca f7 bd
       -0.078017406 0.1914575 0.09191666 -0.12099118
0003b0 8e d5 19 be 90 ae e5 bd d8 35 4c bd 65 9b 46 be
       -0.15022871 -0.11214936 -0.049856037 -0.19395216
0003c0 6a 77 e4 3d a4 9a 47 be ad 1f 94 3d 4c ee 5c 3e
       0.11155589 -0.19492584 0.07232604 0.21575278
0003d0 75 b1 50 bd 34 b1 8d 3e 86 d8 e9 bc b5 7a ee bc
       -0.050950486 0.27674258 -0.02854563 -0.029111246
0003e0 25 d8 99 bb 33 d4 5e bb 2f 8e 16 3e fe 8e f2 3d
       -0.004694956 -0.0034000992 0.14702676 0.1184368
0003f0 07 91 81 bd a5 65 8d bd 26 f5 0e 3e 7e e8 2b be
       -0.0632649 -0.06904153 0.13960704 -0.16787907

b_draw_mode f4 [4]
000000 5c 63 95 b9 9a fe 7b 3a 7e 17 ba b9 5d 82 a8 b9
       -0.00028493523 0.0009612829 -0.00035494188 -0.00032140585

W_lay_eggs_bin f4 [96, 11]
000000 03 4b 28 be 54 cd 30 3e 81 db 0b bd 07 18 ff bc
       -0.16434865 0.17265826 -0.034144882 -0.031139387
000010 38 4f 6c 3c a0 8d f4 bc 68 c1 ab 3d c8 f9 c3 3d
       0.014423184 -0.029852688 0.08386499 0.09569126
000020 91 c6 8b bd 77 90 9c bd 0e 81 23 3e e1 a1 8d be
       -0.06824983 -0.07644742 0.15967199 -0.27662566
000030 ff d1 28 3e de 88 46 be 64 b8 3c be 45 1b 30 3e
       0.16486357 -0.19388148 -0.18429714 0.17197903
000040 04 e7 03 bd ff 6d 41 bd 61 25 0a 3e ca 16 ba 3b
       -0.032202736 -0.04722404 0.13490821 0.005678986
000050 da c0 8b 3d 5a 7e 97 bc a3 ef de 3b 13 3c 85 3e
       0.06823893 -0.018492866 0.0068034693 0.26022395
000060 63 05 47 3d 49 a6 43 be 67 8d 56 3e da 4c a5 3c
       0.04858912 -0.19106402 0.20952378 0.020178247
000070 9f 29 84 be 34 da 6a be 5e 26 28 bd b5 f3 1d be
       -0.25813004 -0.229348 -0.041052215 -0.15424998
000080 74 13 84 3c 5a 09 db bd 4d 9b 9e bd 41 a8 92 3a
       0.016122557 -0.10695143 -0.07744465 0.001118906
000090 35 4e df 3d a0 16 a3 bd 17 a4 29 be d9 90 a3 3e
       0.10903589 -0.079633 -0.16566502 0.31946447
0000a0 d6 5e 95 bd 2f dc 2d bd 68 3c c0 3d 31 60 27 3e
       -0.07293479 -0.04244631 0.093865216 0.16345288
0000b0 76 14 c7 bd 10 cf e2 bc 4b 24 30 bd ef 1e 3f bd
       -0.097206995 -0.027686626 -0.04300336 -0.04666036
0000c0 24 72 ae bd 95 6b 2f 3e f9 d7 d9 bd 41 aa 04 be
       -0.08517864 0.17130883 -0.10636897 -0.12955572
0000d0 0a ff 80 3d 05 01 b4 bd e4 e0 c3 bd 22 df 50 be
       0.06298645 -0.08789257 -0.09564379 -0.20397618
0000e0 07 6f fe bd 50 39 c6 3d 88 9c cd 3b 83 d7 9f 3c
       -0.124235205 0.096789 0.0062747635 0.019511944
0000f0 20 bf 78 be 91 e2 f1 bd 33 2f 8d be 7d 6f 1e bd
       -0.24291658 -0.11810792 -0.27575073 -0.038680542
000100 01 b2 bf bd 80 29 78 3d ca 89 8e 3d 76 c1 ed bd
       -0.093601234 0.060586452 0.06959875 -0.11609165
000110 b5 1a a7 be ec 95 17 3d fe dd 5f 3d c5 62 f2 3d
       -0.32637563 0.03700821 0.054655068 0.11835245
000120 c5 c5 9c 3c ed 1f c3 bd 1b a7 75 be 7c a8 4c 3e
       0.019137273 -0.09527574 -0.23989527 0.19986147
000130 4b 9e 2d bc 9b 0d b9 bd fe 12 80 3d ed ea 75 be
       -0.010596822 -0.09035798 0.062536225 -0.24015398
000140 23 7f a1 bd fa ff 66 be c6 d5 c2 3d 97 f4 97 3c
       -0.078855775 -0.22558585 0.0951343 0.018549247
000150 71 ce cc bd ee 43 77 bd 24 a0 f6 3c 52 69 d6 bc
       -0.10000313 -0.060367517 0.030105658 -0.026173268
000160 db 68 95 3d 7d 6f 1f 3c 2c 4e 59 3b ac 6a 8e 3d
       0.0729539 0.009731171 0.0033158166 0.0695394
000170 ed bd d7 bd df 38 11 3d 5e d3 77 bd 83 68 88 3e
       -0.10534272 0.035454627 -0.06050431 0.26642236
000180 c6 4d ff 3d 20 32 ce 3d f0 21 9a 3c 7b 58 3b 3e
       0.12466006 0.10068154 0.01881501 0.18295471
000190 22 5a 89 3d 9f d8 12 bd 04 3f b6 bd 95 8e a9 bd
       0.067066446 -0.035851117 -0.08898738 -0.082791485
0001a0 fd e5 b8 be 31 7e 59 be 40 3f cc 3c d6 5e 83 bc
       -0.36112967 -0.21239544 0.024932504 -0.016036432
0001b0 05 e6 2b be e1 f9 77 3d ad 36 86 3e 52 fc f4 bc
       -0.16786964 0.060541037 0.2621359 -0.029905472
0001c0 fe 00 18 3e 45 d9 34 3c f6 9b 91 bd 26 05 c8 bc
       0.14844128 0.011038129 -0.07109825 -0.024416517
0001d0 5a 30 9c bc ff 64 74 bd 83 9b 41 be 3a c9 fe bb
       -0.019066025 -0.05966663 -0.1890698 -0.007775453
0001e0 b6 b7 28 be 2c 5c 92 bc 9b 6a f2 3c 61 20 a5 be
       -0.1647633 -0.017866217 0.02959185 -0.32251266
0001f0 45 ce 30 3c 21 e9 44 be 40 fa 99 3d 13 5d 21 3e
       0.010791366 -0.19229557 0.075184345 0.15758161
000200 28 64 f1 3d 34 99 0e bd 0a 5c c0 bd 68 a2 c9 bd
       0.117866814 -0.034814075 -0.09392555 -0.0984543
000210 04 bc bd 3d bc 95 81 be 68 39 e0 3d f4 a2 95 3d
       0.09264377 -0.2530955 0.109484494 0.073064715
000220 cb 8c 35 be fe fe 68 3d 81 e4 2d 3e d1 3b ca 3d
       -0.1772949 0.056883805 0.16981699 0.0987469
000230 23 e1 30 be 63 bd 84 bd 60 bc d3 bc d8 75 93 3c
       -0.17273383 -0.06481435 -0.02584666 0.018000528
000240 2c f8 c8 bd 38 5d 8f bd 8a ef 85 bd 53 a2 96 3d
       -0.0981296 -0.07000202 -0.06539829 0.0735518
000250 8b ee 95 3d 90 87 dd be 70 62 e0 3d fd 15 c7 ba
       0.07320889 -0.43267488 0.109562755 -0.0015189048
000260 70 a8 b6 3e 54 a7 14 3e 15 ac 19 be d1 e9 4e be
       0.35675383 0.14516956 -0.1500705 -0.20206381
000270 48 16 6a be f1 86 27 be f3 8b b2 3d c8 5b 64 be
       -0.22860062 -0.1636007 0.087180994 -0.22300637
000280 31 16 2e 3d ad 6a cf 3d d7 c5 f2 bc 33 66 ae bd
       0.042501632 0.10127769 -0.029635353 -0.08515587
000290 17 19 14 be ad ae a1 bd 14 df 81 3d 8a 36 c8 3b
       -0.14462696 -0.07894645 0.06341377 0.006110017
0002a0 d0 4e 15 3e 5d 60 ce be 64 c0 b7 bc ec f3 68 be
       0.14580846 -0.40307894 -0.022430606 -0.22749299
0002b0 7c 8d 23 be 97 5b 90 bc 85 94 f2 bc 80 f6 19 bd
       -0.15971941 -0.017621798 -0.029611835 -0.037588596
0002c0 41 88 0e bd 25 de 1a 3e 49 92 20 be 42 a2 e4 bd
       -0.03479791 0.15123804 -0.15680803 -0.11163761
0002d0 6e d6 8e 3d 65 45 32 3e d9 18 51 be 35 ec 5c 3d
       0.06974493 0.17409284 -0.20419635 0.053936202
0002e0 f6 a1 93 bd 68 33 93 3e 79 5f 9d 3b 14 05 56 3c
       -0.07208626 0.28750157 0.004802641 0.013062734
0002f0 2f 0a 05 be cd a7 40 3e 7a e5 c0 bd 26 62 0d bc
       -0.12992166 0.18814011 -0.09418769 -0.008629357
000300 2a 45 53 bd 24 64 92 bd 44 ae 58 3d 67 82 8a 3e
       -0.051579632 -0.071480066 0.052900568 0.27052614
000310 f0 43 05 3d 68 3b 3a 3c 2b 3f 60 bb b0 c7 3b bc
       0.032535493 0.011366703 -0.0034217339 -0.011461183
000320 89 77 3d be 9c 41 99 3d e7 dd 02 3d e7 ff 39 be
       -0.1850263 0.07483217 0.031949904 -0.18164025
000330 f2 74 db bd 0d a5 09 bd ac 2d b6 3c af 3b 20 3d
       -0.10715665 -0.03360467 0.022238575 0.03911942
000340 e1 72 e4 bd 12 8e 5f 3a dd 97 f7 3c fa c4 26 be
       -0.11154724 0.0008527945 0.030223781 -0.16286078
000350 5d b5 9f bd 52 32 95 3e 3d 7c 03 be 75 8b d0 bd
       -0.07798264 0.29139954 -0.12840362 -0.10182849
000360 73 0a f8 bd 5a 14 dd bd 10 86 60 be 08 a6 86 be
       -0.12111368 -0.107948974 -0.21926141 -0.26298547
000370 7d 3e 73 be ca 56 8f bd c7 2a d5 bd 9c ba f3 3d
       -0.23754306 -0.069989756 -0.1040855 0.11900827
000380 4f 60 83 3e 49 ad 0a be 15 8d 04 be b9 07 20 3e
       0.25659415 -0.13542666 -0.12944444 0.15627946
000390 0b 19 c7 3d c0 c9 53 3e 9a 87 2a 3e cc a7 1f be
       0.097215734 0.2068243 0.1665329 -0.15591353
0003a0 17 39 96 ba e5 95 77 be a2 25 4a 3d 19 f0 f3 bd
       -0.0011461106 -0.24178274 0.049352296 -0.11911029
0003b0 2f b5 96 bd 68 5a 19 bb 74 44 d9 b9 81 fd f1 3d
       -0.07358777 -0.0023399834 -0.00041440467 0.1181593
0003c0 fa 61 c2 be cb a2 7f bc 36 f4 80 bd 9a 7f 74 bd
       -0.37965375 -0.015602778 -0.062965795 -0.059692003
0003d0 b7 9f 90 ba da fe 3a be 38 27 61 3d 15 28 e2 3d
       -0.0011033927 -0.1826128 0.054969043 0.11042801
0003e0 96 27 3d 3e a5 66 e4 bd a2 26 6b be b5 68 f9 3d
       0.18472132 -0.111523904 -0.22963956 0.121781744
0003f0 f1 32 45 be 6c 80 a4 3c 36 6e 1e 3e 04 8a 31 3e
       -0.19257714 0.020080768 0.1547173 0.17337805

b_lay_eggs_bin f4 [11]
000000 1e 9c 5d b7 80 5e 44 b8 32 d6 eb 38 ea 99 6d 38
       -1.3208975e-05 -4.681805e-05 0.0001124557 5.6648547e-05
000010 08 74 04 b7 08 3e 63 b7 ed e1 86 b7 d1 02 00 b8
       -7.894829e-06 -1.3544697e-05 -1.607925e-05 -3.05202e-05
000020 f6 8a b6 b7 15 ac b4 b6 fc 15 69 b7
       -2.17608e-05 -5.384451e-06 -1.3893001e-05
