reports/ml/next_strict_run/iter_001/factorized_model.npz (npz, 72238 bytes, 17 tensors)

W1 f4 [48, 192]
00000000: 3306 98be aa65 9dbe 9932 3a3e bc5d b83d
00000010: 990d 813d 9555 9fbd 067b 873d a3de cabe
00000020: 9149 843e 613f a03e c93d 903e 6006 62be
00000030: 185d 2e3e 6269 cd3e 685d 503e f3c0 f73e
00000040: bae6 213e a8d9 1c3f 3ee7 b63d 7c90 693d
00000050: d243 7f3e 25cd 3abe 02dd 1b3f 7554 c2be
00000060: 5561 74be 6016 403d 57af 223d 606d 813e
00000070: b417 e03d afa5 613d 176b 99be cf71 293d
00000080: 7ffa 91bc ee45 e83d 5ac1 fb3e 1f06 ce3e
00000090: 89db c1be 1b66 8bbd 37e4 0bbe db51 733e
000000a0: 3a7e e13d 2529 76be 1f31 c4bd 053a c23a
000000b0: 008c 063e 714e 873e 66c6 ff3d bb4c a4bd
000000c0: bf06 86be 72d8 303e c364 183e 3820 99bd
000000d0: be5a 683a 29ef 3a3d a401 fd3e d5b7 dabc
000000e0: b50f 44be 96e5 ae3d d153 283e 5671 4c3e
000000f0: 1200 a33e 6b83 a1bd 65ad e63c ea8b 133b
00000100: 0cfc 033f eb89 803e e38a 86be 5d5b 0c3e
00000110: ca3b 88bd 7868 6bbe 7ccc e83e 91ad 43be
00000120: 2ee1 ba3e c79d 813d a1b6 fd3d a8eb 243c
00000130: fd5d 353d 89e7 06be 100e 023c ab77 4b3e
00000140: 3309 5c3e 41e9 e3be f9c8 0fbe 6729 a3bd
00000150: 6f87 a43e f8f9 e7bd 4ae3 dcbd a73e 6bbd
00000160: 76f8 8b3e e04a 9f3e dd37 a23d 5e42 53be
00000170: 60a4 06be 2158 29be 7463 f83d 5880 9a3e
00000180: 0c22 8c3e 5e8e b0be c6c6 903e 4e1f 8ebe
00000190: eb95 54bd 76f3 043e 8766 84be 41f8 50be
000001a0: 6fd6 143e 1fdb 273d 263e efbd 3856 afbc
000001b0: 802e b83e d422 1dbe 28d3 b43c c568 12be
000001c0: 4afc 90be e505 9fbe f94b a53e 9284 a9bb
000001d0: 3e01 253d 0f55 9bba 8f2c 97be 7095 c53d
000001e0: e8cd 9c3c 6dc3 9cbe 72f2 35be 26e9 983e
000001f0: e7ff 753b fdbf 34be 65ce fd3d f477 11be
00000200: a772 4d3e 5a48 eabc 13ca 643d 2bad 9e3e
00000210: b223 5c3e ba13 ab3c f6bc 323f 0def 81be
00000220: a3ec e63e bd84 55be 3c7e 893e 6bda d53e
00000230: 985b 873a 1d0c 9ebc f4c9 f6bd 182d 623a
00000240: 5638 843e d9ef a83d ff44 f4bd aaa8 503d
00000250: 49bd 3bbd 4df1 1bbd 96dc b4be 77be 42bb
00000260: a6f6 8bbe bf0b b5bd 47df d53d 3991 2e3e
00000270: 49f0 2c3f 365b 1d3d 4e1e d03d cb00 c8bd
00000280: 8ba8 213f 96f2 4fbd 1b3c e63d bff6 70be
00000290: d37f cb3d 942e 15bf fb88 f5bd 730e 8cbe
000002a0: caa9 88be 608b dfbc 11cb dc3d 06ae 15bd
000002b0: 5dd7 12ba 8260 86bd 695d 043f e7fe 81be
000002c0: 4e47 b83e c306 4b3e 51dd 7b3e 9c19 3fbe
000002d0: 30df 803e c98d eebc 3f96 ce3e eeff fa3e
000002e0: 7f46 dd3e 5bfc 62be bace 043f 3a52 673e
000002f0: f549 3cbe 5f64 523e 4b82 c2bd cceb f53d
00000300: 4d82 10be 5b12 c03e 90f0 813e 62db 233d
00000310: a5ff 283e c6de 813d 50c5 063d 83b3 883e
00000320: 2416 23bd 4032 8e3e 1c41 053e 4af6 e1bd
00000330: ec37 3f3e a8e4 ac3e e85c f2bd 1d0c b93e
00000340: 79ea a2bd 13dd b83c 9def 253e 49e9 98be
00000350: 4f57 b83e 1f87 153e 998f 93be 67c1 4f3d
00000360: 8476 0f3c a49a 003e cc82 303d e551 5b3e
00000370: e6a2 a3be fbbd 3bbe de7c c7ba 100a 853b
00000380: aca9 81be df88 8b3c a9a2 ae3e f854 aebc
00000390: cffe 573d 0102 6c3e 77c7 8cbc 821e eebd
000003a0: 516a c53e e17f ed3e a022 81be 6980 83bc
000003b0: 61db 8c3e 7211 92be ee9e f2bc 871e 98be
000003c0: d2ad b3be f8c9 183d 8722 43bd f2ac b7be
000003d0: 1abf 6a3e 5aff 4bbe 31ef 423e 9d92 a03e
000003e0: b592 30bc 9cb7 033e be5e b83d c6b2 9dbe
000003f0: 0987 de3d fac0 143d 2098 cb3d c249 bcbd
-0.2969223 -0.30741626 0.18183364 0.090022534 0.06301422 -0.07779995 0.06615262 -0.39622983
0.25837377 0.31298354 0.28172138 -0.22072744 0.170277 0.40119463 0.20348132 0.48389396
0.15810671 0.6126962 0.08930825 0.057022557 0.24928215 -0.18242319 0.60884106 -0.3795506
-0.23865254 0.04689634 0.039718 0.2527876 0.10942021 0.05508965 -0.29964516 0.041368302
-0.017819641 0.11341463 0.49170953 0.40239045 -0.37862805 -0.068065844 -0.13661276 0.23761694
0.11010404 -0.24039133 -0.095796816 0.0014818317 0.13139343 0.26427034 0.124890134 -0.08022448
-0.26177022 0.17270067 0.14882188 -0.07476848 0.00088636193 0.045638237 0.49415314 -0.026698986
-0.19146617 0.08539884 0.16438223 0.19965109 0.3183599 -0.07886394 0.028158853 0.0022513815
0.5155647 0.25105223 -0.26277837 0.13706727 -0.06652029 -0.2298907 0.4546851 -0.19109179
0.36499923 0.06328922 0.12388349 0.01006595 0.044279087 -0.13174261 0.007937923 0.19869868
0.21487884 -0.44513896 -0.14041509 -0.07966881 0.32134578 -0.11326975 -0.107855394 -0.057432797
0.27337998 0.31111813 0.07920811 -0.20630786 -0.13148642 -0.16537525 0.12128344 0.30176044
0.27369726 -0.34483618 0.28276652 -0.2775826 -0.051900785 0.12983498 -0.25859472 -0.20407201
0.14534925 0.040980455 -0.11681776 -0.021403417 0.35972977 -0.15345317 0.022073343 -0.14297779
-0.2831748 -0.31059185 0.32284525 -0.0051732743 0.040284388 -0.0011850911 -0.29526183 0.096476436
0.019141153 -0.30617848 -0.17768267 0.29865378 0.0037536563 -0.17651363 0.12392882 -0.14205915
0.20063268 -0.028598953 0.055856775 0.30991492 0.21497992 0.02088343 0.6981958 -0.25377694
0.45102414 -0.20851417 0.26854122 0.41768202 0.001032698 -0.019292885 -0.12050238 0.00086279353
0.2582423 0.08248872 -0.119272225 0.0509421 -0.045834813 -0.03807192 -0.35324544 -0.0029715577
-0.27336615 -0.08840131 0.104429774 0.17047586 0.67554146 0.038417064 0.1016203 -0.09765776
0.631478 -0.050768457 0.11241933 -0.23531626 0.0993649 -0.582742 -0.119890176 -0.27354774
-0.2669204 -0.027288139 0.10780919 -0.036542915 -0.00056015496 -0.06561376 0.5170503 -0.25389788
0.359919 0.19826798 0.24596144 -0.18662113 0.2517028 -0.029120343 0.40349004 0.49023384
0.43217847 -0.22166578 0.5187794 0.2258996 -0.18387587 0.20546101 -0.09497508 0.12007865
-0.14112206 0.37514004 0.25378847 0.04000414 0.1650377 0.06341319 0.032903016 0.26699457
-0.039816037 0.27772713 0.13013119 -0.11033304 0.18673676 0.337682 -0.11834127 0.36142054
-0.07954878 0.022566354 0.16204686 -0.29865482 0.3600411 0.14602326 -0.28820494 0.050721552
0.008756284 0.1255899 0.043093488 0.21417959 -0.3196022 -0.1833419 -0.0015219708 0.0040600374
-0.25324762 0.017033039 0.34108475 -0.02128075 0.05273324 0.2304764 -0.017184956 -0.11626913
0.38557675 0.46386626 -0.2522173 -0.016052442 0.27511123 -0.28528935 -0.0296168 -0.2971079
-0.35093552 0.037301987 -0.04764035 -0.35874134 0.22924462 -0.19921628 0.19036557 0.31361857
-0.010777165 0.1286301 0.09002446 -0.30800456 0.108656 0.03631685 0.09941125 -0.09193756

b1 f4 [192]
00000000: 59f3 6db9 339f 23bd 5bb5 433e a357 04bb
00000010: edf1 cb3d a5d0 43bc f9b5 fdb9 a16d d4ba
00000020: 629b 543e 4774 563e 1448 003e c063 c7b7
00000030: c176 373e 835e e6bb 8e96 943d 895e b73e
00000040: a857 4e3c 38ff 233f 6d48 06bd 1a0d 6bb9
00000050: 6518 e13e d7b6 ed3d 90e9 d13e 80fb 37bc
00000060: 0fb2 2abd cab6 0c3e de36 013e 8a72 983a
00000070: 979a 6c3e 56c1 823b 9502 dc3c 2e46 963e
00000080: 0b8b a03d 6834 143e 4c45 853e f211 f63e
00000090: db54 2abd 485c b03d 0000 0000 df4a 843d
000000a0: ae68 5c3e 06db a8bd 3ced d93b 7b79 71bb
000000b0: 5624 253c e90f 903d b337 2cbc 8469 8b3e
000000c0: 5ee1 0a3a b479 e13d e440 073e f42b 7f39
000000d0: 44b4 6d3e da39 6b3e cac0 943e e06d 983e
000000e0: 0000 0000 262a 273e f815 333d 44c1 fd3e
000000f0: f510 ad3e 20ab 66bc 1a88 a03e e4b2 6d3d
00000100: f895 203f d10e 963e 8952 433c 3bf4 e13d
00000110: fade 2b3e c346 1dbc a04a 4e3c 7ba2 b1bb
00000120: 7442 e13b 36d7 db39 2d38 71bc 970a dab8
00000130: 381f 88bd 4f3a a2bc a00a 803b 68d4 043d
00000140: fbf3 163e 0000 0000 f516 e63a 2ed6 81bd
00000150: e5c0 00bb 96bd 3b3e 3eb7 713e 1cc1 19bc
00000160: a171 9fbc b4f7 313e 8e0f 6ebd 3049 1ebd
00000170: 5432 613d 6655 23b8 dce5 c93b 132d fe3e
00000180: 7185 fc3d b70d e337 c1f6 113e da46 31bb
00000190: 33cb 233e 2b5e 1cbc a4ed 063d 27dd 53bc
000001a0: a845 e9bb 01c2 973d 11e3 813d bf0e ee3c
000001b0: 2553 8b3d 5e75 e83e 25f5 2d3e 971d 19bd
000001c0: 22c4 d23b 0000 0000 ec87 8f3e 2e5a 8f3e
000001d0: 0636 d5b8 e5e7 163c 4824 ae39 62af 7e3e
000001e0: 878a 813d 6f66 ddbc 97e0 f4bc 1ccc ce3e
000001f0: ef24 ccbb 296b 03ba 8be0 943b e665 0f3e
00000200: 26eb 473e 1c94 063d 77f1 4a3c d0b1 de3c
00000210: d685 45bd 5fc5 013d 7f7a 0e3f bfc8 063b
00000220: bb7e b23e 054b b9bc 2eda c63c d834 f33c
00000230: 9d30 0f3d d33c 613d eb10 c33b f748 c8bb
00000240: f998 513d 68d6 d73d d75d 11bd 3ff1 5a3d
00000250: 98eb 553d 684c f23b 0000 0000 dae8 11bb
00000260: d02e 643c e6e4 033e b402 bf3d 18ab 923c
00000270: 786c e23e 4db7 973c 465c c33e dd57 4c3e
00000280: e645 a73e 0375 d53d d86e 613e 9f21 a33d
00000290: dad2 34bc ddde fb3c f732 eabc 4353 37bb
000002a0: c611 093d 2432 913d 6797 a03d 3126 b83c
000002b0: 9c8f 183d 9193 7e3e c1b3 533e 85f0 c93d
000002c0: 3302 343e 7f4b 0bbc 9975 bbbb e100 a4bd
000002d0: b2c9 b3ba aad4 fbbb c70f 393f a211 923e
000002e0: 273e d23d 35fd aabc ed76 403f b044 0b3f
000002f0: 4fa6 11bd 1091 cd3e 6a25 0dbb 36ee 963d
-0.00022692735 -0.039946746 0.1911215 -0.0020193837 0.09958253 -0.0119516 -0.000483915 -0.0016206988
0.20762399 0.20942794 0.12527496 -2.3769098e-05 0.17916395 -0.0070303096 0.072552785 0.35814312
0.012594141 0.6406131 -0.032783914 -0.00022416227 0.43963924 0.116071396 0.40998507 -0.011229396
-0.041673716 0.13741603 0.12618586 0.0011630815 0.23105846 0.0039903326 0.0268567 0.29350418
0.0783902 0.14473116 0.26029432 0.48060566 -0.04158483 0.08611351 0.0 0.06459593
0.21524307 -0.082449004 0.006650595 -0.003684609 0.010079464 0.070342846 -0.010511327 0.2722894
0.00052978646 0.11009541 0.13208348 0.00024335069 0.23213297 0.22971287 0.29053336 0.29771328
0.0 0.16324672 0.043722123 0.49561512 0.33802 -0.014078885 0.31353837 0.05803193
0.62728834 0.2930818 0.011921533 0.110329114 0.16784278 -0.00959939 0.012591034 -0.0054209805
0.006874377 0.0004193128 -0.014722866 -0.000103970226 -0.066465795 -0.019803194 0.0039075166 0.03242913
0.14741509 0.0 0.0017554449 -0.0633968 -0.0019646224 0.1833404 0.23605058 -0.00938442
-0.019463362 0.17379647 -0.058120303 -0.038644016 0.054979637 -3.8941762e-05 0.0061614346 0.49643764
0.123301394 2.7066895e-05 0.14254285 -0.0027050287 0.15995483 -0.009543936 0.032941476 -0.012931145
-0.0071188994 0.0741005 0.063421376 0.029059766 0.06802968 0.45402044 0.16988046 -0.037381735
0.0064320723 0.0 0.28033388 0.2799849 -0.00010166694 0.009210561 0.00033214898 0.2487159
0.0632525 -0.027026383 -0.029892249 0.40390098 -0.0062299888 -0.00050132215 0.004543369 0.14003715
0.19523296 0.03285609 0.012386671 0.027184397 -0.04822334 0.03168237 0.55655664 0.0020566431
0.34862313 -0.02261878 0.024273958 0.029688284 0.03495847 0.054989647 0.0059529445 -0.0061122137
0.051171277 0.105389416 -0.035489883 0.053452726 0.052226633 0.0073943622 0.0 -0.0022264034
0.013927177 0.12880287 0.093266875 0.01790385 0.4422338 0.018520022 0.38156337 0.19955392
0.32670516 0.10422709 0.2201494 0.07965397 -0.011036599 0.030745918 -0.028588755 -0.0027973212
0.033464216 0.07089642 0.07841378 0.022479149 0.03724633 0.2486098 0.2067404 0.098603286
0.17578964 -0.008501886 -0.005720806 -0.0800798 -0.0013716726 -0.0076852636 0.722897 0.28529078
0.10265761 -0.020872692 0.75181466 0.54401684 -0.035558995 0.40149736 -0.0021537193 0.07369654

W_action_type f4 [192, 4]
00000000: c4a7 52be a30b f23c 3836 15bd 7d96 d5bd
00000010: 392a dc3c 780c fabc 3b56 87bd 5368 56bd
00000020: 0f50 d23d 8dae b1bd 38f7 aebe 6b91 a93c
00000030: 5069 2bbe c9b0 22bd 9cb0 2e3d 775b d6bd
00000040: fa74 ffbc 02fe 7fbd 3c08 5ebe 2b9c 3abd
00000050: e9a8 87bd 63d2 593d f3aa b9bd 01f3 873c
00000060: 4139 7d3e bb19 98bd d9c2 bc3d da9e f0bb
00000070: 760b 9dbb 7b20 94bd 30d4 ed3c 71ec 9a3d
00000080: d0a3 f13b 7aa3 04be ad04 16bd 732b 0dbe
00000090: 16e5 a0bd 21c7 efbd 53d6 7abe a160 b6bd
000000a0: a054 cebd 3b43 b5be 5ae2 24bd 316d d4bb
000000b0: 9c74 503d 68c5 8ebe 1873 293e e14d 313d
000000c0: a9ef 32be c904 473d 65cc 983d 7aeb 013e
000000d0: 2ab3 62be 9e0d 5ebe d376 0e3e 8fe7 b73c
000000e0: 1a43 77bd 77c7 14be 11dc c03d 50d1 423d
000000f0: 881c cebd b4cc c13d d977 9e3e 6b89 2abe
00000100: 8630 ddbc d2ee 613e ba21 193c 7736 a1bc
00000110: be2c 313d ea5a adbc ecb3 223e 07d0 efbd
00000120: 7fd8 d5bd 3316 873d 1ecb 293e e50f f5bd
00000130: f860 dfb8 e109 463e 2b3d 8f3d 5540 aabd
00000140: a344 103c a2f2 3fbd e8d6 d03c 0ad2 283d
00000150: d291 a73d 11f0 0d3e 84a4 34be 910f 19bd
00000160: 1ee9 d5bc 4426 263d 4ced 93bc ee89 a8bd
00000170: dd1f b2bd 075e b2bc fd57 f2bb dfbb 413d
00000180: 921b 22bb 2881 3bbd 6d3f 8c3c 6319 fe3d
00000190: 3c3f 08be 885b 7b3d acc6 ec3b 7915 763b
000001a0: 4eaf 88bd 2d6e ee3d db27 8abd 7b40 b33c
000001b0: c7a9 7c3d a1ad 263d 7d29 f9bc 3684 103e
000001c0: 67ea e5bb 900b 903d e9de 3dbd cb94 4cbd
000001d0: 9377 b2bc 4f1e 8fbe 8b06 01be 9a25 60bd
000001e0: aaa6 b33d 6df6 16be 87d4 67bd c70f f8bd
000001f0: 82ef 40bd 7fcf dcbd 9aff d6bd c744 163d
00000200: 7274 5e3e 23f5 4dbd 08fe 80bd 3807 f23b
00000210: aaef eb3c 28f3 013e a36e 843c 4566 45bd
00000220: c450 1f3d 8fea 5fbd 4c26 0ebd d476 373e
00000230: 2722 87bd af4d 8b3d fdd5 0d3c 49b0 c83a
00000240: a216 0abd b396 d03b 1a40 133b a7a0 f4bc
00000250: a2cd 35be b161 03be 9673 2f3e b8cf 32be
00000260: 20fe 3a3d 0243 b4bb 3b72 d83d b726 ddbd
00000270: 2054 46bd 1ee3 7c3e f470 91bb 0ce6 45bd
00000280: 25eb 81bc 1e1f ce3d cc9f d1bd baf9 15be
00000290: cee7 da3d 13a2 7bbd 5afb c93c 1e7d 12bc
000002a0: 8552 c43d c99d 3ebb 2e52 f6bd 4e15 b7bd
000002b0: 0b71 e53d 609f 5abc 3f66 10be f5f1 86bd
000002c0: dc33 863c 6ebb f13c f24a 56bc d491 10be
000002d0: 3b1f 8fb9 3531 c23d 8e1b 2c3d 8faf 99bd
000002e0: fdf5 09be 033a c0bd 5f27 883e 8a17 bfbd
000002f0: f02c b93d 13d5 c73b d671 ba3d 5e4f 6d3c
00000300: f6d5 b53c 9b53 793d 9d04 453d 23e0 24bd
00000310: 0013 40bb ef2a b0bb 027d c13d 1d71 363d
00000320: 409a 72bd 08cf df3d 334e 00be 1d3d e8bd
00000330: 4ecf 193e 3f08 45bd 04d8 643d 6de8 3e3e
00000340: 9ab2 e93b e308 83bd c7d6 b3bd 35b7 b0be
00000350: df3b 0abe 7376 8d3d 698b df3d a5e5 343e
00000360: 5291 32bd 3f7d 143d fb55 0cbd 34b6 d7bc
00000370: 4e4c b6bd d9dc f9bd 2864 903d 711e 763c
00000380: b1ea c8bd c1f6 19bd 3e21 063e de57 3cbd
00000390: b6e7 5abc c8ac 3d3e 8228 413b e574 9c3d
000003a0: 99bc 95bb 885e 023e 83a8 6a3d 7eea af3c
000003b0: 4a8f eabd 67a8 033e 272b 80bd 9ed5 863a
000003c0: 29be 773e 7f00 003e e5f0 833d 9286 ddbd
000003d0: 3dd2 81bd c085 4e3d 5e91 3abe 568a a6bd
000003e0: 04e0 86be 6e2b 00be bf4f 1dbe 31c5 0d3e
000003f0: c7c8 113d 6027 9c3d 3980 45bd da07 f73d
-0.2057181 0.029546564 -0.03642866 -0.10429094 0.026875602 -0.030523524 -0.06608244 -0.052345585
0.10269176 -0.08675871 -0.34172988 0.020699224 -0.16739392 -0.039719377 0.042648897 -0.10466664
-0.031183708 -0.0624981 -0.21682829 -0.04555909 -0.06624014 0.053179156 -0.09065809 0.016595365
0.24728872 -0.07426783 0.09216852 -0.0073431553 -0.004792626 -0.07232758 0.029031843 0.07564629
0.0073742643 -0.12952986 -0.036625553 -0.13786106 -0.07856195 -0.11707903 -0.2449582 -0.08905149
-0.10074735 -0.35402855 -0.04025493 -0.006482743 0.050892457 -0.27884984 0.16547811 0.04328716
-0.17474236 0.048588548 0.0746086 0.12687483 -0.22138658 -0.21684882 0.13912515 0.022449283
-0.060366727 -0.14529215 0.09416974 0.047562897 -0.10064036 0.09462872 0.30950812 -0.16653983
-0.027000677 0.22063759 0.00934642 -0.019679291 0.04325556 -0.021161515 0.15888947 -0.117096
-0.10441684 0.06596031 0.1658139 -0.11965922 -0.000106515305 0.19339706 0.06994089 -0.083130516
0.008805427 -0.046862252 0.0254931 0.041215934 0.0818211 0.1386111 -0.17640883 -0.03736836
-0.026112135 0.040563837 -0.018057488 -0.08229433 -0.08697484 -0.021773351 -0.007395743 0.04729831
-0.0024735671 -0.04577747 0.017120088 0.12407186 -0.13305372 0.061366588 0.007225832 0.003754942
-0.06674062 0.11642108 -0.06745883 0.021881333 0.06168535 0.04069293 -0.030415291 0.14112934
-0.0070164683 0.07033455 -0.04635516 -0.049946588 -0.021785533 -0.2795281 -0.12600152 -0.05472336
0.08772023 -0.14742441 -0.056599166 -0.12112384 -0.047103412 -0.10781764 -0.10497971 0.036686685
0.21724108 -0.05028261 -0.062984526 0.0073861144 0.028800804 0.12690413 0.016166037 -0.048193235
0.038895383 -0.054667052 -0.03470449 0.17916423 -0.06598311 0.06801926 0.008656976 0.0015311326
-0.03371299 0.006365621 0.0022468627 -0.029861761 -0.17754224 -0.12830235 0.17133936 -0.17462051
0.04565251 -0.005501152 0.10568663 -0.107984 -0.04842007 0.24696013 -0.004438514 -0.048315093
-0.015859196 0.10064529 -0.10235557 -0.14646044 0.106887445 -0.061433863 0.024655987 -0.008940963
0.09586052 -0.0029085747 -0.12027393 -0.089396104 0.11203202 -0.013343662 -0.14101504 -0.065891184
0.01638215 0.029508319 -0.013079392 -0.14118129 -0.00027298354 0.09482042 0.042018466 -0.07504188
-0.13472743 -0.09386065 0.26592538 -0.093306616 0.09041774 0.0060983985 0.09103744 0.014484255
0.022196751 0.060870748 0.048100103 -0.040252816 -0.00293082 -0.005376212 0.094476715 0.044541467
-0.059229136 0.1092816 -0.1252983 -0.113397814 0.15020487 -0.048103567 0.05587007 0.18643351
0.0071318867 -0.063981794 -0.087812 -0.34514776 -0.13499402 0.06907358 0.10915262 0.17665727
-0.04359562 0.036252256 -0.034261685 -0.026331998 -0.08901273 -0.122003265 0.07050353 0.015021906
-0.09810389 -0.03758884 0.13098618 -0.045982234 -0.013360908 0.18522942 0.0029473607 0.07639483
-0.0045696017 0.12731373 0.05728961 0.02147412 -0.114531115 0.12857209 -0.06258231 0.0010287052
0.24193634 0.12500189 0.06442431 -0.10816683 -0.06338928 0.050420523 -0.18219516 -0.08131854
-0.26342785 -0.12516567 -0.15362452 0.13844754 0.035591867 0.07624698 -0.048217986 0.120620444

b_action_type f4 [4]
00000000: 369b 98bb 0950 19ba 1a9d 1bbc ad7f 713c
-0.0046571745 -0.0005848413 -0.009497905 0.014739913

W_play_habitat f4 [192, 4]
00000000: ff5a bf3d 39f3 043e 7996 c73a 48f9 91bd
00000010: a3b5 ca3d 4950 d5bc c806 5fbe 8cb8 093e
00000020: e518 26be 66d7 3ebe ec70 04bd 8e49 33be
00000030: a507 3fbe ca53 153e 5439 7a3c e671 253d
00000040: 2ea9 99bd 0388 a2bd 8d05 1abd 768a a23c
00000050: b757 bfbd 35eb 44be 7442 0dbe 9cdc 2b3e
00000060: d30e 5abd 0b96 ca3d 94b1 5b3e 9b86 3d3c
00000070: 9bcd 18be a62b 21be 9c1f 0c3e 0e88 7cbd
00000080: 286a 17bc d7dc 10bd 4b40 113e 7f14 973d
00000090: f83f 5fbe e3a0 f7bc 75a0 7b3d a46b ad3b
000000a0: de65 b93d d434 de3b 716b 15bd bbca 37be
000000b0: c999 b83d 95f7 9dbc 3c61 ed3d bad2 113c
000000c0: b041 363e 933e e0bd c93e 2e3d 3efd 263a
000000d0: dd9b 89bc c78e 503e 505c 59bd de13 2cbe
000000e0: 7395 9ebd d0a4 9ebd e9ee 12be c32d c837
000000f0: 8e08 353c 0a30 0fbe 8eee 98bd fa8b 4a3c
00000100: 2c60 95bd edbd e93d 4c55 e23d 2a6e 81be
00000110: b78e f23d edb9 08bc 3e2d 02be cd4e 5abe
00000120: bc7f 55be c6ea aebd 315c 0ebd bccb bb3b
00000130: c4fb a3bb 59dc 8dbc 379c 113e 44a6 9c3c
00000140: 900f ee3b 851c 0abd 26b3 2d3d 4a75 79bd
00000150: 93d7 7c3d 2489 e4bb 6b76 cebd cf1e 283e
00000160: 5c85 0dbd 120c c03d 7a40 d93b 521e 35be
00000170: 4ab9 5ebd b6fd 6c3e 4a4b 7d3d 0bfd f43d
00000180: e310 a83d 9a41 673e 6419 e5bc 2692 75be
00000190: c87b 7a3d dd67 5ebe 2aee ef3d d22f 6cbc
000001a0: d110 b13d 38e6 383e 3930 c5bc 94a3 3a3d
000001b0: c8b8 223d c4ad 67bb 9df6 923d 1e92 1e3d
000001c0: 1d7e d7ba af6f 6dbc 9814 133e cdf4 d73d
000001d0: 7b91 953d ecb6 45be 85d4 3fbc c5c2 ffbd
000001e0: 50d3 a83d 2be0 e2bc 5d00 603d 330a 953e
000001f0: 5d4b 423b 054f 80bc 9606 01bd 5f1b 383a
00000200: ef57 afbc ab17 fd3d d9f8 0abb 7252 9b3d
00000210: 8084 993d 9874 b93c f2b1 673d 1328 01bd
00000220: ceed 35be 7784 82bd 96a9 1e3c ab86 93bc
00000230: a6a9 713e 0ceb babd b8dd a13d 8cfe 163e
00000240: 5900 953d c985 cabc 8f5a 9d3d 00ec b03c
00000250: f114 413d 6c39 aabd 5bf0 0abd 041a 81bd
00000260: 0386 6e3c 14ee 25be d01a f0bc 4563 7fbd
00000270: 1d30 503d 09aa 8e3d ba7d 213e cbb1 debc
00000280: 365d 72ba 9dba 47bb b6ff f2bc 0f00 e83d
00000290: 0e93 a73d 449b ee3c 6cb9 963d 340c f33d
000002a0: a55b d0bc 18b8 e83d 8759 853d 4846 aa3d
000002b0: 2f48 0b3d a09f e0bc 3186 b2bd d921 da3d
000002c0: 736c 503e d7de 3dbe 78ea 1a3e 5730 503d
000002d0: 5c67 dbbd 354a 583e 41d8 283c 9e5e 173d
000002e0: 7a55 88bd a83f c23c b25e 9fbd d8c4 503e
000002f0: c0f8 a73d 5ea7 d93d d1d8 c3bd b7d6 883d
00000300: a3ac bcbd 85a7 0e3e 1f2d 3fbd 9086 aa3c
00000310: 8ae5 32be 439e d43d 195e 0abd 1a87 88bd
00000320: c7e0 453e 52e8 093d 7662 62bd 98e4 47be
00000330: 7617 5fbd 16ec 47bc 525b 6fbd 7d98 b73a
00000340: 8f25 b93d 7adb c7bd 472a d73d 8a3c 29bd
00000350: 4b03 943c 23fb b7bb 7cca 8fbd 86fe 8bbe
00000360: eca1 41bd 237e 853d 85cc babd 9244 0a3e
00000370: 1250 86bc 11d4 acbc e510 b1bd 9077 083e
00000380: 9c9e a3bd 6f5e 9bbc 19e7 8c3d 6110 5abc
00000390: 0e68 8c3e b207 c73d ac80 b5bd 49c5 093d
000003a0: 0a70 22bd 9ecd b7bd be3c e3bb e817 123e
000003b0: 67d6 433d 00c7 b63d 50e1 233e 3aa5 1fbd
000003c0: df94 a3bd 61bb 803d 96b9 efbd 75cf a2bd
000003d0: cfc7 4cbe 2cf0 063e 55ff ab3d 4b9d a43c
000003e0: d65e d3bc 22cd 8b3e 6256 f4ba e51b a3bc
000003f0: 4533 903c 769d d93d b8e7 dd3d 837c 6ebd
0.09343528 0.12983407 0.001522734 -0.07127625 0.09897926 -0.02603926 -0.2177993 0.13449305
-0.16220434 -0.18636855 -0.032334253 -0.17508528 -0.1865526 0.14582744 0.015272457 0.040391825
-0.075029716 -0.079360984 -0.03760295 0.019841414 -0.09342902 -0.1923035 -0.13794881 0.16783375
-0.053236794 0.098919 0.2145446 0.011567737 -0.14922182 -0.15739307 0.13683933 -0.06165319
-0.009241618 -0.03536686 0.14184682 0.07376956 -0.21801746 -0.030228084 0.06143232 0.005292373
0.09052633 0.0067812 -0.036479417 -0.1794843 0.09013707 -0.019283095 0.115908116 0.008900339
0.17798495 -0.10949435 0.042540345 0.00063701335 -0.016797954 0.20366965 -0.05306655 -0.16804454
-0.07743349 -0.07746279 -0.1434895 2.3863167e-05 0.011049403 -0.13983169 -0.07467376 0.012362475
-0.07293734 0.114131786 0.11051425 -0.2527936 0.11843627 -0.008345109 -0.12712571 -0.21319123
-0.20849508 -0.08540873 -0.03475589 0.005731074 -0.005004378 -0.017316984 0.14219747 0.01912225
0.007265039 -0.033718605 0.042407177 -0.06090287 0.061729025 -0.0069743562 -0.1008118 0.16418003
-0.03455101 0.09377302 0.0066300007 -0.17687348 -0.054375924 0.23143658 0.06183938 0.119623266
0.08206346 0.22583619 -0.027966209 -0.23981532 0.061153203 -0.21719308 0.11715348 -0.014415698
0.086457856 0.18056571 -0.024070846 0.045566157 0.039727002 -0.0035351375 0.07175944 0.038713567
-0.0016440783 -0.0144919595 0.14363325 0.10544739 0.07303139 -0.1930806 -0.011708383 -0.12488321
0.0824343 -0.027694782 0.054687846 0.29109344 0.002964697 -0.01566268 -0.03150042 0.00070231216
-0.021404235 0.1235803 -0.0021205454 0.075840846 0.074959755 0.022638604 0.056566186 -0.03153236
-0.17766497 -0.06372922 0.009683987 -0.01800855 0.23599872 -0.09126863 0.079036176 0.1474554
0.07275457 -0.024721997 0.07683288 0.021596909 0.047139112 -0.083117336 -0.033920627 -0.0630379
0.014558318 -0.16204101 -0.02930966 -0.06235053 0.050827134 0.069660254 0.15770617 -0.027184388
-0.0009245457 -0.003047622 -0.029662948 0.11328136 0.08182345 0.02912677 0.07359585 0.11867562
-0.025434325 0.11363238 0.065112166 0.08314186 0.034004387 -0.027419865 -0.08717001 0.10650987
0.2035387 -0.18542038 0.15128505 0.05082735 -0.107130736 0.21122058 0.010305465 0.03695547
-0.06656928 0.023711994 -0.077817336 0.2038759 0.08201742 0.10627626 -0.09562839 0.066815786
-0.09212615 0.13931091 -0.04667389 0.020816118 -0.17470375 0.103817485 -0.033781145 -0.066663936
0.19324027 0.033668824 -0.05526968 -0.19520795 -0.054465733 -0.012202283 -0.0584367 0.0014007237
0.09040367 -0.09758659 0.10506111 -0.0413175 0.018067976 -0.0056146546 -0.07021043 -0.27342623
-0.04727356 0.06518199 -0.0912104 0.1350272 -0.016395602 -0.021097215 -0.086458005 0.1332686
-0.07989237 -0.018965928 0.06880016 -0.013309569 0.27423137 0.09718265 -0.08862433 0.03363541
-0.03965763 -0.08974765 -0.0069347313 0.14266932 0.047811892 0.08924675 0.16003919 -0.03897593
-0.07987379 0.0628574 -0.117053196 -0.079497255 -0.19998096 0.13177556 0.0839831 0.020094534
-0.025802057 0.2730494 -0.0018641467 -0.019910762 0.017602572 0.106257364 0.108352125 -0.058224212

b_play_habitat f4 [4]
00000000: 0df9 6f3a 8095 213c 7022 d5ba ccf0 15bc
0.0009154238 0.009862304 -0.0016260874 -0.009151649

W_gain_food_primary f4 [192, 7]
00000000: d225 0cbd 1af3 043e 6c43 fa3c 56be 913c
00000010: 5d13 c8bc 5025 b8bd ebf8 57bd 7d08 59be
00000020: d0ac c2bd f134 c53d 11cb 723e 1ddc a8bd
00000030: 1d70 08be b392 7d3d cb2e bfbd 806a 7d3c
00000040: 039e 273d 66aa fe3c c8b5 f6bd 08c8 01bd
00000050: e7ef 053e b9b9 533c 3780 c93d 3440 273e
00000060: ef42 6cbc d26f 22be ef09 8a3e 4a49 dfbc
00000070: a4bf b5bd 73e1 f13d 65b9 6abd 2e30 453c
00000080: 35b6 933d f4b9 ecbd ffdc eabd 8a4b fcbd
00000090: b6bc 3a3e ea29 adbd 4faf e2bd 0ad1 df3d
000000a0: 1a12 203e 1027 0dbd 3ba1 963d 556e 3cbe
000000b0: 4deb b73d 8256 823d 1513 a6bc 7aa9 883d
000000c0: d52d fd3c 6520 ddbd 0f0a 943d 65b2 983d
000000d0: 97ed b3bd f75f adbd 1e0c 36bc 5d71 363e
000000e0: 53de 93bc 31d5 d23d d433 4c3d ef6f 403e
000000f0: 6f42 8a3c a091 543e 3015 a93c 337f f63d
00000100: 49b8 983c a077 39be 2f02 c03d 0894 a93d
00000110: 737d 333d 3a7a 383e 09db abbc 125b 2a3d
00000120: d0e6 06be f247 603e e0b5 013d 64f4 98bd
00000130: aff7 c93d 282f 8abd 74a6 fcbd b8f4 be3d
00000140: ac23 e33c 46cc 63be 9a7c dabc 12fd 4d3d
00000150: ee99 ec3d a682 27bd e953 27be 07f7 60bb
00000160: 3f23 8c3d 2fc0 a6bc 7273 65bd 6415 c7bd
00000170: 7ca8 3b3e af61 33bd 6ac7 233e a95d 383d
00000180: 7fac 073e 0550 5bbb af97 bc3d a6a6 ce3d
00000190: 91a9 9b3d 5fd3 ecbb ae31 123e e064 16bd
000001a0: 7e0f babc cf8a 00be 82b4 a33b 3733 24bd
000001b0: 98f1 34bd da18 b3bd e758 363d 061e 353d
000001c0: db9d e03d f9e5 8d3c 4a5e adbc b441 c9bc
000001d0: c62a 62bc 94ce 913e 121b 15be 6d12 dabc
000001e0: 4fde afbd 5140 c83d 731e df3b f4d2 a6bd
000001f0: 5faf 123e 2525 c1bd bb61 0f3c 72a4 bcbd
00000200: ef7f 193e cb80 b0bc b7c6 8bbd df48 073e
00000210: bf75 513c 3604 163d 0788 2ebc efbc 013e
00000220: 7d72 333d e598 653e 9090 22bc e62e f8bd
00000230: feec 8cbc 38e1 91bd 7c71 7d3d 7d47 f33c
00000240: 0a61 afbc 7045 a23d c1e0 1fbd f286 b43d
00000250: 1a65 133e 2fd0 20be 6cb5 8abd 0e63 f3bd
00000260: 75a9 db3d 2a37 85be b2ba b5bd be60 773c
00000270: e29c f43d 7955 733d e3fe d63d 25e2 8f3d
00000280: 7bed 163e 0e18 be3a d67c fabc 711b 503d
00000290: d553 c2bd b1e1 443d 6e05 ba3d e133 aebd
000002a0: 7693 4abe b84b b33d 58dd 5bbd cd1e 3ebd
000002b0: a287 093d 37fe f8bd 3df7 5f3e 3dd4 493d
000002c0: 268f 843d 45d1 f7bd 6fdf 16bd 42b3 2e3d
000002d0: 35c7 633c e62b fabc e9a6 f03d a84f cc3d
000002e0: bde3 d5bd cae4 01be ba55 7f3d 714f 2bbd
000002f0: f976 b73d 0e77 67bc f6c6 803d 0ee9 8f3d
00000300: c5a2 0abe 7869 0dbe 642f be3d 498d 5ebe
00000310: b495 90bd c196 4b3d 4424 16be 3dcc 85bc
00000320: d1ab 683d 3789 973c f343 683d dc96 2bbd
00000330: e58f e3bc 09d0 7a3d b08f 10be 421d 35be
00000340: a222 b33c 69e9 86bd 9949 b13c 32ef 0cbd
00000350: 68b3 80bd 07fe 873e 2fdb 7dbe 5c4d 403e
00000360: 0e92 cb3c d0f4 81bd d987 35be bd6e eebd
00000370: faaf 0f3e d47c 65ba 7be3 2a3e 8aef 94bd
00000380: 9979 68bd 40d2 f43d 03d1 043c e957 423e
00000390: 7f13 773d 8f4b 423d 6161 c33c 2605 a33d
000003a0: 3e0d f53c f50f 4f3e cf40 36bd 36a4 1d3e
000003b0: 9cca 7c3e d303 40be d8eb df3d 0905 c6bc
000003c0: 2a63 933d deff 0dbe fb1f ba3d 02b4 15bd
000003d0: e152 7a3e 1364 b43d 5fa5 a7bb 718b d7bd
000003e0: 7c5e 3bba d3e8 993d 5710 813b a40d 623d
000003f0: daab 06bd e8f5 053d 11b3 be3d a99e 14be
-0.034215756 0.12983361 0.030549727 0.017790955 -0.024423296 -0.08991492 -0.05272762 -0.21194644
-0.095056176 0.096292384 0.23710276 -0.08245108 -0.13324018 0.06190748 -0.09335097 0.015467286
0.040922176 0.031087112 -0.12046391 -0.031684905 0.13079797 0.012922698 0.09838908 0.16333085
-0.014420255 -0.15862969 0.26960704 -0.027256627 -0.08874443 0.11810579 -0.057305712 0.012035413
0.072124876 -0.11558905 -0.11467933 -0.123190954 0.1823605 -0.0845526 -0.11068594 0.10928543
0.15631905 -0.03446108 0.07354971 -0.18401463 0.08980427 0.06364156 -0.02027277 0.0667295
0.030905643 -0.107971944 0.07228481 0.07455901 -0.08785551 -0.084655695 -0.011111287 0.17816682
-0.018050348 0.10294569 0.049854115 0.187927 0.016877381 0.20758677 0.020639986 0.1203598
0.018642562 -0.1811204 0.093754165 0.08280188 0.04382081 0.18015376 -0.020978468 0.041590758
-0.13173985 0.21902445 0.03166759 -0.07468489 0.09861695 -0.067472756 -0.12336436 0.0932402
0.02772697 -0.22245893 -0.026670743 0.050290175 0.11552797 -0.04089608 -0.16340603 -0.0034326927
0.0684266 -0.020355312 -0.0560183 -0.09720877 0.1832599 -0.04379433 0.15994039 0.045011196
0.13249396 -0.0033464443 0.09208619 0.100903794 0.076007016 -0.007227346 0.14276764 -0.036717296
-0.022712465 -0.12552951 0.0049958834 -0.040087905 -0.044175714 -0.087449744 0.044518378 0.044218086
0.109676085 0.017321574 -0.021163125 -0.024567463 -0.013804143 0.2847792 -0.14561108 -0.026620114
-0.08587324 0.097778924 0.0068090498 -0.08145705 0.14324711 -0.09430913 0.008751328 -0.09211053
0.14990209 -0.021545788 -0.06825011 0.13211392 0.0127844205 0.03662511 -0.010652549 0.12669729
0.043810356 0.22421606 -0.009922162 -0.1211832 -0.01720285 -0.07123035 0.061875805 0.029697174
-0.021408577 0.079234004 -0.0390327 0.08814801 0.14394036 -0.15704416 -0.06772885 -0.118841276
0.10725681 -0.2601865 -0.088735 0.015098749 0.119439855 0.059407685 0.104978345 0.070255555
0.14739029 0.0014503018 -0.030577105 0.05080742 -0.09488646 0.0480668 0.09083067 -0.08505989
-0.19782814 0.087546766 -0.053677887 -0.046416093 0.033576615 -0.12157863 0.21871658 0.04927467
0.06472616 -0.12100462 -0.036834177 0.042651422 0.013902475 -0.03053851 0.117505856 0.09976131
-0.10443828 -0.12684932 0.062337615 -0.041823808 0.08958239 -0.014127506 0.06287949 0.070268735
-0.13538654 -0.13809764 0.09286383 -0.21733584 -0.070598036 0.049704317 -0.14662272 -0.01633274
0.056804482 0.018498046 0.056705426 -0.041891918 -0.027778575 0.061233554 -0.14117312 -0.17686942
0.0218671 -0.06587488 0.02164154 -0.034407802 -0.06284219 0.26560995 -0.24790643 0.1877951
0.024849918 -0.063455224 -0.17727603 -0.116422154 0.14031973 -0.00087542576 0.1668834 -0.07272251
-0.05675659 0.119541645 0.008106473 0.18978848 0.060321327 0.04743534 0.023850145 0.07959966
0.02991354 0.20220931 -0.0444954 0.15394673 0.24686664 -0.18751459 0.109336555 -0.024172323
0.071966484 -0.13867137 0.09088131 -0.036548622 0.24445678 0.0880815 -0.0051161493 -0.10524643
-0.0007147563 0.07515111 0.0039387154 0.05518879 -0.032878734 0.032705218 0.09311498 -0.14513649

b_gain_food_primary f4 [7]
00000000: c6d0 123c a404 0b3c aefd 8d3a 112d 883c
00000010: ba50 61bc b61e ffbb 1f0f 5fbc
0.008960908 0.008484993 0.0010833049 0.016623052 -0.013752157 -0.0077856435 -0.013614445

W_draw_mode f4 [192, 4]
00000000: b45a e23a d204 f4bc 5100 82b8 a3f3 49b9
00000010: dd54 3a3c dabb 883d dc8e 49be 1be9 00bb
00000020: 9cfe 383d 7751 82bd 9ef4 d2bd 64a8 40bd
00000030: 678e 053d 1c8e 62bc c063 1f3d 447d cbbc
00000040: bcf3 8abe f7b0 67bc 1da6 2cbe edcf 8bbd
00000050: 7d84 f4bd 5aef 163e aef1 de3c acb7 513e
00000060: efa5 1cbd 46be 763d d495 20be f21d 4ebc
00000070: 4696 ddbd be62 8f3d e1ab b53c 5a15 ecbd
00000080: 4227 0f3d d18a 82bc 1534 293e 4a55 9fbc
00000090: 1432 80bd c7aa febc 38fd fa3c 4760 5bbd
000000a0: 5279 49bd 4933 0fbd 9c63 d4bd 57b0 5b3d
000000b0: 7afe 20bd e22a 02bd dd26 07be 54bc a5bb
000000c0: 5578 0dbd 1690 3a3d 4d19 2fbe 6322 093c
000000d0: 965c 24be f1fd 37bd e220 04bd dd27 283e
000000e0: af46 b93c 849e 36bd 2844 3ebc d5c7 73bc
000000f0: d4b3 9bbd 6bb6 453c 9689 41bd a937 c73d
00000100: 482f 3d3e 1f2e 83bd 7d17 aebd 5eaa f1bd
00000110: 0886 2ebd dfba 97bd a07f 9b3d 5d7c b43d
00000120: 6330 bb3d 0693 acbd ca75 753d 8991 58bd
00000130: 6459 8abd d44b 6fbd e672 19be 2f6e e53d
00000140: bb3d 0abd 43ef e23c 70a7 9fbc 5e52 ebbc
00000150: 1e7b 3d3d fef9 3bbe efea d23d b07e 0bbc
00000160: d44b bbbb 819b 49bd 8128 2a3e a70f 923d
00000170: 4456 0a3e 1327 8e3d 49f8 483e e194 433d
00000180: 090b efbc c3df b73b 8f9c d03c c716 43bd
00000190: a021 2e3d 3a22 203e d7aa af3d cfe6 d63d
000001a0: 3bd5 c53a d689 403e 86b5 65bd f0cb f9bd
000001b0: b8f5 a7ba 6fd8 44be 7894 14bd e03e 7d3d
000001c0: c68c 9fbd c6f3 753d b2fe 8f3c 822e b93c
000001d0: 094b 693d 89a0 a43d 36e8 04be 4303 b4bc
000001e0: 1b61 a2bd 0691 9a3c 0b90 fcbd 8e78 c23d
000001f0: a795 04be 76fe f2bd 3ab5 1abd 66eb 2d3b
00000200: ba54 86bc 1bbb b03c 0a01 803d 66bb bf3c
00000210: aa4b 783e 4c93 a93c 4705 1fbd ad2f ee3d
00000220: 0862 d43d fc71 fc3d 7c35 b2bd 37ce d03a
00000230: 3fc0 b5bd 09d0 973e 15ed 603c c77c 36be
00000240: 10ac 6dbe b810 0c3d f641 273d f847 7fbd
00000250: 1311 383e 9253 d43d 43bf 473d ce4c 17bd
00000260: e756 703d 5fd4 afbd e1c8 31be 4a6d 90be
00000270: 4be1 3b3d 951b 28be b49b 463d 9483 17bb
00000280: e565 abbc 5066 e53c 91f4 8f3c 26f1 bebb
00000290: 4e10 fa3d 1126 babc 388e bb3d a483 6cbd
000002a0: 2374 a739 b5d7 633e c0ec 7ebc ce11 f6bd
000002b0: c589 ee3c 1e77 69bd bda8 163d 0e0d f33d
000002c0: 93b7 893c ddbb 433e 2a7c 43be 12e8 0d3e
000002d0: a34d 953d eb0b cb3c ea03 5f3d 42f9 7f3e
000002e0: c243 ad3d 12ad 77be dd26 94bd e0a9 993d
000002f0: 47b1 133d 639e 30be 5214 9a3d 6484 03be
00000300: 0022 333e 5173 823d 1d7f af3d bbda a53d
00000310: 5e3d 6c3d 337e 40bd d7a2 c93c c646 cc3d
00000320: a1cf b1bd 1e55 9ebc 7d75 dbbd 1320 643d
00000330: 0d09 a5bc 6eba 413e 7f32 09be 4093 3fbc
00000340: 6011 b23c 0c66 2e3d 7829 b5bd 45e4 b0bc
00000350: f6e5 cdbd 5f6a b33d 7027 2f3d 750c e93c
00000360: ae55 b33d fcdd 583d 106c 113c 797a babd
00000370: b2e3 7d3e 0545 033d 34d3 14be df83 eb3d
00000380: 682a c83d 69d4 ddbd 3573 113d e235 333d
00000390: c2e8 55bd 854d a73d 219a 73bd 2858 96bd
000003a0: 5232 6d3d 0019 e3bd c23f e7bb 0098 633d
000003b0: 1547 c8bd 6cab ee3d c69e 9ebd 0d69 d43d
000003c0: 75a5 fa3c 1add 1fbd f3ab 3c3e abc7 2bbd
000003d0: 9ff5 45be 540b 7b3c 00fe d2bd 5132 27bd
000003e0: 2625 2a3d 8028 6d3e 7e42 663d 022b 17bd
000003f0: 560a 47bd be40 edbc 9460 ba3d 87e4 88bc
0.0017269463 -0.029787455 -6.198942e-05 -0.00019259616 0.011372772 0.06676455 -0.19683403 -0.0019670192
0.04516469 -0.063631944 -0.10300563 -0.04703559 0.03260651 -0.013827827 0.03891349 -0.024840005
-0.2713908 -0.014141313 -0.16860242 -0.06826768 -0.11939333 0.14739743 0.027214851 0.20480222
-0.038244184 0.060240053 -0.15682155 -0.012580382 -0.10819678 0.070012555 0.022176685 -0.1152751
0.03494955 -0.015935333 0.16523774 -0.019449849 -0.06259552 -0.031087292 0.030638322 -0.053558614
-0.049187966 -0.03496102 -0.103705615 0.053634968 -0.039305188 -0.031779177 -0.13198419 -0.005057851
-0.034538586 0.045547567 -0.17099495 0.008370015 -0.16050944 -0.04491991 -0.032257922 0.16421457
0.022616712 -0.044584766 -0.011612929 -0.014879187 -0.07602659 0.012067418 -0.047250353 0.09727413
0.18475068 -0.06405281 -0.08500574 -0.11800073 -0.04260829 -0.0740869 0.07592702 0.08812783
0.091400884 -0.0842648 0.059926786 -0.05287317 -0.06755331 -0.058421925 -0.14985237 0.112026565
-0.033750277 0.02770198 -0.01948902 -0.0287258 0.04625999 -0.18357083 0.10298716 -0.008514091
-0.0057158265 -0.049220566 0.16617014 0.07131892 0.1350947 0.069410466 0.19625963 0.047749404
-0.029180067 0.0056113913 0.025465278 -0.047629144 0.042512536 0.15638056 0.08577507 0.10493242
0.0015093455 0.1880258 -0.056081317 -0.12197101 -0.0012814319 -0.19223188 -0.036274403 0.06182754
-0.07790522 0.060046934 0.017577503 0.022605184 0.056956325 0.08038432 -0.12979206 -0.021974212
-0.07928678 0.01886798 -0.123321615 0.0949565 -0.12947713 -0.11864941 -0.037770487 0.0026538013
-0.016397823 0.021573594 0.06250198 0.023404788 0.24247614 0.02070012 -0.038823392 0.11630187
0.103702605 0.12326428 -0.087016076 0.0015930597 -0.08874559 0.29650906 0.0137284 -0.17821036
-0.23210168 0.03419563 0.04083439 -0.062324494 0.17975263 0.10367502 0.048766386 -0.03693848
0.058676627 -0.085854284 -0.17361785 -0.2820838 0.045869153 -0.16416772 0.048488334 -0.0023119198
-0.02092261 0.028002888 0.017572673 -0.005827087 0.12210141 -0.02272323 0.091579854 -0.05774273
0.0003193925 0.22250254 -0.015559375 -0.12015115 0.029118428 -0.056998365 0.036782015 0.11867724
0.016811168 0.19114633 -0.19090334 0.13858059 0.07290199 0.024785956 0.054447092 0.24997428
0.084601894 -0.24187115 -0.07233975 0.07503104 0.036057737 -0.1724792 0.07523407 -0.12843472
0.17493439 0.06369651 0.08569167 0.0809836 0.05767571 -0.046995353 0.02461378 0.099744365
-0.0868218 -0.019327696 -0.107157685 0.05569465 -0.020145917 0.18918774 -0.13398169 -0.011692822
0.0217368 0.04257779 -0.088458 -0.021593222 -0.10053627 0.08760523 0.04276222 0.028448323
0.087565765 0.052946076 0.008875862 -0.09105391 0.2479389 0.032048244 -0.14533693 0.11499762
0.09773713 -0.1083153 0.03551026 0.04375256 -0.05222393 0.081690826 -0.05947316 -0.07341033
0.057909317 -0.11088753 -0.007057161 0.05556488 -0.09779183 0.1165379 -0.077451274 0.10371599
0.030596474 -0.03902922 0.18424968 -0.041938465 -0.19331978 0.015322525 -0.10302353 -0.04081947
0.041539334 0.23159981 0.056215756 -0.03690625 -0.04859384 -0.028961536 0.09100452 -0.016710533

b_draw_mode f4 [4]
00000000: f998 56bc 155a 0b3d 850a d8bc 338b b23b
-0.013097995 0.034021456 -0.026372204 0.0054487227

W_lay_eggs_bin f4 [192, 11]
00000000: 7e4c edbc 123b 96bc e664 e23c fe75 3fbe
00000010: 2302 ba3d d19d 553e 325a 063e 8a3b 43bd
00000020: 2bec 16bd 12c4 2abe 9660 df3d 62e2 d93d
00000030: 189b ac3d d666 fb3c e1cf e83d 2512 1d3e
00000040: 504f b3bd a04e cfbd 8bad e1bc e103 d8bd
00000050: e269 61bd 6e9a 853b 8f9d 603b 7dbb 0e3d
00000060: ea91 10be 91e2 fc3c 391b 92be b52c 163d
00000070: 6f3a 1a3c 80fc b43c a4b7 01be e13b 8b3c
00000080: 55a3 adbe 30ef e53d b192 523e c609 89bd
00000090: 9a1e 0a3d b240 1b3e cc76 94bd fff8 ee3d
000000a0: 3123 203e 8ced f5bd c22b 77bd 19d3 893c
000000b0: f3b2 b43b 8f63 093c 1ff7 ba3e b51a b63c
000000c0: 4051 e93d bd5f 8fbc 8fca 3bbd c398 cf3d
000000d0: 9ee8 18bc 0d33 3ebd 4a64 9e3d 970a bebd
000000e0: a411 06be 0cec 28bd 1e12 97bd 5241 513d
000000f0: a45b 73bd 1743 8f3d 85a5 8b3d c1c3 aebd
00000100: 70aa febd d223 703d 03dd cb3d c52e f8bd
00000110: f826 143d b48a 2e3e 86e9 1cbd d910 3dbd
00000120: ff5c 263e a501 243d be45 123e 65c0 a3bd
00000130: 88ee c8bd 3de7 263d 591a 493e 6188 733e
00000140: 0da5 8dbc 5a2a 0ebe f90a 03ba a2ac 043d
00000150: 1a6b 073e 706e b0be 17f6 dfbc d242 c93c
00000160: bb4e 13bc 3c92 0bbd 3caf f53d 22d4 bb3d
00000170: 3ccf e73c 7c61 623d 7ab5 41be e870 d1bd
00000180: dc98 ad3d a198 043d be52 7ebd 2a07 85be
00000190: bca6 453d aa3c 60bd 8b6e 2d3d 1bdc 1abe
000001a0: c409 f7bd bbf8 e73d 313c 1f3e 56d1 313d
000001b0: 6702 8e3d 786b 47be 6783 1fbe 0910 c03b
000001c0: 1a6e 74bd 8d1b 2dbe e054 293e 9cdb 163d
000001d0: 151e 783d 24d8 d0bd 2feb 7d3d a35d cebd
000001e0: ab23 643d 3cdc 3abd b348 34be 6add 34be
000001f0: 8e0b 00be 9828 d03b f51e c93d bb38 393e
00000200: 4181 53bd 293d 743d c551 d9bb 9e89 8d3c
00000210: c26c 0f3d 6a56 16bd 86c6 d03d 6b0f 053e
00000220: 9846 8c3b 4309 84bd dbb8 793d 2ec8 84ba
00000230: 0c21 b23d bef1 7c3a 5a83 bcbd d286 c03d
00000240: ca39 2cbe 24c6 f3bd 2627 d23d 3f6f 94bd
00000250: e14d 51bd 48c4 be3d 707f 2b3e 0477 b1bd
00000260: c568 0b3e fe78 8f3e c08b d6bd 33d8 3e3d
00000270: 3f1f 843c d5a2 ac3d dd5a 1c3e bc47 03be
00000280: ec2d fb3d f9fb 1abe d76a 1cbe d188 843c
00000290: 3880 dd3d 9efe e43c 47c6 c53d 5458 91bd
000002a0: 9cb0 c03d ac91 af3d e436 a0bd 9f1f 7ebc
000002b0: d40c ff3b 3efa a63d 5e22 77bc 04ae 0ebd
000002c0: 2810 54ba d2b0 19bd f26e c2bd 0326 0fbe
000002d0: 1ecf 0f3e fd41 d73d bb20 3bbe c517 743e
000002e0: da3f 343c dcc6 16be dd7a 953d 42e0 803d
000002f0: ad11 73bc c128 73bc 3520 8ebc c075 193e
00000300: 1b73 6ebe d442 063e cd28 8bbd 5cbf 853c
00000310: 14ed 33be a7fb 0b3e 9fcd e23c 1994 88bd
00000320: 9de3 34bc d276 813d 7b52 693e 2b27 19bb
00000330: d884 803d 5c51 e23d 7ae0 c43d 9169 cdbd
00000340: a659 85bd f86c a4bd 3a05 9dbd 9cae cf3c
00000350: 6336 40bd 0258 7bbe 78c2 b53c 358f b0bd
00000360: ac41 363d 55a9 b03d fb6c 3f3d 0276 31be
00000370: de2f 60bd f077 a4bd 24b8 213d 226b a63b
00000380: 9150 edbd 878d 213e 21bc 373d 1e54 9f3d
00000390: 23e9 f0bd be33 503e e1b0 403e ef7e 1abc
000003a0: 804d 523e 50b2 093d f2d8 56be 36de 89bc
000003b0: 179d 1e3d a2e4 55bd 7878 b1bd 2a11 5fbd
000003c0: 0217 42be 247a 0d3e e3fa f9bc 5cdc f43c
000003d0: 5bc4 aabd d7bb d0bc a5bb 19bd 213a 623d
000003e0: 8730 30be 8692 2e3d 8d85 263c d28d 88bd
000003f0: 326b 05be f8fc 383e c11a 63bd be9e 64be
-0.028967138 -0.018338714 0.027636003 -0.18697354 0.09082439 0.20860983 0.13120344 -0.047664203
-0.03684632 -0.16676357 0.10907094 0.10638882 0.08428019 0.030688684 0.11367775 0.15338953
-0.08755362 -0.101224184 -0.027548572 -0.10547615 -0.05503262 0.0040772473 0.00342736 0.03484677
-0.14118162 0.030869754 -0.28536394 0.03666373 0.009413346 0.022093058 -0.1266771 0.016996326
-0.33913675 0.11227262 0.20563771 -0.06691317 0.03372059 0.15161398 -0.07249221 0.11668586
0.15638424 -0.12008199 -0.060344465 0.016824292 0.0055144965 0.008385553 0.36516663 0.022229532
0.1139245 -0.017501706 -0.04584747 0.10136559 -0.009332804 -0.046435405 0.07733972 -0.092793636
-0.13092667 -0.041240737 -0.073765025 0.051087685 -0.059413567 0.06995218 0.0681868 -0.08533431
-0.12434852 0.05862791 0.09954264 -0.121182956 0.036169976 0.17045099 -0.038308643 -0.046158645
0.16246413 0.04004063 0.14284417 -0.07995681 -0.09811121 0.04074787 0.19638957 0.23782493
-0.017290616 -0.13883343 -0.00049988885 0.032391198 0.1322445 -0.34459257 -0.027339024 0.024567995
-0.008990939 -0.034075007 0.11996314 0.091713205 0.02829706 0.05526875 -0.18916884 -0.10226613
0.08476421 0.03237212 -0.062090628 -0.25982028 0.048254713 -0.054745354 0.04234175 -0.15123026
-0.120624095 0.113267384 0.15550305 0.04341253 0.06934052 -0.1947459 -0.1557747 0.0058612865
-0.059675314 -0.16905041 0.16536283 0.03683053 0.060575563 -0.101974756 0.061991867 -0.100764535
0.055698078 -0.045620188 -0.17605858 -0.17662588 -0.12504408 0.0063524954 0.09820358 0.18088047
-0.051636938 0.05962864 -0.006632062 0.017277535 0.03501583 -0.036703505 0.10194115 0.12994163
0.0042808764 -0.06447079 0.060967308 -0.0010130459 0.086977094 0.00096490595 -0.09204741 0.09400715
-0.1681892 -0.11903027 0.10261373 -0.07247781 -0.05109966 0.093147814 0.16747832 -0.086652786
0.13614185 0.28021997 -0.10475874 0.046592902 0.01612818 0.08429495 0.15269037 -0.12820333
0.12264618 -0.15135182 -0.15275131 0.01617852 0.108154714 0.027953442 0.09656959 -0.070969254
0.094086856 0.085727066 -0.078229696 -0.015510469 0.0077835117 0.08153199 -0.015083877 -0.034833923
-0.00080895657 -0.037522145 -0.094938174 -0.13979344 0.14043853 0.10510633 -0.18274204 0.23837192
0.0110015515 -0.14724296 0.07298825 0.06292774 -0.014835757 -0.014841259 -0.017349342 0.14986324
-0.23286097 0.1311143 -0.067948915 0.016326599 -0.17570907 0.13670217 0.027685938 -0.066688724
-0.011040595 0.06321491 0.2278537 -0.0023369293 0.06275338 0.11050674 0.09613128 -0.10029901
-0.0651124 -0.08028597 -0.076670125 0.025351815 -0.046926867 -0.24545291 0.022187456 -0.086210646
0.044496223 0.086260475 0.04673479 -0.17330173 -0.05473315 -0.08030689 0.03948225 0.005078689
-0.115876324 0.15776645 0.044857148 0.07779716 -0.11763217 0.20332238 0.18817474 -0.009429677
0.20537376 0.033617318 -0.20981196 -0.016829591 0.03872403 -0.052219994 -0.08665556 -0.05445973
-0.1895409 0.13816124 -0.03051514 0.029890232 -0.08338233 -0.025480194 -0.037532467 0.055231217
-0.17206012 0.042620204 0.010163677 -0.06667675 -0.13029173 0.1806525 -0.055445436 -0.2232618

b_lay_eggs_bin f4 [11]
00000000: 5e8a 97bb 7d83 833b d662 9a3c eb9e a23c
00000010: b649 deb8 dd58 9cbb dd6e 6dbc 5180 8dbb
00000020: 2ae6 51bb 2489 32bb 10cc 0abc
-0.004624649 0.0040134774 0.018845957 0.019851169 -0.00010599515 -0.0047713355 -0.014491764 -0.004318275
-0.0032028058 -0.0027242387 -0.008471504

W_play_cost_bin f4 [192, 7]
00000000: 4110 b53c 8508 703e ac64 8e3b d2c9 99bb
00000010: 96fc c43c d331 48be 3e04 e3bd 849e 5e3d
00000020: e1bb 2fbd f66f 6a3e 6d16 1b3d f719 e2bb
00000030: 5ff9 553d 53d3 9b3d 1d3b ba3d 2663 fa3c
00000040: be9f c83d 567d 3b3d 20d5 b23d 4850 4dbd
00000050: a7ea 563e 56d6 223e 21c1 9ebb 5475 2abe
00000060: 8ecd bbbb 4b6e ddbd a3fe c63c d2ac 22be
00000070: c28e 873c 3241 253e 9223 5bbb 7741 dd3d
00000080: 7bb6 74be c378 89bd 941c acbc f41c 083e
00000090: a358 d13d 956a 0d3d 7918 bb3d c4fd a23d
000000a0: e6b1 3ebc 87e0 46be ca4f 3b3d 54ed 663d
000000b0: 06d0 363d 93b3 a7bc f943 5b3d 516d b5bd
000000c0: 535a c13c d47d c93d 0a93 533c c485 f23d
000000d0: bfbe c7bd 51d2 263e 9164 8ebd 3bee 6cbe
000000e0: 0118 44be 5428 173e 6982 85bc 8382 f73d
000000f0: ed09 c23d 4b88 5fbc b996 cdbd 5a67 0abe
00000100: 3150 b83d a33f fe3d 8789 2ebe dd60 303e
00000110: 9994 e53b 97c7 7cbd c015 c8b7 f364 0ebe
00000120: 4637 263e d766 183d 5ee5 3fbd 7ac5 a6bd
00000130: 038a 213e c7c3 d43c e645 34bd 9142 bb3c
00000140: 67da 4fbe 61a5 913e e562 99bd 2b95 333d
00000150: b3aa ddbc 28b9 ef3c 5a82 acb9 20b6 21be
00000160: 317f a5bd 693c 19be 0951 f4bd 2d97 dcbd
00000170: 2c51 173e d28b 88bd e9d7 a73d 7f88 c9bd
00000180: d2b1 0e3c e396 65be a498 3dbe 8b8f a0bd
00000190: 7a77 91bd 9d82 1bbd 93a5 b0bd 504c 9bbd
000001a0: 86e7 523c fb91 a9bc 096c 9c3d edb0 24bd
000001b0: 27f9 623d 05bb 373d 92cc 203d 7c6d 033d
000001c0: 56b4 fabd 1e0d b8bd cfcd 233c 5677 d63c
000001d0: eee9 953c 8e83 563c 456e ffbc 2d51 bf3d
000001e0: 639a a93d 2eef 473d f497 b8bd 65d2 9b3c
000001f0: f26e 17be 7261 04bd 00c6 42bd d8c5 af3b
00000200: db75 11be 8283 e83d 2421 c73d e1b0 56bd
00000210: 98be a63c 20aa a4bd b2c2 293d cf71 8b3d
00000220: 5d84 9cbd df95 ae3d 34e9 b6bd 33c2 0dbd
00000230: 1f48 8c3d efc5 a2bd 1b07 323e 6f71 48bd
00000240: d962 683d d5d8 c23c 7228 babd f3be ddbd
00000250: 2324 a83d 2887 63bd 53bd 28be 71dc f03d
00000260: 36ae 90bd cbfa c6bc 82aa c3bd 40d5 55bc
00000270: 4fc1 8c3d 9c90 bf3d 5d68 71be fece 603d
00000280: c31e 4cbc 16e8 fc3d 9754 b23c 1fee c0bc
00000290: f1a1 2bbd 6803 05be 4701 4bbd 2dd3 843e
000002a0: d274 44be 73b0 a23d db01 603d 87a5 813d
000002b0: 6537 4e3c 43f6 bb3d 6a0e 22bd 42eb 2cbd
000002c0: c087 873d 6bd5 3fbc 9e19 6f3d be07 2d3d
000002d0: 91ea e33c 94f4 943d b57e 2dbc 0ce9 093c
000002e0: b8cd 163c cc69 f0bd 6284 243e 2955 4d3d
000002f0: 0b51 bc3b b405 213d 3324 43bd 55e6 543d
00000300: 2203 dbbd 9f76 0d3e b8fd 1abe 32cb 6c3e
00000310: 0d77 433c f38d 1e3d e542 903c 6c93 823d
00000320: b1c1 d93c 1179 bb3d 232c 8c3b 7934 113e
00000330: 9767 ae3d 9274 213e b2ef 263e cc6f ae3c
00000340: e09e f4bc ca82 d03c 178f 50bd 1d59 0abd
00000350: a45b 79bd 6207 45be 331a 23be 7558 b83d
00000360: 7696 1c3c c3f7 bcbc ffee 313e ef9c 3f3d
00000370: 9cb7 fc3d a4e9 b03d 6ffe 573d 49a3 a73c
00000380: dbfa 9e39 d705 043e d962 063d 9c91 343d
00000390: 65ea d33b c62d 8a3c 0d56 9cbd c082 1bbe
000003a0: c51e ecbd acdf 443d 3dbd c2bb 800f c3bb
000003b0: 421e 62bd 6f71 603a 4e21 893d 47c9 c7bd
000003c0: dc93 193e 756a 423e 2771 bd3a 02ec 3fbd
000003d0: 4ea4 05be fabc 653e d682 463d 6c6e 5bbd
000003e0: 41fe 063e 2af5 ca3d fced 92ba 2c73 673d
000003f0: 200a bcbc dda5 82be 6d04 acbd c324 a73d
0.022102477 0.2344075 0.004345497 -0.0046932483 0.024046224 -0.19550256 -0.110847935 0.05435039
-0.042903785 0.22894272 0.037863184 -0.006900068 0.052239772 0.07608666 0.09093306 0.030564856
0.097960934 0.045773827 0.087320566 -0.05012539 0.2098795 0.15902075 -0.0048448 -0.1664632
-0.005731291 -0.10812052 0.024291342 -0.15886238 0.016547564 0.16138151 -0.003343795 0.10803502
-0.23897736 -0.067124866 -0.02100972 0.13292295 0.10221984 0.034525473 0.09135527 0.07958558
-0.011639094 -0.19421588 0.04573039 0.056378677 0.04463198 -0.02047137 0.05353162 -0.08858741
0.02360264 0.09838453 0.012913475 0.1184192 -0.09753179 0.16291167 -0.06952775 -0.23137753
-0.19149782 0.14761478 -0.016297536 0.1208544 0.094745494 -0.013643335 -0.10038514 -0.13515988
0.0899967 0.124144815 -0.1704465 0.1722445 0.0070062396 -0.06171378 -2.3851986e-05 -0.13905697
0.16232023 0.03720745 -0.0468496 -0.081431344 0.15775304 0.02597226 -0.044011973 0.02285889
-0.20298158 0.28446487 -0.07489566 0.04384343 -0.027058935 0.029263094 -0.00032903516 -0.15792131
-0.080809005 -0.14964451 -0.11929519 -0.10771022 0.14777058 -0.066672936 0.081954785 -0.09840488
0.008709388 -0.2242084 -0.18515259 -0.07839879 -0.071028665 -0.03796636 -0.08625331 -0.07582915
0.012872582 -0.020699492 0.076377936 -0.040207792 0.05541339 0.04485609 0.039257593 0.032086834
-0.122414276 -0.08986877 0.009997799 0.02617995 0.018300023 0.0130928885 -0.03118051 0.09341655
0.082814 0.048812084 -0.09013358 0.019021222 -0.14788416 -0.032319494 -0.04755211 0.005364161
-0.14205115 0.11353208 0.09723118 -0.05241478 0.020354554 -0.08040261 0.04144544 0.06808817
-0.07642434 0.085246794 -0.08931199 -0.03460903 0.068496935 -0.07947909 0.17385523 -0.048936304
0.056734893 0.023785034 -0.090897456 -0.10827436 0.082100175 -0.055548817 -0.16478471 0.11760796
-0.07064478 -0.02428951 -0.09554006 -0.013051331 0.06872808 0.09353754 -0.23574968 0.054884903
-0.012458506 0.123489544 0.021768851 -0.023551045 -0.041902486 -0.1298958 -0.049561765 0.25942364
-0.19185188 0.07943811 0.05468927 0.063304 0.012586449 0.0917783 -0.039564528 -0.042216547
0.06617689 -0.011708598 0.05837404 0.04224371 0.02782181 0.07273212 -0.010589291 0.008417379
0.009204321 -0.11738929 0.16066125 0.050130043 0.0057469658 0.03931208 -0.047641944 0.051977474
-0.10693957 0.13814782 -0.15135849 0.23124388 0.011930239 0.038709592 0.017610023 0.06375775
0.026581617 0.09153951 0.0042777224 0.14180173 0.08515852 0.15767124 0.16302374 0.021293543
-0.029860914 0.02545299 -0.05091771 -0.03377639 -0.06087841 -0.19241098 -0.15927963 0.09001247
0.009557357 -0.02306736 0.17376326 0.046780523 0.12339708 0.086383134 0.05273288 0.020463603
0.0003032301 0.12892853 0.032809112 0.044084176 0.006467151 0.01686753 -0.076336004 -0.15186596
-0.11529306 0.048064873 -0.005942969 -0.0059527755 -0.055204637 0.0008561825 0.066958055 -0.097551875
0.1499781 0.18985923 0.0014453278 -0.046855934 -0.13050959 0.2243537 0.04846462 -0.053572103
0.13182928 0.099100426 -0.0011209841 0.05650632 -0.022954047 -0.2551717 -0.08399282 0.081613086

b_play_cost_bin f4 [7]
00000000: 32a0 9bbc 1993 d33b 7df1 863c d2e0 8a3c
00000010: 9ce2 02bc 65b0 d7bb 10e6 cebb
-0.018997286 0.0064567444 0.016472572 0.016952906 -0.007988598 -0.006582307 -0.0063140467
