reports/ml/auto_improve_factorized_smoke/iter_001/factorized_model.npz (npz, 49618 bytes, 17 tensors)

W1 f4 [48, 128]
000000 98 71 cf 3e 1f 9f 07 bf e7 18 5c be 8f c1 7b 3e
       0.40516353 -0.52977175 -0.21493874 0.24585555
000010 1d a2 03 be ec 17 37 3e a9 e9 25 3e fb f8 45 3e
       -0.1285481 0.17880219 0.16202416 0.1933326
000020 d2 1f 85 3c 6f 2f 2d bd 24 b0 13 3f 58 11 27 bd
       0.016250525 -0.042281564 0.57690644 -0.040788025
000030 d7 5c b4 bd d8 f1 8c be 9b 90 ab 3d 96 a6 3e 3e
       -0.0880677 -0.27528262 0.08377191 0.18618235
000040 96 bd 21 be dd 9b 5f bd 74 0b 7f be cb 21 89 be
       -0.15794978 -0.054592002 -0.24906713 -0.26783594
000050 7f 27 78 3e be d2 1c be 3d 50 0c 3e 25 e7 b0 3c
       0.24233817 -0.15314767 0.13702483 0.021594593
000060 27 72 2f 3e ec ff 02 be dd d2 43 3e 92 44 73 3e
       0.1713339 -0.12792939 0.19123407 0.23756626
000070 45 43 90 3d fe b0 55 be 95 66 fb bc 96 92 02 3c
       0.07044081 -0.20868298 -0.030688563 0.007969519
000080 db 5f 44 be 46 22 3f 3e d6 ab 95 3e 85 48 ac be
       -0.19177191 0.18665418 0.29232663 -0.33649078
000090 60 c1 66 bd 6d fe 83 bd 45 7b 6a 3e bc fa 7a be
       -0.05633676 -0.06445012 0.22898586 -0.2450971
0000a0 6f 74 4d 3e 74 a2 c8 bd 80 2a 61 be f5 12 a8 be
       0.20063947 -0.097966105 -0.21988869 -0.32826963
0000b0 37 77 1f 3e c7 55 c2 be 0f 43 25 3e 05 c3 71 be
       0.1557282 -0.37956068 0.16138862 -0.2360955
0000c0 0b c9 f2 3d 44 4c a5 be e8 3d 8d 3e 03 10 bc bd
       0.11854752 -0.3228475 0.27586293 -0.091827415
0000d0 f2 e0 e7 3d a6 15 a4 bc 97 48 e1 bd f5 8b 31 3d
       0.11322202 -0.020029854 -0.110001735 0.043346364
0000e0 5f 50 82 3e 3d f5 2e 3e 51 7f 2a be a0 35 67 be
       0.25451943 0.17085738 -0.1665013 -0.2257905
0000f0 f5 6a 18 3e 39 7d a1 3d da ce 12 3d 8e 1a 13 bc
       0.14884551 0.078852125 0.0358418 -0.008978499
000100 2d 47 95 be ea d0 c4 bd 33 6d 71 bd 52 8a 3a be
       -0.29155865 -0.0961016 -0.05894203 -0.18216828
000110 9a b1 9e be 65 fc 72 be cc 63 ca bd 99 39 8b bd
       -0.30994874 -0.23729093 -0.09882316 -0.06798095
000120 7e 07 0a bc 94 db 7b be 69 a4 35 3d af 5c f4 3d
       -0.008424638 -0.24595481 0.044346247 0.119317405
000130 33 2c 3e be 09 a0 87 be 36 be a0 be dd a8 86 be
       -0.18571548 -0.26489285 -0.3139512 -0.26300707
000140 a3 c8 5c 3e 4d e1 64 3e 53 09 40 3d 9f a0 a4 bc
       0.21560912 0.2235157 0.046883892 -0.020096121
000150 17 01 21 be 13 8a a8 3d 64 c5 94 be 53 2b 18 bc
       -0.15723072 0.082294606 -0.29056847 -0.009287673
000160 61 b3 90 3b 92 f6 42 be af 23 de bd 6c 23 83 bb
       0.004415915 -0.19039372 -0.1084665 -0.0040020254
000170 c0 8c ca 3b df 12 8b 3e 3d 09 97 bc 1f e7 4a bd
       0.0061813295 0.27162835 -0.018437022 -0.04953682
000180 3b 02 c7 bd 5d 7f d3 bd 27 5d 49 bd c8 61 1b bd
       -0.09717222 -0.10327027 -0.049161103 -0.03793505
000190 72 d6 23 3e cc ed d0 3c 32 57 0c be 87 75 f6 bd
       0.15999773 0.025504015 -0.13705137 -0.12034135
0001a0 51 f6 ff 3d c3 6a 9c 3e e4 32 c9 ba 88 bd 95 be
       0.12498153 0.30550203 -0.001535025 -0.29246163
0001b0 42 94 f8 bd 31 88 cf 3d ac 9a c1 bd 8f d5 00 be
       -0.12137653 0.10133398 -0.094533294 -0.12581466
0001c0 ee 1a 31 3e a1 fa 62 bc 53 9a fc 3d 39 05 fc bd
       0.17295429 -0.0138537 0.123341225 -0.12305684
0001d0 69 f0 49 be 4c 5b 75 be 3f 01 bc be f3 6b 47 be
       -0.19720615 -0.23960608 -0.367197 -0.19474773
0001e0 db 47 df 3d b0 64 80 3d 4f df 31 be e3 16 c2 3d
       0.10902377 0.062692046 -0.17370342 0.094770215
0001f0 38 11 5f bd 01 cd 50 be 85 b3 65 3d 18 d1 10 be
       -0.05445978 -0.20390703 0.056079406 -0.14142263
000200 a4 36 94 3e 85 fe 60 3e 4d 1f 5f be d8 da e8 3d
       0.28947937 0.21972091 -0.21789284 0.11369866
000210 77 3d 66 3e 2b aa 0e 3b 85 01 7e 3d fd d7 10 3e
       0.22484384 0.0021768908 0.062013168 0.14144893
000220 a7 6b 86 3d cf 5a 58 3d 73 6b c7 3d d2 4f f7 bd
       0.06563502 0.052820977 0.09737291 -0.120757714
000230 fe 28 b6 bc 40 0b 0f bc 4c a5 a3 3d 8c 16 72 3e
       -0.022236343 -0.00873071 0.07990512 0.23641413
000240 8a 34 f7 3d 9e d0 58 be 1f 11 7c 3e 68 5d ff bb
       0.12070568 -0.21173331 0.24615906 -0.0077931173
000250 02 6a 69 be b6 40 c6 bd 61 00 d9 3d 59 7c 2a be
       -0.22794345 -0.096803114 0.105957754 -0.16648997
000260 70 8d f4 be 9d 38 09 bd 48 25 85 be 2d e6 26 be
       -0.47764158 -0.033501256 -0.26005006 -0.16298743
000270 7d f3 47 be 81 10 9c 3d 9b 29 11 be 40 e5 ce 3c
       -0.19526477 0.07620335 -0.14176027 0.0252558
000280 7d 06 d8 39 fc 54 95 be d5 05 61 be 3b db e1 bd
       0.00041203565 -0.291664 -0.21974881 -0.11028143
000290 24 6e 5b bd 96 d3 fc 3d 1a 77 29 3e ed 1d ac 3d
       -0.053571835 0.12345044 0.1654934 0.084041454
0002a0 e4 53 23 3d fc 09 ce bd 36 b2 75 be b0 d2 66 be
       0.039874926 -0.10060498 -0.23993763 -0.22541308
0002b0 5a d8 14 bd f2 84 4f be 90 12 a5 3e 90 cb 40 3e
       -0.03633914 -0.20265558 0.32240725 0.18827653
0002c0 a1 48 18 3e 9b 6d aa 3d 57 eb c2 3d 14 01 8a bd
       0.14871456 0.08321687 0.09517544 -0.06738487
0002d0 17 ad 60 3e 47 1f e5 3e ea b5 2c bd f4 47 5b 3e
       0.21941029 0.44750425 -0.042165674 0.21414167
0002e0 9a 04 aa be 47 ba 99 be b0 39 04 be b1 f8 0a be
       -0.33206636 -0.3002493 -0.12912631 -0.1357143
0002f0 d1 9e 8a be 9a b2 8b 3e 9c 20 a1 3e 30 dc 9a 3e
       -0.27074292 0.272847 0.3147019 0.30246115
000300 b8 ac 4e 3d fd d2 b6 3e 66 e5 da be 1f c5 b1 bd
       0.050457686 0.35707846 -0.42753142 -0.08680176
000310 f1 ac 42 bd a7 77 2f 3e e5 8a 78 3d f1 a7 b8 3d
       -0.04752821 0.17135487 0.060679335 0.09016407
000320 20 9b 58 3d 55 e2 0d be 45 79 75 3e c3 aa 24 3d
       0.052882314 -0.1385587 0.23972042 0.040201914
000330 9d 8a 32 3e 92 83 b1 3d 34 12 79 be 9d 1a 48 be
       0.1743569 0.08667673 -0.2432335 -0.19541402
000340 fb dc 1d 3e e2 02 19 bd d3 19 4f be 57 c1 fb 3d
       0.15416329 -0.037356265 -0.20224695 0.12292736
000350 68 3c 14 3e a1 3f 32 bd 31 24 99 3d ae 39 18 be
       0.14476168 -0.043517713 0.07477606 -0.14865753
000360 8f a4 e7 3d 8e d6 42 3e b2 85 31 3c b7 6a 82 be
       0.11310684 0.19027159 0.010835098 -0.25472042
000370 59 88 44 3e cc dd eb 3e 34 60 52 be 3c 83 f7 bd
       0.19192638 0.46067655 -0.20544511 -0.12085578
000380 c6 89 88 bc 8c f8 03 3e d0 52 70 be f2 62 d3 bc
       -0.016667258 0.12887782 -0.2346909 -0.025804017
000390 d3 ae 1a 3d 05 e0 46 3e ac 88 1a bd 88 40 1f be
       0.03776438 0.19421394 -0.037727997 -0.1555196
0003a0 22 c5 57 be 8f 4d 9e 3e 22 a5 8b be 85 b9 d2 3d
       -0.21071294 0.30918548 -0.27274424 0.10289291
0003b0 96 db 81 be 94 bc 6d 3c c3 8e 23 3e c5 18 c7 3e
       -0.25362843 0.014510293 0.15972428 0.38886085
0003c0 ea 06 ce be f4 8b 70 3d 80 80 42 3e fc 52 70 bd
       -0.4023965 0.05872722 0.18994331 -0.05867289
0003d0 41 0a 97 3e 65 b5 dc 3c cd 6b 16 3e b9 d3 e2 3c
       0.2950001 0.026941964 0.1468956 0.027688848
0003e0 12 96 ea be 5c 31 78 bc 20 44 cf 3e 19 ee cc be
       -0.4581762 -0.015148487 0.40481663 -0.40025404
0003f0 32 ff 8c 3e 10 e0 2d bc 8e 83 6c bd 52 96 8d bd
       0.2753845 -0.010612503 -0.057742648 -0.06913437

b1 f4 [128]
000000 86 dc 4d b9 30 ee 43 3a 00 00 00 00 bd 4a ac 39
       -0.00019632475 0.00074741524 0.0 0.0003286208
000010 00 00 00 00 52 7e 66 39 46 dd be b9 fd a7 27 bb
       0.0 0.00021981567 -0.00036404486 -0.0025582307
000020 25 6c ea b9 b3 d5 82 38 93 18 2d bb 0f d2 1b bb
       -0.00044712532 6.238688e-05 -0.0026412352 -0.0023776328
000030 eb e3 11 b9 00 0e 27 b8 46 0a b1 b9 00 00 00 00
       -0.00013913184 -3.982894e-05 -0.00033767725 0.0
000040 10 ed ea 37 5b 14 5c 3b 26 17 94 b8 d6 3c ec b9
       2.8005365e-05 0.0033581469 -7.061502e-05 -0.00045058754
000050 0e 94 29 b9 32 23 da 39 5d e2 5c 3a cb a2 62 3a
       -0.0001617225 0.00041606423 0.0008426065 0.0008645474
000060 03 4c f4 b8 68 be 4a 37 8d d2 d2 37 fa 78 00 3a
       -0.00011648985 1.2084471e-05 2.5131996e-05 0.00049008394
000070 59 14 d0 3a 66 35 f2 38 00 00 00 00 00 00 00 00
       0.0015875205 0.000115494055 0.0 0.0
000080 5e 6d ff ba 61 ce 15 ba aa c0 2a 38 4f 4b 8c ba
       -0.001948755 -0.0005714652 4.071059e-05 -0.0010703596
000090 00 00 00 00 7b d9 05 3a 39 73 22 35 c9 a1 a1 ba
       0.0 0.00051059545 6.0517374e-07 -0.0012331541
0000a0 cc 1e 51 3a 8c 7a 1a 3a c1 63 34 ba 12 ca 3e b7
       0.00079773064 0.00058928947 -0.00068813196 -1.1371931e-05
0000b0 a7 de a8 38 47 59 6d ba 0c bb 47 3a 00 00 00 00
       8.0523365e-05 -0.0009054136 0.000761912 0.0
0000c0 8a fc 8a b8 9d 19 ff ba 57 67 83 ba 00 d9 99 37
       -6.627392e-05 -0.0019462589 -0.0010025305 1.834007e-05
0000d0 64 69 bd 38 a3 e3 0a b6 00 00 00 00 af 6e 8b 3a
       9.031853e-05 -2.0696104e-06 0.0 0.0010637845
0000e0 00 00 00 00 f6 3d 81 39 00 00 00 00 ba f7 b4 39
       0.0 0.00024650962 0.0 0.00034516846
0000f0 e3 25 76 b8 35 80 67 b6 a5 84 0b ba cd a1 40 39
       -5.8686255e-05 -3.4496309e-06 -0.0005322195 0.00018370822
000100 39 a1 fc b9 87 a0 59 b9 7e 50 42 36 a6 61 8f ba
       -0.00048185306 -0.00020754534 2.8955105e-06 -0.0010939136
000110 60 2d f4 3a 10 47 44 36 ed 9d c1 b9 cc 57 51 ba
       0.0018629245 2.924764e-06 -0.00036929492 -0.00079858
000120 b0 4d 9a b8 a1 98 2f b9 7a cd 8d b7 18 51 a1 38
       -7.357763e-05 -0.00016746159 -1.6904192e-05 7.692183e-05
000130 4a 32 85 ba db ae f9 b5 47 12 18 ba 5b ae 47 ba
       -0.0010162082 -1.8602835e-06 -0.00058010634 -0.00076172285
000140 8e 88 4b 39 3b 56 47 ba 4e a0 f6 b9 00 00 00 00
       0.00019410459 -0.0007604097 -0.00047040213 0.0
000150 d9 90 8c 37 66 3e d6 39 65 c2 c9 ba d2 86 84 ba
       1.675675e-05 0.0004086375 -0.0015393017 -0.001011098
000160 66 93 b0 b9 80 03 8b 37 52 06 94 ba b8 94 47 3a
       -0.00033679156 1.6571721e-05 -0.0011293388 0.00076134084
000170 d5 8f 4e ba c5 b6 1a bb 00 00 00 00 c3 11 bf b8
       -0.0007879709 -0.0023607474 0.0 -9.110898e-05
000180 09 84 61 b8 22 a3 0b 38 e7 55 d4 38 59 f4 0a ba
       -5.3767148e-05 3.329211e-05 0.00010124948 -0.0005300693
000190 d4 5a 1c 3a 94 80 94 3a 3d 8f 06 3a 56 40 01 bb
       0.0005964462 0.0011329823 0.00051330385 -0.0019722185
0001a0 ef 8c b2 38 d5 82 4e bb a2 fc 4f ba 09 a8 84 b8
       8.513952e-05 -0.0031511087 -0.00079340686 -6.3255495e-05
0001b0 3e 2f 60 38 08 b1 60 3b 6d 77 86 39 04 84 9a 38
       5.344976e-05 0.0034285206 0.0002564745 7.367882e-05
0001c0 ce d6 f1 b8 77 25 04 3b 00 00 00 00 78 9e 4a b8
       -0.00011531786 0.0020163932 0.0 -4.830814e-05
0001d0 19 bb d5 ba b2 dc fe 3a 6e 35 31 b7 85 ca 3c bb
       -0.001630637 0.0019444434 -1.0562462e-05 -0.0028807234
0001e0 90 0d a9 b6 65 3c cd 36 52 30 ea b9 b6 69 0e ba
       -5.0381714e-06 6.116507e-06 -0.0004466796 -0.0005432622
0001f0 9c fd 5e 3a d1 1d a4 b9 3b ec ac 39 e6 0a 38 39
       0.00085064187 -0.00031302733 0.00032982402 0.00017551667

W_action_type f4 [128, 4]
000000 72 37 84 3b b6 01 2d 3d f5 e7 ad 3c d6 9b 87 bd
       0.00403493 0.04223796 0.02122877 -0.0662152
000010 42 ec 8b bd 0c d9 80 bd f3 1f 2f bc a3 29 ca 3d
       -0.06832172 -0.062913984 -0.01068877 0.09871223
000020 87 6c c6 3d 58 2c e1 3c f7 a4 6c be 38 0a ed 3b
       0.09688669 0.027486965 -0.23109804 0.007233884
000030 89 13 c0 bd 57 b9 3f bd 9e 8d 50 3d 9a 41 c1 3d
       -0.09378726 -0.046807613 0.050916307 0.09436341
000040 03 72 19 3d aa 3d 11 3d 25 7b 5f 3e 1d a4 4f bc
       0.037462246 0.035459198 0.2182432 -0.012673405
000050 a1 6a ec bd c8 9c 8d 3d 20 d4 e9 3c 61 ab 66 3d
       -0.11543775 0.06914669 0.028543532 0.056315783
000060 1c a9 1c be 08 32 d6 bc 13 39 86 bd 34 d0 09 3e
       -0.15298885 -0.026146904 -0.06553855 0.1345833
000070 a0 eb 41 be b6 2d 0c 3e b1 1f 85 3d 7e 89 40 be
       -0.1893754 0.13689312 0.06500185 -0.18802449
000080 ba af 97 bd f4 43 9a 3d 65 df 94 bc c3 01 23 3d
       -0.07406564 0.07532492 -0.018172929 0.039796602
000090 10 76 be 3d d4 6a 73 be b1 d4 0f 3e 19 f9 5b bd
       0.092998624 -0.2377122 0.14045979 -0.053704355
0000a0 26 57 08 bd e9 ae f7 bd 0d 23 07 bd 99 31 92 be
       -0.033286236 -0.12093908 -0.03299241 -0.28553465
0000b0 37 a1 94 bd cb f1 b9 3d 25 1d 5d bd 16 93 8e 3c
       -0.07257312 0.090793215 -0.053982873 0.01740412
0000c0 e4 fa 88 bd 9b 24 10 bd e8 78 96 3e b9 22 b2 3d
       -0.066884786 -0.03519116 0.2938912 0.08698029
0000d0 02 fa fe 3d 19 63 12 bc 90 ac 94 bd 64 61 32 3c
       0.12450029 -0.00893476 -0.07259476 0.010887478
0000e0 0a 21 ad bc ab 34 0a bd 23 7f 8f bd 00 51 17 3d
       -0.021133918 -0.033741634 -0.07006671 0.036942482
0000f0 39 1e ed 3d 5a 8d a7 3c af 5f 04 3e 34 98 a8 3d
       0.1157803 0.020453144 0.12927125 0.082321554
000100 9e 4d 43 3d 7f dc 45 3c b8 5e ef 3d b2 b4 7e 3e
       0.047681443 0.012076496 0.11687988 0.24873617
000110 5f 1d 36 3e 3b 54 f6 bd 5c 2b 15 be ef 56 6a bd
       0.17784642 -0.120277844 -0.14567322 -0.057211813
000120 87 9a c3 3d 39 bc ac bd ec d5 9e 3d 9b 8a 11 bd
       0.09550958 -0.08434338 0.07755646 -0.035532575
000130 f1 3d 35 3e 93 2a ce bd e1 63 00 3e 8d 2a 14 3e
       0.1769941 -0.10066714 0.12538101 0.14469357
000140 3f 0e ba bc ca 70 b6 3e d3 28 7a 3e ad 8d 7a 3c
       -0.022711871 0.35632926 0.24429636 0.015292567
000150 43 b9 95 3c 05 11 36 be bd 19 2b be bf 64 fa bd
       0.018276816 -0.1777993 -0.16709037 -0.12226247
000160 9e 69 6b be 01 a3 65 3d 57 38 8f bd a6 cc 03 be
       -0.22989509 0.056063656 -0.06993168 -0.12871036
000170 fc ee 29 be ea 42 dc 3d 17 96 40 bb af 30 64 bc
       -0.16595072 0.1075495 -0.0029386336 -0.013927623
000180 b1 8b b9 bd aa 38 34 3e 74 76 ff 3c b4 e9 6b 3c
       -0.09059847 0.1759974 0.031184413 0.014398981
000190 5e cd b5 bd 30 3c 6e 3c 2b 53 ca bd cb 70 16 bd
       -0.08877061 0.014540717 -0.09879144 -0.03672866
0001a0 83 cc 8b 3d 7f da f2 bc b6 cb f4 bd 81 e8 b6 be
       0.06826117 -0.029645203 -0.11952917 -0.3572426
0001b0 83 a8 8f bd ab 6d bc 3c 92 78 34 be bc 7a a4 bd
       -0.07014563 0.023001513 -0.17624119 -0.08031222
0001c0 8a 37 4c bd 64 6a 29 bc 82 8a e0 3c 35 95 83 3e
       -0.049857654 -0.010340307 0.027409796 0.25699773
0001d0 97 66 2c 3e 27 69 df 3d 9d fe 14 be c7 fc 20 3e
       0.1683601 0.10908728 -0.14550252 0.15721427
0001e0 3d 12 d5 3d d3 6f 1a bd 20 87 05 3b 8f 4b 73 3c
       0.10403869 -0.0377043 0.002037473 0.014849558
0001f0 28 de e0 3d 88 0c 09 3e 33 5a 9f 3d c4 f0 1e 3d
       0.10979873 0.13383687 0.07780876 0.03880383
000200 20 c8 68 bc c7 8a a1 bc ad 9f a6 bd 28 d7 32 be
       -0.01420787 -0.019719495 -0.081359245 -0.17464888
000210 57 cf 74 3d 4a 32 85 bd bf ea a7 3c b1 66 be bd
       0.059768047 -0.065037325 0.020497678 -0.092969306
000220 7a b5 44 3d 0f 9a f3 3d 56 3b 82 bd 0b eb 2a 3d
       0.048024632 0.11894619 -0.06358974 0.04172806
000230 c7 d2 29 bd f2 57 e4 bd 28 4b e9 3c 18 5a 03 be
       -0.04146078 -0.11149587 0.02847822 -0.12827337
000240 93 e0 0b 3e ba db 27 3d ab 23 6f bc 76 14 e0 3d
       0.13659887 0.040981032 -0.014595906 0.109414026
000250 89 07 e6 3d a2 e9 f2 bd 55 df 46 bd b1 81 2b 3e
       0.11231906 -0.11860968 -0.04855283 0.16748692
000260 a0 9a 39 bb 95 3b 66 3d d4 b2 10 3e ff ae 32 3e
       -0.0028320923 0.056209166 0.14130718 0.17449568
000270 2e 7b a4 bd ec 65 f1 bd 5f 38 96 3d 78 4e 19 3e
       -0.08031307 -0.11787018 0.07334971 0.1497134
000280 be 96 31 3e 38 8f 97 3d 32 e9 1d be e8 a4 3c 3d
       0.1734266 0.07400364 -0.15420988 0.046055704
000290 30 e5 aa 3c a1 94 04 be 6a 03 ab bc e0 e1 2a 3d
       0.020861238 -0.12947322 -0.020875651 0.041719317
0002a0 ed 56 e6 bd 82 71 66 3e 7b 2e 4e 3e cb 97 6a bc
       -0.112470485 0.22504237 0.20134918 -0.014318417
0002b0 52 6a dc 3d 8e 1a 53 be 05 55 9a 3e b4 06 46 3d
       0.107624665 -0.20615599 0.3014299 0.048346236
0002c0 95 75 c2 3d b6 f7 49 be b3 2e ba bd 28 e0 05 3d
       0.09495083 -0.197234 -0.090909384 0.032684475
0002d0 7d 30 04 3e 0e ca 68 3e f5 8e 03 be 12 30 12 be
       0.12909122 0.22733328 -0.12847503 -0.1427615
0002e0 cd a0 33 3e 5f e3 5c bc d3 9e 11 be 08 37 a1 be
       0.1754181 -0.013481944 -0.14220743 -0.31487298
0002f0 c3 d1 a5 bd dc 50 48 be 56 01 84 3e d6 c6 4a be
       -0.080966495 -0.19562095 0.2578227 -0.19802412
000300 a6 bd 7e 3e 82 98 1b 3d 21 08 94 3c 04 10 aa 3e
       0.24877033 0.03798724 0.018070282 0.33215344
000310 5c 36 ae 3d 9f 95 4f 3e a2 1f 28 bd 62 6f 55 3d
       0.08506462 0.2027192 -0.041045792 0.052108176
000320 d0 ce 8f bd c4 1a 06 bc 12 b1 60 3e 3b 65 d4 3d
       -0.07021868 -0.008185092 0.21942547 0.10370871
000330 93 50 04 3e 09 da 24 3d 25 8c 13 be 05 ac fe 3c
       0.12921362 0.040246997 -0.1440893 0.031087885
000340 1b de 71 bd 3b a2 35 be f7 bb 33 b8 d4 1c a4 3c
       -0.059049707 -0.17737667 -4.285198e-05 0.020033278
000350 25 a8 90 3d aa f4 98 3d 43 59 3d bd 4c ea 39 3e
       0.07063321 0.07468541 -0.046227705 0.18155783
000360 96 51 6c 3d 02 14 d5 3d 51 f8 01 3e 58 9c b4 bb
       0.057694994 0.10404207 0.12692381 -0.0055118017
000370 8e 54 2f 3d dc 60 13 3d 7f 55 0c 3e b6 f5 46 3e
       0.042805247 0.035981044 0.13704489 0.19429669
000380 25 3a ba 3d cc 76 a2 3e cb a5 1f be af a4 26 3e
       0.090931214 0.3173126 -0.15590589 0.1627376
000390 37 14 ee 3c 2d 36 7b bd a4 eb 6a 3d bc e6 93 3d
       0.029062374 -0.061330963 0.05735363 0.072217435
0003a0 2e 64 c1 bd 25 28 66 3e 82 7c 37 be 82 79 ca bd
       -0.09442936 0.22476251 -0.1791859 -0.09886457
0003b0 c0 4d bf 3d 54 eb e2 bc a7 e1 41 bd c6 d6 b6 bd
       0.093410015 -0.027700104 -0.04733434 -0.089276835
0003c0 9c 3e 92 be 9f b0 b8 3d 7d 1a 26 be 42 8d 3a 3d
       -0.28563392 0.09018063 -0.16221042 0.04554487
0003d0 22 49 36 3e d2 a8 67 bd c7 20 6e be 30 87 0f be
       0.17801335 -0.056557484 -0.23254691 -0.14016414
0003e0 07 ac 7b 3d ad 4f cd 3d fe 21 34 3e 85 af 72 bb
       0.061443355 0.100249626 0.17591092 -0.0037030887
0003f0 56 ca 10 be c3 7b 68 bd 71 6e 90 bd 73 41 85 bd
       -0.14139685 -0.056758653 -0.07052315 -0.06506624

b_action_type f4 [4]
000000 bc 4c fd 37 d8 2f e0 b9 37 a1 6e bb 4d 56 84 3b
       3.0195682e-05 -0.00042760256 -0.003641201 0.004038608

W_play_habitat f4 [128, 4]
000000 29 13 1b be 53 28 0f 3e 87 81 a0 3d 7b a4 87 3c
       -0.15144028 0.13980226 0.078372054 0.016557923
000010 e4 07 26 be f4 fb 05 bd f0 80 c0 3d b1 df 15 be
       -0.16213948 -0.032710984 0.09399593 -0.14636113
000020 0d 0e b7 3d 5c 46 0f bd d1 73 3c bd ff 48 13 be
       0.08938227 -0.03497921 -0.04600889 -0.14383315
000030 8b 77 f2 bd 73 71 ba 3d 26 a3 10 bd 83 ce 62 3e
       -0.11839207 0.0910367 -0.03531184 0.2214909
000040 ad f2 3e bd 94 2b ef 3d ec 1a 3d bc 23 b3 61 be
       -0.046618152 0.11678234 -0.011542063 -0.22040991
000050 ea c5 ea 3a 36 f8 16 be bd d1 ea bd 03 5a 34 bd
       0.0017911766 -0.14743122 -0.11465786 -0.044031154
000060 3a 72 86 3b e5 cb 01 3e 97 e7 63 3c 29 8e 3f 3c
       0.0041029723 0.12675436 0.013910196 0.0116916085
000070 ac a5 cf be 0b 08 27 3e 02 31 3f be 66 3d 0e 3d
       -0.40556085 0.16311662 -0.18671039 0.034726523
000080 e3 79 24 3e 91 1e 9f 3c b2 d6 87 3d 4b a0 0e 3d
       0.16062121 0.019423755 0.06632747 0.034820836
000090 cf 8c 4b bc 56 e8 12 3d 78 47 cc bd eb 0b c0 bd
       -0.012423708 0.035866104 -0.09974569 -0.09377273
0000a0 c1 38 a2 3d f3 da d3 3d a3 f6 96 3d f0 89 b0 3d
       0.07920981 0.103444956 0.07371261 0.086200595
0000b0 77 22 27 3e 62 fb c3 bd b2 f0 cc 3c 3e f2 53 3b
       0.16321741 -0.09569432 0.025017116 0.0032340433
0000c0 81 68 ea 3d df be 12 be b8 a3 a5 bc 30 43 b9 3d
       0.11445714 -0.14330624 -0.020219669 0.09046018
0000d0 2a c9 bc 3c 79 8b e3 bc fb 5f bb 3d 94 86 ff bd
       0.023045141 -0.027776467 0.09149166 -0.124768406
0000e0 f0 13 28 bc 0c 1f 12 bd 80 76 59 3e af 03 62 3e
       -0.01025866 -0.03567414 0.2123661 0.22071718
0000f0 21 52 3e 3e 6f 63 31 3d 00 76 4a 3c aa 66 8b 3d
       0.18586017 0.043307718 0.012357235 0.06806691
000100 c7 05 62 bd 99 06 f5 bd 4d d3 8d 3d d9 16 27 bd
       -0.05518129 -0.11964149 0.06925068 -0.040793274
000110 16 70 1d bc 6b f3 fe 3d 3c 3b 40 3e cf ac 76 3e
       -0.009609243 0.12448772 0.18772596 0.24089359
000120 97 dd 45 3e 49 39 83 3d c7 f0 a7 bc 9d 92 2c 3e
       0.19322811 0.06407411 -0.020500554 0.16852804
000130 dd ff be bd 3b ce ae 3c 7b 90 66 3e cd f4 08 3e
       -0.09326146 0.021338573 0.22516052 0.13374634
000140 2d 39 a3 3d 99 05 dc bd b5 d8 a9 3d d5 1d cf 3d
       0.0796989 -0.10743255 0.08293287 0.10113112
000150 62 13 9f bc 5f 20 ac 3c d1 45 24 3e c3 ba 82 3b
       -0.019418422 0.02101153 0.16042258 0.003989549
000160 e8 f4 88 3c 61 2f 09 3d ff 76 13 3e 9d 0f 65 3d
       0.016718343 0.03349245 0.14400862 0.055923093
000170 0e ab 06 3e 6b e9 f7 bd 0a 29 77 3e 64 df 0c be
       0.1315119 -0.12105068 0.24136749 -0.13757092
000180 fb 90 bb 3d e3 a5 33 be 28 33 4e 3b 22 ea f7 3d
       0.09158512 -0.1754375 0.0031463597 0.12105204
000190 96 12 55 3d 4d 7d f9 3d 0d 74 54 ba 0a 48 6e 3d
       0.052019678 0.12182102 -0.0008104451 0.05817417
0001a0 dd 30 0f be b9 69 6e 3b c4 fc fd bd d5 65 f0 bd
       -0.13983484 0.0036378934 -0.12401727 -0.11738173
0001b0 69 ff 1e 3e c3 fa 0c be d3 4e 6a 3d 60 ab fa 3c
       0.15527119 -0.13767533 0.05720408 0.030599296
0001c0 2b 11 aa bc 28 48 82 3b 4f 4c 09 3e 0d 51 b1 3d
       -0.02076014 0.003975887 0.13408016 0.08658037
0001d0 ac 13 2f 3d 8c 76 5f be da cf 05 3e c6 e4 45 bd
       0.04274337 -0.21822566 0.1306757 -0.04831388
0001e0 00 76 b8 3d 72 25 f4 bd 03 a4 9d bd 9d 0c 09 3d
       0.09006882 -0.119212046 -0.076972984 0.033459295
0001f0 0e 7f 97 3d 7b 01 65 bd b0 d0 e5 bd a3 81 e1 bd
       0.07397281 -0.055909615 -0.112214446 -0.11011054
000200 63 d8 b5 bd 6e c4 aa 3d 02 76 85 3e 87 bf 8b bd
       -0.08879163 0.08338247 0.26066595 -0.0682364
000210 0b 2c a4 be 3a 08 0c 3e 89 1a 3e be 28 56 1a 3b
       -0.32064852 0.13675013 -0.1856481 0.0023549888
000220 c5 e3 08 be 2d a4 9e be 7b 0a 46 be f9 5c 80 3e
       -0.13368137 -0.3098463 -0.19339935 0.25070933
000230 fe e3 0f 3e a2 79 7b bd 28 5c 30 3d 81 4a 14 3d
       0.14051816 -0.061395295 0.043056637 0.036203865
000240 60 74 1c be 1e 50 63 3d 6e 9a 90 bd af ad bf bc
       -0.15278769 0.055496328 -0.07060705 -0.023398248
000250 3d 87 8b 3c ae 6a 07 3e d8 f1 12 3e 57 3c 4f bd
       0.01703226 0.13224289 0.14350069 -0.050594654
000260 a1 1f f6 bd 54 0d c4 bb 68 b2 12 3e 62 a4 3b bd
       -0.120177515 -0.005983034 0.14325869 -0.045811065
000270 ac 21 8d bc f1 b2 c0 bd d1 34 f0 bd 10 6c 9c bd
       -0.01722797 -0.0940913 -0.11728824 -0.07637799
000280 d5 48 d1 3d 4f 60 b6 3d a3 49 44 3d f1 12 bb bd
       0.1021897 0.08905088 0.047921788 -0.09134472
000290 9d 01 3e bb 2c 0d 0c bd 12 f4 47 3d 7f 88 fc bc
       -0.002899266 -0.03419225 0.048816748 -0.030826805
0002a0 73 26 83 3c 0c b4 49 bc e3 b6 07 3e 1e 08 23 bd
       0.016009545 -0.012310993 0.1325336 -0.039802663
0002b0 85 dd 16 bc c3 40 3d 3e d6 f2 eb bd 19 86 5f 3e
       -0.009208088 0.18481736 -0.11520927 0.21828498
0002c0 f7 4f 4a 3e 31 f9 79 3d cd f4 5a bd 24 6c 24 3d
       0.19757067 0.061028663 -0.053456116 0.040142193
0002d0 b0 7b 86 3b 48 8d 39 be e8 7f 8a 3e 6f 35 fe bd
       0.0041041 -0.18120301 0.2705071 -0.124125354
0002e0 8b 04 7b 3e c7 df 9d 3d c1 eb 59 bd 3e b2 37 3e
       0.24513452 0.07708698 -0.053203348 0.17939088
0002f0 72 72 1d be f8 59 6e be 31 e8 12 3d 3a 7b c8 3d
       -0.15375689 -0.23276508 0.035865966 0.097891286
000300 55 bb 0c bd c7 7f 70 be 21 01 c4 3c 3e 7a 5b 3e
       -0.03435834 -0.23486243 0.02392632 0.2143335
000310 4d 04 0a bd 28 37 10 be 85 9a f6 3d a8 e0 16 bd
       -0.033695508 -0.1408354 0.12041191 -0.036835343
000320 20 b2 a5 3d a5 0e 63 3c 26 fe cf bc 79 3c 48 3d
       0.08090615 0.013858472 -0.025389742 0.048885796
000330 6b 9d 05 3e 32 02 92 bd 79 02 23 3c da 5f 0c 3e
       0.13048331 -0.07129325 0.00994932 0.1370844
000340 83 f6 48 3d e6 fa ab be 9a 89 09 be 52 a7 dd 3d
       0.049063217 -0.33589858 -0.13431397 0.108229294
000350 c3 13 d3 bd 6a 2d 6c 3e 1e c5 4d 3e 63 de 68 bb
       -0.103065036 0.23064199 0.20094725 -0.0035532943
000360 f1 d8 f2 bc 99 08 36 3d 05 4e b1 bd 52 37 45 3d
       -0.029644461 0.044441793 -0.08657459 0.04814846
000370 94 18 cc bd 79 50 80 3d 83 3a e9 bd 41 c4 17 3e
       -0.099656254 0.06265349 -0.11388113 0.14820959
000380 d6 8b a5 3d 18 50 f3 bd 39 0c 06 3b 51 6f 02 3d
       0.08083312 -0.11880511 0.0020454063 0.03184444
000390 a4 1e 09 3e 7a 89 db 3d 7c 69 3c 3d 80 43 0d 3e
       0.13390595 0.10719581 0.045999035 0.1379528
0003a0 fe 1f f6 3b fd 4b e8 bd c5 55 17 3e ab 1f 0f 3e
       0.007511138 -0.113426186 0.14778812 0.13976924
0003b0 89 36 25 3e f2 99 7e 3e d5 18 bf 3d 7e 15 d8 3c
       0.16134085 0.24863413 0.09330908 0.026377436
0003c0 41 36 c9 bd bb 48 b0 bd cc 8a 9f bb af 15 f4 3c
       -0.09824801 -0.08607622 -0.004868841 0.029795496
0003d0 c0 6c 28 be 8f 31 bb 3d a7 b3 9a bc 39 b8 98 bd
       -0.16447735 0.09140312 -0.018884493 -0.07457013
0003e0 5a db e1 bd b4 01 22 be ab d2 29 3e d4 f6 1a bb
       -0.11028166 -0.15820962 0.1658427 -0.0023645656
0003f0 a0 ad 56 3d fd 2c 5e be 9f b8 5d 3d e9 4d 0e be
       0.052411675 -0.21696849 0.054131147 -0.13896908

b_play_habitat f4 [4]
000000 44 0f 5b 3a 05 33 f4 39 9e e1 97 39 cc 8c d0 ba
       0.0008356462 0.0004657732 0.00028969062 -0.0015911101

W_gain_food_primary f4 [128, 7]
000000 d3 69 06 bd c7 56 29 bd f6 5b f9 3b cc 5c 2e be
       -0.032815766 -0.041342523 0.0076098396 -0.17027587
000010 4d 5d 0f be 00 16 b4 bb 25 96 a2 b8 a0 bb 01 3e
       -0.14000435 -0.0054957867 -7.7527286e-05 0.1266923
000020 93 bd 20 be ca 7d 5e ba 7f 45 a0 3e 94 49 59 3d
       -0.15697317 -0.0008487372 0.3130302 0.053048685
000030 80 cd ec 3b 2e 9d 75 bd 8e ea a6 be b2 8a 60 3e
       0.007226646 -0.05996435 -0.32600826 0.21927908
000040 38 79 a6 3d 33 22 9a bd 33 2d 6f 3d 16 10 9c 3c
       0.081285894 -0.07526054 0.058392715 0.01905064
000050 74 24 31 3e a6 54 b7 3c b3 3e 44 3e 29 66 e4 3d
       0.17299062 0.02237923 0.19164543 0.11152298
000060 7b f8 c0 3c 6c cb 4c 3e 87 03 a2 3c 56 6e b0 bd
       0.023555985 0.19999474 0.019777073 -0.08614795
000070 c9 fe 70 bd 51 88 23 be af 1b 5d bd 8c ff 6e 3d
       -0.058836732 -0.1596997 -0.05398148 0.058349177
000080 87 d0 98 3a ab fc 21 3e af 70 39 3e 53 34 bf bc
       0.0011658826 0.15819041 0.18109392 -0.02334038
000090 2e 16 97 3d 4a f7 20 bd ce f6 d7 bc c0 0c be bc
       0.07377277 -0.039298333 -0.026362803 -0.023199439
0000a0 05 5e f8 bb 17 8d 47 be f9 64 c5 3c 00 3a 9b bd
       -0.0075795674 -0.19487415 0.024096 -0.07579422
0000b0 3d a3 8a 3c a7 bf e5 3c 7f 87 18 bd 62 fc 05 bd
       0.016923541 0.028045489 -0.037238594 -0.032711394
0000c0 35 fa b8 bc bc 33 22 bd 7b c0 a7 bd 54 aa 1e 3e
       -0.022580246 -0.03960012 -0.081910096 0.15494663
0000d0 68 31 84 3e 10 20 03 be f1 3e 05 3e bd 3a 82 bd
       0.25818944 -0.128052 0.13012291 -0.0635886
0000e0 05 a1 4e 3e e4 35 15 bd af fd 56 bd 37 16 21 3e
       0.20178612 -0.036428347 -0.052488025 0.1573113
0000f0 4b c6 b7 bd fd 0a 1d be 48 1b 00 be 91 c9 01 bd
       -0.08973368 -0.15336223 -0.12510407 -0.03168637
000100 e9 6a 01 be 00 93 90 bd e4 bc 8c 3c 6c db 2c 3e
       -0.12638439 -0.07059288 0.017179914 0.16880578
000110 41 a5 9b 3e ba 9c fa 3c 00 96 66 3e 45 f4 db 3d
       0.30399516 0.030592311 0.22518158 0.1073995
000120 bd ed 45 3c e6 53 7a 3d 60 4d 0a be 76 fc 0b 3d
       0.012080607 0.061115168 -0.13506079 0.034176312
000130 8b c3 a9 be d2 0a 8d bb 04 50 4e be 30 b0 f1 3d
       -0.33157 -0.0043042684 -0.20147711 0.11801183
000140 70 1d 66 3c 30 5b 50 3d 43 27 9f bd 7e 51 9e 3e
       0.014045104 0.050868213 -0.077711605 0.3092155
000150 67 9b 65 bd a3 89 37 3e 80 84 e1 3c 6b 92 91 bc
       -0.056056406 0.17923598 0.027529001 -0.017770013
000160 74 f1 15 bd 5c 1b aa bc 24 f8 0c be 09 b6 0d 3d
       -0.03660722 -0.020765 -0.13766533 0.03459743
000170 f3 10 d7 3d c5 de 9d 3c 20 c3 fc 3d 61 97 3c 3e
       0.1050128 0.019271264 0.12341905 0.18417121
000180 6b 4f fd 3d c4 53 81 be 3a cd 47 3d 17 1c 5d bc
       0.123686634 -0.2525922 0.048779704 -0.013495467
000190 c4 89 19 be 28 cb 2e 3e b6 7f d8 3d 3e 06 c2 bb
       -0.1499396 0.17069685 0.10571234 -0.0059211543
0001a0 03 64 0f be 65 dd 66 be 88 73 36 be af a0 eb 3d
       -0.14002995 -0.22545393 -0.17817509 0.11505257
0001b0 3d 44 bf 3c 8c fa 97 3d a4 9b 4c 3d ca 4b 26 bd
       0.023347968 0.07420835 0.049953118 -0.04059962
0001c0 b5 c0 31 3e 25 6e cc 3c 90 f4 3c be 7f d5 11 3d
       0.17358668 0.024954865 -0.18452668 0.035603996
0001d0 fd 45 06 3e b3 d5 d2 bc 61 ec e1 bc f9 b0 cc bc
       0.13112636 -0.025736665 -0.027578535 -0.02498673
0001e0 fb b2 38 bd 3f 84 5d bd 0e 0d f8 bd 75 47 50 3d
       -0.045092564 -0.054081198 -0.12111865 0.050849397
0001f0 1f d6 8d bd 1a 3e 8e 3d 74 0a 2e 3e 52 27 00 3d
       -0.06925606 0.06945439 0.16996175 0.0312875
000200 74 61 05 bd 1e 79 10 be 60 72 a3 3d 6f 89 13 be
       -0.03256364 -0.14108703 0.079808 -0.14407896
000210 cf 8e a5 3d b9 72 24 3d 2f 24 96 3e 4a 02 8d bd
       0.08083879 0.04014847 0.2932448 -0.06885202
000220 a5 7d 1d be 39 ee 90 3c c9 99 15 3e e6 82 44 3c
       -0.15379961 0.017691718 0.14609446 0.011994099
000230 66 34 53 3d 89 06 b5 bd 66 7d f7 bd 7b f7 d0 bc
       0.051563643 -0.08839137 -0.12084465 -0.025508633
000240 cd aa 20 bc 57 a7 47 be b9 1c f0 bd 72 f9 03 be
       -0.009806347 -0.19497429 -0.117242284 -0.12888125
000250 9e 3f a9 bd 9f 81 36 3e 9b 83 9f bd ba c1 bc bd
       -0.08264087 0.17822884 -0.077887736 -0.09216638
000260 54 e2 d9 3c ed 6c 01 bd e6 0b 8e 3e e3 0a dc 3b
       0.02659718 -0.03159802 0.27743453 0.006715165
000270 8d 21 11 be 58 c6 fe 3d 21 3c bf bd bb 71 d9 3b
       -0.14172955 0.12440175 -0.093376406 0.006635872
000280 f4 5e 39 3e 3e 97 6b bc 31 ad 16 bd 50 b5 c8 3d
       0.18102628 -0.014379321 -0.036786262 0.098002076
000290 d3 ed d2 3d a7 bb 1c be 14 c5 b2 3c c9 08 af bd
       0.102992676 -0.15305959 0.02182249 -0.085465975
0002a0 a5 32 ed 3d ee 1e d8 3d 03 5e c7 3d 74 68 05 3d
       0.11581925 0.10552774 0.09734728 0.032570317
0002b0 5b 93 55 bc 66 a4 ed bd d4 64 34 3c 88 ca 98 bd
       -0.013035621 -0.11603622 0.011010367 -0.07460505
0002c0 fb 38 e4 bc 4b e6 e0 3d bd 63 8b 3c 1c 3b 49 bd
       -0.027859202 0.10981425 0.017015332 -0.049128637
0002d0 cc 12 af be fc 72 93 bd dd 6b 0d be 0b a4 22 3d
       -0.34194028 -0.07199666 -0.13810678 0.039707225
0002e0 1d 84 1f be 56 6f 18 be a6 b9 1f be 0f c8 88 bd
       -0.15577741 -0.14886221 -0.15598163 -0.06678783
0002f0 93 80 9a bd 23 07 1c 3d 08 eb c0 bc a1 94 75 3e
       -0.07544055 0.038092744 -0.023549572 0.23982479
000300 4d 8e 13 be de 59 a9 3d ea af 26 3d 31 fa 90 3d
       -0.14409752 0.08269094 0.04069511 0.0707897
000310 ed e3 98 3d ae 5f 3a bd c8 8b b2 bd 45 4a 77 3d
       0.074653484 -0.045501404 -0.087180674 0.060373563
000320 98 76 8c 3d 4a a0 f0 3d 1e 8c 09 bb 30 56 e2 3d
       0.068585575 0.11749323 -0.0020988057 0.11051595
000330 5c 79 f6 bc b6 c9 a0 bd e9 b7 95 3d e6 e0 b0 3d
       -0.030087166 -0.07850973 0.07310469 0.08636646
000340 7d 96 0e bd 61 36 6d 3d 41 2a e7 bd ed 4f 8d bd
       -0.034811486 0.057913188 -0.11287356 -0.0690001
000350 84 43 a8 3d 35 5f 5f 3c 1c d8 18 3e b2 ea 07 bc
       0.082160026 0.013633539 0.14926189 -0.008295702
000360 c6 ee 0e bd e3 c9 5c 3e 3f f4 b0 3c 31 d5 44 be
       -0.03489568 0.21561389 0.02160084 -0.19221951
000370 25 d8 4f 3d e4 c9 dc 3d 1c 36 6e be 23 ab bf 3d
       0.05074324 0.10780695 -0.23262829 0.093588136
000380 d4 7e c2 bd c8 eb 20 3e 51 87 95 bd 12 ca d3 3d
       -0.09496847 0.15714943 -0.073012 0.10341276
000390 e6 4d b9 bd 9d 18 8e be 4f 38 05 3c e1 23 0d bd
       -0.09048061 -0.27753153 0.008131101 -0.034458045
0003a0 03 8a 13 3d 9d 00 39 bd 91 13 05 3e 76 be d0 bd
       0.03602029 -0.0451666 0.12995745 -0.101925775
0003b0 99 ad 4e be 32 6c d6 3d 42 7d 3e 3e 7b 2b ab 3b
       -0.2018341 0.10469855 0.1860247 0.005223689
0003c0 2b 6b d3 bc be 6f c0 3e 83 4c e5 3c a2 7a b8 bd
       -0.025807938 0.37585253 0.027990585 -0.09007765
0003d0 d8 6e ba bd 73 0e 7d bd 27 99 81 bd a8 e2 97 bc
       -0.09103173 -0.061781358 -0.063280396 -0.018540695
0003e0 d1 04 d0 3d 7f 55 37 3e 1d 2e 03 be df e8 47 3e
       0.10157169 0.17903708 -0.1281056 0.19522427
0003f0 f7 98 f0 bd a4 f5 30 bd 63 e4 db bd c8 40 18 3e
       -0.11747926 -0.04320301 -0.10736921 0.14868462

b_gain_food_primary f4 [7]
000000 8d 06 2e 3a 3a 99 81 ba 79 61 f8 39 79 19 86 39
       0.00066385494 -0.0009887584 0.0004737487 0.0002557745
000010 b7 4a 20 39 3f 1c d0 39 5d 32 7a ba
       0.00015286623 0.00039693897 -0.0009544248

W_draw_mode f4 [128, 4]
000000 fd 55 99 3d be de 92 be 9a e0 8e 3e 31 47 1a bd
       0.07487104 -0.28685564 0.27905732 -0.03766555
000010 54 a7 31 3c 67 22 b6 39 cf 02 98 bd 0a c8 e1 bd
       0.010843117 0.00034739377 -0.07422411 -0.110244825
000020 5f 92 b8 3d 8c 74 bc 3c 2d 11 5f be 5b 6c f7 3c
       0.09012293 0.023004793 -0.21783896 0.030203035
000030 32 80 d1 bd 02 27 08 bd 01 29 e9 3d a6 8d 17 be
       -0.102295294 -0.033240326 0.11384774 -0.14800128
000040 f2 f0 32 3e d6 b5 9a 3d 19 fb a4 3d 8e 78 01 3e
       0.17474726 0.07554214 0.080557056 0.12643644
000050 e1 63 af 3d aa 2e d5 3d 6f 49 03 3e b2 26 cc bc
       0.08563972 0.10409291 0.12820981 -0.024920795
000060 ff e9 97 bd f9 34 e0 bd 11 0c 21 3e 45 f4 1c be
       -0.07417678 -0.10947604 0.15727259 -0.15327556
000070 e2 29 86 3e 7d 4a 10 be 39 38 9c be 49 89 03 3c
       0.2620383 -0.14090915 -0.30511644 0.008028337
000080 22 8e 4c 3e 32 c0 9c bd 3f e2 c1 bb fa 27 95 bd
       0.19976094 -0.07653846 -0.005916863 -0.072830155
000090 2e 0c b1 3d 4a 67 d0 3d 91 c7 e6 bd 60 12 36 3e
       0.08644901 0.10175951 -0.11268533 0.17780447
0000a0 1c 16 87 3d 16 d9 84 be 23 8d cd bd b9 0b 24 3d
       0.06596014 -0.25946873 -0.10036685 0.040050242
0000b0 05 1d 4f 3e 1e 3d 3e bd 2b 8f 86 3e c3 a7 2f 3d
       0.20225914 -0.046445005 0.26281103 0.0428846
0000c0 88 8b 32 be f7 04 e9 3d 66 ca 31 bd 72 58 8d 3d
       -0.1743604 0.113779 -0.043405913 0.06901635
0000d0 d6 c2 08 3e 5c 42 bb 3c 9e 59 b3 3d 8a 4d 2a 3d
       0.13355574 0.022858791 0.087573275 0.041577853
0000e0 f4 da 0a be f1 8e f5 bb bf 35 af 3d 2f c1 9d bc
       -0.13560086 -0.0074938466 0.08555173 -0.019257156
0000f0 3a e0 fc bd 2b 41 2f 3d 83 72 f0 3c 75 f7 c8 3d
       -0.12347455 0.04278676 0.029351478 0.09812824
000100 7e 2e 06 3e 17 46 17 bd da b4 af 3c cd fe bf bc
       0.13103673 -0.036932077 0.021448541 -0.023436928
000110 75 95 21 be 6d 80 a2 3e 2a cc cc 3c 41 66 9a bd
       -0.1577967 0.31738606 0.024999697 -0.07539035
000120 e8 4a 0b bb 78 91 eb bc af a2 92 3b ca fb 31 bd
       -0.0021254364 -0.028755888 0.00447496 -0.043453015
000130 fd 49 71 3d 57 7f 40 be f5 17 ed bd 7c 32 b5 bc
       0.05890845 -0.18798576 -0.11576835 -0.0221188
000140 74 7b 92 3d 37 3d cb 3d 0b 5c 1c be ea c6 10 3d
       0.07152453 0.09923785 -0.15269487 0.03534595
000150 d0 ec 2c be 84 30 2f 3e e8 8e e8 3b f5 6b 30 be
       -0.16887212 0.17108351 0.007097114 -0.17228682
000160 35 de 03 be ac c5 28 3e 13 f3 c3 3d c8 7a 79 bc
       -0.12877734 0.16481656 0.09567847 -0.015227027
000170 0d 14 19 bd c3 af 9e bc 5e c1 93 bd 6a 26 3c be
       -0.037372638 -0.01937092 -0.07214616 -0.18374029
000180 11 ec 19 3c 75 1f 88 bd 9a 57 61 bd ac 1c 05 bc
       0.0093946615 -0.06646625 -0.055015184 -0.008124512
000190 a4 9d 2c 3e 2b 12 81 bd 23 b5 87 3d 2d 76 01 3c
       0.1685701 -0.063022934 0.06626346 0.00790171
0001a0 af 66 c6 3d bb 27 5b be 7c 29 60 3d 61 ce 95 3e
       0.09687554 -0.21401875 0.054727063 0.29259017
0001b0 64 36 2f bb 21 5f b9 bc af d4 24 be b5 8e 06 3c
       -0.00267353 -0.022628369 -0.16096757 0.008212735
0001c0 e9 65 5b 3d d1 e2 a2 3d cd 1b be bd 4a 72 2e 3e
       0.053563986 0.07953418 -0.09282646 0.17035785
0001d0 c0 b0 68 be 94 92 11 3c 51 5c 83 3b 5a de e6 bd
       -0.22723675 0.008885045 0.0040088077 -0.11272879
0001e0 71 5d e5 3d c7 b9 3a be 8e 9c a3 3c 59 d6 10 3d
       0.11199463 -0.18234931 0.019972112 0.035360668
0001f0 18 99 c3 3c e2 b8 1d be 31 08 29 be 0d 4c 6d be
       0.023876712 -0.15402558 -0.16507031 -0.23173542
000200 04 b6 b0 3d 5c 7d 70 bd 40 84 2f bd 29 03 b8 bc
       0.08628467 -0.058713302 -0.042850733 -0.022462444
000210 79 0c aa 3c 8d cb a1 bd 41 06 9f bd e4 ba 28 3d
       0.0207579 -0.07900152 -0.07764865 0.041193858
000220 9e 60 96 bc c2 64 37 bd 87 45 fc bc 3b 4b 89 be
       -0.018356618 -0.044773825 -0.030794872 -0.2681521
000230 64 6f 0f 3e 62 e9 3b bb c7 d4 28 be 1b f9 27 bc
       0.14007336 -0.0028673043 -0.16487418 -0.010252262
000240 11 c2 13 3e 70 32 f5 bc 62 34 ec 3c 79 01 04 3e
       0.14429499 -0.029931277 0.028833572 0.12891187
000250 98 27 f4 bb 33 2d ff 3d 36 52 0f be f2 83 0e 3e
       -0.007451009 0.12459793 -0.13996205 0.1391752
000260 60 cc 67 3e 84 26 5b 3c c7 05 1b be 1e 4a c0 bc
       0.22636557 0.013375882 -0.15138923 -0.023472842
000270 e5 af ac 3e 2a 68 75 bd 7f 54 e8 bb 24 e0 52 bb
       0.33727947 -0.05991379 -0.007090151 -0.0032177055
000280 8b 27 ea 3d ad d1 29 bd 0c 39 a4 bc 02 98 89 3d
       0.114333235 -0.041459728 -0.020046733 0.06718446
000290 36 81 50 3e f2 8f e8 3b 96 59 e8 bd 18 cd dc bd
       0.2036179 0.0070972377 -0.11345212 -0.10781306
0002a0 85 c3 3e 3e e7 31 a4 3d 4c 4b b6 3c 62 01 24 be
       0.18629272 0.080173306 0.022252701 -0.16016153
0002b0 2e eb 34 be 1b bd 86 be 29 ed c2 bd 55 20 02 3e
       -0.17667839 -0.2631615 -0.09517891 0.12707646
0002c0 b2 b8 bd bd 42 81 63 be be e2 8e bd 19 b3 13 3c
       -0.092637435 -0.22217277 -0.069768414 0.009014868
0002d0 85 f6 99 3d 9d 36 e3 bd 47 1c 56 3d 9a ba 00 3d
       0.07517723 -0.11094401 0.05227306 0.031427957
0002e0 84 37 89 bd a1 bd 06 3e bd be 47 be cb dc 2b 3e
       -0.06700042 0.13158275 -0.19506355 0.16783445
0002f0 80 ce 77 be 18 ce 98 bc 6a d5 f2 bd 2d 6b 21 bd
       -0.24199867 -0.01865296 -0.11857112 -0.03940885
000300 c8 c8 12 3e c3 6a b7 bd ee ff 60 3e 6a c3 9f 3d
       0.14334404 -0.0895591 0.2197263 0.07800944
000310 a1 69 e3 3d 97 4a 2f be 44 b3 d0 3d ae 44 99 bd
       0.111041315 -0.17118298 0.10190442 -0.07483803
000320 0c ff 05 be 2e 29 b8 3c e0 44 5d 3e 91 78 4b 3d
       -0.13085574 0.022480574 0.21608305 0.049675528
000330 db eb 8c bd d6 f7 4f 3d f6 0e 08 3e e6 be 2b 3d
       -0.06880923 0.050773464 0.13286957 0.0419301
000340 65 83 3b bc 0c 1a ff 3d 01 6c dd bc 04 13 f0 bb
       -0.011444901 0.1245614 -0.02702904 -0.0073264856
000350 a2 dd a6 3e 0c 87 a7 bb 53 05 7b bb 77 1c ea bc
       0.32590967 -0.0051125344 -0.0038302734 -0.028578026
000360 61 95 0f bd 77 71 87 bd 17 b9 95 bd 86 13 fe bd
       -0.03505457 -0.066134386 -0.07310694 -0.124060676
000370 61 4c 4c be 38 d7 6f 3c 57 7d f9 bd fc 53 08 bd
       -0.19951011 0.0146387145 -0.1218211 -0.03328322
000380 7e 6e df 3d 2b 3f 9c 3d 0d 90 af 3e d2 08 31 be
       0.109097466 0.07629236 0.3428959 -0.17288521
000390 64 55 8f 3d 7e c4 95 3c d1 d0 25 bd a1 50 56 be
       0.06998709 0.018282171 -0.040482346 -0.20929195
0003a0 9a 68 b0 be 92 34 0b 3b 4f 59 99 be 54 6c 18 3e
       -0.34454805 0.002124105 -0.2995095 0.14885074
0003b0 cf 6e 4f 3e 5c 46 b0 bb b8 c9 f2 bd fd 9b 02 be
       0.20257114 -0.0053794812 -0.11854881 -0.12754817
0003c0 f1 fd 55 3d 1c 7a 46 3b 82 6d cd 3d eb 22 50 bd
       0.05224413 0.0030285185 0.100306526 -0.05081455
0003d0 19 85 05 3e 07 94 26 3e 92 b9 8a 3d 14 db 64 bd
       0.13039054 0.16267405 0.06773676 -0.05587299
0003e0 d2 f6 80 be d2 17 7d 3d ff e0 8f 3d 7d ba 37 3e
       -0.2518831 0.061790295 0.070253365 0.17942233
0003f0 26 db b5 3d e3 4d 01 3e 5c c7 26 be c8 ba 8d bd
       0.0887969 0.12627368 -0.16286987 -0.06920391

b_draw_mode f4 [4]
000000 97 47 4c bb d1 35 14 3c 39 f9 67 bb 73 96 1c bb
       -0.00311706 0.009046034 -0.003539635 -0.0023893386

W_lay_eggs_bin f4 [128, 11]
000000 cd 51 2f 3e f9 0b 9e 3b ff be 0d 3e 37 42 1b bd
       0.17121048 0.0048232046 0.1384239 -0.037904944
000010 fa 56 a0 bd 0f fc ef 3d 66 ff 1f 3e 59 0b 04 be
       -0.078290895 0.11717998 0.1562477 -0.12894954
000020 d3 27 91 bd 44 d4 cd bc 5c 33 05 3d 07 ce 20 3c
       -0.07087674 -0.02512563 0.032519683 0.009814746
000030 a1 96 90 3d 54 39 07 bc cd 59 4a be b0 cb 1b 3d
       0.0705998 -0.008253414 -0.19760819 0.03803605
000040 85 98 93 bd eb 84 f4 3d 8d e6 0b be c6 95 6e 3e
       -0.07206825 0.119394146 -0.13662167 0.23299322
000050 f2 6d 39 be 5f 0f 1f 3e 46 69 a7 3d 6f e8 97 bd
       -0.18108347 0.15533207 0.08174376 -0.0741738
000060 e8 51 fe bc 9a d0 d4 3d 80 31 b4 3d 58 76 31 bd
       -0.031044915 0.1039135 0.08798504 -0.043325752
000070 b5 dc b4 be d7 cc 10 be 03 c9 09 bd 06 58 8a bd
       -0.35324636 -0.1414064 -0.033638965 -0.067550704
000080 e2 d6 23 3e e0 94 ad bd ca 01 31 be 0b 83 6f 3d
       0.1599994 -0.08475661 -0.17285839 0.05847458
000090 d4 22 12 3e f2 ec eb 3c 37 84 15 be d0 50 f8 bc
       0.14271098 0.028799508 -0.14601217 -0.030311972
0000a0 99 40 59 be 79 8b cd bd cd 68 1c 3e 29 99 04 3e
       -0.21216048 -0.10036368 0.15274353 0.12949051
0000b0 0e 5b a6 bd 24 01 37 3c 08 5f 9a bd a5 da ac bd
       -0.08122836 0.011169706 -0.07537657 -0.08440141
0000c0 8b 38 e0 3d b8 56 ed 3d b3 f6 06 3e d0 06 ce 3d
       0.10948285 0.11588806 0.13180046 0.10059893
0000d0 9e 1a 86 be 12 ad ed 3d 90 61 5a 3d f0 c8 1b be
       -0.26192182 0.11605276 0.0533157 -0.1521337
0000e0 36 a8 b5 3d d7 70 00 be 2b 98 50 3e c0 e0 dd bd
       0.08869974 -0.12543045 0.20370547 -0.10833883
0000f0 23 24 42 3e c6 85 4c 3c 99 94 8c bd 23 7e 48 3e
       0.18959098 0.012483066 -0.0686428 0.19579367
000100 ae 80 b7 3d 47 71 9a 3e 4b a0 24 be 0a d5 1d 3c
       0.089600906 0.3016455 -0.16076772 0.009633312
000110 db ff 96 bd ec f1 08 3e fb 4b e9 bd 27 5a a9 3d
       -0.07373019 0.13373536 -0.11391445 0.08269148
000120 c8 1d d2 3b 02 ef 3b 3d ed 89 e2 bd 4b 13 ce bc
       0.0064122416 0.045882232 -0.110614635 -0.025155684
000130 fb 38 0b bc 3e 46 82 3d 82 15 40 bd fd 28 9a bd
       -0.008497472 0.06361054 -0.04689551 -0.07527349
000140 6e a8 00 3e 35 a8 09 3e c5 55 ab 3d f3 2b c0 bc
       0.12564251 0.13443072 0.083659686 -0.023458457
000150 b2 6f 38 be e8 b6 42 bc 5a 2c 56 3d 79 2f 38 3e
       -0.18011358 -0.011884429 0.05228839 0.1798686
000160 ca 4b 2c 3d 32 22 f9 3d 5b 5b c2 bd 6c f1 8b 3d
       0.042064466 0.12164725 -0.09490081 0.06833157
000170 aa 09 84 3e 49 14 b2 3c 74 45 f8 bd cd 11 5d bc
       0.25788623 0.021738188 -0.12122622 -0.013493014
000180 1e 2c 1b be 6a e3 66 bd d2 f7 c7 3d 96 76 7a 3d
       -0.15153548 -0.056369223 0.09764065 0.06114825
000190 cc a1 fd bd ee ff 92 3d 5c 48 5f 3d 6a be 34 be
       -0.12384376 0.07177721 0.054512367 -0.17650762
0001a0 fe 5d 3d be 8d 9d 82 bd 8b 9d 13 3e c6 d1 3a bd
       -0.18492886 -0.06377707 0.14415567 -0.04561021
0001b0 eb 4c 25 be e2 c0 0a 3e 7d 4a ca 3c 6b bb 94 3e
       -0.16142623 0.13550141 0.024693722 0.2904924
0001c0 e5 d2 5a 3d a5 45 94 bd 39 a0 c4 bd f9 c0 47 3e
       0.05342378 -0.07239846 -0.096008725 0.19507207
0001d0 79 58 ae 3d c1 1a bc bc 8f 43 19 3d 8c d5 fc bc
       0.085129686 -0.022961976 0.037417945 -0.030863546
0001e0 41 b8 01 3e b4 bc 5e 3e 11 54 ed 3d 72 03 75 be
       0.12667944 0.21751672 0.115883 -0.23927096
0001f0 0f 3a 7b bd 69 9a a4 b9 ed a9 7a 3d 52 5d 87 bd
       -0.061334666 -0.00031395562 0.06119721 -0.06609596
000200 8d 83 ae bc 8b 42 ea 3d 12 f2 2d 3e 8a 55 86 bd
       -0.021302963 0.11438473 0.16986874 -0.06559284
000210 55 78 85 3d 39 22 2f be 97 ea 59 be 5f 00 69 bd
       0.06517092 -0.17102899 -0.21280895 -0.05688512
000220 f1 9d 0c be a7 10 02 be 54 6c 83 3b 3f 9a 8a 3d
       -0.13732125 -0.12701665 0.0040107165 0.06767701
000230 ef 95 a0 3d 83 2e a1 3d 78 0c 75 3e 81 ce 63 bd
       0.078410976 0.078701995 0.23930538 -0.05561686
000240 9a b0 0f 3d 74 64 6d bd 2f 9a 45 bc bf bb 3b bd
       0.03508053 -0.057957128 -0.012060686 -0.045833346
000250 07 82 44 3d 70 ee 08 bd 69 b6 82 3d aa 45 a8 bd
       0.047975566 -0.033430517 0.06382448 -0.08216412
000260 0e 83 e2 bd f0 47 54 be 22 aa 3d be 36 6a f4 3c
       -0.11060153 -0.20730567 -0.18521932 0.029835802
000270 ae ba c1 bc f8 5b c2 bd 00 38 88 bc e9 22 c4 bd
       -0.023648586 -0.09490198 -0.016628265 -0.09576971
000280 e7 d9 b6 3d 08 57 43 bd c6 5b 61 be 22 a8 9c 3d
       0.0892828 -0.04769042 -0.22007665 0.07649256
000290 c7 1c 18 3d 2c 9b 91 3d 39 37 18 bd 8a 8b 7d be
       0.03713682 0.07109675 -0.03716204 -0.24760261
0002a0 bb 58 25 3e ee bc 02 3e f2 16 29 bd fd a7 16 3d
       0.16147129 0.12767383 -0.041281648 0.0367813
0002b0 4d cb 64 bd 9b 2f a7 bd 64 cd 84 3d f8 01 35 3e
       -0.055857945 -0.08163377 0.06484488 0.17676532
0002c0 7b ea 27 3b 54 c2 db 3d c7 aa 8b bd 0c 19 8f bd
       0.002562194 0.107304245 -0.068196826 -0.06987199
0002d0 65 7b 85 3d ee 47 73 3c fa 56 1b 3d 4a d9 56 3e
       0.06517676 0.014848692 0.037924744 0.20981327
0002e0 79 e1 23 3e c8 66 1d be 39 0d c7 bd c4 e3 6a 3d
       0.1600398 -0.15371239 -0.09719319 0.05734612
0002f0 df a1 d3 3d f0 3c d8 bc bd 11 77 bd b5 67 62 bd
       0.10333609 -0.026396245 -0.06031965 -0.055274684
000300 44 06 a1 ba f3 e6 97 bd a4 24 1f bd c1 fc 0b be
       -0.0012285192 -0.07417097 -0.038853303 -0.13670637
000310 55 14 9c 3e 88 ba 54 bc 50 c7 90 bd 8d 47 f9 bd
       0.30484262 -0.012983926 -0.07069266 -0.1217185
000320 b9 bd ce 3c 65 6c 86 be ac 0f cf 3c 96 a4 21 be
       0.025236951 -0.26254573 0.025276028 -0.15785441
000330 51 56 d5 bd 6b 2d c3 bc 25 0d c8 ba 17 81 a5 bd
       -0.10416854 -0.023825368 -0.0015262706 -0.080812626
000340 01 07 1d be 88 eb a4 3d bc 62 06 be 64 34 16 bd
       -0.15334703 0.080527365 -0.13123602 -0.036671057
000350 a1 6f 18 3e cd 09 28 bd ec 5b 9b bd 33 e8 a5 3d
       0.14886333 -0.04102497 -0.07585892 0.08100929
000360 91 ea 2a 3e 6a 0a 05 3d 56 1b 66 3e 93 16 8c 3e
       0.16691042 0.032480635 0.22471365 0.27360973
000370 12 58 af 3d 11 3d fd 3d 62 20 ea 3d 3e e2 c1 3d
       0.0856172 0.12365163 0.11431958 0.094669804
000380 5a 71 66 be bc 3f 91 3e 80 7f 78 bd fd 5d 6f 3d
       -0.22504178 0.28368938 -0.06066847 0.058439244
000390 2b 70 96 be 82 5c 5f 3e d5 19 00 bc b4 2f ec bd
       -0.29382452 0.21812633 -0.007818659 -0.11532536
0003a0 07 7a 4d 3d 4f 6c c6 3d 74 93 b1 bd 41 12 55 3d
       0.050165202 0.09688627 -0.086707026 0.05201936
0003b0 bf d3 94 bd 62 89 03 3c 37 57 46 bd 1f 34 b3 3d
       -0.0726695 0.00802836 -0.04842302 0.08750176
0003c0 91 b3 15 be 00 5b 12 3d 75 e7 f7 3c 6f bd 58 3c
       -0.1461928 0.035731316 0.030261735 0.013228758
0003d0 cf 1e 1c 3e 53 f0 03 bd 1d 84 3d 3e 04 70 ea bd
       0.15246128 -0.032211613 0.18507428 -0.114471465
0003e0 d0 29 d9 3d c3 1a 3b be 9d f1 ac 3d 3b 0c 59 bd
       0.10603678 -0.18271928 0.084445216 -0.05299018
0003f0 ce 3b af 3c 68 5f 81 3d 66 74 45 3e 96 50 6b be
       0.021390822 0.063170254 0.19282684 -0.2297996

b_lay_eggs_bin f4 [11]
000000 92 b3 f4 b8 1f fe 8e b8 98 87 9d 3a 3b 42 63 39
       -0.00011668274 -6.8184214e-05 0.001201856 0.0002167308
000010 fd d6 f6 b7 0f 32 66 b9 45 3f 76 b9 d5 7c d4 b8
       -2.9425597e-05 -0.00021953158 -0.00023483958 -0.000101321995
000020 2d 7a c6 b8 71 bb 22 b9 81 11 d1 b9
       -9.464133e-05 -0.00015519351 -0.00039876628
