reports/ml/auto_improve_factorized_phase3_prod2/iter_002/factorized_model.npz (npz, 94224 bytes, 17 tensors)

W1 f4 [48, 256]
-0.15047643 0.5070196 -0.28100148 -0.31906825 0.11754339 -0.02628665 -0.012530163 0.003596692
0.22775677 0.032769714 0.06315294 0.13921921 0.026756074 0.04525169 -0.41976184 0.25454873
-0.4607298 -0.0409622 -0.026947573 0.042360924 0.39059058 0.4030811 0.25082397 -0.0023270498
0.26169884 -0.06513869 -0.14318027 0.05212828 0.2797084 -0.115318365 0.1610157 0.14694315
0.15110351 -0.22469804 -0.057820834 0.005849475 -0.273799 -0.09310221 -0.15390678 0.31988612
0.14178205 0.20984739 0.046174765 -0.22277594 0.22846076 -0.16861412 0.14498495 -0.14268601
-0.23225039 0.4128484 0.0015399624 -0.012819873 -0.21098958 0.20358568 0.005264296 0.3209997
-0.18485117 0.20831712 0.05739229 0.094027154 0.20402978 -0.018667867 0.0666842 0.05806189
-0.07162264 0.17430505 -0.097067766 0.0434644 0.26565737 0.34869885 0.25874537 -0.10923851
-0.4127077 -0.22017014 -0.26973623 -0.16485754 0.41117242 -0.13715023 -0.051545303 0.047084168
-0.0056166677 0.0190359 -0.012112073 -0.1950079 0.26827425 -0.0444902 0.32246834 -0.094832644
-0.3110243 0.10004363 -0.0037109854 0.13414589 0.31005707 -0.07824735 0.02624557 -0.030180052
-0.17392121 0.15195768 -0.3973473 0.1686271 0.4068051 0.33534527 -0.018701594 0.46258935
0.1533449 -0.058765355 0.0041563804 -0.073315494 -0.05017488 -0.011126237 -0.046595298 0.121263154
-0.18145268 0.20176718 -0.04338424 0.055289775 0.10588075 -0.17318638 -0.21242371 0.014520538
-0.24457373 -0.22704837 -0.06796795 -0.31929958 0.21415268 -0.03654304 0.2368538 -0.17415999
-0.1466446 0.013306289 -0.13859501 -0.008020835 0.2825184 0.18425694 -0.09661589 0.30063668
0.0050170366 -0.014342964 0.22172675 -0.24736246 0.11126883 0.024719223 -0.03266214 0.3402945
0.18939851 0.3245974 0.1488812 0.17103398 0.023843016 0.37898365 0.2839806 0.030604508
0.2544907 -0.43990767 0.016703168 0.4036835 -0.052499972 -0.09781947 0.024748804 -0.1241851
-0.12565878 -0.11391655 0.029580941 0.019898286 -0.051634435 -0.13163082 -0.24801648 0.034656856
0.352269 -0.09745593 0.48892462 0.23482479 0.18796763 -0.4094606 -0.31371024 0.30896276
0.09938979 0.31559327 -0.03881361 0.19763264 0.0662876 -0.15181361 -0.17217198 0.38858947
-0.07149135 -0.013126527 0.29064962 -0.030396633 -0.10905959 0.1940459 0.24868265 0.077183545
-0.15575787 -0.11137108 0.06408372 -0.49682814 -0.009085257 -0.3131224 -0.050039526 0.04765457
-0.012167558 0.20507024 0.35574982 -0.37998185 -0.11569611 0.0385186 -0.1410147 -0.60301894
0.11612308 0.15085576 0.3019308 -0.012107793 0.11500379 0.050155304 -0.041739784 0.27732727
-0.0397855 -0.11077209 -0.0468589 0.18755333 0.079908356 0.41325742 0.2871292 0.15459017
0.06741281 0.056871284 0.07126373 -0.20951732 -0.15600426 0.4935965 -0.09094153 -0.3226234
0.027665641 -0.096469305 -0.20745884 0.093820415 -0.014887869 -0.25266373 -0.1791252 0.016429968
0.045615382 0.19443808 -0.3608832 0.1586752 -0.19225453 0.08610667 -0.23706867 0.08966778
0.28123018 0.13335744 0.15976298 -0.14111476 -0.13300277 -0.16747288 -0.029277673 0.09306952
00000000: 7e16 1abe 09cc 013f 6ddf 8fbe ea5c a3be
00000010: 97ba f03d 1a57 d7bc 504b 4dbc 7bb6 6b3b
00000020: 1239 693e 8939 063d 5456 813d 7b8f 0e3e
00000030: 8e2f db3c d659 393d 06eb d6be 3654 823e
00000040: c7e4 ebbe fbc7 27bd 28c1 dcbc a682 2d3d
00000050: 7dfb c73e a560 ce3e 006c 803e 6b81 18bb
00000060: 64fd 853e 6f67 85bd d99d 12be 7784 553d
00000070: f035 8f3e 092c ecbd 4de1 243e 4478 163e
00000080: e1ba 1a3e 3e17 66be 8ad5 6cbd f4ac bf3b
00000090: 622f 8cbe 5fac bebd bd99 1dbe 1dc8 a33e
000000a0: 502f 113e 3ce2 563e c021 3d3d 601f 64be
000000b0: 9ef1 693e 2ea9 2cbe ef76 143e 481c 12be
000000c0: 0cd3 6dbe de60 d33e 90d8 c93a 720a 52bc
000000d0: a70d 58be c478 503e 1e80 ac3b 135a a43e
000000e0: a049 3dbe 1551 553e 2e14 6b3d 4f91 c03d
000000f0: 2fed 503e 5bed 98bc ba91 883d 4ed2 6d3d
00000100: e4ae 92bd 067d 323e 77cb c6bd ba07 323d
00000110: 3e04 883e a888 b23e 467a 843e 71b8 dfbd
00000120: 6c4e d3be 4874 61be de1a 8abe 6ad0 28be
00000130: 3185 d23e 1c71 0cbe 2b21 53bd 54db 403d
00000140: 060c b8bb 2df1 9b3c b771 46bc 27b0 47be
00000150: 3e5b 893e 5b3b 36bd 921a a53e 9e37 c2bd
00000160: 943e 9fbe ade3 cc3d 0134 73bb 8a5d 093e
00000170: cdbf 9e3e 2640 a0bd f300 d73c 283c f7bc
00000180: 6718 32be cb9a 1b3e 1b71 cbbe 95ac 2c3e
00000190: c248 d03e 60b2 ab3e 1634 99bc 83d8 ec3e
000001a0: 7206 1d3e f1b3 70bd 3f32 883b 6f26 96bd
000001b0: 2d84 4dbd d24a 36bc b6da 3ebd d158 f83d
000001c0: bbce 39be 0e9c 4e3e acb3 31bd 8877 623d
000001d0: 02d8 d83d c557 31be 9a85 59be 8de7 6d3c
000001e0: 8971 7abe 5e7f 68be c832 8bbd 3c7b a3be
000001f0: d74a 5b3e 28ae 15bd cd89 723e ff56 32be
00000200: 012a 16be 9f02 5a3c daeb 0dbe d269 03bc
00000210: 40a6 903e daad 3c3e 8dde c5bd 0ded 993e
00000220: f465 a43b c0fe 6abc 560c 633e 964c 7dbe
00000230: eae0 e33d f87f ca3c bcc8 05bd 153b ae3e
00000240: aff1 413e a131 a63e 5074 183e 8823 2f3e
00000250: 6e52 c33c 250a c23e e865 913e 4eb6 fa3c
00000260: 9b4c 823e 943b e1be 15d5 883c 9baf ce3e
00000270: 360a 57bd 9355 c8bd 01be ca3c c254 febd
00000280: b2ac 00be 154d e9bd bb53 f23c bb01 a33c
00000290: a17e 53bd 3bca 06be 08f8 7dbe 59f4 0d3d
000002a0: 9a5c b43e fa96 c7bd 5454 fa3e e975 703e
000002b0: 967a 403e d2a4 d1be a19e a0be 5e30 9e3e
000002c0: e08c cb3d 7195 a13e 05fb 1ebd 3660 4a3e
000002d0: cbc1 873d 0775 1bbe da4d 30be 33f5 c63e
000002e0: 0f6a 92bd a510 57bc 07d0 943e 5c02 f9bc
000002f0: a25a dfbd f8b3 463e aaa6 7e3e 6812 9e3d
00000300: fe7e 1fbe 8516 e4bd 533e 833d 4260 febe
00000310: 54da 14bc 9451 a0be 3ff6 4cbd 7031 433d
00000320: 705a 47bc effd 513e d724 b63e fb8c c2be
00000330: 15f2 ecbd aec5 1d3d 2866 10be 735f 1abf
00000340: f0d1 ed3d ef79 1a3e ac96 9a3e c45f 46bc
00000350: 1b87 eb3d a66f 4d3d 56f7 2abd d7fd 8d3e
00000360: 1ff6 22bd 7adc e2bd 1eef 3fbd fb0d 403e
00000370: fea6 a33d 7a96 d33e 9902 933e e34c 1e3e
00000380: ba0f 8a3d ddf1 683d b8f2 913d b58b 56be
00000390: 95bf 1fbe aeb8 fc3e 8e3f babd e52e a5be
000003a0: 0ea3 e23c b391 c5bd 1770 54be eb24 c03d
000003b0: 40ec 73bc 245d 81be 996c 37be 2498 863c
000003c0: 32d7 3a3d c71a 473e afc5 b8be c07b 223e
000003d0: 5fde 44be b258 b03d 21c2 72be bea3 b73d
000003e0: 67fd 8f3e da8e 083e e898 233e 6380 10be
000003f0: e131 08be 037e 2bbe bbd7 efbc 3c9b be3d

b1 f4 [256]
-0.0014189479 0.25462532 -0.0023096898 0.0 -0.0076538636 0.13666765 0.024940815 0.0011722876
0.10941467 -0.00042156546 0.12075774 0.013616057 0.00974727 -0.013578427 0.0 0.12783365
0.05503533 0.00027752112 0.0 0.015438639 0.14620188 -0.064420685 0.006332843 -0.00808228
0.18036692 0.071882516 0.053822845 0.021209285 0.19904399 0.0 0.09173422 0.026573168
0.0022022794 0.0 0.0592875 0.03190894 0.00046059006 -0.017427176 -0.0050063957 -0.014148085
0.046291873 0.10344757 0.076382495 -0.0711969 0.06856091 0.00031184306 0.053245526 0.0
-0.0010665016 0.09133711 -0.0032030337 0.013563103 0.0002565589 0.03263154 0.0 0.01855724
0.0 -0.0021416668 0.031735674 0.09203481 0.07723944 0.007761629 0.0 0.05033782
0.02528942 0.1349517 0.0039404114 -0.012105587 0.11407683 0.09432183 0.069697835 0.019634917
0.014364999 0.0027835558 -2.5424924e-06 0.017418193 0.15710105 0.025754824 0.055670634 0.012539315
0.08683589 0.014237189 -1.750202e-05 -0.002471098 -0.00387884 0.053528205 0.083009794 -0.00821103
-0.0007930574 0.0035730235 0.047962293 0.06269935 0.22219676 0.039408498 0.0 0.14516659
-0.009557407 0.0049686874 8.228924e-06 0.04901194 0.23465669 0.12775913 0.19151299 0.18241122
0.0 0.0067572305 0.0001329945 0.08199348 0.0 0.0031466128 -0.0020632746 0.054136757
0.20716433 0.16166267 0.0 0.0 0.003345423 -0.0047305487 -0.00012721054 -0.0006874934
0.00045666454 0.10512651 0.01470725 0.0 0.00016015802 0.09958816 0.0061983815 0.04359294
0.0 -0.012489434 0.046535686 0.071313955 0.027834702 -9.1918715e-05 -0.0013814667 0.0
-0.0070469305 0.082882844 0.18456285 -0.004583324 0.0 0.00763015 -0.013251282 0.010606133
-0.00014776472 0.16005075 0.15464388 0.014683148 0.01498398 0.04612841 0.0032446566 -0.009613265
0.0031744554 0.03496257 -0.011573857 0.09054104 0.0576448 0.000406692 -0.0041822596 0.0
-4.2310716e-05 -0.034546964 0.14448823 0.0061008134 0.08316885 0.057447705 0.05208003 0.03881821
0.16316612 0.0 0.19683658 0.028325347 0.005889925 -0.03801276 0.0 0.006916295
-0.0013079245 0.17914574 0.004016957 0.09607915 0.14693847 0.0 0.005013721 0.013436085
0.00053836266 -0.06667209 0.14236294 -0.008001586 0.007352057 0.062759854 0.024148976 0.023059122
0.06800003 -0.012313186 -0.023040645 0.024578566 -0.017064147 0.0003955431 0.0 0.014490191
0.13796827 0.12080318 0.00044248934 0.0003739574 0.017033672 0.0051023345 0.07372824 -0.011894265
0.04748166 0.1044707 -0.011711814 0.0 0.02799859 0.00011947789 0.008558998 0.13831119
0.0017748977 0.00048140716 0.04102531 -0.00040774755 0.11352611 0.17308258 -0.014316537 0.018764876
-0.02409367 -0.0047227177 0.0 -0.0038100474 -0.022016048 0.177106 0.0069874893 0.0
-0.00069486443 -1.22341535e-05 -0.00039683742 -0.008848566 -0.031683415 0.10140648 8.856755e-05 -0.0039578257
0.0056511173 0.15318482 0.0 0.08738742 0.011706825 -0.00977496 0.0054719495 0.20963632
0.005528713 0.040517278 -0.026150675 -0.00014976821 0.0 -0.0022382652 0.110093474 -0.00010121977
00000000: fefb b9ba 405e 823e 2a5e 17bb 0000 0000
00000010: 43cd fabb 9bf2 0b3e ae50 cc3c 72a7 993a
00000020: cc14 e03d 8f05 ddb9 d64f f73d e215 5f3c
00000030: 03b3 1f3c 0d78 5ebc 0000 0000 d3e6 023e
00000040: ba6c 613d 4180 9139 0000 0000 58f2 7c3c
00000050: f2b5 153e feee 83bd bd83 cf3b 8a6b 04bc
00000060: 1bb2 383e 2437 933d 5875 5c3d 18bf ad3c
00000070: 30d2 4b3e 0000 0000 27df bb3d f9af d93c
00000080: 1e54 103b 0000 0000 73d7 723d f3b2 023d
00000090: 5a7b f139 70c3 8ebc b10c a4bb 5fcd 67bc
000000a0: 8c9c 3d3d 52dc d33d 6d6e 9c3d aecf 91bd
000000b0: aa69 8c3d de7e a339 fb17 5a3d 0000 0000
000000c0: dbc9 8bba f30e bb3d fde9 51bb c737 5e3c
000000d0: c182 8639 a6a8 053d 0000 0000 5a05 983c
000000e0: 0000 0000 355b 0cbb 44fd 013d bf7c bc3d
000000f0: b62f 9e3d 4355 fe3b 0000 0000 082f 4e3d
00000100: c22b cf3c c730 0a3e 911e 813b 8356 46bc
00000110: 1da1 e93d ce2b c13d bdbd 8e3d 68d9 a03c
00000120: 2c5b 6b3c 516c 363b b09f 2ab6 99b0 8e3c
00000130: 19df 203e c8fb d23c e406 643d b371 4d3c
00000140: 04d7 b13d 1943 693c 4dd1 92b7 25f2 21bb
00000150: 2334 7ebb 6440 5b3d 0a01 aa3d 8e87 06bc
00000160: 2ee5 4fba 6329 6a3b 1c74 443d 8468 803d
00000170: 8c87 633e ce6a 213d 0000 0000 8da6 143e
00000180: ac96 1cbc 5fd0 a23b f60e 0a37 bec0 483d
00000190: d849 703e 4ad3 023e fb1b 443e 02ca 3a3e
000001a0: 0000 0000 c26b dd3b 7074 0b39 33ec a73d
000001b0: 0000 0000 6737 4e3b 0138 07bb 81be 5d3d
000001c0: e322 543e e68a 253e 0000 0000 0000 0000
000001d0: e23e 5b3b b802 9bbb d263 05b9 e738 34ba
000001e0: 7a6c ef39 914c d73d adf6 703c 0000 0000
000001f0: 17f0 2739 e1f4 cb3d cb1b cb3b 838e 323d
00000200: 0000 0000 7ca0 4cbc 349c 3e3d 0d0d 923d
00000210: 9a05 e43c 7cc4 c0b8 5512 b5ba 0000 0000
00000220: f0e9 e6bb 7bbe a93d 0bfe 3c3e b52f 96bb
00000230: 0000 0000 5606 fa3b e81b 59bc 59c5 2d3c
00000240: 4af1 1ab9 58e4 233e f75a 1e3e 9691 703c
00000250: 5e7f 753c 25f1 3c3d 4ea4 543b f580 1dbc
00000260: 860a 503b e934 0f3d 46a0 3dbc 956d b93d
00000270: f41c 6c3d 4739 d539 560b 89bb 0000 0000
00000280: c976 31b8 1e81 0dbd b9f4 133e 55e9 c73b
00000290: 6e54 aa3d 494e 6b3d df51 553d d8ff 1e3d
000002a0: 0515 273e 0000 0000 878f 493e 8f0a e83c
000002b0: 4600 c13b 45b3 1bbd 0000 0000 16a2 e23b
000002c0: aa6e abba fb71 373e ada0 833b 25c5 c43d
000002d0: 0a77 163e 0000 0000 244a a43b 0623 5c3c
000002e0: e820 0d3a 608b 88bd 97c7 113e 1619 03bc
000002f0: 86e9 f03b 3d88 803d 13d4 c53c 7ce6 bc3c
00000300: 9a43 8b3d 3fbd 49bc bcbf bcbc fd58 c93c
00000310: 1cca 8bbc e560 cf39 0000 0000 4468 6d3c
00000320: 8e47 0d3e a867 f73d eafd e739 b60f c439
00000330: 338a 8b3c 7c31 a73b d5fe 963d 2ae0 42bc
00000340: 217c 423d bcf4 d53d e9e2 3fbc 0000 0000
00000350: 4d5d e53c 3490 fa38 0a3b 0c3c 73a1 0d3e
00000360: afa3 e83a 6065 fc39 280a 283d f3c6 d5b9
00000370: 6180 e83d 8f3c 313e e98f 6abc ccb8 993c
00000380: 1760 c5bc 07c1 9abb 0000 0000 fdb1 79bb
00000390: 005b b4bc 465b 353e 4ff7 e43b 0000 0000
000003a0: 9027 36ba 4a41 4db7 9e0e d0b9 93f9 10bc
000003b0: 78c6 01bd 33ae cf3d 57bd b938 a6b0 81bb
000003c0: 022d b93b 7bdc 1c3e 0000 0000 2df8 b23d
000003d0: fccd 3f3c 2727 20bc 0a4e b33b e7aa 563e
000003e0: 352a b53b 72f5 253d f139 d6bc 190b 1db9
000003f0: 0000 0000 dcaf 12bb b078 e13d f345 d4b8

W_action_type f4 [256, 4]
0.12314065 -0.0005083832 -0.036523484 0.009999522 -0.18085356 0.100926414 0.043134972 0.006489593
-0.10134303 -0.03452838 -0.029389115 -0.025547003 0.10349823 -0.025807185 0.051999323 0.018858457
-0.10676532 -0.14193393 -0.08057519 -0.046908792 -0.0034618294 0.16753438 0.0019367186 0.048448764
-0.025870537 -0.11467804 -0.004097893 0.16495939 0.058731638 -0.08873582 0.054455377 -0.14472625
0.042007342 -0.06455812 0.0052606636 -0.08426234 0.041697685 -0.08729498 0.08003923 -0.048232418
0.027301082 -0.046600882 -0.11897613 0.085273735 -0.013152286 0.1746192 -0.14157982 0.022075435
-0.030690962 0.0067524435 0.11110048 -0.04470447 -0.1600113 -0.0318569 0.13733499 -0.11676608
-0.07368803 -0.05187608 0.10231613 -0.041284114 0.04680371 -0.06175005 0.01815189 0.0890223
0.055022936 -0.12149276 -0.12546378 0.035139915 -0.014765371 0.18729326 0.1541786 0.084869966
0.021671964 0.14744647 0.099742875 -0.14291146 -0.0007819238 0.079958454 0.045041703 0.12890753
0.0831887 -0.11910009 -0.030112408 -0.020477695 0.044546485 -0.023279503 -0.055280488 -0.049213946
0.08334777 0.024539027 -0.044247806 -0.04373107 0.033073504 -0.0021624241 0.14976807 0.06012722
0.14161985 0.09389315 0.0262741 0.07841954 0.030885598 0.07011427 0.007016446 -0.040489454
-0.02587343 0.038940847 -0.115589194 0.010226491 -0.010316216 0.03802196 0.07771517 0.112666115
-0.2130247 -0.0037479724 0.049069945 -0.006754962 -0.07805171 -0.017697578 0.014877359 -0.06331949
-0.1743367 -0.07929974 0.1862757 -0.12711473 0.115724765 -0.15090512 0.08602619 0.021079212
-0.07165041 -0.11747173 0.15638395 0.03574789 0.034923792 0.032654297 0.1152945 -0.085268736
-0.023420263 0.16456693 -0.09083232 -0.12612477 -0.07951793 -0.24061744 0.07201559 -0.067466415
-0.13353121 0.04441783 0.022026574 0.12615697 -0.04074043 0.041156664 0.003402354 -0.048319723
-0.019131701 -0.01859804 -0.029276276 0.030492479 0.15701972 -0.03758548 0.07561346 -0.015333031
0.04159031 0.16582938 -0.09535584 -0.03225201 -0.2361297 0.17432149 0.079660915 -0.0050649624
0.040952455 0.062512435 -0.06706981 -0.17816022 0.012278826 -0.032306198 -0.061334416 0.042073958
-0.0401983 0.113605045 0.06967982 0.0076785837 -0.057717536 -0.11524345 -0.11271762 -0.019399164
-0.07214042 0.021722442 0.019371089 -0.0955509 -0.10110638 0.09696425 0.07583441 0.025056627
-0.028194893 0.10633485 0.17762107 -0.007698547 -0.035787743 0.005539488 -0.022687463 -0.029221937
0.01846087 0.02183488 0.09856651 -0.036832348 0.08592158 -0.12454511 -0.11906171 0.03775002
0.09214546 0.013365535 -0.058373403 0.027016569 -0.07361044 0.17405544 0.08954163 -0.031609613
0.08584554 -0.05436561 -0.08756114 0.13505998 -0.047253203 -0.0077527068 -0.047801636 0.06560371
0.08869927 -0.03231109 0.004496861 -0.017055005 0.14353193 -0.069818065 -0.19463542 0.016769804
-0.12344327 -0.097959936 -0.14589746 0.04596722 -0.098024905 -0.09304856 -0.07993777 -0.045226797
-0.035896078 -0.023613472 0.07816764 0.1062402 0.0023930978 0.19833778 -0.09180547 0.16024742
0.00028623047 -0.024659963 0.16149488 -0.036261845 0.19036952 -0.10670437 -0.030283833 -0.07999688
00000000: 2a31 fc3d 0545 05ba a699 15bd 09d5 233c
00000010: ad31 39be 82b2 ce3d 4cae 303d a7a6 d43b
00000020: ef8c cfbd a16d 0dbd 71c1 f0bc f347 d1bc
00000030: e1f6 d33d 9769 d3bc 3efd 543d 0d7d 9a3c
00000040: c7a7 dabd 2157 11be 9b04 a5bd 6f23 40bd
00000050: dcdf 62bb 228e 2b3e 7ed9 fd3a 3672 463d
00000060: 73ee d3bc 52dc eabd 9e47 86bb 1deb 283e
00000070: 9690 703d 20bb b5bd 9a0c 5f3d 1e33 14be
00000080: e40f 2c3d 0c37 84bd a561 ac3b bc91 acbd
00000090: 31cb 2a3d b6c7 b2bd 9ceb a33d 5b8f 45bd
000000a0: 85a6 df3c 91e0 3ebd c2a9 f3bd ffa3 ae3d
000000b0: b07c 57bc 60cf 323e 4dfa 10be 8bd7 b43c
000000c0: 9d6b fbbc 9a43 dd3b a688 e33d 091c 37bd
000000d0: 01da 23be 617c 02bd 8ba1 0c3e 0e23 efbd
000000e0: c0e9 96bd 037c 54bd 1f8b d13d 8819 29bd
000000f0: 3fb5 3f3d 9fed 7cbd 46b3 943c 5351 b63d
00000100: bb5f 613d 32d1 f8bd 9479 00be dfee 0f3d
00000110: 74ea 71bc cec9 3f3e ffe0 1d3e 4ed0 ad3d
00000120: 6789 b13c 35fc 163e fe45 cc3d 6257 12be
00000130: 05fa 4cba 42c1 a33d a67d 383d 5600 043e
00000140: d65e aa3d bfea f3bd 4cae f6bc d7c0 a7bc
00000150: 6076 363d a8b4 bebc cb6d 62bd 9094 49bd
00000160: 3cb2 aa3d 1206 c93c 303d 35bd 5a1f 33bd
00000170: 1578 073d 75b7 0dbb cd5c 193e f647 763d
00000180: cb04 113e 0d4b c03d c83c d73c 6c9a a03d
00000190: cb03 fd3c 1298 8f3d 37ea e53b 45d8 25bd
000001a0: 84f4 d3bc 7080 1f3d 07ba ecbd 038d 273c
000001b0: 5905 29bc eabc 1b3d 2229 9f3d 7ebd e63d
000001c0: 2623 5abe 8ba0 75bb 91fd 483d ba58 ddbb
000001d0: 93d9 9fbd 83fa 90bc 2bc0 733c a6ad 81bd
000001e0: 5285 32be e767 a2bd 0fbf 3e3e 5d2a 02be
000001f0: 1b01 ed3d df86 1abe 802e b03d 50ae ac3c
00000200: 73bd 92bd 0595 f0bd 1d23 203e 616c 123d
00000210: 400c 0f3d 83c0 053d 861f ec3d 60a1 aebd
00000220: dadb bfbc 3c84 283e 4c06 babd da26 01be
00000230: 4cda a2bd 6b64 76be e97c 933d d52b 8abd
00000240: 68bc 08be 78ef 353d 1371 b43c 4b2f 013e
00000250: 70df 26bd e493 283d 07fa 5e3b e7ea 45bd
00000260: 16ba 9cbc eb5a 98bc cdd4 efbc 5dcb f93c
00000270: c7c9 203e 3bf3 19bd 3bdb 9a3d 6537 7bbc
00000280: 9a5a 2a3d 2dcf 293e ec49 c3bd af1a 04bd
00000290: fccb 71be 5581 323e 4325 a33d fcf7 a5bb
000002a0: c3bd 273d 8506 803d e65b 89bd a26f 36be
000002b0: 212d 493c 8153 04bd cc39 7bbd be55 2c3d
000002c0: f9a6 24bd c3a9 e83d 4bb4 8e3d a19c fb3b
000002d0: 3969 6cbd c204 ecbd 7fd8 e6bd ffea 9ebc
000002e0: 5bbe 93bd 43f3 b13c 1eb0 9e3c 31b0 c3bd
000002f0: dd10 cfbd 3195 c63d 124f 9b3d 8e43 cd3c
00000300: faf8 e6bc 16c6 d93d 4ce2 353e 1844 fcbb
00000310: 2b96 12bd 9884 b53b 0fdb b9bc d862 efbc
00000320: 403b 973c 10df b23c 3ddd c93d 84dd 16bd
00000330: a7f7 af3d 8211 ffbd a0d6 f3bd c49f 1a3d
00000340: c2b6 bc3d 1efb 5a3c f318 6fbd da51 dd3c
00000350: 12c1 96bd 973b 323e 9a61 b73d 1579 01bd
00000360: c9cf af3d 79ae 5ebd 4153 b3bd 2a4d 0a3e
00000370: 938c 41bd 6b0a febb a6cb 43bd 3d5b 863d
00000380: f6a7 b53d a258 04bd 675a 933b f0b6 8bbc
00000390: 09fa 123e c6fc 8ebd 824e 47be d460 893c
000003a0: d3cf fcbd 389f c8bd 2566 15be 2048 3c3d
000003b0: 48c1 c8bd 3e90 bebd 6ab6 a3bd bc3f 39bd
000003c0: c407 13bd 0a71 c1bc 5b16 a03d 7694 d93d
000003d0: 85d5 1c3b 0f19 4b3e 8204 bcbd e617 243e
000003e0: 3411 9639 b103 cabc ea5e 253e 4d87 14bd
000003f0: 3af0 423e d287 dabd cd15 f8bc 67d5 a3bd

b_action_type f4 [4]
-0.0038628483 -0.006780036 0.0013545494 0.009288334
00000000: d727 7dbb 102b debb 238b b13a 192e 183c

W_play_habitat f4 [256, 4]
-0.12029217 0.0057846406 0.058209985 0.011006669 0.027207876 -0.067751355 0.00511868 -0.048850704
0.117163576 0.016142553 0.03958492 0.015311397 0.13344553 -0.002210814 0.0054151155 -0.25366655
-0.044219855 0.10509568 -0.14103474 0.020851955 0.009875354 -0.110735394 -0.105490126 0.08767028
0.064419575 -0.09597441 -0.02872401 0.010995151 -0.057185054 -0.035411127 0.0026082194 0.1387541
-0.114178985 -0.12602942 -0.12447506 -0.06482736 -0.01334478 -0.030795006 -0.12926865 -0.045908183
0.20875624 -0.04162713 0.03289342 0.037344214 -0.001569944 -0.050749335 0.008808358 0.06662124
0.010312431 0.09553106 0.031010576 -0.03176726 -0.030087162 -0.1026348 -0.15858568 -0.021606779
-0.07909322 -0.015728911 -0.06537823 -0.06842821 0.06166832 -0.019514637 0.08378858 0.031389996
0.12401925 0.07196695 0.080753334 -0.088902324 0.13768879 -0.013626541 -0.01409503 0.14902006
-0.20035432 0.042367134 -0.020525504 -0.007969765 0.037775677 -0.050124913 0.085029975 -0.004298044
0.024962574 -0.09327792 0.14433281 -0.09729145 -0.06773651 0.1660254 -0.11341566 0.07749124
-0.07119861 -0.13328655 0.09545664 0.11309213 -0.08522994 -0.104413375 0.13666667 0.085086145
-0.0018641115 -0.07773774 -0.03523967 0.07673523 0.21899071 -0.053286098 -0.011286753 -0.10149991
-0.031311058 0.04259465 0.0760045 0.033462316 0.050386805 0.097527705 -0.14630677 0.10797004
-0.09192968 -0.06081951 0.10542062 0.0124590555 0.10676658 -0.0540667 -0.17400068 -0.0689481
-0.038353734 -0.023199761 -0.033415835 0.010824625 0.07508564 -0.025848273 -0.0041562826 0.09884335
0.04055301 0.009640208 -0.023783349 -0.0028513777 -0.08130105 0.03341429 -0.03938257 -0.05221349
0.15574114 -0.06951287 -0.005211459 -0.045844734 0.050335556 0.16799043 0.17817993 0.076078795
0.029229743 0.12300579 0.027135428 0.11534741 0.0017088939 -0.08133069 0.038564052 -0.054203115
-0.02441323 -0.14782213 0.045738444 -0.04992941 -0.07501187 0.057196684 -0.002486462 0.024937296
-0.012726126 0.07262167 0.055488296 0.04279972 0.12854032 -0.0015676793 0.04237879 -0.028894655
-0.06712348 -0.15039468 0.16517007 0.021895345 -0.038950898 0.15002753 -0.0031024688 -0.025036989
-0.119286604 0.09809626 0.041586325 0.13304193 0.026890771 -0.01674829 -0.06386737 -0.23490874
-0.035500295 -0.054159112 -0.10009045 0.080701366 0.025151636 -0.042171378 0.069504894 -0.01717603
-0.18830213 0.026318768 -0.07976219 -0.12433925 0.0062882537 -0.07166217 0.02606506 -0.022719586
0.0006620569 0.16365796 0.0570839 0.017247278 -0.022468174 0.14375065 -0.0066693397 -0.07739883
0.060521368 -0.15076922 0.17873037 -0.05194539 -0.014997475 0.03517563 -0.10417125 0.11356506
0.0669454 -0.011988359 0.007363419 -0.15011227 -0.007606163 0.060095362 0.01095181 -0.056487277
-0.05547501 -0.011258961 -0.09884245 0.07604822 -0.0056097084 0.0420348 -0.03961428 0.11478141
0.006328467 0.05107185 0.032320622 0.03211255 -0.0055345027 -0.057525985 0.06931024 -0.10389868
-0.014226169 -0.14043236 0.011077462 0.08307077 -0.1401158 0.040682107 0.031524044 -0.026852615
0.05007803 -0.063316636 -0.005594137 0.069826655 -0.04140942 -0.010577407 0.07367771 -0.0021581044
00000000: be5b f6bd 158d bd3b 986d 6e3d 5155 343c
00000010: 0de3 de3c 39c1 8abd 9aba a73b ad17 48bd
00000020: 75f3 ef3d 633d 843c cc23 223d a7dc 7a3c
00000030: f2a5 083e 4ee3 10bb 4871 b13b 95e0 81be
00000040: e11f 35bd 673c d73d 696b 10be b8d1 aa3c
00000050: 3dcc 213c 3dc9 e2bd 350b d8bd 7a8c b33d
00000060: 69ee 833d 3b8e c4bd 9d4e ebbc 0125 343c
00000070: e03a 6abd 420b 11bd a9ee 2a3b 8e15 0e3e
00000080: acd6 e9bd db0d 01be c8ec febd 35c4 84bd
00000090: 10a4 5abc cf45 fcbc 005f 04be 380a 3cbd
000000a0: 32c4 553e 3681 2abd 40bb 063d 3ff6 183d
000000b0: 94c6 cdba 89de 4fbd ee50 103c b770 883d
000000c0: 78f5 283c caa5 c33d e409 fe3c 631e 02bd
000000d0: 5a79 f6bc 3232 d2bd 4964 22be b300 b1bc
000000e0: a0fb a1bd ebd9 80bc 05e5 85bd 1724 8cbd
000000f0: ec97 7c3d 29dd 9fbc 5999 ab3d cc92 003d
00000100: cefd fd3d 6963 933d 0162 a53d 6c12 b6bd
00000110: 4afe 0c3e db41 5fbc d7ee 66bc b798 183e
00000120: af29 4dbe 2989 2d3d 1a25 a8bc 9e93 02bc
00000130: abba 1a3d c84f 4dbd 3224 ae3d 9bd6 8cbb
00000140: 507e cc3c 7e08 bfbd fbcb 133e bd40 c7bd
00000150: 70b9 8abd 9002 2a3e 7846 e8bd bab3 9e3d
00000160: 94d0 91bd 457c 08be c57e c33d d99c e73d
00000170: 098d aebd aed6 d5bd 59f2 0b3e a541 ae3d
00000180: 3455 f4ba f734 9fbd 7957 10bd 5c27 9d3d
00000190: 1a3f 603e 8642 5abd 13ec 38bc 2fdf cfbd
000001a0: 0640 00bd ba77 2e3d 3fa8 9b3d c80f 093d
000001b0: 6562 4e3d 9bbc c73d 71d1 15be 651f dd3d
000001c0: a145 bcbd e11d 79bd c4e6 d73d 1121 4c3c
000001d0: 70a8 da3d 0b75 5dbd 3c2d 32be a934 8dbd
000001e0: ce18 1dbd 6d0d bebc 0bdf 08bd c559 313c
000001f0: 80c6 993d c2bf d3bc 6d31 88bb 626e ca3d
00000200: ea1a 263d f7f1 1d3c 4cd5 c2bc 2ede 3abb
00000210: 2a81 a6bd 6cdd 083d 9e4f 21bd d0dd 55bd
00000220: 9b7a 1f3e c35c 8ebd e3c4 aabb b0c7 3bbd
00000230: a82c 4e3d af05 2c3e cd74 363e 33cf 9b3d
00000240: 3773 ef3c 76ea fb3d 1e4b de3c 433b ec3d
00000250: f7fc df3a b490 a6bd 57f5 1d3d 1604 5ebd
00000260: 41fe c7bc af5e 17be 3c58 3b3d c882 4cbd
00000270: d39f 99bd 1247 6a3d e9f3 22bb 4d49 cc3c
00000280: 3e81 50bc acba 943d b247 633d c24e 2f3d
00000290: 13a0 033e 977a cdba 6295 2d3d 7cb4 ecbc
000002a0: 0978 89bd 1001 1abe 5822 293e de5d b33c
000002b0: fa8a 1fbd d1a0 193e ca52 4bbb 5f1a cdbc
000002c0: 894c f4bd b1e6 c83d 6c56 2a3d 253c 083e
000002d0: 094a dc3c b633 89bc e5cc 82bd eb8b 70be
000002e0: c268 11bd f2d5 5dbd 39fc ccbd c246 a53d
000002f0: ce0a ce3c e5bb 2cbd 9558 8e3d bfb4 8cbc
00000300: 46d2 40be 759a d73c 5c5a a3bd 94a5 febd
00000310: b20d ce3b 9ec3 92bd 6586 d53c 6d1e babc
00000320: e38d 2d3a f495 273e cfd0 693d 2a4a 8d3c
00000330: 2d0f b8bc 5f33 133e 7a8a dabb 4783 9ebd
00000340: 41e5 773d 3f63 1abe 1805 373e b0c4 54bd
00000350: f8b7 75bc 5214 103d bc57 d5bd cc94 e83d
00000360: ab1a 893d d26a 44bc d648 f13b 08b7 19be
00000370: 1f3d f9bb 8e26 763d 386f 333c 345f 67bd
00000380: c439 63bd 8177 38bc e96d cabd 2bbf 9b3d
00000390: a5d1 b7bb af2c 2c3d 9542 22bd 8412 eb3d
000003a0: 075f cf3b b730 513d a162 043d 7388 033d
000003b0: c65a b5bb 5ea0 6bbd 87f2 8d3d d5c8 d4bd
000003c0: e114 69bc 80cd 0fbe 3e7e 353c 0221 aa3d
000003d0: 847a 0fbe 48a2 263d 5b1f 013d 04fa dbbc
000003e0: 9f1e 4d3d 27ac 81bd 064f b7bb 4701 8f3d
000003f0: ed9c 29bd dc4c 2dbc 57e4 963d fc6e 0dbb

b_play_habitat f4 [4]
0.0002620539 0.0014031555 -0.0010265805 -0.000638629
00000000: 4764 8939 16ea b73a 538e 86ba ab69 27ba

W_gain_food_primary f4 [256, 7]
0.006007885 -0.004586229 0.12782422 0.10080577 -0.0815419 0.023796326 -0.16007043 -0.14331697
0.05379759 0.017355675 -0.14923534 0.072102316 -0.078740254 0.105058536 0.006570034 -0.038935255
0.025230613 0.0641212 -0.021381574 0.047629673 0.041428454 -0.011298252 0.11392317 -0.095708
0.022928827 -0.0013146966 -0.023460552 0.002979265 0.020686887 0.13619353 -0.16270658 -0.09218479
-0.12155639 0.023366755 -0.049835753 -0.006373963 -0.009406179 0.07303741 -0.07016406 -0.0042609647
0.11746941 -0.13063484 -0.062489748 0.11565948 -0.09182517 0.0037364163 -0.042889327 -0.009552104
0.00032641203 -0.06325692 0.05720962 0.030785237 0.027626682 -0.04078361 -0.098948255 0.021451803
-0.039844476 -0.031129744 0.11685783 -0.045603365 -0.10639261 0.07337375 0.025248531 0.07285484
0.022589564 0.019232502 -0.004817794 0.043468952 -0.114502765 -0.14065169 -0.19431789 0.029423324
0.26213878 -0.0008808406 -0.020100284 -0.019743271 0.088406436 -0.03330457 0.07709963 -0.06711293
0.08493613 0.049159594 -0.08630824 -0.054542903 0.099331394 0.06515813 0.017906832 0.06587289
-0.1375808 0.03079649 0.0048211673 0.072035834 -0.032927338 -0.006609138 0.035701454 -0.029182388
-0.059061177 -0.011875837 0.05971494 0.03780399 -0.10181649 -0.025890393 0.0024971305 0.11188264
0.08945538 -0.20809482 0.014835342 0.0823361 0.102904186 0.013281746 0.096602365 -0.10558968
0.06573136 0.10935395 -0.15671386 -0.0007698349 -0.08226198 -0.0922009 0.13703583 -0.019915862
-0.0800297 0.08313144 -0.020716975 -0.043194458 0.012493312 0.099193744 0.034216866 0.1361341
-0.09382852 0.07481832 -0.026325043 0.13070673 -0.00823934 -0.096585795 -0.04837409 0.15781891
0.07565257 0.07206556 -0.018756192 -0.1407691 -0.012143972 0.033087604 -0.015156151 0.04995595
-0.13339143 0.05309199 -0.04541098 -0.12846339 -0.049172547 0.079907104 -0.12568991 0.16373569
0.06662471 -0.09542567 -0.13180341 -0.16191632 0.050240744 0.027945627 -0.055248834 0.043940306
0.06263264 -0.0008967361 0.097333044 -0.00042551366 -0.091155976 -0.00884586 -0.12257896 0.23078176
0.031836703 -0.06977938 0.014452193 -0.050604377 -0.10837737 0.06599618 0.067407735 0.021346617
0.036763083 0.09470266 -0.06724776 -0.04468502 -0.063725434 0.07207855 -0.0634695 -0.055677406
-0.02892622 0.03882627 -0.099657334 0.024924727 -0.051742125 0.08883015 0.10235675 0.103312716
0.05332383 0.10025058 -0.007015728 0.17808348 -0.08583185 0.038127076 0.041013554 -0.09593353
0.03305824 0.08548492 0.13020265 0.08264113 -0.095144995 0.07186336 0.05238584 -0.20396535
-0.024931107 0.08380862 0.07702007 0.08788352 -0.20285366 0.091957614 0.032486793 -0.05147909
0.041428473 0.06296928 -0.014272994 0.020828048 -0.0042991606 0.13720433 0.06904747 -0.05213024
0.020223448 0.006871636 0.11444405 0.10093953 -0.002971575 0.20569745 0.052473273 0.027411327
0.10131079 0.10771106 -0.16037723 0.14896579 -0.020658407 0.055167947 0.0058950377 0.12666681
-0.15354699 -0.08441342 -0.00679377 0.037067458 0.03351932 0.08315863 -0.034786683 -0.04211115
-0.06589163 -0.053244535 0.024397437 0.045153096 0.11327696 0.07571681 -0.18889688 0.06406375
00000000: cbdd c43b 1448 96bb 5ae4 023e 4173 ce3d
00000010: 71ff a6bd 83f0 c23c 81e9 23be afc1 12be
00000020: dd5a 5c3d 7d2d 8e3c 26d1 18be 61aa 933d
00000030: 9242 a1bd ee28 d73d 7149 d73b 937a 1fbd
00000040: 6eb0 ce3c fa51 833d 6928 afbc 5517 433d
00000050: e2b0 293d 4e1c 39bc 8d50 e93d 8e02 c4bd
00000060: 3cd5 bb3c e651 acba 5830 c0bc c63f 433b
00000070: 8c77 a93c 5176 0b3e 8e9c 26be 61cb bcbd
00000080: 8ef2 f8bd a36b bf3c 9320 4cbd addc d0bb
00000090: 601c 1abc a394 953d 2db2 8fbd 909f 8bbb
000000a0: cd93 f03d 24c5 05be 40f5 7fbd e1de ec3d
000000b0: d60e bcbd aade 743b b8ac 2fbd 6e80 1cbc
000000c0: 4822 ab39 d88c 81bd a254 6a3d 5231 fc3c
000000d0: 5a51 e23c b70c 27bd 62a5 cabd b1bb af3c
000000e0: f633 23bd ce03 ffbc 2853 ef3d 98ca 3abd
000000f0: 5ee4 d9bd fa44 963d 02d6 ce3c eb34 953d
00000100: c00d b93c 7b8d 9d3c 96de 9dbb 800c 323d
00000110: 6d80 eabd ff06 10be 45fb 46be 2f09 f13c
00000120: 0e37 863e 36e8 66ba 5aa9 a4bc a4bc a1bc
00000130: 6f0e b53d 5f6a 08bd 69e6 9d3d 8172 89bd
00000140: fef2 ad3d 925b 493d 60c2 b0bd 6168 5fbd
00000150: 426e cb3d a071 853d 59b1 923c 5ee8 863d
00000160: fbe1 0cbe ec48 fc3c e2fa 9d3b 8687 933d
00000170: d1de 06bd 7891 d8bb b03b 123d e70f efbc
00000180: 22ea 71bd df92 42bc a797 743d 5bd8 1a3d
00000190: 2a85 d0bd 1718 d4bc e6a6 233b ba22 e53d
000001a0: 6234 b73d cf16 55be ef0f 733c d49f a83d
000001b0: 6ebf d23d ae9b 593c 76d7 c53d 673f d8bd
000001c0: 2a9e 863d f7f4 df3d 9979 20be bfce 49ba
000001d0: f878 a8bd d3d3 bcbd 1f53 0c3e 9726 a3bc
000001e0: 9de6 a3bd d140 aa3d a5b6 a9bc acec 30bd
000001f0: c0b0 4c3c 1726 cb3d fc26 0c3d bd66 0b3e
00000200: 2b29 c0bd 593a 993d 9ea7 d7bc fcd7 053e
00000210: 4cfe 06bc c6ce c5bd e923 46bd 489b 213e
00000220: bcef 9a3d 1c97 933d 96a6 99bc c625 10be
00000230: 83f7 46bc de86 073d 8151 78bc 9c9e 4c3d
00000240: c397 08be fd76 593d dd00 3abd e88b 03be
00000250: 2769 49bd 56a6 a33d dbb4 00be 54aa 273e
00000260: 8972 883d 896e c3bd 79f7 06be 64cd 25be
00000270: 3dc9 4d3d 3aee e43c 9a4c 62bd c0fa 333d
00000280: 8b45 803d f112 6bba 8c56 c73d 7a17 dfb9
00000290: fcaf babd 3aee 10bc ae0a fbbd 0e52 6c3e
000002a0: 3467 023d 7ee8 8ebd e4c8 6c3c 8946 4fbd
000002b0: f4f4 ddbd 0129 873d 110d 8a3d 1adf ae3c
000002c0: e394 163d 78f3 c13d 32b9 89bd a407 37bd
000002d0: 7b82 82bd eb9d 933d 4cfc 81bd fe0d 64bd
000002e0: aef6 ecbc 4b08 1f3d 2519 ccbd f12e cc3c
000002f0: 8def 53bd 95ec b53d 6aa0 d13d 9e95 d33d
00000300: 176a 5a3d 2d50 cd3d 31e4 e5bb 845b 363e
00000310: 9cc8 afbd 232b 1c3d d4fd 273d cc78 c4bd
00000320: 1468 073d b812 af3d d853 053e c13f a93d
00000330: 61db c2bd 192d 933d 8992 563d 4bdc 50be
00000340: 523c ccbc dba3 ab3d b3bc 9d3d 46fc b33d
00000350: dfb8 4fbe 4654 bc3d df10 053d bddb 52bd
00000360: e7b0 293d 0af6 803d 47d9 69bc 959f aa3c
00000370: f9df 8cbb 4b7f 0c3e c368 8d3d 8586 55bd
00000380: a5ab a53c 762b e13b a461 ea3d 62b9 ce3d
00000390: c1be 42bb 5aa2 523e 37ee 563d b88d e03c
000003a0: 087c cf3d 9e97 dc3d ee39 24be 7d8a 183e
000003b0: d23b a9bc c9f7 613d 292b c13b f2b4 013e
000003c0: 6c3b 1dbe f1e0 acbd 469e debb 0cd4 173d
000003d0: 8e4b 093d 124f aa3d 7b7c 0ebd be7c 2cbd
000003e0: 31f2 86bd f116 5abd 22dd c73c 74f2 383d
000003f0: c0fd e73d 6a11 9b3d 2f6e 41be db33 833d

b_gain_food_primary f4 [7]
0.0015185358 -0.001363008 -0.0008649998 0.0014059228 0.0001653925 0.0017816303 -0.0026434734
00000000: 9b09 c73a f6a6 b2ba 27c1 62ba f146 b83a
00000010: 366d 2d39 9885 e93a 203e 2dbb

W_draw_mode f4 [256, 4]
-0.008159448 -0.07780941 -0.00013295174 0.16421996 -0.032112896 0.14599286 -0.05090846 -0.07959539
-0.09417832 -0.003853872 -0.02141502 -0.14875858 -0.011153423 -0.015833762 0.007827256 0.047805376
-0.01981213 -0.015747843 0.008070478 -0.1459836 0.0019506069 0.04511274 -0.046969924 0.10180687
-0.11211008 0.110902905 -0.19980726 -0.16606516 -0.019384606 0.1483099 0.21124683 0.115562305
0.026032088 -0.121030934 0.11783034 0.12967475 -0.08495982 -0.00442975 -0.036717538 -0.24651484
-0.04124139 0.13453166 -0.09255298 -0.15128969 -0.07947288 0.06660221 -0.015935088 0.043684803
-0.061657604 0.00821932 -0.063148536 0.09370592 0.092848025 -0.026350064 0.03714547 0.18528657
0.0060825865 -0.021564819 -0.0073547 0.11052529 -0.09594569 0.041880038 -0.12128889 0.11073447
-0.07547158 -0.07351767 -0.0850616 0.028831486 -0.0959697 0.10034882 -0.06968226 0.034092043
0.014048135 -0.040526215 0.06926023 0.03848412 0.10020746 0.05073752 -0.15038732 -0.1030489
0.16686781 0.063245274 -0.079749964 0.053188693 -0.009863219 -0.042955417 0.02119679 -0.065679744
-0.10759096 0.0071120984 -0.0880306 -0.045456044 0.016560825 -0.009769278 0.041539222 -0.06837053
0.09495614 -0.20053431 0.02027022 0.04267243 -0.025816828 -0.0651039 -0.10265281 -0.052296437
-0.076835625 -0.19367531 -0.009080367 0.047719307 0.04160089 -0.026486363 0.07577712 0.010177622
0.17500885 0.07567459 -0.047898382 -0.052008674 -0.04656704 0.15353738 -0.115110874 0.08064475
0.13023017 0.16991605 0.07653481 -0.078549325 0.14797094 -0.023344478 -0.1724241 0.014183009
-0.01828302 -0.19483253 0.06120196 -0.0052477308 0.076073535 0.022142693 0.025478838 0.030635424
0.11440032 0.10101954 0.11820945 0.08088437 -0.10091693 -0.016060205 -0.039229263 -0.014531554
-0.09122456 0.07492815 0.0047444827 0.061071917 0.11496946 -0.0119056 -0.124565415 -0.060054116
-0.016954606 -0.04918354 0.02919816 -0.1365025 0.06387415 -0.104152404 -0.06617482 0.040485695
-0.03776755 0.048089903 -0.14493465 4.793252e-05 0.035518393 0.042527996 -0.107307486 0.033141777
-0.08559919 0.037079792 -0.10334799 0.015211959 0.04348728 0.1709206 0.019346232 -0.06562629
0.039147757 -0.060157154 0.002983025 -0.083852276 -0.086394586 0.12949063 -0.052156404 -0.013335581
-0.1262922 0.28900075 0.046338387 0.09945458 -0.05244937 -0.005915001 -0.0036351099 0.14925645
0.06753399 0.07884675 0.12762854 0.07478214 0.076953046 -0.11828932 -0.01238621 0.09901638
-0.059254862 0.11985117 0.029562011 0.045858845 0.08125703 0.0056976117 0.023162661 -0.10849435
-0.08644899 0.14254153 -0.076481976 0.028317075 -0.005407798 0.05874633 -0.078290135 0.037036777
-0.07210922 -0.017982764 -0.12751837 -0.0016180095 -0.034129802 -0.0726708 0.027475495 0.1257329
-0.11094652 0.04223686 0.21467721 0.09896978 0.06309712 -0.039005272 0.06850258 0.0037314913
-0.007373148 0.034941632 0.039705664 0.06892081 0.0023487692 0.08145429 0.040759698 -0.07402585
0.05040699 0.08948008 -0.06721062 -0.066038415 -0.11836679 0.009213308 -0.010092505 -0.101191975
-0.05525963 -0.02921299 -0.059926465 -0.05936626 -0.14062206 0.031673625 -0.02493289 -0.07277922
00000000: 35af 05bc 8a5a 9fbd f668 0bb9 4729 283e
00000010: d088 03bd 277f 153e 6485 50bd e802 a3bd
00000020: 90e0 c0bd 3e91 7cbb 8d6e afbc 2b54 18be
00000030: d9bc 36bc ceb5 81bc e43d 003c 92cf 433d
00000040: 0c4d a2bc 9f01 81bc 0a3a 043c ba7c 15be
00000050: 82ab ff3a 23c8 383d 8963 40bd 1f80 d03d
00000060: f899 e5bd 1021 e33d 469a 4cbe fc0c 2abe
00000070: 77cc 9ebc 8dde 173e 1751 583e eeab ec3d
00000080: 3f41 d53c 11df f7bd 0951 f13d 75c9 043e
00000090: 6aff adbd 7027 91bb 2165 16bd 636e 7cbe
000000a0: bbec 28bd abc2 093e 6b8c bdbd afeb 1abe
000000b0: adc2 a2bd bd66 883d 4d8a 82bc d6ee 323d
000000c0: af8c 7cbd 54aa 063c 0554 81bd e4e8 bf3d
000000d0: 1b27 be3d 17dc d7bc d925 183d c3bb 3d3e
000000e0: 6f50 c73b b4a8 b0bc b2ff f0bb 155b e23d
000000f0: 2d7f c4bd 678a 2b3d 4f66 f8bd c1c8 e23d
00000100: d890 9abd 6f90 96bd c734 aebd 0230 ec3c
00000110: c38b c4bd af83 cd3d 93b5 8ebd 19a4 0b3d
00000120: 262a 663c d1fe 25bd 4fd8 8d3d 86a1 1d3d
00000130: 9239 cd3d 25d2 4f3d 22ff 19be 4d0b d3bd
00000140: 65df 2a3e bd86 813d f353 a3bd 63dc 593d
00000150: 5799 21bc 05f2 2fbd e4a4 ad3c 1a83 86bd
00000160: a658 dcbd 9b0c e93b 6349 b4bd 1e30 3abd
00000170: 91aa 873c 520f 20bc 0825 2a3d d905 8cbd
00000180: 5d78 c23d de58 4dbe bb0d a63c 49c9 2e3d
00000190: d07d d3bc 3255 85bd a33b d2bd ca34 56bd
000001a0: ff5b 9dbd d252 46be d2c5 14bc 5275 433d
000001b0: b265 2a3d eef9 d8bc 0931 9b3d 0ac0 263c
000001c0: 8535 333e 48fb 9a3d 1831 44bd 0c07 55bd
000001d0: 15bd 3ebd e738 1d3e 40bf ebbd 1329 a53d
000001e0: 0f5b 053e 79fe 2d3e 48be 9c3d 78de a0bd
000001f0: b285 173e eb3c bfbc f18f 30be da5f 683c
00000200: 46c6 95bc 2e82 47be e8ae 7a3d 28f5 abbb
00000210: 71cc 9b3d 9864 b53c ffb8 d03c 24f7 fa3c
00000220: b74a ea3d 55e3 ce3d cc17 f23d b4a6 a53d
00000230: 89ad cebd b190 83bc ddae 20bd c115 6ebc
00000240: f1d3 babd ee73 993d 9b77 9b3b 8c26 7a3d
00000250: 1c75 eb3d b50f 43bc 271c ffbd 4efb 75bd
00000260: 63e4 8abc ae74 49bd fb30 ef3c 50c7 0bbe
00000270: 73d0 823d db4d d5bd aa86 87bd 54d4 253d
00000280: 26b2 1abd ebf9 443d c069 14be 270b 4938
00000290: bc7b 113d d631 2e3d 07c4 dbbd acbf 073d
000002a0: a14e afbd fbe0 173d 1ca8 d3bd 953b 793c
000002b0: b81f 323d cf05 2f3e fd7b 9e3c 1467 86bd
000002c0: 6659 203d 5967 76bd db7e 433b beba abbd
000002d0: a5ef b0bd 3199 043e f4a1 55bd 7b7d 5abc
000002e0: be52 01be e8f7 933e 52cd 3d3d d8ae cb3d
000002f0: 27d5 56bd a0d2 c1bb 063b 6ebb afd6 183e
00000300: 434f 8a3d 687a a13d 0eb1 023e 6127 993d
00000310: 8f99 9d3d ac41 f2bd 88ef 4abc 1ac9 ca3d
00000320: 3ab5 72bd 8874 f53d 082c f23c 7cd6 3b3d
00000330: 166a a63d 08b3 ba3b 9fbf bd3c 4932 debd
00000340: 2b0c b1bd 68f6 113e 95a2 9cbd 36f9 e73c
00000350: e633 b1bb fe9f 703d 9456 a0bd e0b3 173d
00000360: 00ae 93bd 9750 93bc 2d94 02be 6413 d4ba
00000370: b1cb 0bbd 6ed4 94bd 4a14 e13c 20c0 003e
00000380: ee37 e3bd 8f00 2d3d 58d4 5b3e abb0 ca3d
00000390: 1039 813d fec3 1fbd 154b 8c3d 098c 743b
000003a0: 739a f1bb f51e 0f3d 68a2 223d 5b26 8d3d
000003b0: cfed 193b 82d1 a63d a4f3 263d dd9a 97bd
000003c0: 8f77 4e3d 5541 b73d b9a5 89bd 263f 87bd
000003d0: 4a6a f2bd 6af3 163c 095b 25bc bd3d cfbd
000003e0: ec57 62bd 1550 efbc 7475 75bd 092a 73bd
000003f0: 3bff 0fbe 34bc 013d 0f40 ccbc 460d 95bd

b_draw_mode f4 [4]
-0.0039752033 0.009333968 -0.00037523333 -0.0049835313
00000000: 6c42 82bb 80ed 183c f7ba c4b9 e44c a3bb

W_lay_eggs_bin f4 [256, 11]
-0.16520819 -0.0033309136 -0.045230106 0.08674267 -0.1005625 -0.09654308 0.04033876 -0.09786985
0.12126425 -0.07660623 -0.012968743 -0.06005046 -0.24656819 0.03826298 0.071005814 0.1178117
0.042531755 0.056327175 0.090294965 -0.096769944 -0.11688098 0.031158244 -0.030345038 -0.057815976
0.0171593 -0.13620219 -0.062386576 -0.069135025 -0.04140492 0.02946615 0.043197278 0.06823684
0.022570927 -0.0316462 0.08713878 -0.029741513 0.040431276 -0.14608875 -0.11178355 -0.085926756
0.0135245565 0.0043606134 0.12469826 -0.044561744 0.077252485 0.012827727 0.17416662 -0.17043139
0.08403704 0.09927545 -0.16378066 0.044961996 0.0032929217 -0.025868095 0.038052164 0.017188553
0.14313897 -0.014790241 0.05343534 0.0952479 0.03898711 0.013026732 0.051321667 -0.035170656
0.03481816 -0.03830661 -0.060208827 -0.047476098 0.0803151 -0.065133475 -0.08954947 -0.19072826
0.020509902 0.004948735 -0.041334413 0.017723469 0.03756438 0.027635228 -0.1456487 -0.14408252
-0.034246776 -0.0657905 0.008212359 0.009298742 -0.11991598 0.042250033 -0.07433679 0.042738892
-0.033307232 0.050527018 -0.010194993 0.014589739 0.17715187 0.06137104 -0.015641848 0.03300172
0.15156244 0.052687995 -0.06234213 -0.09775664 -0.014717638 0.10341872 0.06924133 0.0070298566
0.05234421 0.077225894 0.07618743 -0.024550404 -0.08016447 -0.019382933 -0.069636576 0.039740667
0.06143657 -0.12683463 0.004160746 0.1337579 -0.0986684 -0.029011821 -0.01804385 0.02707169
0.14538313 -0.08528093 -0.12928568 0.06634032 -0.054261997 -0.03719099 -0.04592878 -0.0014188873
0.08483624 0.17557986 0.0048331507 -0.1344108 0.043223314 -0.09581782 -0.109435044 -0.0013906953
-0.077681154 0.17461634 0.13107419 0.1365906 -0.07576689 0.1249016 -0.02749817 -0.050075706
0.0062882383 0.014606624 0.01757019 0.053298306 0.0114005795 -0.016153501 -0.08779291 -0.0082622925
-0.05201686 -0.0999385 -0.012903353 0.019560644 -0.0065272814 -0.120231315 0.13052852 0.10476079
0.14827073 0.116393566 0.11218882 -0.040516015 0.09840566 0.25196755 0.07007817 0.0848872
0.00980222 -0.054060973 0.02485807 -0.044501875 -0.022051439 -0.11976348 0.10358435 -0.07882317
0.1024056 0.18518198 0.03768651 0.024779826 0.058093224 -0.015871836 0.15636836 -0.086530775
-0.065116845 -0.061459407 0.019245183 -0.16116826 0.19749442 -0.017881934 -0.028365225 0.029967638
0.024155736 0.037158847 0.09904945 0.003973788 0.053629376 0.043057133 -0.032531865 -0.013016299
-0.047721993 0.050024897 -0.008341687 -0.08463554 0.12644163 -0.08855571 0.0532714 -0.11730132
-0.083079204 0.088859044 -0.05481846 0.014170761 -0.008482724 -0.076699935 -0.152303 0.16998723
0.10796813 0.016433824 -0.018756002 0.12600885 -0.06256433 -0.13285916 0.036125768 0.06938314
-0.032816984 -0.12687239 0.008076889 0.020883424 0.02675324 0.09909832 0.11486546 -0.03895479
0.0046760933 0.10963802 -0.1260606 -0.13293739 -0.03986337 -0.02441944 -0.123532504 -0.09626354
0.040984116 -0.11428205 -0.025784224 0.0021627806 0.0040597324 -0.080297425 -0.045593955 0.11898569
-0.052424006 -0.032302152 -0.040100504 -0.10403566 -0.03572105 -0.051119 -0.017819382 0.04659432
00000000: 562c 29be 754b 5abb 3443 39bd 24a6 b13d
00000010: b6f3 cdbd 61b8 c5bd 413a 253d fd6f c8bd
00000020: 6459 f83d bae3 9cbd da7a 54bc 79f7 75bd
00000030: 5f7c 7cbe a4b9 1c3d 7f6b 913d 4347 f13d
00000040: c735 2e3d 53b7 663d 91ec b83d 522f c6bd
00000050: 4c5f efbd 933f ff3c 2896 f8bc 72d0 6cbd
00000060: a991 8c3c 9678 0bbe 1189 7fbd aa96 8dbd
00000070: 3598 29bd ff62 f13c a1ef 303d c2bf 8b3d
00000080: aae6 b83c 729f 01bd d175 b23d 79a4 f3bc
00000090: 449b 253d 4a98 15be c6ee e4bd 5efa afbd
000000a0: 1a96 5d3c 7ae3 8e3b cd61 ff3d 6086 36bd
000000b0: 8d36 9e3d 632b 523c bc58 323e 9185 2ebe
000000c0: 9d1b ac3d ed50 cb3d 1eb6 27be 122a 383d
000000d0: 0fce 573b 54e9 d3bc 96dc 1b3d 02cf 8c3c
000000e0: 0693 123e c452 72bc 04df 5a3d 5511 c33d
000000f0: f3b0 1f3d 136e 553c ab36 523d 1b0f 10bd
00000100: 7d9d 0e3d 64e7 1cbd 889d 76bd 4c76 42bd
00000110: 3e7c a43d b364 85bd b665 b7bd 454e 43be
00000120: 6204 a83c ff28 a23b 464e 29bd cf30 913c
00000130: 1bdd 193d 4663 e23c ef24 15be 5e8a 13be
00000140: 5946 0cbd 2bbd 86bd 218d 063c c059 183c
00000150: 8296 f5bd 5f0e 2d3d e33d 98bd fa0e 2f3d
00000160: 2a6d 08bd 6bf5 4e3d e608 27bc cd09 6f3c
00000170: 4d67 353e 3360 7b3d 5523 80bc d02c 073d
00000180: 2f33 1b3e 5ecf 573d 765a 7fbd a234 c8bd
00000190: 3f22 71bc 32cd d33d 66ce 8d3d b65a e63b
000001a0: e266 563d 9c28 9e3d 2808 9c3d ee1d c9bc
000001b0: 452d a4bd f5c8 9ebc 9f9d 8ebd 1cc7 223d
000001c0: eaa4 7b3d f0e0 01be de56 883b d5f7 083e
000001d0: a812 cabd 33aa edbc b2d0 93bc 73c5 dd3c
000001e0: 51df 143e c5a7 aebd 7763 04be 6fdd 873d
000001f0: d441 5ebd 9455 18bd d11f 3cbd f5f9 b9ba
00000200: 9fbe ad3d 35cb 333e 685f 9e3b fca2 09be
00000210: ee0a 313d 223c c4bd 7b1f e0bd fe47 b6ba
00000220: 4c17 9fbd a0ce 323e 5038 063e 68de 0b3e
00000230: ac2b 9bbd 69cc ff3d d843 e1bc 2f1c 4dbd
00000240: 910d ce3b 9f50 6f3c 5cef 8f3c 534f 5a3d
00000250: 7fc9 3a3c 5954 84bc c5cc b3bd 915e 07bc
00000260: a20f 55bd 8eac ccbd 9668 53bc a53d a03c
00000270: cee2 d5bb d63b f6bd 45a9 053e d38c d63d
00000280: 48d4 173e c05f ee3d 41c3 e53d 1ff4 25bd
00000290: e888 c93d e401 813e 2585 8f3d 57d9 ad3d
000002a0: 7e99 203c 0a6f 5dbd 27a3 cb3c 9947 36bd
000002b0: 38a5 b4bc 8e46 f5bd 0824 d43d 0b6e a1bd
000002c0: 07ba d13d 58a0 3d3e 2b5d 1a3d 10ff ca3c
000002d0: 29f3 6d3d a705 82bc 071f 203e 0c37 b1bd
000002e0: fb5b 85bd dcbc 7bbd 13a8 9d3c 4b09 25be
000002f0: fa3b 4a3e 227d 92bc 305e e8bc b17e f53c
00000300: 40e2 c53c e033 183d 70da ca3d 8d36 823b
00000310: 7aaa 5b3d ad5c 303d 2240 05bd 5142 55bc
00000320: 2378 43bd e8e6 4c3d 92ab 08bc 6655 adbd
00000330: ea79 013e b25c b5bd 1d33 5a3d ad3b f0bd
00000340: 6e25 aabd bbfb b53d 5289 60bd 7b2c 683c
00000350: 20fb 0abc db14 9dbd 51f5 1bbe 2211 2e3e
00000360: 651e dd3d 3aa0 863c 30a6 99bc 7708 013e
00000370: ba21 80bd 3b0c 08be 9df8 133d bf18 8e3d
00000380: 1a6b 06bd d6ea 01be ee54 043c b713 ab3c
00000390: 9c29 db3c 0ff4 ca3d 953e eb3d 0f8f 1fbd
000003a0: ea39 993b e689 e03d 0816 01be bd20 08be
000003b0: c647 23bd 470b c8bc 9cfe fcbd d225 c5bd
000003c0: f6de 273d b50c eabd 7039 d3bc 70bd 0d3b
000003d0: 8107 853b fa72 a4bd bac0 3abd c5ae f33d
000003e0: 8eba 56bd 434f 04bd 6d40 24bd a610 d5bd
000003f0: 3c50 12bd 2862 51bd f4f9 91bc b0d9 3e3d

b_lay_eggs_bin f4 [11]
-0.00030039504 -1.40050015e-05 0.001883143 0.00015445486 -1.2812387e-05 -0.00018375056 -0.00017560144 -6.545872e-05
-0.00031449503 -0.00060915615 -0.00036192356
00000000: 577e 9db9 06f7 6ab7 cbd3 f63a 29f5 2139
00000010: c8f4 56b7 2aad 40b9 a721 38b9 e246 89b8
00000020: cfe2 a4b9 c7af 1fba 8fc0 bdb9
