reports/ml/auto_improve_factorized_stageA_warmup/best_model.npz (npz, 72053 bytes, 17 tensors)

W1 f4 [48, 192]
000000 85 96 20 bd 7b 4b 9a 3e 83 de 0a 3e 7c e9 0b bd
       -0.039206047 0.30135712 0.13561444 -0.034158215
000010 29 7d c0 3d 90 ed c0 be 14 8c 85 bd a5 d7 92 3c
       0.093988724 -0.37681246 -0.065208584 0.017925093
000020 0d 8d 98 3d f4 19 56 be 82 c3 23 3e 77 1c 17 bd
       0.07448778 -0.20908338 0.15992549 -0.03689238
000030 fd 5c 6f 3e 8d d4 47 bd fb b9 57 be 16 49 1d 3d
       0.23375316 -0.04878669 -0.2106704 0.03839978
000040 12 5c c3 3d dd 01 23 3f 4b 99 5f be 7d c6 84 bb
       0.095390454 0.6367472 -0.2183582 -0.004051982
000050 d1 81 d4 bc 66 eb 0d 3e 24 16 48 3a 35 05 11 3e
       -0.025940808 0.13859329 0.0007632694 0.14162143
000060 2c 93 15 be 01 fe 0a 3e 9a 54 66 3e 27 e3 8b 3d
       -0.14606923 0.13573457 0.2249321 0.06830435
000070 1e dc 9c 3d 77 0e 60 3d 4c 4a 52 3e c7 67 5c 3c
       0.076591715 0.054701295 0.20536155 0.013452477
000080 90 31 1d 3e 66 cb fa 3d 61 1a 1f bd 46 5d 3d bb
       0.15350938 0.122458264 -0.038843516 -0.0028894707
000090 ab bb f2 be 86 fe f9 bc aa 8e 78 3e 33 cf 6d 3e
       -0.47408804 -0.030516874 0.24273172 0.23223571
0000a0 d2 eb 83 3e 45 f4 9b bd b2 a1 aa 3d 41 66 9d bd
       0.25765854 -0.0761495 0.08331622 -0.07685519
0000b0 e3 a4 07 bd 67 69 4d 3e 96 3c 82 bc 48 84 a0 3e
       -0.033116233 0.20059739 -0.01589803 0.31350923
0000c0 9a 5f ce bd b1 94 d6 3c f1 7d df 3e f3 d7 15 be
       -0.10076828 0.026193948 0.43650773 -0.1463316
0000d0 cb bd 43 3d c2 9e 52 be 78 2d 31 3e 41 19 57 3e
       0.047788423 -0.20568374 0.17302501 0.21005727
0000e0 06 b6 e4 3d e1 af 29 bc 8d 28 b6 3d f3 d6 ce 3e
       0.11167531 -0.010356874 0.08894453 0.40398368
0000f0 91 38 61 be f6 96 3d 3d c9 fa 9d bd 5b b1 d2 3a
       -0.21994235 0.046286546 -0.07713849 0.0016074585
000100 ac 22 ef 3d e0 20 4c be a7 b8 b0 bd 58 12 8a 3e
       0.11676535 -0.19934416 -0.0862897 0.2696712
000110 a5 c4 11 be 4e 2c cd 3d c1 84 cf 3d b1 02 51 be
       -0.1423517 0.10018216 0.10132743 -0.20411183
000120 97 65 95 3e 7e 7f cb bc 6a 27 e4 bd fc 64 39 bd
       0.2917907 -0.024841066 -0.1114033 -0.04526232
000130 6c fc 3b be 81 13 57 be 59 69 2b 3d 87 94 f2 be
       -0.1835801 -0.21003534 0.041848514 -0.47378942
000140 53 56 a6 bc f8 f2 af 3e 15 92 b2 3e 22 00 94 3e
       -0.020304834 0.34365058 0.34877077 0.2890635
000150 5c 5f a7 3b 8e ef a5 3e 55 8e 06 3e 86 cf bb 3d
       0.0051078033 0.32409328 0.13140233 0.09170441
000160 7a 99 f2 3b 73 26 8f bc 4a b4 6f 3e 5b 8b 9a 3d
       0.0074035497 -0.017474389 0.23408619 0.07546111
000170 3a cb 6b be c1 f1 47 be 4a 0b aa 3c 13 c3 21 3e
       -0.23026744 -0.19525816 0.020757336 0.15797071
000180 cb c0 14 be 5e 06 e3 bd 5a fc 7e 3e cf 98 3d 3e
       -0.1452667 -0.11085199 0.24900952 0.18515323
000190 6e db 6f be 70 a8 7c bd f0 83 dc bd 37 ba 0f 3e
       -0.2342355 -0.061684072 -0.107673526 0.14035879
0001a0 d5 7f 0d be b6 9f 2c bb 97 0b b8 bd 8a d6 b6 3e
       -0.13818295 -0.0026340312 -0.089865856 0.35710555
0001b0 e1 60 bb bd 96 03 b8 bd 27 02 49 3e 29 5e b2 be
       -0.091493376 -0.08985059 0.19629727 -0.34837463
0001c0 ed 14 09 be 35 c4 a6 bb f5 33 1f 3e 44 5e 0e 3f
       -0.13386889 -0.0050893077 0.15547164 0.5561259
0001d0 d0 98 91 be 1e 80 03 3e 93 46 92 be 46 3f 4b be
       -0.284369 0.12841842 -0.2856947 -0.19848356
0001e0 d9 dc ce 3d c8 f0 ba bd 35 07 4c bd f6 00 60 3d
       0.10100717 -0.09127957 -0.04981156 0.054688416
0001f0 56 9f 91 3c 16 f2 2a be e4 f4 08 be 6b 05 97 be
       0.017776173 -0.16693911 -0.13374668 -0.2949632
000200 73 9c 84 bd 4e cd 0c bd d5 4c 93 3e aa b5 99 3d
       -0.06475153 -0.03437548 0.28769556 0.07505353
000210 03 29 ce 3e b9 a2 cd 3e 41 a4 31 bd d9 65 f5 3d
       0.40265664 0.4016321 -0.043369535 0.119823165
000220 79 d6 c5 3e 63 c9 21 3e f6 e0 a1 bd 81 ce 8d 3d
       0.38640192 0.15799479 -0.07904236 0.06924153
000230 5d b9 6a 3d c8 d6 de bd 5d 36 59 3d 49 9a 8e 3e
       0.057305682 -0.1088081 0.05303036 0.27852085
000240 d6 73 16 3e 80 03 89 3e 34 70 a9 3d 8c 28 9b 3e
       0.14692625 0.26760483 0.08273354 0.30304372
000250 17 bf 13 be ae 58 90 be 24 71 ad 3c ed 60 88 3e
       -0.14428364 -0.28192657 0.021172114 0.26636449
000260 19 01 45 bf 10 b1 0e bd 31 cf ee 3d 5a fe fb 3d
       -0.769548 -0.03483683 0.116606124 0.12304373
000270 9d 0e 29 be 18 3f c1 3d 50 a1 01 3e 7b 28 11 3e
       -0.16509481 0.09435862 0.12659192 0.14175598
000280 70 01 9e 3e 50 a7 b9 3d 85 48 03 bd bc b4 b6 bd
       0.30860472 0.090651155 -0.032051582 -0.08921191
000290 77 5b c7 3e 46 14 f9 bd 6f 84 de 3c 18 d8 c7 3d
       0.3893697 -0.1216207 0.027162759 0.097580135
0002a0 dc b3 b6 bc 55 1d 19 3e 07 15 6e 3e 3a 07 74 3e
       -0.02230256 0.14952596 0.23250209 0.23830882
0002b0 41 38 34 be e7 d0 8c 3e c8 e1 6c 3e 85 d4 a4 3d
       -0.17599584 0.2750313 0.23133004 0.080483474
0002c0 98 c1 9b 3e e9 19 57 3b e1 83 1a 3f bd 90 62 3d
       0.30421138 0.003282184 0.6035748 0.055313814
0002d0 54 fb 4d be 1d 63 3b 3e 67 f0 0e be af 5f 81 3d
       -0.20115405 0.18299527 -0.13958894 0.06317078
0002e0 bc 2d 71 3e 43 ca 60 be c9 89 65 bd 8a 18 b3 3d
       0.23552603 -0.21952157 -0.056039605 0.08744915
0002f0 60 09 f8 bd e1 0c cc 3d cf 9f 8d be 2b 10 1e be
       -0.12111163 0.09963394 -0.27660987 -0.15435855
000300 e4 d3 1c bf 09 c0 86 3e fe 94 0e 3d 9d f5 ec 3e
       -0.6126082 0.26318386 0.03481006 0.46281138
000310 0e 68 a5 bd 5a 3c 36 3c 49 71 b4 bd ac a0 9b 3d
       -0.080764875 0.011122787 -0.0881067 0.07599005
000320 1a 18 9e 3d c6 1c 5c be 0c 28 b7 bd f5 ce fa 3c
       0.07719441 -0.21495351 -0.08943185 0.030616263
000330 0d 26 99 3e 65 cc de 3d 62 cc 04 bf 72 13 1d be
       0.29911843 0.10878829 -0.51874363 -0.15339449
000340 a6 f7 cf be 57 27 8b be 4a 60 86 be 11 af 90 bc
       -0.40618628 -0.2717845 -0.26245338 -0.017661603
000350 c9 e8 05 3e 52 8e 5d bd 1f bd 69 be c5 2a 1c be
       0.13077082 -0.054090805 -0.2282605 -0.1525069
000360 c7 dc a9 be 34 80 53 bd 84 01 7b 3e b7 40 86 3e
       -0.33176252 -0.051635936 0.24512297 0.26221249
000370 64 94 f6 bd 5f cf 7a 3d 51 11 2b 3e 7f 86 e1 bd
       -0.12040022 0.06123292 0.16705824 -0.11011981
000380 85 8c 66 be 23 43 5a 3d 34 c8 3b bd 0d b0 0b 3e
       -0.22514541 0.053286683 -0.045845225 0.13641377
000390 8d 56 41 3d af f8 e6 3e 88 be 7d 3d be 47 94 3d
       0.047201682 0.45111606 0.061949283 0.07240246
0003a0 0f c2 b1 be fc 9d 0c 3e a9 84 ab 3e 07 cb 9e 3b
       -0.34718367 0.13732141 0.3349965 0.00484598
0003b0 d9 3f 8c 3d a4 b1 28 3e 0f a3 68 bc e0 12 9c bc
       0.068481155 0.16474015 -0.014199032 -0.019051969
0003c0 21 f4 b0 3d 2d 97 b0 3c 68 2c 5c 3e 22 55 e5 bd
       0.08640314 0.021556461 0.21501315 -0.111978784
0003d0 3d 77 ab 3e e8 79 b5 bd a9 b5 03 3e b2 b8 0a bd
       0.3348941 -0.088611424 0.12862267 -0.033867545
0003e0 66 fd eb 3b c7 a0 14 3e 6c 45 18 3e a4 2e 5b 3e
       0.0072018383 0.14514457 0.14870232 0.2140451
0003f0 19 6b a1 bc 99 15 81 be 3b 75 47 bd 5a 7f cb 3d
       -0.019704388 -0.2521179 -0.048695784 0.099364

b1 f4 [192]
000000 ce 17 c7 ba 8b a7 e5 ba f8 83 db 3d ad 82 58 3c
       -0.001518959 -0.0017521245 0.107185304 0.013214749
000010 6d 19 2f 3c f8 56 23 3c bf 5b 7f 3e a9 f8 db 3d
       0.010687214 0.009969465 0.24937342 0.107407875
000020 13 ff f4 39 94 3c 36 bd 9d 2e 93 bc 8b 97 a4 ba
       0.00046729352 -0.044491366 -0.017966563 -0.001255737
000030 39 c5 23 b9 bc 4e bf bc 6f 06 25 3e fe af 19 3d
       -0.00015618363 -0.023352973 0.16115735 0.037521355
000040 39 36 79 b6 09 80 c0 3d f3 29 36 3d 96 aa f6 b9
       -3.7135453e-06 0.09399421 0.0444736 -0.00047047873
000050 af d2 9c 3d 5c 15 66 3d 05 00 9a 3d c8 15 46 3c
       0.07657372 0.056172714 0.07519535 0.012090154
000060 00 00 00 00 00 00 00 00 40 a8 bc 3d a6 02 0c 3e
       0.0 0.0 0.09211779 0.13672885
000070 10 7c 57 bb 50 4c a3 bd 59 3a 10 3e 9d d4 f8 3c
       -0.0032880343 -0.0797354 0.14084758 0.03037482
000080 0f 8a 67 3e 44 02 41 3e 33 de fb 3c 4d 97 38 bd
       0.22611259 0.1884852 0.030745601 -0.045066167
000090 d2 46 de bb 20 93 7e 3d 8a 43 fc 3d d6 26 04 3e
       -0.006783345 0.062152028 0.123175696 0.1290544
0000a0 34 12 09 3e 00 00 00 00 1e ed 24 3e bc 4c 0d 3b
       0.1338585 0.0 0.16106078 0.002156063
0000b0 4a 9b 8d 3b 5f cf 49 3d ac 75 ad ba cf ff 1d 3e
       0.0043214904 0.04927003 -0.0013233921 0.15429614
0000c0 a8 46 1f bb e7 ce e9 ba be 45 08 3e f0 38 8e 3e
       -0.002430359 -0.0017838151 0.13307855 0.27777815
0000d0 9d 3c 7d 3e 3a 4d 85 bc c6 7b ca 3d 0a 99 5a bc
       0.24730153 -0.016272176 0.09886889 -0.013342151
0000e0 2f cb 55 bb f2 d1 5b bb c5 ac 02 3e ed 0e f2 3d
       -0.0032622328 -0.0033541885 0.12761219 0.11819253
0000f0 00 00 00 00 59 0f 47 3c 1e f3 58 3c 18 af 80 3c
       0.0 0.012149655 0.013241557 0.015708491
000100 20 c7 52 3b e5 94 bb bb b5 6b 25 3c 1a 02 70 3e
       0.0032162145 -0.0057245367 0.01009648 0.23438302
000110 1a 99 c2 bb 93 46 60 bb 7f da 44 bd ee ac 0e 3c
       -0.0059386613 -0.0034221753 -0.048059937 0.008708222
000120 35 fc 76 37 5b d2 43 3d 00 00 00 00 35 6d 7f 3d
       1.4721464e-05 0.047808032 0.0 0.062360007
000130 69 e6 7b 3d e4 df 19 3b b3 43 4d bc a1 99 2f bb
       0.061499033 0.0023479396 -0.012528348 -0.002679445
000140 b4 3f e5 bc 7a 58 4b 3e 12 15 f4 3d 02 db 37 3e
       -0.027984478 0.1985797 0.11918081 0.17954639
000150 f9 4b 7a 3b 1f e9 4f bb 00 00 00 00 0a 16 ac 3d
       0.0038192256 -0.0031724644 0.0 0.08402641
000160 ad 08 f6 3d 00 00 00 00 0e ed 73 bc 9f f2 20 3a
       0.120133735 0.0 -0.014888061 0.0006139669
000170 99 8b cb 3d 5a 72 80 3a f8 11 9f bb f3 76 d2 3d
       0.099387355 0.0009799704 -0.004854437 0.10276594
000180 00 00 00 00 a8 66 26 bd 00 00 00 00 6f 8a 31 ba
       0.0 -0.040625244 0.0 -0.00067726424
000190 00 00 00 00 3b 18 bc 3c 4a 57 de ba 89 20 0d 3d
       0.0 0.022960773 -0.001696327 0.034454856
0001a0 0b 2d f1 3a e0 78 86 bc 49 ec 8f 3b 71 e1 1f 3e
       0.0018400265 -0.01641506 0.004392181 0.15613343
0001b0 e1 30 01 bd ee bb 01 3b ff d4 32 3e 3a b1 7e bb
       -0.031540755 0.0019795853 0.17464064 -0.003886296
0001c0 00 00 00 00 00 00 00 00 25 dc 54 3e 54 81 0f 3e
       0.0 0.0 0.20787103 0.14014179
0001d0 bd 7a 93 bc 35 ca 8b 3c c8 94 78 3d bc 25 35 bd
       -0.018002862 0.017064193 0.060688764 -0.04422544
0001e0 4a 83 46 3d 00 00 00 00 e6 1d 50 b7 1e da a4 bc
       0.04846505 0.0 -1.2404727e-05 -0.020123538
0001f0 45 df 9a 3c 34 08 c3 3c 42 8c 80 ba a2 dc dd 3b
       0.018905291 0.023807622 -0.0009807425 0.0067706862
000200 00 00 00 00 1c b2 1d ba 3e 0b bc 3d 1c 9d 89 3b
       0.0 -0.0006015615 0.09181832 0.004199637
000210 15 66 bb 3d 68 8f 4d 3e 00 00 00 00 f8 45 45 3c
       0.0915033 0.20074236 0.0 0.012040608
000220 c1 84 3a 3e a3 b3 ab bb a6 f9 37 3d da 4e 39 3c
       0.18214704 -0.00523992 0.044915818 0.011310304
000230 a3 ea bf bb 26 5b 27 bc e0 ec 4f b9 8a 30 42 3e
       -0.0058568283 -0.010214603 -0.00019829301 0.18963829
000240 5f d0 05 3b 04 0d 81 3c fc e3 45 bd b1 c0 21 bc
       0.0020418388 0.015753277 -0.048313126 -0.009872601
000250 06 76 cf b9 81 95 9e bc d2 48 66 3d b6 fb 80 bb
       -0.0003957005 -0.019358398 0.05622179 -0.0039362563
000260 00 00 00 00 ff 9b d1 bc 2f c6 d5 3d 2e dd 6f 3d
       0.0 -0.02558708 0.10438191 0.058560543
000270 9c 09 dc b9 b9 86 cb 3c 27 22 a6 3d 06 a5 67 bc
       -0.0004196883 0.024844514 0.08111983 -0.014138466
000280 90 d5 a4 bc 80 c7 10 3d e4 74 d9 3a a4 e6 76 39
       -0.020121366 0.035346508 0.0016590622 0.00023546309
000290 51 63 8a 3e 3a 25 69 bd 1b 1b 14 bc 63 47 e9 b7
       0.27028897 -0.056920268 -0.009039666 -2.7809006e-05
0002a0 23 62 d5 3d b2 65 a8 3c 7b 9d 86 3a 50 12 4e 3d
       0.10419109 0.020556305 0.0010270322 0.050310433
0002b0 c7 38 b9 3d 78 86 39 3e 72 9b 1d 3d 6e 2b 13 3e
       0.090440325 0.18117702 0.038478322 0.14372036
0002c0 ba 42 bc bb a7 81 e7 bc 7b fe a2 3e 8d 5e 3e 3d
       -0.005745259 -0.028260065 0.31834778 0.04647689
0002d0 aa 75 25 3d 43 8b e1 3d 00 00 00 00 c6 4f 6a 3d
       0.040395416 0.1101289 0.0 0.057204984
0002e0 eb c7 a8 3d 0b 81 02 3e a7 80 aa 3c a0 6e d9 3d
       0.08241256 0.12744538 0.0208133 0.10616803
0002f0 8e 29 94 3d 9d 8c 27 3e 75 15 36 ba c5 00 2f bc
       0.072344884 0.16362233 -0.00069459464 -0.010681336

W_action_type f4 [192, 4]
000000 a6 ba e0 3b 38 4e bc 3b 7a f4 72 3d 50 47 ad bd
       0.0068581877 0.005746629 0.059315182 -0.084608674
000010 bc ae 58 3d 68 b9 d0 bd 3f d6 18 be 98 f9 df 3d
       0.052901015 -0.101916134 -0.14925478 0.10936278
000020 a3 51 a0 3d e4 08 1f 3e 1d 4c da bd 76 e6 15 bd
       0.07828071 0.15530735 -0.10659049 -0.036596738
000030 fa b0 13 3d 21 4b f2 bd d7 29 29 bd 05 be 06 3e
       0.03605745 -0.11830736 -0.041299667 0.13158424
000040 cf 3b 28 be 3f 91 d3 3d ff d4 80 3c 94 da ff bd
       -0.16429065 0.10330438 0.015726564 -0.12492862
000050 4a c7 6a bd d2 e5 0f be 52 02 3f be b4 2a e2 3d
       -0.057318963 -0.14052513 -0.18653229 0.11043301
000060 80 10 4f bd 76 ba 27 3e fc f9 26 bd 55 9d c5 3d
       -0.050552845 0.16379723 -0.040765747 0.09649149
000070 07 98 ba bc 49 22 1d bd 4b 61 15 3e cc 0d 8d bd
       -0.02277757 -0.038362775 0.14587896 -0.06887397
000080 72 4a 09 bd d7 1c 58 3d e0 6c 32 3e cd 47 a6 3d
       -0.033518262 0.05276188 0.17424345 0.08119164
000090 7e 4d 1e be 88 5f 6d bc a0 0a 88 bd 8d 0c 0d bd
       -0.15459248 -0.014488108 -0.066426516 -0.034435797
0000a0 60 03 d9 bd c2 e9 75 be 82 41 86 3d a3 59 4d 3d
       -0.10596347 -0.24014953 0.065554634 0.050134312
0000b0 45 63 1f bd d0 f1 20 3e 58 67 70 bd 30 ee e9 3d
       -0.03891303 0.15717244 -0.058692306 0.11422384
0000c0 6e 08 26 3e 5e e9 80 3d aa c7 37 bc 42 c2 b0 bd
       0.16214153 0.06294511 -0.011217037 -0.08630802
0000d0 3a fa 3e bd 49 e8 3e bd f0 cf 7b 3d 97 16 c8 3d
       -0.046625353 -0.046608243 0.0614776 0.09769934
0000e0 f5 52 9e 3d d2 3b 55 3c e1 6d 9b 3c 85 0e 4e 3c
       0.077306665 0.013014751 0.018973293 0.012576704
0000f0 41 e2 90 bd 5c 94 09 bc aa 0e a0 3c f1 26 42 bd
       -0.070744045 -0.008397188 0.019538242 -0.04740042
000100 82 92 31 3d 08 51 7a 3d 5f 3b 5f 3e 94 94 3d 3d
       0.04335261 0.061112434 0.21799992 0.046284273
000110 e0 df 5a 3e 00 de 80 3d 0b a0 0a be c7 c4 37 bd
       0.21374464 0.06292343 -0.13537614 -0.044865396
000120 a2 d0 46 bd ec ca fd 3d 1f 59 0f 3e e0 fb 0d 3d
       -0.04853881 0.1239222 0.13998841 0.034664035
000130 29 76 e6 bd 24 c6 27 bd 94 18 89 bd 1d f8 37 3e
       -0.11253006 -0.040960446 -0.06694141 0.17965741
000140 63 0d a3 3d c3 5e 8b bd c8 6b 95 3c 63 15 fc 3d
       0.07961538 -0.06805184 0.01823987 0.12308767
000150 eb a0 61 bd aa 8c 10 bd 34 5d cc bd 5f 93 a9 bd
       -0.055085104 -0.035290398 -0.099787146 -0.08280062
000160 ec cc 43 bc 26 2e 5c 3d 47 a1 b0 3d d7 cd 48 3d
       -0.011950713 0.053754948 0.08624511 0.04902443
000170 51 af 2c 3e 46 e2 83 3c 97 59 83 be ff 29 1b 3e
       0.16863753 0.016099107 -0.2565429 0.15152739
000180 ac 21 da bb 64 e0 c5 bd 3a 05 e6 bc d7 e6 21 be
       -0.006656846 -0.0966194 -0.028078664 -0.15810715
000190 19 3b 05 3e 31 e8 28 be 0c 62 8c 3d d9 74 e0 bd
       0.13010825 -0.16494824 0.068546385 -0.10959787
0001a0 e5 77 d7 3d 80 2a 39 3e 8c e5 ad 3d 44 07 96 3d
       0.10520915 0.18082619 0.08491048 0.073256046
0001b0 46 91 e9 3d 27 41 9f 3d c8 22 85 3d 58 ee e9 3d
       0.11404662 0.07776099 0.065007746 0.114224136
0001c0 21 ac c4 bd 91 52 ee 3d 44 df 36 3d b8 2e 8c 3d
       -0.096031435 0.11636842 0.044646516 0.068448484
0001d0 d9 ff ee bd 68 94 cf bc a4 17 e2 bd 1e 9a 1a bd
       -0.11669893 -0.02533932 -0.11039665 -0.037744634
0001e0 a9 74 f0 3d d6 68 e9 3d 36 11 ea 3b 24 a3 d7 3d
       0.11741001 0.11396949 0.007143165 0.105291635
0001f0 ad 68 8a 3d 44 f3 e0 bc 0e 2d 6c 3d 7a 17 50 3e
       0.067582466 -0.027459748 0.057660155 0.20321456
000200 76 28 58 3d e7 c1 14 3e fb b2 b8 3b bc e9 b1 3d
       0.05277296 0.14527093 0.0056365705 0.086871594
000210 5b ff 01 be 82 d1 d0 bd 2d 55 0e bd 81 5a 3f bc
       -0.12695067 -0.101962104 -0.0347492 -0.011679293
000220 e7 eb a7 bd f5 65 15 3e e3 0d e2 bd a2 47 d1 bd
       -0.08199292 0.14589675 -0.11037805 -0.10218741
000230 8c 30 a3 bc 66 37 14 bc 91 98 6e bb f4 99 d2 bd
       -0.01992061 -0.009046411 -0.0036406855 -0.102832705
000240 1b da 8a bd f4 cf a3 bd 79 95 9b bc 3c ab 0c ba
       -0.067798816 -0.07998648 -0.018992173 -0.0005366092
000250 75 dd 68 3d 09 f5 e1 ba 5d 9b 46 bd c1 ad 50 3d
       0.056851823 -0.0017239164 -0.04848801 0.050946955
000260 a5 45 9c 3d fd fb a8 bc 20 c3 89 3d 23 d8 02 be
       0.07630471 -0.02062797 0.0672667 -0.12777762
000270 fc df af 3d 01 10 bd 3c 25 1b be 3d b0 ab d5 3d
       0.085876435 0.02307892 0.09282521 0.104331374
000280 ac 5a 12 3d 30 e1 7d 3d af ca 4b 3c 5e 86 f7 bc
       0.035731003 0.061982334 0.01243846 -0.030215438
000290 6b 41 c0 bd 9c 7f 91 bd 58 78 bf bd 76 7e 21 3d
       -0.093874775 -0.07104418 -0.093491256 0.039427243
0002a0 32 54 e8 3d fc 70 94 bc d0 67 a2 3d 03 1b 02 3e
       0.11344184 -0.018120281 0.07929957 0.12705617
0002b0 26 84 5a 3c fd 6a 4b be 87 25 7a bd 47 24 09 3e
       0.013337171 -0.19865032 -0.061070945 0.13392745
0002c0 08 6d 44 3d 04 4c f7 3d c1 85 40 bd e7 de 21 be
       0.047955543 0.12075046 -0.047002558 -0.15807687
0002d0 40 4c 1a be 52 19 bc bd f3 eb a1 bc 1b 29 c2 3d
       -0.1506815 -0.09184517 -0.01976583 0.094804965
0002e0 4f e8 e2 3c 6e c7 d7 3d a5 17 e8 3d 22 34 f3 bd
       0.027698664 0.10536085 0.11332635 -0.11875178
0002f0 6a f3 5e be 5c 4d 2b bd 75 ff 01 bd ce 57 05 3b
       -0.21772543 -0.041821823 -0.031737763 0.0020346525
000300 e6 97 8e bd 37 8d 1d 3e f1 7c 95 3d 84 21 2f 3d
       -0.06962566 0.153859 0.07299221 0.042756572
000310 fa 5f b8 bd 15 c8 a4 bd b9 21 d3 3d 00 60 2f 3d
       -0.09002681 -0.08045975 0.103091665 0.042816162
000320 d9 f1 03 3e 91 ca 12 bd 9b 54 61 3e cd ea 75 bd
       0.12885226 -0.035837714 0.2200493 -0.060038377
000330 1c 58 f6 ba 94 c3 54 bc 12 3a 3c be 22 86 5d be
       -0.0018794569 -0.012986083 -0.18381527 -0.21633199
000340 28 31 89 bd 24 1a dd 3d 57 d2 3b 3e 8e c7 cc 3d
       -0.06698829 0.107960016 0.18341957 0.099989995
000350 ab 92 1d 3e 9d d5 d9 bb a5 da b3 3d f4 6b 66 3d
       0.1538798 -0.006647779 0.087819375 0.056255296
000360 b3 b4 b5 3c 25 a5 0d be 5b a1 75 bd df 89 22 3d
       0.02218089 -0.13832529 -0.059968334 0.039682265
000370 2e c2 d8 bc 0f ce 22 be 28 c0 82 3e 6b fb 0e be
       -0.02645978 -0.15898918 0.2553723 -0.13963096
000380 04 70 df bd 82 17 72 3d 31 d1 d5 bd 23 37 1e 3d
       -0.10910037 0.05910445 -0.10440291 0.0386268
000390 a4 3c 32 bd 93 f9 08 be a6 96 6c 3d 98 4d 8c 3d
       -0.043514863 -0.13376455 0.057760857 0.06850737
0003a0 5e 99 66 3d 4d a2 30 3c 47 68 cd bd ab 87 17 3d
       0.056298606 0.010780883 -0.10029655 0.036994617
0003b0 69 e3 e1 3d 7a 2f 5d 3e bd 49 f9 3d f7 4d 64 3d
       0.11029703 0.21600142 0.121722676 0.055738416
0003c0 ec bb ba 3d ac 05 0c 3e f5 12 84 bd 77 ec 6d 3d
       0.091178745 0.13674039 -0.06448928 0.05808684
0003d0 55 ac 4f be fb 57 b9 bd 15 f2 ed bb 4b 10 27 be
       -0.20280583 -0.09049984 -0.0072615244 -0.16314809
0003e0 59 c9 02 be 2f 89 cf bc 76 c3 2d be 8c 99 88 3d
       -0.1277212 -0.025333969 -0.16969094 0.06669912
0003f0 3d 62 85 3d 1a 80 9a bd fd 20 b3 3d 2c 85 83 3d
       0.06512878 -0.07543965 0.087465264 0.06421885

b_action_type f4 [4]
000000 73 85 dd bb 50 ad a8 3b 70 1a e1 bb 48 f9 0a 3c
       -0.006760293 0.0051476136 -0.0068696067 0.008482285

W_play_habitat f4 [192, 4]
000000 7f 43 2f be 45 7b 45 3e 9f f8 32 bd 16 22 68 bd
       -0.17115591 0.19285305 -0.043694135 -0.056673132
000010 6e 3a de 3d 11 15 13 3e e9 e1 34 3e 5e df 48 be
       0.10850988 0.14363505 0.17664303 -0.19616458
000020 40 55 c0 bc e3 1a ec bc 6d 4a 54 bd 5d 62 fe bd
       -0.02347815 -0.028821414 -0.05182879 -0.12421105
000030 24 b9 dc 3c 59 df ed bd aa ce 30 3e b1 ca 65 3d
       0.02694375 -0.11614866 0.17266336 0.056101505
000040 9c 9b 2c 3d 73 4c 07 bd 78 6b ba bd 6d e6 bc 3b
       0.04214059 -0.033031892 -0.09102529 0.0057647736
000050 44 30 ae 3c 35 06 ab bd ae 47 4f bc 4f 1b 1b bd
       0.02126325 -0.08350793 -0.012651367 -0.03786784
000060 c8 35 0e be b0 b3 a8 3d be f8 ed 3d b5 08 a9 3c
       -0.13887703 0.08237398 0.116197094 0.020634035
000070 f8 ed 3b bd f4 96 56 bd 61 e7 1e bd cf c4 27 bd
       -0.04588124 -0.052390054 -0.03879488 -0.040959176
000080 ea 78 09 be eb f9 e4 3d d2 b7 2b bc cd ff 36 bd
       -0.13425031 0.111804806 -0.010480838 -0.044677544
000090 a6 27 0a 3e ed 26 48 3d 1f a7 e9 3d 4e e3 bd 3d
       0.13491687 0.048865248 0.11408829 0.092718706
0000a0 8d f7 01 3d b1 48 23 3d 53 f3 dd bd 77 66 10 be
       0.031730223 0.039864246 -0.10837426 -0.14101587
0000b0 d2 a3 fe 3d af 91 39 3c a7 be fa bc 0b 00 ab 3b
       0.1243359 0.011326238 -0.030608488 0.005218511
0000c0 4e 95 8e 3d 0d a9 4b bb ad 03 f6 ba 13 68 f2 3d
       0.06962071 -0.0031076104 -0.0018769406 0.11836257
0000d0 b0 57 c8 bd e6 b1 dc 3d 23 b2 14 be c2 e2 bf 3d
       -0.0978235 0.10776119 -0.14521079 0.093694225
0000e0 01 5d c4 bc 7c 6a 63 bd af 30 80 3e b2 11 f7 bd
       -0.023970129 -0.055521473 0.25037143 -0.12063922
0000f0 8c 39 65 3d 5a 94 8d bc 30 40 ba bd 41 42 a3 ba
       0.055963084 -0.017282654 -0.09094274 -0.0012455658
000100 93 a2 01 bc 88 7a c7 3d 81 3e 44 bd 2d 7f b2 3d
       -0.007912296 0.09740168 -0.04791117 0.08715663
000110 61 c0 6d bc 67 b3 34 be d5 1e 5d 3d 5f 0f e4 bd
       -0.014511199 -0.17646562 0.05398448 -0.11135744
000120 e0 bb 91 3e d9 93 41 bd 0e 93 40 be 22 ae 43 3e
       0.2846365 -0.04726014 -0.18806097 0.19109395
000130 f7 f7 6e bd fa 9c 24 3d 47 66 6c 3d 99 38 dd bc
       -0.058341946 0.040188767 0.057714727 -0.027004527
000140 2d a2 64 3c 79 02 8c 3c 86 e7 32 be e5 76 55 bd
       0.013954681 0.017091023 -0.17471132 -0.05211534
000150 d9 92 48 bd ef 7b 72 3d d3 b7 4e 3d 52 7d 1f bd
       -0.04896817 0.059200224 0.050468277 -0.038937874
000160 9e b4 ea bd 71 c6 00 3d 20 f7 a8 3d 1c ca b2 3d
       -0.11460231 0.03143925 0.0825026 0.087299556
000170 4c 83 fc bc 00 69 96 3d 6c af 42 3c a6 ec 13 3e
       -0.030824326 0.07344246 0.011882644 0.14445743
000180 75 10 34 be e9 de b9 3d b7 73 54 3d 9c 6c 57 bd
       -0.17584403 0.0907572 0.051868167 -0.052593812
000190 ae 37 8f 3d 2d 3e 74 3d 02 37 b9 3d 4b aa 3a 3d
       0.06993042 0.059629608 0.09043695 0.04557256
0001a0 d9 b7 3d be 8c 68 39 bd eb 6d d0 bd 53 82 95 3c
       -0.18527164 -0.04526572 -0.10177215 0.01825062
0001b0 b5 b8 67 bb 02 96 84 3d 78 f8 05 3d 97 d1 00 be
       -0.0035357897 0.06473924 0.03270766 -0.12579952
0001c0 1f 39 76 3d 74 90 8d bd 5b e6 06 3e 21 47 65 3d
       0.06011307 -0.06912318 0.13173811 0.055976037
0001d0 5b 3c 50 bd ed 73 c1 3d 08 a4 ab 3d 00 4c 33 be
       -0.05083881 0.09445939 0.08380896 -0.1750946
0001e0 48 fd 8c bd 97 32 19 3c 1b ff 7b 3a 3e 54 8f 3d
       -0.06884247 0.00935044 0.0009612904 0.0699849
0001f0 d8 08 c6 3d 47 26 11 be 3f 6f d7 bc 0b e8 c2 b9
       0.096696556 -0.14174758 -0.026298163 -0.0003717545
000200 50 85 38 3e 3e 88 17 be 4e 1a b1 3d 12 1e da bd
       0.18019605 -0.14798066 0.08647595 -0.10650267
000210 80 c1 26 be 5b d9 ca 3c 9b e0 3f 3c 83 e1 0c be
       -0.16284752 0.024761846 0.011711265 -0.13757901
000220 60 bb 80 be 28 50 f7 bc 88 2e 23 be ce 52 eb bc
       -0.25142956 -0.030189589 -0.15935719 -0.028726008
000230 f4 de 0c be da 67 05 3e 7f be 07 be ab 1b 8f 3d
       -0.13756925 0.13027897 -0.13256262 0.06987699
000240 74 b2 5c 3d a2 03 2c be 4d eb 14 be 34 7a 16 be
       0.053881124 -0.16798261 -0.14542885 -0.14695054
000250 4d 8f c2 3d 33 49 08 3d 21 1f bb 3a 5e f3 bf 3d
       0.09499989 0.033272933 0.0014276245 0.093725905
000260 7e 47 8f 3c 1e 98 be 3d 7e d4 fc bd 8f 1e 17 3e
       0.017490145 0.09306358 -0.12345217 0.14757751
000270 f5 34 1f be c7 b2 53 bd 69 c1 ab 3d 98 db af bd
       -0.15547545 -0.051684167 0.083864994 -0.08586806
000280 ce 44 07 be 88 ce d6 bb b8 ea 2f be 94 22 e3 bd
       -0.1320984 -0.006555382 -0.17179382 -0.1109058
000290 15 4a 93 bd 17 98 0c be d9 06 5e 3b 5b b5 64 bd
       -0.071918644 -0.13729893 0.0033878593 -0.055837017
0002a0 9f 3c 02 3e 9b b6 cd bd 94 fe 44 3e 1d 2e bd 3d
       0.12718438 -0.10044595 0.19237739 0.09237311
0002b0 91 be d6 bd b7 be 07 3e 1b a8 a6 bd 31 b5 38 be
       -0.104855664 0.13256346 -0.08137532 -0.18037869
0002c0 f5 11 25 bd 66 29 b6 bd 0b 34 92 bd ff 74 33 3e
       -0.04030033 -0.08894615 -0.07138833 0.17525099
0002d0 b1 64 9b 39 87 07 47 bd d9 04 57 bd 64 fc 66 bd
       0.00029638925 -0.048591163 -0.052494857 -0.056393042
0002e0 de 16 4e be eb 54 4e 3d 16 e9 31 3b ee 9c 18 bc
       -0.2012591 0.050373953 0.0027146987 -0.009314759
0002f0 90 ac 4e 3d be 44 8c 3c e9 20 c1 bc 02 1d ff 3d
       0.050457537 0.017122623 -0.023575263 0.12456705
000300 1f f3 4c 3d e6 b8 59 3e a8 05 c3 bd 69 fe c6 bd
       0.050036546 0.2126194 -0.09522563 -0.09716494
000310 53 bb 58 3d 86 27 29 be cc 91 ec bc 9d 5d 98 bd
       0.05291302 -0.16518983 -0.028878115 -0.0743973
000320 e3 c9 10 bd 32 7c d9 bd 8c 3d c4 bb 66 c1 a8 bc
       -0.035348784 -0.106193915 -0.0059887823 -0.020600032
000330 26 f1 c3 3d 10 12 92 bc a7 ec db bd 72 6c 3e 3d
       0.0956748 -0.017830878 -0.10738497 0.04649014
000340 bc fc cd 3d f8 b6 98 bc 2d 71 7b 3c fd ed 14 be
       0.10057971 -0.018641934 0.015346807 -0.1454391
000350 23 ee c5 3c 80 9a 1c 3d 02 9c 8e 3d 19 ed 85 bd
       0.024161404 0.03823328 0.0696335 -0.065393634
000360 b0 c8 5d bd 24 81 40 be 8b ea e9 3d 1a ba 6a 3a
       -0.05414647 -0.18799263 0.11421689 0.0008954123
000370 84 4f d8 bd 5f a2 ab 3c 35 c0 12 3e c5 d4 f3 3d
       -0.105620414 0.020951448 0.14331134 0.11905817
000380 c9 18 cb 3d e1 5a a0 3d fb 71 96 3d 42 da 49 bd
       0.09916837 0.07829834 0.07345959 -0.049280412
000390 50 e0 0d 3e fc dc 06 be c0 d4 a5 3d 70 1e 39 be
       0.138551 -0.13170236 0.080972195 -0.18078017
0003a0 bd 13 02 be 3c 12 4f bc ed c3 8d 3d d6 a1 bb 3b
       -0.12702842 -0.012638625 0.069221355 0.0057260795
0003b0 ae 1c 3b 3d 4f 83 41 3d 82 9e 57 3d 1e bb 75 3d
       0.045681648 0.047244366 0.0526414 0.059992902
0003c0 e5 70 00 be 0c 58 0d 3e b3 fa 13 bd 22 9e 13 3d
       -0.12543066 0.13803118 -0.036127757 0.03603948
0003d0 d4 b4 0b be a3 88 6b bd 24 35 06 be ec b6 2a be
       -0.13643199 -0.057503354 -0.13106209 -0.16671342
0003e0 73 88 30 be fc 02 2a 3c 3d 2a c6 3d da 0c 4b bd
       -0.17239551 0.010376688 0.09676025 -0.049572803
0003f0 a1 64 22 be 29 83 6d 3e 80 d1 9d 3d 5a 6e 86 3d
       -0.158587 0.23194565 0.077059746 0.06564017

b_play_habitat f4 [4]
000000 54 d7 9d 3a 15 9e 55 3a d7 96 c8 ba 10 1f 00 ba
       0.0012042322 0.0008148861 -0.0015303743 -0.0004887441

W_gain_food_primary f4 [192, 7]
000000 7f 08 26 3d 1b 93 7f 3d e2 5d 58 be 94 9c 0e 3d
       0.040535446 0.06239615 -0.21129563 0.034817293
000010 d8 ae 30 3e e4 4e d8 3c 21 c9 75 be 57 44 a7 3d
       0.17254198 0.026404805 -0.24002506 0.08167332
000020 e6 60 c5 3d 43 00 f6 bc 9c bf bb 3c 02 66 7e bd
       0.096376225 -0.030029422 0.022918515 -0.062109
000030 c7 28 ca bd 9e ac e5 3d 96 c9 b6 3d 05 a4 e6 3d
       -0.09871059 0.11214565 0.08925168 0.11261753
000040 9a cc c9 bd e6 24 8b 3e ae 78 19 3d d7 4d 27 be
       -0.09853478 0.2717659 0.037468605 -0.16338287
000050 7d da 35 bd 2f fb 13 bd c9 04 05 bc bb 73 e3 bd
       -0.04439782 -0.03612822 -0.008118817 -0.11106058
000060 95 8d 85 bd fc f3 8f 3c b4 b3 db 3c 97 56 a1 3d
       -0.06521145 0.017572396 0.026819088 0.07877844
000070 2a 9b 26 be e0 10 fb 3d 0d 06 92 bd 65 ec 64 bd
       -0.16270128 0.12259078 -0.0713006 -0.055889506
000080 14 a0 9c 3b 12 f3 38 3d b7 bb 16 3e 16 70 1d 3e
       0.004779825 0.045153685 0.14720045 0.15374789
000090 d6 d2 c9 3d ec da be 3d b7 10 36 3e ff 03 71 be
       0.09854667 0.093191 0.17779814 -0.2353668
0000a0 69 56 b5 3c aa eb f6 3d 6f fd 2b 3d ee 11 9d bd
       0.02213593 0.12056668 0.04198974 -0.076694354
0000b0 23 65 0a bd c8 4d 48 3b fa 88 f5 3d 2a 68 ff bc
       -0.033787858 0.003056394 0.11989017 -0.031177599
0000c0 0a 27 d1 3d b2 4a a9 3d 05 59 1d be 09 c2 42 3e
       0.10212524 0.082662 -0.1536599 0.19019331
0000d0 f4 7f 4a 3e 14 f4 40 bd 39 94 c4 3b 14 65 a2 3d
       0.19775373 -0.04710777 0.005999115 0.07929435
0000e0 d7 17 07 3c ea df 28 ba 6a 38 3b 3b 73 f0 c5 3c
       0.00824543 -0.0006442057 0.002856756 0.024162507
0000f0 4a d1 cd 3d 2b 9a d0 3a 4b 7a cf 3c dc e4 8c 3d
       0.10049684 0.0015915086 0.025326869 0.06879589
000100 61 9f d2 3c b6 ca aa bd 0e 07 05 3e 5f 4d 03 3e
       0.025710763 -0.08339445 0.12990972 0.12822483
000110 aa 90 58 3d 3d 76 7a bd dc 59 92 3d 98 bb 20 3e
       0.052872337 -0.061147917 0.071460456 0.15696561
000120 ee 43 b3 bd 79 63 2e be e7 27 d8 3d 9a d6 23 bc
       -0.08753191 -0.17030133 0.10554486 -0.0099998955
000130 71 ab 0f 3e b1 06 6b bd e3 a9 17 3e d9 05 07 bc
       0.14030243 -0.05737943 0.148109 -0.00824114
000140 ca 7b 94 bd b8 0d 12 be a2 fd 84 3e 03 47 1b 3d
       -0.072501734 -0.14263046 0.25974756 0.03790952
000150 b9 bd fc bc ae d4 8a bd 0f ed 44 3d c5 70 b1 bd
       -0.030852186 -0.06778847 0.04807764 -0.08664087
000160 61 97 29 be 2f 76 90 bd 48 75 f6 3d 4f ee 8d 3d
       -0.16561653 -0.07053792 0.120340884 0.069302194
000170 7b 45 e2 bc 0d 15 fa bd 00 9c 15 3c 61 18 e2 3d
       -0.027621021 -0.12211046 0.009131432 0.11039806
000180 74 e9 ad 3c d6 d6 45 3e ea 80 ba 3c 03 e3 b8 bc
       0.021229483 0.19320235 0.02276655 -0.022569185
000190 b0 46 c7 bc 02 ae 14 be 2e 3d 2e bd 8a de 4b bd
       -0.024325699 -0.14519504 -0.042538814 -0.049772777
0001a0 05 61 dc 3d 9a 1e 02 3e ec a2 11 be 52 83 1d 3d
       0.107606925 0.12706986 -0.14222306 0.038455315
0001b0 6e 80 4d 3d 4d 31 22 3d b1 3a fe 3c a2 02 9f bd
       0.05017131 0.0395978 0.031033846 -0.07764174
0001c0 0d 42 6b be b0 28 6f 3d 37 14 39 3e fd bc 05 be
       -0.22974415 0.058388412 0.18074118 -0.13060375
0001d0 9a 57 39 3e c7 aa ed bd 76 d4 28 be 9c 13 8b 3e
       0.18099824 -0.11604839 -0.16487297 0.27163398
0001e0 c7 57 f7 bd 0d 33 cb bd f1 38 36 3d b8 fe 00 3e
       -0.12077289 -0.099218465 0.044487897 0.12597167
0001f0 15 1b 0d bd d6 50 7a 3c 02 c4 61 bc 43 32 14 3d
       -0.034449656 0.015278062 -0.013779642 0.036180746
000200 36 e6 49 bd 93 5a c8 3d 77 b8 c4 bc bb fa 06 3e
       -0.049291812 0.09782901 -0.024013741 0.13181584
000210 7d 76 2d 3c 03 91 0e bd 5b f6 27 3e 73 f0 f4 bd
       0.010587332 -0.034806263 0.16402571 -0.119599245
000220 69 a1 00 be 96 0f 2d 3e e2 45 1a be ad 6d 28 3d
       -0.12561573 0.16900477 -0.1506572 0.04112022
000230 27 f0 6f bd 0e 64 b1 3d 1f bc 9c 3d d4 52 8c 3d
       -0.058578636 0.08661662 0.07653069 0.06851736
000240 83 27 42 3c f9 53 bf 3d 81 a0 80 3c 8c fe f9 bc
       0.011850241 0.093421884 0.015701534 -0.030516885
000250 d6 d8 77 be 11 56 34 3d ea 31 02 3e b4 ed 89 3c
       -0.2420381 0.04402739 0.12714353 0.016836978
000260 65 d5 08 be 95 2f 88 3c e1 b6 eb 3d 18 a7 49 3e
       -0.13362654 0.016624251 0.11509491 0.19692647
000270 cb e7 bd 3d d5 ac 3a be 8c 9b d7 3c 8d e5 0f be
       0.092727266 -0.18229993 0.026319288 -0.1405241
000280 e1 d1 d7 bd f4 4e 3d be 87 e5 9e 3c 06 8f 36 bd
       -0.10538078 -0.1848715 0.019396557 -0.04456999
000290 d6 7a b8 bd 1a 5f b5 bd 39 49 d0 3d 90 59 31 be
       -0.09007804 -0.0885603 0.10170216 -0.17319322
0002a0 a4 4a 83 bd 38 59 98 bd 08 a8 5f bd 51 3d de 3d
       -0.06410721 -0.07438892 -0.054603606 0.10851539
0002b0 b9 c3 4e 3d 5f 65 6c 3d 40 d7 61 3c a8 1a 1a bd
       0.050479624 0.057713863 0.01378423 -0.037623078
0002c0 ce 99 f3 bb 13 22 0c bb b4 75 e7 bc ca ad 4f be
       -0.0074341064 -0.0021382615 -0.028254367 -0.20281139
0002d0 cc 36 29 be 0d 49 51 bd 2d 5d f2 bd 4a f1 ae 3c
       -0.1652481 -0.051095057 -0.11834178 0.02135529
0002e0 a0 ed 0d 3e ae 4d 99 3d ec 96 ca 3d 11 0b a5 3d
       0.13860178 0.07485519 0.09892067 0.080587514
0002f0 c9 66 41 3e 7d ff cf bc f0 3b db bd a0 fc 76 bc
       0.18886866 -0.025390381 -0.107047915 -0.015074879
000300 a2 3b 2e be c0 5b fb 3d ac 90 6e bd 7c 93 48 3c
       -0.17014936 0.12273359 -0.05824344 0.012242194
000310 c0 06 37 bd 27 ad 51 bd c7 6c d3 bc 89 9f a7 3c
       -0.04468417 -0.05119052 -0.025808705 0.020461814
000320 ea 3f 12 3c f6 a9 9d ba 50 ea 07 3d 08 d6 7d 3d
       0.008926371 -0.0012028802 0.033182442 0.061971694
000330 82 2d 78 bc ed 86 94 3d 0e e8 54 3e 26 c0 8c bd
       -0.015147569 0.072522976 0.20791647 -0.06872587
000340 e0 3c 73 bd 05 44 d5 bd 2d 82 ec 3d fd df 94 bd
       -0.059384227 -0.10413364 0.115482666 -0.07269285
000350 9a fa 2a 3e f9 ab db bd 23 1b 7e 3d 92 1d b8 bd
       0.1669716 -0.107261606 0.0620376 -0.08990015
000360 81 24 09 be 85 12 b0 3d 61 ad 82 bc 5e a9 df 3c
       -0.13392831 0.08597282 -0.015951814 0.02730244
000370 4c 44 7b bd ef 3a 37 3e 2d f5 7a bd 41 a6 01 3e
       -0.06134443 0.17893575 -0.061268974 0.12661077
000380 a9 ed 87 3d 82 e3 3f 3d b3 2c be 3c 08 c1 09 3d
       0.06637127 0.046847828 0.023214674 0.033631355
000390 db d3 47 bd ff 05 c3 bc 32 c9 12 3d 96 dd 61 3d
       -0.048786025 -0.02380657 0.035836406 0.05514296
0003a0 a7 f5 16 bd 95 19 0e be 64 dd 43 3d 18 a1 69 bd
       -0.036855366 -0.13876946 0.047818556 -0.057038397
0003b0 42 28 ac bd fa f0 d1 3c ee 72 0c bd de 03 ff bd
       -0.08406116 0.025627602 -0.034289293 -0.124519095
0003c0 6c 29 39 3c 80 76 01 3e c9 b4 92 3d d8 03 81 bd
       0.01130138 0.1264286 0.07163388 -0.06299561
0003d0 03 c0 45 3d e5 47 f2 bd 0e 7c 34 3c 84 02 ad bc
       0.04827882 -0.11830119 0.011015905 -0.021119364
0003e0 bd ff 12 3e 1a 3f 04 3e 25 9e 4a 3e 5c 2d 61 3c
       0.14355369 0.12914696 0.1978689 0.013743725
0003f0 f8 21 99 bd e1 6b 16 be 98 17 7b 3d fc e6 bf bd
       -0.07477182 -0.1468959 0.061301798 -0.09370229

b_gain_food_primary f4 [7]
000000 c8 e6 83 39 b4 62 45 ba 57 f1 2f 3a 7b dd 49 3a
       0.00025158213 -0.00075296615 0.00067116827 0.00077005447
000010 0d 19 b1 ba c5 23 05 3b 3d 5e d4 ba
       -0.0013511494 0.002031551 -0.0016202402

W_draw_mode f4 [192, 4]
000000 21 bf d2 3d 74 7c 59 3c be 3c e8 bc b0 03 04 bd
       0.10290361 0.013274301 -0.028349277 -0.03223008
000010 b2 01 90 bc 69 20 db 3c 19 1f d4 3d 83 c8 3d 3e
       -0.017578933 0.026748853 0.10357494 0.1853352
000020 50 2d 59 bd 99 3d c1 3d 97 78 ab 3d e2 5f 2f 3e
       -0.05302173 0.09435577 0.0837261 0.1712642
000030 2e 5b 87 3d 66 d3 92 3d 3a 32 25 be 64 d2 05 bd
       0.06609188 0.07169227 -0.16132441 -0.032671347
000040 e0 73 60 3e b7 d8 0f bc 94 ac 55 ba cd e1 7c bd
       0.21919203 -0.008779696 -0.00081510213 -0.061738778
000050 64 03 5e bd 19 f0 93 3e 48 58 ec bc 45 c9 5f bb
       -0.054202452 0.28894117 -0.02885069 -0.0034147066
000060 fb 31 9f bd 18 fc dc bd 07 de c4 3c 1b 5e 0c 3d
       -0.07773205 -0.107902706 0.024031652 0.034269433
000070 f2 db 2b 3d bd d5 2a 3e d3 ad 5d 3c b5 a4 ab 3c
       0.041957803 0.16683097 0.013530212 0.020952562
000080 ee c0 5b bd b6 83 19 3d a4 d9 9c bd df 4a fe 3d
       -0.05365079 0.037479125 -0.07658699 0.12416624
000090 71 f6 3f bd 44 79 20 3e 38 56 09 3e 8f 86 bc 3d
       -0.046865884 0.15671259 0.13411796 0.092053525
0000a0 29 88 43 bd 4f b7 a8 3e 61 7c 0b 3e 23 a2 1e be
       -0.047737274 0.32952353 0.13621666 -0.15491538
0000b0 74 63 5a 3d 5e f1 cb 3d 95 ac 01 3e 46 26 c1 bd
       0.053317502 0.099581465 0.12663491 -0.09431128
0000c0 84 cd 2b 3d c1 87 ab 3c 73 2a ff bd c7 f8 1f be
       0.04194404 0.020938756 -0.124592684 -0.15622245
0000d0 47 bb e4 bc 02 66 e7 bd 60 4c cf 3c 4f 7d 84 3c
       -0.027921332 -0.11298753 0.025304973 0.016173033
0000e0 a3 d8 0c 3e 94 fd ed 3d 27 be 36 bc 4d 4d 1d 3e
       0.13754515 0.11620632 -0.011153734 0.15361519
0000f0 17 7b 7e 3d 1d 7a 09 be 92 c9 dc 3d 1f c0 02 be
       0.062129106 -0.13425489 0.10780634 -0.12768601
000100 4c 5b 0f 3d 84 d4 9d 3e 9f 6c 9a 3d 9d 61 fc bd
       0.034999177 0.308262 0.07540249 -0.12323306
000110 16 87 cf bd 76 aa ca 3d 03 9a d4 bd f3 c5 ec 3d
       -0.101331875 0.09895794 -0.10380938 0.11561193
000120 77 ec 84 be a0 9c 87 bd 5c 7e a2 bd d0 e6 be 3d
       -0.25961658 -0.06621671 -0.079342574 0.09321368
000130 c7 18 be bd 25 8a 98 3c 70 ed c5 3d 73 c8 33 be
       -0.0928207 0.01862056 0.09664428 -0.17556934
000140 3d d4 14 3d 12 7c 56 3e df e7 eb bc d6 2a f1 3d
       0.03633522 0.20945767 -0.028797088 0.117757484
000150 ee 66 bb 3d 98 66 3c bd 9d aa 0f 3d 62 86 16 3c
       0.09150492 -0.04599628 0.03507482 0.009187313
000160 ff 26 e1 bd 7c 7f ab be 9b 2f b6 bd 71 44 6f 3c
       -0.10993766 -0.334957 -0.08895799 0.01460372
000170 ef 06 a6 bd 43 1d 8a bd 54 af ac bd df 66 96 bc
       -0.08106791 -0.067438625 -0.08431879 -0.0183596
000180 9e d8 89 3d bd 2f 11 be 41 61 75 bd b2 51 bb bd
       0.067307696 -0.14178367 -0.0599072 -0.091464415
000190 42 2a 81 3c ab ff 49 3e de 0e 0d 3e 06 fe 0a 3c
       0.01576722 0.19726436 0.13775203 0.0084834155
0001a0 51 ff fe 3d 61 3c 81 3e 0f 45 38 be a5 99 36 3b
       0.124510415 0.25241378 -0.17995094 0.0027862575
0001b0 4f 13 3f 3e ca f0 01 bd 8b 7c 7c 3d a3 86 c0 bd
       0.1865971 -0.031723775 0.06164221 -0.0940068
0001c0 18 90 a5 3d e8 95 0f bd 9a c2 d6 3d 30 e8 28 3e
       0.08084124 -0.03505507 0.10486336 0.16494823
0001d0 5a 13 d8 3d 30 af b0 3d ff eb 04 3d 4a b0 28 3d
       0.10550566 0.08627164 0.032451626 0.041183747
0001e0 9f 85 5c bd bd e8 42 3c ba 96 26 bd 56 96 34 bd
       -0.05383837 0.011896309 -0.040671088 -0.044088684
0001f0 4f f3 12 3e 5d cc 9c bc 71 e9 6e 3d f8 3b ee ba
       0.14350627 -0.019140417 0.058328096 -0.0018175831
000200 53 42 f6 3d d7 5a 0e be 0b 56 b9 bc cb 84 29 3c
       0.12024369 -0.1390184 -0.022624036 0.010346602
000210 32 10 7c be a6 70 4e 3d 70 82 ef 3d be 21 e4 bd
       -0.24615553 0.0504004 0.11694801 -0.11139248
000220 b0 5a 49 3e 2b 61 87 bd ef 48 a9 3d c7 c7 d5 3c
       0.19663501 -0.0661033 0.08265864 0.026096238
000230 5d 78 5a 3d 54 00 17 3e c6 6c d5 3c f6 66 43 3d
       0.053337444 0.14746219 0.026052844 0.047705613
000240 3b df 32 be 47 52 23 bc ab 6d 20 be af 9d d6 3d
       -0.17467968 -0.009968347 -0.15666835 0.104792945
000250 9b 92 4b be 49 42 eb 3d cb 32 a3 3d 69 7e 81 3b
       -0.19880144 0.11487252 0.07968672 0.003951837
000260 2e b6 bd 3c ea 4f 97 bd 5f 21 14 3c 04 2c 4a 3d
       0.02315816 -0.07388289 0.009041159 0.049358383
000270 5b af 17 3d 51 30 d5 bd 9b 3f 8e 3c cc 27 d2 bd
       0.037032466 -0.10409606 0.017364314 -0.10261497
000280 8d b6 09 be 78 2a 1f 3e 43 1b 08 3d c5 14 2f bd
       -0.13448544 0.15543544 0.033229124 -0.042744417
000290 23 7b cb bb 29 3f a4 3d ac 27 d6 bd 50 ef 58 bd
       -0.0062097474 0.08019859 -0.104567856 -0.0529626
0002a0 58 1b 41 3c 5d b6 85 3c 2b f7 ab 3c 4b 5a 45 bd
       0.011786304 0.01632231 0.020991882 -0.048181813
0002b0 45 e5 44 3c de 79 b1 bd 6b bd 8a bc 18 1e 3b 3d
       0.012017553 -0.086658224 -0.016936025 0.045682997
0002c0 91 c0 d8 3d 1d 13 ae bd df a6 91 bd 0d 36 f4 bc
       0.10583604 -0.08499739 -0.07111906 -0.02981093
0002d0 d9 ea aa 3d 0d 91 5f 3d 5c 5e 79 3d 39 59 3a be
       0.08345575 0.05458169 0.060881004 -0.18198098
0002e0 13 ca 58 3e 38 30 cf bd 24 ec 1c be 37 2b b3 3c
       0.21170835 -0.10116619 -0.15324455 0.021871192
0002f0 24 05 c1 3d 70 c7 77 3d 4d ab 5d bd 8e 96 3b 3d
       0.094248086 0.060492933 -0.054118443 0.045797877
000300 56 01 d5 be cf 7b 17 3e f4 b2 55 be b2 e7 bf bd
       -0.41602582 0.14793323 -0.20869046 -0.09370364
000310 c2 d4 15 3e b6 c9 45 be c8 05 cf bb 40 c6 17 bd
       0.14631942 -0.19315228 -0.006317828 -0.0370543
000320 a7 02 a4 bd af 4c 53 bd 32 ba 90 bd 63 0a 34 3e
       -0.080083184 -0.051586803 -0.07066764 0.17582087
000330 2f 3d 0f 3e 1d 12 eb bd 72 a2 9f bd 24 17 d9 3d
       0.13988183 -0.11478064 -0.07794656 0.10600117
000340 99 cf 81 3d 8a d8 39 bd ad c5 dc 3d a6 68 9a bd
       0.06338424 -0.045372523 0.10779891 -0.07539491
000350 fa 47 36 bd 0b 82 37 bc 2b d2 19 be 95 d2 20 be
       -0.044502236 -0.011200438 -0.15021579 -0.1570533
000360 e2 46 54 be c0 9b 56 bd b9 ba 35 3e 48 dd 92 bd
       -0.20730165 -0.05239463 0.1774701 -0.07171112
000370 be cc 00 3e 90 03 c8 bd 1a e8 37 bd 7f cc 59 3d
       0.12578103 -0.097663045 -0.044899084 0.05317354
000380 0a 78 e1 3d be cd 90 bd 1f 8b 24 be ee 82 75 3c
       0.11009224 -0.07070492 -0.16068695 0.014984829
000390 a2 73 07 3d f8 c8 da 3d 4b 75 3d bd 55 b3 03 3d
       0.03306926 0.10682863 -0.046254437 0.032153446
0003a0 94 26 ff 3c 34 93 5e bd 78 e0 02 bd b1 18 8b 3e
       0.031146325 -0.054339603 -0.03195235 0.27167276
0003b0 63 02 a6 bc 93 96 37 be b3 07 86 be f2 3f 97 3d
       -0.02026481 -0.17928533 -0.2617775 0.073852435
0003c0 0a d1 2e 3d 75 86 2d bd a3 ee ea bd bf ef a7 bd
       0.042679824 -0.042364556 -0.114712976 -0.08200025
0003d0 77 f7 b2 3d e2 72 b7 bc 24 86 20 bd b8 d4 31 bd
       0.087386064 -0.022393648 -0.039190426 -0.043415755
0003e0 cd 1a 0b 3c 51 46 da 3d 19 48 3d bd 36 e1 67 3c
       0.0084902765 0.10657943 -0.046211336 0.014152816
0003f0 4c b7 d6 3b 1a cf 88 3c 39 50 10 3e b1 45 2b 3d
       0.0065526124 0.016700316 0.14093103 0.04181451

b_draw_mode f4 [4]
000000 45 72 fb ba 96 3f 44 3c 04 7c 75 bb 97 e4 ce bb
       -0.0019183835 0.011978051 -0.0037457952 -0.006313871

W_lay_eggs_bin f4 [192, 11]
000000 f7 c8 37 be 86 1f ef bc 5f 74 ce bd 01 ae 05 3e
       -0.17947756 -0.029189836 -0.1008079 0.13054658
000010 7c 45 80 bd 41 04 53 3c 23 33 f3 bc 62 b3 e9 bd
       -0.06263253 0.012879432 -0.02968747 -0.11411168
000020 11 31 2a 3d 32 35 c9 3d 5b 58 b0 bc 26 70 45 bd
       0.0415507 0.09824599 -0.021526506 -0.048202656
000030 4c d5 35 be a5 1e a0 3d 6d f3 e2 3d 6e 42 20 be
       -0.17757148 0.07818345 0.11081586 -0.15650341
000040 a6 cb ae bd 15 e6 5d 3d fb cc fc 3c 01 fe 85 3b
       -0.085349366 0.0541745 0.030859461 0.0040891175
000050 54 40 21 bd 2f 85 83 3d 85 f8 b8 3d 25 ef 32 3e
       -0.03936799 0.06421887 0.09031776 0.17474039
000060 eb 9e f9 3d 30 17 19 be 63 b0 e3 bd fe 09 1e 3d
       0.12188514 -0.14950252 -0.111176275 0.038583748
000070 c5 9f 2f bd 93 8f d7 bd 3a d3 22 bc ad 9b 10 3d
       -0.042876977 -0.105254315 -0.009938056 0.035304714
000080 5d 9a 0f 3d 8b 8e 88 3e d8 a5 83 3d 60 dd 45 bd
       0.03505932 0.26671252 0.064281166 -0.048306823
000090 01 04 f1 3d 8d 8c 00 3e 27 a9 49 3d 15 6c 69 3d
       0.11768342 0.12553616 0.049233582 0.05698784
0000a0 20 aa 26 bd 99 ec 17 3e f8 59 06 3e 23 fb 28 be
       -0.040689588 0.14836349 0.13120258 -0.16502051
0000b0 74 ec 5c be 44 38 7e 3e b4 f6 06 3d d6 76 ca bb
       -0.21574575 0.24826151 0.03295012 -0.006178717
0000c0 34 7b b1 3d 0c 86 58 3d 52 f6 ca 3d 05 11 18 bd
       0.08666077 0.052862212 0.09910263 -0.037125606
0000d0 5e 8f 87 bd 5d fb f1 bb 2a 95 fb bd 2f a9 76 be
       -0.06619142 -0.007384701 -0.1228431 -0.24087976
0000e0 34 56 77 3d a0 f9 59 3e 30 da 6e 3b 04 25 14 3e
       0.060384944 0.2128663 0.0036445968 0.14467245
0000f0 3a a1 6e bd 49 72 bf 3d a7 da 27 be ae 75 ba 3d
       -0.058259226 0.0934797 -0.16392003 0.09104477
000100 c7 ed 65 3e a1 cc ba bd ac 9b e0 3d 86 b0 7e 3e
       0.22453986 -0.09121061 0.10967192 0.24872026
000110 97 fa 75 bd 3e a3 18 be 41 9c f6 bd 9d c0 e7 bc
       -0.060053434 -0.14906022 -0.12041522 -0.028290087
000120 5a 7f af 3d d2 3a 38 3e b5 05 37 be 89 f7 e4 bd
       0.08569212 0.17991188 -0.17873271 -0.11180026
000130 d6 2e c1 bd 0a ba 14 bd bc e4 0c be 2f 06 3c 3d
       -0.09432761 -0.036310233 -0.1375913 0.045904335
000140 32 69 ea 3d d2 a6 16 3d 20 94 ad 3d d3 c3 7c bd
       0.11445846 0.036780186 0.08475518 -0.06171019
000150 f4 15 fa 3c 6b a0 00 3e 71 0c 57 3d ad ae 91 3c
       0.030528046 0.12561195 0.0525021 0.017783487
000160 a7 4f 4a be 27 55 71 bd 26 37 84 3d 00 f0 69 3d
       -0.19756947 -0.0589191 0.06455831 0.057113647
000170 a9 41 ea 3d f9 51 b3 3d 94 85 0a 3e 1b 66 a8 bd
       0.11438305 0.087558694 0.13527519 -0.082226
000180 17 35 03 3d c3 38 a3 3c ab 5e b0 bb 83 a0 8f bb
       0.032033052 0.019924527 -0.005382379 -0.004383148
000190 f8 38 35 be 86 2f 1a 3e 37 46 b0 bd 6d c5 c5 3d
       -0.17697513 0.15057191 -0.086071424 0.096567966
0001a0 9b a5 e1 3c 07 4b 93 bd bf 25 d2 3d 65 d6 8e bd
       0.027544787 -0.07192045 0.10261106 -0.06974486
0001b0 e8 e4 08 3d b2 70 36 bd 66 2d 99 bd 02 88 e4 bc
       0.033421427 -0.04454107 -0.07479362 -0.027896885
0001c0 78 f7 2b 3d f4 97 9f bd 70 f2 0e 3e a2 36 40 be
       0.04198405 -0.07792655 0.1395967 -0.18770841
0001d0 d6 79 0a be cc bd 89 bd a1 ec 32 bd be 3f 1b be
       -0.13523039 -0.06725654 -0.0436827 -0.15161034
0001e0 eb 90 57 be b1 ba 0f be cf 3a 41 3e 2f d7 87 3d
       -0.21051376 -0.14036061 0.1887009 0.0663284
0001f0 9f 53 9f 3c 9a f3 4f 3c e4 72 d5 3d 1c 8f b7 bd
       0.019449053 0.0126923565 0.10422304 -0.08962843
000200 53 7a dd bc 4e da 91 bd 16 fc ac 3d 81 52 98 3c
       -0.027035868 -0.071217164 0.08446519 0.018594028
000210 a1 30 a4 bc fa ac 67 bd 09 ef e9 bd 54 6e 3e be
       -0.02004272 -0.056561448 -0.114225455 -0.18596774
000220 18 db 0f 3d 7c 9a 92 3d 8f ff 5a bd 24 87 a7 bd
       0.035121053 0.07158372 -0.053466376 -0.08180073
000230 9f 77 80 bd 34 1a 93 bd ca b8 e1 bc d8 84 fb 3b
       -0.06272816 -0.07182732 -0.027553935 0.0076757483
000240 ed 84 ed 3c c7 b9 3e bd 9a 55 3a be 9a 50 49 3e
       0.028994048 -0.04656389 -0.18196717 0.19659653
000250 f8 37 e0 3d c5 1b 0a be 27 d3 23 3e 89 a7 1a be
       0.10948175 -0.13487156 0.15998517 -0.15102972
000260 1f bd df bd 1f 22 0c 3b 1a 3a e5 3d 85 49 0a 3e
       -0.10924744 0.0021382642 0.111927226 0.13504608
000270 88 c8 99 3d 22 f5 d2 bd 54 7a 3c be 24 3b 40 3d
       0.075089514 -0.103006616 -0.1840604 0.0469314
000280 ea 6a c9 bb 56 54 15 3d 27 ef e8 3c 10 48 f8 3d
       -0.0061467784 0.036457382 0.02843435 0.1212312
000290 17 b9 05 3c c6 a7 aa bb a0 ed d6 3c 0f f4 57 3d
       0.008161805 -0.0052079884 0.026236355 0.052722987
0002a0 82 90 ce 3d cb d0 08 be a6 84 12 3e fc 13 4f 3d
       0.100861564 -0.13360898 0.14308414 0.050556168
0002b0 99 89 f3 3d 7d 46 bb bc ef eb 80 bd f7 f8 67 bd
       0.11891479 -0.02286076 -0.06295001 -0.056633916
0002c0 ff 02 03 3e d1 e7 01 be 17 11 ac 3c a2 5b 86 3e
       0.12794112 -0.12686087 0.021004243 0.26241785
0002d0 d2 c3 39 bc 98 5c 77 3d 9b 03 b4 bc 2a 61 0e be
       -0.011338191 0.06039104 -0.021974375 -0.13904253
0002e0 70 28 92 bd 73 06 af bc 4b 5e 19 3e 51 16 17 3d
       -0.07136619 -0.02136538 0.14977376 0.036886517
0002f0 d2 ed d9 3d 17 6e 93 bd e0 76 31 be a3 91 13 3c
       0.10641064 -0.07198732 -0.17330503 0.0090068905
000300 aa e8 55 3d a7 2c 9e 3d 50 2d 33 3c b5 70 59 3d
       0.05222384 0.077233605 0.010936096 0.053086
000310 31 4d 97 3d c4 ab d2 3c 16 e0 2a 3d 1c e6 14 bd
       0.0738777 0.02571667 0.04171761 -0.036352262
000320 e8 f1 75 3d 92 d1 d4 3d 4a bb 93 3e 22 ab a5 bc
       0.060045153 0.10391535 0.28853828 -0.020223204
000330 fa 06 1c 3e 23 98 56 be a5 e4 e5 bd 1b 20 fc 3c
       0.15237036 -0.20956473 -0.11225251 0.030777028
000340 7b bd c3 3d 45 30 00 3d 7a 7a 37 3e 39 3d 34 be
       0.09557625 0.031296033 0.17917815 -0.1760148
000350 d9 69 48 be 3b a9 56 bc e5 82 ba bb ba 1d 75 3d
       -0.19571628 -0.013101871 -0.0056918734 0.059842803
000360 28 35 74 bd e4 cc ad bd 12 bd a7 3c a5 da e7 3d
       -0.059621006 -0.084863454 0.020475898 0.11321
000370 b3 15 c4 bd 75 49 12 bd 62 07 45 3c 35 c4 2a be
       -0.09574451 -0.035714585 0.012025686 -0.1667641
000380 8c e3 46 3a 1b 6c 38 be f4 dd b5 3b cf 9e ce bd
       0.0007587008 -0.18009989 0.0055501405 -0.10088884
000390 ec 04 45 bd 5b d1 c0 3d 45 5b 10 bd 0a ac b7 bd
       -0.048100397 0.094149314 -0.03524329 -0.08968361
0003a0 9b 6b df bd 49 16 ba bc af 3f e4 bd 8d b3 b4 3d
       -0.10909196 -0.022715705 -0.11144959 0.08823309
0003b0 0a a9 9a 3d 71 02 dc 3d 00 97 16 be 79 84 55 3d
       0.07551773 0.10742653 -0.1470604 0.05212829
0003c0 40 ec f4 bd 99 93 52 3d 96 e4 db bc f8 96 26 3d
       -0.119591236 0.05141029 -0.026842397 0.04067132
0003d0 b3 52 7c 3d 3c 75 c3 bc dc 9a 9d bd 0f e7 85 bc
       0.061602306 -0.023859613 -0.07695553 -0.016345529
0003e0 4b 3f 10 3c 75 c1 29 be 97 57 a2 bd 38 10 94 bd
       0.008804153 -0.16577704 -0.07926863 -0.07229656
0003f0 e5 ff 18 3d 37 ab a9 bc 37 a8 be 3d fa 06 4f 3d
       0.037353415 -0.020711524 0.09309428 0.050543763

b_lay_eggs_bin f4 [11]
000000 be 48 0b b9 98 30 86 b9 dd 22 02 3b b0 76 ec 39
       -0.00013283172 -0.00025594677 0.0019857206 0.00045101857
000010 38 75 f7 38 ef e7 be b8 f1 a7 19 ba 36 a5 ec b9
       0.000117997115 -9.103107e-05 -0.0005861512 -0.0004513652
000020 1f 0c fa b9 55 44 a2 b9 69 96 83 b9
       -0.00047692747 -0.0003094996 -0.0002509833
