reports/ml/auto_improve_factorized_stageA_warmup/iter_002/factorized_model.npz (npz, 72015 bytes, 17 tensors)

W1 f4 [48, 192]
000000 72 12 75 bd 0c ef 41 bc 20 b3 fb 3e cf 88 64 bd
       -0.059832044 -0.011836778 0.491601 -0.055794533
000010 ec f0 07 be f5 17 0f 3d ba b0 78 be 2c 93 cc bd
       -0.13275498 0.034934957 -0.24286166 -0.09989008
000020 02 cc 52 3b f8 ed c7 3d 66 ab cb bd 28 27 17 bd
       0.0032165055 0.09762186 -0.09944801 -0.036902577
000030 36 43 e8 be d5 d5 c7 3d 59 e0 41 be 48 da 9a bd
       -0.45363778 0.09757582 -0.18933238 -0.07561165
000040 5a e3 f5 3e 63 b1 f5 3e 59 ea 46 bd 82 5b 45 be
       0.48025018 0.47986898 -0.048563335 -0.19273189
000050 2f 23 e7 3d 11 e6 07 3e 76 a1 52 3e bb d2 ec bd
       0.112860076 0.13271357 0.20569405 -0.11563631
000060 81 89 5e be fc ef ab 3e 02 dc 0b be 36 95 9b 3e
       -0.21732141 0.3358153 -0.13658145 0.30387276
000070 80 0d a8 3e c4 19 71 be 3c ca 4d bd 00 d1 0e 3b
       0.328228 -0.23544985 -0.050241694 0.0021792054
000080 ca 32 ea bd a7 16 9e bd 03 25 cf 3d 0c 1b dc be
       -0.114354685 -0.07719164 0.10114481 -0.42989385
000090 9f 03 00 be b3 b7 a2 3c 46 d9 62 be ae 83 d6 3d
       -0.12501381 0.019862985 -0.22153196 0.10474335
0000a0 a4 b9 55 3e c0 de a3 3d c8 9b b5 3d 5e e3 8d bd
       0.20871598 0.080014706 0.088676035 -0.069281325
0000b0 50 d9 8e bc 01 32 db 3e 8b 0b c4 3d 61 cf 59 3e
       -0.017437607 0.42811587 0.09572514 0.21270515
0000c0 57 6f 3a be bc f0 0b 3d 1b ca 17 bd a8 f8 b1 be
       -0.18206535 0.03416513 -0.037057977 -0.34760022
0000d0 44 81 b4 be e1 0c 74 3d 1d b5 16 3e d1 ba ad 3d
       -0.35254872 0.059582595 0.14717527 0.08482898
0000e0 37 8c 35 3e f2 1c 3f 3d d2 f0 4a bd 10 55 72 3e
       0.17729269 0.046658464 -0.04954607 0.23665261
0000f0 b0 e0 87 bd 3d c1 09 3c 26 a5 9b be b8 47 7e be
       -0.066346526 0.008407888 -0.30399436 -0.24832046
000100 32 e5 b5 3e 71 55 d3 3d 36 4b 1c 3e a7 2c 0e 3e
       0.35526425 0.10319031 0.15263066 0.13884221
000110 dc db 78 3d 92 87 a7 3d af 8d bb 3e ae 3d 62 3c
       0.06075655 0.08180155 0.36631534 0.013808651
000120 6d 58 dd bd 60 c2 86 be 8c f2 9b 3d c7 9f 5b 3e
       -0.108078815 -0.2632017 0.076146215 0.21447669
000130 e6 79 b6 3e 94 4f a9 3e 30 84 65 3e 46 da d3 bd
       0.35639876 0.33068526 0.22413707 -0.10344367
000140 75 c9 1f 3e e2 06 05 3e 1c 25 47 3e 8d 31 59 be
       0.15604194 0.12990907 0.1944775 -0.21210308
000150 68 49 8c 3e 93 3f af 3e 6b 1a d8 3b 35 9f 6d bc
       0.27399755 0.3422819 0.006594946 -0.01450329
000160 8e 5c 47 3e ab 0b 87 3e 3e db d6 3d 12 fa 99 3d
       0.194689 0.2637609 0.10491036 0.075184
000170 a9 30 ad bc bb 31 82 3e a9 e8 57 3e 27 71 57 bd
       -0.021141367 0.25428566 0.21084847 -0.052598145
000180 77 74 4e 3d 51 46 c9 3e 37 00 76 be 76 55 75 3e
       0.05040404 0.3931146 -0.2402352 0.23958382
000190 73 fa ca bd be 89 76 3e 7c 8c 85 3e 2b 1e e1 bc
       -0.09911051 0.24075982 0.26083744 -0.027480206
0001a0 65 e8 aa 3c 6a e9 86 3e c6 a6 b2 3e 2e da cc bd
       0.020862767 0.26349956 0.34892863 -0.10002552
0001b0 f2 be f7 3e 6d ef ed 3d 81 2a 84 3d 25 2f fd 3d
       0.48387867 0.116179325 0.064534195 0.12362508
0001c0 9d 45 97 3e cb 7f 6c bc 2d b8 19 be 80 fa 21 be
       0.29545298 -0.014434765 -0.15011664 -0.15818214
0001d0 57 1f 80 be ca b3 37 3c 52 55 2d 3c b9 1c a4 3b
       -0.2502391 0.011212299 0.010579424 0.005008307
0001e0 6d 2d 3c bc be c1 41 be 3b 15 27 be ef 8b 4b 3e
       -0.01148544 -0.18921563 -0.16316693 0.19877599
0001f0 16 43 0a 3e bf 80 b5 3d b0 2a 71 3c e4 eb 15 3e
       0.13502154 0.08862447 0.01471965 0.14640766
000200 08 6a dd bb 3f 72 66 bd 42 9a 1e be 3d 9f 85 bc
       -0.0067570247 -0.056261297 -0.15488532 -0.016311282
000210 10 22 ab 3d 86 2c 9e bb 92 e0 f7 3d 33 20 0c be
       0.08356106 -0.004827085 0.1210338 -0.13684158
000220 c1 0e 67 be f1 22 ca bd b5 4e ac 3d 15 3f 12 3e
       -0.22564222 -0.09869946 0.0841345 0.14281876
000230 28 80 48 be 64 fb 02 bd 8b b8 09 bf 25 1a dd 3d
       -0.19580138 -0.031978026 -0.53797215 0.10796002
000240 ca 53 f2 bd a8 b2 5d be 47 a7 19 3d 83 14 08 3f
       -0.11832388 -0.21650183 0.037513044 0.531563
000250 7f 41 0a ba 21 d6 d9 bc 79 4b 13 bc 12 68 b2 3e
       -0.0005274042 -0.026591362 -0.008990162 0.34845024
000260 e2 8c 22 3e 14 3d e9 3c a5 8c ab bd 74 16 ba 3e
       0.15874055 0.028471507 -0.08376435 0.36345255
000270 ca 81 ee 3e bb b9 85 3e 92 fb b0 bd 49 b0 02 be
       0.46583396 0.26118264 -0.08641733 -0.1276256
000280 73 d3 cd bd 3f f3 a4 3d 64 1d 8d bc 0e fd d3 bd
       -0.10050096 0.08054208 -0.017225929 -0.10351001
000290 bf 22 c5 be 3f 29 e0 3c 48 4f 44 be 9f 09 04 3d
       -0.38503072 0.027363418 -0.19170868 0.032235738
0002a0 f0 4d 9a 3e 1a 9a c0 bd d7 a3 bf be c9 a5 ab 3d
       0.30137587 -0.094043925 -0.37429687 0.083812304
0002b0 5b 6d 14 3e 2e d9 1f 3d fc 2e 34 3e 5d e6 71 3e
       0.14494841 0.039025478 0.17596048 0.23623033
0002c0 d7 48 9d bc 8d 87 3f bd d1 1a 0f 3d 0c e6 5f 3e
       -0.019199772 -0.04676013 0.034937683 0.218651
0002d0 a5 84 cd be 5d 11 43 be bd ec fc 3e c1 83 03 be
       -0.40140262 -0.19049592 0.49399367 -0.12843229
0002e0 dd 4d 64 3e c3 ec 8a 3d 72 84 d7 3d 9c 93 9c bd
       0.22295327 0.0678344 0.10523309 -0.07645342
0002f0 4d 7a b7 3c a1 10 03 3e 37 c0 69 3e aa c1 2b be
       0.022397185 0.12799312 0.2282723 -0.16773096
000300 d9 da f9 3c 01 bd 9b be e2 86 52 3c 6b be d6 3e
       0.030499863 -0.30417636 0.012849541 0.41942152
000310 b6 87 06 bd 59 e6 72 be b8 09 63 be 2d 59 47 3d
       -0.032844268 -0.23720683 -0.22171676 0.04866903
000320 4a 2f 06 3e f6 9b 7d bd 37 e6 1f be 3a d2 5a 3e
       0.13103977 -0.061916314 -0.15615164 0.21369258
000330 a7 6c aa 3e f4 91 c2 be 01 27 ea 3e d9 f1 25 3d
       0.3328602 -0.38001978 0.45732883 0.040513847
000340 e9 7e 2b bd 9c 2f 36 be 3b 98 93 bd 9b 17 62 bd
       -0.041869078 -0.17791599 -0.0720677 -0.055198293
000350 ab b4 2c 3e 80 a9 7e 3e 05 a2 34 ba 64 40 02 3e
       0.16865794 0.24869347 -0.0006890598 0.12719876
000360 23 be 39 bd 25 a8 55 be b7 30 79 be 72 5a 6f be
       -0.045347344 -0.20864923 -0.2433499 -0.23374346
000370 68 43 85 3e 10 4c 8d 3e 88 53 94 be a2 a8 94 bc
       0.2602799 0.27597094 -0.2896998 -0.018146817
000380 4e c8 d9 3b 04 0e fd bd 9a 97 d5 3e a7 c1 a4 be
       0.0066461926 -0.12356189 0.41717225 -0.32178995
000390 dd 05 ab bd 31 5c 8c 3e 62 01 e5 be b8 94 fc 3d
       -0.08350728 0.27414086 -0.44727618 0.12333053
0003a0 e9 7f c9 3d a5 5f 78 3e d8 09 f7 3d 9b 75 14 bf
       0.0983885 0.24255235 0.120624244 -0.5799195
0003b0 23 ed 3b be 72 33 8a 3e 4f e9 0b 3d 2f af 2c 3e
       -0.18352179 0.26992375 0.034158047 0.16863702
0003c0 85 fe 47 be 53 ac 81 be 34 28 8c be 95 16 61 bc
       -0.19530685 -0.25326785 -0.27374423 -0.013738294
0003d0 d5 8b b3 be 80 0f d0 3d 98 4f 68 3e 3a 2d 8c bd
       -0.3506762 0.101592064 0.22686613 -0.06844564
0003e0 0e 5d 94 be c8 03 e1 3d 56 a0 55 be f6 30 b0 bc
       -0.28977245 0.10987049 -0.20861945 -0.021507721
0003f0 63 aa dd 3d 8d 07 c1 3c 68 dd 6f bd 33 13 c8 3e
       0.10823514 0.02356317 -0.05856076 0.39077148

b1 f4 [192]
000000 25 a7 68 3c 8d d6 e1 3b 3a 23 3b 3e 00 00 00 00
       0.014200007 0.0068920315 0.18275157 0.0
000010 5d 7d 25 ba 1a 11 19 b9 00 00 00 00 52 8e 81 ba
       -0.0006312931 -0.00014597588 0.0 -0.0009884334
000020 ee 9b 8f 3a be d9 fd ba eb de 01 3e ea 4e b2 ba
       0.0010956505 -0.001936726 0.12682693 -0.001360384
000030 00 00 00 00 8f 11 cd bc 53 3d 8d 3d 22 a8 e2 3d
       0.0 -0.025032787 0.06896462 0.11067225
000040 6a bf f4 3d 25 10 29 bd f1 cb 08 bd 00 00 00 00
       0.11950572 -0.041275162 -0.03339762 0.0
000050 00 00 00 00 ac bd 68 3c 98 ff bd 3d b0 f7 cc 3a
       0.0 0.014205378 0.09277266 0.0015637781
000060 b6 79 e1 ba 28 72 0c bc dc f6 b9 3d 54 8c a5 3d
       -0.001720241 -0.008572139 0.09080288 0.08083406
000070 e0 e0 c4 3d b1 4a 8a 3d 00 45 3d 3e 91 ce 3e 3d
       0.09613204 0.067525275 0.18483353 0.046583716
000080 ca 1d 02 bd 00 00 00 00 f6 9d ef 3b 6c 5d a5 bc
       -0.03176669 0.0 0.0073125316 -0.020186149
000090 25 ba bb 3b 6e 06 10 3e 00 00 00 00 00 00 00 00
       0.0057289773 0.14064953 0.0 0.0
0000a0 60 b1 a5 3c 40 1c 1e 3d 4b 61 a3 3d 19 9e 20 3e
       0.02022618 0.03860116 0.079775415 0.1568531
0000b0 cb da af b8 09 75 7c 3d 08 bd b0 b8 b3 90 b9 38
       -8.3854036e-05 0.06163505 -8.427544e-05 8.84844e-05
0000c0 32 c5 88 3d 9a e6 2c 3a cc 10 b7 bc 60 00 45 3c
       0.06678237 0.00065956416 -0.022346877 0.012024015
0000d0 00 00 00 00 50 2e b9 3b da 94 00 bc fa 0c 1f 3e
       0.0 0.005651273 -0.007847989 0.15532294
0000e0 46 09 8d b9 3f c6 d2 39 94 b1 a3 b9 63 a3 f9 3d
       -0.00026900525 0.00040202026 -0.0003122209 0.12189367
0000f0 62 3d e2 bb 00 00 00 00 0e a9 f0 bb fd f3 a5 3c
       -0.00690429 0.0 -0.0073443716 0.020257944
000100 e3 b6 11 3e d5 bc 84 3d 1f 33 1f 3a a9 ac e2 3b
       0.14229922 0.06481329 0.0006072986 0.0069175554
000110 da 54 dc b8 8a 68 43 3e 36 17 5e bc 1a 6a 12 3b
       -0.00010506222 0.19082847 -0.013555339 0.0022341073
000120 4a b4 c7 bc 4f af 69 3a eb 4b b2 3d a4 d9 a7 3d
       -0.02437796 0.00089143676 0.087058865 0.081958085
000130 9c 48 88 3e 4a ff 3e 3e bf b8 2f 3e 60 ae cd 38
       0.26617897 0.18652073 0.17160319 9.8076416e-05
000140 d2 ae c6 3d 2d 1a 1f b8 5a 63 6e 3e 36 df 68 bc
       0.09701313 -3.7932932e-05 0.23280087 -0.014213374
000150 e9 f9 0e 3e e4 e3 46 3e 31 1c e7 3c da 4f 9e bb
       0.1396252 0.19422871 0.028211685 -0.0048312964
000160 56 8f d6 3c 38 71 b6 bb b2 9b 35 3c 54 2f 09 3c
       0.026191395 -0.005567696 0.011084484 0.0083731
000170 33 ce 16 3e 12 a1 b4 3d ca fb 07 3d 0a af 86 bb
       0.14727096 0.08819784 0.03319911 -0.0041102218
000180 0e 43 99 bd 01 23 a0 bc bd fc b9 bc 82 49 24 3e
       -0.07483493 -0.019547941 -0.022703523 0.16043666
000190 88 ce 8e 3d 1b 32 18 3e 00 00 00 00 58 e0 16 bc
       0.069729865 0.14862864 0.0 -0.009208761
0001a0 46 1c c8 3b c9 e8 f6 3d 5f 8c 30 3e 0a 36 4d bb
       0.006106886 0.12056119 0.17241047 -0.0031312727
0001b0 f9 7d de bc 51 e8 87 b9 9b dd 1a 3e 70 e4 7e 3e
       -0.027159678 -0.00025922296 0.15123598 0.2489183
0001c0 2c 6a 46 3d c8 1c 6e bc 84 92 3d bb 73 8f 37 3c
       0.048441097 -0.014533229 -0.0028926441 0.011203635
0001d0 02 56 c8 3d e9 a0 88 3c 00 00 00 00 49 91 60 3b
       0.0978203 0.01667829 0.0 0.0034266284
0001e0 1e 9f 2b b9 9a a5 b4 3d 57 89 77 3d 1d 18 f3 3b
       -0.00016367107 0.088206485 0.06043371 0.007418646
0001f0 d0 16 24 bc 2f 92 ca 3c 1d 66 21 bc 3d 8d aa bb
       -0.010015205 0.024727909 -0.009851006 -0.005204825
000200 9d bc 37 3c 18 bc 87 3d 4a 04 df 39 a9 bf 3d 3b
       0.0112144025 0.06627673 0.0004253707 0.002895335
000210 2e 13 77 3d 02 a4 e2 bc 42 5b 82 3c 97 09 9f 3d
       0.060321026 -0.027666096 0.015912656 0.07765501
000220 f4 ed f8 3d 4d 3e 09 3d 70 4b 6e 3d 00 00 00 00
       0.12154761 0.03350668 0.05817741 0.0
000230 00 00 00 00 f2 27 03 3d 00 00 00 00 f7 3f 4f bb
       0.0 0.032020517 0.0 -0.003162382
000240 bb 07 37 bc df 3e 65 bc 3c 09 d3 ba fd 7b 2e bd
       -0.011171277 -0.01399204 -0.0016100775 -0.042598713
000250 00 00 00 00 61 1d f9 3a cd 2b ee b9 30 a4 2a 3e
       0.0 0.0019005948 -0.00045427532 0.16664195
000260 99 0b 03 bd 58 f7 cb 3d 00 00 00 00 4c 4e 4d 39
       -0.031993482 0.099592865 0.0 0.00019579491
000270 6a 5d 18 3c 65 b3 70 3c 68 93 52 ba 00 00 00 00
       0.009299615 0.0146912085 -0.00080328295 0.0
000280 d6 61 8b 3c 64 7a 90 3c 19 df 47 3b 27 06 18 3d
       0.017014425 0.017636485 0.0030497967 0.037115242
000290 7c 87 90 3a 78 80 3a bc a9 0a 78 bc b6 ae 79 bc
       0.0011026706 -0.011383168 -0.01513926 -0.015239408
0002a0 bc 8a a9 3b b3 5a 3f 3d 3b 8c 99 bb 9c 17 f8 bb
       0.005174009 0.046717357 -0.004685906 -0.007571174
0002b0 d2 85 9f ba 37 8c 26 3d 6e 0b 1d 3c 00 00 00 00
       -0.0012170619 0.040661063 0.009585245 0.0
0002c0 0f 31 86 bc ae 67 dc 3d d9 de ce b9 68 93 69 bc
       -0.016380815 0.10761963 -0.00039457416 -0.014256336
0002d0 dd de a4 3d 32 b5 a6 bc d0 e2 5f 3e 61 41 01 3e
       0.0805032 -0.020350073 0.21863866 0.12622596
0002e0 77 c6 01 bc 81 e6 bd bc 73 f0 90 bc b3 81 bb 3c
       -0.007920853 -0.023181202 -0.01769278 0.022888994
0002f0 77 9d 1b bc 00 00 00 00 9d d6 61 3e 91 da 42 3d
       -0.009497992 0.0 0.22054525 0.047571722

W_action_type f4 [192, 4]
000000 39 94 97 3d 9d 3d 6e bd f4 f7 2d be 7b ea 0b be
       0.07401318 -0.058164228 -0.16989118 -0.13663666
000010 97 ee 31 3e 71 f1 fd bd 19 b7 e3 bd ea f0 f9 bc
       0.17376171 -0.12399567 -0.111189075 -0.030510385
000020 29 5c c7 bd b2 d2 70 bc 80 4c 19 3d b8 76 14 be
       -0.09734375 -0.014698671 0.03742647 -0.14498413
000030 64 98 a7 bd b6 df 7a bd ba d9 46 be ce 46 ec 3d
       -0.08183363 -0.061248504 -0.19418994 0.115369424
000040 fc f6 b9 bb b2 76 92 3c 6e d2 25 3d 32 0f 57 bc
       -0.005675195 0.017878864 0.040483885 -0.013126181
000050 9e d2 5c 3c 22 6d 32 3d 65 9d 18 be dc 5f f3 3d
       0.013477949 0.04356111 -0.14903791 0.11883518
000060 06 a5 a3 3d 73 65 21 3e 29 8c 81 3d 2d 0e 59 3d
       0.0799046 0.15761356 0.063255616 0.052992035
000070 47 b4 f3 bb 24 2e 60 3d 95 24 00 ba 76 50 b4 3d
       -0.007437262 0.054731503 -0.00048882636 0.08804409
000080 fd 7d a6 bd 67 c9 5d 3e ff 20 ae bd 68 b2 a1 3d
       -0.08129499 0.2165886 -0.08502387 0.078953564
000090 57 9a e3 3d 2f 66 16 be 97 73 99 bd c2 72 d2 bd
       0.11113422 -0.14687417 -0.0749275 -0.102757946
0000a0 20 75 31 3d 8a ca 72 3d 35 93 14 3d e3 b3 9e 3d
       0.04332459 0.059275188 0.0362732 0.077491544
0000b0 ca 4a 0c bd bd 78 0d 3e 16 44 f4 3b fa e0 f6 bd
       -0.034251012 0.13815589 0.0074544055 -0.120546296
0000c0 5b 1b a6 3d ff 3c e8 bb 76 44 f7 bd 4b 40 bc 3d
       0.081106864 -0.0070873494 -0.12073605 0.091919504
0000d0 b4 da 3d be 59 cf 5a 3d 72 af 2e 3e b7 c8 e6 bc
       -0.1854046 0.0534204 0.17059115 -0.02817188
0000e0 11 91 32 3b ce 43 8f be 77 1e 3c 3e 9b 3e 6a be
       0.002724711 -0.27981418 0.18370996 -0.22875445
0000f0 eb b3 24 be 57 56 49 bd 42 47 f6 3d cc 21 2d 3e
       -0.16084258 -0.049154606 0.1202531 0.16907424
000100 fb 63 45 3d 9e 96 35 3e 3f dc ae 3d a3 c3 21 3e
       0.048191052 0.17733237 0.08538102 0.15797286
000110 02 e7 4e 3c 4b 70 58 3d 6f 2e a8 bc 23 09 b3 bd
       0.012628319 0.052841466 -0.020529954 -0.08741977
000120 0f 0a a1 3d e2 cc 75 be b3 1b a0 bd 9b bd 11 3d
       0.07863247 -0.24003938 -0.07817783 0.035581212
000130 90 b1 bf bd 3c 90 01 3e 0c 92 06 be ea ad d0 3d
       -0.09360039 0.12652677 -0.1314165 0.101894215
000140 45 4f d0 3d 09 48 d9 bc 4a 3a 93 3d 1f b2 03 bd
       0.101713695 -0.026523607 0.07188852 -0.03215229
000150 2e 32 ea 3d 48 8c 27 be f8 e8 62 bc b9 16 4e 3e
       0.11435352 -0.16362107 -0.013849489 0.20125856
000160 1c f4 49 3d 59 91 86 3d f9 02 39 bc 8a 93 db 3d
       0.049305066 0.065706916 -0.011292213 0.107215
000170 82 8d b2 bd b2 20 fe 3a 5e db bc bd ec f6 e1 bb
       -0.08718397 0.0019388406 -0.092215285 -0.0068958905
000180 5d 2d eb 3c d6 24 3c 3d 8d 8f a3 bd 14 85 73 bc
       0.028708154 0.045933567 -0.079863645 -0.014863271
000190 fe 78 41 bd 19 86 cf 3c d1 cf ba 3c 2f 07 20 bc
       -0.047234528 0.025332497 0.022804173 -0.009767338
0001a0 a7 1b 0a be a0 5e 25 3e 59 11 32 3c e3 2e 41 be
       -0.13487111 0.16149378 0.010868394 -0.18865542
0001b0 16 f6 4a 3b f9 c5 20 3d 75 66 1b 3d 9c 45 e6 3d
       0.0030969433 0.0392513 0.037939508 0.11243746
0001c0 f5 1a aa bd 4f 82 d3 bc 7a 42 f5 bd 29 95 21 be
       -0.08305923 -0.025818972 -0.1197557 -0.15779556
0001d0 50 e4 c7 bd 89 1d ad 3d 95 b9 ea 3d 33 52 fc 3d
       -0.09760344 0.08452899 0.11461178 0.12320366
0001e0 30 92 a0 3d 31 67 01 bd 51 a9 89 3e e5 3a 0d be
       0.07840383 -0.03159255 0.2688699 -0.13791998
0001f0 15 3e b3 3d cc 6e 8e 3d e4 4d 4f 3d 4d 7c 4a be
       0.087520756 0.069547266 0.05061139 -0.1977398
000200 86 15 a8 bb 93 2c 71 3c 5a 87 c0 3c a1 a5 4b 3d
       -0.005129519 0.0147201 0.02350204 0.049718503
000210 1c aa a8 3d dc 7a d4 3d c6 eb 17 be 11 d2 a7 bc
       0.08235571 0.10374996 -0.14836034 -0.02048591
000220 9f 81 ec 3d 96 cc 91 3d 9d 8f 0c 3c 91 b3 8c 3c
       0.11548161 0.071191 0.008579162 0.017175468
000230 1e c5 b0 bc 59 84 1e 3e d9 64 ed 3d 99 4e 31 bd
       -0.021578368 0.15480174 0.11591501 -0.043287847
000240 41 a6 a9 bc 9b b8 20 3d 79 62 20 3c 05 54 0f 3e
       -0.020709159 0.039238553 0.009789103 0.13996895
000250 50 b0 8f bd 9c 6b b2 b9 34 fa c9 bc 89 07 3d bd
       -0.07016051 -0.0003403098 -0.024655439 -0.046149764
000260 29 04 a7 bd ac c8 f3 3c 04 9a f2 ba db 5f 3b bd
       -0.0815509 0.029758774 -0.0018509035 -0.04574571
000270 78 a4 bf bd 79 2c a5 3d be 24 87 3d 0b ed db bd
       -0.09357542 0.08065123 0.06598805 -0.10738572
000280 d4 e9 fa 3d 97 0f 60 3d ff 2d c3 bd e3 68 2a be
       0.122516304 0.054702368 -0.095302574 -0.16641574
000290 53 3d bb bd 77 7e af bd 87 44 a8 3e e7 6c b1 3b
       -0.09142556 -0.08569043 0.32864782 0.0054145935
0002a0 a6 63 01 be 9e c7 4e 3c 59 f8 a4 bd 2c 69 1d 3e
       -0.12635669 0.012620835 -0.08055181 0.15372151
0002b0 b4 82 8f 3c 32 24 21 bb 48 60 03 be fa c0 1c bd
       0.017518379 -0.0024588224 -0.12829697 -0.038269974
0002c0 76 bd 70 3c 3f 09 9d 3d 59 8f 38 3e 7e 52 07 3d
       0.0146936085 0.07667779 0.18023433 0.033037655
0002d0 5c 6e 00 be 11 2d 82 3d 15 0a ce 3d 3d 2b 04 3e
       -0.12542099 0.06356252 0.10060517 0.12907119
0002e0 42 81 88 bd a1 98 16 bc e8 c6 0d 3d 76 58 ff 3c
       -0.06665279 -0.009191663 0.03461352 0.031170111
0002f0 ff 07 98 bd 60 c6 c0 3b 3e 77 e6 bc e5 9b 19 3e
       -0.074234 0.005883023 -0.028133031 0.15000875
000300 3a 23 81 3d 66 2f 13 3e 64 3a cd 3d 31 a4 82 3d
       0.06305547 0.1437355 0.10020903 0.06378973
000310 c0 03 8f 3d 9b de 4a 3d 39 e8 2d 3d 19 a0 4b be
       0.06983137 0.0495287 0.042457793 -0.19885291
000320 55 ab 33 3d d2 fd f8 bc ad 3c 4a 3c 2e 1b b5 bd
       0.043864567 -0.030394468 0.012343568 -0.08843075
000330 29 41 7f be b0 71 89 3d 42 05 0c be d7 ca 98 bd
       -0.249272 0.06711137 -0.1367388 -0.07460564
000340 a7 7e 93 bd 87 82 0a 3e ce ff 24 3e 87 5d d6 bb
       -0.072018914 0.13526355 0.16113207 -0.006541911
000350 cf 05 00 3e 82 5e 17 3c 51 93 f6 bd 52 bd 2c 3e
       0.12502216 0.009238841 -0.12039817 0.16869095
000360 a5 18 cd bc 2d 64 cf 3a d2 c1 b0 bd 35 3f e3 3b
       -0.025036165 0.0015822701 -0.08630718 0.006935025
000370 53 83 68 3d ca 3e 8c 3d 8b 5a 8a bd 59 bd 2f 3c
       0.056765866 0.068479136 -0.06755551 0.010726296
000380 ad 6e 39 bd 5a f8 c1 3d 47 a6 d2 bd 87 59 aa 3d
       -0.045271564 0.094711974 -0.10285621 0.08317857
000390 e8 24 13 be df 80 13 bd 25 10 f1 bd cb 80 0d 3e
       -0.14369547 -0.036011573 -0.117706574 0.13818662
0003a0 e9 99 aa bd 10 fa e9 3d 81 86 c3 3d 01 c4 c8 bd
       -0.08330137 0.11424649 0.09547139 -0.0980301
0003b0 39 7a c7 3d e9 9b 6b 3d 6b 0d ab bd 40 e4 38 3d
       0.09740109 0.057521734 -0.08352169 0.04513955
0003c0 38 71 07 bc f2 70 ad 3d 7f e6 02 3e a1 de c7 bc
       -0.00826674 0.08468808 0.1278324 -0.02439815
0003d0 0c bc c0 bd 13 d9 85 3d 59 df 41 bd 32 05 70 be
       -0.09410867 0.06535544 -0.04733214 -0.23439482
0003e0 05 7c 1a 3d a4 9b c1 3d eb 06 aa bd cc 52 a7 bd
       0.03771593 0.09453514 -0.08302101 -0.08170089
0003f0 55 7b 13 bd f4 a9 af bb cf d3 ab 3d 2f 05 82 bb
       -0.03600629 -0.005360836 0.08390009 -0.003967903

b_action_type f4 [4]
000000 54 d4 90 ba 30 fc 01 39 8f 62 c1 bb c4 87 e1 3b
       -0.0011049607 0.00012396346 -0.0059016417 0.0068826396

W_play_habitat f4 [192, 4]
000000 6a b2 ea 3c 6e 99 12 3e fe 3e 10 3d 6b 82 86 3c
       0.028649528 0.14316341 0.035216324 0.01641961
000010 8c c2 40 3c 5d d4 9f 3d 91 6a 41 be a6 67 bd 3d
       0.011765134 0.07804177 -0.18888308 0.09248285
000020 71 c3 d6 3c 9a e9 07 3e c9 88 10 3e 42 ff e5 3b
       0.02621624 0.13272706 0.1411468 0.0070189545
000030 53 42 20 3e 8f c3 e9 3c 3c c9 56 3d 15 ff 1f 3d
       0.156503 0.028535632 0.052438006 0.039061625
000040 e8 16 f1 3d b6 be 6b bd c4 fb 18 bd 2b bc e3 3c
       0.11771947 -0.057554923 -0.037349477 0.027799686
000050 02 9b 00 be c8 38 4b 3d c1 50 1c bb 2f 6a e1 3d
       -0.12559131 0.049614698 -0.0023851844 0.11006581
000060 fd 41 b4 3d bc af 8a bc 56 73 5e bd 26 70 5b bb
       0.08801649 -0.0169295 -0.05430921 -0.0033483594
000070 43 a0 11 3d 51 fb 9c bd 57 87 19 3d f9 f5 cb 3d
       0.035553228 -0.07665122 0.037482586 0.09959025
000080 61 62 8d 3d d7 63 59 bd 06 cb bc bd 11 c9 a8 bd
       0.0690353 -0.05307373 -0.09218411 -0.082414754
000090 90 14 d2 bc 79 bc 86 3d f0 f5 80 bd d4 8d b6 3c
       -0.02564457 0.06578917 -0.06296909 0.022284426
0000a0 a6 ad 08 be 0f c2 6f bd ca 35 fb bb 7c 8f 9a 3b
       -0.13347492 -0.058534678 -0.0076663243 0.0047168117
0000b0 32 3b 17 3d 95 a3 bf bd 03 85 a9 3d 6b 5c e4 bd
       0.036921687 -0.09357373 0.08277323 -0.1115044
0000c0 ef 5b ff 3d 13 27 13 bc 54 6a 04 3d 1e 78 3c 3e
       0.12468707 -0.008981484 0.032327965 0.18405196
0000d0 71 c8 fe bc 1d 2a 87 bb 52 6e 6e 3c ac 08 f7 3c
       -0.031101437 -0.0041248933 0.01455267 0.030155502
0000e0 f1 39 4a bd 24 2f cd 3d 44 23 d8 bc 36 b4 de 3d
       -0.049371663 0.10018757 -0.026384003 0.10874216
0000f0 73 0d 04 3e 6f 45 17 3e 02 9b 62 bd 93 6a 5d be
       0.12895755 0.1477258 -0.05532361 -0.21622686
000100 52 cb 54 bd b8 b9 12 3e b1 db c7 3c 9c 53 e4 bd
       -0.051951714 0.14328659 0.02439675 -0.1114876
000110 63 c9 30 bc 25 61 23 3b 62 b8 c4 bd 92 f1 34 be
       -0.010790202 0.0024929729 -0.09605481 -0.17670277
000120 1e 8d f7 3b 88 93 7c 3e df 8e 5b bd 1c 66 45 3e
       0.0075546643 0.24665654 -0.05360305 0.19277233
000130 19 60 21 3b 0a 3d 22 3e 90 e7 f7 3c f5 4d 06 be
       0.002462393 0.15843597 0.030261785 -0.13115676
000140 cf 5a 82 bd 6c 16 8d be fb 84 78 bd b4 89 1d be
       -0.063649766 -0.2755617 -0.060673695 -0.15384561
000150 68 37 df 3c ed ce 1b be 00 37 c8 3c 5a 80 95 bd
       0.0272481 -0.15215655 0.024440289 -0.07299872
000160 dd 69 01 3d b9 7c f7 3d 8c 18 e2 3d 1d 32 5c be
       0.0315951 0.12084336 0.11039838 -0.21503492
000170 dc a9 c7 3c 62 3b 8b bd 3f e8 11 3e 46 3e c5 3d
       0.024372987 -0.06798436 0.14248751 0.09631018
000180 66 2d 5b bd 20 52 10 3e 9f d7 b0 3d 35 de dc 3c
       -0.053510092 0.14093828 0.086348765 0.026961425
000190 9f 1a a2 3d d7 23 55 bc 5f 58 09 3d 14 3c 31 be
       0.07915234 -0.013009033 0.033531543 -0.17308074
0001a0 a0 4d 9b 3d a0 28 63 be a1 89 01 3d 60 f1 fa bb
       0.07583165 -0.22183466 0.031625394 -0.0076581687
0001b0 d8 46 a3 be ce a3 7e 3c 86 c6 cf 3d 2d b3 2a be
       -0.31889987 0.015541984 0.10145287 -0.16669913
0001c0 c8 23 c6 bd ea 96 b5 bd cd be 84 bd 53 4e be bd
       -0.096747935 -0.08866675 -0.06481705 -0.09292283
0001d0 0c 3f b3 bd dc 1d 11 bd dc 2b 61 bd 90 92 e3 bd
       -0.087522596 -0.035428867 -0.05497347 -0.11111939
0001e0 a9 6c ea 3d 75 55 0d 3e f4 58 94 bd 26 ca 09 bd
       0.114465065 0.1380213 -0.07243529 -0.03364005
0001f0 e9 1d 9f 3d 70 dc 43 bd 4b bd bd 3d 5d 55 fe bd
       0.07769377 -0.047817647 0.092646204 -0.124186255
000200 37 e2 90 bb 30 67 29 3e 4d c2 b1 3c 1b 3c 47 bc
       -0.004421498 0.16543269 0.021699095 -0.012160326
000210 5c 79 28 be c1 77 c8 bd a4 19 8f 3d 2a d3 ea bb
       -0.16452545 -0.09788466 0.069873124 -0.007166286
000220 57 2c 69 be ad d5 3b 3c f7 9a 94 3d 2d a6 8b bd
       -0.2277082 0.0114645185 0.0725612 -0.06818805
000230 6e 23 22 bc f2 bd 3e bd 7a 61 f1 bc 71 3b 65 bd
       -0.009896142 -0.046567865 -0.029465426 -0.05596489
000240 07 2a c0 3c ac 9a b7 bd d3 86 85 bd de cf 12 be
       0.02345754 -0.08965048 -0.06519856 -0.14337108
000250 92 f1 f5 3d 77 b0 3c be 81 a1 c7 3d b4 50 da bc
       0.120089665 -0.18426691 0.09747601 -0.02664981
000260 9e 4a 5a 3d 9b 38 0f bd a0 d2 84 3d af cc 11 bd
       0.053293817 -0.034966093 0.06485486 -0.035595592
000270 4b cd 63 3c c9 0e 9c 3d 4b 3f 0b ba a1 1d 5a 3c
       0.013903926 0.076200075 -0.00053118606 0.013312728
000280 f4 88 5d 3e 43 41 7f bd d3 14 03 3e e7 06 9f 3d
       0.21634275 -0.062318098 0.12800913 0.077649884
000290 15 6b d0 3d 0c 54 7a be ad c3 fc bd 98 e5 d5 bd
       0.10176674 -0.24446124 -0.1234201 -0.10444182
0002a0 5c 5a 88 bd 87 7a 92 3d 2f 9e fa bd b7 10 81 3d
       -0.0665786 0.071522765 -0.122372024 0.06302016
0002b0 82 0c 9c 3d 8e 9a 56 3b ae 5d c0 3c c2 40 54 be
       0.07619573 0.003274593 0.02348217 -0.20727828
0002c0 0b c7 64 3e 9d 2c 49 ba 28 d9 84 3d 78 e3 f7 bd
       0.22341554 -0.00076741894 0.06486732 -0.12103933
0002d0 e6 9a 0c be 65 af fd bc 49 3a a4 3d 5e 3a 62 bd
       -0.13730964 -0.030967424 0.080189295 -0.055231445
0002e0 29 d2 52 3d 02 e6 84 3d 00 e7 10 3d 05 cc 5f bd
       0.051469956 0.06489183 0.03537655 -0.054637928
0002f0 68 0a a3 bc 91 18 9e bd 59 b2 fe 3c 28 86 07 be
       -0.019902423 -0.077195294 0.031090902 -0.1323477
000300 88 93 04 3d f3 95 14 3e c1 7c ac 3d db 1a 5c be
       0.03236726 0.14510326 0.084222324 -0.2149462
000310 63 b3 20 bd 30 6c 79 be 89 eb 35 bd 9a 90 37 be
       -0.039233577 -0.24357677 -0.044414077 -0.17926255
000320 af 9b ae 3c 67 7b 1e be 43 a2 24 3d 7c 93 48 3e
       0.02131447 -0.15476762 0.040193807 0.19587511
000330 59 1e 19 3d 76 f7 05 be c9 0c 67 3d 33 be 73 bc
       0.037382457 -0.1308268 0.056408677 -0.01487689
000340 89 42 10 bd 5a fd c0 3d c6 db 61 3e b5 cb 84 3c
       -0.035219703 0.09423323 0.22056493 0.016210416
000350 eb 00 2d 3e ba 84 16 bd d1 52 fd bc 30 09 e6 3d
       0.16894881 -0.03674767 -0.030923279 0.11232221
000360 48 2a 4b be 08 9e ed 3d c7 75 a6 3c f7 cd 59 bd
       -0.19840348 0.11602408 0.020319832 -0.05317494
000370 03 44 9a bd f1 c5 64 3d 53 5c ef bd fa 21 ca 3d
       -0.075325035 0.055852834 -0.11687531 0.09869762
000380 18 68 b7 bd b1 39 2c 3e 9e c4 e8 3d b9 3f e4 3d
       -0.08955401 0.16818883 0.11365627 0.11144967
000390 51 40 bb bc 85 58 b8 bd e9 c4 92 bd 88 1a 08 3d
       -0.022857817 -0.09001259 -0.07166464 0.033228427
0003a0 15 00 65 3e 42 a7 e3 bd 3a 9a 11 3e da e1 5a be
       0.22363313 -0.11115886 0.14218989 -0.21375218
0003b0 09 05 e4 bd 9c d6 0e bd 25 33 d8 bd ea 23 13 bd
       -0.11133773 -0.034872636 -0.1055663 -0.035922922
0003c0 c2 f5 ef bd 4c f6 ed bc b7 43 08 bd 13 e5 2f be
       -0.117167965 -0.029048108 -0.033267703 -0.17177229
0003d0 88 04 c8 bc f2 17 33 bd 7f 11 68 bb 7f 36 26 bd
       -0.024416223 -0.043724008 -0.003541082 -0.040579315
0003e0 2c 5a 00 bd 3a fd c1 3d 73 03 19 3e c2 ea 9a 3d
       -0.031335995 0.09472127 0.14942722 0.07564308
0003f0 59 4f d1 bd 61 50 31 3e af 6f f2 bc bd ec 95 bd
       -0.102202125 0.17315818 -0.02959427 -0.07320545

b_play_habitat f4 [4]
000000 6e d0 88 ba 27 19 2e ba 46 f5 0e 3b 27 36 f8 b9
       -0.0010438093 -0.0006641321 0.0021813675 -0.00047342593

W_gain_food_primary f4 [192, 7]
000000 9c 1d 09 bd 3f cf 5a bd 60 91 a7 bb dc 9e 04 3c
       -0.033475503 -0.0534203 -0.0051137656 0.008094516
000010 be 5b 86 3d 48 cb 31 3e 18 dc 07 3e a3 0e 49 bb
       0.06560467 0.17362702 0.13267553 -0.003067889
000020 88 85 38 3d ac 36 5b 3e 70 ca db 3d f9 a4 52 be
       0.04504922 0.21407574 0.10731971 -0.20570745
000030 13 18 bf 3d 4e d9 d6 bd 15 78 51 bb f4 86 1a be
       0.09330764 -0.10490666 -0.0031962444 -0.15090543
000040 a8 3b 1c 3e 18 f7 86 3d 80 8a df bd 01 c1 2f bd
       0.15257132 0.06590098 -0.10915089 -0.042908672
000050 8d 02 9d be 47 1a 73 bd 6f 82 fd 3b a5 1d 7d 3d
       -0.3066601 -0.059351232 0.007736496 0.06179585
000060 2f 7d 1d 3d 3c 14 85 3d 7d b4 c3 bc 9b 38 d9 bd
       0.038449463 0.06498 -0.023889774 -0.106065
000070 83 35 06 bd 73 56 ad bd 78 36 28 3e 32 7e 75 bd
       -0.032765877 -0.084637545 0.16427028 -0.059934802
000080 72 a2 2b 3e fe 82 8e bc e9 d4 3a 3c be 37 b7 bb
       0.16761187 -0.017396446 0.011403301 -0.005591362
000090 7b 03 9f bd 75 df 9d bd ff b2 2d 3d a5 da 2a bc
       -0.07764336 -0.07708637 0.042407032 -0.0104281055
0000a0 20 6e b2 bc 4d 83 ac bd f6 77 cb 3d 1e 7e 21 3e
       -0.021781027 -0.08423481 0.0993499 0.15770766
0000b0 36 43 22 be a0 52 cb 3c 46 7a 1e 3e ad 33 cf 3d
       -0.15845951 0.024819672 0.15476331 0.10117278
0000c0 a2 ed 7c 3d 8e 94 99 bb 85 95 7e 3d c3 b3 08 be
       0.06175006 -0.0046868986 0.06215431 -0.13349824
0000d0 0a 38 da bc f3 35 83 3d 0e 60 00 3e 30 a0 2c bd
       -0.02663805 0.06406774 0.12536642 -0.042144954
0000e0 d8 d7 a3 bd e9 d7 cf bc ea 98 d2 bd 2d b5 ad 3c
       -0.08000153 -0.025371509 -0.10283072 0.021204555
0000f0 4a 65 60 3d f0 5d 62 bc 53 22 f3 bd d5 35 cd 3d
       0.054784097 -0.013816342 -0.11871781 0.10020033
000100 f8 0e 83 3d 18 a5 23 bd 85 58 b5 bd c0 73 cc 3b
       0.063993394 -0.039952368 -0.088547744 0.0062393844
000110 a4 21 76 bd da 11 94 bc ea 83 b7 3d 11 4b 20 3e
       -0.060090676 -0.018074919 0.089607075 0.15653636
000120 27 d9 a6 bd 14 eb f9 3b 0b a3 87 bd 01 94 be 3d
       -0.08146887 0.0076269004 -0.06622895 0.09305573
000130 f9 9e da 3d f4 03 88 bd 3d 37 6c bc d7 df 95 3d
       0.10674853 -0.06641379 -0.014417467 0.07318085
000140 39 7d b9 3d 11 76 2d 3c 4b a8 38 3c 2b 9c 00 3e
       0.090570875 0.010587231 0.011270593 0.12559573
000150 ab 97 0d bd ea 2a 37 be 24 b7 42 be 2e 00 f0 3d
       -0.03456847 -0.17887464 -0.19015175 0.11718784
000160 4f 11 7d bd ba 66 42 be 18 b0 58 bd 52 e2 89 3c
       -0.061784085 -0.189845 -0.05290231 0.01683155
000170 86 ff 52 bd 0a 00 04 3e 9c d3 48 bc 60 67 14 bd
       -0.051513217 0.1289064 -0.012257483 -0.0362314
000180 b9 3c 6a bd 26 ba 39 bd 67 61 52 be 04 d9 83 bd
       -0.057186816 -0.04534354 -0.20544969 -0.06437877
000190 fa cd 48 3c 70 ae 9c 3d 4a 8e 8d 3b 0a 19 c8 bc
       0.01225614 0.07650459 0.0043199407 -0.024426002
0001a0 8c 4b 6b 3e 75 67 9f 3d f4 fa 1a be 4f d1 f5 bd
       0.22978038 0.07783405 -0.15134794 -0.12002813
0001b0 bc ad 80 3d d0 43 9a 3d d1 48 5d 3d a7 54 e5 bd
       0.06283137 0.075324655 0.05402452 -0.11197787
0001c0 6e 2b d9 3c 99 3b fb bd 1a cc ae bd 03 1f 63 3d
       0.026509967 -0.12267227 -0.08535023 0.055449497
0001d0 d6 a8 73 3d dd 71 44 3c 71 29 2a be 5b 2c a5 bd
       0.059487186 0.011990038 -0.16617371 -0.08065101
0001e0 9c 65 a3 bc c1 c0 73 3d 1e 6b bf bd 1e a0 39 3c
       -0.019945912 0.059509996 -0.09346603 0.011329679
0001f0 57 71 e9 bd f9 5e 7d 3d 1d 9c 49 be 4b f0 70 3d
       -0.11398571 0.06185815 -0.19688459 0.05882291
000200 ea be b9 bd fc f3 6c 3d 55 cc 94 3d 49 76 07 be
       -0.09069617 0.05784987 0.07265536 -0.13228716
000210 6d fb 93 bd 3f 29 ea 3d 6c 92 48 3d 8b ce ba 3d
       -0.0722569 0.11433648 0.048967764 0.09121426
000220 08 19 01 bd 85 36 a9 3d 84 d6 28 be 4b 01 17 3e
       -0.031518012 0.08262352 -0.16488081 0.14746587
000230 1a e6 51 bc 2b eb ea bc 7d 69 60 bd e6 21 45 bd
       -0.012811208 -0.02867659 -0.0547881 -0.04812803
000240 02 c0 dc bd 9d 48 cd bd f4 49 51 3d fa 5c 38 be
       -0.1077881 -0.100236155 0.051095918 -0.18004218
000250 42 f9 f3 bd a5 9a 3b 3e 80 f2 56 3e e2 16 44 be
       -0.119127765 0.18320711 0.20990944 -0.19149354
000260 ea 83 5f 3c 8e 2b 1f be 06 9f b3 3c 45 8f ea 3c
       0.013642291 -0.15543959 0.021926414 0.02863277
000270 e5 24 da 3d 7d 4b 45 3d ed 18 0f 3e 73 b3 82 3d
       0.10651568 0.048167694 0.13974352 0.063818835
000280 0c 17 51 3c fd 4a 72 3e e5 17 69 bc 63 51 96 be
       0.012761842 0.23661418 -0.014226888 -0.29358968
000290 b4 43 f4 3d f7 9e 58 bd 48 12 c4 3c dc 8c 22 bd
       0.11926976 -0.052885976 0.023934498 -0.039685115
0002a0 bd 95 30 3d f2 16 aa 3d 36 f8 8c bd a9 68 3b bd
       0.04311155 0.08305158 -0.0688328 -0.04575411
0002b0 d5 c8 ee bb 6c a4 07 3d 06 9d 58 3d 19 b1 b3 bd
       -0.0072871246 0.03311579 0.052884124 -0.08774013
0002c0 0f 31 3f be 21 bf 23 bd 1d 57 a8 bd 02 b7 cd bc
       -0.18671058 -0.039977197 -0.082197405 -0.025111679
0002d0 05 99 ad bd ea 3d c8 3d e1 c0 8a 3d 18 17 57 3b
       -0.08476452 0.09777434 0.0677507 0.0032820161
0002e0 e6 14 6e 3e 15 c1 85 bd 2a 26 5b be 42 52 eb 3d
       0.2325016 -0.06530968 -0.21401277 0.11490299
0002f0 0a f4 c2 3d 36 71 24 be 45 65 ca 3c 68 75 0a be
       0.09519203 -0.16058812 0.024706492 -0.1352135
000300 5a 04 10 3e d6 89 9e bd f5 02 35 3d 3e 9e 96 bd
       0.1406416 -0.07741134 0.044192273 -0.07354401
000310 d9 13 c9 3c 87 2e 9b 3c c1 57 5c bd 27 f6 fc 3d
       0.024545597 0.018943084 -0.053794626 0.12351637
000320 33 1b b9 bd c5 88 b8 3b b4 69 07 3c ec 89 c0 bc
       -0.09038391 0.0056315386 0.008264948 -0.023503266
000330 8b 4b 7f bd 9e 5e f7 3d f6 58 e1 3d 4b e3 11 bd
       -0.062327903 0.12078594 0.11003296 -0.035617154
000340 93 d4 9c 3d cf 25 be 3d a0 fa a9 ba bd b6 32 bd
       0.07657733 0.09284555 -0.0012968369 -0.043631304
000350 e6 71 d1 3d a7 16 4a ba a4 2a ca bd 87 7b 03 bd
       0.102268025 -0.0007709064 -0.09871414 -0.032100227
000360 2c 34 5e 3d c7 6a 0a 3d 56 b9 15 3e ae 27 48 be
       0.054248974 0.033793237 0.14621481 -0.19546387
000370 fa 2a 29 be 1e ca 99 3d a5 22 a9 3d de dc 9e bd
       -0.165203 0.07509254 0.08258561 -0.07756971
000380 28 2f a9 3d 75 85 84 bd ab 26 ea 3d 97 0b 9c be
       0.082609475 -0.064707674 0.114331566 -0.30477592
000390 a4 61 0c be 47 d6 02 3e bf 48 9a bd 41 78 5c 3e
       -0.13709122 0.12777053 -0.075334065 0.21530248
0003a0 f7 bd 38 be 05 84 d8 3d 8e f9 8c 3b ab c5 06 3d
       -0.18041216 0.10572056 0.00430221 0.032903355
0003b0 e3 3c 3b 3d 8b 5e cb bd 6e a7 94 39 45 f9 9a bd
       0.045712363 -0.09930142 0.00028353505 -0.07567076
0003c0 aa d6 27 3d 18 7a 36 3d 77 93 fb bd dd d3 db bd
       0.040976204 0.04455003 -0.12283986 -0.10733769
0003d0 b9 c1 9d bc ee 0b 05 3d a5 cb 96 bd 19 71 ea bd
       -0.019257413 0.03248208 -0.07363061 -0.11447353
0003e0 83 27 f0 bd 3c 93 e1 bd 1e f6 4c bd 43 58 40 bd
       -0.11726286 -0.11014411 -0.050039403 -0.046959173
0003f0 1c fb 8d bd f7 bf bf 3a 1a c5 3a 3d bb 6d a4 3d
       -0.06932661 0.0014629354 0.045598127 0.08028742

b_gain_food_primary f4 [7]
000000 01 34 4f 3a 5a f3 72 b9 3a 72 b9 b9 df 20 14 ba
       0.00079041725 -0.00023169574 -0.00035371055 -0.000565065
000010 68 2a 32 3a a2 9c 1c b9 b4 81 32 b9
       0.000679648 -0.0001493567 -0.00017023721

W_draw_mode f4 [192, 4]
000000 f3 d6 68 3e 11 1e c6 bc df 53 dd bc dd 95 b2 bc
       0.22738247 -0.024184259 -0.027017532 -0.021799976
000010 38 02 d4 bc f8 bd 7c 3e dd 58 4b bd 3e f0 93 bd
       -0.025879964 0.24681842 -0.049645294 -0.07223557
000020 7b 9e 5d 3d e0 e7 26 3e ad 99 51 be 75 54 28 3e
       0.054106217 0.16299391 -0.20468779 0.16438468
000030 a4 8f a1 bc 1a 87 d1 bb 50 5d 3b bb 8e 3e 3d 3e
       -0.019721813 -0.006394279 -0.0028589554 0.18480894
000040 23 cc 87 bd 27 d3 06 3d 10 85 b3 3c a4 03 a0 bc
       -0.06630733 0.032916214 0.021914035 -0.019532986
000050 21 79 f7 3d c2 f0 ab bc 5a b3 7c 3c 3e af b2 bd
       0.120836504 -0.020988826 0.01542362 -0.08724831
000060 d8 2d 5e 3c f6 ab 1b 3d 9b 50 11 3e d4 e9 81 3d
       0.013560735 0.03800579 0.14190905 0.06343427
000070 a2 13 85 bd 29 fc ed 3d 03 bc 80 bd 4f de 47 3d
       -0.06497885 0.11620361 -0.062858604 0.048795994
000080 8f a6 87 bd d5 5d 93 3d 0d 67 1f 3e 39 f0 45 3c
       -0.066235654 0.071956314 0.15566655 0.012081199
000090 84 43 2d be 80 27 96 3d ad 8f f1 3d 5a a1 a9 bc
       -0.16920286 0.07331753 0.11794982 -0.020706821
0000a0 96 f3 5e 3a 33 43 8b 3c e2 59 b3 bd bc 8c d2 bd
       0.0008504925 0.016999817 -0.08757378 -0.10280749
0000b0 d3 0b 6c 3c f6 5e 9b 3c 9b 56 57 3c ec b2 2e 3e
       0.014407116 0.01896618 0.013143207 0.17060441
0000c0 da 74 30 bb a3 32 a2 bd 45 0a 7a bc 97 86 0c be
       -0.0026925118 -0.079198144 -0.0152612375 -0.13723217
0000d0 cc ba 3d 3e 3e ff 02 3d d6 ba 06 be f3 22 78 3d
       0.18528289 0.0319817 -0.1315721 0.060580205
0000e0 f7 52 85 3e 4d 4f d9 bd f2 16 6e bc da 60 2f 3d
       0.2603986 -0.106108285 -0.014531838 0.042816974
0000f0 32 7a e6 bc fd be 29 3d 41 44 ba 3d c0 2a 97 bd
       -0.02813444 0.041441906 0.0909505 -0.07381201
000100 b8 c6 89 be 3d 13 ae 3d a0 1d 6f 3e 87 aa fb bd
       -0.26909423 0.08499763 0.23351145 -0.12288385
000110 94 72 5a bc 9d 5d d9 3d e8 7a b5 3d 65 7f 0c bd
       -0.013332982 0.106135584 0.08861333 -0.03430118
000120 b1 59 89 3d 7a 10 35 bd 5f bf c2 3c fd d8 74 bd
       0.067065604 -0.044205166 0.023772893 -0.05977725
000130 00 d1 25 be 8e f0 27 3e cb 92 ed bd d9 5e e1 3c
       -0.16193008 0.16400358 -0.11600264 0.027511047
000140 4e a6 ae 3d 27 78 1d be 33 12 d7 3d c3 e5 9f bd
       0.08527814 -0.15377866 0.10501518 -0.078074954
000150 61 4a 9c 3d 1a 9f 4a 3e 3d 01 69 bd f8 90 e3 3d
       0.07631374 0.19787255 -0.056885947 0.11111635
000160 36 60 9f bd 7d 74 08 3e 7a 3f c9 bd 62 64 9a 3d
       -0.07782023 0.13325687 -0.0982656 0.07538678
000170 3c 08 7f 3d 67 50 83 3e c3 7c c3 3d 79 4c 2b be
       0.062263712 0.2564728 0.09545281 -0.16728391
000180 b9 9b f6 3c fa 95 f1 bd aa d2 3a be 46 7a 84 be
       0.030103551 -0.11796184 -0.18244424 -0.25874537
000190 29 01 bd bd 42 b9 8d 3d 47 f0 a1 3c b2 a1 d1 bd
       -0.09228737 0.06920101 0.019767893 -0.10235919
0001a0 4b d5 21 be ad 4b 0a 3c 89 40 dc 3c b3 0a 26 be
       -0.15804021 0.008440894 0.026886242 -0.16215019
0001b0 73 57 a9 3d dc 1d cd 3d 2b f8 c0 3c b7 80 12 bd
       0.08268633 0.10015461 0.023555836 -0.035767283
0001c0 a3 8a 16 be d0 8c 8b bc 1e 89 68 3c d6 17 ff 3d
       -0.14701323 -0.017034918 0.014192848 0.12455718
0001d0 bc a9 f1 b7 57 c7 9b bd 1a c0 b4 3d 0d ec 0f be
       -2.8808478e-05 -0.076063804 0.08825703 -0.1405489
0001e0 8e 54 0d 3d a5 54 a5 bd 28 90 8f bd d4 6e a0 bd
       0.034504466 -0.08072785 -0.070099175 -0.07833639
0001f0 65 72 b2 bd d0 12 20 3e 13 cf 95 3d 05 28 1d bb
       -0.08713225 0.15632176 0.07314887 -0.0023980152
000200 73 5b f3 3d 20 a8 7d 3d 08 9b 4c be 07 2a 0a be
       0.11882677 0.061927915 -0.19981015 -0.13492595
000210 bb c4 29 bd 5c 43 56 3d 85 7e 8f bd 79 ed d2 3b
       -0.041447382 0.052310333 -0.070065536 0.0064370004
000220 60 40 2e 3e 6a 4b 29 3b 8a 41 b6 bd 9e 6c 10 bc
       0.17016745 0.0025832304 -0.08899219 -0.008814959
000230 f4 49 c2 3d 11 4a 3a 3e 32 83 45 be 64 80 d9 3d
       0.09486762 0.18192317 -0.19288328 0.10620192
000240 30 94 fe 3c c0 cf 4f 3c 74 6f aa bb c5 27 17 3e
       0.03107652 0.012683809 -0.0052012745 0.14761265
000250 50 01 11 3e 45 11 c8 bd e6 fc 06 bd c7 eb 37 be
       0.14160657 -0.09768919 -0.032956026 -0.17961036
000260 69 de 3f 3d b9 9c 11 3e 0e ac e4 3d c7 31 e2 3d
       0.046842966 0.14219941 0.11165629 0.110446505
000270 c9 10 1c 3e 16 5c 7e be a7 be 80 3d 29 8b d1 3c
       0.15240778 -0.24839815 0.06286364 0.025579052
000280 5d 7d e3 bd 33 a1 1d be 6d 77 e9 3c 66 bb 05 3e
       -0.111078955 -0.15393524 0.02849933 0.13059768
000290 3e 40 21 bd 17 78 85 3c a1 52 f4 bd c3 aa 4d bd
       -0.039367907 0.016292615 -0.11929823 -0.05021168
0002a0 f9 3a 49 3e 6a a5 9b 3d 0d df 24 bd 2e a0 2e bc
       0.19651403 0.075999096 -0.04025178 -0.010658307
0002b0 27 8d 4b bd c3 4e 92 bb 57 4f a1 bc 27 77 1b 3d
       -0.04969516 -0.0044649555 -0.019691152 0.03795543
0002c0 02 18 19 3d 69 05 be 3d 58 23 3e 3e 6d 61 3d 3e
       0.03737641 0.09278376 0.1856817 0.18494196
0002d0 31 b8 0f bd d9 62 dc bd 30 42 02 bd 8a cb 20 3d
       -0.035087768 -0.10761041 -0.031801403 0.03925661
0002e0 fc 9c 6a bd 97 05 38 3e c9 e4 08 3e a2 2e e8 3d
       -0.05727862 0.17970882 0.13368525 0.113370195
0002f0 a0 7f 8e bd 1d eb a3 3d af ae 19 be 80 f1 a8 3d
       -0.06957936 0.08003829 -0.15008043 0.082491875
000300 ba d0 c1 bd c2 23 81 3d 71 16 08 3d da d6 e0 3d
       -0.094636396 0.063056484 0.033224527 0.1097848
000310 c4 75 ac bd 89 cb fd bd a9 d9 ba 3c 7a 7c 7b 3c
       -0.084208995 -0.12392337 0.022808867 0.015349502
000320 5f 05 db bb 09 72 f1 bd aa e5 3b be 05 ce f1 3c
       -0.00668399 -0.117893286 -0.18349329 0.029517183
000330 c7 5b 2e 3e 6f 45 5e 3d 75 03 ac bd 3b 0d 31 be
       0.17027198 0.054265436 -0.08399097 -0.17290203
000340 f5 39 73 3d c6 94 59 3c 3d 4b 9d bd bf 94 c4 3e
       0.059381444 0.013280099 -0.07680366 0.38394734
000350 6a 94 a4 3c 7a 6b 52 3d b7 93 37 3e 16 79 17 3d
       0.0200903 0.05137203 0.17927442 0.03698071
000360 b3 3b db 3d c9 b2 41 3e 1d a8 11 be 42 20 d8 bd
       0.10704746 0.18915857 -0.14224286 -0.10553028
000370 77 ae 01 bc f1 cc 1c be ca b2 00 3e 5d c0 bb bc
       -0.007915131 -0.15312554 0.12568203 -0.022918874
000380 eb 88 2c 3c 4b e6 68 bd c2 34 71 3d b0 a3 45 bc
       0.010530691 -0.05686025 0.058888204 -0.012062952
000390 e6 7a 16 be 4b e0 a8 bb 03 67 88 bd c8 d8 27 3e
       -0.1469532 -0.005153691 -0.06660273 0.16391289
0003a0 43 3c 0a be 3a 27 ed 3d c4 6d 12 be 22 2a 8a 3d
       -0.1349955 0.115797475 -0.14299685 0.067463174
0003b0 3a 87 4c 3e dc bc 13 be 14 01 05 be 5e 89 d0 3a
       0.1997346 -0.14427513 -0.12988693 0.0015910079
0003c0 f2 9b 1b 3e 8e dc e2 3d a9 fa 25 bd 2c f0 4f bc
       0.15196207 0.11077224 -0.04052225 -0.012691539
0003d0 f9 64 1f 3e a9 2b 5b bb ea 77 1c 3e 5d 21 86 3d
       0.15565862 -0.0033442772 0.15280119 0.06549332
0003e0 19 93 5d 3e 77 e0 a4 bc f1 48 35 bc 1d 9d 2d be
       0.21638145 -0.020126564 -0.011064754 -0.16954465
0003f0 8f 7b 99 3d 20 02 03 3d d3 87 be bd 5f 37 1b 3e
       0.0749427 0.03198445 -0.0930325 0.15157841

b_draw_mode f4 [4]
000000 cd 56 58 bb d5 47 f6 3b bd c9 af 3a dc 0e b6 bb
       -0.0033010722 0.0075158873 0.0013411563 -0.0055559706

W_lay_eggs_bin f4 [192, 11]
000000 0c 21 d6 bd 11 ee d8 bc eb d5 20 3d 95 b9 04 bd
       -0.10455522 -0.026480706 0.039266508 -0.032403547
000010 36 d5 13 3d 95 b1 d2 bd a1 bc 38 3e 43 46 05 3e
       0.036092006 -0.10287777 0.18040706 0.13015084
000020 3d 96 13 be 6f 95 92 3d bb 54 1b 3e 60 c0 0c be
       -0.1441278 0.071574084 0.15169041 -0.1374526
000030 be fc 05 bd d1 f4 01 be cf 5f 90 bc 28 47 da bc
       -0.032711737 -0.12691046 -0.01762381 -0.026645258
000040 dd ee ba 3c db 83 db bd 99 03 17 bd 69 aa b9 3d
       0.022818977 -0.10718509 -0.036868665 0.09065706
000050 13 e5 b1 3c 46 d4 54 3d 43 c6 e5 bd 16 3b 26 3c
       0.021715676 0.051960252 -0.11219456 0.010145923
000060 ca 66 e8 bd ea 7e 20 be 7f 33 2c 3d 97 5e 82 ba
       -0.113477305 -0.15673414 0.042041298 -0.0009946403
000070 2a 95 4f bd 38 ce 9a 3c 73 12 60 be ed d1 02 be
       -0.050679363 0.01889716 -0.21882038 -0.12775393
000080 b3 52 3a 3e 18 72 24 bd c0 ee d4 3c 57 c9 9c 3d
       0.1819561 -0.04014787 0.025992751 0.0765559
000090 3a 8f 2b 3e 17 a2 87 bd 8d 42 9c 3c 74 d7 b0 3d
       0.16753855 -0.06622713 0.019074703 0.086348444
0000a0 bf 23 4a be 79 b6 6a 3d 2c 88 69 bc 29 6b 0e 3e
       -0.19740199 0.057302926 -0.014253657 0.13908066
0000b0 8d 2d 92 bc e3 f8 bc bb b9 62 c9 3d 2f 8f 91 3d
       -0.017843986 -0.0057669743 0.09833283 0.07107388
0000c0 7e df 6a 3d bc 8c f5 bd d3 49 7d bd 60 3c b4 3d
       0.057342045 -0.119897336 -0.061837982 0.08800578
0000d0 15 68 13 3e d2 7a 66 bd 56 02 a5 3d c8 e8 ce bd
       0.14395173 -0.056269474 0.08057086 -0.10102993
0000e0 eb 97 96 bd 51 ee 36 3d bb c3 dd bd 5d 06 57 3d
       -0.07353195 0.04466087 -0.10828348 0.052496303
0000f0 a4 16 09 3e b0 ad 9b 3d 1d dd 1b bd a0 07 13 3e
       0.13387543 0.07601488 -0.038052667 0.14358377
000100 1d e3 9a 3c 86 3c cb 3d 2e 56 56 3e af ae 8f 3d
       0.018907124 0.09923653 0.20931312 0.0701574
000110 c3 eb 93 3d 49 20 5c bd c1 bc 95 3d 05 fb ea bd
       0.07222702 -0.053741727 0.073113926 -0.114736594
000120 bb 90 88 bd 8e 9c 04 bd 20 27 2e bd e7 b9 80 3b
       -0.0666823 -0.032375865 -0.04251778 0.0039284113
000130 8f a0 ac 3d 7d 4d 14 3e 74 aa 5f 3d ff 41 64 3c
       0.084290616 0.14482684 0.054605916 0.01393175
000140 a6 a9 c2 bd cb de d7 bd 5e fa 56 3d 42 62 5d bd
       -0.09505014 -0.10540541 0.052484863 -0.054048784
000150 9e 8b ef bd 05 a2 41 be d0 23 22 3e f8 da 56 bd
       -0.11696552 -0.18909462 0.15833974 -0.05245492
000160 ae 95 57 bb e6 6f a6 bd ce 09 d2 bd ac 2a 26 3d
       -0.0032895613 -0.08126812 -0.10255776 0.04056804
000170 ba 39 92 bd 2e 93 79 bd 17 08 93 ba b2 e3 04 3e
       -0.07139917 -0.060931377 -0.0011217621 0.12977484
000180 55 6e 8d 3d 43 77 9a 3c 20 f2 97 bd 0a d2 b7 bd
       0.0690581 0.018855697 -0.074192286 -0.08975609
000190 3a ec e5 bd 22 be 01 be f4 a4 bf 3d 0f cc 25 bd
       -0.11226697 -0.12670186 0.09357634 -0.04047781
0001a0 d1 06 19 be 8e 6b 5f be 80 dc ab bc 63 7f 56 bd
       -0.14944007 -0.21818373 -0.020979166 -0.05236758
0001b0 ef 6b 73 bc 73 a5 02 be d9 dd 4c be aa 5a 51 3d
       -0.014857276 -0.12758426 -0.20006503 0.051111855
0001c0 7c 12 6b bd 14 d5 8c be b5 6e 10 3c 3d a0 15 be
       -0.057390675 -0.27506316 0.008815457 -0.14611907
0001d0 9c 37 c3 3d a1 43 1b 3d e8 2e d0 bd 1f 4e c2 bc
       0.09532091 0.037906293 -0.10165197 -0.023718892
0001e0 c8 b1 ce 3b d8 35 dd 3d e2 35 e8 3d d6 93 b1 3d
       0.0063078143 0.108012855 0.11338402 0.086707756
0001f0 0e 7d fe 3d ce bc 85 bd ab c5 fb 3b dd b3 d8 3b
       0.12426196 -0.06530152 0.007683476 0.0066132382
000200 bc f8 03 bd 9e 1b 89 bc 1f 0f 9c bd 04 60 23 3d
       -0.032219633 -0.016736802 -0.076200716 0.03988649
000210 d6 fe 6b 3c 43 77 14 bd 09 79 63 bd 36 51 22 be
       0.014404019 -0.03624655 -0.05553535 -0.15851292
000220 e2 88 15 3e c3 82 77 3d a1 c6 ee 3d a3 67 0c 3e
       0.14602998 0.06042744 0.11658979 0.1371141
000230 4f c7 0f be e9 33 51 be 24 e6 4e be 28 3f 20 3c
       -0.14040874 -0.20429958 -0.20204979 0.009780683
000240 a4 39 06 be 42 1c 8c 3d 38 c1 0e 3e 49 ca 62 bb
       -0.13107926 0.06841327 0.13940895 -0.0034605435
000250 e4 41 2c bd 9f 8a cc bd 67 77 e2 bb 5b 4b d4 bc
       -0.042055026 -0.099873774 -0.0069112065 -0.025914839
000260 9e 08 87 bd 84 90 2f be 09 9f 1f 3d d4 46 39 bb
       -0.065934405 -0.17144972 0.038970027 -0.0028270977
000270 5a 01 e1 3d 03 ba bb bd 26 3b 50 3e 73 8f 03 3e
       0.10986586 -0.09166338 0.20335063 0.1284769
000280 d5 a2 60 3c 4b 40 84 bd 9e bc 9e bd e2 f0 42 3d
       0.013710697 -0.064575754 -0.077508196 0.047593005
000290 68 43 8a 3d 8e b2 ba 3c 47 cd d7 bd 4b 2b ff bc
       0.06751138 0.02279022 -0.105372004 -0.031148573
0002a0 fe 70 fb 3d 09 9c f4 3c 8b b8 56 3d cb 44 a9 bc
       0.12277411 0.02985956 0.052422088 -0.020662686
0002b0 27 b3 9f bb ec 13 8c 3d 2e 74 c9 bd 7b 3a f6 bd
       -0.0048736515 0.06839737 -0.09836613 -0.12022873
0002c0 88 56 4d 3c a6 11 ce 3d 5d 4b 18 bd 04 e8 af 3c
       0.012532838 0.1006196 -0.037181247 0.021472938
0002d0 5f e6 87 be 2a 44 f9 bd ed 11 43 3e 50 55 e8 3d
       -0.26542947 -0.121712044 0.19049807 0.11344397
0002e0 bb 89 91 bc ab 3e 6e 3e 61 71 29 bd c2 a7 00 3d
       -0.01776587 0.23266093 -0.041367892 0.031409986
0002f0 19 3c 28 bb 30 3e dd bc 3c 32 a3 3d 45 84 6a 3d
       -0.0025670587 -0.027007192 0.07968566 0.05725505
000300 ad cc ef 3c b8 75 47 3d 3d a6 ab bd 0b 0b 12 3d
       0.029272402 0.04869625 -0.08381317 0.035655063
000310 bc 17 1e 3e 4b 0f ab bd 01 4f ac 3c 05 e4 91 bd
       0.15438741 -0.08352526 0.021033766 -0.071235694
000320 85 42 eb bc b7 42 47 be 10 29 f7 bd ef 64 9a bd
       -0.028718242 -0.19459043 -0.12068379 -0.07538783
000330 31 6e 44 3d 72 f0 4b 3d 70 3c fb bb a2 4f 7b bd
       0.04795665 0.049789853 -0.007667117 -0.06135524
000340 88 59 b4 bd b9 81 67 bd 7f 97 7e 3d 6d 5b 03 bd
       -0.08806139 -0.056520198 0.062156197 -0.032069612
000350 eb f2 5c bd 9a e8 b0 bd fd c2 63 bd b9 fc 77 be
       -0.053942602 -0.08638115 -0.055605877 -0.242175
000360 5f a5 96 bd 39 2d bb bd ba d2 90 3d db e1 35 bd
       -0.07355761 -0.09139485 0.07071443 -0.044404846
000370 06 7c db bd 75 7b aa 3b db f4 1a bc ff 4b c0 bd
       -0.10717015 0.0052027055 -0.009457792 -0.09389495
000380 89 df 6d 3c e3 99 35 be 9b 05 e5 3b 3a d0 44 3d
       0.014518627 -0.17734484 0.0069891936 0.048050143
000390 90 6c ae 3d 08 2a d3 3d b2 cb 4b be 4d d2 54 bb
       0.085168004 0.10310751 -0.19901922 -0.0032473982
0003a0 f8 bc dd 3d 66 3e 40 be db 6f 05 3e 4c c6 0d be
       0.108270586 -0.18773803 0.1303095 -0.13845176
0003b0 a6 7a f2 3b c9 e0 85 bc e5 27 ff bc 2d a5 d4 bd
       0.0073998747 -0.016342537 -0.031146953 -0.10383067
0003c0 84 18 5e 3c 8f 37 08 3e 2e ab 9e 3d 3b ce 04 be
       0.01355565 0.13302444 0.07747494 -0.12969296
0003d0 f1 0a 04 3d a9 2f 8a 3d 42 e2 d6 bd c9 26 52 bd
       0.032236997 0.06747372 -0.10492374 -0.05130652
0003e0 6d 61 89 bd e7 96 2f 3d f6 e7 43 be 96 65 d3 3d
       -0.067080356 0.04286852 -0.19131455 0.1032211
0003f0 b9 b0 1b bd 50 83 64 bc b9 0f db 3d 92 50 8d 3d
       -0.038010333 -0.013947323 0.10696358 0.06900133

b_lay_eggs_bin f4 [11]
000000 13 ce 94 b9 14 07 01 3b 2d e6 4a 3b 1c 16 eb ba
       -0.00028382297 0.0019688057 0.003095995 -0.0017935666
000010 c0 fb 81 b9 fd 69 b4 b9 fc 18 87 b9 7e ce b8 b9
       -0.00024792366 -0.00034411243 -0.0002576782 -0.00035249064
000020 77 dd bf b9 72 89 bc b9 dd e3 8a ba
       -0.00036595363 -0.0003596056 -0.0010596473
