reports/ml/auto_improve_debug/best_model.npz (npz, 61970 bytes, 5 tensors)

W1 f4 [48, 64]
0.19030698 -0.02749088 -0.22408594 0.24683939 -0.31020308 -0.07469016 0.017817367 -0.13752426
-0.063727684 0.13295904 0.020729484 0.43234196 -0.03566263 -0.010790036 0.2403746 0.21106692
0.27701086 -0.05378556 0.13396308 -0.21462846 -0.06021782 -0.12306515 0.08727792 0.23759824
-0.03743184 -0.014163524 0.19731137 -0.1261326 0.2667781 -0.36930522 -0.0502671 0.009693825
-0.035208777 -0.08704653 -0.17582548 -0.3846781 -0.17195898 0.10106011 0.09115583 0.3788622
0.15139966 0.33935532 -0.15201373 -0.17867802 -0.028832396 0.10045288 -0.047974426 -0.047562182
0.20827122 -0.08064867 0.32383877 0.15905082 0.12419663 -0.15812239 0.10503554 0.06141793
0.2102512 -0.07944424 0.24297313 -0.48782817 -0.046607498 0.36353394 0.010762259 -0.05938385
0.32008943 -0.0694463 -0.12053043 0.0806864 0.084758304 0.076490924 -0.1302781 -0.084472254
-0.07928459 0.18900122 -0.1202278 -0.026797643 0.001754944 0.0246585 0.04744552 0.024728058
0.14304575 -0.22498147 -0.042380873 0.21711718 0.08816407 0.10587031 -0.026058337 0.00048195512
0.06671904 0.3213561 -0.101622544 0.23900168 -0.23083307 -0.10361072 0.07468501 0.02421775
-0.14540207 0.031801358 0.2808807 -0.1739476 -0.20236166 -0.12595963 0.07365908 0.14812973
0.14382586 0.17484012 0.22467428 -0.10959995 0.099956594 0.39488065 0.12483712 0.51966536
0.17240101 -0.101576656 -0.13430116 0.03151357 -0.25215125 -0.32471842 -0.27775115 0.10107045
-0.3122266 0.0047525326 0.30752093 -0.21176994 0.13087007 0.2894951 0.099404804 -0.2423382
-0.12202293 0.1122711 -0.2617388 -0.4241068 0.4208036 -0.11278211 0.10405791 -0.27834406
-0.040307745 0.2331499 0.12766068 -0.012524575 -0.17513514 0.40484408 -0.013952816 -0.39902812
0.21382253 -0.32899588 -0.03562379 -0.003356341 -0.2003739 0.038570754 -0.10059795 0.10326984
0.17659654 0.088579364 0.041667327 -0.10757621 0.219575 -0.13014086 0.35045844 0.017756863
0.41549176 -0.034658197 -0.042390052 0.087250285 0.14235662 0.29691252 0.037746813 0.14308351
0.1228905 -0.17327541 0.090749115 -0.28602862 -0.1380133 -0.045593962 0.28254104 0.008421733
0.22573486 -0.021755954 0.16590181 -0.2707531 0.06545629 -0.10619904 0.12329202 -0.10411307
-0.2866959 -0.23589411 0.1398647 -0.10360599 0.052064456 -0.36856055 0.06939052 -0.002646216
-0.22876203 0.23351662 0.10340484 -0.24131657 -0.14445408 0.017404396 0.44876945 -0.0009896859
-0.15662546 0.12880617 0.059151556 0.12271154 -0.13489194 0.12090141 -0.51168513 0.06726098
-0.23090209 -0.2720686 -0.1630043 -0.06416471 -0.071349785 0.08712802 -0.19183962 0.035862282
-0.10426452 0.05504884 0.17129289 0.21481946 0.2726884 -0.26358715 -0.030355485 0.18797857
0.11368875 -0.30039382 -0.34519795 0.11099207 0.26878545 -0.1904318 0.017415635 0.026665663
0.33665296 -0.02067873 0.22224592 0.11077121 -0.019326786 -0.2278695 -0.09419418 0.22965477
-0.035881296 0.07961529 -0.22246428 -0.38664213 -0.20473924 0.28623533 0.0884888 -0.16085494
-0.30820015 0.34744656 -0.014946469 -0.0035759755 -0.2302838 0.23223677 -0.03281599 -0.10521401
00000000: d5df 423e 8e34 e1bc c976 65be 77c3 7c3e
00000010: f0d2 9ebe 28f7 98bd baf5 913c 29d3 0cbe
00000020: a983 82bd 6a26 083e e1d0 a93c ed5b dd3e
00000030: fa12 12bd b1c8 30bc c224 763e ed21 583e
00000040: 5ed4 8d3e 3f4e 5cbd 9e2d 093e 90c7 5bbe
00000050: f6a6 76bd 9509 fcbd c4be b23d f44c 733e
00000060: 2152 19bd 200e 68bc fe0b 4a3e e728 01be
00000070: 2497 883e 9315 bdbe e0e4 4dbd d9d2 1e3c
00000080: 1437 10bd 7345 b2bd 980b 34be 87f4 c4be
00000090: 0416 30be 9af8 ce3d e8af ba3d 3afa c13e
000000a0: 8308 1b3e fbbf ad3e 7da9 1bbe 5ff7 36be
000000b0: eb31 ecbc 3dba cd3d d580 44bd 90d0 42bd
000000c0: 0d45 553e 212b a5bd 32ce a53e 38de 223e
000000d0: ce5a fe3d d6ea 21be e01c d73d 5e91 7b3d
000000e0: 174c 573e a9b3 a2bd f3cd 783e 9dc4 f9be
000000f0: 81e7 3ebd 1f21 ba3e 3054 303c 7b3c 73bd
00000100: c3e2 a33e dd39 8ebd a8d8 f6bd e93e a53d
00000110: c395 ad3d 46a7 9c3d 9f67 05be caff acbd
00000120: f65f a2bd 8989 413e fe39 f6bd bb86 dbbc
00000130: 2606 e63a 9f00 ca3c 3c56 423d 7f92 ca3c
00000140: 967a 123e 8b61 66be 9197 2dbd f753 5e3e
00000150: 5d8f b43d 88d2 d83d 4b78 d5bc ecae fc39
00000160: fea3 883d c988 a43e 7b1f d0bd dbbc 743e
00000170: 815f 6cbe db31 d4bd 74f4 983d 4e64 c63c
00000180: 48e4 14be 2442 023d 98cf 8f3e 521f 32be
00000190: e537 4fbe 90fb 00be 92da 963d 52af 173e
000001a0: 1647 133e 4a09 333e 0411 663e f075 e0bd
000001b0: 0bb6 cc3d cc2d ca3e 9baa ff3d ca08 053f
000001c0: e489 303e 6c07 d0bd 3e86 09be 6014 013d
000001d0: f819 81be 7e41 a6be 6635 8ebe 06fe ce3d
000001e0: 2adc 9fbe 22bb 9b3b 6273 9d3e 38da 58be
000001f0: ce02 063e b438 943e bf94 cb3d 8127 78be
00000200: 28e7 f9bd 64ee e53d a102 86be 8724 d9be
00000210: 9273 d73e 4ffa e6bd 501c d53d 1d83 8ebe
00000220: bc19 25bd d9be 6e3e 7bb9 023e e033 4dbc
00000230: a056 33be b947 cf3e 5a9a 64bc 6a4d ccbe
00000240: 4bf4 5a3e 2672 a8be 40ea 11bd 0ff6 5bbb
00000250: d12e 4dbe 5efc 1d3d 4c06 cebd 237f d33d
00000260: b9d5 343e 1969 b53d 5cab 2a3d ea50 dcbd
00000270: 45d8 603e a543 05be 4a6f b33e d776 913c
00000280: 56bb d43e c1f5 0dbd 31a1 2dbd 47b0 b23d
00000290: efc5 113e eb04 983e 679c 1a3d 7c84 123e
000002a0: 04ae fb3d 1c6f 31be acda b93d 5872 92be
000002b0: 5c53 0dbe bcc0 3abd 38a9 903e 4ffb 093c
000002c0: 0a27 673e 8b39 b2bc 2ae2 293e 26a0 8abe
000002d0: f30d 863d e27e d9bd 8780 fc3d 3c39 d5bd
000002e0: cec9 92be 3a8e 71be b138 0f3e 612f d4bd
000002f0: 8a41 553d f8b3 bcbe 9e1c 8e3d 236c 2dbb
00000300: 9840 6abe fb1e 6f3e ebc5 d33d b11b 77be
00000310: c5eb 13be aa93 8e3c 1cc5 e53e 59b8 81ba
00000320: 6d62 20be c4e5 033e e748 723d 3050 fb3d
00000330: 1d21 0abe 299b f73d ccfd 02bf 20c0 893d
00000340: 9971 6cbe 934c 8bbe 99ea 26be ca68 83bd
00000350: d61f 92bd 2d70 b23d 9b71 44be 54e4 123d
00000360: a388 d5bd e47a 613d 6767 2f3e a2f9 5b3e
00000370: d09d 8b3e e5f4 86be 11ac f8bc 747d 403e
00000380: a6d5 e83d 38cd 99be c9bd b0be cf4f e33d
00000390: 3f9e 893e 8e00 43be 3cab 8e3c f371 da3c
000003a0: c75d ac3e 7166 a9bc 6f94 633e 04dc e23d
000003b0: 3553 9ebc 9f56 69be e1e8 c0bd 9f2a 6b3e
000003c0: 44f8 12bd 570d a33d adcd 63be f5f5 c5be
000003d0: 2aa7 51be 708d 923e 9e39 b53d 28b7 24be
000003e0: 69cc 9dbe 84e4 b13e 09e2 74bc ea5a 6abb
000003f0: 84cf 6bbe 7acf 6d3e 0f6a 06bd 717a d7bd

b1 f4 [64]
-2.542922e-06 2.317775e-05 7.210265e-06 -1.0828947e-05 9.8645025e-05 0.0 -6.454539e-05 -4.9699134e-05
0.0 -9.472214e-05 -7.6458826e-05 -0.0001045955 0.0 6.08436e-05 -1.4903064e-05 -2.6934256e-05
1.3305865e-06 -2.9656072e-05 -1.941406e-05 -0.00013558367 5.4156397e-05 0.00024562635 0.0 -2.0859636e-05
-2.5475265e-06 2.0635238e-05 1.3089173e-05 -7.223389e-07 -5.88478e-05 2.5807874e-05 -1.9944648e-05 5.1307812e-05
7.356042e-05 2.5031157e-05 0.0 0.0 5.1987892e-05 0.00015070391 0.0 -0.00017019844
-0.00033326348 -1.7698649e-05 -9.585414e-05 -0.00013332232 -0.00018439311 2.5149893e-07 0.00012563929 -5.4281704e-06
-3.4416098e-05 0.0 -4.9570124e-05 4.8684386e-05 0.0 1.6219092e-05 2.9773186e-05 2.7780909e-05
-8.449984e-06 -4.8396636e-05 -5.79855e-06 -8.639741e-06 -0.00017687358 4.5723384e-05 -1.9165154e-06 -0.00013594718
00000000: 11a7 2ab6 d76d c237 b4ef f136 f9ad 35b7
00000010: a5df ce38 0000 0000 8b5c 87b8 0a74 50b8
00000020: 0000 0000 90a5 c6b8 8558 a0b8 485a dbb8
00000030: 0000 0000 5132 7f38 2c08 7ab7 e0f0 e1b7
00000040: 9b96 b235 eec5 f8b7 60db a2b7 772b 0eb9
00000050: fd25 6338 69c7 8039 0000 0000 bafb aeb7
00000060: 2cf6 2ab6 d619 ad37 9299 5b37 c0e6 41b5
00000070: 58d3 76b8 fd7d d837 ce4e a7b7 5833 5738
00000080: 7344 9a38 00fa d137 0000 0000 0000 0000
00000090: 930d 5a38 4606 1e39 0000 0000 4c77 32b9
000000a0: deb9 aeb9 8f77 94b7 4d05 c9b8 70cc 0bb9
000000b0: a659 41b9 c005 8734 0abe 0339 a123 b6b6
000000c0: 015a 10b8 0000 0000 84e9 4fb8 7632 4c38
000000d0: 0000 0000 3c0e 8837 6ec1 f937 0c0b e937
000000e0: 68c4 0db7 7efd 4ab8 2a91 c2b6 68f3 10b7
000000f0: 2477 39b9 1cc7 3f38 7c9d 00b6 0b8d 0eb9

Wp f4 [64, 200]
-0.22942421 -0.06855673 0.0484621 -0.04065842 -0.17194672 -0.079962395 -0.24640428 0.101142995
0.3218333 -0.057549357 -0.04352867 -0.119084194 0.33000156 0.185525 0.24569024 -0.09331174
-0.08463559 0.25519395 0.040713232 -0.36512893 -0.09394561 0.007043501 -0.06062406 -0.15887618
0.23166485 0.059702184 -0.16545247 -0.012349956 0.02992907 -0.09751533 0.18017286 -0.5058548
0.11978293 -0.18475997 0.117164366 0.08612941 -0.15132211 -0.08226055 0.105020806 0.20198621
0.044306103 0.030961964 0.28108498 -0.11205836 -0.28367648 0.022107508 0.061759192 0.33795774
-0.44982997 -0.43439284 0.49352434 -0.10354988 0.05141755 0.03750449 -0.051197484 0.046522412
-0.11790929 -0.16042899 -0.0013380605 0.0068592173 -0.22824767 -0.023097612 0.06335388 -0.18564348
-0.10798474 -0.09479602 0.11531655 0.08647763 -0.32391265 -0.22102262 -0.042689107 0.3214483
0.010348019 -0.13739106 -0.004778132 -0.022340287 0.18170173 -0.14253862 0.080755174 -0.106689446
0.09395477 -0.07048543 -0.0495775 -0.2906824 0.09455127 0.22228484 -0.21415585 0.06412965
0.1992479 0.26151016 -0.23699765 0.11504797 -0.023886792 -0.2259571 0.026603146 0.06484953
-0.14846088 0.28511837 0.15429053 -0.038213674 -0.058208127 0.0002456435 -0.09313587 -0.20073858
0.35013086 -0.16698281 0.053688917 -0.24980384 -0.08724625 0.10889228 0.36914936 0.03733224
0.02369235 -0.069825776 -0.03241116 -0.1574343 -0.090176694 -0.094179414 0.05797866 -0.16077009
0.06397434 0.03781128 -0.12252354 -0.13862936 -0.15360501 0.11381877 -0.42438906 0.23497239
-0.14956364 -0.1421533 -0.16181953 -0.109274425 -0.1451006 0.26928073 -0.17094404 0.14443652
0.12893364 -0.26312304 0.0022945937 -0.24123652 -0.16365492 0.20943186 0.11666694 -0.06593934
-0.2438783 -0.09082458 -0.10848312 0.44119042 -0.16690329 -0.06471659 -0.0861234 -0.12547441
0.13772099 0.23158218 -0.13779682 0.30088824 0.06873113 0.034109194 0.044425845 -0.1316273
0.18191859 -0.18779084 -0.0016802504 0.031903148 0.14346482 -0.11396135 -0.14890721 0.018882958
-0.2855015 0.006921129 0.0956452 -0.14651471 -0.23010866 0.10959167 0.05218216 0.203415
0.019923024 0.31102797 -0.19015904 0.012804128 0.1274201 -0.18463005 0.20611502 0.15882705
0.086945415 0.21080442 -0.23718798 0.20831268 -0.28940976 0.081016086 0.11677538 -0.23622504
0.06807686 0.33019373 -0.17245038 0.49753505 0.04885922 0.17524545 -0.09953022 0.14360256
-0.05295631 -0.059152607 -0.12834692 0.019635674 0.078047425 -0.28660083 -0.13884208 0.007043148
-5.7445744e-05 -0.096446596 0.02454964 0.05326016 0.16311723 0.05143328 -0.079749 0.017227441
0.4085373 0.09210413 0.18347964 -0.12557425 0.08053945 -0.21758598 0.007383021 0.036982697
0.028631574 -0.10972444 -0.058002166 0.11004772 0.20407775 0.17430688 -0.113519326 0.06304954
-0.1640589 -0.043563396 0.09478222 0.016500948 -0.20583169 -0.10611178 0.073075876 -0.13481382
-0.18791729 0.24794638 -0.5673207 -0.10564172 0.08448595 0.054395404 0.33934185 0.01600014
-0.06539045 -0.12178306 0.044589 0.059727922 -0.004756328 -0.086251296 -0.07334536 0.07845696
00000000: 2eee 6abe 7967 8cbd 3280 463d 7289 26bd
00000010: cd12 30be 53c3 a3bd 6751 7cbe 0f24 cf3d
00000020: 56c7 a43e e0b8 6bbd 1e4b 32bd 6ae2 f3bd
00000030: f7f5 a83e 44fa 3d3e 3996 7b3e 3a1a bfbd
00000040: 6d55 adbd c8a8 823e ebc2 263d 2ef2 babe
00000050: 8e66 c0bd 2bcd e63b ef50 78bd 70b0 22be
00000060: 8d39 6d3e 478a 743d 5f6c 29be 7857 4abc
00000070: cf2d f53c 1eb6 c7bd 3c7f 383e b37f 01bf
00000080: c150 f53d b831 3dbe dff3 ef3d 9e64 b03d
00000090: 2ff4 1abe 3878 a8bd 2615 d73d 79d5 4e3e
000000a0: 517a 353d f2a3 fd3c 5fea 8f3e da7e e5bd
000000b0: 0b3e 91be ce1a b53c 35f7 7c3d cc08 ad3e
000000c0: 1d50 e6be bd68 debe 39af fc3e f611 d4bd
000000d0: 359b 523d 4f9e 193d 74b4 51bd 498e 3e3d
000000e0: 6d7a f1bd 7f47 24be dc61 afba 49c3 e03b
000000f0: c2b9 69be 3437 bdbc aebf 813d 5319 3ebe
00000100: 1a27 ddbd 6a24 c2bd 152b ec3d 2f1b b13d
00000110: e1d7 a5be c153 62be c6da 2ebd df94 a43e
00000120: bd8a 293c 3eb0 0cbe e091 9cbb fa02 b7bc
00000130: 0510 3a3e a5f5 11be f862 a53d ff7f dabd
00000140: 5c6b c03d aa5a 90bd c711 4bbd 53d4 94be
00000150: 19a4 c13d a39e 633e ac4b 5bbe 6856 833d
00000160: a407 4c3e a9e4 853e 83af 72be 459e eb3d
00000170: 3cae c3bc 4c61 67be d7ee d93c d5cf 843d
00000180: 2106 18be 09fb 913e 56fe 1d3e f185 1cbd
00000190: a56b 6ebd b6c9 8039 05be bebd 6a8e 4dbe
000001a0: 5a44 b33e 8bfd 2abe e9e8 5b3d 94cc 7fbe
000001b0: 29ae b2bd ea02 df3d 2501 bd3e b1e9 183d
000001c0: 7616 c23c d100 8fbd 91c1 04bd 7536 21be
000001d0: 8fae b8bd 23e1 c0bd 087b 6d3d eaa0 24be
000001e0: fb04 833d 00e0 1a3d 9fed fabd dbf4 0dbe
000001f0: a24a 1dbe d119 e93d 8649 d9be 9a9c 703e
00000200: 3627 19be a290 11be 05b4 25be 45cb dfbd
00000210: 4095 14be 2adf 893e f40b 2fbe 2be7 133e
00000220: 2e07 043e 10b8 86be e560 163b b506 77be
00000230: 2895 27be 4e75 563e 14ef ee3d 340b 87bd
00000240: 3cbb 79be 3d02 babd 662c debd b6e3 e13e
00000250: b2e8 2abe 228a 84bd 7761 b0bd 5d7c 00be
00000260: bb06 0d3e e123 6d3e 9c1a 0dbe 060e 9a3e
00000270: e8c2 8c3d 15b6 0b3d e0f7 353d 4fc9 06be
00000280: de48 3a3e 3e4c 40be d93b dcba e0ac 023d
00000290: 71e8 123e 9164 e9bd 227b 18be 6fb0 9a3c
000002a0: 412d 92be a3ca e23b a1e1 c33d f407 16be
000002b0: 9ba1 6bbe 9971 e03d f6bc 553d 064c 503e
000002c0: 9c35 a33c 0f3f 9f3e 0db9 42be 68c8 513c
000002d0: 6a7a 023e a90f 3dbe d10f 533e 8fa3 223e
000002e0: 7010 b23d 1ddd 573e 68e1 72be eb4f 553e
000002f0: 842d 94be c3eb a53d ee27 ef3d fae4 71be
00000300: e16b 8b3d 270f a93e d596 30be eabc fe3e
00000310: 9b20 483d 8b73 333e 80d6 cbbd 8d0c 133e
00000320: b7e8 58bd 014a 72bd 606d 03be feda a03c
00000330: 54d7 9f3d 58bd 92be 9e2c 0ebe 35ca e63b
00000340: e6f1 70b8 cb85 c5bd 541c c93c 5327 5a3d
00000350: 3408 273e b4ab 523d 7253 a3bd 9020 8d3c
00000360: cd2b d13e 17a1 bc3d 16e2 3b3e 8996 00be
00000370: def1 a43d dcce 5ebe 45ed f13b 2b7b 173d
00000380: c38c ea3c 35b7 e0bd ae93 6dbd b360 e13d
00000390: c2f9 503e 817d 323e d27c e8bd 1e20 813d
000003a0: 0eff 27be 886f 32bd 2e1d c23d ff2c 873c
000003b0: 8bc5 52be 2251 d9bd cea8 953d a20c 0abe
000003c0: 646d 40be a8e5 7d3e ee3b 11bf b05a d8bd
000003d0: f806 ad3d b7cd 5e3d 37be ad3e ba12 833c
000003e0: 6eeb 85bd 6669 f9bd f5a2 363d 44a5 743d
000003f0: f9da 9bbb 85a4 b0bd 1836 96bd 0bae a03d

bp f4 [200]
2.9559122e-05 -7.0405827e-07 -8.741848e-07 3.0311765e-05 -1.7089498e-06 2.9629247e-05 -3.09894e-06 -1.1099325e-05
-1.1385474e-05 -7.266923e-06 -4.2630574e-05 -1.8387948e-06 -1.7442964e-05 -3.3673798e-06 -3.122952e-06 -1.6240557e-06
-3.256374e-06 -1.2050026e-05 -1.1013865e-05 -3.5236273e-05 -2.8496286e-05 -1.5461888e-05 -1.2113835e-05 -1.2493887e-05
5.9720445e-05 -2.6604903e-06 -8.174291e-06 -6.597402e-06 -9.41634e-06 -7.829802e-06 -5.8791893e-06 -9.623571e-06
-4.0563473e-06 1.2604645e-05 -4.343092e-06 -2.4863466e-06 2.326464e-05 -4.545501e-06 -1.9980043e-06 7.726471e-05
2.9560855e-05 4.152114e-05 -2.0902578e-05 -2.427215e-05 -2.6649373e-05 -2.4138848e-05 0.00013851692 -3.315965e-05
-4.881843e-05 -2.100336e-05 -4.6813984e-05 -6.0496313e-05 -5.8731843e-05 -2.7063732e-05 -2.7591206e-05 -4.2406333e-05
-2.0823367e-05 -2.8717306e-05 -5.7491037e-05 -8.5781925e-05 -7.6621785e-05 -3.327978e-05 -3.952341e-05 -3.3525266e-05
-2.8767663e-05 -1.0455626e-05 -1.3005478e-05 -8.149988e-06 -1.1445579e-05 -7.973761e-05 -0.00013195563 -7.992253e-05
-0.00010118968 6.6140376e-05 -3.5620214e-05 0.00011498432 -4.853125e-05 -3.7933572e-05 -3.6762667e-05 -2.563888e-05
0.00020488322 0.00031770105 0.00045192413 3.0808482e-05 -4.6377263e-05 -5.5523793e-05 -5.8221326e-06 -4.6303985e-06
5.744758e-05 -5.7575213e-05 -5.637323e-05 -2.9152528e-05 2.237711e-05 2.6086107e-05 -2.211784e-05 1.5745958e-05
4.6721856e-05 -8.714963e-06 2.5166839e-05 -4.179327e-06 5.3072916e-05 2.5288293e-05 -5.246295e-06 -1.7273918e-05
-1.4361821e-05 -6.3777475e-06 -6.7838073e-06 3.0016728e-05 -7.6143976e-07 -5.6685747e-07 -3.8004623e-07 -1.0080772e-06
2.9719702e-05 -8.041123e-07 -6.8126025e-07 -7.918843e-07 -8.6223264e-07 -4.532159e-07 -8.7747884e-07 -2.0569507e-06
-2.7024478e-06 -2.3442155e-06 -9.143058e-06 2.3917792e-05 -7.98867e-06 -6.783411e-06 -1.0577902e-05 -6.3151474e-06
-2.4673083e-05 -8.4469946e-07 -4.973268e-07 -5.599988e-07 -7.1803095e-07 -8.163717e-07 -9.0061644e-07 -1.2881613e-06
-2.6441626e-07 -6.85616e-07 -8.3681005e-07 -1.1140481e-06 -6.711612e-07 -7.0545246e-07 -6.573076e-07 3.0173047e-05
2.7589005e-05 0.0 4.8361242e-05 -1.1286422e-06 -3.901161e-06 -6.4879896e-07 -6.078761e-07 2.953249e-05
-4.0774885e-06 -1.8488508e-06 -8.912872e-07 3.0169585e-05 -1.8609198e-06 -1.5695564e-06 -4.572258e-06 -3.0023152e-06
-1.2147796e-06 -2.399063e-05 -4.4678454e-06 -1.4855499e-05 -1.4566345e-05 -9.402585e-06 -1.5127112e-05 -1.2524433e-05
9.601605e-05 -8.829412e-07 3.085012e-05 -8.6165574e-07 -5.2447166e-07 -9.691795e-07 3.0210253e-05 0.0
0.0 -2.615385e-07 -3.2858858e-07 -4.7250467e-07 -2.798156e-07 0.0 -5.2632197e-07 -4.058272e-07
0.0 -5.388201e-07 -9.021432e-07 -4.110458e-07 -5.958923e-07 -2.3278626e-06 -1.0457006e-06 -5.180976e-06
-2.4244205e-06 -4.1511328e-07 -1.94589e-06 -1.9445642e-06 -1.5072983e-06 -3.6319477e-07 3.091438e-05 -7.3074636e-07
00000000: bbf5 f737 84fe 3cb5 86a9 6ab5 0546 fe37
00000010: 115f e5b5 538c f837 62f7 4fb6 3d37 3ab7
00000020: 3d04 3fb7 65d6 f3b6 3bce 32b8 82cc f6b5
00000030: 7b52 92b7 25fb 61b6 e893 51b6 21fa d9b5
00000040: 1488 5ab6 782a 4ab7 31c8 38b7 a9ca 13b8
00000050: 4f0b efb7 27b4 81b7 863c 4bb7 d69c 51b7
00000060: 577c 7a38 e08a 32b6 5024 09b7 405f ddb6
00000070: dffa 1db7 be5c 03b7 da45 c5b6 ec74 21b7
00000080: c21b 88b6 8a78 5337 e0ba 91b6 1cdb 26b6
00000090: 6f28 c337 8e85 98b6 7415 06b6 2d09 a238
000000a0: 74f9 f737 fc26 2e38 f257 afb7 0c9c cbb7
000000b0: 188d dfb7 c87d cab7 da3e 1139 e714 0bb8
000000c0: 64c2 4cb8 5f30 b0b7 225a 44b8 6cbd 7db8
000000d0: d656 76b8 ec06 e3b7 aa73 e7b7 74dd 31b8
000000e0: d7ad aeb7 f2e5 f0b7 8822 71b8 d2e5 b3b8
000000f0: 02b0 a0b8 e495 0bb8 f0c5 25b8 7b9d 0cb8
00000100: 1652 f1b7 926a 2fb7 1a32 5ab7 efbb 08b7
00000110: 6306 40b7 ce38 a7b8 925d 0ab9 159c a7b8
00000120: cc35 d4b8 d8b4 8a38 ea66 15b8 bd23 f138
00000130: 088e 4bb8 dd1a 1fb8 9d31 1ab8 1313 d7b7
00000140: ecd5 5639 1d91 a639 3bf0 ec39 5b38 0138
00000150: 3585 42b8 38e2 68b8 bd5b c3b6 d25e 9bb6
00000160: dff3 7038 ea7c 71b8 4b72 6cb8 948c f4b7
00000170: 7ab6 bb37 7dd3 da37 b389 b9b7 3016 8437
00000180: 36f7 4338 7b36 12b7 601d d337 253c 8cb6
00000190: 9c9a 5e38 3222 d437 5509 b0b6 75e7 90b7
000001a0: 8df3 70b7 6f00 d6b6 76a0 e3b6 6fcc fb37
000001b0: be65 4cb5 262a 18b5 2809 ccb4 454d 87b5
000001c0: 934e f937 2dda 57b5 d9df 36b5 e091 54b5
000001d0: 2d74 67b5 8551 f3b4 e38b 6bb5 250a 0ab6
000001e0: b35b 35b6 5151 1db6 2365 19b7 11a3 c837
000001f0: 1407 06b7 0f9d e3b6 be77 31b7 b4e6 d3b6
00000200: 0bf9 ceb7 4ebf 62b5 0a80 05b5 d352 16b5
00000210: b6be 40b5 a324 5bb5 e4c1 71b5 e3e4 acb5
00000220: 18f5 8db4 2c0b 38b5 26a1 60b5 6786 95b5
00000230: d929 34b5 535e 3db5 d671 30b5 201c fd37
00000240: f06e e737 0000 0000 7dd7 4a38 da7b 97b5
00000250: b8e6 82b6 2029 2eb5 ed2c 23b5 8abc f737
00000260: 5cd1 88b6 0826 f8b5 ca40 6fb5 b114 fd37
00000270: b8c4 f9b5 8ca9 d2b5 666b 99b6 627b 49b6
00000280: 820b a3b5 7c3f c9b7 80ea 95b6 e23b 79b7
00000290: fa61 74b7 ccbf 1db7 74ca 7db7 0820 52b7
000002a0: 395c c938 4203 6db5 1065 0138 884c 67b5
000002b0: 6bc9 0cb5 c114 82b5 066c fd37 0000 0000
000002c0: 0000 0000 9469 8cb4 df68 b0b4 8cac fdb4
000002d0: 9039 96b4 0000 0000 9248 0db5 77e0 d9b4
000002e0: 0000 0000 6fa3 10b5 cf2a 72b5 b4ad dcb4
000002f0: 68f5 1fb5 6038 1cb6 005a 8cb5 3fd8 adb6
00000300: 3ab3 22b6 bcdc deb4 2396 02b6 5c7f 02b6
00000310: 604e cab5 1cfd c2b4 10aa 0138 8228 44b5

Wv f4 [64]
-0.08970618 -0.1693633 -0.03351446 -0.22795945 0.29554677 0.17867818 0.18810798 0.09587712
0.19458401 -0.088629425 -0.22646452 -0.0141479 0.3035665 -0.13987769 -0.32395622 -0.25539896
0.069058016 0.23987803 -0.12163023 0.011512583 0.06813385 -0.08844446 0.10987332 -0.14949033
0.027238214 0.4894309 0.2254726 -0.0903562 -0.06899492 0.04954668 -0.07948359 0.1885941
0.20572884 -0.01897083 -0.33650628 -0.06570797 -0.31697866 -0.12359747 0.12661043 -0.07995715
-0.03299902 -0.31869617 -0.16967607 -0.16447781 0.07970125 0.13042447 -0.007063239 0.27393365
0.13863394 -0.131901 -0.06915763 0.0848432 0.14274062 0.054267917 0.08732257 0.079365134
0.038101964 -0.02813714 -0.00451496 0.024312487 0.04726501 -0.014603655 -0.016346043 0.28320637
00000000: e0b7 b7bd 936d 2dbe 7546 09bd 346e 69be
00000010: e851 973e 6af7 363e 619f 403e 395b c43d
00000020: 0841 473e 5883 b5bd 51e6 67be 98cc 67bc
00000030: 116d 9b3e 193c 0fbe 97dd a5be a7c3 82be
00000040: 4a6e 8d3d 96a2 753e 4519 f9bd 469f 3c3c
00000050: c389 8b3d 5e22 b5bd 4305 e13d fe13 19be
00000060: ad22 df3c b096 fa3e 4ae2 663e ac0c b9bd
00000070: 354d 8dbd 76f1 4a3d 4bc8 a2bd d01e 413e
00000080: 95aa 523e b768 9bbc 8d4a acbe e691 86bd
00000090: 074b a2be ac20 fdbd 2aa6 013e 93c0 a3bd
000000a0: fb29 07bd 252c a3be 90bf 2dbe df6c 28be
000000b0: 693a a33d fe8d 053e be72 e7bb 0841 8c3e
000000c0: 0ef6 0d3e 0e11 07be 84a2 8dbd 46c2 ad3d
000000d0: 992a 123e 0948 5e3d 2dd6 b23d 308a a23d
000000e0: ce10 1c3d dc7f e6bc 3bf2 93bb fb2a c73c
000000f0: f598 413d 2b44 6fbc 23e8 85bc 6d00 913e
