reports/ml/auto_improve_factorized_phase3_long/iter_003/factorized_model.npz (npz, 71982 bytes, 17 tensors)

W1 f4 [48, 192]
000000 b5 81 a5 bc 92 2b ab bd f9 d3 74 3e a2 b5 45 3d
       -0.02020345 -0.0835792 0.23908986 0.04826892
000010 bd a3 14 3e 9d 2f a9 3e fa 45 20 3e 90 13 94 bd
       0.14515586 0.3304414 0.15651694 -0.07230294
000020 50 e8 4a 3d 05 4e 0c bc 09 48 84 be 35 3f a6 3d
       0.049537957 -0.008563523 -0.25836208 0.081175245
000030 3b 00 4b be f1 4f fe 3d 03 a0 83 3e 39 b3 8a 3d
       -0.19824307 0.12417591 0.25708017 0.06772465
000040 b9 0e 0b 3d 11 e7 53 3e c2 68 8f 3e 0f 49 de bd
       0.033949587 0.20693614 0.2800961 -0.108537786
000050 c3 ee 38 3d 74 c3 a5 bd 73 9e 9d bd 3c 6b 3b 3e
       0.045149576 -0.0809392 -0.076962374 0.18302625
000060 2d fb 82 3e f1 fa 16 3e a7 96 a3 be 80 e3 a8 be
       0.25582257 0.14744164 -0.31950876 -0.3298607
000070 21 d4 6e 3b 72 bc 8f 3e 96 6c 14 3e 65 c7 8f 3e
       0.0036442357 0.2807346 0.14494547 0.28081813
000080 e2 f8 fb 3e 72 b8 dd 3d fc 31 8b be ed ed 8e bd
       0.4921332 0.10826196 -0.27186573 -0.069789745
000090 be f4 70 3e 04 11 80 3d 6e f0 c8 3e 17 d6 23 3e
       0.23530862 0.062532455 0.39245933 0.15999638
0000a0 3e 3a 99 3e b7 e0 dd 3c 2a 46 a0 bc 6a fc 4d be
       0.29927248 0.027084691 -0.019564707 -0.2011582
0000b0 4f 09 f5 3d 19 c9 63 3e 4a e8 b5 bd 84 e9 96 3e
       0.11964666 0.22244681 -0.08882196 0.29475033
0000c0 c3 a1 fb bd 97 0f 0f 3e c3 d0 bb 3a f8 26 09 bc
       -0.12286713 0.13970791 0.0014329184 -0.008371107
0000d0 4a 01 91 3e 91 6c 69 3e f8 c2 f6 bd 4b 9f d6 3d
       0.28321296 0.22795321 -0.12048906 0.104796015
0000e0 00 c4 89 be 0b f9 90 3d 07 54 2a 3d 08 48 f8 bd
       -0.2690735 0.07078751 0.04158404 -0.12123114
0000f0 80 a1 4c be 61 58 15 3e 12 7d c7 be 14 71 77 bd
       -0.19983482 0.14584495 -0.3896261 -0.060410574
000100 c7 94 0a 3e e4 ff 3a 3e a6 e7 45 3d bc b3 2e be
       0.13533317 0.18261677 0.04831662 -0.1706075
000110 69 7c 2a be cd 21 36 be 3b 62 d9 bd 81 d5 8f 3e
       -0.16649021 -0.17786331 -0.10614439 0.28092578
000120 cd 9b d7 bd ad 03 41 be 99 95 d3 be ea a6 a1 3d
       -0.105277635 -0.18849058 -0.4132507 0.078931645
000130 e8 9e b1 3d e3 ad 8c bd c2 ac dc 3d e2 a6 6e be
       0.08672887 -0.06869104 0.107751384 -0.23305848
000140 27 b5 5b be 90 7e 31 be 91 b1 d8 3d b0 09 cb bd
       -0.21455823 -0.17333436 0.10580743 -0.09913957
000150 40 da 20 be d5 12 4e be dc 6a d6 3e e0 d6 3b 3e
       -0.15708256 -0.20124371 0.41878402 0.18343687
000160 4e 55 86 be 2d 42 bd 3e 96 bb 54 bd c9 cc 92 be
       -0.26236957 0.3696455 -0.05193671 -0.28671864
000170 06 5f 52 bd 93 a7 14 be 33 69 31 3e a4 22 8c be
       -0.051360153 -0.1451705 0.17325287 -0.2737018
000180 75 63 73 3e ca e1 79 3e a2 e2 ae bc d5 16 41 3d
       0.23768409 0.24402538 -0.021348301 0.047140915
000190 3c 7b 5a bd 87 a9 5d be dc b7 04 3d e3 87 9d be
       -0.05334018 -0.21646701 0.032401904 -0.30767736
0001a0 fa 52 51 3e 01 09 f2 3c 38 98 3f 3e d9 38 b2 3d
       0.2044181 0.029545309 0.1871041 0.08702249
0001b0 25 2c c9 3e a3 30 37 bd 9a c6 52 be 1c 1e c1 bd
       0.39291492 -0.044724118 -0.20583573 -0.09429571
0001c0 1e d5 42 ba 28 02 c7 3d 31 51 dc bd d3 b6 10 3e
       -0.00074322696 0.09717208 -0.107576735 0.14132242
0001d0 dd 64 89 be 60 20 4e 3c 62 36 8c 3d ca 28 45 3e
       -0.26834765 0.012580961 0.0684631 0.19253841
0001e0 40 6a 34 be 59 e4 31 be d6 cf 04 3d 8f 40 a1 be
       -0.17618656 -0.17372264 0.03242477 -0.31494567
0001f0 e7 a1 34 3e 78 df 2c bc 13 31 18 be 82 39 80 3d
       0.17639886 -0.010551326 -0.1486247 0.06260969
000200 eb 62 11 3b 80 5f 39 be a1 f7 77 be b7 5c d3 3e
       0.0022184204 -0.18102837 -0.24215557 0.41281673
000210 76 86 40 bd fe 60 eb 3a 8a 4c 1a bd b5 98 2d be
       -0.047003232 0.0017957983 -0.03767065 -0.16952784
000220 38 91 74 be 91 88 91 be 33 3c 37 be c9 a6 73 bd
       -0.23883522 -0.28424504 -0.17894058 -0.05948523
000230 d9 4e bb 3d ae 40 d9 3e e3 65 84 bc f6 71 02 3f
       0.09145898 0.4243216 -0.016161865 0.5095514
000240 e3 c8 a4 bd 9d 95 60 3e 61 01 50 be e4 05 17 be
       -0.080461286 0.21932073 -0.20313026 -0.14748341
000250 5d ac e6 bd cb 96 17 bc 5e 18 00 bf 2c 04 a1 bd
       -0.112633444 -0.00925226 -0.5003718 -0.07862124
000260 16 9a 86 bd 81 4e 3b 3c cc ea 5e 3c bf 53 3a 3e
       -0.06572358 0.011432291 0.013605785 0.18196009
000270 ee d0 24 be a4 6f a7 be 6a b5 1c bc c6 10 31 bd
       -0.16095325 -0.32702363 -0.009564737 -0.043228887
000280 6c b8 ff be c6 a1 82 be ae af 4c 3c 00 83 36 3b
       -0.4994539 -0.25514048 0.012493057 0.0027849078
000290 7a ef 3d 3e 61 56 0b 3e 99 6f b5 bd a8 0d ba 3d
       0.18548384 0.1360717 -0.08859176 0.09084636
0002a0 31 8b b3 be 9b 19 72 3e 04 33 9e 3e bd 59 b0 3e
       -0.35067132 0.2364258 0.30898297 0.34443465
0002b0 5e fb 20 bd 71 66 46 3e f5 51 c5 be 46 7b b0 3c
       -0.039302222 0.19375016 -0.3853909 0.021543156
0002c0 28 c2 ff bd 9d 57 bb bd f6 b8 62 3e b1 e6 5b be
       -0.12488204 -0.0914757 0.2214087 -0.2147472
0002d0 0f 9b 84 be 47 e6 c2 3e 28 58 b1 be 57 b8 30 be
       -0.2589955 0.38066313 -0.3463757 -0.1725782
0002e0 f1 a9 88 be 54 b7 a6 3e 6e 08 2e be 3b a2 42 bb
       -0.26692155 0.32561743 -0.16995403 -0.0029698748
0002f0 0d 1f ba bd f9 d3 ec bd 7d 3a ea bd e6 76 ad 3d
       -0.09087954 -0.11563868 -0.11436937 0.08469944
000300 d3 5b 4c 3e 2e a4 4c 3e 1d ff 11 3e e8 aa 27 bd
       0.19956903 0.19984505 0.14257474 -0.040934473
000310 80 20 9f 3b 88 37 7a bb 60 c0 48 3e 87 c5 0d 3d
       0.004856169 -0.0038180072 0.19604635 0.034612205
000320 3f 71 aa 3e 71 51 15 be b0 21 28 be c2 d3 1d be
       0.33289525 -0.14581849 -0.16419101 -0.1541281
000330 34 1b cb be de 4e 88 be 47 45 f8 3d 21 6a b0 be
       -0.39669192 -0.2662267 0.121225886 -0.3445597
000340 5f 7a 9d be f8 3c 67 3e 8d f5 31 3e 96 ef 47 3e
       -0.30757424 0.22581851 0.17378826 0.19524989
000350 64 ee 23 be e3 0c e0 3d 3c 23 60 3e 93 88 93 b9
       -0.16008908 0.10939958 0.21888441 -0.0002813978
000360 03 74 a7 3b 1e d0 99 bd b2 d4 9a bd 67 c8 91 bd
       0.005110265 -0.07510398 -0.075601 -0.07118302
000370 bd 25 95 be 3c 8f 31 bc b3 f3 fc 3e 0f 55 e5 3e
       -0.29130355 -0.010837372 0.49404678 0.44791457
000380 70 73 c2 3e 92 f0 49 bc ef 1d 4c bd a2 47 c8 bc
       0.37978697 -0.012325423 -0.049833234 -0.02444822
000390 16 88 40 3d 93 ef 0a 3e 83 49 8e be 1a 09 12 be
       0.04700478 0.13567953 -0.2779046 -0.14261284
0003a0 18 42 06 bd 0e 36 22 be f4 b1 3e 3e b4 a4 59 bd
       -0.032777876 -0.15840933 0.18622571 -0.05313559
0003b0 a7 d1 fb 3d 40 3c e1 bc c4 aa a5 3e e8 4f 0c 3e
       0.122958474 -0.02749455 0.32356846 0.13702357
0003c0 23 b8 70 3c 70 19 a0 be f2 c9 03 bf 0a d6 7f be
       0.014692339 -0.31269407 -0.5148002 -0.24983993
0003d0 6d 92 be 3e f7 5b fc bd b8 ce f5 bd c9 0d 11 be
       0.3722109 -0.123222284 -0.12002319 -0.14165415
0003e0 3b f4 e5 3d 84 d5 b7 bd 27 35 a6 3e ef e2 3a bd
       0.11228224 -0.08976272 0.32462427 -0.045626577
0003f0 05 ad a2 bd 7b 35 8c 3c 9f 73 e3 bd 54 52 14 bd
       -0.07943157 0.017115345 -0.11106037 -0.036211327

b1 f4 [192]
000000 b8 94 03 bb d9 f8 b2 b9 b6 b6 74 bb 46 b6 89 bb
       -0.0020077657 -0.00034136212 -0.003734035 -0.004202637
000010 7f ac 09 36 49 45 22 39 fd ef 8b b8 5c 3d db b9
       2.0514997e-06 0.00015475335 -6.672738e-05 -0.0004181665
000020 0e e0 8e b9 9c f0 1b 39 33 c0 44 3a b2 f5 ed ba
       -0.00027251284 0.00014871586 0.00075054466 -0.0018154888
000030 8a 78 94 3a eb 90 8c b8 ec 32 8f bb 3a 28 f8 39
       0.0011327427 -6.702713e-05 -0.004370084 0.00047332217
000040 cb 15 6d 3b 9a fa 99 3a 04 54 a0 bb 27 e1 01 3b
       0.003617632 0.0011747659 -0.004892828 0.001981804
000050 df ff c6 b9 36 64 a2 39 c2 49 61 3b 59 73 a3 3b
       -0.00037956142 0.0003097371 0.0034376238 0.0049881157
000060 ff aa 0c 36 54 cd f3 ba 9f e8 02 36 67 8e 9d 39
       2.0961158e-06 -0.0018600621 1.9506913e-06 0.00030051472
000070 d9 0e 13 3b 89 33 de 38 2f 91 d1 38 0d 9a 12 3b
       0.002243927 0.00010595384 9.992939e-05 0.0022369653
000080 37 11 35 ba d6 91 33 39 17 e7 27 ba 55 f6 d7 3a
       -0.0006907167 0.00017125098 -0.00064049795 0.0016476611
000090 95 e5 f2 39 ea 4e cf 39 0e dc 94 3a 00 00 00 00
       0.0004632889 0.00039540912 0.0011357085 0.0
0000a0 71 94 72 bb 9a 14 05 b5 fc 78 36 b8 d8 67 6c 38
       -0.0037014748 -4.957634e-07 -4.3504857e-05 5.6363497e-05
0000b0 8c 98 b5 38 96 be f8 ba 3b 84 f6 ba 72 56 96 3a
       8.6591666e-05 -0.0018977697 -0.0018807718 0.0011469855
0000c0 4b 9f b4 b7 40 60 96 b6 ce d6 96 3b 00 00 00 00
       -2.1531849e-05 -4.4815533e-06 0.0046032434 0.0
0000d0 33 b1 12 bb c9 b5 1b 3a 85 bf 9d ba 05 a6 a1 b8
       -0.002238345 0.0005939869 -0.0012035227 -7.708002e-05
0000e0 2e 74 94 b9 bd e4 d6 b6 b7 92 ae b7 54 dd a7 3a
       -0.0002831532 -6.4043256e-06 -2.0810736e-05 0.001280705
0000f0 c1 1e 8c b7 6f 27 b8 3b c0 1e ba 36 fc fe 93 bb
       -1.6703621e-05 0.005619935 5.5468117e-06 -0.0045164805
000100 8b 0d 2b bb 00 00 00 00 bf ac 75 b9 6f b0 a6 3a
       -0.0026100602 0.0 -0.00023429374 0.0012717376
000110 fe 02 82 ba 3e f0 b1 3a 6f 93 3a 39 ea 91 c3 3b
       -0.0009919105 0.0013575626 0.00017793266 0.005968322
000120 b7 84 20 ba c5 97 11 ba cd 16 6e b8 a6 a9 9e b8
       -0.00061232917 -0.00055539265 -5.6764857e-05 -7.5656266e-05
000130 c4 0a 99 ba de e3 22 39 35 48 3e 39 b8 4b 89 bb
       -0.0011676182 0.00015534411 0.00018146711 -0.0041899346
000140 46 8a 94 36 08 7b b5 39 66 11 7d 3a c1 2b 1e ba
       4.426841e-06 0.00034614676 0.00096537767 -0.00060337415
000150 cf 8e 29 36 40 26 17 bb c3 6e c1 3a 58 1d 4f ba
       2.5266088e-06 -0.002306357 0.0014757741 -0.0007900796
000160 00 00 00 00 9a 62 df ba 7f de bb ba 19 2c 71 38
       0.0 -0.0017042935 -0.0014333277 5.7499947e-05
000170 8e 7b 97 39 a9 2e 53 b7 4e a5 d0 b8 a3 2b 15 b9
       0.0002889302 -1.2587444e-05 -9.949003e-05 -0.00014226003
000180 e7 c1 7e 39 1d b8 03 b6 1f 45 64 39 d9 5a e1 b8
       0.00024295562 -1.962769e-06 0.00021769524 -0.00010745758
000190 06 f7 b5 b9 00 00 00 00 ef e4 10 bb a8 63 7f ba
       -0.00034707057 0.0 -0.0022109111 -0.0009742328
0001a0 51 ff a4 39 d3 91 20 ba 58 96 3d ba 93 83 63 ba
       0.00031470743 -0.0006125245 -0.0007232181 -0.0008678969
0001b0 4a bd d3 ba de ed 61 3a 00 00 00 00 7c a0 91 b9
       -0.0016154435 0.0008618514 0.0 -0.00027776125
0001c0 6a 64 6d 3b 76 76 8a ba 6a f5 a1 b5 f7 84 00 bb
       0.0036223182 -0.0010563869 -1.206686e-06 -0.0019610503
0001d0 0e 9a 91 3a 7e 02 8e 3a c3 ec ca b9 01 40 4a bb
       0.0011108534 0.0010834483 -0.00038704844 -0.0030860903
0001e0 d8 5f 01 39 00 00 00 00 00 00 00 00 00 00 00 00
       0.00012338103 0.0 0.0 0.0
0001f0 89 d0 91 39 13 06 89 39 11 1f bc b6 a4 5d a7 3a
       0.00027811926 0.00026135202 -5.606453e-06 0.0012768996
000200 ea 4d 3c b7 b5 c8 2e 3b 32 8b f6 b9 a4 87 d2 39
       -1.1223814e-05 0.0026669924 -0.00047024485 0.0004015538
000210 b8 89 2a ba 69 cb 49 35 2f ed b9 bb ed 07 c1 ba
       -0.0006505507 7.5174336e-07 -0.0056740264 -0.0014727094
000220 39 1c b3 3a 68 b2 e8 3a b1 1d a8 38 00 00 00 00
       0.0013665027 0.0017753365 8.016395e-05 0.0
000230 72 e6 ad b9 f8 d3 b4 38 e9 43 60 b8 88 ef 8c bb
       -0.00033168826 8.622551e-05 -5.3469008e-05 -0.0043010153
000240 c6 9f 05 ba ce 7f 61 bb b7 a7 8d 3a a0 e0 d1 3a
       -0.00050973555 -0.0034408453 0.0010807429 0.0016012378
000250 c0 af 29 3b 0f f7 eb b8 6a 61 3c 3a c6 55 b4 ba
       0.0025892109 -0.000112516915 0.00071861467 -0.0013758473
000260 4a f5 f1 3a b2 e3 71 b4 3d 16 69 bb 35 91 16 bb
       0.0018459943 -2.2527709e-07 -0.0035566234 -0.0022974734
000270 b1 06 05 b6 b4 ca 65 b7 54 44 49 ba c5 cb 4c 38
       -1.982244e-06 -1.3696659e-05 -0.0007677723 4.8827165e-05
000280 ea 45 6f ba f5 12 b2 38 26 ec 87 3a 7d 73 bb b9
       -0.00091275445 8.4912324e-05 0.001037006 -0.00035753465
000290 fb af bb ba 3f 02 2a bb 73 b5 4a bb 63 30 28 3a
       -0.0014319414 -0.002594128 -0.0030930906 0.00064159016
0002a0 f4 7c 61 3b a8 9a 1e 3a fe 38 46 ba 65 87 93 ba
       0.0034406753 0.0006050267 -0.0007561593 -0.0011255561
0002b0 00 00 00 00 a0 9c 90 3a d7 66 a3 36 5f f3 48 37
       0.0 0.0011033006 4.8697507e-06 1.1977593e-05
0002c0 9e 44 80 b8 b6 45 1b bb 40 d9 87 3a 10 9e 5f b9
       -6.1162966e-05 -0.0023692674 0.0010364428 -0.0002132582
0002d0 87 0c 9e bb c3 c7 f7 ba 5a 33 52 37 28 90 d4 ba
       -0.0048232707 -0.0018904138 1.2528932e-05 -0.0016217278
0002e0 f9 c3 f8 ba 0a c4 4c 3b db b1 cc ba b0 18 68 ba
       -0.0018979303 0.0031244778 -0.001561697 -0.00088537764
0002f0 fb cb b4 39 e7 68 46 bb 5e 89 0c b7 56 d2 9b 3a
       0.00034484253 -0.003027493 -8.376634e-06 0.0011888247

W_action_type f4 [192, 4]
000000 48 aa a4 bd 6e 05 84 3c 8c 9d eb 3d 63 24 16 be
       -0.08040291 0.01611587 0.11504659 -0.14662318
000010 60 fc 4f bd 2d 2d d1 3c 70 26 2a 3e 25 ab ef bd
       -0.050777793 0.025534237 0.16616225 -0.11702565
000020 63 39 1b 3e bb f0 8e bd 3e 62 a6 3d e3 af 49 ba
       0.1515861 -0.069795094 0.08124207 -0.00076937507
000030 97 b6 7a 3c 98 18 e9 bb 07 26 0e 3e 94 43 c7 3c
       0.015302322 -0.0071135275 0.13881694 0.024324216
000040 69 4b d8 bb b8 2d 8e bd 62 45 48 3d a3 c2 1b be
       -0.0066007865 -0.06942314 0.048894294 -0.15210967
000050 5b 43 b8 bd 4a 21 d4 3d 88 1f 2c be 65 ca 8c bd
       -0.08997222 0.10357912 -0.16808903 -0.06874541
000060 74 49 3f 3e 85 ec fb bc c0 8c 30 3b ce 18 72 3d
       0.18680364 -0.03075243 0.0026939362 0.059105687
000070 66 e0 30 bd 87 40 61 bd 7d 72 e9 3d 93 32 8e bd
       -0.043182753 -0.05499318 0.1139879 -0.0694324
000080 e1 cd e8 3d cb 7a 40 3c cb cc d9 3b 4b d2 16 3d
       0.11367393 0.011748026 0.0066467277 0.036821645
000090 a3 94 95 3d 5c 8f 34 3e 2f a6 b7 3d 33 1f c4 3d
       0.07303741 0.17632812 0.08967244 0.09576263
0000a0 0a 63 96 bd 9e 97 d0 bb a0 d3 1b 3d 16 87 28 3e
       -0.07343109 -0.0063657304 0.03804362 0.16457781
0000b0 28 89 b0 3d 0a 20 85 bc ec 81 91 3e 36 02 b4 3b
       0.086199105 -0.016250629 0.28419435 0.0054934276
0000c0 74 92 6c bd f5 e8 33 3b 4f 4a f4 bc ec b3 58 bd
       -0.057756856 0.0027452086 -0.02982059 -0.052905962
0000d0 cb 4c bb bd d5 52 e2 bc 1a f2 40 3e 04 63 80 bd
       -0.091455065 -0.027627388 0.18842354 -0.06268886
0000e0 c0 49 ee 3c 64 59 33 be da 8d 39 3e 71 df 6a bd
       0.029087901 -0.17514569 0.18120518 -0.057341997
0000f0 fc 5c 93 3e 61 c2 6c bc 8b d8 df bd 35 cd 62 3d
       0.2878188 -0.01445064 -0.10929974 0.055371482
000100 12 cc 4d bc 53 f1 2a be 66 ee 4e be c0 49 7e bc
       -0.012560861 -0.1669362 -0.2020813 -0.015520513
000110 c7 66 96 3b c5 95 8e 3c f5 3c 95 3d 7a 4c b0 bd
       0.0045898887 0.0174054 0.07287017 -0.08608337
000120 e2 2a 94 3d e6 2b 17 be 98 6f 85 bd 89 e3 1a be
       0.07234742 -0.1476284 -0.065154254 -0.1512586
000130 94 2d 9e bc 1c f7 54 bd 75 ed d2 bd 4f cb 06 3e
       -0.019308843 -0.051993474 -0.102991976 0.13163494
000140 db a1 20 3e 31 0d 8a bd 2b 1f d1 3d d5 5b d7 3d
       0.15686743 -0.06740797 0.10211023 0.105155624
000150 7e e5 33 be 4e 23 3b 3d 82 d1 16 3d d2 7b 33 3e
       -0.17568013 0.045687966 0.036820896 0.17527702
000160 a9 72 d5 3b 23 5b b1 3d aa fa 8b bc ba 95 3f 3e
       0.0065139127 0.08659961 -0.0170873 0.1870946
000170 72 ea 41 bd c4 c6 93 3d 0f 6e 27 be 78 ea b3 3d
       -0.047342725 0.07215646 -0.16350578 0.08784956
000180 b1 c0 e6 bd 93 da 1f 3e e7 d0 77 ba c9 5d 0d be
       -0.11267222 0.15610723 -0.0009453431 -0.13805307
000190 f3 81 9d 3d e0 22 f8 bc bc 3a c4 3d c6 62 6b be
       0.076908015 -0.030290067 0.09581515 -0.22986898
0001a0 ef ef 96 bd c3 38 cd bd f2 33 83 bd 96 e0 50 3d
       -0.073699825 -0.10020592 -0.06406392 0.05099543
0001b0 53 08 10 bd 82 37 e5 3b f5 80 c5 bd cc 2d f4 3d
       -0.03516419 0.0069951424 -0.09643737 0.119227976
0001c0 3d 63 d0 bd fe 86 a6 3d 2a 34 d5 bd 8c b1 f8 3c
       -0.10175178 0.081312165 -0.1041034 0.030358098
0001d0 40 24 1f 3c 50 32 c7 3d 40 e9 81 3b 84 2e ce 3b
       0.0097132325 0.09726393 0.003964573 0.006292166
0001e0 45 0e a1 bd 4b a5 97 3d 1e e6 b6 bc 98 8d d6 3b
       -0.0786405 0.07404574 -0.022326525 0.006547641
0001f0 64 76 fb bc 84 4e 86 37 a8 b6 ee 3c dc 22 67 3d
       -0.030696101 1.6010606e-05 0.029139832 0.05642973
000200 72 c3 45 3d 59 5c 26 3e 3d e7 26 3e e0 24 16 3e
       0.048282094 0.16246165 0.16299148 0.14662504
000210 a4 75 86 3d 21 31 e7 bd ce ac 1b bc 86 11 d0 3b
       0.06565407 -0.112886675 -0.009501649 0.006349745
000220 d0 c4 eb bc 14 0a c1 bd a2 74 f1 bd 03 80 05 3e
       -0.028780371 -0.094257504 -0.11789824 0.13037114
000230 6d 47 ad bd b6 ae a6 3d 38 4c e9 bd ae 20 59 3d
       -0.08460889 0.08138792 -0.11391491 0.05300968
000240 89 c3 44 3e ff cd aa bb 49 23 a2 3d f5 5a 6f 3e
       0.19215216 -0.005212545 0.07916886 0.23374541
000250 4f 5a 13 3e ec db 7d 3d 09 9a 62 bd c5 fb 02 be
       0.14389919 0.061977312 -0.05532268 -0.12791355
000260 dd 06 bc bb 8e d0 de 3c 5b ae 62 bc c6 69 85 bc
       -0.005738123 0.027199056 -0.013835515 -0.016285788
000270 5b 60 d9 bc 5c bd f7 ba e1 82 ab 3d ca f3 00 3e
       -0.026535204 -0.0018901038 0.083745725 0.12592998
000280 39 71 aa bd 7c eb d2 3c 94 e4 8c 3e 74 21 4a bd
       -0.08322377 0.025747053 0.2751814 -0.04934831
000290 77 b2 1a be 12 86 eb bd bc 90 77 bd f5 2c 41 3c
       -0.15107141 -0.11500181 -0.060440764 0.011790504
0002a0 98 c2 26 3d 3a e8 6f bc a2 23 81 bd 90 88 14 3e
       0.040712923 -0.0146427695 -0.063056245 0.1450522
0002b0 9f 58 df 3d b8 53 41 bd 5b 82 67 bd 33 be e2 3b
       0.10905575 -0.04719898 -0.0565208 0.006919646
0002c0 49 c7 11 bc e6 db da 3c e7 4c da bb 81 80 f2 bd
       -0.008897611 0.026716184 -0.0066619995 -0.118409164
0002d0 c4 57 1b 3e f6 fa c9 bd b7 7a 87 3d 76 54 22 3e
       0.15170199 -0.0986232 0.06615203 0.15852532
0002e0 5a 29 14 3e 9a ec ac 3d 99 14 b3 3d 16 77 93 bc
       0.144689 0.08443566 0.08744163 -0.01800112
0002f0 fa c1 b2 bd 18 b2 e7 bd 69 ae 32 3d b2 5e b0 3d
       -0.08728404 -0.113132656 0.04362336 0.08611812
000300 a5 52 cc bb 13 d2 2c be c7 87 30 3e aa bb a7 bc
       -0.006235438 -0.16877012 0.17239295 -0.020475227
000310 8b 42 6d 3c 9d 22 42 3d 6e 61 de 3c f1 00 96 bb
       0.014481197 0.04739629 0.027146067 -0.004577749
000320 be 07 47 bd 65 56 a1 3d b3 3c 63 be 79 f2 c6 3a
       -0.048591368 0.078778066 -0.22191124 0.0015178464
000330 58 60 43 bd 4f b2 cf bd e4 17 ca bd 9a a8 31 bd
       -0.047699302 -0.101414315 -0.09867838 -0.04337368
000340 aa 7f ed bc 93 1b 16 be 43 51 a4 bd 46 cc 86 be
       -0.028991539 -0.14658956 -0.08023312 -0.26327723
000350 9e 26 a0 bd 4c 9b 87 3b 64 dd 33 3d 64 2a 45 3d
       -0.07819866 0.004138386 0.043912306 0.04813613
000360 85 7f 2f 3a 12 0e d4 3d 78 eb 42 3e fe cd f4 3d
       0.0006694722 0.10354246 0.19035137 0.119533524
000370 98 05 4d bd a9 9a 3b 3d 4e 0a 97 3d eb bb a4 3c
       -0.050054163 0.045801792 0.07375012 0.020109138
000380 7e c2 ce bc fb 03 23 be 04 6e 64 bc 67 01 01 3e
       -0.025239225 -0.15919487 -0.013942245 0.12598191
000390 a7 fe e8 3d 2f a1 7f 3d 49 ee f0 bc 20 0e fb bd
       0.11376696 0.062409576 -0.029410498 -0.122585535
0003a0 88 69 50 3d 41 58 63 bd e1 37 53 be a4 7a 98 bd
       0.050881892 -0.055504087 -0.20626785 -0.07445267
0003b0 c6 ad 8d 3d 48 15 a5 bb 05 ea a2 bc ae 81 1b 3e
       0.0691791 -0.0050379373 -0.01988698 0.15186188
0003c0 b8 bf 05 be 69 3e 09 be 9d 4d 4b 3d d7 59 4b 3e
       -0.13061416 -0.13402714 0.049634565 0.1985849
0003d0 28 c0 ad bd 70 0d 46 3c 93 98 f4 bd b1 90 5c 3e
       -0.084839165 0.012088165 -0.11943164 0.2153957
0003e0 32 1e 8d bd 6e a9 44 bd da 12 a4 bd f7 a9 be bd
       -0.06890525 -0.048013143 -0.08011408 -0.09309762
0003f0 c5 cc c9 3d c7 da 1b 3d d8 88 5d 3e 8a 09 68 bd
       0.0985351 0.03805044 0.21634233 -0.056649722

b_action_type f4 [4]
000000 a8 8f 05 bc 38 0f f0 3b 53 75 51 bc 5f fd 5e 3c
       -0.008151926 0.007326033 -0.01278432 0.013610213

W_play_habitat f4 [192, 4]
000000 19 14 8f 3c 7b 2b ab 3d 2d ff 1a 3d 0f bd fd 3b
       0.017465638 0.083579026 0.03784101 0.007743485
000010 21 0d 6c bb a2 ae e7 bd f2 af e8 bc c0 b5 43 3d
       -0.0036018568 -0.113126054 -0.02840421 0.047780752
000020 a7 75 d9 bd 5d be 8d bc 09 41 d5 3d 3d ee b3 3d
       -0.106181435 -0.017302686 0.10412795 0.08785675
000030 2c 24 96 3d f7 29 f8 3d 66 2f 94 3d 26 d4 09 3d
       0.07331118 0.12117379 0.07235603 0.033649586
000040 e6 21 48 3e 5b e1 b1 3d 32 71 a0 bd 7b 73 07 3e
       0.19544181 0.08685561 -0.0783409 0.13227646
000050 72 dc 3b 3e 58 a2 ff 3c 47 d8 3e be a1 11 86 3d
       0.18345812 0.031205341 -0.18637191 0.06546331
000060 b6 a3 cc 3d 54 cd 26 bc 52 1e be 3d 92 bb f9 3d
       0.09992163 -0.01018079 0.09283127 0.12193979
000070 5a f7 24 be 71 3b 05 be 85 1f 52 3c 4d 9a ad ba
       -0.16109982 -0.13010956 0.012824898 -0.0013244838
000080 e1 82 e4 bc 33 37 8d bd 05 59 2a 3d 92 3b ae 3d
       -0.02789444 -0.06895294 0.041588802 0.08507456
000090 66 b6 d6 3d 75 33 6d 3d a2 d4 32 3e 1b ff 0f bc
       0.104840085 0.0579104 0.17463925 -0.008788849
0000a0 00 04 a1 bb 43 b1 1a 3d f6 f8 df ba f4 cb 43 3e
       -0.004913807 0.037766706 -0.0017087746 0.1912077
0000b0 42 eb 35 3d 2e 1b 3e 3e d7 9b ae 3c aa d0 93 bd
       0.044413812 0.18565056 0.021314545 -0.07217534
0000c0 3c b0 7c bb 31 7a 12 3a 6e ef 15 bd 04 ce 7b bd
       -0.0038557192 0.0005587666 -0.03660529 -0.06147577
0000d0 7d b3 a1 bd f2 87 d3 bc 6f c1 15 3e 89 3e ed bd
       -0.07895563 -0.02582166 0.1462457 -0.11584193
0000e0 2d a1 ec 3d 9f 9a b9 3d f2 1b 45 be 15 4f 3c 3e
       0.11554179 0.09062695 -0.19248942 0.18389542
0000f0 58 f9 3d be 14 e1 1a 3b ca ed 30 be 1f 77 81 bd
       -0.18552148 0.0023632692 -0.1727821 -0.06321549
000100 2d e4 0f bb 66 b3 29 3d 40 16 ec 3c e5 57 cf bd
       -0.0021956072 0.041430853 0.028819203 -0.101241864
000110 50 38 15 3e a5 4a c9 bd ec f2 36 3b 46 3d ca bd
       0.14572263 -0.098286904 0.0027915789 -0.09874968
000120 2d 48 80 be 3e 4a 94 3d 7b 19 6f bd 46 0e 47 3d
       -0.25055066 0.07240723 -0.05837391 0.048597597
000130 5c ca be 3d 98 f7 ab 3d bf c3 b4 3c 49 b8 f4 3d
       0.09315941 0.08396834 0.022065995 0.11949212
000140 4a 7c de bc 81 55 d6 3d 1e 83 26 bd 73 d1 81 3d
       -0.027158875 0.10465527 -0.040652387 0.063387774
000150 9a 17 3b 3e 91 35 e7 3c 6f d2 4c 3c 77 46 d9 3d
       0.18270722 0.028223785 0.012501343 0.10609143
000160 9f 6e 3f bd 20 87 bc bb ae c0 00 bd 4b 76 17 bd
       -0.046736356 -0.005753413 -0.031433754 -0.036978047
000170 56 2f 8c bd df 05 97 3c 80 83 cd 3b 22 56 5b 3d
       -0.06844966 0.018435417 0.0062717795 0.05354894
000180 75 5f 1c 3d 0f b9 47 3e 81 70 6b 3b 8c eb 28 3d
       0.038176972 0.19504188 0.0035925212 0.04124026
000190 46 13 15 3e 53 2f 69 3d b2 c1 0b bd 8b d7 e6 3b
       0.14558133 0.056929898 -0.03412027 0.0070447377
0001a0 64 a6 a6 bd c4 bb 96 bc 04 d6 f0 3d 91 f7 a4 bd
       -0.08137205 -0.01840008 0.1175957 -0.08055032
0001b0 da 85 34 be 93 04 d4 bc de c0 1b 3e 9a 53 89 3e
       -0.17629185 -0.025881087 0.15210292 0.26821595
0001c0 1b 7f 60 3d 46 d2 76 bd 98 f7 03 be 0e 8e 07 3c
       0.054808717 -0.060259126 -0.12887418 0.008273615
0001d0 42 09 e0 bd 2d 7c 8a 3d 1f 20 25 3c 3f 43 84 3d
       -0.10939266 0.06761966 0.010078459 0.06458139
0001e0 35 e9 83 bd 72 f5 51 3d 25 2f 46 3e 88 3e 48 3d
       -0.06440965 0.051259466 0.19353922 0.04888776
0001f0 77 0f f5 3d d6 32 4f bd dc c6 d5 3b f4 61 42 be
       0.1196584 -0.05058559 0.00652395 -0.18982679
000200 7e bd 12 3d 5f c1 80 bd 9b b3 cf bd d3 92 c7 3c
       0.035825245 -0.062868826 -0.10141679 0.024362003
000210 c8 6a 4d bb d8 64 32 3e 46 1e 20 ba df b4 e2 3d
       -0.0031344164 0.17421281 -0.0006108027 0.11069655
000220 e1 17 ec bd 7f 27 3b 3d 25 c4 26 3e 35 34 04 3c
       -0.11527992 0.045691963 0.1628576 0.008069088
000230 1d f1 22 3d b9 dc e6 3d 6b cb 05 3e f3 69 74 3d
       0.039780725 0.11272568 0.13065879 0.059671354
000240 b3 bc 04 3d 78 ba 91 3c 3d b1 38 bc 4a c3 d1 bd
       0.03240652 0.01778911 -0.011272726 -0.102423266
000250 f8 77 81 bd 0d 0c 13 be a7 7f d1 3d b8 ea 79 bd
       -0.0632171 -0.14360066 0.10229426 -0.06101486
000260 77 44 b3 bd cb de 0d be 36 34 45 bd bf 16 96 bc
       -0.08753293 -0.1385452 -0.048145495 -0.018321393
000270 fd 0b ae bd f8 13 6d 3c dc 1b d9 bd cd 78 5b b9
       -0.0849838 0.014470093 -0.10601017 -0.0002093047
000280 bd 07 d0 3c 1c a5 c5 3d 9d d7 d9 bd 26 eb cf 3d
       0.025394315 0.09650633 -0.10636828 0.10152273
000290 10 8a e7 3c a8 9f 84 bd 7e 6a 1c be 80 41 05 3e
       0.028264076 -0.064757645 -0.15274999 0.13013268
0002a0 71 53 c7 3c 77 1d 64 3d 47 bd 43 3d 54 a4 09 bd
       0.02433178 0.055692162 0.04778793 -0.03360398
0002b0 97 3e 80 3d 4b 4a 23 3e ed 73 26 be dc 1f 9a 3c
       0.06261938 0.1594631 -0.1625516 0.01881402
0002c0 b6 a5 a2 3d 79 81 2b be 27 e6 c7 bd 69 35 77 bd
       0.07941763 -0.16748609 -0.09760695 -0.06035367
0002d0 12 eb 02 bd 9d cf a7 3c cd 61 39 3d 95 54 aa 3d
       -0.03196246 0.02048474 0.045259286 0.08316914
0002e0 1a db 4a 3d 62 f8 4a 3e 4f d4 d8 3a 71 c2 ca 3d
       0.049525358 0.19821313 0.0016542765 0.09900368
0002f0 23 f4 8b 3b a9 fc 67 be a9 e1 33 be 87 21 0e be
       0.0042710467 -0.22654976 -0.17566551 -0.13879977
000300 dc 50 f9 bd b4 50 ee bd 61 88 e3 3d 6b 22 5e 3e
       -0.12173626 -0.11636487 0.111099966 0.21692817
000310 ce 4c a3 3d 4e b2 c1 3d 9d a7 04 3e 5a 9f c1 bd
       0.07973634 0.09457837 0.12954564 -0.09454222
000320 3f 6d 90 bd 3e 3c 32 3e fb ca 06 3d f9 b7 c0 3d
       -0.07052087 0.17405793 0.03290842 0.0941009
000330 45 d7 c4 3d b7 67 3c 3d c3 03 c3 bd 3b 19 13 3c
       0.09611372 0.045997348 -0.09522202 0.008978183
000340 55 bf ac 3d 34 0c 08 be 44 fc 32 bc 20 27 6e 3d
       0.08434931 -0.13285905 -0.010924403 0.05814278
000350 bf 33 01 3d fb af 16 be 59 05 bb 3d 7b 3e e2 bd
       0.03154349 -0.14715569 0.09131879 -0.110470735
000360 c7 cc 05 bd 62 53 c7 bd 5e e8 16 3e df 56 b7 3c
       -0.032665994 -0.09732701 0.14737079 0.02238029
000370 0b fa 45 3e ac 9e 21 be 0a 72 04 3e a2 f2 0c be
       0.19333665 -0.15783185 0.12934127 -0.13764432
000380 50 af b4 bd c6 c3 18 be 2f 52 d4 3d 8b b3 ff bd
       -0.08822501 -0.14918432 0.10367238 -0.12485417
000390 10 02 3d 3e f2 3e 0b bd 6f f3 fe 3d 6c 8b 14 bd
       0.18457818 -0.033995576 0.12448775 -0.036265776
0003a0 85 59 24 3e a0 04 16 bd 29 6a 2c 3d d0 08 c9 bd
       0.16049774 -0.036625504 0.04209343 -0.09816134
0003b0 d7 92 57 3d d4 c4 65 bc 03 5f bc bc 64 a7 14 3e
       0.05263027 -0.014023978 -0.022994524 0.1451698
0003c0 cc 9e 83 3d 1a fe 0a 3e da 5f 48 3e 82 c3 c2 3c
       0.064267725 0.13573495 0.19567814 0.023774866
0003d0 cb b4 49 3e 15 08 4d 3e ae a4 16 3e a6 77 03 bd
       0.19697873 0.20022614 0.14711258 -0.032096528
0003e0 83 84 aa bd 99 1a 2f 3d ee f4 14 3e 7b 9d ff 3c
       -0.08326056 0.042749975 0.14546558 0.031203022
0003f0 2a 03 ef bd 37 5b 51 3b b9 d1 88 bd 78 9f 1f 3c
       -0.11670525 0.0031945237 -0.066806264 0.00974261

b_play_habitat f4 [4]
000000 97 f8 b4 b9 13 95 4c 39 35 cf 8d 3a 65 47 74 ba
       -0.0003451749 0.0001951049 0.0010819199 -0.00093185

W_gain_food_primary f4 [192, 7]
000000 79 df 37 be b2 03 33 3d 09 a9 d3 3d 01 b6 87 bd
       -0.17956342 0.043704696 0.10334975 -0.06626511
000010 b8 6a c1 bd e5 54 ee 3d 1f 25 4a bb 5a 8a eb bc
       -0.09444183 0.11637286 -0.003084488 -0.028752495
000020 0e 62 0b 3e da 96 53 bd 51 bf bd 3d c9 06 7f 3d
       0.13611624 -0.051657535 0.09265006 0.06226233
000030 3d 66 1b bd d0 5d 86 bd fc dc 16 3d eb cb 27 bb
       -0.0379393 -0.06560862 0.03683184 -0.0025603722
000040 f5 bf 2c be d0 b0 c3 3d ea 95 32 3e f8 22 86 3d
       -0.16870101 0.09555209 0.1744 0.065496385
000050 92 72 0e bd 44 49 74 bc 76 83 80 3c 9a c1 07 3d
       -0.03477723 -0.014910046 0.015687685 0.033143617
000060 5f 45 98 bd a9 14 34 be 4c f6 dc bd d0 17 06 bd
       -0.074351065 -0.17586006 -0.10789165 -0.032737553
000070 00 2c f0 3d 87 7a 02 3c 60 19 e7 bd 2a ef 37 3e
       0.11727142 0.007963783 -0.11284137 0.17962328
000080 89 ef fd bd a5 5f 7b bd 80 01 af bd e9 b0 9e 3c
       -0.12399203 -0.06137051 -0.08545208 0.019371467
000090 51 41 07 3d 23 cd d4 3c d0 eb 17 3d 76 42 e7 3d
       0.033021275 0.025976723 0.037090123 0.11291973
0000a0 55 9d 24 3e ea 7e f5 bd ca 67 e2 3c 75 ca 22 3d
       0.16075642 -0.119870976 0.027637381 0.03974386
0000b0 20 5a 5b 3d 82 44 2e be d5 5a 4d 3d 10 61 e6 3d
       0.053552747 -0.17018321 0.050135452 0.11248982
0000c0 17 02 45 be a5 71 af bd b2 67 c2 3d d3 9e f1 bc
       -0.19239078 -0.08566598 0.094924346 -0.029494679
0000d0 58 6e 52 3d 2f d5 a4 bd 53 a2 d7 bc da b2 90 bd
       0.051374763 -0.08048474 -0.02632252 -0.07065363
0000e0 93 96 1a be d9 b8 19 3c 6f 08 bd bd 66 91 dc 3d
       -0.15096502 0.00938245 -0.09230124 0.1076992
0000f0 fd b0 ad 3d 64 e7 d6 3d 7b 5b c7 3d 9a 04 fe bc
       0.084810235 0.10493353 0.097342454 -0.031008054
000100 74 71 d8 3c f6 1a 38 bd 7c 69 69 3d eb c3 be 3d
       0.026421286 -0.044947587 0.056985363 0.09314712
000110 37 60 12 bc db 79 c0 3d c4 c3 96 3c 63 f0 ed bd
       -0.008934072 0.09398242 0.018403895 -0.11618116
000120 ff 50 dc 3c 5e 1b 9b bd ab c9 5a bd d0 f3 1e bc
       0.02689409 -0.07573579 -0.05341498 -0.009701684
000130 cd 16 2b 3d 0b 66 d8 3d 45 61 7e bc 06 24 3c 3e
       0.04176979 0.10566338 -0.015526121 0.18373117
000140 b3 2d d9 3d 7b 6f 20 bc 7b 9a 38 bd 55 11 1a bd
       0.106044196 -0.009792204 -0.0450692 -0.037614185
000150 5a cc 98 bd 88 04 c9 3d 39 7c 4e 3d fc 65 c8 3c
       -0.07460852 0.098153174 0.050411437 0.024462692
000160 d8 f4 a2 bd 57 16 12 3d 14 19 96 bd 8c 87 20 bc
       -0.079568565 0.035665836 -0.07329002 -0.009797942
000170 23 f3 5a 3a 23 7f 1e bd 10 aa 38 3c 93 a0 d8 3d
       0.000835227 -0.038695466 0.011271015 0.10577502
000180 a3 bf bb 3d 44 11 05 be 76 2b 44 bd 88 bb ed bd
       0.09167411 -0.12994868 -0.04789301 -0.11608034
000190 77 76 98 3d 8e 6b cd 3d a3 7d 2b bd 9e d5 94 bd
       0.074444704 0.1003028 -0.041867863 -0.07267307
0001a0 f0 a1 28 3d a9 c8 92 3d a1 d2 22 be 20 4a 90 be
       0.04117006 0.07167179 -0.15900661 -0.28181553
0001b0 7f 0b 6d 3d 9a 4b 7b 3e 0a 49 79 be bb 12 bd bc
       0.05787229 0.24540558 -0.24344268 -0.02308022
0001c0 49 f1 7e bd c1 bd 00 bd 26 1c 23 be 53 14 29 bc
       -0.062241826 -0.031430963 -0.15928707 -0.010319787
0001d0 93 ff aa bd 16 7a 02 bc 81 82 0c be d6 64 1f 3c
       -0.08349528 -0.007963678 -0.13721658 0.009728631
0001e0 89 54 ae bd 42 3e f5 bb e1 d9 c5 bc 10 eb b7 3d
       -0.085122176 -0.0074842284 -0.024151744 0.089803815
0001f0 e2 1e b4 3c 25 da d0 3d dc 23 22 bc c6 8e e4 3b
       0.021987382 0.10197858 -0.009896245 0.0069750277
000200 40 0d f1 3d 25 22 8b 3c 01 a9 41 3e 12 99 90 bd
       0.11770105 0.016984055 0.18912126 -0.07060446
000210 4e cb 4e bd 27 96 e3 3d cc 92 86 3c 88 16 e6 3d
       -0.050486855 0.11112624 0.01642742 0.11234766
000220 7a 86 6a 3e 0b cc c8 3b 99 6f 8c 3d 33 5d e8 3c
       0.22902861 0.0061278394 0.06857223 0.028364753
000230 d6 c7 0d be ca 93 df bd 7d eb 22 be 3e 12 b4 3d
       -0.13845763 -0.109168604 -0.15910144 0.08792542
000240 18 a0 eb 3d bc f9 28 3e a2 73 07 be a5 4c 0d 3d
       0.11505145 0.16501516 -0.13227704 0.034496922
000250 c9 29 13 be 66 ff eb bd 55 09 9f bd e3 15 3e be
       -0.14371409 -0.11523323 -0.07765452 -0.18563037
000260 70 de fd 3c 1e 8b ab bd 2d 35 2f be 03 b1 f8 3c
       0.030989856 -0.08376144 -0.17110129 0.030357843
000270 8f fc 9c bd 59 b0 97 bc f0 09 31 3e c0 74 46 3e
       -0.07665359 -0.018516706 0.17288947 0.19380474
000280 4b 17 a0 bd c4 21 67 3d 14 6f 40 bd 0d ca e7 3c
       -0.07816943 0.056428686 -0.046980932 0.028294588
000290 6e 4d 24 bb c4 15 81 3d aa 49 4a bd ce 5e 23 3e
       -0.0025070566 0.063029796 -0.049386658 0.15954134
0002a0 eb 57 c6 bd e4 3b 0c bd 23 f4 57 3d 2c 11 1d 3e
       -0.09684738 -0.034236804 0.05272306 0.15338582
0002b0 33 1f 02 3d 6f c7 0f 3e 0d 5b 42 bd b1 66 c0 3d
       0.031768035 0.14040922 -0.047450114 0.09394587
0002c0 2b 65 f9 bd df 5f 27 be b8 91 3d 3e 69 97 b1 bd
       -0.121774994 -0.16345166 0.18512619 -0.08671457
0002d0 b6 cb f8 bd 2a b9 9f bc b6 8f 9a be ef 6d 07 3e
       -0.1214823 -0.019497473 -0.30187768 0.1322553
0002e0 fa eb 4b 3d 2b 2f 4c 3c 3d 7c 5b bd b2 4d 45 3d
       0.04978559 0.012462418 -0.05358528 0.0481698
0002f0 32 d1 fd 3d 04 26 e7 bd dd d3 54 3c d0 b2 e5 bc
       0.123934165 -0.11286548 0.012989965 -0.028039366
000300 fa a4 cd 3d de db 23 be 16 72 cf bd 7c 72 0d bd
       0.100412324 -0.16001841 -0.10129182 -0.03453301
000310 db 29 d1 bd d0 65 c6 3d 96 cd 30 be dc 69 b1 3c
       -0.102130614 0.09687388 -0.17265925 0.021656923
000320 4e b1 fd 3b a7 4d a2 3c 59 98 b8 3c 25 42 98 bc
       0.0077420836 0.019812418 0.022533583 -0.018586228
000330 27 e9 85 bd d7 f4 97 3c 9b 0d 4f bd c4 3e 14 3e
       -0.06538611 0.018549366 -0.050550085 0.14477068
000340 9b 35 a1 3c 4f ce 60 3d a4 a6 ad 3c b1 b4 25 bd
       0.019678881 0.05488425 0.021197625 -0.040455524
000350 8b a6 7a 3e 4e 32 1a 3e 75 58 af bc ff e4 4e be
       0.24477594 0.15058252 -0.021404484 -0.20204543
000360 84 a3 31 3c a9 b5 b2 bd a8 2c 15 3d c5 df 1e 3e
       0.010842208 -0.08726055 0.03641954 0.15515049
000370 c5 f4 1d bd c3 42 89 bd 48 7f 2c bd 73 e9 88 be
       -0.03856351 -0.06702187 -0.042113572 -0.26740608
000380 a2 2a a9 bc 1b 5a f8 3c 23 c8 8f 3c 0c c1 be 3d
       -0.020650212 0.030316403 0.017551487 0.093141645
000390 f3 f5 e9 bd 04 3b b2 bd d9 08 ea bd 50 a2 83 3d
       -0.11423864 -0.087026626 -0.11427469 0.06427443
0003a0 02 c1 3e 3c b8 93 48 3d 46 1b 52 3e 5e 3d 71 3d
       0.011642696 0.048969 0.20518216 0.058896415
0003b0 04 1d 8f bc 8c a3 d1 bd 8e 29 48 3e 84 d4 89 3d
       -0.01746989 -0.10236272 0.19547102 0.06729987
0003c0 26 86 63 3d 8c ea 63 3d 3c 0a cc 3d 2c b2 83 be
       0.055547856 0.055643603 0.099628896 -0.25721872
0003d0 60 87 b9 ba 2b ca d5 bd b6 37 0c bc 62 a7 dc bd
       -0.0014154725 -0.10438951 -0.008558204 -0.10774113
0003e0 d6 63 a0 bd 2f 58 0c be 83 66 92 bc 21 7e 73 3d
       -0.07831542 -0.13705514 -0.017871147 0.059446458
0003f0 75 3f b3 bb f7 c7 05 3e f9 ca 69 b9 98 0c de bc
       -0.005470211 0.13064562 -0.00022296225 -0.027105615

b_gain_food_primary f4 [7]
000000 96 45 15 3a fd 0a f4 b7 65 1b 17 38 f5 dd c8 b9
       0.0005694268 -2.9092183e-05 3.602672e-05 -0.00038312344
000010 7d 94 6e b9 87 92 dc 3a ef 13 d8 ba
       -0.00022752765 0.0016828337 -0.0016485433

W_draw_mode f4 [192, 4]
000000 5f 3f a1 bc d2 ed 3a bd e1 72 6c bd 88 8b 2a 3d
       -0.019683538 -0.04563696 -0.057726745 0.041636974
000010 85 d6 05 bd ae 90 15 3e 43 95 10 bc bf 2f 7f 3d
       -0.032675285 0.14605972 -0.008824649 0.062301394
000020 14 b1 9a bd 22 a1 30 be d5 ba 02 bc 69 86 1f bd
       -0.07553306 -0.17248967 -0.007979115 -0.038946543
000030 e4 95 08 bd e7 87 4a bd 3d 11 c1 bb 87 3b a8 3e
       -0.03334607 -0.049446013 -0.0058919475 0.32857916
000040 e0 13 da bd b3 63 2b 3d ba c6 5b 3e af 65 c9 ba
       -0.10648322 0.041843127 0.21462527 -0.0015365387
000050 8e 6b 1a bd d2 8d 28 bd 03 2f 97 bc a7 7f 27 be
       -0.03770023 -0.041150875 -0.018455034 -0.16357289
000060 05 f3 63 3e 24 30 a5 3d 4d b5 95 bd f6 82 11 bb
       0.22260673 0.08065823 -0.07309971 -0.0022203303
000070 f6 11 11 bd 9a 46 e6 3c 43 1c dd bd a1 63 a2 bc
       -0.03541752 0.028109837 -0.10796406 -0.019822897
000080 ad ed 26 be 77 b7 18 be 5b 9a a6 3d ef c1 fe bd
       -0.16301604 -0.14913736 0.0813491 -0.12439334
000090 0e 08 0a 3d 18 97 17 3d bd 10 15 3e 87 42 9f 3d
       0.033699088 0.03700933 0.14557166 0.07776361
0000a0 9c 83 46 bd fc 46 aa 3d 9c 24 95 3d da 5d 09 be
       -0.048465356 0.083143204 0.07282373 -0.13414708
0000b0 52 77 22 be 06 1f 67 3d db f3 35 be d9 74 16 bd
       -0.1586583 0.05642607 -0.17768805 -0.03673253
0000c0 ce 0b 9f bd 48 06 99 3d 01 ab 78 bd 0e 6b 25 3c
       -0.077659234 0.07471901 -0.060709957 0.010096325
0000d0 cc 27 25 bc 3b ab 0d be a8 e4 d3 3c 65 25 9b bd
       -0.010080289 -0.1383485 0.025865868 -0.07575492
0000e0 50 15 ca 3d 94 5b e7 3c 74 aa ae bd ea 6b 1d be
       0.09867346 0.02824191 -0.08528605 -0.15373197
0000f0 f2 fe 96 bd 7d b9 33 3c a0 06 e0 3c 4a 63 46 3d
       -0.07372846 0.010969517 0.027346909 0.048434533
000100 24 76 a2 bc 6a 4d f2 3d 4a f0 84 bd eb a0 85 3e
       -0.019831724 0.11831172 -0.06491144 0.26099333
000110 94 52 9e bd 87 1a ff 3d e7 13 5a 3d cd 6f ab bd
       -0.07730594 0.124562316 0.053241637 -0.08370934
000120 a2 86 9a bc 64 3c 95 bd 05 40 d0 bb 82 b4 10 3e
       -0.018863026 -0.07286909 -0.006355288 0.14131358
000130 50 a8 f0 bc a7 61 95 bd 59 58 da 3d 6d 96 24 be
       -0.029377133 -0.07294016 0.10661382 -0.16073008
000140 38 b2 a7 bc 6b 77 05 bd 48 c1 57 3d 7a 9c 3b be
       -0.020470724 -0.03258459 0.05267456 -0.1832141
000150 8d 18 49 bd a3 56 84 3d 4b 34 b3 bc ad 66 b5 bd
       -0.04909568 0.06461837 -0.021875521 -0.088574745
000160 48 56 ac 3d 12 7e 07 bd 9f 57 87 3d a9 9b 17 be
       0.08414894 -0.033079214 0.06608509 -0.14805473
000170 47 02 8b 3d 37 3d 0c 3e 3c 07 2f 3d f9 0f 01 3d
       0.06787544 0.13695227 0.04273151 0.031509373
000180 9d 70 be bc 50 19 5c bd d3 2c e5 3d c1 23 8a bd
       -0.023247058 -0.053735077 0.1119019 -0.06745101
000190 52 41 af 3e c3 28 d6 3d 6b df 12 bc 2e 81 f3 3c
       0.34229523 0.104569934 -0.0089644 0.029724684
0001a0 ca 92 b9 bd db bf 8f bd 94 f7 f2 3d 77 01 e5 3d
       -0.09061201 -0.070190154 0.11863628 0.1118192
0001b0 41 2f b1 3d 92 2a aa bd 97 e7 c3 3c c8 3a 9d 3c
       0.08651591 -0.08308901 0.023914142 0.019193068
0001c0 9f 6a 8a bd f0 b0 52 bd 82 0d a5 3d 46 af 73 3c
       -0.067586176 -0.051438272 0.08059217 0.014873331
0001d0 9b 87 d8 bd 2d 3c 88 bd 46 61 ac 3c 69 61 d5 3d
       -0.1057274 -0.066521026 0.021042477 0.1041897
0001e0 c8 2a 03 3d b8 0f 7f 3c 6e dc 94 bd 29 1e 0a 3e
       0.03202322 0.0155677125 -0.07268606 0.13488068
0001f0 92 1e b6 3c cb a6 4c 3d a6 74 1f be 2b a6 43 bd
       0.022231374 0.049963754 -0.15571842 -0.047765892
000200 4a e5 96 bc 4b 41 16 bd 6b eb d5 3c a9 ba 18 bd
       -0.01841988 -0.036683362 0.026113233 -0.037287388
000210 52 22 74 3b a4 b9 92 3d 6a 00 1f 3d b1 41 71 bd
       0.0037251902 0.071643144 0.038818754 -0.05890054
000220 d5 a8 67 bd 68 16 16 be 4f 74 d4 bc aa c2 3d 3d
       -0.056557495 -0.14656985 -0.025934367 0.046328224
000230 04 80 d5 3d b7 ca f9 bb b2 53 8d 3d 6c 56 04 be
       0.10424808 -0.0076230424 0.06900729 -0.12923592
000240 03 df f0 bc 0b a9 61 bd 68 99 86 be 88 71 35 3d
       -0.029403215 -0.055092853 -0.26288915 0.044297725
000250 65 09 50 be bb cc 5a 3c 07 ce b9 bc de 03 89 bd
       -0.20316084 0.013354476 -0.02268125 -0.06690191
000260 8d 68 3c be d5 c2 9e bd c6 8e 90 bd 98 47 10 bd
       -0.18399258 -0.07752005 -0.07058482 -0.035224527
000270 9f d3 88 3b a9 cd 0c be cc 01 bc bd 03 47 c0 3c
       0.004175618 -0.13750328 -0.0918003 0.023471361
000280 be 32 3c 3d b2 49 88 3d f3 09 1d be 4b e0 f3 bd
       0.04594683 0.06654681 -0.15335827 -0.11908015
000290 2c b7 96 bd e6 ca c8 bc 4e b2 05 3e c7 86 37 3d
       -0.07359156 -0.024510812 0.13056299 0.044806268
0002a0 c5 32 d8 3d 8e f0 1d be 8f ea 50 bd 8e 47 7e 3d
       0.105565585 -0.15423796 -0.051004943 0.06207996
0002b0 2c d7 56 bc 10 c2 66 3c d6 66 78 bd e6 25 be 3c
       -0.013112824 0.014084354 -0.060644947 0.02321143
0002c0 7e 06 82 3c 03 e9 b8 3d 8c 4f c5 3d d7 f3 71 be
       0.015872236 0.090288185 0.09634313 -0.23628174
0002d0 40 90 c7 3d 26 f8 81 be 38 e9 e6 bb 65 76 1e 3c
       0.097443104 -0.25384635 -0.007046845 0.009671782
0002e0 ff 9a 5b 3c 2c 26 ae bc 0b 48 34 be 54 72 65 3d
       0.013403653 -0.021258436 -0.17605607 0.056017235
0002f0 76 92 89 bd d1 41 f5 bc 03 5e 22 be e5 06 c9 3d
       -0.06717388 -0.02993861 -0.15856175 0.09815768
000300 a1 62 78 bd 0e a0 28 bc f8 bc d2 bd 3b b7 cd bd
       -0.060640935 -0.010292066 -0.10289949 -0.10044714
000310 ba c0 4a bd 8e 53 1e bd 7a cc d6 3d 6d ff f4 bb
       -0.049500205 -0.038653903 0.104882196 -0.007476738
000320 34 dc 5b 3c b4 ec c0 3d 91 38 cb 3d b3 95 39 3d
       0.0134192 0.094201475 0.099228986 0.04530878
000330 b1 65 d0 3d 30 db 42 bd 34 8b 8a 3d 0b da 04 be
       0.10175646 -0.047572315 0.06764832 -0.12973802
000340 b5 ae 19 3d 0d b2 f2 bd 0f bc 86 3d 7a 8c 39 bd
       0.03752013 -0.11850367 0.06578838 -0.045299985
000350 64 55 32 3e 2e 1b 03 3e 80 b5 ca bb a6 cb 19 3e
       0.17415386 0.12803337 -0.0061861873 0.15019092
000360 ff 80 d2 3d cb 22 0d 3b 32 0c 27 3b 40 3d fc 3d
       0.1027851 0.002153563 0.0025489447 0.1231637
000370 61 10 8a bd 51 c3 a4 bd da 91 53 bd 6b ac fa 3d
       -0.06741405 -0.08045066 -0.051652767 0.12239917
000380 80 0a 14 be d4 43 0e be d8 a1 2c 3d c1 7d 09 bd
       -0.1445713 -0.13893062 0.042146534 -0.033567194
000390 9d ed b4 3d ce e5 72 be 69 12 f0 bd 8d 25 8a 3c
       0.08834384 -0.23720476 -0.117222615 0.016863609
0003a0 6e 8f 90 bd 9e 60 42 be a3 ec b9 3d d6 ec 59 3d
       -0.07058607 -0.18982169 0.09078338 0.05320438
0003b0 d1 1f 6e 3e 27 88 ed 3d 64 d8 61 bc 3c 53 92 bd
       0.23254324 0.115982346 -0.013784502 -0.07144782
0003c0 34 c2 c6 bd 51 81 c5 bc ba 41 56 bd 1f 8d 1d bc
       -0.0970501 -0.024109514 -0.052308775 -0.009616165
0003d0 31 ab 1b bc 1f 4c 35 bc f0 56 ec bb a2 d1 86 bd
       -0.009501264 -0.011065512 -0.007212512 -0.06582953
0003e0 88 4d 8c 3d d5 3f b5 3d 53 34 76 3d ec bf 11 bd
       0.068507254 0.088500656 0.060108494 -0.03558342
0003f0 4f f9 b6 3b 71 c0 a1 3a fb 9a b5 bc 9a 5b 73 3b
       0.005583919 0.0012340677 -0.022168627 0.0037133456

b_draw_mode f4 [4]
000000 b3 82 0a bc 27 d3 89 3c 81 ef 5d bb 7d 4f a3 bb
       -0.008454013 0.016824318 -0.003386468 -0.004983841

W_lay_eggs_bin f4 [192, 11]
000000 37 c8 f3 bd d6 74 6c be 04 77 33 be 44 b1 2c be
       -0.11903422 -0.23091444 -0.1752587 -0.16864496
000010 10 db f7 3b d9 ff 02 be 77 5a f9 bd 74 c8 13 be
       0.007563956 -0.1279291 -0.12175458 -0.14431936
000020 21 19 07 be 3c e2 3b be da 03 39 bc 1d 48 cc bc
       -0.1319318 -0.1834802 -0.011292422 -0.02493673
000030 a5 88 3b 3e d0 34 99 3c 0a 12 24 3e 47 dd b6 3d
       0.18313845 0.01870194 0.16022506 0.08928924
000040 ae 68 5d bd 1f d8 14 3e 4f 86 1a be cd eb 7e 3c
       -0.05405491 0.14535569 -0.15090297 0.015559149
000050 18 35 fd 3d 2b c1 fc bc fa f3 ee 3d 61 57 75 bd
       0.123636425 -0.030853828 0.116676286 -0.059897784
000060 b2 ea 97 bc c1 b0 86 3d a7 1e af bd d4 ce ce 3b
       -0.018544529 0.06576682 -0.08550768 0.006311277
000070 c9 9b 95 be 93 ec f2 3c a7 79 79 bd 72 3a 97 bd
       -0.29220417 0.029653823 -0.060907032 -0.073841944
000080 e5 7c 98 3d bd 41 13 bd 23 63 76 bc 2e 1a bf bd
       0.07445697 -0.035951365 -0.0150382845 -0.09331165
000090 02 e7 3b bd 0d 3f a1 3d 99 c2 99 bd f6 57 16 3d
       -0.045874603 0.07873354 -0.0750782 0.03670498
0000a0 20 3e 37 be ab 58 54 be 46 4c 11 be 1a ba 5a 3d
       -0.17894793 -0.20736949 -0.14189252 0.053400137
0000b0 ec 0a ae bd 63 0f a2 bd 6d 1a d4 bd 31 2e 0e be
       -0.08498177 -0.07913091 -0.10356603 -0.13884808
0000c0 3a 43 89 3d f4 87 45 bd dd 93 27 bd e7 8f 33 3e
       0.067022756 -0.048225358 -0.040912498 0.17535363
0000d0 01 34 55 bc e1 af 3e bd 8d b6 ab bd b6 26 60 bd
       -0.013012887 -0.04655445 -0.08384428 -0.054724418
0000e0 a1 09 d4 bc a2 c4 ab bd 9c 50 93 bd 6e 86 4b 3e
       -0.025883498 -0.08387114 -0.071931094 0.198755
0000f0 b0 8e 6a bd 7e 10 8e 3d 58 e5 1e 3c 82 fb 42 3e
       -0.057264984 0.069367394 0.0096982345 0.19041255
000100 99 e0 8b 3d f0 d8 82 bd 7d c3 10 3c 1f ea 66 3d
       0.06829948 -0.06389034 0.008835671 0.05637562
000110 91 fc 93 be 85 a7 18 3d 45 11 45 bd b5 97 53 3d
       -0.2890363 0.037269134 -0.048112173 0.05165835
000120 b0 d8 26 bd 51 79 dc 3d 59 d1 54 3d b8 95 b4 3d
       -0.040733993 0.10765327 0.051957462 0.08817619
000130 61 a7 a3 bd 0c fb 2e 3d 7a 66 04 be 94 20 34 3d
       -0.07990909 0.042719886 -0.12929717 0.04397638
000140 12 73 3a 3e 77 3d e1 bd 17 c3 1c 3d a1 a3 fc 3d
       0.18207958 -0.109980516 0.03827199 0.12335897
000150 84 ce 9c bd ce c2 4c be 24 59 a5 bc 05 c2 43 be
       -0.07656577 -0.19996187 -0.020184107 -0.19116981
000160 88 65 99 3d 37 f3 6f 3d 79 de ce 3d d2 08 44 3d
       0.07490069 0.058581557 0.10101027 0.047859974
000170 2e 5c e4 3d e4 ad 2b be 53 ce 0b 3d 14 79 28 3e
       0.111503944 -0.16765553 0.034132313 0.16452438
000180 aa 30 cf bd 27 d8 e2 bd a0 49 ce bd 6a f9 22 bc
       -0.10116704 -0.11076384 -0.100726366 -0.00994716
000190 67 4b 03 be 7c 47 8c 3d 91 e9 55 3d e4 a5 1a bd
       -0.12821732 0.06849572 0.0522247 -0.037755862
0001a0 d6 ec a6 ba be 0f ec 3d 83 b4 8d bd fa 3b 91 3d
       -0.0012735378 0.1152644 -0.069191955 0.07091518
0001b0 85 83 08 bd 6c 68 18 3d 9e fc bc bd 85 32 b2 3d
       -0.03332855 0.03720896 -0.092278704 0.08701042
0001c0 a7 eb de bd 64 31 0b 3e 60 58 84 bd 5c 4c ce 3c
       -0.10884791 0.1359306 -0.06462169 0.025182895
0001d0 54 99 b7 3d 42 e6 a1 3d f8 04 24 3d ca 8e 6b be
       0.08964792 0.07905246 0.0400438 -0.23003688
0001e0 96 06 18 ba 6a ec 0a 3c 58 ee 75 3c 53 19 cb bd
       -0.0005799321 0.008479217 0.015010439 -0.099169396
0001f0 c4 23 d3 bc d0 db 0c 3e b5 a0 e9 3c f9 fb f1 3d
       -0.02577389 0.13755727 0.028519014 0.11815638
000200 8c b6 27 3e a5 c8 2c bd 8f 1d bc bd 04 30 1f bd
       0.1637823 -0.042183537 -0.09185325 -0.03886415
000210 48 17 05 be 05 86 ca 3c 14 de a7 bc a3 2b 7e bd
       -0.12997162 0.024722109 -0.020491637 -0.062053334
000220 5a fe 14 bd 77 49 70 bd 12 2a 87 3d e8 fa c0 bd
       -0.03637538 -0.05866381 0.06599821 -0.094228566
000230 6e 29 0f be 9e 3a 60 bd 6a 4b 32 bd 69 b3 41 bc
       -0.13980648 -0.0547434 -0.04352895 -0.01182256
000240 99 cb 52 3d e8 96 a7 bd d4 59 bb 3d e0 f8 d0 bb
       0.051463697 -0.0818308 0.09147993 -0.0063773245
000250 e4 e1 47 3d 5f 83 3a 3d 25 22 a8 be 79 78 bf bd
       0.04879941 0.04553544 -0.3283855 -0.0934915
000260 4d 69 4a bc b0 f4 f5 3d e6 05 d1 bc d2 90 24 bd
       -0.012354207 0.12009561 -0.025515508 -0.040177174
000270 d0 2b 0a bd 93 a5 1d bd 85 df 81 be e0 8e 92 bd
       -0.03373319 -0.038487982 -0.25365844 -0.071561575
000280 f7 ab 55 3e 0f 4b 64 bd d2 61 2e 3e 88 39 1a be
       0.2086638 -0.055735644 0.17029503 -0.15061009
000290 7d 5c de 3d 81 c9 5a be 09 97 20 3d 9f b0 1d bd
       0.108574845 -0.2136593 0.03920654 -0.038498517
0002a0 fd fb 34 3e 30 b7 44 be 21 5b 2c be 8c 5b 08 be
       0.17674251 -0.19210505 -0.16831638 -0.13316172
0002b0 59 5a 12 bd 99 fd 1d be 79 0c 91 bc d9 6b 75 3d
       -0.035730693 -0.15428771 -0.017706143 0.059917305
0002c0 fc a9 c5 3d 97 6f e1 3d 9d 3e b1 3d 3b a1 b5 bd
       0.096515626 0.11007612 0.08654521 -0.08868643
0002d0 fd 82 2c 3d fc 87 d2 bc 19 ea 9f 3d d5 52 0c be
       0.042117108 -0.025699608 0.078083225 -0.13703473
0002e0 1d 64 0b be 12 3c e5 bc 11 89 af bd c9 2e 78 3d
       -0.13612409 -0.027982745 -0.08571065 0.060591493
0002f0 2c fb a1 3d 54 8d e5 3d 3c 9d d8 3d e9 3e 6d bd
       0.07909235 0.11208597 0.10576865 -0.057921324
000300 c7 7f a0 bd 6d 74 1d 3e 6f b9 21 be e4 20 d2 ba
       -0.078368716 0.15376444 -0.15793394 -0.0016031531
000310 97 3f e9 bc e0 d6 3c 3e 82 09 ba bb 78 a8 55 3d
       -0.028472705 0.18441343 -0.005677403 0.052162617
000320 b1 55 ee 3d d0 62 12 bd e8 e1 53 3c 9c c6 63 bd
       0.11637438 -0.035738766 0.012932278 -0.05560933
000330 78 ed d7 3b ae c8 56 bd b2 4a ac bd f6 88 1c 3d
       0.006589588 -0.052437477 -0.084126845 0.038216554
000340 05 02 a2 3d 07 ff 88 3d 34 4c fa 3d e4 b2 64 3c
       0.079105414 0.066892676 0.12221566 0.0139586665
000350 8f f7 4f 3d 70 2d 45 3e b5 0a 01 3d d7 c8 0f bd
       0.0507732 0.19255614 0.03150435 -0.035103645
000360 45 82 6b 3d e1 14 d6 3d ed e7 9e 3d 36 6c 10 bc
       0.05749728 0.10453201 0.0775908 -0.008814862
000370 e1 72 2b 3e aa ea 0e be cc 6c 59 bc 87 e9 2e 3e
       0.16743042 -0.13956705 -0.013270568 0.17081271
000380 1b fb 85 be 4a 73 c4 3d 60 be a1 3c fe 3b b9 3c
       -0.2616814 0.09592302 0.019744098 0.022611614
000390 8f d6 fe bd 07 8e 5b 3d b7 d2 2e bc 86 db f7 bd
       -0.124432676 0.053602245 -0.0106703555 -0.12102418
0003a0 4f 11 26 bd 00 07 b5 bd fa c3 f5 3c 5f ad 10 be
       -0.04054385 -0.08839226 0.030000675 -0.14128636
0003b0 37 a1 0b 3e 44 b0 d9 3d 5e 70 c4 3c 93 6f 1b 3e
       0.13635717 0.10629323 0.023979362 0.15179281
0003c0 a0 d3 85 3d 02 26 2a be ca 4b d4 bd 90 eb 0e bd
       0.06534505 -0.16616061 -0.10366018 -0.03489262
0003d0 0e 7b 0a 3c 27 58 8d 3d 6b a8 1a 3e 55 ad fd 3d
       0.00845219 0.06901579 0.15103309 0.12386576
0003e0 f3 2f e9 bd 9b 67 31 bd d8 e2 87 bd 22 bc e5 bc
       -0.11386099 -0.043311696 -0.06635064 -0.02804381
0003f0 52 6c db 3d e8 80 f6 3d 7c 78 ad bd 35 75 ad 3d
       0.1071402 0.12036306 -0.08470246 0.08469621

b_lay_eggs_bin f4 [11]
000000 97 92 26 ba 0d 77 80 b9 96 c2 cc 3a 12 86 50 3a
       -0.0006354241 -0.00024502762 0.0015621956 0.00079545483
000010 23 e3 de b8 bf 0b 8d b9 9e 20 23 b9 ea 4e 85 b9
       -0.000106280924 -0.00026902367 -0.00015557042 -0.00025426532
000020 ed 07 7a b9 09 1c 20 b9 7d c4 9d b9
       -0.0002384481 -0.00015269233 -0.0003009177
