reports/ml/auto_improve_factorized_phase3_long/iter_002/factorized_model.npz (npz, 71924 bytes, 17 tensors)

W1 f4 [48, 192]
000000 da 55 c6 3d 1a 70 01 be f9 24 76 be d7 3f 60 3e
       0.09684344 -0.1264042 -0.24037541 0.21899353
000010 62 bc 58 3c 70 fc 74 be 52 bf 83 bd f3 36 94 3e
       0.013228508 -0.23924422 -0.06432976 0.28948173
000020 64 2d 56 3e b2 a3 89 be fb 2f b0 be 56 ba 87 bd
       0.20915753 -0.26882702 -0.34411606 -0.06627338
000030 e1 6b 94 3d 5b a0 36 bd 09 65 70 3e 0b e1 ce 3e
       0.07247139 -0.04458652 0.23476042 0.4040607
000040 84 a3 3b bd ce 1d 6a bd fe 31 d4 3c 8b ac 40 bd
       -0.045810238 -0.05715733 0.025902744 -0.04703955
000050 30 2a f9 3c 05 20 2d be 3e d5 a8 3e 72 bd 0b 3d
       0.030415624 -0.16906746 0.3297519 0.034116216
000060 f2 79 e2 3d 87 ac 0e 3e de 53 af be 4d b5 b3 3d
       0.110584155 0.13933001 -0.34243673 0.08774815
000070 4b 90 46 3e f9 31 c4 3d 2a 57 a8 3e 81 7b 2d 3c
       0.19390981 0.09579844 0.32879 0.010588528
000080 0f 46 57 be 34 fa 45 be 9d 01 57 bd 3a 42 d7 bd
       -0.21022819 -0.19333726 -0.052491773 -0.105106786
000090 56 9c 5f 3d fc 48 16 be 7b bb db 3d c9 3b 3c bd
       0.054592453 -0.14676279 0.107291184 -0.045955453
0000a0 99 2a 24 3c 25 fe 23 3e 4d fc c9 3d c4 26 59 bd
       0.010019922 0.16014917 0.09862576 -0.053015485
0000b0 29 cd a6 bd 1b 21 6e bd 96 22 66 be c4 18 a7 be
       -0.081446 -0.05813704 -0.22474131 -0.32636082
0000c0 29 b8 4d be 58 de 82 bd cf f9 c0 bc c5 e0 e3 bd
       -0.20089783 -0.06390065 -0.023556618 -0.11126856
0000d0 08 3a 08 3e 6d f2 43 3d 77 99 ac 3d db 0c 81 be
       0.13303387 0.047838617 0.084277086 -0.2520512
0000e0 0e 36 a2 be ed cd 8e 3d 95 30 52 3e a8 12 b0 3d
       -0.31681865 0.06972871 0.20526345 0.085973084
0000f0 4d 20 28 3e 3e 60 a9 ba e6 ad d0 bd 2b d1 3f 3d
       0.16418572 -0.0012922359 -0.101894185 0.046830337
000100 31 d9 12 3d f0 4f 72 be 6e e8 3f be 5b e9 6f be
       0.03585166 -0.23663306 -0.18741009 -0.23428862
000110 9b b9 c6 be 1e 66 98 be 7c 71 12 bd b7 47 85 be
       -0.3881348 -0.2976541 -0.03575276 -0.26031277
000120 bc a2 81 3e 19 0d 01 bd c4 9d 04 3e fa 07 80 bd
       0.2531947 -0.03150663 0.12950808 -0.062515214
000130 be 9a 1c be 90 0a 89 3d ca 80 61 3d 81 5d d3 bd
       -0.15293404 0.06691468 0.055054463 -0.10320569
000140 3b 79 ae 3e b7 2d fe bd db 0e ca 3d 8f 28 ec bc
       0.34076867 -0.12411063 0.09866115 -0.028827934
000150 c7 3f 92 3e ff 82 f2 bc c9 41 14 3e 06 44 bf 3d
       0.28564283 -0.02960348 0.1447822 0.09339146
000160 a9 05 03 3e 24 a4 60 be 11 88 fc be c8 9e 0b 3e
       0.12795128 -0.21937615 -0.4932256 0.13634789
000170 0d ce 4f bc b0 47 8d 3d 36 1a a0 3d e1 83 c5 3c
       -0.012683404 0.06898439 0.07817499 0.024110736
000180 ad 32 8a 3e c5 8b d7 3c 7e 74 6a 3e 6c b9 de bd
       0.26991788 0.026311764 0.22896 -0.1087521
000190 6d 16 27 3e ec 6a a6 bd a1 b6 4f bc a6 48 79 bd
       0.16317149 -0.081258625 -0.0126778195 -0.0608603
0001a0 06 4a 18 be 5c 37 cb 3e 9d 04 bc be 49 20 22 3e
       -0.14871988 0.39690673 -0.3672227 0.15832628
0001b0 63 c8 82 3e a7 7c 8c bd c7 6c 9b 3b 49 90 21 be
       0.25543508 -0.06859713 0.004743192 -0.15777697
0001c0 34 cc 44 3e 2b a1 12 3e 88 ee 7d be 46 bf 40 be
       0.19218522 0.14319293 -0.24798024 -0.18822965
0001d0 17 d9 84 bd 5f 27 90 be cd 40 19 3d 2d 11 ad 3c
       -0.06486719 -0.28155038 0.037415314 0.021126354
0001e0 94 b2 22 be e9 fd 15 3f 94 6c 84 bd fb 68 36 3c
       -0.15888435 0.5859056 -0.06466022 0.011133428
0001f0 f0 88 d2 be 00 75 90 3e 4f 20 7d 3d ee e1 82 3d
       -0.411201 0.28214264 0.06179839 0.06390749
000200 41 2d b6 3e e3 86 9d be bc 45 61 bd dd 62 c3 bd
       0.355814 -0.30766973 -0.054998145 -0.09540341
000210 08 94 e0 3d 29 3e cc 3d f8 e3 95 bd 38 e9 bd be
       0.10965735 0.099727936 -0.07318872 -0.37091994
000220 d4 ec d6 bd b3 d0 de be 93 40 5f 3e de ff 0e 3f
       -0.1049439 -0.435186 0.21801977 0.5585917
000230 dd 27 5b be 6e f4 62 3d 80 fa 1c 3d 3f 83 72 bc
       -0.21401925 0.055408888 0.038324833 -0.014801799
000240 bc 5b 78 be d2 7f 5a be 20 16 d9 bc 6b c8 ad be
       -0.24253744 -0.21337822 -0.026499808 -0.3394197
000250 63 75 12 be 0f 50 ee bd 15 71 55 3e 1f fb 37 3e
       -0.14302592 -0.11636364 0.20843919 0.17966889
000260 7b 5a 2d 3d d8 bb 21 3d 53 76 ef 3e 0a 1c 6a 3e
       0.042322617 0.039485782 0.46769962 0.22862259
000270 99 06 20 be d5 53 b3 3e c4 1f 86 be 8b 6e 8d 3d
       -0.15627517 0.35024896 -0.2619611 0.0690585
000280 99 7a 02 3e 71 53 3f be 9a 9e 18 bd 63 8c 16 bd
       0.1274208 -0.18684174 -0.03726063 -0.036754977
000290 24 85 a3 be 9c 43 ac 3e 67 b3 49 3e 6a dc 00 bd
       -0.31937516 0.33645332 0.19697343 -0.031460203
0002a0 a7 80 02 3e 71 9d 7c 3e 96 3b 05 3e 8f 84 52 3e
       0.1274439 0.24669434 0.13011011 0.2055838
0002b0 40 64 00 3e d2 34 a8 3e e2 b6 a1 3d ff ca 15 be
       0.12538242 0.328528 0.0789621 -0.14628218
0002c0 92 ba 08 be e9 61 8f be 94 6b 07 bd 4d 73 e8 bd
       -0.13352421 -0.28004387 -0.03306158 -0.11350117
0002d0 fb 89 1a 3e 79 2e 8f bc 75 1e 4a be 78 c6 c6 be
       0.15091698 -0.017478215 -0.19738181 -0.38823295
0002e0 b9 c9 d0 3e 20 5c 81 be db 72 fb 3d 36 b4 c7 3e
       0.40778902 -0.25265598 0.12277766 0.39004678
0002f0 99 e8 05 3d 8a 3d cc 3d bb 4f dc bc 41 62 c8 bd
       0.032692526 0.09972675 -0.026893487 -0.097843654
000300 a4 1b 18 3d d3 19 c0 bd 5f 80 8b 3d fe 60 3c 3e
       0.037135735 -0.093799256 0.06811594 0.18396375
000310 20 40 ee 3d 01 48 73 3e c7 f1 2d bd 90 bf 4e 3c
       0.116333246 0.23757936 -0.042466905 0.012618914
000320 84 d6 5c 3e 25 37 02 be 84 09 ae be f7 28 83 3d
       0.21566206 -0.12716348 -0.33991635 0.06404298
000330 a2 49 b1 3d ea 40 2a bc 94 e0 35 3e 61 fb a6 bd
       0.086566225 -0.010391453 0.17761451 -0.081534155
000340 50 37 d0 3b df 0f aa bb 1e 99 9a 3e 1f ec 19 3e
       0.00635425 -0.0051898803 0.30194944 0.1503148
000350 42 09 9f 3d a6 6e 32 be 39 76 b4 bd 11 54 c9 3e
       0.07765438 -0.17425022 -0.08811612 0.3932195
000360 61 20 af bd 8e e1 c3 be 40 26 53 be eb 0b 0a 3e
       -0.08551098 -0.38258022 -0.2062006 0.13481109
000370 bd 04 34 3e 16 8a 96 3e 12 22 ac bd ca 1a 4b be
       0.17579933 0.29402226 -0.08404936 -0.19834438
000380 1c f1 e4 be 31 aa dd be 8e eb c6 3d 31 d7 30 3e
       -0.44715202 -0.43293908 0.09712897 0.17269589
000390 ad f6 f5 3d 4b ef b7 be 5a 1b ce 3d 7a 52 b1 be
       0.1200994 -0.35924754 0.10063811 -0.34633237
0003a0 ce 46 b2 be 2f d8 41 3e 17 d0 2d 3e 6e 59 b9 3e
       -0.34819645 0.18930124 0.16973911 0.36201042
0003b0 22 94 49 be a6 70 4f bd 32 68 5a be 48 5a 4e 3e
       -0.19685414 -0.05064454 -0.2132881 0.20151627
0003c0 88 f0 ce be e3 3e e0 3d e3 22 b6 bc c0 34 08 bf
       -0.40417886 0.10949495 -0.022233432 -0.5320549
0003d0 16 16 72 be 3d 80 d6 bc 68 12 db 3e 97 93 07 be
       -0.23641238 -0.026184196 0.4278748 -0.13239895
0003e0 63 1f 87 be 4d 81 a3 3c 56 7c af 3d bc 46 69 be
       -0.26391134 0.019959116 0.08568637 -0.2278089
0003f0 9d f9 4e be c0 ad 4c bd e3 cb 04 3b 41 e2 e3 3d
       -0.20212407 -0.04997039 0.0020263128 0.11127139

b1 f4 [192]
000000 7e 2e 37 bb c9 28 24 3a 30 7a d2 b9 80 45 91 ba
       -0.0027951295 0.0006262181 -0.00040145358 -0.0011083335
000010 f4 9e ea 35 c7 09 06 ba 28 40 0e 39 30 f7 90 39
       1.748062e-06 -0.0005113151 0.00013566075 0.0002764999
000020 00 00 00 00 0c 7a 4a 3b 87 33 a7 ba 2c 13 e8 3a
       0.0 0.00308955 -0.0012756445 0.0017705909
000030 8c 2f 4b b9 ca 93 10 b8 f1 c3 95 3a 00 00 00 00
       -0.00019377301 -3.4469915e-05 0.0011426193 0.0
000040 02 93 ef 3a 70 bc 03 bb 81 81 75 39 37 dd cd ba
       0.0018278065 -0.0020101331 0.00023413265 -0.0015706186
000050 c5 e3 29 bb b5 12 2b 37 0e 70 c0 3a 8a c5 bd ba
       -0.0025923115 1.019675e-05 0.0014681832 -0.0014478427
000060 cb 1b c0 b9 7d 9f 46 ba cf 18 18 3a 43 a3 4c bb
       -0.000366418 -0.0007576866 0.00058020366 -0.0031225241
000070 ee 97 4e bb d4 3c 2e 3a a4 45 05 b9 b7 61 60 38
       -0.0031523663 0.00066466373 -0.00012709812 5.3496766e-05
000080 2e c6 87 37 30 3e 12 3b 49 a1 44 ba 8d 8e 55 ba
       1.6185539e-05 0.0022314899 -0.000750084 -0.0008146547
000090 84 a0 99 39 91 5f 49 ba 79 f8 2b ba ed 49 71 b9
       0.00029302028 -0.0007681782 -0.00065601576 -0.0002301109
0000a0 74 4f b4 b5 24 38 c1 b6 60 c5 99 b6 fd 90 18 bb
       -1.3434169e-06 -5.758384e-06 -4.582733e-06 -0.002327978
0000b0 4c 73 a2 37 5b 2f dc 38 8d ac 00 ba 44 38 95 ba
       1.9365594e-05 0.00010499238 -0.00049085246 -0.0011384566
0000c0 18 76 00 34 ef fc c4 ba b5 21 2e b9 55 a3 52 36
       1.1963891e-07 -0.0015028993 -0.0001660649 3.138751e-06
0000d0 ac c1 a6 b9 a5 1c 2f ba 5c 5d 4e 37 77 7b d2 38
       -0.00031806284 -0.00066799886 1.2300294e-05 0.000100365774
0000e0 13 96 4e ba 24 f3 bf ba dd 60 a0 38 26 22 0b bb
       -0.0007880639 -0.0014644605 7.647437e-05 -0.002123007
0000f0 d8 cd 24 ba 00 00 00 00 41 df a0 3a c7 42 07 bb
       -0.00062867766 0.0 0.0012273566 -0.0020639168
000100 72 d2 28 ba 00 00 00 00 00 00 00 00 b0 52 b8 b9
       -0.000644005 0.0 0.0 -0.00035156822
000110 66 03 bd 3a f5 e6 07 ba 0d 1a 05 b8 a9 19 42 b9
       0.0014420568 -0.00051842566 -3.1733933e-05 -0.00018510841
000120 b6 90 4b b9 8a 2c 4e 3b 00 00 00 00 45 36 1b 3a
       -0.00019413498 0.0031459653 0.0 0.00059208676
000130 3e e4 55 bb 67 fe 8a b8 a5 a1 a5 b9 c5 28 ae b8
       -0.0032637264 -6.627739e-05 -0.00031591687 -8.3045605e-05
000140 e0 11 c5 39 fd 6a d9 b6 64 0f 3d 3b 18 43 39 b9
       0.00037588086 -6.479559e-06 0.0028848285 -0.00017667969
000150 14 ec 66 3b b8 4b 62 3a 27 67 1c 38 a1 5f aa 38
       0.0035235928 0.0008632499 3.7289366e-05 8.124044e-05
000160 46 eb 5d 3b 38 4c 3b 35 02 9d cc b8 ed 21 31 39
       0.0033862158 6.977384e-07 -9.756723e-05 0.00016892674
000170 00 00 00 00 b6 f9 8d 38 71 91 e4 ba 00 00 00 00
       0.0 6.769916e-05 -0.0017438364 0.0
000180 54 f9 73 3a 6c 52 78 ba 00 00 00 00 b4 9f 93 3b
       0.0009306867 -0.0009472731 0.0 0.004505122
000190 c8 23 1a 3b c6 1d aa b6 60 34 9d 3a 7c 2a 36 ba
       0.0023519862 -5.069861e-06 0.0011993758 -0.00069490797
0001a0 6e 76 60 3a 2e 09 33 3b 71 90 82 b7 d8 f3 51 b6
       0.0008562569 0.0027318704 -1.5564468e-05 -3.1285363e-06
0001b0 f4 7f a2 39 d1 e1 14 36 0b 79 0f ba e3 b3 e5 b5
       0.0003099438 2.218516e-06 -0.0005473054 -1.7114183e-06
0001c0 09 a1 fc ba ce 42 75 b7 c6 45 d3 3a 4d 03 1e b8
       -0.0019274066 -1.4618692e-05 0.0016118817 -3.767321e-05
0001d0 f3 93 19 39 77 d7 d5 b8 60 cd 12 ba e1 b8 b9 39
       0.00014646332 -0.00010196765 -0.0005600061 0.00035423695
0001e0 00 00 00 00 7a 9e b6 b9 a1 7e 43 37 a7 17 41 b9
       0.0 -0.0003483182 1.1652389e-05 -0.00018414725
0001f0 0b 70 c2 b7 5b 6f 68 37 bc 2b a1 ba 00 00 00 00
       -2.3178776e-05 1.3854205e-05 -0.0012296359 0.0
000200 33 33 6a bb b6 43 44 37 00 00 00 00 90 09 e3 39
       -0.0035736084 1.1698276e-05 0.0 0.0004330394
000210 65 d4 02 3b 2b 0d ec 3a 0e 34 2b 3b 00 00 00 00
       0.0019963023 0.0018009295 0.0026123556 0.0
000220 f3 e4 13 38 56 1a 9d 38 4d cc 8d ba 40 cd 2c 3b
       3.5260757e-05 7.491249e-05 -0.0010818333 0.0026367456
000230 0d 12 f6 3a f9 e5 ae ba a9 f7 3b ba 00 00 00 00
       0.001877369 -0.0013343684 -0.0007170388 0.0
000240 31 0b 0e 39 00 00 00 00 30 ef cf 34 18 25 04 b9
       0.00013546344 0.0 3.8730786e-07 -0.0001260232
000250 45 ea 74 3a 03 8d 7e b8 f9 1d 90 ba 67 5c 23 b9
       0.000934277 -6.0689646e-05 -0.0010995261 -0.00015579314
000260 75 62 7d 3a 42 77 49 39 13 3f dc 3a d8 f1 fd 39
       0.00096658553 0.00019213281 0.0016803466 0.00048436108
000270 00 00 00 00 0b 8a 95 b9 a0 6f 21 38 84 d9 6a b9
       0.0 -0.00028522345 3.848935e-05 -0.0002239701
000280 ab a6 78 ba 90 5b 82 38 6c 16 d8 39 64 10 4a ba
       -0.00094852847 6.215938e-05 0.00041215436 -0.0007708131
000290 59 17 f3 b8 69 6b cf 38 12 97 98 39 6e da e3 ba
       -0.00011591492 9.890536e-05 0.00029104255 -0.0017383823
0002a0 4d c3 02 b9 46 76 b8 b8 36 cf 07 3b fc 7f 42 b8
       -0.00012470521 -8.795834e-05 0.0020722873 -4.63724e-05
0002b0 90 89 18 3a d1 b3 e0 ba e3 96 e2 ba 02 e2 a5 ba
       0.0005818838 -0.0017143433 -0.0017287399 -0.0012655857
0002c0 38 ce 86 36 a8 4d 2a b6 00 00 00 00 0e 7c 37 ba
       4.017518e-06 -2.5377176e-06 0.0 -0.00069993816
0002d0 b4 dc 04 3b a9 80 7b 3a cf 14 8a 3a 7b 42 fb ba
       0.002027315 0.0009594062 0.0010534766 -0.0019169593
0002e0 30 9a 9a 3a 37 46 88 3a 99 6b 5b 3a f5 3f 09 3b
       0.0011795219 0.0010396902 0.00083702203 0.0020942662
0002f0 75 0d 69 3a 1b 95 ea ba 74 90 22 ba a1 d9 d5 39
       0.000889025 -0.001789722 -0.0006201335 0.00040788672

W_action_type f4 [192, 4]
000000 70 e8 12 bd 2b 2d e7 3d df 8a a1 bd 5f e7 3f be
       -0.0358662 0.11287912 -0.07887816 -0.18740605
000010 09 8b 3d bc 8d 0b 06 be dd 28 07 be 47 df 86 3d
       -0.011568793 -0.13090344 -0.13199182 0.065855555
000020 1a b9 9f bc 42 97 4d 3d b5 0f 35 3e 5a b0 50 3d
       -0.019497443 0.05019308 0.17681773 0.050949432
000030 d7 d6 f0 3d 20 c5 16 3d 1d e5 0e bd 79 09 82 bd
       0.117597274 0.036809087 -0.03488647 -0.06349463
000040 8f 16 91 3c d1 3c 91 bb 31 2d 2c 3e 6a d2 00 3e
       0.017710952 -0.0044322987 0.16814114 0.12580267
000050 17 70 48 be 14 9b ec bd c2 7a 69 3d 74 67 14 bd
       -0.19574009 -0.11553016 0.057001837 -0.036231473
000060 cb 8f 93 bd bb 1a 7f 3e b6 74 11 bd 29 b1 87 3b
       -0.07205161 0.2491254 -0.035511695 0.004140992
000070 a5 d5 b4 bd e3 c1 42 3d d3 4f 61 bd b7 29 9a bc
       -0.08829812 0.047548186 -0.055007767 -0.01881872
000080 bc 8e 83 be 3f 9e 5e 3e f5 9b b8 3b 8a ce a6 3c
       -0.25694835 0.21740054 0.005633826 0.020362157
000090 98 f2 ea 3d b3 5f 32 bc 8b d3 fc bd a0 4d be 3d
       0.11472052 -0.010887074 -0.12345036 0.092921495
0000a0 37 18 e1 3d 9a 6d 85 3d 3c e0 2d bd f5 f4 0b be
       0.10990947 0.065150455 -0.042450175 -0.13667662
0000b0 ab d9 97 3c b3 5f b4 bd 8a 53 46 be f2 4c 83 bc
       0.01853641 -0.08807316 -0.19367805 -0.016027901
0000c0 38 02 ea 3b c1 08 d0 bd a1 6e 1d 3d 4e 10 17 be
       0.007141378 -0.1015792 0.038435582 -0.14752313
0000d0 4d 9a 86 3c 80 6f ec 3d 1d 84 b1 3c af a8 99 bc
       0.016430998 0.115447044 0.021669442 -0.018757192
0000e0 b2 92 75 3d 27 95 ea 3d 68 30 de bd 83 c8 f0 3d
       0.059954353 0.1145423 -0.108490765 0.117569946
0000f0 e6 9e 8a be 7b df b1 bd 75 e5 5c 3d e4 3b 92 3c
       -0.27074355 -0.08685204 0.053929765 0.017850824
000100 8c a9 1b 3e 38 bc ca bd fc 29 f0 bd 2f d6 eb 3d
       0.15201396 -0.09899181 -0.11726758 0.11515462
000110 6b 43 21 bb e8 00 43 bd 13 1f c4 3d e2 ab 79 bd
       -0.0024606835 -0.047608286 0.095762394 -0.060954936
000120 bc e6 e8 bd 2e a1 a7 ba f0 62 0d 3d ff e3 40 3d
       -0.11372134 -0.0012789124 0.034518182 0.047092434
000130 3c a7 08 3d c9 54 e7 bc bb b3 f9 3d 63 9a 2b bd
       0.033362612 -0.02823867 0.12192484 -0.04189528
000140 4b 80 fc 3d 3c c3 15 be e1 92 a8 bc 0f ee 3b 3d
       0.123291574 -0.14625257 -0.02057785 0.045881327
000150 d8 76 c3 bd 0e 02 86 bd 0a f6 87 bc 0d 16 0c 3e
       -0.09544152 -0.06543361 -0.016596813 0.13680287
000160 fe 71 f4 3c 1e ff 19 be b3 2d dd bd 07 9f 5b 3d
       0.029839512 -0.15038726 -0.10799732 0.053618457
000170 22 b7 e8 3c d9 13 69 bd e4 22 f8 3c 6e bc 8d be
       0.028407637 -0.056903694 0.030290075 -0.27682823
000180 f5 20 bd 3c e7 bf 0c be e5 56 a0 bd 1e 79 64 be
       0.023087004 -0.1374508 -0.07829074 -0.22311828
000190 67 d0 0c 3e 68 1c 79 3d 2e 94 00 3d ba ce 82 3d
       0.13751374 0.060818106 0.031391315 0.06387086
0001a0 bd 8a 35 3e 0a 6d 37 3d 41 fe 0c bd 3d f1 fa 3c
       0.17728706 0.044781722 -0.034422163 0.03063261
0001b0 f0 b0 22 be ff cb 0a be 17 47 a6 bd c1 7b f3 bd
       -0.15887809 -0.13554381 -0.08119028 -0.118888386
0001c0 25 6f ab 3c 84 43 4f 3d 2d 26 1b 3d 34 65 8b 3d
       0.020927021 0.050601497 0.037878204 0.06806412
0001d0 db f3 0d bd ad 9f 57 be 55 f0 f0 bc cc 18 0a 3d
       -0.034656387 -0.21057005 -0.029411474 0.033715054
0001e0 64 ea f1 bc a2 bd 6b 3e 44 0f cc bd 0e ce 62 be
       -0.029530711 0.23021558 -0.09963849 -0.22148916
0001f0 d3 8c 7a bd a4 b8 f9 3c 3b e0 fa bc ef 7f ab bd
       -0.061169457 0.030483551 -0.0306245 -0.08374011
000200 fc c0 d8 bd d5 c9 43 3e 5b a8 a2 3d 12 fa f4 bd
       -0.10583684 0.19119962 0.079422675 -0.119617596
000210 a5 8f 07 be 3a bc 2b be 25 41 3d be 20 5f a1 3c
       -0.1323839 -0.16771021 -0.18481882 0.01969868
000220 00 f8 35 3e 45 df bb bd c9 22 39 3e be bd 93 bc
       0.17770386 -0.09173445 0.18079676 -0.018034812
000230 97 5c 89 bd bf 93 b7 3d c9 b6 cc 3c 4c 4a 51 bd
       -0.06707113 0.08963727 0.024989503 -0.051096246
000240 96 d2 19 3d cf 06 29 3e aa d0 15 3d d5 b7 f0 3a
       0.037554346 0.16506504 0.03657595 0.0018365333
000250 3f 0e 24 3e 48 c3 4f bd 10 0d 31 3e 24 36 6b 3d
       0.1602106 -0.050723344 0.17290139 0.05742468
000260 d0 8a 0c 3e 5b bf f0 3d 47 9f 49 3d 8c db d4 3d
       0.13724828 0.11755248 0.049224164 0.10393438
000270 22 83 85 3c 4e ca 54 3c 1f 78 89 bd 89 cf 60 bd
       0.01629788 0.012987686 -0.067123644 -0.05488542
000280 fb ee c7 bd 54 49 2e bd 2e 23 9b bd fc f2 fe bd
       -0.09762379 -0.0425504 -0.07575069 -0.12448689
000290 c3 ae b6 3c 2d 7f 37 bd ce a1 c5 3d 52 a3 b7 3d
       0.02230013 -0.04479902 0.096500024 0.08966698
0002a0 d7 7e 5c bb 8e b0 df bd a0 26 67 3d 19 a7 c3 bc
       -0.0033644938 -0.10922347 0.05643332 -0.02388339
0002b0 7a b2 8f bc 24 f3 a0 3d 12 97 b3 3d e1 ac 44 be
       -0.017541159 0.078588754 0.08769049 -0.19206573
0002c0 a9 7d c8 3d 20 27 46 bc d7 93 02 bd 86 87 35 3d
       0.09789593 -0.012094289 -0.031879272 0.0443187
0002d0 90 98 07 3e d0 58 cf 3c d8 a5 13 3e 55 c2 58 be
       0.13241792 0.025310904 0.14418733 -0.21167882
0002e0 50 b0 44 bd ef 2e 9a 3d 08 1b a4 3c d3 38 63 bd
       -0.048019707 0.07528483 0.02003242 -0.055474114
0002f0 9c 81 30 3e ff 23 70 bd 5f 93 34 be e4 e0 00 3e
       0.17236942 -0.05862808 -0.17634343 0.12585789
000300 e8 5a 91 bd 6b e6 07 3e 17 5a b1 bc df a5 1c 3c
       -0.07097417 0.13271491 -0.021649403 0.009561031
000310 d2 4a 42 3d c0 52 a1 bc 6f be 09 3c b3 fe d2 3c
       0.047434635 -0.019692779 0.008407219 0.025756216
000320 84 96 08 be 06 69 bd bc a5 9b 70 3d b7 40 39 be
       -0.13338667 -0.023121368 0.058742184 -0.18091093
000330 a5 15 0d bd a6 6b bd 3d c2 86 da bd 57 3d b2 bd
       -0.03444447 0.09249048 -0.10670234 -0.08703106
000340 0a 17 29 bd cc 54 78 bd de b4 3c be 1c 20 6b 3c
       -0.041281737 -0.060627744 -0.1842837 0.014350917
000350 d3 5a 4f 3e 72 b8 1d bd f1 83 09 be a2 b8 1b be
       0.2024949 -0.03850598 -0.13429238 -0.1520715
000360 ee 94 8c 3d 29 56 10 3e d2 62 dd 3d 21 4c 19 3e
       0.068643436 0.14095367 0.10809864 0.14970447
000370 3c c9 ea bc 4a a6 02 be 08 3a ca 3c 29 3c ee 3d
       -0.02866041 -0.12758747 0.024685875 0.116325684
000380 d9 57 ae bb 17 4a 8d bd a4 32 54 3c 1f 32 9d 3d
       -0.005320531 -0.06898897 0.012951527 0.076755755
000390 31 a3 ef bd a2 f8 20 bc ec cb 8b bd 33 33 84 3d
       -0.11701048 -0.009824904 -0.068260044 0.06455078
0003a0 8a a3 8d 3d 95 d3 36 bc 79 26 28 3d 8a 22 31 3e
       0.06915958 -0.0111588435 0.041052315 0.17298332
0003b0 a8 65 4d 3d 2f c0 30 be f0 e6 50 3d 47 ef 9f bb
       0.050145775 -0.17260812 0.05100149 -0.004880819
0003c0 05 06 74 3d 1a 5d 9f 3d 66 12 a3 bd 4d 9e 1d bd
       0.059576053 0.077814296 -0.079624936 -0.038481046
0003d0 71 28 80 bd 3a 8e 1a bc ee fc 21 be 61 ab 0c 3d
       -0.062577136 -0.0094333235 -0.15819141 0.034343127
0003e0 a1 0c 03 3e d3 ee 2a 3e 2b f3 3d 3e 31 71 a8 3d
       0.12797786 0.16692667 0.18549792 0.082247145
0003f0 d0 7d 0e be a9 af 32 3e 16 5f 02 3e 07 f9 f9 bd
       -0.13915181 0.17449822 0.12731585 -0.12205701

b_action_type f4 [4]
000000 5b 96 03 bb 16 6b 4f 3b ee 1d e0 bb 90 33 ba 3b
       -0.0020078633 0.0031649522 -0.0068395054 0.0056824163

W_play_habitat f4 [192, 4]
000000 dc 77 dc 3d 92 4b 4a bd 3d 0b a9 bc 30 9e 71 3d
       0.10765049 -0.049388476 -0.020635242 0.05898875
000010 93 50 fc bd ee 03 cb 3d 2f 5b 8d bd b7 f7 2a be
       -0.12320056 0.09912859 -0.069021575 -0.16696058
000020 ac 82 2f 3d e1 19 e6 bd 58 fe 3e bc bb da 57 ba
       0.042849228 -0.11235405 -0.01165732 -0.00082341925
000030 6f 0a 04 be 32 13 cd bd c8 66 fb 3d de 64 4f 3d
       -0.12894605 -0.10013427 0.12275463 0.050633304
000040 c8 21 cc 3d 0c 35 bb 3d 5f 3b 7a be 1c 49 e2 bd
       0.09967381 0.09140977 -0.24436711 -0.11049101
000050 dd 14 b8 bb 8b b1 c8 bd 15 5a 5f bc 5a bf b2 3d
       -0.0056177215 -0.09799489 -0.013632317 0.08727904
000060 ad 86 33 bc 36 da aa bd 0f 89 9b 3d 4e b1 0d 3c
       -0.010957402 -0.08342402 0.07594501 0.00864823
000070 28 be 23 3d d8 92 57 be e1 e2 d9 bd fe 66 b0 3d
       0.03997627 -0.2105211 -0.10638977 0.08613394
000080 f3 c1 1a 3d 0a 24 79 bd c3 5c d8 bd 2d b8 3d bd
       0.03778262 -0.060825385 -0.10564568 -0.04631822
000090 8d 72 0b bd d8 dc 53 3d 22 94 28 be b4 e5 00 be
       -0.03404479 0.051724285 -0.16462758 -0.12587625
0000a0 e8 2a 68 bd cd e6 ec bd a8 19 e4 3d 5c c5 40 3c
       -0.056681544 -0.11567459 0.11137706 0.011765804
0000b0 e1 e9 9c bd 81 ae cf 3d 81 9b 99 bd 37 e8 67 3d
       -0.07661796 0.10140706 -0.07500363 0.05661794
0000c0 e9 c6 21 bd d1 2e 00 3e 71 97 38 3d 0b 87 a2 3d
       -0.039496336 0.12517859 0.0450663 0.07935914
0000d0 7d 2b d5 3d cc 76 85 3d 98 77 9c 3d 2f 6e b3 3d
       0.10408685 0.06516799 0.07639998 0.0876125
0000e0 e9 44 24 3e b5 c9 c0 bd 36 d1 4d bd 03 c9 20 be
       0.16041912 -0.094134726 -0.050248347 -0.1570168
0000f0 c9 a8 65 bd 8b 04 e9 bd 3d 52 8c b9 29 3a ad 3c
       -0.05606917 -0.1137782 -0.00026764153 0.021145897
000100 ac b0 2d bd 72 87 c7 3d 82 6f ae bd cc 49 c7 bd
       -0.042404816 0.09742631 -0.08517362 -0.097308725
000110 75 36 3e 3e d2 84 77 bd 14 72 01 be 6e 92 2a be
       0.18575461 -0.0604294 -0.12641174 -0.16657421
000120 94 0e 3c be 4c b4 92 ba 9b 82 d7 3d 34 e8 ac 3d
       -0.18364936 -0.0011192649 0.10522958 0.08442727
000130 b3 fc e6 bd 0f 7b 84 bc 0f 93 ee 3d 52 70 16 bd
       -0.11278667 -0.01617196 0.11649143 -0.03672821
000140 4c 78 e5 3d 07 bf 0b 3e b8 50 5e bd b2 8d 69 bd
       0.112045854 0.1364709 -0.0542762 -0.057019897
000150 ae 5c 4c 3e 93 e5 ef 3c 55 59 a9 bd b9 8b 1e 3d
       0.1995723 0.029284274 -0.08268992 0.03870747
000160 0d fc ee 3d ac 6f f2 3d 63 ac 96 3e ad ab 06 be
       0.116691686 0.11837706 0.29428396 -0.13151427
000170 3e 19 b6 bd 26 4b 46 3d b5 7d bb bd 45 54 82 3d
       -0.08891533 0.04841151 -0.09154836 0.063637294
000180 0f 91 fb ba e4 1e 95 bc a9 7f 8c bc 24 58 8c 3b
       -0.0019193011 -0.018203206 -0.017150717 0.004282968
000190 ce d1 70 bd 8c 55 ef 3d 56 1b 7e bd f6 3d 43 3d
       -0.058793835 0.11686239 -0.06203779 0.047666512
0001a0 e9 4f b9 bd 9c 3e f8 bd 54 3e 7a 3e d3 21 86 3c
       -0.09048445 -0.12121317 0.24437839 0.01637355
0001b0 9e d4 8b bc 14 ac f1 bc cc e1 a3 bc 9d f2 71 3e
       -0.017069157 -0.029500999 -0.02000513 0.23627706
0001c0 29 89 73 bc a6 3c 1a 3d 29 78 06 be 28 e2 06 be
       -0.0148642445 0.037655495 -0.13131775 -0.1317221
0001d0 4a 3d cf bc 49 22 8f 3d 7e 8a 86 3c 84 31 14 be
       -0.02529778 0.06988961 0.01642346 -0.14472014
0001e0 6a 11 d3 bd 0b 6e da 3c 69 5e d3 bd d8 57 65 3c
       -0.10306056 0.0266638 -0.10320742 0.013997994
0001f0 5e 96 43 bd 8d 00 01 be 8f b8 73 3c 7c 12 76 bd
       -0.047750823 -0.12597866 0.014875545 -0.06007622
000200 ac 75 12 be e8 21 20 3e 1e 3a c0 3d 35 00 d9 3d
       -0.14302701 0.15637934 0.09386085 0.105957426
000210 5c d6 61 3c 19 c4 15 bd cf a3 9b bd 35 46 3c 3d
       0.013784017 -0.036563966 -0.075996034 0.045965392
000220 75 c7 be 3c 01 1a 25 bd 95 0d 5c be 14 7e 2e be
       0.023288468 -0.040308002 -0.21489556 -0.17040282
000230 b6 10 9e 3d 91 e5 af 3d 52 84 1e be 75 8f 80 3d
       0.07718031 0.08588708 -0.15480164 0.06277362
000240 cd 08 93 3d ab 0e 18 3e 0d 7a 24 bd 97 6f 03 3e
       0.07179413 0.14849345 -0.04015546 0.12835537
000250 df 60 df 3c 09 74 8c bc 73 15 0c 3e 0b d4 3d bd
       0.027267871 -0.017145174 0.13680057 -0.046344798
000260 f4 15 a0 bc 64 99 2e bd 70 e4 ef bd 1b d3 87 bc
       -0.019541718 -0.042626753 -0.11713493 -0.016580155
000270 fd b4 a8 3c dd 0a 47 bd 37 ff 81 bc 57 2f 8e 3d
       0.020594114 -0.048594344 -0.015868766 0.06942623
000280 f7 a1 81 bc f5 d7 50 3d 8a 8d a3 3d e2 df b3 bd
       -0.015824301 0.050987203 0.07985981 -0.08782937
000290 10 28 2f bd 58 80 19 3d a2 5d bf 3c 45 6f f4 bd
       -0.042762816 0.037475914 0.023360077 -0.119352855
0002a0 d7 45 13 be f5 58 a7 3d 36 49 0f bc 2a 2f db 3d
       -0.1438211 0.08171264 -0.008745482 0.10702355
0002b0 7f ea ff 3b e6 c2 af 3a f8 a0 88 bd a9 48 8b 3d
       0.0078099365 0.0013409525 -0.06671327 0.06800968
0002c0 ce 9b f5 3d 73 84 a5 3d 30 01 4d bd cb 44 4a bb
       0.11992608 0.08081903 -0.05004996 -0.0030863758
0002d0 aa f9 56 bd 7f 5e 02 3e 08 ef 23 bd 14 f4 97 3d
       -0.052484192 0.1273136 -0.04002288 0.07419601
0002e0 1c 77 b8 3c 9b b5 ad bc 61 86 5a bc 0d c7 cb 3b
       0.022517733 -0.02120476 -0.0133377025 0.006218797
0002f0 ac cc 5a 3c 61 92 a7 3d 6f f2 0f 3e 2c ae ab bd
       0.013354462 0.081822164 0.14057325 -0.0838283
000300 84 b7 37 3d 89 34 18 be 50 15 f8 3d 49 8f 32 be
       0.04485275 -0.1486379 0.1211344 -0.17437471
000310 b0 82 9c 3d 11 5f ec 3d 89 d9 4c 3e dd c7 60 3d
       0.07642114 0.1154157 0.20004858 0.054878104
000320 c3 85 cd 3c 85 4e c6 bd 35 8e 88 bd 71 59 af 3d
       0.025088197 -0.09682945 -0.06667749 0.085619815
000330 16 d3 d9 bc 97 cb d7 3d 8b e8 2d 3d 0b 00 de 3d
       -0.026589911 0.105368786 0.0424581 0.10839852
000340 be 7d b4 bd 71 4e 0d bd bd 1f 83 bd 22 74 75 be
       -0.08813046 -0.034498636 -0.06402538 -0.23970082
000350 a0 dd 94 3c 4c 01 e9 3c 16 83 7d be 0e 4c 94 3d
       0.018172085 0.028443001 -0.24757037 0.07241069
000360 fe 22 6f 3c 64 c9 ea bd ad 48 76 bd 5a 54 2b b9
       0.014595745 -0.114641935 -0.060127903 -0.00016339254
000370 e0 9e 5f bd e4 28 53 3e 8a ee 37 3e d3 34 c7 bd
       -0.054594874 0.20621067 0.17962089 -0.09726872
000380 15 d1 2a bd a0 8b 61 3e 09 4b 34 3d 7b fc b7 bd
       -0.041703302 0.22025919 0.04401687 -0.08983704
000390 2d a3 24 bd 34 ab 82 3d 1e 92 c7 3d 65 90 d0 3c
       -0.04019468 0.06380311 0.097446665 0.025459478
0003a0 ab b9 77 3c cf 06 6f 3e f9 49 41 be e3 ad ce bc
       0.01511995 0.23342441 -0.18875875 -0.0252294
0003b0 9b 01 9b 3d d7 89 c7 3d 0a 79 37 bd 90 12 d8 3c
       0.075686656 0.09743088 -0.044793166 0.026376039
0003c0 d2 b3 f8 bd e9 a6 f8 bd 14 d2 fc bd 61 81 c2 bd
       -0.12143673 -0.121412106 -0.12344757 -0.09497333
0003d0 23 a9 5b 3c a5 b4 41 3e 8d bd 10 bd 58 80 42 3d
       0.013407025 0.18916567 -0.03533702 0.04748568
0003e0 4d ae 19 3d 76 a7 6b 3c 4a 8e 58 3e 37 46 96 3d
       0.03751974 0.0143831875 0.21148029 0.07337611
0003f0 a9 4d d5 3d cd f1 34 3d e0 c1 bb ba 78 19 aa 3d
       0.10415203 0.04417591 -0.0014324747 0.08305639

b_play_habitat f4 [4]
000000 37 17 03 3a b3 eb 9c b8 f3 0e 55 3a 59 44 a2 ba
       0.00050007127 -7.482562e-05 0.0008127533 -0.0012379988

W_gain_food_primary f4 [192, 7]
000000 4f 11 e4 bd 38 6f d7 3d 94 39 ca bd 16 d1 1c bd
       -0.11136114 0.1051926 -0.098742634 -0.038285337
000010 0f 03 57 3e ad 01 99 3d 5a c5 32 be 05 e5 d6 3d
       0.2099726 0.07471023 -0.17458096 0.10492901
000020 96 7d 03 3c 5d 3a 16 be 3c c6 38 3d 23 5f 9f bc
       0.0080255475 -0.14670701 0.045110926 -0.019454544
000030 38 93 33 bd b4 72 7d 3d a3 45 13 3e 3d bc b0 bb
       -0.04384157 0.061876968 0.14382033 -0.0053935335
000040 85 b3 75 bd 5d 1a 8b 3d ba 8b bf bd 72 23 7b 3b
       -0.059985656 0.06792138 -0.093528226 0.0038320688
000050 84 1c 79 3d 22 37 08 3d 87 5d 52 be 54 24 17 3e
       0.06081821 0.033255704 -0.2054349 0.14759952
000060 7f 0f ad 3d 69 f6 0a 3e 6a 2a 13 3d f5 40 6a be
       0.08450221 0.1357056 0.03592912 -0.22876342
000070 b5 db 5c 3e aa 2e b1 bc 0c 27 c5 bd c2 56 cf 3d
       0.21568187 -0.021628696 -0.09626588 0.101239696
000080 e0 a2 94 3d d7 99 82 bd cf a3 29 be d5 a1 90 bd
       0.072576284 -0.06376999 -0.16566394 -0.07062117
000090 1e f2 55 be 38 fa 87 be a6 57 20 be 35 7f 35 3c
       -0.20893142 -0.2655809 -0.15658435 0.011077692
0000a0 9a 75 25 3c 48 76 39 3e 19 73 54 3d c2 5f 81 be
       0.010098839 0.18111527 0.05186758 -0.2526837
0000b0 35 b4 31 3d cf 0e ce bd 53 cc 2d bd a3 3f ea 3d
       0.04338475 -0.10061418 -0.042431187 0.11437919
0000c0 74 48 6b 3c 8a 3d 0b 3d aa a5 b4 bc fb 7f a2 bb
       0.014360536 0.033994235 -0.022051651 -0.004959104
0000d0 31 5f 05 be 97 ad 56 bc 40 d5 2e 3e c7 8e 91 bc
       -0.13024594 -0.0131029105 0.17073536 -0.017768277
0000e0 51 02 06 3d 1e af 92 bd 6f e6 cc 3d e2 dc d5 bd
       0.032717053 -0.07162307 0.10004889 -0.10442521
0000f0 e8 27 90 bd c2 4a 9c bd 77 37 f1 bd 66 80 8d bd
       -0.070388615 -0.076314464 -0.11778157 -0.06909256
000100 8e ca 48 be b8 62 f2 3c 29 b0 ce 3d 6b af 7b bd
       -0.19608518 0.029588088 0.10092194 -0.06144659
000110 6e 47 07 3c a3 ae 4c bd fd 4a d6 3c 5b 85 24 bd
       0.008256776 -0.049971234 0.026158804 -0.04016624
000120 2f b1 28 bc 97 af 4a be e1 5d aa bc 22 59 ea 3d
       -0.01029615 -0.19793545 -0.020796718 0.11442782
000130 ff 19 6e 3b 70 cd 86 bd 2a 71 02 be 83 bb ef bc
       0.0036331413 -0.06582153 -0.12738481 -0.029264217
000140 a8 b5 9e 3a 80 49 07 bb 07 c0 29 be 6b 74 c6 3d
       0.0012108581 -0.0020643175 -0.16577159 0.09690174
000150 19 4d 05 be 3b 76 53 bd 7f 58 53 be ef 01 7b bd
       -0.13017692 -0.051626425 -0.20639227 -0.06128114
000160 6b 3c 4e bd 99 d5 e0 bd 35 0b 1a 3e 0c 73 a7 3d
       -0.050350588 -0.109782405 0.15043338 0.0817624
000170 dd 04 10 3e 86 9e 20 3e f0 67 0d be 27 a8 94 3c
       0.14064355 0.15685472 -0.1380918 0.018146588
000180 20 f3 dc 3d 99 cd 9b 3c 3a ba d0 ba 24 ab 4d 3d
       0.1078856 0.019018935 -0.001592464 0.05021204
000190 2b 2a 09 3e 8a 6a a0 bd 61 53 e3 bd fe cb f0 bc
       0.13394992 -0.07832821 -0.11099888 -0.029394146
0001a0 65 8b 65 bd ec 66 89 3e ef e7 b8 3d 69 ef 73 3d
       -0.05604114 0.26836336 0.09028613 0.05955449
0001b0 40 b8 2b be e2 0c a4 3d ca 8b 56 bd 54 1e 0f 3e
       -0.16769505 0.0801027 -0.052379407 0.13976413
0001c0 cb 9e 11 3d 9a 03 52 3e b4 6b 63 be 3d 3f de 3d
       0.035551827 0.20509186 -0.22209054 0.108519055
0001d0 c7 80 4f 3e 41 49 82 3d 8e 6c de 3d eb 6a ac 3d
       0.20263968 0.06361628 0.10860549 0.084188305
0001e0 d2 8b 2f ba 0c 6c 80 3c b0 76 b4 bc 79 31 0f 3e
       -0.0006696555 0.01567652 -0.02202925 0.13983716
0001f0 cd 32 0c 3e b9 bd e1 bc 23 1b 36 3d f2 d3 8b 3d
       0.13691254 -0.027556287 0.044459473 0.06827535
000200 08 dd 60 3d 90 04 99 3d 9f 10 f2 3b b4 91 0a be
       0.05489829 0.07471573 0.0073872353 -0.13532144
000210 76 6b 55 bb 6b dd 46 3d 14 37 d0 bd d6 b5 ca bd
       -0.0032565272 0.048551004 -0.10166755 -0.09897964
000220 74 59 ff bd 3e d5 30 3d d9 e8 34 bd 5e 42 0c 3e
       -0.12468234 0.043172114 -0.044167373 0.13697192
000230 c7 3c f0 3d d1 92 74 be 73 26 a2 bd 49 02 40 3e
       0.11730342 -0.23884131 -0.0791749 0.18750872
000240 80 31 0a be c0 67 16 be 55 97 1c 3e dc 31 af bd
       -0.13495445 -0.14688015 0.15292104 -0.08554432
000250 99 93 35 be 0e dc 80 bd 3b a3 58 bd 0e 5d 12 3c
       -0.17732085 -0.06291972 -0.052890044 0.008933319
000260 2e 22 f9 3d 17 fe 89 3d 70 e6 eb bd 02 a0 b9 bc
       0.121647224 0.06737917 -0.11518562 -0.022659305
000270 33 f1 7b bd f0 56 24 3e 84 6a 84 bd aa f5 2d 3e
       -0.061509322 0.16048789 -0.06465629 0.16988245
000280 84 64 48 bd 04 e1 73 3d e2 f2 e3 bb 0d fb a4 bc
       -0.048923984 0.059540763 -0.006956444 -0.020139242
000290 03 87 c2 3c 16 2c d6 3c aa dc 34 3d 24 f8 94 bb
       0.02374602 0.026144069 0.044155754 -0.004546182
0002a0 99 20 0e be 6b 59 19 be 88 9b f2 bd 53 dc 64 3c
       -0.13879623 -0.14975516 -0.118460715 0.013968545
0002b0 ca 3e b1 3b 68 31 b6 bd 01 6e fe bd a9 c8 c0 3d
       0.0054090964 -0.08896142 -0.12423325 0.09413273
0002c0 dd 83 00 be 5c e8 a2 bd 0e a4 23 3e 6a 89 91 bd
       -0.12550302 -0.07954475 0.1598055 -0.07106288
0002d0 c9 c4 82 be c6 90 f8 bd 0c 3a 23 3d e9 48 33 bd
       -0.2554076 -0.12136988 0.03985028 -0.043770704
0002e0 16 1b 05 3d 8c 9c 50 3d 22 52 ea bc b9 e8 48 bd
       0.032496534 0.050930545 -0.028603617 -0.049050067
0002f0 f6 39 12 bc 35 fd bb 3d 29 4f a2 3d ae f3 18 be
       -0.008924952 0.09179155 0.07925255 -0.14936706
000300 06 9e 6c bd 13 08 94 3d fc fa a7 bd c4 b5 67 bb
       -0.05776789 0.072281025 -0.08202168 -0.0035356143
000310 ad 93 1d 3d 7e 1f 26 be 86 0f 46 3d 67 4e 06 ba
       0.038470913 -0.16222951 0.048354648 -0.0005123377
000320 ac 99 31 be e8 d8 21 3c 1a b7 ef bd c6 7d 12 3c
       -0.17343777 0.009878375 -0.11704846 0.00894112
000330 36 a7 a2 bc 11 8b 5e be 18 a5 13 bd f3 d5 12 3d
       -0.019855123 -0.21732737 -0.036046118 0.03584857
000340 d0 b5 2d be 6c ad 57 3c 1b 9a 85 bd ec e7 94 bb
       -0.16963887 0.013163906 -0.06523534 -0.004544249
000350 de 5f 7e 3e c4 1e f4 bd 46 1a 87 bc 0d c1 b0 bd
       0.24841258 -0.119199306 -0.01649202 -0.086305715
000360 54 4b b8 3d cf e7 49 3c 23 d1 1f bd a9 f1 a9 bc
       0.08998743 0.012323334 -0.039017808 -0.020745115
000370 db a0 0b be 53 4a f1 ba 4e 3f 4a be 59 45 28 bd
       -0.1363558 -0.0018408991 -0.19750711 -0.04108176
000380 7c aa 42 be e4 7f 7a bd 23 1a 3d 3c 16 78 ed 3c
       -0.19010347 -0.061157122 0.011541876 0.028987925
000390 31 8e 8e be 3b 56 dd 3c 00 03 7b bd 12 52 de 3b
       -0.27842858 0.027018657 -0.061282158 0.006784686
0003a0 1b c9 fc 3d a2 04 ab 3d 15 da 8c bd 3a e1 bd 3c
       0.12343045 0.08350493 -0.06877533 0.023178685
0003b0 4c 42 86 3e 8f f7 eb 3d c4 6f f7 bd b5 37 18 3d
       0.26222456 0.115218274 -0.120818645 0.0371625
0003c0 63 d8 97 3d 0d da 7e 3b 83 98 57 3e 09 21 0c be
       0.07414319 0.0038887293 0.21054272 -0.13684477
0003d0 8e c9 f2 3c 6f 7e f2 3d 4b b9 b2 3d c3 ee 6b bd
       0.029637124 0.118405215 0.08726748 -0.057600748
0003e0 0d 0c 7e 3d 10 bd fb bc 9c 1c a2 3d e2 ae b2 bd
       0.06202321 -0.0307298 0.07915613 -0.087247625
0003f0 e7 5b 05 3e 3d 28 66 bb 57 d4 75 bd b0 22 76 3d
       0.13023339 -0.0035119199 -0.060016956 0.060091674

b_gain_food_primary f4 [7]
000000 7c f7 63 ba f6 60 33 38 72 63 fb 3a 1b e9 7f 39
       -0.0008696241 4.2767228e-05 0.0019179417 0.00024405534
000010 3e 62 ed ba 3e 70 06 3b 21 7e ce ba
       -0.0018110943 0.002051368 -0.0015754142

W_draw_mode f4 [192, 4]
000000 f4 32 36 bc 51 3b 55 be b7 70 7f 3c 0d b0 94 bd
       -0.011120547 -0.20823409 0.015590838 -0.072601415
000010 37 a2 1c be 7f 3b f9 3d c6 f5 4a bd 12 dd 40 3e
       -0.15296255 0.12169551 -0.049550794 0.18834332
000020 43 75 65 bc cc ac 5a bd 7c 29 e6 3c 3b 5c 0a 3c
       -0.014005008 -0.05338745 0.028095953 0.008444841
000030 a5 00 83 3d d3 cd b7 bd f7 ed 92 3c e3 d8 c7 bd
       0.06396607 -0.08974805 0.017935736 -0.09758165
000040 41 2f 01 be 85 e5 fe 3d de dc 0a 3e 5f a8 28 3e
       -0.12615682 0.12446121 0.13560817 0.16470478
000050 85 34 f4 3d 4e 61 9c 3c b2 3d e4 bd 64 17 ad bd
       0.1192408 0.019089367 -0.1114458 -0.08451727
000060 d0 cf d2 bd 5e 02 78 3c 75 24 20 3e aa 07 dc 3d
       -0.10293543 0.015137283 0.15638907 0.10743649
000070 89 88 73 3c 2b 56 1f 3d c4 1f 02 3d c5 45 e6 3d
       0.0148640955 0.038900536 0.031768575 0.11243776
000080 01 7c 70 bc 8f 54 14 3d ff 69 8b 3d fe fa 08 bd
       -0.014678002 0.036213454 0.068073265 -0.03344249
000090 92 21 35 3e 23 ab 5a 3e 93 6e c4 3d d1 30 3e 3c
       0.17688587 0.21354346 0.09591403 0.011608318
0000a0 86 40 43 bd 1a 6e 41 b9 3b 4e 5f 3e 86 69 83 3c
       -0.047668956 -0.0001844693 0.21807186 0.016041528
0000b0 60 62 13 bd a1 a3 e7 3d c2 5d 74 bd 2c 58 0f 3e
       -0.03598249 0.113105066 -0.059659727 0.13998479
0000c0 36 75 99 3c ec fe c0 bc aa 6f 27 3d 1f 0a 11 be
       0.018732648 -0.023559056 0.040877976 -0.14164017
0000d0 2d 66 90 3d 25 14 ce 3c 2e cd 70 3c 32 ca 71 bd
       0.070507385 0.02515609 0.014697356 -0.05903072
0000e0 d6 b8 ee bd cf fd 2c 3c 5e 4e e2 3d 5c 87 16 3d
       -0.116563484 0.01055856 0.110501036 0.036750183
0000f0 7b 25 6c bd ed 98 cf bd 5b 93 44 3d 29 e4 08 be
       -0.05765293 -0.1013659 0.04799209 -0.13368286
000100 ab 62 01 be bb 64 fc 3d 85 39 97 be 4b 41 0e 3d
       -0.12635295 0.123239 -0.2953607 0.034730237
000110 e8 8c 45 be 3f 1a df bc fc 66 b1 bb d6 27 76 3d
       -0.19292033 -0.027234195 -0.005413888 0.060096584
000120 72 7b 02 3e 6a 0f d7 3d 96 1e cf bd 0e be 40 3c
       0.12742403 0.10500987 -0.10113256 0.011764063
000130 f1 df bd bc 21 b7 82 3c c6 fc 94 3d ad af 16 be
       -0.023178073 0.015956463 0.07274775 -0.14715452
000140 99 ff 34 bd 65 17 7e bc b6 ae 12 bd 97 ca 89 3d
       -0.04418907 -0.015508507 -0.03581115 0.06728094
000150 c9 98 25 3d 7f 4b 76 bd 96 54 a5 3b b5 7c 45 3c
       0.04042891 -0.060130592 0.005045484 0.012053658
000160 63 72 c2 3d f2 e4 65 3d d5 2e 84 3c 79 49 68 bc
       0.09494474 0.056126542 0.016135613 -0.0141776735
000170 cb 70 3f 3c 2c e3 d1 bc 80 fd 03 3d 9c 6f 8e 3d
       0.011684607 -0.02562102 0.03222418 0.069548815
000180 83 45 8e bd 91 33 cd 3c 9a 35 72 bd ed 4b 05 3d
       -0.06946852 0.025049003 -0.05913315 0.03254311
000190 08 54 64 3e f1 6b 2c 3d 76 b3 21 3e fd a0 00 3e
       0.2229768 0.04209513 0.15791115 0.12561412
0001a0 e3 18 bd 3a fc 74 23 bc 57 8f f8 bd 82 a8 f0 3d
       0.0014426972 -0.009976622 -0.12136715 0.1175089
0001b0 46 89 5a bd 8a e3 20 be 79 e8 b6 3d 9a 52 e9 3c
       -0.05335357 -0.157118 0.089310594 0.02848177
0001c0 a6 bd 41 bd ec 62 9e be 7d 01 61 bb b3 b9 08 3d
       -0.047300003 -0.30934846 -0.0034333162 0.03338022
0001d0 b2 80 33 3d b4 ec 57 3d c2 d1 54 be 8a f5 0a be
       0.043823905 0.052715972 -0.20783141 -0.13570228
0001e0 b2 24 80 bc 92 bc f7 bc 0b 08 b5 bd cb 62 7a 3d
       -0.015642498 -0.030241285 -0.08839425 0.061129373
0001f0 b2 af 20 be 2e ad 93 3d 4f 58 d3 bc 96 23 85 3d
       -0.15692022 0.07210766 -0.025798945 0.06500928
000200 33 d1 7c bc 15 09 92 3d e3 2e a4 bd 76 45 3c bd
       -0.015430736 0.071306385 -0.080167554 -0.04596468
000210 c6 b3 24 3e 81 f9 fa 3d cb 9b fc bc ed 10 58 be
       0.16084203 0.1225462 -0.030836007 -0.21100207
000220 d5 b1 e6 3d 18 3a 80 3d 12 e0 ca 3d 7b 91 a2 3d
       0.112643875 0.062610805 0.09906019 0.079379044
000230 f0 b8 1d 3e b2 ca bd bd 09 51 94 bc f8 3b e4 bd
       0.1540258 -0.09267177 -0.018105047 -0.11144251
000240 15 b0 b2 3d d1 48 cb 3d 59 d4 13 bd d5 3b 52 3d
       0.08724991 0.09925998 -0.036091182 0.05132659
000250 bb a8 94 3c 3b fa 31 be 69 9f ee 3c fe 5c 6c bd
       0.018146863 -0.17380612 0.029128747 -0.05770587
000260 f2 a2 05 3c a9 53 9f bc ea 9f c4 bd 47 d1 89 3d
       0.008156525 -0.019449072 -0.09600814 0.067293696
000270 db 52 27 bd 3e 2f 7b bc fe 6e 63 bc cc 4f 8b 3d
       -0.0408505 -0.015331088 -0.013881443 0.068023294
000280 df a8 39 3d 4a e6 99 3d 38 4d 8c 3d c3 a5 96 bc
       0.045327064 0.07514627 0.06850666 -0.018389588
000290 6f e4 eb bd c8 be ee bd 0c d3 c5 bc 3e 90 27 3d
       -0.115181796 -0.116574824 -0.024148487 0.040909044
0002a0 40 3a 3f be 52 76 b8 3d ed 69 68 be fb b9 4f 3d
       -0.18674564 0.09006943 -0.22696657 0.050714474
0002b0 bd 3a 89 bd b2 07 41 be 07 2d 2b 3e cb 42 f6 bc
       -0.067006566 -0.18850592 0.16716395 -0.030061146
0002c0 a8 6c 92 3c d8 d3 b2 3d 66 0e 16 3e 0a e4 9e 3d
       0.017874077 0.08731812 0.1465393 0.07758339
0002d0 0c 85 42 bd 65 4f 6d ba dc eb a7 3d 66 be b4 bd
       -0.047490165 -0.0009052663 0.081992835 -0.08825378
0002e0 14 68 8f 3c ba b5 cd bc 4f bd 00 bd a1 46 d4 3b
       0.017505683 -0.025111068 -0.03143054 0.006478146
0002f0 ca 5f dc 3b cf 7d 20 be 33 2c 56 3d dc cd a1 3b
       0.006725286 -0.15672992 0.052288245 0.0049378704
000300 cf 77 91 bd 7a aa db bd fc d9 03 be 46 7d a3 bd
       -0.0710293 -0.10725875 -0.12876123 -0.079828784
000310 56 1f 65 bc 12 c2 25 be 6b 26 bc bd 7f 48 ab 3d
       -0.013984522 -0.16187313 -0.09187015 0.08363437
000320 bd e4 cf 3d 2b df 73 bc 30 17 d8 3b f6 a3 4c bd
       0.1015105 -0.01488475 0.006594561 -0.049961053
000330 ba 01 de bd 77 f1 78 bc b3 33 dd bc 37 ad 2a 3e
       -0.10840173 -0.015194288 -0.027002191 0.16667639
000340 bd e0 f4 bd d3 8a 0d be f7 10 14 bd 4f 47 f2 3b
       -0.11956928 -0.13822488 -0.03614899 0.0073937546
000350 6c 3b dd 3d 20 31 4d bd 46 6b f8 bc 59 cd 79 bd
       0.108023494 -0.050095677 -0.03032459 -0.06098685
000360 00 d5 06 be 31 1b 07 3d 75 0b 57 3e 54 d0 84 bc
       -0.1316719 0.032984916 0.21000464 -0.01621262
000370 37 66 27 bd 46 1a 15 3e 27 c6 0d 3e fa 48 9e bd
       -0.040868964 0.14560804 0.1384512 -0.07728763
000380 92 f0 cc 3c fe 56 f4 bc f6 21 a6 3d b0 ba 6c 3e
       0.025017057 -0.029826637 0.08111946 0.2311809
000390 45 6e 3b 3c a2 18 0f be 51 e5 1a 3e 34 0a 90 3d
       0.0114398645 -0.1397424 0.1512654 0.07033196
0003a0 4d a8 cc 3c a5 5e 08 3d 37 41 e9 bc 27 7f 1b bb
       0.024982596 0.033293385 -0.02847348 -0.0023726912
0003b0 ba 67 1d be 82 a4 16 be 6f 17 2a be bd 72 71 bd
       -0.153716 -0.14711192 -0.16610502 -0.058947314
0003c0 5a ea 1e be a5 b5 bb bd fe d6 f5 3d cb ab fa bd
       -0.15519086 -0.09165505 0.12003897 -0.12239798
0003d0 a7 99 0a be 07 f3 03 3d 51 7d d4 3d 5c bc ce bd
       -0.13535176 0.03221419 0.10375465 -0.100945204
0003e0 04 9c 30 bd 82 79 ce bc 41 ee 1d bd ff 42 3f be
       -0.043117538 -0.025204424 -0.038557295 -0.186779
0003f0 f6 d6 5d 3e a9 53 28 3c ec 45 ac 3c ff f5 68 3e
       0.21664032 0.010273852 0.021029435 0.2275009

b_draw_mode f4 [4]
000000 88 49 4f bb f0 ee 63 3c 1c 9c a3 bb fe 9c bc bb
       -0.0031629521 0.013911948 -0.004992975 -0.0057560196

W_lay_eggs_bin f4 [192, 11]
000000 7f ba 82 ba 6d 61 a3 bd 86 b6 bb bd f0 fc 2e be
       -0.0009973793 -0.07977567 -0.09165673 -0.17088675
000010 f0 9b 85 3c 45 5a f3 3d 9b 2b 3f bd ad 05 76 bc
       0.016309708 0.11882452 -0.046672445 -0.015016002
000020 3b bb 10 bd df 72 a8 3e 18 c5 a7 bb 0c e0 a0 3c
       -0.035334807 0.3290014 -0.005119931 0.019638084
000030 28 be cd bd 11 25 1c be 4f 6e 82 bc 28 74 a0 3d
       -0.10046035 -0.15248515 -0.01592174 0.07834655
000040 78 b3 99 bd bd 5e 01 3d 4c aa fd bd 55 25 ed bb
       -0.07504934 0.03158449 -0.12385997 -0.0072371163
000050 53 0c 51 3d 65 19 f0 3b 17 18 7e 3e 9e 1c 73 be
       0.051037144 0.007327246 0.24813877 -0.23741385
000060 3e da ae bd f1 99 1d be b5 65 bb 3d 1e 01 32 3d
       -0.0853772 -0.15390755 0.091502585 0.043458097
000070 86 a5 01 bc 02 51 48 be 62 71 03 3e 40 4a 79 bc
       -0.007912999 -0.19562152 0.12836221 -0.0152154565
000080 26 c9 84 bd b6 50 b9 bd 6f cc 0a 3e 5b 66 9a 3d
       -0.064836785 -0.090485975 0.13554548 0.07539054
000090 d7 7c 57 bd f0 ff 3a bd d7 44 09 be ab 46 1d bd
       -0.05260929 -0.045654237 -0.13405167 -0.038397472
0000a0 e4 16 2c 3d f2 1e 71 3d bb 68 48 3e 0b 6c 94 3d
       0.042014018 0.058867402 0.19571202 0.0724717
0000b0 91 79 86 bd e9 bd 1a 3e b7 b0 64 bd d4 7d e1 bd
       -0.06566156 0.15111507 -0.05583259 -0.11010328
0000c0 74 b8 a6 3d 58 e4 99 bc 64 4a d9 3c df 20 00 bd
       0.081406504 -0.01878564 0.02652473 -0.03128135
0000d0 0b 0f 95 bd 3d ba e6 3d 50 8a e4 bb a9 3a fb 3d
       -0.0727826 0.11265991 -0.006974496 0.12267048
0000e0 23 ad 25 be c2 29 47 bd c0 58 e2 3d 8f f9 4f bd
       -0.16179328 -0.048623808 0.11052084 -0.050775107
0000f0 82 e8 0d 3e 63 d5 ea 3d e9 31 ac 3d 33 52 66 bc
       0.13858226 0.114664815 0.08407957 -0.014057684
000100 d0 a8 cd bd aa f5 29 bd c1 b9 43 3e dc 6c 09 be
       -0.10041964 -0.04149405 0.19113828 -0.13420433
000110 14 be 1c bd 07 cf 01 be 74 10 a3 3d fc bb 39 bb
       -0.03826721 -0.12676631 0.079621226 -0.0028340807
000120 2e 9b 78 3e 6e c7 86 bd 61 d2 bf 3d 74 ed fd bd
       0.24277946 -0.06581007 0.093662985 -0.12398806
000130 12 5b 0e 3e 5a 31 60 3d 0f 08 54 3d 64 c0 31 3e
       0.13901928 0.054734565 0.051765498 0.17358547
000140 7f d2 25 be 7b e9 6d bd 85 63 56 3d 1f bd 6c bd
       -0.16193579 -0.058083992 0.052341003 -0.057797547
000150 b3 76 30 bd 0f 65 49 3d d3 5f c7 39 93 49 01 3e
       -0.04308195 0.049168643 0.00038027632 0.12625723
000160 1a 3d 92 3d d7 e6 59 bd 15 8a ae 3d 1b c9 e9 bd
       0.071405604 -0.05319866 0.08522431 -0.11415311
000170 fd fb b1 bc 0f 4c 7a 3d e0 d1 89 bd 5a b9 62 be
       -0.021726603 0.06110769 -0.067294836 -0.22141019
000180 b7 45 0c be ae c7 c6 bd 35 48 0a 3e 9d 15 8d bd
       -0.13698469 -0.09706055 0.13504107 -0.06888888
000190 08 0a e0 3d 3f d8 9b 3c 05 98 23 bc 8b 0f af bd
       0.10939413 0.019024013 -0.009984975 -0.085478865
0001a0 10 d1 e9 bc ed 71 20 bc 09 77 25 3e 96 6a 2a 3e
       -0.028542072 -0.009792787 0.1615869 0.16642222
0001b0 42 9c 25 3d fc 7b 99 bc 12 2c da 3d 0e 7f 0d bd
       0.040432222 -0.018735878 0.10652937 -0.034544997
0001c0 f4 31 aa bd 97 a4 0c bd 5f c2 52 bd 6a b6 e8 3d
       -0.08310309 -0.034336653 -0.051454898 0.11362918
0001d0 d2 b1 be 3c f8 06 91 bc d1 38 f6 bd 19 4c 90 3c
       0.02327815 -0.017703518 -0.120225556 0.017614411
0001e0 0a bd a2 3d 12 ca d5 bd 49 4b 88 3d 7b 80 dd 3d
       0.079462126 -0.104389325 0.066549845 0.10815521
0001f0 31 c9 c7 ba 6a 76 09 3e 41 7e 19 be 4a 7a 5a 3e
       -0.0015242455 0.13424078 -0.14989568 0.21335712
000200 a8 1f c3 bd db ec a0 bd 12 45 28 3d f8 df cf 3d
       -0.09527522 -0.078576766 0.041081496 0.101501405
000210 2a 4e d2 bd 26 27 25 3e cf 10 15 be 3e 53 43 3d
       -0.10268815 0.16128215 -0.14557193 0.047686808
000220 af 69 7c 3d ff 0b e4 3d df 0e 51 bc 47 0f 39 be
       0.061624225 0.111351006 -0.012759893 -0.18072234
000230 d7 5a 1c bd 0a 80 dc 3c 45 2c 96 bd 98 c0 58 3b
       -0.03817257 0.026916523 -0.073326625 0.003307378
000240 44 51 27 bd 65 1b b1 3d f1 93 39 3d 17 71 1b 3d
       -0.040848985 0.08647803 0.045307104 0.037949648
000250 55 72 ba bd b7 14 00 be bd 80 19 bd 11 3d ac bd
       -0.09103838 -0.12507902 -0.03747629 -0.08410085
000260 a9 2c 58 bd 29 d8 fd 3c 64 b9 23 bd af d0 90 3c
       -0.052776966 0.030986862 -0.039971724 0.017677633
000270 05 f5 2e 3b 1b 98 9a bd fe b4 54 3d 0e 55 c3 3d
       0.0026696336 -0.07548543 0.05193042 0.09537707
000280 21 97 3e 3c 65 31 d0 bd e5 4c 1f bd 88 16 8f bd
       0.011632712 -0.10165671 -0.03889169 -0.06986719
000290 20 ff 31 3d b0 89 97 bd e1 73 cd 3c d9 4b ef bd
       0.043456197 -0.07399309 0.02507967 -0.11684389
0002a0 89 4c b9 bd 8c 61 9c 3d e5 af 8b bb 8a cd 14 bd
       -0.09047801 0.07635793 -0.0042629116 -0.03632883
0002b0 d7 06 07 be fd 08 2c 3e 50 6a 37 be e8 a7 23 be
       -0.13186203 0.16800304 -0.17911649 -0.1598202
0002c0 66 0d 82 3d d3 92 94 bd 84 6a 0d bc ad 1a 3c 3e
       0.06350212 -0.07254567 -0.008631352 0.18369551
0002d0 6a 3b 48 bc f6 8a 83 be 2d d3 de bc e9 5f e5 bd
       -0.012221197 -0.25691956 -0.027200306 -0.11199934
0002e0 23 ec 93 bb ee 53 a8 bd 62 95 0e 3e e5 bc 0f 3d
       -0.0045142337 -0.08219133 0.13924173 0.035092253
0002f0 6b 00 6d bd de 22 2b bd 71 10 e7 3c 98 9e d9 bd
       -0.057861727 -0.0417813 0.028206082 -0.106259525
000300 7c a5 e5 3c c7 86 0c 3e 13 e6 fa 3b 25 b6 29 bd
       0.02803301 0.13723288 0.0076568215 -0.041433472
000310 1c 46 1c 3e 9d 25 83 3d 20 9d 48 3e 93 a3 95 3d
       0.1526112 0.064036585 0.19591188 0.0730659
000320 68 08 7f bc a4 44 4d be 09 dd 1f 3d a6 6b 7a 3d
       -0.015565969 -0.20045716 0.039029155 0.061137818
000330 77 60 5d bc 27 3c 41 3e 13 03 46 3d 8b c9 41 bd
       -0.013511769 0.18870603 0.048342776 -0.047311347
000340 2f 3c 63 3d 38 3c 03 3d 77 9d b4 bd bb bb 48 bd
       0.055477317 0.03203985 -0.088190965 -0.04900716
000350 a5 1b 6e bd ee dc a5 3d 30 b3 88 bd 7d 0c be bc
       -0.058131833 0.080987796 -0.06674802 -0.023199314
000360 13 8d ea 3c 16 94 8a bd b5 56 4d be 61 e8 f6 3d
       0.028631723 -0.067665264 -0.20052607 0.120560415
000370 aa 94 52 3e f0 74 95 bd 2a f7 e6 bc ed d4 63 be
       0.20564523 -0.07297695 -0.028194029 -0.22249193
000380 b5 06 e0 bd 6c ee af 3d f4 0d 1f 3d 1a 31 97 3d
       -0.10938779 0.08590397 0.038831666 0.07382412
000390 6f 0c 74 bd b1 98 a4 3d 43 27 99 bc fb fb bc 3d
       -0.05958217 0.08036936 -0.01869548 0.09227749
0003a0 3b 11 02 be b5 05 d2 3d 6f f8 4a 3d b5 ae e1 bd
       -0.12701885 0.10254995 0.04955333 -0.11019651
0003b0 c0 7d b4 3d ef 16 e9 bd 79 36 0b 3d 43 f0 f3 3c
       0.088130474 -0.11381327 0.033987496 0.029777652
0003c0 42 70 13 bd 91 bd 7e bd e5 62 26 3d 5f d5 0a 3d
       -0.03599573 -0.062192503 0.040621657 0.033894893
0003d0 00 56 b2 bd 54 5c 13 3d 8c fa 13 3e 2c 7f 49 3c
       -0.087078094 0.035976723 0.14451045 0.012298387
0003e0 e9 fe 29 bd 95 1c 83 3d 88 cb 49 3e e9 dc cb bd
       -0.041502867 0.06401936 0.19706547 -0.09954245
0003f0 0e f5 a4 be 7d d3 1f 3e 18 0c ad bc 2e 68 41 3a
       -0.32218212 0.1560802 -0.02112393 0.00073778897

b_lay_eggs_bin f4 [11]
000000 3b 1b 1e ba 21 03 fe b8 83 83 df 3a 87 81 dc 39
       -0.00060312793 -0.000121122466 0.0017052743 0.00042058175
000010 31 bc 10 39 dc b5 b0 b9 36 8f 7c b9 52 60 0e b9
       0.00013803017 -0.00033704832 -0.00024085943 -0.00013578057
000020 c4 14 7d b9 17 60 62 b9 69 4e c1 b9
       -0.00024135696 -0.00021588836 -0.0003687025
