reports/ml/auto_improve_factorized_long_live/iter_005/factorized_model.npz (npz, 72154 bytes, 17 tensors)

W1 f4 [48, 192]
00000000: 0b4c 863e 8cec 0e3e 9701 0a3d 3fb7 49be
00000010: 36e7 ba3d 0bf8 febd cbbe 283e 3f7d 37bd
00000020: 2616 623b c4d2 093e afd5 803e 5630 143c
00000030: 7063 54be 7f3e a2be 2d09 9b3e 0b9c bbbd
00000040: df35 a9be 6932 473e 92df 72bb 1907 a73d
00000050: 1f2c 1bbd 01fa e03c 33f7 85bd b48e a73e
00000060: f777 b73c 21f3 4bbd c0a4 dcbd e783 b1bd
00000070: eb56 9b3d 63bb cc3e 79d2 4fbe 835e 3e3e
00000080: fc75 803e af6d b63d aff2 5b3e 0765 313e
00000090: 3b44 1c3f f80b 243e 3b6b 4ebe 8b1f 04bf
000000a0: 76e8 bdbd 0d5e 8a3d 8ae4 313e b921 453e
000000b0: 6121 843e 868a f13d 2715 77bc bfe7 cfbd
000000c0: d5ef 943d 3c22 323e d08d 9d3e c83f b33e
000000d0: 2c4a 2bbd e6b3 0cbe e015 d7bc 36e5 99be
000000e0: 5c76 b93c 3c86 353e 9ff2 823e 06a4 9c3d
000000f0: 11ab 743e 2084 60be 7827 0a3e 0135 533e
00000100: 8388 05be 3472 80be b143 21be 3664 d53c
00000110: 5826 d33e 1d42 04be cdf3 8d3d a040 4abe
00000120: b968 c4bd bbeb 2b3d 5ee3 573d 8f64 1b3e
00000130: c042 2bbe 40a7 a7bd 5d1a c1be d56a 3ebe
00000140: a51f 89bd e9cb 9f3e 975f f23d 2edf 813e
00000150: 16d9 80bd 3538 7e3e 226e 2cbd 53b5 dfbd
00000160: c55a f1bd a6d9 5fbd 2fe7 a8bb ed3a 9cbe
00000170: 80ee 18be 20b7 bb3e f6b7 0c3e 2ce2 dbbe
00000180: c895 41be cfa3 433e 35da 5dbe 7d24 72be
00000190: 8250 913d 84b5 5d3e 24df 27bf b735 51bb
000001a0: 504f d63c 1981 36be 638f 193d e02c 033e
000001b0: 185a 093d 179c 723d 6af5 4c3d 9bee 113e
000001c0: 90ec 283e 7df8 4d3d adc4 143e b669 90bc
000001d0: 4643 52be 9fd1 bdbd 6b07 90bd 19a2 453d
000001e0: 2570 983e fd7a 02be 7eea 883e 8d16 e33d
000001f0: 1f01 16bd 571a 49be ec48 693d 2254 823d
00000200: 9b62 f03d 1bc9 193e 7bc4 fa3d b45a 4e3e
00000210: 799f 863c 2910 00bf 494b a6bb 637a 87be
00000220: 0fd8 85bd 8498 9c3d 1743 07be 9889 6dbe
00000230: 6522 943e eacd a0bd e544 92bd dedf cdbd
00000240: fac6 91be 6feb 78bc 12aa 44bc ae09 cdbd
00000250: cb1e 4cbe 7f79 213e e2ae 2a3e 1750 0ebe
00000260: ed68 9abd 2fe2 42be fa3b b23e cf1f 71bd
00000270: 3f34 8d3e 9c4b e9bc f8dc bdbe 3748 49be
00000280: 88e0 473d 4a1c 8c3e 73ca 2fbd 916b 953e
00000290: 4662 25be 92f4 a03c 0ff4 31be 1480 41be
000002a0: 0184 073f bd78 08be 52a4 ec3e b3fa 173e
000002b0: d5c2 b33d 1e5a 6b3e ccc7 fd3e d07e eebd
000002c0: 5b89 97bd cec8 76be c4e7 83bd f278 e23d
000002d0: 5cd3 f93c 5ec7 4bbe abd4 bd3d f09d df3d
000002e0: 1835 41bd 6392 9cbd b76a c6be f138 36bd
000002f0: 4572 28be ee78 af3e aa4d bc3d 3f0b a2be
00000300: 1da7 1d3e c889 65bd 3970 243e ec85 173e
00000310: f4bc 513b 6c34 91bd bb8e 673e 4209 d23d
00000320: 1c3b 15bd 39b2 2f3e af1a 83be 766d 053e
00000330: 4255 81bd 6801 663d da84 0b3f d547 68bd
00000340: cd14 9ebd c870 b53d 6618 233e be36 e23e
00000350: 646e 723c fa01 293d 8170 803e 138b 15be
00000360: 41da 563d 0aaa ad3e 827f f83b c3d8 92be
00000370: 1506 9ebe 1606 d83d 3da5 18be 4a1a 7bbc
00000380: adea 32be b3e2 8f3c 55e3 8ebe 9a8d 4e3e
00000390: f375 423c 2b92 0fbd 4d9e f7bc 7d51 5bbe
000003a0: 4f8f 56be d352 dbbd b996 56be bee9 84be
000003b0: 8a62 303e 1858 5b3c abef 803d 4adc ff3e
000003c0: e363 fcbe 0ec3 5d3d ec41 51bc f960 4e3e
000003d0: 4377 81be 4f34 d0bd 8b78 68be 128f bc3e
000003e0: 03ed 873d 9df6 883d 954c 753e 435b 433e
000003f0: 8fa9 9fbd 25ce 463e b938 6ebc 0d50 9d3e
0.2622989 0.13957423 0.033692922 -0.19698809 0.09126131 -0.12449654 0.16479032 -0.04479718
0.0034498065 0.13459307 0.25163028 0.009044727 -0.20741057 -0.31688306 0.30280438 -0.09160622
-0.33048913 0.19452824 -0.0037059528 0.08155651 -0.037883874 0.027462961 -0.0654129 0.3272606
0.02239607 -0.049792413 -0.10773611 -0.086677365 0.07584938 0.39986715 -0.20295133 0.18590741
0.25090015 0.08907639 0.21479295 0.17323695 0.6104161 0.1602019 -0.20158093 -0.5161063
-0.09272854 0.0675622 0.17372337 0.19251145 0.25806716 0.117939994 -0.015080727 -0.10151624
0.07272307 0.17395872 0.30772257 0.350096 -0.041818783 -0.13740501 -0.026255548 -0.30057687
0.022639446 0.17726988 0.2557573 0.076484725 0.23893382 -0.21925402 0.13491619 0.20625688
-0.13040356 -0.2508713 -0.15748478 0.02604876 0.4124019 -0.12915845 0.06931267 -0.19751215
-0.09590287 0.041972857 0.05270707 0.15175079 -0.16724682 -0.08186197 -0.37715426 -0.1859544
-0.06695489 0.3121026 0.118346386 0.25365585 -0.06291406 0.24826129 -0.04209722 -0.10923257
-0.11784891 -0.054650925 -0.0051545124 -0.30513707 -0.1493473 0.3666315 0.1374205 -0.42945993
-0.18904793 0.19105457 -0.2166527 -0.23646732 0.07095434 0.21651274 -0.6557486 -0.0031922886
0.026160866 -0.17822684 0.03749026 0.12810087 0.033533186 0.05923089 0.050038733 0.14251177
0.16496491 0.050285805 0.14528151 -0.017628532 -0.20533475 -0.09268498 -0.07032665 0.04825029
0.2977306 -0.12742229 0.26741403 0.110882856 -0.036622163 -0.19638954 0.05695431 0.06363703
0.117375575 0.15018122 0.12244507 0.20151788 0.016433464 -0.5002466 -0.0050748927 -0.2646056
-0.065353505 0.076462775 -0.13209186 -0.23197019 0.2893249 -0.07851775 -0.07142047 -0.10052465
-0.2847212 -0.0151928505 -0.012003439 -0.10011612 -0.19933622 0.15769003 0.16668275 -0.1389774
-0.07539544 -0.19031595 0.34811383 -0.058868226 0.27578923 -0.028478436 -0.37082648 -0.19656454
0.048798114 0.27365333 -0.04291768 0.2918363 -0.1615077 0.01964787 -0.17378257 -0.18896514
0.52935797 -0.13327308 0.46219116 0.14841728 0.08777396 0.22983596 0.49566495 -0.11645281
-0.07399245 -0.24100038 -0.0644069 0.11058225 0.030496292 -0.19900271 0.09269079 0.10918796
-0.047169775 -0.076451086 -0.38753292 -0.044487897 -0.1644984 0.3427195 0.09194501 -0.31649205
0.1539578 -0.0560396 0.16058435 0.14797181 0.0032003494 -0.07090077 0.22613041 0.10255672
-0.036433324 0.1715783 -0.25606295 0.13030037 -0.0631509 0.056153685 0.5449959 -0.05670913
-0.07718811 0.08859402 0.15927276 0.4418239 0.014796827 0.04126165 0.25085834 -0.14603834
0.052454237 0.33918792 0.0075835595 -0.28681 -0.30864015 0.10548036 -0.14906783 -0.015326092
-0.17472334 0.017564153 -0.27907816 0.20171204 0.011868942 -0.035051506 -0.03022685 -0.21417804
-0.20953105 -0.10709157 -0.20955934 -0.2595958 0.1722509 0.013387702 0.06295713 0.49972755
-0.49294958 0.054141097 -0.012772065 0.2015418 -0.25286302 -0.10166227 -0.22702233 0.36827904
0.06637003 0.06687663 0.23954995 0.19077782 -0.077960126 0.19414575 -0.014539891 0.30725136

b1 f4 [192]
00000000: ad6d 86bc b4a5 a337 7b23 8dba 1054 cf3b
00000010: 760b 95bc 1459 9ab7 3dc4 81ba 1bb8 b8bb
00000020: d8df 15ba 1928 2cbb f902 473b 0c83 9fbb
00000030: dca7 bdba 7208 b6b7 aca3 0abc 09f7 41b9
00000040: 0000 0000 d2f3 8ebc 9540 38bb bddc fc3b
00000050: 1cd6 023c d6b7 65bc 0672 e0b8 c465 2b3c
00000060: 119d afb8 5d43 cbbb 0000 0000 d452 0fbb
00000070: 27f8 e83b cc68 c63c 8b3c b33a 4646 8cb9
00000080: 48db 43bc 1cfb 1e36 f4d2 0c3c 2185 763b
00000090: b326 233c 0e35 e23c c7ec daba 3ac3 c237
000000a0: 0000 0000 d4f7 eb3b 4082 83ba b6f3 fa3a
000000b0: 73b8 3ebc 6e94 c7bb ad96 4cbb 450f eeba
000000c0: e6d4 963a a619 b53b a109 2d3c e8ef 1bbb
000000d0: b814 16bb 29e1 c4b8 16e3 0cbc 14b8 833b
000000e0: 8fb2 113a b1e4 7e3a a4ce e63a 45ee adbb
000000f0: c578 85bc 127f 09ba 8274 13bc 48d9 393c
00000100: 3128 9b38 12ae e9ba cd38 303b f465 bd3b
00000110: 83c3 b83b bd1e 93bb e902 9e3c bbfb 8e3b
00000120: 0000 0000 95d8 bb3c 6599 233b b082 263c
00000130: 6ea6 9e36 d2b6 443a 0d5b c2bb 00da 8fb8
00000140: 870c a5bb 027c 403c 6216 543c 91d0 8fbb
00000150: 6b22 cd39 6d3c 3b3b 4ed5 8d37 5c20 993b
00000160: b6c0 5737 0000 0000 d1a7 8b37 0000 0000
00000170: cb8a 4f3a 0836 2a3b c882 ed39 2911 f5bb
00000180: 3c7f beba e828 b239 8714 f6bb 8dbb cdba
00000190: a7ea 64bc 6f1b e4bb 0000 0000 a1f1 e139
000001a0: 72f2 e93b 179a 513c 36a5 6a39 d7e7 d1b9
000001b0: 0779 943c c685 183b 0274 bbb9 5823 cb39
000001c0: 1238 553c 98c6 49b8 cda0 81b7 fdd0 93b9
000001d0: 6823 8cbc 1d87 82bb 9189 58ba 1487 203b
000001e0: 43ff a9bb 990e a539 eeb8 19bc 1565 58ba
000001f0: 6bd6 8c39 3b7c 07bb 3b57 f8ba 17d3 243a
00000200: 74b7 0b3b e61c 5f3a 0000 0000 2f3e 83bb
00000210: f3ce 67bc a9c9 3939 e462 94bb 03c5 85bc
00000220: 6277 d2ba 0000 0000 0000 0000 ad4f 86bc
00000230: 5473 ddbb 66c4 353c 4db1 923b b824 9fba
00000240: fcb0 88bc 7812 6bba 7b52 3db9 d06f e03b
00000250: 53a2 623a 6a9b 6f3b 17aa 933a d232 c73b
00000260: 39a8 2bb8 7291 f73a 55de 6e3b 0000 0000
00000270: 6e64 8739 f555 1ebc a052 75b8 0000 0000
00000280: 9a59 4e3c abc5 1a3a 1ea7 8bba 4a8a 7d3b
00000290: 0000 0000 ae41 4439 36b7 2a3c b093 33b9
000002a0: 835c 9d3c b754 80ba 8169 abb9 2f5f 003a
000002b0: dbdf 703b a486 7a3b 549b 0abc dbe8 283b
000002c0: 110d c7bb 6c1c 743b fcc4 86b9 a02e f33a
000002d0: 1be4 34ba cf50 583c 1619 1f3c 5fc3 86bc
000002e0: 87e7 e9b8 7cb3 453c 58ad d93b 2ad2 893c
000002f0: 2742 843b de45 1f3c c66c 33bb 941a 09ba
-0.01640972 1.9508276e-05 -0.001076802 0.0063271597 -0.018193942 -1.839971e-05 -0.0009900403 -0.0056371815
-0.0005717254 -0.0026269017 0.0030366762 -0.004867917 -0.0014469582 -2.1700023e-05 -0.008461874 -0.00018497942
0.0 -0.017450247 -0.0028114666 0.0077167437 0.007985618 -0.014020881 -0.00010702391 0.010461275
-8.373906e-05 -0.0062030987 0.0 -0.0021869438 0.00710966 0.024219893 0.001367466 -0.0002675524
-0.011954136 2.369e-06 0.008595217 0.0037615972 0.009957957 0.02761319 -0.0016702645 2.3217512e-05
0.0 0.0072011743 -0.0010033324 0.0019146118 -0.011640656 -0.0060906922 -0.003121774 -0.001816251
0.001150754 0.005526739 0.010561378 -0.0023794118 -0.0022900533 -9.387948e-05 -0.008599063 0.0040197466
0.00055579183 0.0009723409 0.0017609191 -0.005307945 -0.016292939 -0.000524507 -0.008999946 0.011343308
7.398462e-05 -0.0017828366 0.0026889325 0.005779976 0.005638541 -0.0044897483 0.019288497 0.0043635047
0.0 0.022930423 0.0024963256 0.010162994 4.728142e-06 0.0007504049 -0.0059312643 -6.859377e-05
-0.0050368938 0.011748316 0.01294479 -0.0043888767 0.0003912629 0.0028569952 1.6907838e-05 0.004673047
1.2859868e-05 0.0 1.6648237e-05 0.0 0.0007917105 0.0025972147 0.00045301602 -0.0074788523
-0.0014533768 0.00033981283 -0.0075097713 -0.0015696153 -0.013971961 -0.006961278 0.0 0.00043095372
0.0071394974 0.012793086 0.00022377525 -0.0004003632 0.018124117 0.0023273095 -0.00035753852 0.0003874551
0.0130138565 -4.810709e-05 -1.5452877e-05 -0.00028193733 -0.017106727 -0.003983392 -0.0008260245 0.0024494575
-0.0051879003 0.00031482129 -0.00938247 -0.00082548085 0.00026862635 -0.0020673412 -0.0018946895 0.00062875584
0.0021319063 0.0008511081 0.0 -0.0040052156 -0.014148462 0.00017718099 -0.0045283902 -0.016329294
-0.0016057307 0.0 0.0 -0.016395414 -0.006758133 0.011094188 0.0044767023 -0.001214168
-0.016685955 -0.00089672906 -0.00018055171 0.0068492666 0.0008645404 0.003656114 0.0011265901 0.0060790563
-4.0926247e-05 0.001888795 0.0036448438 0.0 0.00025824032 -0.009664048 -5.8489502e-05 0.0
0.012594605 0.00059040886 -0.0010654663 0.0038687163 0.0 0.00018716484 0.010419657 -0.00017125788
0.019209152 -0.0009790872 -0.00032694268 0.0004896996 0.0036754522 0.0038227225 -0.008459885 0.0025773558
-0.0060745557 0.0037248386 -0.00025705236 0.0018553324 -0.00069004454 0.01320286 0.009710571 -0.016450582
-0.00011153431 0.012066718 0.0066429786 0.016823847 0.0040362063 0.0097212475 -0.0027378066 -0.00052300957

W_action_type f4 [192, 4]
00000000: 0787 21be f0d1 0cbd b4c5 1b3d c769 4439
00000010: 40e3 58bd 5b0c 3b3d 5d38 c4bd 8adc 5abd
00000020: 7056 febd ba9a 4c3c f452 84bc ccef 16be
00000030: 363e 35be a159 5cbb d49d c3bd 41b7 ff3c
00000040: 94b5 a7bd 88dc 3bbc cc61 5cbd f4fc 0ebd
00000050: 67bc 10be 1781 92bc d073 bf3d facc 963d
00000060: e32c 083b bb5a fe3b 0edd 63bd f0f2 de3c
00000070: 94ed 66bd 9971 80be 4e78 c5bb f8d3 9a3c
00000080: 49ef 7d3d 3cc3 a9bd 680d cdbd 0d27 fdbd
00000090: 684c 98bd e41a 84bc b400 493d 3e96 8bbd
000000a0: db97 b33d 15cd 39bd 0b88 c73d 3f8c 74bd
000000b0: cd8d a63d cd35 e3bd 90e8 d7bc d298 d7bb
000000c0: 6d83 90bc 5293 143e 976b 673d 938b 5c3d
000000d0: 5cf7 0b3e b323 613c 08f3 7dbc 5621 503e
000000e0: f09f d9bd 65be 9b3c 42c7 373d 46f7 cebc
000000f0: 5cd0 66bd 65e8 04bd 193d 433d 064c d0bd
00000100: e2c0 a739 e652 bd3d 087d 7d3d 5c8e a73b
00000110: 3489 303d 58e6 f9bd 0b18 8c3d 0319 263d
00000120: cf0c f13c a7ba a03d b159 b3bd 2969 a9bd
00000130: d1a3 423e 5dd0 e83d 8221 fdbd 3fa3 c8bd
00000140: f84b 28be 65c2 153c e520 563e 50ec 8cbc
00000150: 6082 2bbd 4b3c 06bd d3a8 dbbb 12cc 62bd
00000160: 160a 743d 47d8 ad3c 53f3 193d 7938 debc
00000170: 1ed9 5c3d 761d 4e3d bd51 a93c 9b12 d03b
00000180: 2aa3 6a3e 7667 203d 665b 023e 40fe f53d
00000190: 68ce 2ebd b589 a73c 7909 f73c 8270 e13b
000001a0: 4f0d 573c bb2e bfbd b5cc 493d c3b6 0f3b
000001b0: e7cb 93bd 8c9b 2dbd 1682 433d bf85 823d
000001c0: b291 03be 139f e83d ca74 893d 757e cb3d
000001d0: f9e5 ae3d 567c f73c 7b81 963d 4d2c 633e
000001e0: 3a87 11be 79de cfbc 321e 173c ced7 83bc
000001f0: 5aa1 c23b 0899 edbd f0a4 9bbd 1530 303e
00000200: cf32 f43d b37a 47bd f072 c1bd 2e53 c6bc
00000210: f667 efbc 4ce5 31be 518c a6bd 09cd 063e
00000220: bcd2 ec3c 3b7c 21bc 0c64 993d af0f 503e
00000230: 2455 56bc fde3 fbbd f162 9dbc 4175 933c
00000240: 1142 783d 7a04 2e3d 906b cabd 42b9 04be
00000250: 67a0 3bbe aee7 b53d 61fc 3fbd 2c54 1c3c
00000260: 136b d53c 85c7 a5bd c7e1 8d3d c9d0 7c3d
00000270: 27ed 2d3e d541 aa3d 7dcb 91ba c0ef e43c
00000280: e7f0 a13d a9c1 9f3c 47fa 2bbb 0b5c 89bd
00000290: f46a b8bb 961d 1dbe 1eca ccbc 0e02 81bd
000002a0: e10c 5c3d cb00 40be 7abf aa3c 458a ebbd
000002b0: cf85 49b9 adff 2f3d 2285 92bd 3c82 d13d
000002c0: a6fb cf3d 1d85 4ebe 197b 943d 53f2 fabd
000002d0: b0f9 5dbe 65e2 cd3d 8d34 a8bb 811f cebd
000002e0: 1462 9c3c 2d36 7dbd 27ea b4bb 8937 2dbe
000002f0: ada3 003e 34b4 83be 4b58 3e3e 29e9 26bd
00000300: c021 5f3c 63ba e93d 9dc7 4e3d 7bec 0b3c
00000310: e7c4 10be c681 2c3c c21b 5bbd 2591 2f3e
00000320: 90d3 0ebd 4031 613d 98fb f73d 9433 393e
00000330: 8b80 f73d 5668 48bd 88b8 c83d ebab 15be
00000340: 0cf5 e2bd 2855 313a 0394 0dbe b54c c9bd
00000350: 73ce e53d f4b9 77be 36a8 debd f7ad 5039
00000360: 4289 61be 4b31 1d3b 2082 0cbe 46dc 093e
00000370: 3d8b 37be dd21 703d 6c5e 87bd 8196 03bd
00000380: 91cc 38bc a3ac 4d3e be87 a13d 9027 813d
00000390: 0757 8a3d 4b66 a7bd 19cb 4cbe df06 83bd
000003a0: 9015 673b 80b4 cfbd a5dc 44bd 6a08 e0bb
000003b0: a465 68bd 953c a53d fab9 c1bd 8290 01be
000003c0: 194b 3a3c d6e1 fe3d 7661 61bc 1e77 063e
000003d0: fcff 70bc 5875 52be 7678 dc3d b73a e63d
000003e0: a4d0 e9ba 68db 5b3d 9ba1 9c3e 9b17 85bd
000003f0: 2f0b 5e3e f15a 803d 7b40 e3bc 02ef 243e
-0.15774165 -0.0343799 0.03803034 0.00018731422 -0.052951097 0.04566608 -0.09581063 -0.05343298
-0.124188304 0.012488062 -0.016152836 -0.14739913 -0.17699513 -0.003362276 -0.09551588 0.031215312
-0.0818893 -0.011466153 -0.053804204 -0.034909204 -0.1413437 -0.01788382 0.09348261 0.07363315
0.0020778708 0.0077622808 -0.055630736 0.027215451 -0.056378916 -0.25086668 -0.0060263043 0.018899903
0.06199578 -0.08289191 -0.10012323 -0.12360964 -0.07436448 -0.016126104 0.049072936 -0.06815766
0.087691985 -0.045361597 0.09742745 -0.05970406 0.08132515 -0.11094246 -0.026356012 -0.006579497
-0.017640794 0.14509323 0.05649909 0.053844046 0.13668579 0.0137414215 -0.015499838 0.20325217
-0.10626209 0.019011686 0.04486776 -0.025264394 -0.05635105 -0.03244819 0.04766569 -0.1017075
0.0003199643 0.09244327 0.061886817 0.005113406 0.043099597 -0.12202138 0.06840523 0.040551197
0.029425053 0.07848101 -0.08757342 -0.08272011 0.19007803 0.11367867 -0.12359907 -0.09796762
-0.1643523 0.009140586 0.20910986 -0.017202526 -0.041872382 -0.032772344 -0.006703475 -0.055370398
0.05957993 0.021221293 0.037585568 -0.027126538 0.053917997 0.050321065 0.020668859 0.006349874
0.22913805 0.039161168 0.12730178 0.12011385 -0.042677313 0.020451406 0.030155884 0.006879867
0.013125732 -0.09335085 0.04926749 0.0021929003 -0.07216626 -0.04238467 0.04773148 0.06373166
-0.12848547 0.11358466 0.06711729 0.09936229 0.085399576 0.030210655 0.07348915 0.22184868
-0.14211741 -0.025374638 0.009223508 -0.016094115 0.0059396448 -0.11601454 -0.07599819 0.17205842
0.119237535 -0.048701 -0.09445751 -0.024209585 -0.029224377 -0.17372626 -0.08132232 0.13164152
0.02890908 -0.009856279 0.074897856 0.20318483 -0.013081823 -0.12299345 -0.019212218 0.018000247
0.06060988 0.042484738 -0.09883797 -0.12961295 -0.18322907 0.0888208 -0.046871547 0.0095415525
0.026052034 -0.08094696 0.06927829 0.06172255 0.16984998 0.08313338 -0.0011123266 0.027946353
0.079072766 0.019501524 -0.0026241706 -0.06707009 -0.005627984 -0.15343317 -0.02499872 -0.0629922
0.05372322 -0.18750302 0.020843256 -0.11500982 -0.00019218701 0.04296844 -0.07154299 0.10229918
0.1015542 -0.20167966 0.072500415 -0.12253251 -0.2167728 0.10052947 -0.0051332177 -0.10064603
0.019089736 -0.061819244 -0.005521077 -0.16915716 0.12562437 -0.25723422 0.18588369 -0.040749703
0.0136188865 0.114125036 0.050483335 0.008540268 -0.14137612 0.010528987 -0.05349327 0.17145212
-0.03486973 0.05497861 0.121085346 0.18086082 0.120850645 -0.048927628 0.098008215 -0.14616363
-0.11081895 0.00067647034 -0.13825993 -0.09829084 0.11221018 -0.24192029 -0.108719274 0.00019901233
-0.22025016 0.002398568 -0.13721514 0.13462934 -0.17924209 0.058626045 -0.066098064 -0.032125954
-0.011279241 0.20085387 0.07887219 0.06306374 0.067548804 -0.08173808 -0.1999935 -0.06397795
0.0035260655 -0.101418495 -0.048061986 -0.0068369405 -0.056737557 0.08068196 -0.094593 -0.12652782
0.011370444 0.124454185 -0.013756147 0.13131377 -0.014709469 -0.20552576 0.107651636 0.11241668
-0.0017838669 0.05367604 0.30592045 -0.06498643 0.21683954 0.06267346 -0.027740708 0.16106799

b_action_type f4 [4]
00000000: abfb 94bc b051 b83c 567f 00bd b5a8 dd3c
-0.01818641 0.02249989 -0.031371437 0.027057985

W_play_habitat f4 [192, 4]
00000000: 8db0 f7bc 8647 7ebd acd0 853d 082a 623e
00000010: 333b eabc 1e79 94bd 7939 4ebe f544 e33b
00000020: f46e 063d 866d 12bd 540f 103d 6169 b0bd
00000030: d526 ea3d 51a9 84bd d487 73bd 53d0 98bc
00000040: 415f 5bbe 3dba d43c 2749 a8bc 8e02 f1bc
00000050: e7ba 953d 8ac8 ff3d 57c6 9f3d c17d 343c
00000060: cf90 acbd 790a 0e3c d3f6 45be 2e8c 7dbc
00000070: b193 263d 8565 163d 8c17 bfbb 9518 1c3c
00000080: e491 f43c 6120 0cbe 4940 df3d bc22 04be
00000090: 2e6d e53d ff09 ddbd 7e17 71bd 2411 8bbd
000000a0: 7332 223d 768c 19be 1fe3 c0bd 2ec6 a93b
000000b0: 8e27 043e 8feb 503e 21f1 91bd 5d35 323d
000000c0: c483 f6bd f32d e3bc e675 253d cfc6 a3bb
000000d0: 1918 ff3c 99f3 e4bc dac6 253e d1fa 0e3e
000000e0: a5f5 40bd f4e7 0fbe 8925 88bc 1564 cb3c
000000f0: 6861 a3bd c173 04bd ad69 083c 8561 073d
00000100: 3ebc ea3d 2678 b83d 92a8 d4bc d4dd 973d
00000110: fafa 82bd 1eda 18be 2dec 373c 6871 2fbd
00000120: 0714 afbd 6d83 8e3d 961c 40bc 1ed2 263e
00000130: ffde db3c d545 0a3c 027b c0bc a8a1 1abe
00000140: 8493 c2bc e9a7 5dbd 82d1 b8bd 43c0 b73c
00000150: d3cb 2abd 8136 7b3d d661 c13d bd2a 60bb
00000160: 0df8 75bd 3854 c53d ec82 22bd 3c2c a53d
00000170: adb5 aa3d 6104 14bb 04e1 2dbe 44be 8abd
00000180: eeff 04be c2a4 913d e511 143e b626 6dbb
00000190: 3df0 04bd 6be2 7a3d ced8 cb3d c55a 8c39
000001a0: 2fc0 51bd 509e 223e e9c1 aa3d bd4e 85bd
000001b0: e477 8e3d 7b8a 343d eb04 223d 0bb0 c43c
000001c0: 360e 373e de22 bcbd 583e d73b 239f 10be
000001d0: e514 4dbd 74b4 00bd 5c74 55be f2c3 11be
000001e0: f81e d33d 3780 983d 06e6 fc3d 64f8 13bc
000001f0: 5689 57be b96d d83c edf8 8b3d 8f1f 583d
00000200: daa4 63bd 7ca1 ebbd 5160 e4bd 0da7 083e
00000210: d8e2 c83a 1b9d e43d f713 723d ebae f4bd
00000220: 94aa a2bd 8a85 423d cc7f d3bc 0c25 113d
00000230: 3f22 2f3e 0a77 5abd 53b9 1b3b 5b4c b9bd
00000240: df37 aebd 57b5 453e 77a6 453e 9d45 0cbe
00000250: 1911 29be 0441 66bd ef84 b4bc 4200 493c
00000260: 1d91 723d 803c 8abc 7d02 5b3e c561 163d
00000270: fa1f d4bc 836b e5bd d1f2 173e 636f e13d
00000280: c071 ccbc 539f ea3a dc2a 2e3e 1214 46bc
00000290: ffd9 00be f47f 363e afa1 16bd 5b76 f3bd
000002a0: 76ba 883d 8fec 87bc ec3e 4bbd 0eb5 b93c
000002b0: 1a04 31bd 16af 283c 4d22 143d 0346 1abc
000002c0: f707 b63b 6e41 b6bc dd61 0dbe 6d12 b03d
000002d0: 0486 893c c88b 623d 651a 843c f352 fd3d
000002e0: 5083 69be b3e7 623d e1ca 4e3d d4d0 25bc
000002f0: b039 0cbd ef4c 4b3e 48a8 6ebe 87ef 32be
00000300: d515 e2bc dab4 8e3d b4e9 3ebb aec8 52bd
00000310: 98c6 02bb 549a e9bd 3d73 05be 8d4c b7bd
00000320: 3725 793c 57a9 adba d1be 7dbd 1585 21bd
00000330: 2781 9bbd 2891 073e f8ea a5bd c0f0 aa3c
00000340: de71 f1bd a01f 793d b5c5 ecbc e669 3fbd
00000350: daf9 833d 64ca 18be c10d 10bd bc82 b6bc
00000360: 5e04 f53d 70c3 dcbd 3414 e33d 99f7 293e
00000370: 8702 8dbc bb76 38be 38c7 46be b611 6bbc
00000380: 5252 3bbd 16fe 8e3d 1085 f33d ab03 18be
00000390: be6c 87bd c075 b33c 97a8 82bd 8987 99bc
000003a0: b7e6 11bd b2e2 203e 0143 e2bd d742 a43c
000003b0: 869b 973c dec1 2f3e 21bf 7e3d 9838 823c
000003c0: f7d9 c03d fd97 13be e96a cabc 9831 3d3d
000003d0: df70 7a3d 0dda 3dbe 359d c43d ce28 1a3c
000003e0: e70c 513d a19a 733d 0a7b 3cbe 3c9d 83bd
000003f0: bd18 493d 164b 25bc fdfa 42bd 5ae1 09bd
-0.030235553 -0.06207993 0.065339416 0.22086346 -0.028592682 -0.07249664 -0.20139112 0.0069357106
0.032820657 -0.03574898 0.035170868 -0.086138494 0.11433188 -0.06477607 -0.059455708 -0.018654024
-0.21423055 0.025967712 -0.020542694 -0.029420163 0.073110394 0.12489422 0.07801502 0.01101631
-0.084260575 0.008669489 -0.19332437 -0.015475316 0.040668193 0.03671791 -0.0058316644 0.009527345
0.029854722 -0.13684227 0.10900933 -0.12903875 0.11202465 -0.10792922 -0.058860295 -0.06790379
0.039598893 -0.14994988 -0.0941832 0.0051810956 0.12905714 0.20402358 -0.0712607 0.043507922
-0.12036851 -0.027731871 0.04039564 -0.004998065 0.03113942 -0.027948188 0.16189137 0.13962866
-0.047109265 -0.14053327 -0.01661946 0.024827996 -0.07977563 -0.032336954 0.008325976 0.033051986
0.114616856 0.090072915 -0.025959287 0.07415357 -0.06395526 -0.14926955 0.011225742 -0.042832762
-0.08548742 0.06958661 -0.011725565 0.16291091 0.026839731 0.008439501 -0.023496155 -0.1510073
-0.023751982 -0.05411521 -0.090243354 0.022430545 -0.04169829 0.061331276 0.09442489 -0.0034205162
-0.060051013 0.09635204 -0.039675638 0.08065078 0.08335433 -0.0022585618 -0.16980368 -0.067745715
-0.12988254 0.07111503 0.14459951 -0.0036186404 -0.03245567 0.061251085 0.099534616 0.0002677051
-0.05120867 0.15880704 0.08337767 -0.06509159 0.06956461 0.044077378 0.03955547 0.024009725
0.17876515 -0.09186338 0.0065687113 -0.14123206 -0.050068755 -0.031422094 -0.20845169 -0.14234903
0.10308641 0.0744633 0.12348561 -0.009031389 -0.21048483 0.026419507 0.06834588 0.05276447
-0.055577137 -0.1150541 -0.111511834 0.13344975 0.0015326394 0.11162778 0.05910107 -0.119474255
-0.079426914 0.047490634 -0.025817774 0.03543572 0.17102908 -0.05333618 0.0023761585 -0.09047767
-0.0850675 0.19307457 0.19301783 -0.1369843 -0.16510428 -0.056214347 -0.022036044 0.012268128
0.059220422 -0.016874552 0.21387668 0.036714334 -0.025894154 -0.11202147 0.14838721 0.110075735
-0.024956584 0.0017900266 0.17008537 -0.012089746 -0.12583159 0.17822248 -0.036775287 -0.11887809
0.066761896 -0.016592292 -0.049620554 0.022669341 -0.043216802 0.01029565 0.036165524 -0.009416106
0.0055551487 -0.022247996 -0.13806863 0.085972644 0.016787536 0.055309087 0.016125867 0.12369337
-0.22803998 0.055396747 0.05048645 -0.010120589 -0.034234703 0.19853567 -0.23306382 -0.17474185
-0.027598301 0.069680884 -0.0029130997 -0.051460914 -0.0019954797 -0.11406389 -0.13032241 -0.08950148
0.015206627 -0.001324932 -0.061949555 -0.039433558 -0.07592993 0.13238966 -0.08101457 0.020866752
-0.117892966 0.060821176 -0.028902868 -0.046731852 0.0644414 -0.14920956 -0.035169367 -0.022279136
0.119637236 -0.10779464 0.11087838 0.16598357 -0.01721312 -0.18014042 -0.19411933 -0.014347484
-0.045732804 0.06982057 0.11890614 -0.14845149 -0.06612538 0.021906734 -0.06379812 -0.018741386
-0.035620417 0.15711477 -0.11047936 0.020051403 0.018506777 0.17163798 0.062193993 0.015896127
0.094165735 -0.14413448 -0.024709182 0.046189874 0.0611428 -0.18540211 0.09600297 0.009409143
0.051037695 0.059473637 -0.1840631 -0.064264745 0.049095858 -0.010088703 -0.047602642 -0.033662178

b_play_habitat f4 [4]
00000000: 3f93 f93a 6cc4 023c 36b8 2d3b e464 4dbc
0.0019041075 0.007981401 0.0026507503 -0.012536261

W_gain_food_primary f4 [192, 7]
00000000: 0cc0 e53d c42b ecbd ef96 3cbc 3be8 4e3d
00000010: ac36 66bd 269f d33d 2212 bdbd ce44 0a3c
00000020: bd3c 813d c8f3 76bd 0cd6 b03d 4a2a 913d
00000030: 4c0e 073e 73ba 203d d563 11bc 4a9a 0b3d
00000040: 29a5 043e 4baa e93c d28e 233d 6b64 403e
00000050: 546b cbbd d174 fcbd b5f5 bdbd 075a b33d
00000060: 52e5 58bc 8a57 93bc bd02 333d fe08 073e
00000070: 73f7 753d d7ce 0c3d fdcc 79be 6bc6 a43b
00000080: b65c 163c 66cb 45bd ed50 a8bd ca5d a9bd
00000090: cb8c 8b3d c11e d4bd ae23 8d3d 4820 f9bb
000000a0: b236 5c3c 59cb f13d 4204 223e 3e0f 383c
000000b0: e030 933d 200f 8fbd 80ae fbbd 8f7f 5e3e
000000c0: ca8a 013e 4462 7abe c578 babd 0234 0a3e
000000d0: 79e5 a2bd 13ba 91be e243 9dbd 5f0a 6e3d
000000e0: 5f67 1d3e 9f2f ebbd e518 3e3d 2639 743c
000000f0: df88 c1bb 2fa3 0bbe 864a 34be 39ce 103d
00000100: 9377 093d 6e1c cc3a a436 57bb 002b 723d
00000110: 6eca 87bd 35ec 503d f7fe a73d efd0 1a3d
00000120: 793f 9dbd 6eac 463e 6a92 ea3d e4b7 ba3d
00000130: d113 b13d 0984 b23e 295f aabd d11a e3bd
00000140: 9679 ccbb f8fb 3f3d 995b 2ebc eca6 9d3d
00000150: a95e a93d 955e 313e 0ecc 1d3e a916 103e
00000160: 4acc ce3a f937 bdbd 8dfc a13d 5d86 37be
00000170: 327f 323d 818f fdbd f390 28bd 4eb5 c83d
00000180: 303b adbd 8be7 62ba 69e8 fd3d 4862 d5bd
00000190: 3a3e 1d3d c1fa 42be 6a97 9ebc 8276 d5bd
000001a0: 1d39 ae3d 65dc 58be 7a17 893d 0dc5 ac3d
000001b0: 4f92 74bd 4d87 a0bd 454a 013e fb21 adbe
000001c0: 8077 ecbd 5b1b c63d 15db 06be 6db9 393d
000001d0: 5614 9a3d 0a53 823d 687f 9bbd 1c66 893e
000001e0: 2b7c 5dbe cc51 883d f96f 9e3d 986b 4b3d
000001f0: 8b6c 643e fc80 d03d b55b d0bc 1c94 5cbc
00000200: 7c10 273e b892 c5bd 9705 cc3d 86c1 7fbe
00000210: 8a04 b83d 3dbd b23d a7e2 a0bd 757f 1bbe
00000220: 1f85 643c 41de aabd 0261 a53d 7978 d43b
00000230: 4145 59be 53e9 64be df6b dd3d a95f 4abd
00000240: 172a d4bc 4eb9 3f3c d575 1ebe d4ad 933d
00000250: 05b1 e6bd 5268 d8bc 1988 0d3c aaf2 b0bd
00000260: 2a2b 68bd dab9 ab3d 09f6 14bd c0c2 3dbd
00000270: f96a a6bd 516a 073e ab9d 86bc edc4 a63e
00000280: 6a54 05be 911e 6e3d 7b85 84bd 59fa 373d
00000290: 8a2c f2bd 3374 9a3c f83b 243e 5896 993d
000002a0: b43b fb3d d1ba ab39 7af5 a23d 15fb 92bc
000002b0: 21b4 97bc a2bd b93d 8b01 dabd 4f9d 293b
000002c0: b483 163e e480 d6bc 1b2c f1bd 86a1 d63d
000002d0: ce57 563d 7417 493b 27da 843d e694 af3d
000002e0: 87cf 913d d598 18be 0743 133e 0067 23be
000002f0: 33bd 083d 1059 3ebe 892d d9bd 8de4 923e
00000300: 1b24 5bbe 00fd 03be 1e38 c83d 65ca 72be
00000310: f1e9 623d 5b3e 73bd 9fa3 023e 295f ff3d
00000320: f6c4 16bd 3315 493d f83b 163d c19a 803e
00000330: bf4e 41bc 9400 bdbd 1b11 373e f589 88bd
00000340: 4e3f 2fbd 42e4 a5bd c8ec da3c 6895 cabd
00000350: 0308 ebbd 0845 98be d75a cebd d918 c5bd
00000360: dae3 aebd d1ac febb 0941 8dbd f643 883d
00000370: 407a a23d 687c 033e 5024 ab3d 3af3 963c
00000380: 7b10 29bd 50f4 6f3e 5ee7 b3bc 57a1 ae3d
00000390: 5b0c 3c3c 8e66 f3bd 90cb 0b3c 71fd 82bb
000003a0: 89e5 d03d a4d6 0fbe 004b e43c 667d f53c
000003b0: 06eb 2c3b 396b d3bc 48a4 26bd 81b9 533d
000003c0: c361 db3d a96b ac3e 38c7 ec3d 72a6 3dbd
000003d0: cc1e a0bd f6cb b5bc 7206 0abd 9791 9ebd
000003e0: 8520 073d 7449 0c3e 6552 fe3a 3cfa 44be
000003f0: b1cd 0d3e 1275 20bc 3564 8bbd ac08 5e3e
0.11218271 -0.11531785 -0.011510595 0.05051444 -0.056204483 0.103330895 -0.09231974 0.008439256
0.06310413 -0.06029108 0.08634576 0.07088144 0.13189048 0.03924031 -0.0088738995 0.03408269
0.12953629 0.028523585 0.039931126 0.18788306 -0.099325806 -0.123269685 -0.092753805 0.08757406
-0.013238268 -0.017986078 0.043703783 0.13187024 0.06005044 0.034376945 -0.24394603 0.005028536
0.009177377 -0.04828968 -0.0821856 -0.08269842 0.068139635 -0.10357428 0.06891571 -0.007602725
0.013440775 0.118063636 0.15821937 0.011234103 0.071870565 -0.06985307 -0.122891426 0.21728347
0.126506 -0.24451548 -0.09105066 0.13496402 -0.07953925 -0.28462276 -0.07678963 0.05811536
0.15371464 -0.114836924 0.04641046 0.014906203 -0.005906209 -0.13636468 -0.17606553 0.03535292
0.0335613 0.0015572438 -0.0032838965 0.05912304 -0.06630407 0.051006515 0.082029276 0.03779691
-0.07678122 0.19401714 0.114537075 0.091171056 0.08646358 0.3486636 -0.083189316 -0.11089099
-0.00624008 0.046871156 -0.010641956 0.076978534 0.08270008 0.17321236 0.15409872 0.14071144
0.0015777436 -0.092391916 0.07909498 -0.1792235 0.043578334 -0.12380887 -0.04115386 0.09800206
-0.08458555 -0.00086557184 0.12397844 -0.10419136 0.038389422 -0.19040968 -0.01935931 -0.10422994
0.08506987 -0.21177824 0.06693931 0.08436022 -0.059709843 -0.078383066 0.12625988 -0.33814988
-0.1154623 0.096731864 -0.1316951 0.04534285 0.0752341 0.06363495 -0.0759266 0.26835716
-0.21629398 0.066562265 0.07736201 0.049663156 0.22307031 0.10180852 -0.025434354 -0.013463046
0.16314882 -0.09647125 0.09962004 -0.24976167 0.08985241 0.087275006 -0.078557305 -0.1518534
0.013947754 -0.08343173 0.080751434 0.006484088 -0.21217825 -0.22354631 0.108115904 -0.049407635
-0.025898976 0.011701895 -0.15474637 0.072108895 -0.112642325 -0.026416931 0.008638405 -0.086400345
-0.05668179 0.08385058 -0.03636745 -0.046328306 -0.08125872 0.1322415 -0.016432604 0.32572117
-0.13020483 0.05813462 -0.06470772 0.044916485 -0.118249014 0.018854236 0.16038501 0.07499379
0.12267247 0.0003275485 0.07956977 -0.01794199 -0.01851851 0.09069373 -0.106448255 0.0025881117
0.14698678 -0.026184507 -0.117759906 0.10480027 0.05232983 0.0030684145 0.06486922 0.08573322
0.07119661 -0.14902051 0.14381038 -0.1595726 0.03338356 -0.18588662 -0.10604388 0.28689995
-0.21400492 -0.1288948 0.097763285 -0.2371002 0.055398885 -0.05938564 0.12757729 0.12469322
-0.03680893 0.049092483 0.036678284 0.25118068 -0.01179856 -0.09228626 0.17877619 -0.06666938
-0.04278498 -0.08100177 0.026724234 -0.09891778 -0.114761375 -0.29740167 -0.1007592 -0.0962388
-0.08539553 -0.007772066 -0.0689717 0.066535875 0.079334736 0.12840426 0.083565354 0.018426526
-0.041275483 0.23433042 -0.02196091 0.08526867 0.011477555 -0.11884795 0.00853242 -0.0039974977
0.1020003 -0.14046723 0.027867794 0.029967021 0.0026385202 -0.025807964 -0.040684015 0.051690582
0.10712006 0.33675888 0.115614355 -0.046301313 -0.07818374 -0.022191983 -0.033697553 -0.07742613
0.032989997 0.13699895 0.0019403218 -0.19236082 0.13847996 -0.009793537 -0.06806222 0.21682996

b_gain_food_primary f4 [7]
00000000: 7939 f8bb 3339 7dba 9cd6 403c 28b5 1c3c
00000010: c76f f7bb 4ed5 a33b 3fce 27bc
-0.0075752106 -0.00096597074 0.011769917 0.009564675 -0.0075511667 0.004999793 -0.010242044

W_draw_mode f4 [192, 4]
00000000: 6e52 a63c 6500 0ebe d729 7f3d c2a0 e7bd
00000010: f9df ec3c f796 9b3d 09c7 2f3e bb9f 3dbe
00000020: 9f84 a8bd b611 14be ca15 173d 011f 5ebd
00000030: e87d 383e 3769 a43d 6c33 cbbd e651 3f3d
00000040: de0b b8bc a2ba 18be 5fc5 e53d 3fb4 4abd
00000050: 221d 89bc 703f 23be 88da 133d 8d5e a53d
00000060: f45a 84bd 4cb7 d93c 3af6 123e 0635 603d
00000070: 2f60 9bbd c64d 173d 2231 f03d 8d93 90bc
00000080: 00ba 96bc 2479 f63c 1e83 583d 24e4 3bbc
00000090: 0dd2 bebd 1866 f1bc f220 96bd 6a09 b83c
000000a0: 98bc cabc 05de c93d 01ab 4bbd 037c 62bc
000000b0: 661d d83d 680e 273d f961 f83d f7ee c9bd
000000c0: 427f d0bc d6bc 57bd b420 d43d af1d 01bd
000000d0: 17c4 61bd 5690 a9bd 67fc 3c3d 582f 433e
000000e0: 2819 aebd 3721 e03b 4236 8e3d 4577 303e
000000f0: ec2a 90bc 5e74 11bd ddd0 d8bd 8326 363e
00000100: e856 c8bd fa86 21be c834 20bd 3bb9 a03d
00000110: c85b 24bd a6b9 0abe d673 aabd c99f 1c3d
00000120: 034b 4a3e 1e1d ebbc 70f9 99bd 6607 163e
00000130: c3d4 2fbc ff99 b83d ec61 72be fade 083d
00000140: d7c0 02be 6889 0f3e a2f9 e6bc 9346 ffbd
00000150: 791d bb3d 190d 17be 2c33 31bb 7bf6 2c3d
00000160: f3ee bb3d cac9 933d 3136 bf3c 3386 6ebc
00000170: 798e 06bc cf03 ef3d 61b4 dbbd 2316 19be
00000180: f3a6 b83c 1c13 a2bd f2ad 65bd ec70 24bd
00000190: 5b65 55bc 7674 14be 3f9f 0dbe 3c64 c93d
000001a0: 3aa1 28bd 062a f8bd a60d b4bd a78f a2bc
000001b0: 8371 2c3e 2cef 18be 47a5 e3bd 2003 3a3d
000001c0: 15db 983a 843a 143e eefe 1e3e 6cf6 3b3e
000001d0: f64d 6bbd 14b9 5f3e 3825 873e 5103 0ebe
000001e0: bb92 083e c08e a43d 0775 8fbc af01 9cbd
000001f0: e317 8a3d 3d63 6cbd 33aa a63d 4566 c43d
00000200: 3888 113e caf0 20be 4ae7 7b3c 27bb 91be
00000210: 76c4 1cbe 921a 3dbe f04c f83d 22dd 91bd
00000220: 8325 0ebe 2350 823c 250c 553d 71c2 6f3d
00000230: 0aaf 193e 9c0d de3b 7735 db3c 246c 48bd
00000240: e691 923d be91 353e 7d88 1dbc a837 943c
00000250: f1df 2b3b ef1d 323e 1649 90bd 2b38 33be
00000260: 94cc 63be fbfa c3bd 7bf1 fa3d 85ed c73c
00000270: 6b86 29bd 9091 9bbd e04f 20bc 22b8 8fba
00000280: bae1 02bd 3608 a8bd d09a c63b 57b5 c5bd
00000290: cc63 90bd 86f6 1b3e 4bbc 55bd eefc 953d
000002a0: 03ce adbd f0b8 33be 363d 2c3d b393 1cbd
000002b0: 1d33 f6bd 01a4 613d 0a3c 23bc ffb4 5b3d
000002c0: c7ed 3ebe 9325 e8bc a109 5ebd 5dc5 d63d
000002d0: bf81 003e 4ec1 71bc 2463 11be de5e e8bd
000002e0: a03e b83d 8733 b8bd ca0a 08bc 3607 7abc
000002f0: 963d 413d 40b2 893d 5b10 cb3d a1a0 2e3e
00000300: 58ee f23c dfcd 153e a246 c0bb 0a4b 573d
00000310: 6773 733e 9b40 933d 202e 463d 0cb6 5b3b
00000320: c8dd e3bd 18a7 fd3c cade b6bd 152f 94bd
00000330: 4bfc 293c e517 b53d 8666 7abd cf90 523d
00000340: 5057 8ebd 7713 e9bd a03e 10bd 56f4 9c3d
00000350: ab3f 06bb 0258 52be dfee d33d b17a aebd
00000360: d5f4 123e 84da 1cbd 5b76 f23b 74ca eb3d
00000370: fb53 2dbe 24b9 7c3e 63a5 53bd 35c3 763d
00000380: dae4 fb3d f353 f93c 6c05 e5bd b81d 9a39
00000390: 59fa 813d 5f6b 193e 26f1 a03d ada2 67be
000003a0: e1ca 29bc 5211 14bd d46e 6cbd 7f91 e4bd
000003b0: 4d18 603d f7e0 4fbd b05f f7bd 78d9 fbbd
000003c0: bb0c 513e 3861 f63c 33aa 043e 332f 4a3e
000003d0: c87c 763e db62 47bd ca4d 403c cd7d 46be
000003e0: 143b aebd aad7 85bd e3f5 93bd 0c63 5ebe
000003f0: 55a7 873d 6b84 e43d bf79 523e 1f5b 23be
0.020302977 -0.13867338 0.06229576 -0.11309959 0.028915392 0.07597154 0.1716577 -0.18517964
-0.082284205 -0.14459881 0.036886014 -0.054228786 0.1801678 0.08027881 -0.09921917 0.046708964
-0.022466596 -0.14914945 0.11219286 -0.049488302 -0.016737524 -0.15942168 0.03609708 0.08074675
-0.064626604 0.02657666 0.1435174 0.054738067 -0.07586705 0.036939405 0.11728121 -0.017648483
-0.018399239 0.030087061 0.052859418 -0.011467967 -0.09317408 -0.029467627 -0.073305026 0.022465426
-0.024748132 0.098568 -0.04972363 -0.013823512 0.10552482 0.040785223 0.12128062 -0.09860032
-0.025451306 -0.052670322 0.103578 -0.03152245 -0.055118646 -0.08279483 0.046139147 0.19061029
-0.08500892 0.006839897 0.069439426 0.17232998 -0.017598592 -0.035511367 -0.105867125 0.17788129
-0.09782201 -0.15774146 -0.039112836 0.0784783 -0.040126592 -0.13547382 -0.08322875 0.03823832
0.19755177 -0.028700408 -0.075182796 0.1465126 -0.010731879 0.090137474 -0.23670167 0.033415772
-0.12768875 0.1401726 -0.028195206 -0.12464633 0.09136481 -0.1475109 -0.0027038557 0.04222725
0.09176435 0.072162226 0.02334127 -0.014558363 -0.008212679 0.11670648 -0.10727764 -0.1494985
0.022540545 -0.07913801 -0.05607409 -0.040146753 -0.013024653 -0.14497551 -0.13830279 0.09833571
-0.041169383 -0.1211739 -0.08791666 -0.01984389 0.16840176 -0.14934987 -0.111155085 0.045413136
0.0011661971 0.14475447 0.15526935 0.18355721 -0.057447396 0.21847945 0.26395583 -0.13868453
0.13337223 0.0803504 -0.017511858 -0.076175086 0.06742837 -0.05771183 0.08137932 0.09589819
0.1421212 -0.15716854 0.015374968 -0.28463098 -0.15309319 -0.18467167 0.1212405 -0.07122256
-0.13881497 0.015907353 0.052013535 0.058535043 0.15008178 0.0067765247 0.026758892 -0.048931256
0.07156734 0.17731377 -0.009615061 0.018092945 0.0026226009 0.17394231 -0.0704519 -0.17501895
-0.22246009 -0.09569355 0.1225309 0.02440525 -0.041387957 -0.07596123 -0.009784669 -0.001096491
-0.03195355 -0.08204691 0.0060609356 -0.096537285 -0.07050285 0.1523076 -0.052181523 0.07323633
-0.08486559 -0.17551017 0.042050563 -0.038226794 -0.12021468 0.055088047 -0.009963045 0.05363941
-0.18645392 -0.02833823 -0.0542084 0.10486863 0.12549494 -0.01475556 -0.14197975 -0.113462195
0.0899632 -0.08994203 -0.008303354 -0.015260508 0.047177874 0.067234516 0.09915229 0.17053463
0.029654667 0.14629315 -0.005867795 0.052561797 0.23774491 0.07190057 0.048383832 0.0033525256
-0.11126286 0.030963466 -0.089292124 -0.07235543 0.010375093 0.08842448 -0.06113293 0.05140763
-0.06950247 -0.11380666 -0.035215974 0.07663791 -0.0020484726 -0.20541385 0.103482954 -0.08519495
0.14351209 -0.03829433 0.007399363 0.11513224 -0.16926567 0.2468 -0.051671397 0.060244758
0.12299509 0.030435538 -0.11182675 0.0002939531 0.06346578 0.14982365 0.078584954 -0.2262065
-0.0103633115 -0.03614933 -0.05772288 -0.11160564 0.054710675 -0.050751653 -0.12078798 -0.12297338
0.20415013 0.030075654 0.12955551 0.19744568 0.24071038 -0.04867826 0.011737296 -0.19383927
-0.08507362 -0.06535275 -0.072246335 -0.21717471 0.06623713 0.11158069 0.20554255 -0.15952729

b_draw_mode f4 [4]
00000000: 3811 d8bc c04e 953d 0b4d ddbc acdc 9fbc
-0.026375398 0.07290411 -0.027014276 -0.019514404

W_lay_eggs_bin f4 [192, 11]
00000000: bbb0 c4bc f806 023c a765 93bd f71a 773e
00000010: 056f cf3b 026d d23d 8343 2f3e 141e 5fbd
00000020: 7fd4 d53d 3697 6bbd 806d 043e aaa1 0bbe
00000030: d5f8 bc3b a55a 8f3c 635b 0ebe 94b5 a33d
00000040: 78a5 da3d 6919 bbbd 2996 e9bc 68d2 d0bd
00000050: 7ebe 48be 12a3 ad3c 102f fc3c c6b3 e0bd
00000060: c8da b3bd 8eb2 0bbe ab58 10be 933d 6b3c
00000070: fa94 0d3e 3234 e5bd 3f57 1cbe f1c2 04be
00000080: 0fd1 38bd 0d8a 48bd 0568 a23c 2b33 033e
00000090: b008 683d 5916 023e c6ba d13d 1f0f 843b
000000a0: a97e 26be 9147 7dbd c54e 013e cc6b 5fbd
000000b0: f7eb 713d a7a4 0bbe bf83 2cbd 3978 0a3e
000000c0: 5295 acbd e915 c63c 4ee1 e0bd 1c6b 07be
000000d0: 5724 17be 230c e1bd af70 3a3d cc74 5cbe
000000e0: 6e0a 3b3c 001b 3d3b b56d c7bd da2b 06bd
000000f0: 6ef0 c1bd b364 55be 2332 d3bd 5bef 8e3c
00000100: 3f80 c83b bc19 1f3d f897 3bbe 2b38 28bd
00000110: 6bdc 903d a0a5 ab3d 7175 833c 09f4 b8bd
00000120: 0c54 cebd bc14 0fbe bd4a 1c3e dedd cb3b
00000130: 91f4 ba3d 7043 d83d fcca 243c 1f21 afbd
00000140: 5a1e c5bd 9a4a 41be 67b1 0a3e 6b60 da3d
00000150: 551b 5fbd 7365 0cbd 6b5d 08be abad 67bd
00000160: 49c3 3bbc 9970 a63d ec71 033d 22a1 16bd
00000170: 2639 26bd 6055 3d3d 5661 e9bc 3455 693e
00000180: 5726 443c 327f e53b cb11 533d 9d2c 74bc
00000190: ea60 323e 2a9c ad3c 4071 203e 4eb7 d43c
000001a0: 8e07 033e 641f a03c 9a23 923c 3923 0bbe
000001b0: 6a3f 01be d806 823c 11eb de3d 2ac1 3dbc
000001c0: 8873 853d bbff 053e 010c 433d c496 2bbd
000001d0: f846 e7bd f85d adbd 08ff 22be 723e d4bd
000001e0: b7b1 ae3d ddc4 3f3c fe61 44bd 0d78 153e
000001f0: eb03 83bd be5c 0dbc d051 98bd df9e 19bc
00000200: db5b a6bd c8e7 b3bc 6c06 e3bc 9e7d 87bd
00000210: ce82 443c 5ad2 cebc 94e3 7e3c f832 91bd
00000220: afbd 1fbb 4c30 3b3d 32f0 1cbd 02fd 013e
00000230: f8d1 33bd f08d 2bbe f08e 04be 5ca2 f53c
00000240: ffc0 03be b720 4cbd 8af1 37bd d050 a23b
00000250: 8ca0 8d3d 20ba 85be eb62 553e 9977 34be
00000260: 6472 e83d 5266 09be ca5a 21be a276 0fbd
00000270: 4b1a 38be 2688 d23d 52fb 4cbe a714 233e
00000280: 4f25 923d dc40 9dbd c2e5 ad3d f8e2 0cbe
00000290: 308a 01bc 6460 2b3c ca62 0d3e cc97 933d
000002a0: 280b aebd 09b0 88bd ae85 23be 6218 c73d
000002b0: 84fa 313e c69f 70bc 1c29 a1bd 3c5f 69be
000002c0: 73fb 33bd 01f6 f33d 6cbe f63a dba2 243c
000002d0: 6537 d93c 349d 2d3d 5a0f ab3d 7909 bb3b
000002e0: 4831 073e 86cb a6bc 17e5 853d 5d53 b53b
000002f0: f58c edbd 0248 aebc 9586 61bd 72f3 d83d
00000300: c278 2abd 16a8 593e c1f8 86bd 9a6d 1c3e
00000310: c2fb c83d 5324 68be 8372 b73c 543e 173e
00000320: cc09 863d 04aa f43d edb9 f0bd c2d8 433d
00000330: 7b6c 623e f035 29be 4085 c23d d3c8 883d
00000340: 1c62 fc3d 43e1 653d bab3 5d3d bf03 84bd
00000350: a293 963d 35e2 133e 45d7 4a3e a23a bd3d
00000360: fb35 33bd 569f 163d 53a9 05be 6725 12bd
00000370: 09e5 ec3d 28dc 8e3d db80 9b3d f485 3ebe
00000380: e8d7 20bd 21cb 33bd dbe9 1c3e 6697 9a3c
00000390: 1b70 823d c309 713d 3707 353d 2db8 023e
000003a0: f859 ccbc 2623 24be 3fcd 1d3e 6e70 11be
000003b0: fa98 0d3d 1def 113d 0e03 ccbd 6850 ce3d
000003c0: c1d2 a8bd c94b 61bb b45f 493e 7abb 24bd
000003d0: 8777 243d f34c d1bd 904c 67bd 4c1e 843d
000003e0: 3bae 43bd 6182 033d 1b8e b4bd 59c1 f33c
000003f0: a3d7 843b 5e8d e23d 50bf e83d 8fe5 d03d
-0.024010053 0.007936232 -0.07197123 0.2413138 0.006330373 0.10274698 0.17115597 -0.054472044
0.10440921 -0.057517253 0.12932396 -0.13635889 0.005766968 0.017499277 -0.13902049 0.07993618
0.10676092 -0.09135706 -0.028513985 -0.10196382 -0.19603917 0.021195922 0.03078416 -0.10971789
-0.087819636 -0.13642332 -0.14096324 0.014357942 0.13826361 -0.11191596 -0.15267657 -0.12964989
-0.04512125 -0.04895978 0.019824991 0.12812488 0.05664891 0.12703837 0.10240702 0.004030123
-0.16259255 -0.06183583 0.12627704 -0.054546162 0.059062924 -0.13637029 -0.04211783 0.13522424
-0.08426918 0.02418037 -0.109804735 -0.13224453 -0.14759956 -0.10988643 0.04551762 -0.2152893
0.011416061 0.0028855205 -0.09737722 -0.032756664 -0.094696864 -0.20839195 -0.10312297 0.017448118
0.0061188038 0.0388429 -0.1831969 -0.04106919 0.070732914 0.083812 0.016047211 -0.09030921
-0.100746244 -0.13972753 0.15262885 0.006221517 0.091286786 0.10559738 0.010058161 -0.08551239
-0.0962493 -0.18876114 0.13544236 0.106629215 -0.054469425 -0.034276437 -0.13316886 -0.056562107
-0.011460134 0.08126945 0.032091066 -0.036774762 -0.040581845 0.046223998 -0.028488796 0.22786409
0.011972032 0.0070036883 0.05153064 -0.014903215 0.17419782 0.021192629 0.15668201 0.025966313
0.1279585 0.019546218 0.017839242 -0.13587655 -0.12621847 0.015872404 0.10884679 -0.011581698
0.065161765 0.13085835 0.04761887 -0.04189183 -0.11292833 -0.08465189 -0.15917599 -0.10363473
0.0852999 0.011704651 -0.047945015 0.14596577 -0.06397232 -0.0086280685 -0.074374795 -0.009376257
-0.08122989 -0.021961108 -0.027713023 -0.066157565 0.011994077 -0.025246788 0.015557189 -0.070898
-0.0024374535 0.045700356 -0.038315006 0.12694171 -0.043901414 -0.16753364 -0.12945151 0.029984646
-0.12866591 -0.049835887 -0.044908084 0.0049534813 0.069153875 -0.26118565 0.20838515 -0.17623748
0.11349943 -0.13417938 -0.1575729 -0.035025246 -0.1797878 0.102798745 -0.20017746 0.15925847
0.07136022 -0.076783866 0.084910884 -0.13758457 -0.007906482 0.010459993 0.13807216 0.07206687
-0.08498222 -0.06674201 -0.15968964 0.097214475 0.1738072 -0.01468653 -0.07869169 -0.22790235
-0.043940973 0.11912156 0.0018825061 0.010048593 0.026515672 0.04238625 0.083525375 0.0057079163
0.13202393 -0.02036072 0.06537836 0.0055336193 -0.11599151 -0.02127457 -0.055059988 0.105933085
-0.04161907 0.21255526 -0.06590415 0.15276185 0.09813644 -0.22670107 0.02239347 0.1476987
0.06544837 0.119464904 -0.117542125 0.04781414 0.22111695 -0.16524482 0.09498072 0.06678929
0.123234004 0.05612303 0.05412648 -0.06446027 0.073523775 0.1444176 0.19808681 0.09239699
-0.04375265 0.03677305 -0.13052873 -0.0356802 0.115671225 0.06975585 0.075929366 -0.18605787
-0.039268404 -0.04389489 0.15323584 0.01887102 0.06369039 0.0588472 0.044196334 0.1276557
-0.024945244 -0.16029033 0.15410326 -0.14203045 0.034569718 0.035628427 -0.0996152 0.1007393
-0.08243323 -0.0034377447 0.19665414 -0.040217854 0.040153053 -0.10219755 -0.0564695 0.06451091
-0.04777358 0.03210676 -0.08816167 0.029755281 0.004054026 0.1106212 0.11364615 0.10200035

b_lay_eggs_bin f4 [11]
00000000: 1666 23bb a709 23bb c290 a93c 870a 383a
00000010: a3cf 9eba 52c8 b7ba 5a06 e8ba ee04 09bb
00000020: 99db 32bb eb37 76bb 60b1 62bb
-0.0024932674 -0.002487758 0.020698909 0.00070206117 -0.0012116324 -0.0014021492 -0.0017702088 -0.002090748
-0.0027291535 -0.003756995 -0.0034590587

W_play_cost_bin f4 [192, 7]
00000000: 3e46 a2bc 01b9 b83d 51a9 38bd f8b9 993c
00000010: d2ab 9dbd 21d4 013d 6c10 4b3e e34e 91bd
00000020: 3a3b 103c bd9c 85bc 6f91 4ebd c802 02bd
00000030: 9e7b ccbd e6a4 bd3d c57c 923d 77c3 733e
00000040: 5285 00bd 036c 7e3d 0ce3 3bbe 2b95 6a3b
00000050: b47b ea3c c136 02be 74e4 003b a4d9 22be
00000060: ca59 8a3d 0ba2 85bd f93f abbb baa5 ca3d
00000070: 4e28 e53d 97aa 49be b4db fc3d 2cfd 11be
00000080: d2a6 2cbc 1d4e 21bc 9fdb 5e3d 8cd8 a7bd
00000090: 03b5 0ebe bf7a b5bd b1bb 35be f84e 6dbd
000000a0: 4b89 0bbe 887a a03d de35 783d ef02 49bd
000000b0: 2bba 8b3e df3e 02be cbcd 783d d9ba ef3d
000000c0: 5d93 adbd 8637 173e 54ac b3bb a216 77bd
000000d0: c3a6 abbd 5b5b 31be 1181 01bd 0e05 01bb
000000e0: 4e17 e3bd 82af 1f3d 9ec1 83bd a508 aabd
000000f0: 8746 2fbd fbe3 aebd ca97 f1bd cc13 fa3b
00000100: 0d7c 313d 08d8 053e 8fd3 233b 644e b63d
00000110: 2b0a 1d3e 3c5a 55bb ebee 7f3d cb33 ff3d
00000120: f8d2 01be 806d 003d e582 2f3b dac5 893d
00000130: 5a1c dcbb a451 a93d 5459 e2bc 0a86 d63d
00000140: 5a71 dc3d c56d abbd 09b4 b73d 1312 12bd
00000150: 0afe 1cbc 19eb 13be a3a3 8cbd 12e2 97be
00000160: 2e91 8cbd fd1c d5bd 3c41 5fbd 6054 3c3e
00000170: 84aa 05bd 5406 3abc e2d8 81bd 0398 753d
00000180: dcf8 453d 0fcd a33d 82f9 a2bb 3da8 24be
00000190: 7f2e 283d 3d94 533d 674b 493d 6c5c 00be
000001a0: dd79 3a3e f65d 2ebc b086 3fbb 473d 8ebd
000001b0: abc3 0b3e 0906 36be 5f7b 673d 4fbd aebd
000001c0: c1c3 59bd a7bf ba3d dd37 183c 558d a1bd
000001d0: f0bd 213e 8e09 253d 8d12 e23d 4a9e b3bd
000001e0: b9d9 cd3c 5ce3 55bb df6b 723d d209 90bd
000001f0: 5157 413e 6a60 9b3d e50d 2ebd 9cf1 913d
00000200: 86f5 e5bc badd 89ba 7082 ff3d 3127 28be
00000210: 97e4 afbc 1a61 e8bd ee68 d3bc c4da bbbd
00000220: bfd2 48bc ff59 b43c ffd2 203c ae15 8a3d
00000230: b13a b3bd 6ff6 a33d e613 223e 56ae 583d
00000240: eaa3 bcbd ced9 70bd 9e03 953d d672 d4bd
00000250: ff4a 05be 12fa 783e 3d00 3f3d b140 163c
00000260: 77b3 efbd f67b f93b 3c6f b13d 502b 89bd
00000270: 60a6 1e3e d30e 0b3e 247d 363d dee8 913d
00000280: 6547 9dbc e284 383e 2c11 e63c ba0e 043d
00000290: 555b 0b3d 57e0 47bd 1be8 e7bd a700 4f3e
000002a0: 9758 45bd 8772 b63c 5fef 62bc 99ae 04bc
000002b0: 5f4b 2c3d e200 6b3d 2cd7 bb3d 2f19 98bc
000002c0: 082f 033e 2938 a2bd 9e85 063e ffca f13c
000002d0: 2850 dfbc 800d 54bc d431 01bb c07c f83d
000002e0: 894d 813d d286 863c 26bb c73d 0af0 3b3d
000002f0: 454a f83d 4344 72bd 995b 9fbc 80c1 88bc
00000300: 86fb 2abe 781c dc3d 82b7 c43b 9426 2d3e
00000310: 2602 1d3e 2370 eb3d c5c0 23be 0293 233e
00000320: 5029 1fbe ed3b e83d 9799 b6bc e502 a2bc
00000330: a10f d0bc f46a a53d 2726 413d 4e81 9e3d
00000340: 4f1d 94bc d397 80be 1210 0abe 5020 233e
00000350: 018d 4ebd 76e2 4f3d e8f3 073e e603 563e
00000360: abe8 8ebd 8b54 04bc b7a7 1ebe e086 133e
00000370: 695b 1e3d 5ee0 2d3c 8251 083e 4752 46bd
00000380: eb0f 12bd fe06 d4bd 1e9d 9e3d 74c8 743d
00000390: 990d f43d a9b7 1c3c 9ffd 4a3d 72e3 be3d
000003a0: 7392 033e 0c87 e73c 68ce cfbd 094a 14bc
000003b0: ab96 093e f140 083e 9e08 35be 4ff6 ee3d
000003c0: 1f84 253e bbef be3d ce7d 203d 1b0a cbbd
000003d0: 553b 3e3c 0031 b3bd 9c7f 4c3e 96a6 f53d
000003e0: 5e7a f5bd 8c49 5f3d 3d36 0cbe ea2c 8bbe
000003f0: 3dc5 893d 71ff b0bd 254e 213d f257 d8bd
-0.019808885 0.09019662 -0.045083348 0.018765435 -0.07698788 0.031696443 0.19830483 -0.070951246
0.008803183 -0.01631009 -0.050431665 -0.031740934 -0.099845156 0.092599675 0.07152704 0.23805033
-0.031377144 0.062114727 -0.1834833 0.0035794477 0.02862344 -0.127162 0.0019667419 -0.15903336
0.06755407 -0.06525048 -0.005226132 0.09894891 0.11189328 -0.19693981 0.123465925 -0.14256734
-0.01053782 -0.009845284 0.054408666 -0.081956 -0.13936238 -0.088613026 -0.1774738 -0.05793664
-0.13626592 0.07835871 0.060598247 -0.049075063 0.27290472 -0.12719296 0.060743134 0.1170556
-0.08475373 0.14767274 -0.0054831896 -0.06032432 -0.08381417 -0.17320006 -0.031617228 -0.001968685
-0.110884294 0.038985737 -0.06433414 -0.0830243 -0.04279187 -0.085395776 -0.117965296 0.0076317545
0.043331195 0.1307069 0.0024997925 0.089016706 0.1533591 -0.0032555005 0.06248371 0.124610506
-0.12678134 0.031354427 0.00267809 0.0672719 -0.006717247 0.08267525 -0.027630486 0.10474785
0.107638076 -0.08370546 0.08969886 -0.03566177 -0.009582052 -0.14445151 -0.06867149 -0.29664665
-0.06863628 -0.1040592 -0.05450557 0.18391562 -0.03263332 -0.011354048 -0.06340195 0.059959423
0.048333034 0.07998096 -0.0049735913 -0.16079803 0.041059967 0.051655043 0.049144175 -0.12535256
0.1821055 -0.010642519 -0.0029224567 -0.069452815 0.1364886 -0.1777574 0.05651414 -0.085322015
-0.0531652 0.09118586 0.009290663 -0.07888285 0.15795112 0.040292315 0.110386945 -0.087704256
0.025128232 -0.0032636737 0.059184905 -0.07033123 0.18880965 0.07586749 -0.04249372 0.071261615
-0.028071176 -0.001051835 0.12476051 -0.164212 -0.021471305 -0.11346646 -0.02580687 -0.091725856
-0.012257277 0.02201557 0.00981593 0.06742416 -0.08751429 0.08005988 0.15827903 0.052900635
-0.092109516 -0.058801465 0.072760805 -0.10373466 -0.1301689 0.24314144 0.046631087 0.009170697
-0.11704152 0.0076136542 0.086637944 -0.06697714 0.15493155 0.13579874 0.044552937 0.07124494
-0.019199083 0.18019441 0.02808436 0.032240607 0.034022648 -0.04879793 -0.113235675 0.20215093
-0.04818019 0.022271408 -0.013851016 -0.008098268 0.042064067 0.05737389 0.091719 -0.018566696
0.1281091 -0.07920868 0.13136908 0.029515741 -0.027259901 -0.012942672 -0.0019713538 0.12133169
0.06313617 0.01642171 0.097524926 0.045883216 0.12123541 -0.05914713 -0.019452857 -0.01669383
-0.16697511 0.107476175 0.006003321 0.16909248 0.15332851 0.11495998 -0.15991504 0.15974048
-0.15543103 0.11339555 -0.022290034 -0.01977677 -0.025398077 0.0807704 0.047155526 0.07739507
-0.018080382 -0.25115833 -0.13482693 0.15930295 -0.05042744 0.05075308 0.13276637 0.20899925
-0.06977972 -0.008076797 -0.15493666 0.1440692 0.038661394 0.010612575 0.13312343 -0.04841831
-0.03565971 -0.10352896 0.077448115 0.05976148 0.11916656 0.009565272 0.04955828 0.093207255
0.12848835 0.028262638 -0.10146791 -0.0090508545 0.13436382 0.13306023 -0.17679068 0.116680734
0.16163681 0.09323069 0.039182477 -0.09914037 0.011610826 -0.087495804 0.19970554 0.11994664
-0.1198623 0.0545135 -0.13692565 -0.27182704 0.06727073 -0.086424716 0.039381165 -0.10563649

b_play_cost_bin f4 [7]
00000000: 2f97 e9bb 5ea8 bd3b f3d3 633c 6395 333c
00000010: be9b a4bb e2b2 13bc 3371 1bbc
-0.007128618 0.005787893 0.013905513 0.01096091 -0.0050234487 -0.009014817 -0.009487438
