reports/ml/sweeps/seed_51/best_model.npz (npz, 72214 bytes, 17 tensors)

W1 f4 [48, 192]
-0.059255425 0.46338248 0.17978375 0.11063422 -0.34812233 0.02864363 -0.32842162 -0.004596276
0.5168143 -0.11428614 0.25709128 -0.18900476 0.029381612 0.08137444 -0.07818852 0.3717359
0.11223203 0.042296633 0.091619164 -0.026112186 -0.11988301 -0.06519699 0.284178 0.2495423
0.12257969 -0.0011047906 0.15999809 -0.23112878 -0.164048 -0.095246635 -0.24505481 0.016068872
0.043235842 0.07990731 -0.24459848 0.29991215 -0.24206792 -0.06141893 0.016357467 -0.09550331
0.15681924 0.2615847 0.0999347 -0.2357541 -0.0872934 -0.041931964 0.30815086 0.089776985
-0.1533933 0.03067727 0.30411083 0.16789152 -0.2895456 -0.37466717 -0.30428904 0.13311566
-0.19036928 0.11483954 -0.37196842 -0.13043886 0.3689955 0.24437119 0.17685091 -0.1546191
0.022600425 -0.3377555 0.024714725 0.059310127 -0.18456998 0.12465546 0.56211627 -0.0761214
-0.07502502 -0.030465549 0.33026007 0.0075610555 -0.28031972 0.59445846 -0.021048523 0.47218928
-0.14601335 0.4328051 0.051160794 -0.11363661 0.23991327 0.19773638 -0.01833401 0.05875241
-0.097357996 0.37340456 -0.32453758 0.11251001 0.41666463 -0.011424387 0.30538815 -0.11497653
-0.09177764 -0.038289502 -0.058167916 0.037703846 -0.3190982 0.26971316 -0.088713646 -0.43154955
0.7273075 0.19107437 -0.121930026 -0.09415812 0.2830039 0.36744988 0.098118074 -0.31798318
0.09247488 -0.32420608 0.102192976 0.37326393 0.15279914 0.3745747 0.05252194 0.13885258
-0.059968002 -0.06384226 -0.17990313 0.60861015 -0.2346831 -0.004354349 0.016331118 -0.2595263
-0.014086244 0.36908668 -0.039297003 0.3438323 0.034683578 -0.27882275 0.3552643 0.7044483
-0.2762846 -0.22769909 0.0044195037 0.3666426 0.7891267 -0.16141938 -0.27677855 -0.012610748
0.6071272 0.07476282 0.0040285983 0.15689282 -0.119190566 0.17503947 -0.34298542 0.112105966
-0.046247024 -0.1460119 0.0019385645 0.17179914 0.15462273 -0.27640712 0.25341412 0.18969052
0.20436098 -0.06962656 0.36439204 -0.0005170143 0.10437921 -0.07222371 0.4333254 0.13734768
0.22196439 -0.16009603 0.23164858 0.0031862303 -0.12732092 -0.0681079 -0.07806923 0.08275149
-0.12887777 0.6971078 -0.4858955 -0.055049352 -0.10855694 0.08133314 0.061841182 0.19419725
0.016970929 0.22906835 -0.1998618 -0.017500082 0.008377865 0.005367294 0.11795686 0.889312
-0.032159306 -0.14243129 -0.33598134 0.31455156 0.14766546 -0.16953062 0.06207342 0.54004306
0.008366533 0.09372331 0.05794924 -0.56269085 0.494358 0.18408 0.093194224 -0.296951
-0.1832911 0.16139226 0.30894184 0.0017653732 0.15026642 0.04439913 -0.1560327 -0.010360088
0.016059615 -0.015762372 -0.16510087 0.001212002 -0.062247727 0.24443877 0.2307086 -0.017311955
0.22485712 -0.14214386 -0.00885207 0.25477743 -0.39920166 0.41320208 0.13430713 -0.10156842
0.10234997 0.03661094 0.023878023 -0.28018913 0.4053562 0.39077842 -0.12832603 -0.16937385
0.061450567 0.019138282 0.17431763 -0.13427998 0.3836889 0.0055814567 0.014144828 -0.5496924
-0.03076508 0.016780447 -0.21100806 -0.22772433 -0.1314801 -0.0144984815 0.36541098 -0.4181991
00000000: d1b5 72bd 7840 ed3e 3b19 383e 3294 e23d
00000010: 173d b2be 0ca6 ea3c e126 a8be 5c9c 96bb
00000020: f14d 043f da0e eabd 78a1 833e 778a 41be
00000030: b5b1 f03c a4a7 a63d 4e21 a0bd 2b54 be3e
00000040: e8d9 e53d 3c3f 2d3d d4a2 bb3d 39e9 d5bc
00000050: 3985 f5bd 0086 85bd c77f 913e 0488 7f3e
00000060: 0f0b fb3d 9fce 90ba 8ad6 233e 06ad 6cbe
00000070: 33fc 27be ab10 c3bd a6ef 7abe dea2 833c
00000080: 1118 313d 72a6 a33d 0678 7abe 168e 993e
00000090: a7e0 77be 6a92 7bbd 1800 863c 3d97 c3bd
000000a0: 3995 203e 6eee 853e 90aa cc3d 8669 71be
000000b0: e2c6 b2bd dac0 2bbd f3c5 9d3e ffdc b73d
000000c0: 2213 1dbe e64e fb3c 6ab4 9b3e c1eb 2b3e
000000d0: 523f 94be 60d4 bfbe c6cb 9bbe 794f 083e
000000e0: 2af0 42be fe30 eb3d a572 bebe c491 05be
000000f0: faec bc3e 713c 7a3e 6818 353e 7854 1ebe
00000100: 8724 b93c 4aee acbe 8976 ca3c 2def 723d
00000110: eaff 3cbe 5d4b ff3d dae6 0f3f 89e5 9bbd
00000120: b8a6 99bd e392 f9bc d917 a93e bbc2 f73b
00000130: 1186 8fbe 6e2e 183f f46d acbc cbc2 f13e
00000140: 8684 15be a198 dd3e fb8d 513d 50ba e8bd
00000150: d3ab 753e 687b 4a3e 3531 96bc 5ea6 703d
00000160: a163 c7bd e22e bf3e ca29 a6be a66b e63d
00000170: 1155 d53e 5a2d 3bbc d65b 9c3e d178 ebbd
00000180: eaf5 bbbd 74d5 1cbd 7b41 6ebd 596f 1a3d
00000190: d760 a3be d817 8a3e 80af b5bd 10f4 dcbe
000001a0: d330 3a3f 00a9 433e 73b6 f9bd f9d5 c0bd
000001b0: e3e5 903e 6422 bc3e 21f2 c83d b1ce a2be
000001c0: 7863 bd3d 57fe a5be 8d4a d13d 731c bf3e
000001d0: 6177 1c3e 41c8 bf3e 3f21 573d 5f2f 0e3e
000001e0: 02a1 75bd bbbf 82bd 8738 38be e0cd 1b3f
000001f0: c450 70be edae 8ebb d6c8 853c a2e0 84be
00000200: fdc9 66bc eef8 bc3e e5f5 20bd ca0a b03e
00000210: 5e10 0e3d dbc1 8ebe 34e5 b53e b956 343f
00000220: 2d75 8dbe f329 69be 7cd1 903b 94b8 bb3e
00000230: 3504 4a3f 1f4b 25be ebb5 8dbe 509d 4ebc
00000240: b06c 1b3f 401d 993d 5502 843b 83a8 203e
00000250: 2f1a f4bd 8c3d 333e c99b afbe d097 e53d
00000260: 856d 3dbd 2584 15be 6e17 fe3a 1dec 2f3e
00000270: 6c55 1e3e 3c85 8dbe 7fbf 813e 3b3e 423e
00000280: 0144 513e 5f98 8ebd 9891 ba3e 3e88 07ba
00000290: c4c4 d53d 06ea 93bd d4dc dd3e dfa4 0c3e
000002a0: a24a 633e 37f0 23be 4935 6d3e 13d0 503b
000002b0: 6a60 02be 287c 8bbd c3e2 9fbd 9d79 a93d
000002c0: 89f8 03be a875 323f 4cc7 f8be 6e7b 61bd
000002d0: 1a53 debd fd91 a63d 2e4d 7d3d a5db 463e
000002e0: 9e06 8b3c e590 6a3e 92a8 4cbe 555c 8fbc
000002f0: 5043 093c 20e0 af3b 5e93 f13d f4a9 633f
00000300: 7ab9 03bd 82d9 11be bf05 acbe e70c a13e
00000310: 9d35 173e 6f99 2dbe b340 7e3d 4340 0a3f
00000320: c813 093c 02f2 bf3d 2f5c 6d3d 820c 10bf
00000330: 7e1c fd3e 787f 3c3e 9ddc be3d f609 98be
00000340: aab0 3bbe 0344 253e a02d 9e3e 1864 e73a
00000350: 71df 193e dddb 353d 09c7 1fbe 5cbd 29bc
00000360: 748f 833c 1720 81bc 3410 29be 0adc 9e3a
00000370: 79f7 7ebd 284e 7a3e e03e 6c3e cdd1 8dbc
00000380: f240 663e 298e 11be 4608 11bc 3072 823e
00000390: 2964 ccbe 398f d33e cf87 093e 1b03 d0bd
000003a0: dc9c d13d 5af5 153d d89b c33c f374 8fbe
000003b0: d98a cf3e 1c14 c83e e667 03be 5770 2dbe
000003c0: 97b3 7b3d e3c7 9c3c 5280 323e b180 09be
000003d0: df72 c43e a7e4 b63b b5bf 673c a4b8 0cbf
000003e0: 0d07 fcbc 2677 893c 7f12 58be 9130 69be
000003f0: b8a2 06be 0a8b 6dbc 2617 bb3e 311e d6be

b1 f4 [192]
0.015762262 0.07728135 -0.017962966 -0.01824443 -0.007086367 0.0040451 0.0035925172 -0.00049155264
0.23453215 -0.00037281006 0.14003682 -0.0064266077 0.10938007 0.051872484 0.019994475 0.45947188
-0.014069716 0.030418718 0.00091273396 0.017710071 -0.011604398 0.031946626 -0.006299147 0.18700568
-0.0085834125 -0.03815931 0.021561699 0.0016663081 9.967603e-06 0.0 -0.078915104 0.118666045
-0.000979152 0.011493913 -0.0008882091 -0.005419751 0.18712227 -0.07124523 -0.0090957275 0.12927772
0.054889087 0.43988043 0.023091137 0.0006085449 0.006455906 0.043694314 0.030963453 -0.008674518
0.00967462 -0.010864018 0.18712868 0.21362513 -0.02167848 0.00013653038 -9.3507435e-05 -0.026110321
0.010979647 0.26411527 1.8079638e-05 -0.1080857 0.46290693 0.18509753 0.020447632 0.0
0.011888427 0.081580736 -0.012198593 -0.020360706 -0.0032505246 0.014831441 0.055724256 0.19108477
0.0058328817 -0.014770729 0.44232512 -0.0016950745 -0.0009652469 0.23057856 0.2837117 0.26762125
-0.010186658 0.19038533 0.0446205 0.00978397 0.34017316 -0.00029964166 -0.034465816 -0.024865141
-0.04791042 0.10185253 0.0051270328 -0.0054693264 0.39190352 0.16624652 0.044314522 2.6882235e-05
-0.00150083 0.03474124 -5.113343e-05 -0.001147798 0.0038419494 -0.037111286 -0.030805234 -0.0006553239
0.46051705 0.34536782 0.20522374 0.004931298 0.38125765 0.2809673 0.0031664863 0.0013559113
-0.02762457 0.059073534 0.109658115 0.4935312 0.0830555 0.12432272 0.00046294744 0.0007833134
0.008644831 -0.032519747 -0.10970399 0.4563484 0.0 0.0047491216 0.019501092 0.056766383
0.08796114 0.55085075 0.0099413125 0.38488984 0.37249324 0.014369636 0.3294606 0.39111608
-0.0049479804 -0.018371515 -0.052437168 0.14661002 0.80983734 -0.00061126536 -0.03358021 0.15675277
0.6333457 0.0037976054 0.08162123 -0.0075779157 0.083682194 0.06401498 0.0 0.15485758
0.15160254 -0.0076703695 -0.011020419 0.005101634 -0.0002476662 0.0002499618 -0.004919293 0.0023260084
-0.034362208 0.15439068 0.13116083 0.2099091 0.039136592 0.00086479407 0.6910614 -0.034194168
0.35754415 0.0 0.4216212 -0.00029205205 -0.01808399 0.081582904 0.05268951 0.30244142
0.022231426 0.26092312 0.00022605868 0.00026480568 -0.025431706 0.26935127 0.014481903 0.10824157
0.05983747 0.033484302 0.0 -0.009929988 0.3301115 0.15405466 0.22713824 0.68571496
00000000: dc1f 813c af45 9e3d 1227 93bc 5875 95bc
00000010: c134 e8bb c28c 843b 7070 6b3b 8adb 00ba
00000020: 3229 703e b875 c3b9 d065 0f3e 4b96 d2bb
00000030: a802 e03d 3e78 543d 74cb a33c e63f eb3e
00000040: ab84 66bc ad30 f93c 8a44 6f3a b614 913c
00000050: 5f20 3ebc 77da 023d 1369 cebb 6b7e 3f3e
00000060: 71a1 0cbc f04c 1cbd 29a2 b03c 0668 da3a
00000070: 873a 2737 0000 0000 3e9e a1bd 2f07 f33d
00000080: e456 80ba f750 3c3c b4d6 68ba 2b98 b1bb
00000090: fb9c 3f3e 05e9 91bd 3f06 15bc 6161 043e
000000a0: 61d3 603d 0238 e13e a029 bd3c c286 1f3a
000000b0: 118c d33b cff8 323d 11a7 fd3c 911f 0ebc
000000c0: 4c82 1e3c fffe 31bc a99e 3f3e 8cc0 5a3e
000000d0: 1197 b1bc 9829 0f39 6c19 c4b8 50e5 d5bc
000000e0: fae3 333c 1e3a 873e baa9 9737 095c ddbd
000000f0: 2302 ed3e 358a 3d3e cb81 a73c 0000 0000
00000100: adc7 423c cd13 a73d 9bdc 47bc 7fcb a6bc
00000110: c106 55bb 93ff 723c 1e3f 643d baab 433e
00000120: c221 bf3b ed00 72bc 7078 e23e 432d deba
00000130: 9f08 7dba c91c 6c3e a942 913e a705 893e
00000140: f1e5 26bc 5ff4 423e fcc3 363d f24c 203c
00000150: 2d2b ae3e 3919 9db9 072c 0dbd fbb1 cbbc
00000160: b73d 44bd 0f98 d03d ab00 a83b 0938 b3bb
00000170: 94a7 c83e 873c 2a3e 2583 353d 2981 e137
00000180: 80b7 c4ba d54c 0e3d 1a78 56b8 b671 96ba
00000190: 37c9 7b3b 0102 18bd 425b fcbc 0bca 2bba
000001a0: e4c8 eb3e 0dd4 b03e 2c26 523e ba96 a13b
000001b0: 3434 c33e f2da 8f3e d384 4f3b d5b8 b13a
000001c0: ec4c e2bc 17f7 713d 6f94 e03d 1fb0 fc3e
000001d0: 0119 aa3d e99c fe3d c1b7 f239 4657 4d3a
000001e0: 0da3 0d3c 6d33 05bd 7cac e0bd 7fa6 e93e
000001f0: 0000 0000 859e 9b3b c1c0 9f3c de83 683d
00000200: f824 b43d 8e04 0d3f e3e0 223c 4810 c53e
00000210: 6fb7 be3e 9f6e 6b3c 0faf a83e 5e40 c83e
00000220: ab22 a2bb dc7f 96bc 5bc8 56bd f020 163e
00000230: 8051 4f3f 533d 20ba 678b 09bd cc83 203e
00000240: f222 223f 3fe1 783b 0829 a73d 2a50 f8bb
00000250: 9261 ab3d 491a 833d 0000 0000 fc92 1e3e
00000260: b23d 1b3e b957 fbbb fd8e 34bc 9c2b a73b
00000270: 32d9 81b9 4e0d 8339 0532 a1bb f26f 183b
00000280: 63bf 0cbd 9718 1e3e 064f 063e 69f2 563e
00000290: b14d 203d 59b3 623a 66e9 303f 2f0f 0cbd
000002a0: 0710 b73e 0000 0000 bcde d73e 901e 99b9
000002b0: e024 94bc f014 a73d f5d0 573d 9ad9 9a3e
000002c0: ae1e b63c b797 853e 2a0a 6d39 9ed5 8a39
000002d0: 2756 d0bc 69e8 893e 8145 6d3c c2ad dd3d
000002e0: 2318 753d d626 093d 0000 0000 63b1 22bc
000002f0: 6004 a93e 81c0 1d3e ed96 683e 048b 2f3f

W_action_type f4 [192, 4]
-0.11458236 0.014624386 0.08884595 0.09129054 -0.08248174 -0.03015456 -0.029883733 0.02586103
-0.04901305 0.031227313 0.20660226 0.022307267 0.0010276911 0.003854008 0.16045192 0.14909133
-0.061328363 -0.06535898 -0.13795656 -0.10358268 -0.09772592 -0.10970876 0.050218273 0.06517749
0.001684079 0.030756319 -0.07954086 0.067657635 -0.05618612 -0.13957532 -0.0886624 -0.023723105
-0.061275564 -0.11589321 -0.09809933 -0.057098642 -0.070204765 0.11428427 -0.122560024 0.0009153465
0.08446682 0.060462333 -0.076325476 0.0021729723 0.01246692 0.0053747008 0.021645607 -0.0846905
0.05489572 0.009045629 0.05237093 0.1251439 -0.05805859 0.065347604 0.15963669 0.017511135
-0.18652569 0.08129078 -0.16594437 -0.16083543 -0.083518595 0.062317755 -0.056710504 0.0071581244
-0.06158927 0.13738964 0.095667586 0.092508644 -0.009211408 -0.01058349 0.051654942 -0.021621807
0.0537098 0.12439544 -0.09416727 0.04501914 0.07833834 0.07745273 -0.05564748 -0.03537922
0.27005422 0.06658968 -0.09270691 -0.043049607 -0.03500479 -0.07905733 -0.03489981 -0.0010344065
-0.14156175 -0.1161808 0.09429584 -0.10485262 -0.15505885 -0.034656215 -0.005163384 0.029901735
-0.050344612 0.114366144 0.11956106 -0.021868033 -0.11971905 0.13251676 -0.14631408 -0.04875235
0.1596798 0.025955101 -0.058162708 0.102220625 0.14931567 -0.18142378 0.073297344 0.10829722
-0.10789066 -0.07799353 0.112339996 0.06970571 -0.06313332 0.023587305 0.23024966 0.10534326
-0.10671256 0.090240836 -0.0018188608 0.06311592 0.09202746 -0.18731923 0.036126193 0.23222277
-0.027791888 -0.07023027 -0.036292586 0.09763402 -0.0681646 0.055205382 0.09293212 -0.16222697
-0.093697645 -0.07491906 0.034377124 0.007522429 -0.06994185 -0.099537164 0.0074015683 0.060742043
-0.10403242 -0.008441736 -0.16891964 -0.138387 0.078631364 0.15832786 -0.0060657365 -0.0119811725
0.037257854 -0.051954582 -0.0264515 0.09020865 0.24662343 -0.0149289025 -0.0069942907 0.15157706
-0.07561987 -0.010407542 0.044637468 -0.035709493 0.09286094 -0.10482152 -0.0721963 0.029326778
-0.039535407 0.03043349 -0.04613713 0.038176544 -0.13084449 0.096910186 -0.21959504 0.037564814
0.076413214 0.019070022 0.011657075 -0.025057832 0.24057071 -0.0791491 0.049527 0.008905892
0.033775095 0.029939448 -0.16165555 0.09324065 -0.027692648 -0.10897427 0.047018863 0.15858482
-0.10936066 -0.045557868 -0.044855654 0.088976614 -0.08603672 0.15417573 -0.050667036 0.18239391
0.13918218 -0.13253586 0.08196123 -0.022756502 -0.062550515 0.08545146 -0.1748846 0.016442422
0.10150664 -0.07845381 0.2145045 -0.021975847 0.037951495 0.059311282 0.054051064 -0.025967898
-0.24804349 -0.1903237 0.047223017 0.021805968 0.06402315 -0.05738836 0.12106215 -0.12950183
-0.071612924 0.09412077 0.049281858 -0.07267794 -0.042054296 0.18241146 0.048554726 0.09205733
0.07857197 0.1670514 -0.04838876 -0.06508266 0.053060934 -0.08812763 0.09491304 -0.005824742
-0.046105944 0.17624694 0.005135161 0.00088418415 0.11423087 -0.1448253 0.019131543 0.21155874
0.016410006 -0.10613394 -0.13405536 0.121778935 0.0114167435 -0.02641931 0.12154115 -0.041059494
00000000: 28aa eabd 1f9b 6f3c def4 b53d 89f6 ba3d
00000010: 30ec a8bd b206 f7bc bbce f4bc 83da d33c
00000020: e8c1 48bd 6cd0 ff3c 8b8f 533e bbbd b63c
00000030: 97b3 863a 8693 7c3b 824d 243e 66ab 183e
00000040: 7333 7bbd eeda 85bd 7c44 0dbe 2823 d4bd
00000050: 8724 c8bd fdae e0bd adb1 4d3d c77b 853d
00000060: 50bc dc3a adf4 fb3c 52e6 a2bd 1690 8a3d
00000070: 6b23 66bd d5ec 0ebe a294 b5bd f556 c2bc
00000080: 16fc 7abd 6b59 edbd 4de8 c8bd 44e0 69bd
00000090: 84c7 8fbd df0d ea3d c000 fbbd ddf3 6f3a
000000a0: f1fc ac3d 5aa7 773d 8850 9cbd 6d68 0e3b
000000b0: 0d42 4c3c 421e b03b 2152 b13c 3672 adbd
000000c0: 56da 603d 1e34 143c e682 563d b925 003e
000000d0: d8ce 6dbd f7d4 853d cd77 233e 8373 8f3c
000000e0: 9700 3fbe c87b a63d 52ed 29be 0bb2 24be
000000f0: cc0b abbd e740 7f3d 4649 68bd b38e ea3b
00000100: 0845 7cbd dfaf 0c3e 5eed c33d 2c75 bd3d
00000110: 72eb 16bc 6066 2dbc 2294 533d 3720 b1bc
00000120: cffe 5b3d 09c3 fe3d c5da c0bd fd65 383d
00000130: da6f a03d 899f 9e3d 9dee 63bd cde9 10bd
00000140: 8c44 8a3e 2c60 883d 1fdd bdbd c954 30bd
00000150: 2f61 0fbd cfe8 a1bd 1af3 0ebd ec94 87ba
00000160: 90f5 10be 33f0 edbd 2d1e c13d f8bc d6bd
00000170: bfc7 1ebe adf3 0dbd 9b31 a9bb 7cf4 f43c
00000180: 2736 4ebd cc38 ea3d 6edc f43d 9724 b3bc
00000190: 432f f5bd 79b2 073e 5cd3 15be 8bb0 47bd
000001a0: 1a83 233e cb9f d43c 053c 6ebd 0c59 d13d
000001b0: 35e6 183e 28c7 39be eb1c 963d efca dd3d
000001c0: c7f5 dcbd 12bb 9fbd 8312 e63d dec1 8e3d
000001d0: 0b4c 81bd 2a3a c13c 91c6 6b3e 35be d73d
000001e0: 1d8c dabd 30d0 b83d d766 eeba eb42 813d
000001f0: e578 bc3d 9dd0 3fbe 0ff9 133d cecb 6d3e
00000200: d0ab e3bc e3d4 8fbd 89a7 14bd 58f4 c73d
00000210: e299 8bbd 0a1f 623d 3253 be3d d41e 26be
00000220: 8de4 bfbd 2a6f 99bd 07cf 0c3d b57e f63b
00000230: ac3d 8fbd 24da cbbd db88 f23b a6cc 783d
00000240: f30e d5bd 354f 0abc 45f9 2cbe 52b5 0dbe
00000250: 7b09 a13d b320 223e 16c3 c6bb ae4c 44bc
00000260: b19b 183d 54ce 54bd d1b0 d8bc 50bf b83d
00000270: da8a 7c3e 5b98 74bc 5d30 e5bb 0437 1b3e
00000280: 97de 9abd 6584 2abc c7d5 363d 1e44 12bd
00000290: e02d be3d aaac d6bd a7db 93bd b63e f03c
000002a0: e1ef 21bd a84f f93c 4afa 3cbd 025f 1c3d
000002b0: 19fc 05be d978 c63d 86dd 60be 90dd 193d
000002c0: 887e 9c3d bc38 9c3c 51fd 3e3c 1546 cdbc
000002d0: 2b58 763e ec18 a2bd d3dc 4a3d 05ea 113c
000002e0: c157 0a3d 9343 f53c 0889 25be f4f4 be3d
000002f0: b1db e2bc e72d dfbd da96 403d 0f64 223e
00000300: 7bf8 dfbd e39a 3abd 90ba 37bd 5f39 b63d
00000310: 0534 b0bd 3ee0 1d3e 3d88 4fbd 78c5 3a3e
00000320: c685 0e3e 7bb7 07be 4adb a73d d86b babc
00000330: 7c1a 80bd 2d01 af3d f314 33be 42b2 863c
00000340: b7e2 cf3d 64ac a0bd 11a7 5b3e b106 b4bc
00000350: 0773 1b3d 63f0 723d a664 5d3d a1ba d4bc
00000360: 1dff 7dbe 37e4 42be ec6c 413d 6ea2 b23c
00000370: 921e 833d 0f10 6bbd 6fef f73d 219c 04be
00000380: cca9 92bd 64c2 c03d c6db 493d 2cd8 94bd
00000390: 2041 2cbd 12ca 3a3e 52e1 463d 8e88 bc3d
000003a0: 57ea a03d 860f 2b3e 4b33 46bd 0f4a 85bd
000003b0: 6c56 593d 427c b4bd c561 c23d 7add bebb
000003c0: 96d9 3cbd 147a 343e da44 a83b 98c8 673a
000003d0: e0f1 e93d 154d 14be c1b9 9c3c dba2 583e
000003e0: 476e 863c c05c d9bd cf45 09be 3c67 f93d
000003f0: 4b0d 3b3c 4f6d d8bc 91ea f83d 002e 28bd

b_action_type f4 [4]
0.0037576638 0.011625342 -0.005871512 -0.009511498
00000000: 2343 763b 3878 3e3c d065 c0bb 1dd6 1bbc

W_play_habitat f4 [192, 4]
-0.054523196 -0.02820601 -0.009919952 0.110143006 -0.0357023 0.05074059 0.049374014 -0.019632362
0.02064075 -0.07843951 -0.13443206 0.08311381 -0.012886805 -0.15619771 0.14317782 -0.0701549
0.066134565 0.18799953 0.064395994 0.10916989 -0.022624966 -0.23657319 0.07232095 0.031592138
0.029340807 0.08525537 0.09062758 0.06979177 -0.0594338 0.13460495 0.04733297 0.18562235
0.050890576 0.0915383 -0.21108118 0.094374806 0.13768834 -0.07874434 0.009461217 -0.10983184
-0.07628623 0.06587549 -0.12058773 -0.09726144 0.14181095 0.17127262 0.0751114 0.10270491
0.017272947 0.10323773 -0.081605785 -0.12194701 -0.3465515 -0.07527586 0.15630755 0.028250497
0.04032133 -0.018840194 0.07445356 -0.029870953 -0.08038421 0.018544972 0.13228582 -0.10882878
-0.14971162 0.114533804 0.0044266423 -0.077599846 -0.17915794 0.2381102 -0.08106512 -0.04395073
0.026087396 0.04012329 -0.10858073 0.0708194 -0.011166849 -0.03462467 -0.14421435 0.070497505
-0.08338479 -0.035810545 -0.088088036 -0.18302347 0.05653267 0.15293506 0.07339533 -0.05314293
0.112220965 -0.174906 0.091246516 -0.23484068 -0.036243536 0.09903005 0.0022668994 0.11523671
-0.14089082 0.107932135 0.13100302 -0.028393079 -0.12991023 -0.039793085 -0.04057215 -0.02015831
0.24521348 -0.12436492 0.06616411 -0.07480497 -0.11055493 0.051436618 0.03972796 -0.12126844
0.06659634 -0.025203994 0.11059811 0.31581104 -0.047384042 0.045988314 0.11743824 0.018194985
0.01755856 -0.19184875 0.073423445 0.03716281 -0.046254516 -0.12295149 -0.15587121 -0.020992849
0.15097256 0.0017144951 0.04640471 0.04529188 -0.15512846 -0.003781083 -0.10837185 0.09985258
0.011402196 0.03914707 0.026321946 0.0031278308 -0.3269847 0.16713655 -0.21311174 0.08071635
0.04662108 0.08935565 -0.10599357 -0.011556938 -0.083283365 0.18259658 -0.08652647 0.07274155
-0.024138175 0.13433823 -0.04557422 -0.044927157 -0.18318649 -0.11880646 0.09384875 0.046417423
-0.10324351 0.01238312 0.04148137 0.017005542 0.09073157 0.19428004 0.12475367 -0.1796471
-0.021781305 0.00025470983 -0.17575668 -0.10605306 -0.012411838 -0.06858348 0.10211767 0.06978596
-0.034501474 -0.051974744 0.051540487 -0.08013678 -0.042877834 0.08881569 0.053291496 -0.074954726
0.059521317 -0.22913165 -0.010326697 -0.07022172 0.1082642 0.048522536 -0.18860471 0.0765707
-0.24213363 0.10924883 -0.030175192 0.054496817 -0.142345 0.021060951 -0.09636528 0.11653063
-0.015656881 -0.102452405 0.12626986 -0.02817115 -0.031382937 0.10958409 -0.04540212 -0.026136799
-0.08122949 -0.031448327 -0.0035316455 0.012728851 -0.047585975 0.19997148 -0.13941826 0.0013839355
-0.15878598 -0.008461921 -0.029332824 -0.100457415 0.015538635 -0.21985285 -0.04880744 -0.029623944
0.046788745 0.03743684 -0.010815143 0.043729216 0.03795495 0.059965745 0.20432504 0.034538675
0.14291091 -0.015344903 -0.15448505 -0.02241678 0.001189789 -0.0962481 0.0052256742 -0.0210336
-0.106438406 0.091408886 0.0022970764 0.0948599 0.20803478 0.110662214 -0.08711464 0.043019477
-0.019782292 0.0022576652 0.1583822 -0.2651334 0.21304063 0.15940629 -0.082508944 0.13292928
00000000: b753 5fbd 4a10 e7bc 4b87 22bc a892 e13d
00000010: 933c 12bd 5dd5 4f3d 683c 4a3d 0cd4 a0bc
00000020: ca16 a93c e5a4 a0bd 8fa8 09be 9337 aa3d
00000030: 2e23 53bc 4bf2 1fbe 359d 123e 5fad 8fbd
00000040: 8f71 873d f382 403e 0ce2 833d 7794 df3d
00000050: fe57 b9bc 3e40 72be 021d 943d c266 013d
00000060: 225c f03c 5e9a ae3d f49a b93d fdee 8e3d
00000070: db70 73bd e1d5 093e 37e0 413d c913 3e3e
00000080: a372 503d 6f78 bb3d aa25 58be 9447 c13d
00000090: 2cfe 0c3e b644 a1bd 3803 1b3c 84ef e0bd
000000a0: f43b 9cbd bbe9 863d b3f6 f6bd 0131 c7bd
000000b0: e436 113e 1762 2f3e 01d4 993d f456 d23d
000000c0: ff7f 8d3c 4e6e d33d ef20 a7bd 5bbf f9bd
000000d0: 336f b1be 3b2a 9abd 160f 203e 966d e73c
000000e0: fb27 253d c056 9abc 1c7b 983d eeb3 f4bc
000000f0: 7aa0 a4bd a0eb 973c ef75 073e a0e1 debd
00000100: 014e 19be b390 ea3d 5e0d 913b abec 9ebd
00000110: 2e75 37be 29d3 733e 7805 a6bd ae05 34bd
00000120: 3cb5 d53c 5258 243d 935f debd c309 913d
00000130: 29f5 36bc 99d2 0dbd edac 13be ff60 903d
00000140: a5c5 aabd 14ae 12bd 8067 b4bd 816a 3bbe
00000150: cd8e 673d 029b 1c3e 4a50 963d 67ac 59bd
00000160: 1bd4 e53d 8f1a 33be 74df ba3d 137a 70be
00000170: 1a74 14bd 44d0 ca3d 4390 143b 3901 ec3d
00000180: af45 10be 860b dd3d a825 063e 9a98 e8bc
00000190: 3007 05be 13fe 22bd fc2e 26bd 0a23 a5bc
000001a0: 3e19 7b3e 09b3 febd 0d81 873d 5933 99bd
000001b0: a06a e2bd 34af 523d c9b9 223d 965b f8bd
000001c0: a963 883d 9b78 cebc 4381 e23d fcb1 a13e
000001d0: c515 42bd 3e5e 3c3d 7683 f03d a60d 953c
000001e0: f8d6 8f3c 0074 44be 085f 963d 0838 183d
000001f0: 6075 3dbd fecd fbbd b49c 1fbe 32f9 abbc
00000200: 8d98 1a3e e9b8 e03a dd12 3e3d fa83 393d
00000210: ffd9 1ebe 0ccc 77bb 0ff2 ddbd 827f cc3d
00000220: 47d0 3a3c ae58 203d 1fa1 d73c 4bfc 4c3b
00000230: 8a6a a7be d825 2b3e f739 5abe 9d4e a53d
00000240: bff5 3e3d 1800 b73d 2813 d9bd 5059 3dbc
00000250: 7890 aabd 99fa 3a3e ca34 b1bd 86f9 943d
00000260: 6cbd c5bc f68f 093e 09ac 3abd 8a05 38bd
00000270: 3d95 3bbe cd50 f3bd c633 c03d 3220 3e3d
00000280: 5571 d3bd 92e2 4a3c 5ee8 293d 354f 8b3c
00000290: 79d1 b93d 59f1 463e da7e ff3d 69f5 37be
000002a0: b56e b2bc 938a 8539 8ff9 33be 5932 d9bd
000002b0: 065b 4bbc 7f75 8cbd 1223 d13d f1eb 8e3d
000002c0: 6b51 0dbd 78e3 54bd 1e1c 533d c11e a4bd
000002d0: aba0 2fbd 00e5 b53d 2f48 5a3d dd81 99bd
000002e0: a0cc 733d 7da1 6abe 4e31 29bc 68d0 8fbd
000002f0: 9fb9 dd3d 91bf 463d 9821 41be 19d1 9c3d
00000300: e1f1 77be dabd df3d f731 f7bc 0e38 5f3d
00000310: e3c2 11be 0488 ac3c 295b c5bd 9ca7 ee3d
00000320: dc42 80bc 91d2 d1bd e34c 013e 2fc7 e6bc
00000330: 658b 00bd a06d e03d 93f7 39bd d71c d6bc
00000340: a65b a6bd f6cf 00bd 2e73 67bb ac8c 503c
00000350: 83e9 42bd 53c5 4c3e a9c3 0ebe 2b65 b53a
00000360: cb98 22be dea3 0abc 644b f0bc 9ebc cdbd
00000370: c295 7e3c 1b21 61be 4fea 47bd eaad f2bc
00000380: 8ea5 3f3d 5f57 193d ff31 31bc 681d 333d
00000390: a676 1b3d a49e 753d 953a 513e 6d78 0d3d
000003a0: 3d57 123e 3069 7bbc 5431 1ebe 65a3 b7bc
000003b0: b2f2 9b3a b91d c5bd 223c ab3b a84e acbc
000003c0: 61fc d9bd 9534 bb3d 8c8a 163b e845 c23d
000003d0: 1207 553e dfa2 e23d 2969 b2bd 3135 303d
000003e0: 790e a2bc 56f5 133b f22e 223e 91bf 87be
000003f0: 5327 5a3e 673b 233e 73fa a8bd 9d1e 083e

b_play_habitat f4 [4]
0.0005247638 0.00256076 0.006493232 -0.009578759
00000000: 4d90 093a 6cd2 273b 2ec5 d43b 3af0 1cbc

W_gain_food_primary f4 [192, 7]
0.15881608 -0.09373208 -0.12884077 -0.02806949 0.18003175 -0.04562929 0.024472158 -0.09334322
0.027067585 -0.027416317 -0.022970919 -0.16198488 0.09433701 0.0029892344 0.040496122 0.04193916
0.04798512 0.07781696 0.1819268 -0.046345778 -0.046740137 0.14356233 0.09690358 -0.33433798
-0.028375892 0.081962906 -0.022539185 -0.07240425 0.11162938 -0.16706638 0.05568322 -0.099571
0.021353664 0.14986904 -0.040254984 0.04638423 0.1315129 -0.18103468 0.019142054 0.16504398
1.6106713e-05 0.09935648 0.011205703 0.021985188 -0.05253556 -0.090534054 -0.08603181 -0.074509785
0.14615417 0.045087945 0.010463496 -0.11936345 0.06676711 0.022925232 -0.059956845 0.12133481
-0.0005800517 -0.07121501 0.11631787 0.21281835 -0.12017165 0.09579965 0.06927468 -0.10162468
-0.22305816 0.0019654871 0.1541277 -0.032456204 0.20746028 -0.08913101 0.093054324 -0.03498289
-0.07781797 0.09166641 -0.0063578663 0.09749724 0.13923676 -0.17738426 0.1625843 0.07432141
-0.113990225 -0.1527158 0.024858078 0.1369138 0.16234787 0.072905526 0.0041682543 -0.06930842
-0.024192603 -0.025805317 -0.038680334 -0.18043046 -0.088017344 0.08655836 0.04418432 0.013313491
0.011673635 -0.16101299 -0.022575451 -0.035405293 0.19856189 0.016988654 -0.06624422 -0.0065165553
0.050351698 0.16660784 -0.15211038 -0.13107553 -0.03922468 -0.14934333 -0.071087755 -0.061083354
0.054697827 -0.09748476 0.11324312 0.16960104 -0.09964827 -0.026455706 0.18935336 -0.087313816
0.0796988 0.04753235 0.13128833 -0.05531035 -0.10582223 0.056784034 -0.03711064 0.09927183
-0.030821592 -0.030480076 -0.13363856 0.078264944 -0.12974507 -0.08589594 0.01629557 -0.06792655
0.018150995 -0.116397925 -0.14555703 -0.00244747 0.024415068 0.028419562 -0.015032503 0.083848596
-0.033376362 -0.012506053 -0.09816954 0.05295267 -0.1013142 0.19013347 -0.06256312 -0.04030858
0.04657839 0.0230895 0.046621412 0.060987826 -0.081845164 0.04027118 -0.1584267 0.09700284
-0.09487517 -0.02073648 0.006443632 0.15120989 0.006495201 0.11562152 0.04776724 -0.12236722
0.00924384 -0.07420711 0.062877685 0.02818382 -0.106763564 0.14513178 0.06502306 -0.09655484
0.030479174 0.124682024 -0.11390878 -0.02348568 0.026042143 0.09213019 -0.07394479 0.06761157
0.260878 -0.12881795 0.061003778 0.0018745635 0.032787677 -0.07282967 -0.0076695643 -0.014860809
0.16379862 -0.16405863 -0.20415604 -0.08882552 0.11752871 -0.14641157 -0.024642268 -0.06307977
-0.023252536 -0.088317566 -0.15797074 -0.17846718 -0.18312004 0.1105925 0.02283677 0.039208423
0.034098685 -0.013901468 0.19529253 -0.057412405 0.1433988 -0.10284304 -0.11728574 -0.00084002054
-0.2108922 -0.0108081605 0.08511338 -0.0764027 -0.11145635 0.16959558 -0.06531823 -0.13271262
0.111243226 -0.011700902 -0.022320129 0.12629405 0.014722132 0.24127167 0.071025446 0.108456
0.008664245 0.06481094 -0.036155697 -0.008676792 0.004721102 0.12192191 0.0056418544 0.10386549
-0.048690356 0.051290274 -0.021686194 -0.008998598 -0.04967685 -0.09908992 -0.1138787 -0.055054504
-0.013027242 -0.010454082 0.019528568 -0.06936917 0.07660504 -0.009560983 -0.040387917 0.16596442
00000000: afa0 223e 9bf6 bfbd d6ee 03be fdf1 e5bc
00000010: 3e5a 383e c7e5 3abd d679 c83c bb2a bfbd
00000020: d7bc dd3c 2f98 e0bc 822d bcbc 5ddf 25be
00000030: c333 c13d 08e7 433b 43df 253d 66c8 2b3d
00000040: 0c8c 443d 805e 9f3d 054b 3a3e 12d5 3dbd
00000050: 9672 3fbd 0102 133e 6275 c63d 592e abbe
00000060: 8f74 e8bc 2bdc a73d 19a4 b8bc ae48 94bd
00000070: f29d e43d 7313 2bbe 1714 643d e1eb cbbd
00000080: e1ed ae3c 4577 193e 69e2 24bd 64fd 3d3d
00000090: 51ab 063e 2861 39be cccf 9c3c 4a01 293e
000000a0: e71c 8737 697b cb3d 2098 373c 481a b43c
000000b0: 872f 57bd eb69 b9bd 7231 b0bd 9698 98bd
000000c0: 70a9 153e 23ae 383d 156f 2b3c d374 f4bd
000000d0: 32bd 883d b2cd bb3c 4f95 75bd 637e f83d
000000e0: 9c0e 18ba 2dd9 91bd 1038 ee3d 0eed 593e
000000f0: 8e1c f6bd 9b32 c43d e2df 8d3d 9a20 d0bd
00000100: 5c69 64be 67cf 003b a7d3 1d3e ccf0 04bd
00000110: 7870 543e 528a b6bd 4493 be3d 384a 0fbd
00000120: 075f 9fbd 99bb bb3d a655 d0bb a2ac c73d
00000130: 1594 0e3e 38a4 35be 807c 263e d335 983d
00000140: b573 e9bd 8861 1cbe 2ba3 cb3c 2233 0c3e
00000150: 853e 263e 7e4f 953d da95 883b 93f1 8dbd
00000160: 912f c6bc ac65 d3bc 456f 1ebd c3c2 38be
00000170: 7042 b4bd 8245 b13d 9efa 343d d420 5a3c
00000180: c642 3f3c 97e0 24be 27f0 b8bc 2405 11bd
00000190: cf53 4b3e ca2b 8b3c 0dab 87bd d488 d5bb
000001a0: 953d 4e3d 3f9b 2a3e d3c2 1bbe aa38 06be
000001b0: 0faa 20bd 75ed 18be 7596 91bd 8a32 7abd
000001c0: d40a 603d 17a6 c7bd 02ec e73d e5ab 2d3e
000001d0: 6414 ccbd a3b9 d8bc d9e5 413e 96d1 b2bd
000001e0: 2039 a33d 48b1 423d 7370 063e 1b8d 62bd
000001f0: 53b9 d8bd 6096 683d 5401 18bd 074f cb3d
00000200: 907d fcbc 5ab1 f9bc 8cd8 08be 5f49 a03d
00000210: e4db 04be 36ea afbd 4a7e 853c 131d 8bbd
00000220: 65b1 943c 0962 eebd e70c 15be bc65 20bb
00000230: 1c02 c83c 24d0 e83c e34a 76bc d0b8 ab3d
00000240: a7b5 08bd 30e6 4cbc 1d0d c9bd e6e4 583d
00000250: d27d cfbd 59b2 423e 1821 80bd 9c1a 25bd
00000260: fbc8 3e3d 3126 bd3c 18f6 3e3d 5fce 793d
00000270: 709e a7bd 65f3 243d 9c3a 22be 6da9 c63d
00000280: ea4d c2bd 8ddf a9bc 1a25 d33b c4d6 1a3e
00000290: b2d5 d43b faca ec3d 95a7 433d aa9b fabd
000002a0: 7a73 173c e6f9 97bd 04c6 803d c1e1 e63c
000002b0: dba6 dabd 6d9d 143e cf2a 853d 8bbe c5bd
000002c0: 76af f93c 4a59 ff3d 0249 e9bd 0a65 c0bc
000002d0: 5556 d53c c1ae bc3d 5e70 97bd ef77 8a3d
000002e0: cd91 853e dae8 03be 19df 793d eab3 f53a
000002f0: 5f4c 063d b927 95bd f850 fbbb c07a 73bc
00000300: d3ba 273e fcfe 27be 480e 51be 27ea b5bd
00000310: e4b2 f03d eaec 15be 95de c9bc f72f 81bd
00000320: 1a7c bebc d7df b4bd 15c3 21be 1ac0 36be
00000330: d283 3bbe 527e e23d 2e14 bb3c 0399 203d
00000340: 10ab 0b3d fcc2 63bc c4fa 473e 4529 6bbd
00000350: 23d7 123e 5f9f d2bd 8233 f0bd d334 5cba
00000360: 20f4 57be b614 31bc ec4f ae3d 0579 9cbd
00000370: 3a43 e4bd 77aa 2d3e 90c5 85bd d1e5 07be
00000380: 7dd3 e33d 24b5 3fbc b4d8 b6bc 3a53 013e
00000390: 1935 713c ec0f 773e ca75 913d 2e1e de3d
000003a0: 7af4 0d3c 99bb 843d ff17 14bd 1a29 0ebc
000003b0: 79b3 9a3b 32b2 f93d 4edf b83b 6eb7 d43d
000003c0: 8a6f 47bd c015 523d 3fa7 b1bc db6e 13bc
000003d0: f479 4bbd a8ef cabd 3c39 e9bd d580 61bd
000003e0: 3770 55bc 9947 2bbc 60fa 9f3c 6c11 8ebd
000003f0: 1ae3 9c3d aba5 1cbc cd6d 25bd 94f2 293e

b_gain_food_primary f4 [7]
-0.0027363093 -0.0028499768 0.009426071 0.008407477 -0.0027229516 -0.0018328205 -0.007691492
00000000: a753 33bb adc6 3abb cf6f 1a3c 84bf 093c
00000010: 8c73 32bb 403b f0ba e908 fcbb

W_draw_mode f4 [192, 4]
-0.025858277 -0.040693197 0.087220855 -0.025527077 0.020820087 0.09981048 0.2390738 0.049309127
-0.058548238 0.15496494 -0.18597773 0.18702197 0.16236955 -0.12261784 0.010799142 0.06473755
-0.16211215 -0.05164142 0.026018666 -0.022808699 0.019752122 -0.084426746 0.016805258 0.07282442
0.0416401 -0.0073213303 0.02240438 0.12978783 -0.09384537 -0.14868516 0.10502297 -0.15618189
-0.109586805 0.10936771 -0.16444442 0.13482238 -0.122106716 -0.059542034 0.010184223 -0.0037312133
-0.006206716 0.22292393 -0.19097838 -0.023307519 -0.033246163 -0.17172119 0.23192544 -0.07765789
0.024495894 -0.0646417 -0.17054039 -0.0047612367 -0.053806435 -0.087444566 -0.05024082 0.08180412
0.019707477 0.07264019 -0.1809079 0.095268935 0.034029633 -0.013978241 -0.122223295 -0.05234162
0.08277567 -0.13495547 0.12968959 0.13799824 0.057500027 0.0042461753 0.01634076 -0.021670705
0.19706528 -0.14484614 0.09516555 0.08848369 -0.0031282362 0.11440434 0.1408591 -0.014495783
-0.10316827 0.08990514 0.123021305 0.060226105 -0.018105645 -0.038241357 -0.15326774 -0.12682413
0.11399564 -0.023453554 0.09219897 0.0646405 -0.026583433 -0.00081683474 0.16126134 -0.115356445
-0.004000516 -0.065890625 0.07042094 0.2230357 0.080027945 0.090768546 -0.014296271 -0.021473799
0.13649331 -0.18316682 -0.03445875 0.0693233 0.19986872 -0.06398566 -0.13254131 0.04956995
-0.069503285 0.11924703 -0.012226448 0.10905129 0.0499892 -0.0522409 -0.034838628 -0.036523975
0.051764645 -0.08442135 0.07680556 0.083645895 0.14894128 -0.035717 0.029238852 -0.18115157
0.077427745 0.19315274 0.20620964 -0.040547352 0.040719863 0.06884256 0.022753768 0.14359257
0.089221776 0.13917221 -0.051069956 0.094059944 -0.18834876 0.036474165 -0.07739939 0.0008845732
-0.181598 -0.083315134 -0.06395729 0.008476352 0.07654786 -0.03640285 -0.03374484 0.076065026
-0.08146667 -0.07316864 0.14378403 0.015604351 0.10167561 0.019738557 -0.063513614 0.15790185
-0.026352096 0.02251843 -0.03739729 0.042618435 -0.15645629 0.08999624 0.059504326 0.09290063
0.021351939 -0.16200827 0.1420137 0.03542094 -0.06965282 -0.15153101 -0.019375691 0.09273704
-0.090167575 -0.0126077635 -0.038083952 -0.0069867005 -0.016497826 -0.12219427 -0.09429375 -0.07896195
-0.07681683 -0.12957558 0.034178227 -0.021060677 -0.115918025 0.045693267 0.02201691 -0.0071427594
0.10454923 -0.1325671 -0.028081628 -0.09565724 -0.0984437 -0.031506047 0.024351748 -0.11703854
-0.11110741 -0.17783022 0.01473586 0.042042095 0.11030714 -0.19035153 0.032021757 -0.1572784
0.0058715544 -0.08086069 0.02214173 0.08869477 -0.04822969 0.08210017 -0.025602136 0.08535286
-0.16308945 -0.17475806 -0.12667905 0.017520366 0.15798521 0.07550876 0.045259576 0.26669633
-0.0831545 0.12603998 -0.058721166 -0.028808009 -0.030396057 -0.049398817 -0.19520482 -0.09846192
0.1322214 0.029353237 0.027829304 0.024067402 0.009898239 -0.19739543 0.12213356 0.05258687
0.049018517 0.097614884 0.013964475 -0.12766927 0.0025880074 -0.10692562 -0.054400932 0.16729912
-0.1205692 -0.040901016 -0.021668322 -0.024612779 0.006090603 0.14072533 0.13442299 0.07332725
00000000: bdd4 d3bc e9ad 26bd d9a0 b23d 291e d1bc
00000010: e38e aa3c 7069 cc3d c3cf 743e 5ef8 493d
00000020: 47d0 6fbd 21af 1e3e f270 3ebe b082 3f3e
00000030: 3444 263e 101f fbbd e2ee 303c 1f95 843d
00000040: ba00 26be f485 53bd 1925 d53c 4fd9 babc
00000050: 34cf a13c eee7 acbd 2eab 893c f824 953d
00000060: cf8e 2a3d c5e7 efbb 6489 b73c 1ae7 043e
00000070: 0032 c0bd ec40 18be 4816 d73d 25ee 1fbe
00000080: 0c6f e0bd 2efc df3d 1e64 28be e10e 0a3e
00000090: 1613 fabd 59e2 73bd badb 263c 5f87 74bb
000000a0: b561 cbbb 2c46 643e d68f 43be 69ef bebc
000000b0: 212d 08bd aed7 2fbe dd7d 6d3e 1a0b 9fbd
000000c0: 9dab c83c de62 84bd 24a2 2ebe 2604 9cbb
000000d0: 2364 5cbd 2316 b3bd 51c9 4dbd eb88 a73d
000000e0: 9371 a13c 61c4 943d ec3f 39be 5c1c c33d
000000f0: a862 0b3d fe04 65bc 3550 fabd 2b64 56bd
00000100: 4a86 a93d c431 0abe 59cd 043e 694f 0d3e
00000110: 2685 6b3d 8023 8b3b 0fdd 853c c386 b1bc
00000120: 7bcb 493e 8c52 14be 28e6 c23d f036 b53d
00000130: 1803 4dbb d34c ea3d 5e3d 103e b87f 6dbc
00000140: e349 d3bd 3020 b83d 98f2 fb3d a6af 763d
00000150: 4a52 94bc f8a2 1cbd 38f2 1cbe 2fde 01be
00000160: 8c76 e93d ab21 c0bc d0d2 bc3d 3d62 843d
00000170: 80c5 d9bc da20 56ba b121 253e 0040 ecbd
00000180: c316 83bb aaf1 86bd db38 903d 7863 643e
00000190: b1e5 a33d dce4 b93d e83a 6abc d2e9 afbc
000001a0: e7c4 0b3e 1590 3bbe 9e24 0dbd 60f9 8d3d
000001b0: 63aa 4c3e ea0a 83bd e9b8 07be dc09 4b3d
000001c0: bd57 8ebd c937 f43d 7151 48bc 4856 df3d
000001d0: 7ac1 4c3d 8efa 55bd f3b2 0ebd 2a9a 15bd
000001e0: 2a07 543d 1ae5 acbd 3c4c 9d3d 8a4e ab3d
000001f0: 1084 183e fd4b 12bd 5186 ef3c cc7f 39be
00000200: 7092 9e3d d5c9 453e 9f28 533e fb14 26bd
00000210: dfc9 263d 54fd 8c3d 1c66 ba3c ee09 133e
00000220: e8b9 b63d 2983 0e3e bb2e 51bd 80a2 c03d
00000230: 7fde 40be ef65 153d 9283 9ebd b4e2 673a
00000240: d3f4 39be 20a1 aabd 0afc 82bd 66e0 0a3c
00000250: 20c5 9c3d 281b 15bd 0838 0abd fbc7 9b3d
00000260: ffd7 a6bd 71d9 95bd 1f3c 133e 64a9 7f3c
00000270: 4d3b d03d c1b2 a13c 6d13 82bd 06b1 213e
00000280: 5ae0 d7bc 9278 b83c e72d 19bd ab90 2e3d
00000290: 1436 20be f34f b83d cfba 733d af42 be3d
000002a0: 43ea ae3c 7fe5 25be 0a6c 113e 8c15 113d
000002b0: 23a6 8ebd f22a 1bbe c5b9 9ebc ebec bd3d
000002c0: c7a9 b8bd cb90 4ebc ebfd 1bbd b1f0 e4bb
000002d0: 7326 87bc fd40 fabd 151d c1bd ceb6 a1bd
000002e0: 2452 9dbd 76af 04be 78fe 0b3d 7187 acbc
000002f0: 6e66 edbd dd28 3b3d cf5c b43c cf0d eabb
00000300: e81d d63d abbf 07be 710b e6bc f1e7 c3bd
00000310: da9c c9bd 7c0c 01bd 517d c73c e7b1 efbd
00000320: 488c e3bd 2019 36be ad6e 713c 5534 2c3d
00000330: b6e8 e13d 83eb 42be 3f29 033d 970d 21be
00000340: 2b66 c03b 4a9a a5bd 9362 b53c 9ba5 b53d
00000350: 7f8c 45bd 2224 a83d 92bb d1bc 7bcd ae3d
00000360: ec00 27be c7f3 32be 27b8 01be df86 8f3c
00000370: e0c6 213e 56a4 9a3d 1b62 393d 6c8c 883e
00000380: e84c aabd a010 013e 9b85 70bd c6fe ebbc
00000390: 2701 f9bc 6a56 4abd c6e3 47be 67a6 c9bd
000003a0: 0c65 073e 3376 f03c 48fa e33c 0029 c53c
000003b0: 392c 223c 0722 4abe 2921 fa3d 5465 573d
000003c0: a4c7 483d 50ea c73d 41cb 643c bcbb 02be
000003d0: 8f9b 293b d2fb dabd 83d3 5ebd 7650 2b3e
000003e0: fcec f6bd d387 27bd c481 b1bc bda0 c9bc
000003f0: ae93 c73b 4d1a 103e 2ea6 093e 992c 963d

b_draw_mode f4 [4]
-0.017246282 0.022022849 -0.0039656414 -0.0008109352
00000000: 1348 8dbc 4369 b43c 36f2 81bb f194 54ba

W_lay_eggs_bin f4 [192, 11]
0.22370344 0.15574755 -0.06179134 -0.06931293 -0.038436294 -0.097403295 -0.13148205 -0.009937086
-0.11353362 -0.022174401 0.031596083 -0.020168822 -0.015745638 -0.2541586 0.023204688 0.15674639
0.0034770085 0.07719243 -0.042057164 0.14876036 -0.09910432 -0.014001765 0.060291134 -0.09210774
-0.23734532 0.14364032 0.03699376 0.14353333 -0.040825862 -0.008071564 -0.04113214 -0.10105404
0.1228765 0.07897772 0.004929417 -0.033671983 -0.054231822 0.00022162772 0.07389895 -0.019407159
0.0733854 0.05693688 0.06674737 -0.039028324 0.16262506 -0.10168021 0.12126873 0.024788804
-0.014704857 0.02486335 0.011090159 -0.1450509 -0.1942692 -0.055432793 -0.09539814 -0.08572023
0.06933571 0.045566488 0.013263823 0.18665016 0.032886103 0.07228019 0.1487873 0.09224726
0.10026374 -0.0675011 -0.05180198 -0.102516286 0.12723674 -0.0060503515 0.11294378 0.033892125
0.041767593 -0.17876804 0.12883301 0.17883953 0.011310968 0.14029483 -0.009867786 -0.14507549
-0.07306584 0.17270027 0.15509915 -0.11616675 -0.0156180365 -0.19166869 -0.02055945 0.09038163
-0.019685252 0.05438636 0.026550675 0.045877934 0.16498426 -0.10562787 -0.0012566834 -0.25097224
-0.1603382 -0.17817692 0.08802357 -0.057833016 0.25246763 0.12627067 0.10554559 -0.057638142
-0.12459019 -0.043200806 0.021266941 -0.14858685 0.018997421 -0.055102494 -0.14065233 -0.051530886
-0.039589655 0.2577598 0.020662177 0.15590502 -0.086653166 -0.097083375 -0.10811863 0.12366475
0.1708152 0.1625597 -0.028878892 0.02156362 -0.052638445 -0.02869116 0.053555485 -0.10710646
-0.057948917 0.34191117 0.066830926 0.14435798 0.11429807 0.07331136 -0.025773598 0.029852498
0.1133765 -0.16032745 0.18078293 -0.11705767 0.14221081 -0.046192273 0.008134603 -0.13224182
-0.073680565 -0.12308585 0.115583405 -0.032418758 0.06577984 -0.02348796 -0.07353098 -0.10273438
-0.1302303 -0.2386772 -0.10906207 -0.0089921905 -0.015270433 -0.21271679 -0.08319061 -0.10368231
-0.093760446 -0.17207673 0.013184234 -0.018829105 -0.07916712 0.12580793 0.05009543 -0.122851625
0.13340607 0.08523073 -0.0054370533 -0.20740679 -0.19110382 -0.0068026846 0.16896129 0.15024874
0.1341132 -0.09571433 -0.11214643 0.023862086 -0.06712373 -0.0020977806 0.12859851 0.02929743
0.054975625 -0.10860346 0.08047098 -0.15700048 -0.20273852 -0.037849605 -0.1637252 -0.020107979
0.040465873 -0.03999348 -0.09592726 0.087223046 0.03935611 0.03275771 -0.0030455773 0.073381655
-0.13854659 0.20287749 0.18623683 0.14350156 0.074748635 0.177439 -0.08009825 0.04212586
0.18753642 0.0014847816 -0.13180616 -0.13627782 0.13450177 -0.109588414 -0.12364328 -0.11895736
-0.0014967339 -0.0634049 0.016533868 -0.058027636 0.053955354 -0.23176838 -0.2151245 0.09124526
0.0055175126 -0.019873573 -0.07124501 0.11044008 0.0524009 0.28288835 0.04812896 0.03794608
0.07687147 -0.09546398 0.1099579 0.25072297 0.012520044 -0.19969231 0.070864074 0.13644978
0.07313076 0.026853092 0.06799373 -0.07332865 0.15865718 -0.09980932 0.05333695 0.09482661
0.016120734 0.10744594 -0.052148834 -0.26031658 0.08901403 0.034038097 0.04323776 0.021589052
00000000: 8412 653e 497c 1f3e eb18 7dbd f0f3 8dbd
00000010: 606f 1dbd 617b c7bd 3ba3 06be 29cf 22bc
00000020: 5184 e8bd 17a7 b5bc e56a 013d 1639 a5bc
00000030: fffc 80bc 1321 82be c217 be3c 2082 203e
00000040: 86de 633b 1117 9e3d 2244 2cbd a354 183e
00000050: 35f7 cabd a967 65bc d6f3 763d fca2 bcbd
00000060: a70a 73be 7316 133e c586 173d 67fa 123e
00000070: 0539 27bd 983e 04bc 2d7a 28bd 6cf5 cebd
00000080: ada6 fb3d 12bf a13d f286 a13b a2eb 09bd
00000090: 3022 5ebd bd64 6839 5558 973d c3fb 9ebc
000000a0: 164b 963d a536 693d d8b2 883d 2adc 1fbd
000000b0: 2f87 263e b73d d0bd bd5b f83d e411 cb3c
000000c0: a4ec 70bc 39ae cb3c 80b3 353c 3988 14be
000000d0: 81ee 46be 7f0d 63bd 1a60 c3bd 178e afbd
000000e0: e1ff 8d3d eda3 3a3d 8250 593c 3821 3f3e
000000f0: 94b3 063d a307 943d b35b 183e 22ec bc3d
00000100: 1357 cd3d 043e 8abd 502e 54bd 0ff4 d1bd
00000110: 594a 023e 0742 c6bb 124f e73d 78d2 0a3d
00000120: 7f14 2b3d f80e 37be cdec 033e b621 373e
00000130: a351 393c 73a9 0f3e 7fac 21bc ab8e 14be
00000140: 8ba3 95bd 57d8 303e 50d2 1e3e d5e8 edbd
00000150: cbe2 7fbc cc44 44be 4b6c a8bc 011a b93d
00000160: f742 a1bc 3bc4 5e3d cd80 d93c 80ea 3b3d
00000170: a2f1 283e 6d53 d8bd 4cb7 a4ba 6f7f 80be
00000180: b22f 24be 0374 36be b445 b43d 50e2 6cbd
00000190: 7043 813e 194d 013e 4928 d83d f915 6cbd
000001a0: 2429 ffbd 54f3 30bd 0238 ae3c 2727 18be
000001b0: 7ba0 9b3c 27b3 61bd 2a07 10be 0d12 53bd
000001c0: c328 22bd 18f9 833e ba43 a93c 91a5 1f3e
000001d0: 3777 b1bd a6d3 c6bd 4d6d ddbd f243 fd3d
000001e0: 2eea 2e3e 0d76 263e 6d93 ecbc 30a6 b03c
000001f0: 699b 57bd b909 ebbc ff5c 5b3d a25a dbbd
00000200: d85b 6dbd fb0e af3e a7de 883d 94d2 133e
00000210: 1b15 ea3d 4424 963d 2723 d3bc 3a8d f43c
00000220: f031 e83d e12c 24be 291f 393e efbb efbd
00000230: b69f 113e 1c34 3dbd ff46 053c 666a 07be
00000240: d6e5 96bd 6f14 fcbd feb6 ec3d 88c9 04bd
00000250: 95b7 863d d369 c0bc 6997 96bd 6766 d2bd
00000260: 175b 05be cc67 74be ef5b dfbd fb53 13bc
00000270: d730 7abc 6ed2 59be d75f aabd 6457 d4bd
00000280: 7a05 c0bd e234 30be af02 583c 7f3f 9abc
00000290: 5f22 a2bd cbd3 003e de30 4d3d a299 fbbd
000002a0: 9a9b 083e 738d ae3d 4f29 b2bb 7262 54be
000002b0: b8b0 43be 0ee9 debb 3004 2d3e ceda 193e
000002c0: f854 093e e005 c4bd 07ad e5bd 6c7a c33c
000002d0: 2b78 89bd eb7a 09bb 54af 033e 2a01 f03c
000002e0: 1f2e 613d 7e6b debd f8cd a43d bcc4 20be
000002f0: b09a 4fbe 3008 1bbd 94a7 27be 7db9 a4bc
00000300: 8bbf 253d 34d0 23bd 8375 c4bd ffa1 b23d
00000310: df33 213d f32c 063d 4f98 47bb 1f49 963d
00000320: 28df 0dbe 1ebf 4f3e deb4 3e3e 13f2 123e
00000330: d015 993d 92b2 353e 8d0a a4bd 2a8c 2c3d
00000340: 8c09 403e 019d c23a 32f8 06be 6a8c 0bbe
00000350: d5ba 093e e46f e0bd b038 fdbd eb9f f3bd
00000360: 0e2e c4ba 6eda 81bd 0972 873c 63ae 6dbd
00000370: 4a00 5d3d b154 6dbe 9949 5cbe cbde ba3d
00000380: 40cc b43b e7cd a2bc e7e8 91bd 692e e23d
00000390: 53a2 563d bed6 903e df22 453d 596d 1b3d
000003a0: ca6e 9d3d 9f82 c3bd 9c31 e13d c35e 803e
000003b0: df20 4d3c 247c 4cbe 2f21 913d 7eb9 0b3e
000003c0: 94c5 953d 04fb db3c 4c40 8b3d 552d 96bd
000003d0: 0777 223e d468 ccbd d877 5a3d 7434 c23d
000003e0: a10f 843c 9e0c dc3d 049a 55bd 3748 85be
000003f0: fd4c b63d 886b 0b3d 141a 313d 86db b03c

b_lay_eggs_bin f4 [11]
-0.0014113183 0.00330298 0.024461063 0.005227806 -0.0019563031 -0.004493825 -0.002125861 -0.0032920116
-0.0064873276 -0.009565209 -0.0036599876
00000000: fcfb b8ba cf76 583b 9162 c83c 044e ab3b
00000010: 5235 00bb f040 93bb 0752 0bbb cabe 57bb
00000020: a693 d4bb 65b7 1cbc 67dc 6fbb

W_play_cost_bin f4 [192, 7]
-0.062022556 0.020908928 -0.049721427 0.05508806 0.08358877 -0.11146593 -0.033414215 0.011530723
0.06451863 -0.030204315 0.08868018 -0.034027264 -0.013087445 0.098546155 0.020025559 0.06143382
-0.10837632 0.13261706 -0.029344328 -0.12886932 0.22583085 -0.028886957 0.056190956 -0.13232426
0.115667515 -0.19359659 0.05247914 0.07548014 0.1717604 0.050281 0.049603414 -0.16592579
0.0009089848 -0.062469274 0.14457022 -0.09991812 -0.13410977 0.02298714 0.14341567 -0.10447526
0.0049721417 -0.05105772 -0.030014347 0.058147695 0.08943759 -0.023319408 -0.07386281 -0.08521749
0.017783647 -0.036032464 0.014361509 -0.07762906 0.05180387 -0.014629737 0.0017409307 0.016873337
0.0074677602 0.14862238 0.025985086 -0.036839087 0.067570835 -0.061459 -0.17777725 0.16548418
0.11097597 -0.06399872 0.02919383 0.122568384 0.08438028 -0.02370779 0.20186669 -0.050539576
-0.07551422 0.10415166 -0.14303823 -0.07484576 -0.22554904 -0.09064091 0.112164915 0.07646154
-0.12158981 0.008064998 0.21092835 0.12383166 0.14096504 -0.02099694 -0.14460282 0.014218129
0.08266279 0.0996229 -0.05534038 0.11884522 0.03433952 0.0035123045 0.08731531 0.020542365
-0.013798181 0.07983755 0.092131205 -0.054242134 0.05063429 -0.08710804 -0.0016772127 0.16844918
0.09685216 0.0205329 0.014229294 -0.076509476 -0.07849685 -0.3026191 -0.13964523 -0.08660719
-0.14964037 -0.025107462 -0.16454987 0.026802905 0.107545316 -0.0394944 0.015867185 0.001802511
0.13646707 0.10591781 0.0605276 -0.11994948 -0.078741945 0.08612106 -0.07333191 -0.0767795
-0.07008216 -0.040801793 -0.115829065 0.047434956 -0.009523781 0.15494893 -0.13651098 0.018907622
-0.09763462 0.17079471 0.030810935 0.101554275 0.042361405 -0.20343599 0.21545191 -0.059517127
0.031088265 0.042478006 0.05330657 0.041853487 0.1741794 -0.06826217 0.17554556 0.12792012
-0.023535015 -0.0851756 0.009587467 -0.2227122 -0.0098704975 0.017276969 -0.110142276 -0.008099257
0.06935553 -0.056812853 -0.022411697 0.14514956 0.051604718 0.058038957 -0.23268896 -0.050970897
-0.113070585 -0.08527161 0.039398562 -0.094009675 0.03843531 0.14308392 -0.08351082 -0.06652638
0.11334248 0.08691097 -0.045115463 0.1542484 -0.08135603 -0.12105124 -0.07234494 -0.11378128
0.12807362 0.07382763 -0.17114764 0.16166277 -0.06405968 -0.003917644 -0.0063138255 0.10274136
-0.05331536 -0.024632113 0.093689375 -0.08552699 -0.027254589 -0.1738374 0.047207918 0.09373158
0.12516028 -0.012645048 -0.08912317 -0.046871606 0.0872661 0.00026466566 0.23279998 -0.04029525
0.020525882 0.24009895 -0.06107629 -0.05249128 0.06654736 -0.10426361 0.015835628 0.066445746
-0.13374622 -0.0135314185 0.0343872 0.049864594 -0.12132618 0.16988999 0.123137295 0.12449245
-0.12202022 0.18147105 -0.013098538 -0.017367084 0.12502459 -0.09108212 -0.04886182 -0.13832352
-0.08105743 -0.07337857 0.10976658 0.01906078 0.04174733 0.14254253 -0.07084054 -0.05536611
0.23694828 0.011427732 0.0070379195 -0.0054420475 -0.004189476 -0.15056315 0.07712989 -0.09445585
-0.08609554 0.18168251 -0.034631904 0.013057761 -0.20553184 0.012482303 -0.08139234 -0.13702166
00000000: 5d0b 7ebd 3349 ab3c b2a8 4bbd 05a4 613d
00000010: 9730 ab3d 4048 e4bd 58dd 08bd 5ceb 3c3c
00000020: 5822 843d 0a6f f7bc f49d b53d 2c60 0bbd
00000030: b96c 56bc 91d2 c93d a40c a43c 07a2 7b3d
00000040: 67f4 ddbd c4cc 073e 8463 f0bc 52f6 03be
00000050: 3440 673e 57a4 ecbc 7d28 663d 0380 07be
00000060: 17e3 ec3d 2f3e 46be 5ef4 563d 5595 9a3d
00000070: f5e1 2f3e 73f3 4d3d f32c 4b3d 73e8 29be
00000080: f048 6e3a c8df 7fbd 370a 143e dfa1 ccbd
00000090: 1254 09be 874f bc3c 8fdb 123e 20f7 d5bd
000000a0: 59ed a23b e621 51bd a6e0 f5bc 472c 6e3d
000000b0: 0e2b b73d 5808 bfbc 6345 97bd 8286 aebd
000000c0: 03af 913c c796 13bd 894c 6b3c fcfb 9ebd
000000d0: 4b30 543d 90b1 6fbc f12f e43a f439 8a3c
000000e0: 1db4 f43b 7730 183e adde d43c 95e4 16bd
000000f0: 9462 8a3d 6fbc 7bbd 3d0b 36be af74 293e
00000100: 5f47 e33d c311 83bd e627 ef3c 2205 fb3d
00000110: 91cf ac3d d736 c2bc 24b6 4e3e 9602 4fbd
00000120: 33a7 9abd 774d d53d 9d78 12be bc48 99bd
00000130: 54f6 66be f1a1 b9bd b8b6 e53d de97 9c3d
00000140: 1404 f9bd 0e23 043c 9afd 573e 749b fd3d
00000150: 2459 103e c601 acbc c312 14be 28f3 683c
00000160: 1c4b a93d 1707 cc3d 98ac 62bd 1f65 f33d
00000170: 99a7 0c3d b12e 663b 5fd2 b23d 7648 a83c
00000180: c411 62bc df81 a33d 49af bc3d 002d 5ebd
00000190: e765 4f3d b365 b2bd ebd5 dbba f17d 2c3e
000001a0: 6d5a c63d 9d34 a83c fc21 693c 00b1 9cbd
000001b0: f5c2 a0bd e4f0 9abe 29ff 0ebe 1c5f b1bd
000001c0: 533b 19be 2aae cdbc c37f 28be c491 db3c
000001d0: b840 dc3d e1c4 21bd e6fb 813c 3c42 ec3a
000001e0: 06be 0b3e 70eb d83d caeb 773d 13a8 f5bd
000001f0: 7543 a1bd 3d60 b03d 0a2f 96bd 923e 9dbd
00000200: 3c87 8fbd c81f 27bd ca37 edbd 284b 423d
00000210: a209 1cbc efaa 1e3e 89c9 0bbe 28e4 9a3c
00000220: a9f4 c7bd cfe4 2e3e 3767 fc3c b0fb cf3d
00000230: 2783 2d3d 8651 50be 6d9f 5c3e 3bc8 73bd
00000240: d1ac fe3c 6bfd 2d3d fd57 5a3d 906e 2b3d
00000250: 165c 323e 09cd 8bbd 37c2 333e 7efd 023e
00000260: 81cc c0bc 8c70 aebd c014 1d3c ab0e 64be
00000270: deb7 21bc 6e88 8d3c 4692 e1bd bfb2 04bc
00000280: 460a 8e3d 98b4 68bd bc98 b7bc 16a2 143e
00000290: 785f 533d 42ba 6d3d 0446 6ebe dcc6 50bd
000002a0: 8d91 e7bd e2a2 aebd 6360 213d 2588 c0bd
000002b0: 586e 1d3d 9784 123e b907 abbd fc3e 88bd
000002c0: 1a20 e83d 61fe b13d feca 38bd 4bf3 1d3e
000002d0: fe9d a6bd b6e9 f7bd 9529 94bd 2906 e9bd
000002e0: bb25 033e f132 973d 5441 2fbe ed8a 253e
000002f0: b931 83bd 945f 80bb 35e4 cebb 106a d23d
00000300: 3561 5abd 49c9 c9bc 37e0 bf3d c628 afbd
00000310: 0445 dfbc 6e02 32be 175d 413d 58f6 bf3d
00000320: 042a 003e 2d2d 4fbc 3586 b6bd 71fc 3fbd
00000330: 92b8 b23d d3c2 8a39 1e63 6e3e a20c 25bd
00000340: e525 a83c 80dc 753e 222b 7abd 1901 57bd
00000350: fb49 883d 2988 d5bd b8b9 813c b514 883d
00000360: c5f4 08be e2b2 5dbc 98d9 0c3d d13e 4c3d
00000370: dc79 f8bd a4f7 2d3e 682f fc3d e6f5 fe3d
00000380: bde5 f9bd 8cd3 393e 409b 56bc 6a45 8ebc
00000390: 7206 003e 4389 babd 5523 48bd aea4 0dbe
000003a0: 7001 a6bd 8147 96bd 4dcd e03d 5a25 9c3c
000003b0: 40ff 2a3d abf6 113e d814 91bd 93c7 62bd
000003c0: 92a2 723e 623b 3b3c 599e e63b 3453 b2bb
000003d0: df47 89bb 3a2d 1abe 47f6 9d3d 1272 c1bd
000003e0: dc52 b0bd fb0a 3a3e 2fda 0dbd 38f0 553c
000003f0: f076 52be 9382 4c3c 07b1 a6bd 684f 0cbe

b_play_cost_bin f4 [7]
-0.0069307582 -0.0064056604 0.0073579545 0.016321963 -0.0065074908 -0.0012548516 -0.002581155
00000000: 6a1b e3bb 93e6 d1bb ff1a f13b a3b5 853c
00000010: ca3c d5bb d579 a4ba 9828 29bb
