reports/ml/auto_improve_factorized_phase3_long/iter_001/factorized_model.npz (npz, 71928 bytes, 17 tensors)

W1 f4 [48, 192]
0.40532953 -0.53006315 -0.21513486 0.24621342 -0.12851286 0.17862375 0.15946195 0.1944001
0.016850544 -0.044252954 0.5783152 -0.03946991 -0.08884159 -0.2760797 0.083460175 0.18530515
-0.15735532 -0.05624777 -0.249031 -0.26871368 0.24313793 -0.15479313 0.13580017 0.020736441
0.17096837 -0.12794062 0.19252151 0.23660386 0.06862478 -0.208722 -0.030688563 0.008334652
-0.19208123 0.1867788 0.292316 -0.33662894 -0.056492757 -0.064573646 0.22923778 -0.24452637
0.2007075 -0.09820911 -0.22041427 -0.32781905 0.15524156 -0.37920803 0.1590943 -0.23607844
0.11859585 -0.32259518 0.27380037 -0.09131679 0.112755746 -0.020546824 -0.1096619 0.042412627
0.25366962 0.17182977 -0.1665013 -0.2259498 0.1497117 0.078203745 0.036002252 -0.0112320185
-0.2914685 -0.09436078 -0.05893176 -0.18200836 -0.31085253 -0.23708862 -0.098705746 -0.067543454
-0.007880469 -0.24589902 0.044543833 0.12002312 -0.18510705 -0.26493177 -0.31366664 -0.26226214
0.21517971 0.22513427 0.048211392 -0.020301972 -0.15741697 0.082303375 -0.28989303 -0.010774506
0.0047786664 -0.19110198 -0.10837138 -0.0042063133 0.0077985507 0.2745222 -0.018435417 -0.049941864
-0.09625916 -0.10236577 -0.04895123 -0.03731918 0.15996574 0.024984539 -0.13740185 -0.11944357
0.12442239 0.3075015 -0.0016520647 -0.29246715 -0.12138957 0.10079678 -0.09466334 -0.12589197
0.17255306 -0.014587581 0.123559624 -0.12326132 -0.19534035 -0.24061483 -0.3671264 -0.193283
0.10898471 0.062593766 -0.17362438 0.09465949 -0.053569533 -0.20379005 0.055962462 -0.1409899
0.28924224 0.219484 -0.21792915 0.114062764 0.22490425 0.0032263598 0.06487359 0.14109218
0.066496305 0.052895688 0.09770307 -0.120180465 -0.022254426 -0.008821432 0.08136822 0.23644404
0.12070217 -0.21215308 0.24616787 -0.009609022 -0.22792323 -0.09667496 0.10302919 -0.16659953
-0.47783288 -0.033121873 -0.26006725 -0.16302449 -0.19546479 0.07802347 -0.14175786 0.024741339
0.0006485713 -0.29157835 -0.21975283 -0.11014764 -0.05299603 0.12314788 0.16548805 0.08276877
0.040694594 -0.10022797 -0.23838718 -0.22540537 -0.03709095 -0.20255399 0.3234624 0.18827032
0.14725569 0.08374914 0.09524933 -0.067334086 0.22081722 0.44563556 -0.042203993 0.21444745
-0.33206636 -0.3010837 -0.12862323 -0.13570735 -0.2704165 0.27232322 0.31463364 0.30266294
0.05047094 0.35712466 -0.42758164 -0.08654019 -0.047754128 0.17133933 0.060119525 0.09031551
0.05297497 -0.13895452 0.23972094 0.040191308 0.1743256 0.086518034 -0.24324456 -0.19545184
0.15427475 -0.037291687 -0.20218818 0.122594684 0.1449561 -0.043984205 0.07475245 -0.14856318
0.11302734 0.19026868 0.011245725 -0.25493124 0.19179843 0.46097162 -0.20544511 -0.12078094
-0.016898934 0.12884025 -0.23470451 -0.025855785 0.03766432 0.1940724 -0.03770697 -0.15532
-0.21065101 0.3095793 -0.27288345 0.1029964 -0.25374025 0.014074921 0.15933491 0.38885856
-0.40238258 0.058294613 0.18937717 -0.05863723 0.29511085 0.026694905 0.14698537 0.02793532
-0.45831138 -0.014925315 0.40487242 -0.4002224 0.27548176 -0.010671305 -0.057782978 -0.06962428
00000000: 5a87 cf3e 38b2 07bf 504c 5cbe 5f1f 7c3e
00000010: e098 03be 25e9 363e fe49 233e d210 473e
00000020: 270a 8a3c 9642 35bd 770c 143f 33ab 21bd
00000030: 94f2 b5bd 525a 8dbe 2bed aa3d a2c0 3d3e
00000040: c121 21be 1064 66bd fc01 7fbe d794 89be
00000050: 26f9 783e 1782 1ebe 330f 0b3e 78df a93c
00000060: 5512 2f3e de02 03be 5c24 453e 4848 723e
00000070: 268b 8c3d 38bb 55be 9566 fbbc 108e 083c
00000080: f1b0 44be f142 3f3e 71aa 953e a15a acbe
00000090: f364 67bd 303f 84bd 4fbd 6a3e 1f65 7abe
000000a0: 4486 4d3e dc21 c9bd 47b4 61be e6d7 a7be
000000b0: a5f7 1e3e 8e27 c2be 9ee9 223e 8cbe 71be
000000c0: 62e2 f23d 322b a5be 902f 8c3e 4c04 bbbd
000000d0: 7cec e63d d051 a8bc 6b96 e0bd ddb8 2d3d
000000e0: fce0 813e 25f4 2f3e 517f 2abe 625f 67be
000000f0: 064e 193e 4929 a03d 1977 133d 8006 38bc
00000100: 5c3b 95be 3a40 c1bd 6e62 71bd 6660 3abe
00000110: 1028 9fbe 5cc7 72be 3d26 cabd 3954 8abd
00000120: 151d 01bc f4cc 7bbe 9873 363d aece f53d
00000130: b48c 3dbe 23a5 87be ea98 a0be 3947 86be
00000140: 1258 5c3e 9989 663e 4f79 453d 5250 a6bc
00000150: ea31 21be ac8e a83d dc6c 94be 8e87 30bc
00000160: 5c96 9c3b 3db0 43be d0f1 ddbd 1dd5 89bb
00000170: fc8a ff3b 2c8e 8c3e df05 97bc d78f 4cbd
00000180: 8623 c5bd 25a5 d1bd 1681 48bd ffdb 18bd
00000190: 0fce 233e 60ac cc3c 12b3 0cbe d59e f4bd
000001a0: 2ad1 fe3d d670 9d3e 188a d8ba 41be 95be
000001b0: 189b f8bd 8b6e ce3d dade c1bd d3e9 00be
000001c0: c0b1 303e c000 6fbc d40c fd3d 6e70 fcbd
000001d0: 4d07 48be bc63 76be fef7 bbbe fbeb 45be
000001e0: 6033 df3d 2931 803d 97ca 31be d6dc c13d
000001f0: ba6b 5bbd 57ae 50be e538 653d a85f 10be
00000200: 8f17 943e 6ac0 603e d228 5fbe bd99 e93d
00000210: 4d4d 663e 5671 533b 72dc 843d 787a 103e
00000220: 372f 883d 26a9 583d 8c18 c83d 2d21 f6bd
00000230: ea4e b6bc c487 10bc 62a4 a63d 631e 723e
00000240: b332 f73d a83e 59be 6e13 7c3e 296f 1dbc
00000250: b564 69be 85fd c5bd f800 d33d 1199 2abe
00000260: 83a6 f4be cdaa 07bd 8927 85be e4ef 26be
00000270: ec27 48be c5ca 9f3d f928 11be 59ae ca3c
00000280: e204 2a3a c249 95be e306 61be 1695 e1bd
00000290: 5d12 59bd f534 fc3d b375 293e ac82 a93d
000002a0: 60af 263d 5244 cdbd c51b 74be aad0 66be
000002b0: aeec 17bd 506a 4fbe dd9c a53e efc9 403e
000002c0: 32ca 163e ab84 ab3d 1512 c33d 74e6 89bd
000002d0: e91d 623e 582a e43e 18de 2cbd 1d98 5b3e
000002e0: 9a04 aabe a527 9abe cfb5 03be def6 0abe
000002f0: 0874 8abe f36d 8b3e a917 a13e a3f6 9a3e
00000300: 9eba 4e3d 0bd9 b63e fbeb dabe fc3b b1bd
00000310: d599 43bd 9473 2f3e e43f 763d 57f7 b83d
00000320: 48fc 583d 184a 0ebe 6879 753e a49f 243d
00000330: 6982 323e 5e30 b13d 1a15 79be 8724 48be
00000340: 33fa 1d3e 2bbf 18bd 6b0a 4fbe ec12 fb3d
00000350: 5f6f 143e c828 34bd d017 993d f220 18be
00000360: e17a e73d cbd5 423e fd3f 383c 5986 82be
00000370: cf66 443e 7904 ec3e 3460 52be ff5b f7bd
00000380: a26f 8abc b3ee 033e 6156 70be 83cf d3bc
00000390: e745 1a3d eaba 463e a072 1abd 350c 1fbe
000003a0: e6b4 57be 2e81 9e3e 61b7 8bbe c7ef d23d
000003b0: 3eea 81be 7f9a 663c b128 233e 7818 c73e
000003c0: 1705 cebe 55c6 6e3d 17ec 413e 982d 70bd
000003d0: c518 973e 46af da3c 5583 163e 9dd8 e43c
000003e0: caa7 eabe 4f89 74bc 704b cf3e f3e9 ccbe
000003f0: f20b 8d3e b2d6 2ebc d8ad 6cbd 2d97 8ebd

b1 f4 [192]
-0.00037579218 0.0001615318 -0.00039848482 0.0009987095 5.5532837e-05 -0.000121738594 -0.0048477063 0.00041303923
0.00066765386 -0.0033341376 -1.3125838e-05 -7.896911e-06 -0.0012665342 -0.0012713874 -0.00066851533 -0.0010650399
0.0010855908 -0.00024377984 0.0 -0.0026614687 0.0015719718 -0.0033232197 -0.001728186 -0.00025591973
-0.00097269064 -6.8851336e-06 0.0021556872 -0.0009245259 -0.001811963 0.0 0.0 0.00050783175
-0.0019071533 -0.0002669644 -7.2442035e-06 -0.00094420114 -0.00020391049 5.534092e-07 0.0006815854 -0.00037572815
0.0005809741 0.0 -0.0019072945 0.0007646406 -0.000840939 -5.4432192e-05 -0.0028579456 5.5605506e-05
-4.2284164e-06 -0.0014445687 -0.0045290915 0.00023692858 -0.00074478384 -3.197604e-05 0.00070789055 -0.0009088628
-0.0010858502 0.0017915003 0.0 -0.00028952266 0.0016279686 -0.000783424 7.204925e-06 -0.0037438676
0.0 0.002632812 0.0 -0.00055893045 -0.00054845394 0.00018043783 0.0 1.4083763e-05
0.00071161473 -3.0913989e-06 0.00061517494 0.0012090878 3.8390495e-05 -7.932061e-05 4.910697e-06 0.0
-6.0344293e-05 0.0032618975 0.0024439467 -0.00066311087 -0.0006975489 3.9919512e-05 -1.1382084e-06 -0.0039493428
0.0004000102 -0.00047993998 -0.00077300187 9.170233e-05 0.0016490257 0.0034505483 2.071435e-06 -0.0005055041
0.0012013082 0.0019196118 0.0010021651 -1.1948027e-06 0.00019994167 0.000110232184 5.887288e-05 -8.2878025e-05
-0.0005410702 0.0004829065 -0.0010016217 -3.9705334e-05 0.0 0.0022444373 0.00010666134 -0.0006442911
-0.00060885906 0.0005424133 0.0005344983 -0.0005217939 0.0020135974 0.0 -0.000534182 -0.0012169043
0.00013936125 -0.00035344032 -0.00016436639 -0.0008298651 0.0018675522 0.0 0.00014537737 0.0011818168
-0.00035178656 -0.00017245712 0.00015330987 0.00067621394 6.7240355e-05 0.0020412626 0.0054623866 -0.0015036577
0.0014246808 0.00011286882 0.0 0.00072569086 -9.001235e-05 -0.00037222588 0.0021177405 4.6982892e-05
0.0 0.0 0.0 -0.0027564869 0.0 0.00014750403 -0.0055982447 -1.1847341e-06
-0.00063520024 0.00056160166 9.631161e-06 0.0003446268 -3.1381692e-06 0.0024887417 9.619281e-06 -0.0009225973
-7.2354605e-06 1.4211606e-05 2.2514123e-06 0.0 0.0012329263 -0.00028953477 -3.75287e-06 -0.0028836566
0.0016095008 0.0008835709 0.0023302187 1.988865e-05 -0.0008580594 2.0887037e-05 0.0018812574 -9.45828e-06
-0.0025675043 0.00050488085 -4.1613035e-05 0.000101271056 0.002909402 -0.0037047914 -3.831764e-05 0.00020782306
0.0 -0.0019396564 0.00088998425 0.00016794325 0.00052999443 -0.00077032007 0.0009287778 0.00024303891
00000000: f905 c5b9 dd60 2939 baeb d0b9 21e7 823a
00000010: eeeb 6838 e94d ffb8 82d9 9ebb 308d d839
00000020: 7e05 2f3a 8c81 5abb 0c37 5cb7 f97c 04b7
00000030: d601 a6ba afa4 a6ba 4e3f 2fba cf98 8bba
00000040: 624a 8e3a 279f 7fb9 0000 0000 096c 2ebb
00000050: 9f0a ce3a 60ca 59bb 4d84 e2ba f72c 86b9
00000060: 2afc 7eba d906 e7b6 6e46 0d3b e25b 72ba
00000070: 647f edba 0000 0000 0000 0000 0320 053a
00000080: 72f9 f9ba 5bf7 8bb9 3c13 f3b6 4484 77ba
00000090: ced0 55b9 fe8d 1435 6cac 323a 61fd c4b9
000000a0: 834c 183a 0000 0000 2ffe f9ba 2972 483a
000000b0: 7672 5cba 1f4e 64b8 5f4c 3bbb f539 6938
000000c0: d2e1 8db6 af57 bdba c668 94bb 0870 7839
000000d0: 993d 43ba 031e 06b8 bb91 393a c040 6eba
000000e0: 1653 8eba c6d0 ea3a 0000 0000 13cb 97b9
000000f0: 9061 d53a b25e 4dba d6c1 f136 ad5b 75bb
00000100: 0000 0000 418b 2c3b 0000 0000 3085 12ba
00000110: 1fc6 0fba e933 3d39 0000 0000 4d49 6c37
00000120: a88b 3a3a d475 4fb6 b143 213a 417a 9e3a
00000130: 7b05 2138 ee58 a6b8 91c6 a436 0000 0000
00000140: 311a 7db8 8fc5 553b 9f2a 203b 9ed4 2dba
00000150: b7db 36ba 406f 2738 8bc4 98b5 7d69 81bb
00000160: 76b8 d139 74a0 fbb9 47a3 4aba 5050 c038
00000170: 1f24 d83a 9822 623b fb02 0b36 ce83 04ba
00000180: 3775 9d3a 7c9b fb3a 155b 833a 1c5d a0b5
00000190: 6fa7 5139 742c e738 46ee 7638 cdce adb8
000001a0: 9bd6 0dba 9d2e fd39 d948 83ba 4789 26b8
000001b0: 0000 0000 6917 133b 5faf df38 a5e5 28ba
000001c0: d79b 1fba be30 0e3a 931d 0c3a ffc8 08ba
000001d0: 8ff6 033b 0000 0000 5908 0cba 8880 9fba
000001e0: 8021 1239 f54d b9b9 c459 2cb9 4e8b 59ba
000001f0: a7c8 f43a 0000 0000 7170 1839 31e7 9a3a
00000200: fe6f b8b9 9bd5 34b9 cec1 2039 f343 313a
00000210: 6403 8d38 b4c6 053b d2fd b23b 6116 c5ba
00000220: 5bbc ba3a fdb3 ec38 0000 0000 4a3c 3e3a
00000230: 03c5 bcb8 5027 c3b9 cac9 0a3b 7f0f 4538
00000240: 0000 0000 0000 0000 0000 0000 2da6 34bb
00000250: 0000 0000 50ab 1a39 7b71 b7bb 2703 9fb5
00000260: 9183 26ba 7338 133a 8695 2137 07af b439
00000270: 5699 52b6 281a 233b 7f62 2137 75da 71ba
00000280: 22c8 f2b6 626e 6e37 f816 1736 0000 0000
00000290: 249a a13a b3cc 97b9 d1d9 7bb6 bbfb 3cbb
000002a0: e3f5 d23a 709f 673a 95b6 183b 8dd6 a637
000002b0: 64ef 60ba 9236 af37 8694 f63a 01af 1eb7
000002c0: 9343 28bb fb59 043a a889 2eb8 7c61 d438
000002d0: aaab 3e3b 16cc 72bb 41b7 20b8 14eb 5939
000002e0: 0000 0000 123c feba d54d 693a ec19 3039
000002f0: 53ef 0a3a 4eef 49ba 3979 733a 43d8 7e39

W_action_type f4 [192, 4]
-0.16466163 0.19944602 0.093861625 -0.13060623 0.11887543 -0.12967755 -0.03791571 0.17797755
0.09778656 -0.10358326 0.0592139 -0.003651045 0.059776563 0.026388712 0.14240594 0.14228445
-0.061340164 -0.034800828 0.122503944 0.0924529 0.2966677 0.040997755 -0.05847239 -0.037907705
0.21258475 -0.09755853 0.2069943 -0.023279993 0.17827375 -0.029385192 -0.0822719 -0.07037398
0.010070889 0.065167464 -0.023995193 0.063387 0.15497467 -0.026185159 0.124203004 0.0019112773
0.08174563 0.048808705 -0.029647836 -0.0428402 0.06840623 -0.056892663 -0.14278726 -0.004019564
0.079082906 -0.17399803 0.087491296 -0.084235825 0.12349675 0.1540075 -0.13720027 -0.14477001
0.04461372 -0.07623613 -0.052594658 -0.034089718 0.047738668 -0.013444678 -0.026464418 0.117458224
0.089105316 0.06288216 0.05153189 -0.0005803037 -0.13443273 0.15766391 0.10313271 -0.028315641
0.08463467 0.081640184 -0.04671714 -0.030945575 0.16863327 -0.03261213 0.11140785 -0.070005976
0.0022143507 0.1867452 0.032822818 0.0773945 -0.08969613 0.035300747 0.112783946 -0.09369934
-0.21377732 0.012857543 0.18100466 0.054270674 0.05600742 -0.16953194 0.05270095 0.048809458
0.0072368104 0.035154674 0.039086077 0.015649995 0.046789438 -0.0044701127 0.09847555 0.057895303
-0.07005227 0.075807795 -0.07784557 0.1167245 -0.122600645 -0.03643734 -0.16223978 -0.16692391
0.032745954 0.12056195 0.048742082 0.08161124 -0.011604614 -0.00857112 0.20105854 0.0665833
-0.054899592 0.14565445 -0.03564822 -0.08197898 -0.058594164 0.054530032 -0.043136157 -0.14043573
0.041177932 -0.13619153 0.02578652 -0.05878449 0.094258554 -0.0674968 -0.06024948 -0.006600327
-0.06977257 -0.072921716 -0.05557178 -0.117203034 0.097101115 -0.05990994 -0.05725741 0.0034616517
0.22911322 -0.13134038 0.11594054 0.07167876 -0.20385432 0.090756305 0.05254283 -0.16348031
0.0070954305 0.03900092 -0.039837237 -0.0327131 -0.0041914964 -0.0013706799 0.0059123877 -0.048375446
-0.02453379 -0.05093788 -0.050690938 -0.06304838 -0.039862942 0.031172935 0.0018875703 0.091168776
-0.037348222 0.10132251 0.014129121 -0.12039385 -0.057729106 0.091948986 -0.083811246 0.062995754
-0.044108417 -0.03995197 -0.101044066 -0.04595182 0.14817308 0.10022731 0.0049774717 -0.1879696
0.08519779 -0.0041102427 -0.04774918 -0.12119904 0.10678858 0.14001426 0.090128206 0.20091175
0.15687816 -0.03065228 0.19073014 -0.14702594 -0.0061490033 -0.04412359 -0.043759532 0.029490106
0.04994165 -0.030483773 0.06327749 0.047871158 -0.30951163 -0.083304934 0.1262548 -0.054578435
0.07834673 -0.049817145 0.0820674 0.039020926 0.09626493 -0.2092547 -0.08186287 -0.06676066
-0.08547207 -0.18138467 -0.019629365 0.21337491 -0.052904822 -0.066768155 0.073321335 0.05328193
0.22738804 -0.003456889 0.022235103 -0.033148427 -0.09882843 0.19119272 -0.0793344 -0.08246752
0.06815725 -0.0071343593 0.058363866 0.106392674 0.018449172 -0.071665086 0.04341266 -0.085229136
-0.06086032 -0.16179456 -0.018259367 0.03157557 0.014026582 0.13282059 -0.05838786 0.21863222
-0.04951695 -0.007986438 0.10012621 0.094423145 0.12227228 0.0019319825 -0.0058144955 -0.0084473705
00000000: 0f9d 28be 943b 4c3e 863a c03d a4bd 05be
00000010: f674 f33d 31ca 04be 814d 1bbd bf3f 363e
00000020: 5244 c83d 7623 d4bd 468a 723d 5f46 6fbb
00000030: 45d8 743d 242d d83c ddd2 113e 04b3 113e
00000040: d33f 7bbd 508b 0ebd 59e3 fa3d f257 bd3d
00000050: d4e4 973e 43ed 273d bf80 6fbd 1c45 1bbd
00000060: d1af 593e c4cc c7bd 50f6 533e afb5 bebc
00000070: 658d 363e 37b9 f0bc 2b7e a8bd 3c20 90bd
00000080: 5f00 253c 8576 853d 9191 c4bc 0bd1 813d
00000090: aeb1 1e3e 4282 d6bc 255e fe3d d383 fa3a
000000a0: 416a a73d a3eb 473d 05e0 f2bc 3579 2fbd
000000b0: 9118 8c3d 4808 69bd d336 12be 8cb6 83bb
000000c0: 38f6 a13d 8a2c 32be a32e b33d d583 acbd
000000d0: ddeb fc3d 24b4 1d3e 3a7e 0cbe 973e 14be
000000e0: e0bc 363d b021 9cbd 7f6d 57bd a9a1 0bbd
000000f0: 9f89 433d 1147 5cbc e8cb d8bc f08d f03d
00000100: d97c b63d 5dc8 803d 1a13 533d 861f 18ba
00000110: bca8 09be a672 213e 3e37 d33d 34f6 e7bc
00000120: f154 ad3d f832 a73d 795a 3fbd 9381 fdbc
00000130: 33ae 2c3e 4c94 05bd cd29 e43d 4b5f 8fbd
00000140: a41e 113b 223a 3f3e 3871 063d 0281 9e3d
00000150: 9bb2 b7bd 8497 103d 45fb e63d 71e5 bfbd
00000160: 71e8 5abe 72a8 523c 4959 393e ed4a 5e3d
00000170: 0968 653d c899 2dbe f4dc 573d 6dec 473d
00000180: c422 ed3b 59fe 0f3d b918 203d 6b34 803c
00000190: 48a6 3f3d 067a 92bb 8dad c93d a023 6d3d
000001a0: 9177 8fbd 1e41 9b3d 806d 9fbd 410d ef3d
000001b0: 0c16 fbbd 523f 15bd 2f22 26be 1aee 2abe
000001c0: 9f20 063d 2fe9 f63d c7a5 473d cb23 a73d
000001d0: 4721 3ebc e26d 0cbc 4ae2 4d3e d35c 883d
000001e0: 65de 60bd 7126 153e de03 12bd 98e4 a7bd
000001f0: 6f00 70bd e25a 5f3d 8aaf 30bd 62ce 0fbe
00000200: 31aa 283d cb75 0bbe 413e d33c 01c8 70bd
00000210: a10a c13d c33b 8abd 29c8 76bd 8e47 d8bb
00000220: ece4 8ebd fb57 95bd 3c9f 63bd 2508 f0bd
00000230: f3dc c63d 2064 75bd bf86 6abd e1dc 623b
00000240: a89c 6a3e 187e 06be 3c72 ed3d 50cc 923d
00000250: 30bf 50be 71de b93d 2737 573d 6267 27be
00000260: c980 e83b 6ebf 1f3d 5f2c 23bd 2cfe 05bd
00000270: d258 89bb 63a8 b3ba b4bc c13b 5525 46bd
00000280: 16fb c8bc 3da4 50bd 4da1 4fbd 821f 81bd
00000290: 5347 23bd 625e ff3c 5968 f73a b2b6 ba3d
000002a0: 73fa 18bd 2d82 cf3d d47d 673c 0d91 f6bd
000002b0: 5b75 6cbd c04f bc3d 3ba5 abbd eb03 813d
000002c0: 07ab 34bd ada4 23bd 31f0 cebd fa37 3cbd
000002d0: afba 173e fa43 cd3d 0f1a a33b 1a7b 40be
000002e0: 2e7c ae3d 37af 86bb a594 43bd 3437 f8bd
000002f0: f9b3 da3d e65f 0f3e 2395 b83d cfbb 4d3e
00000300: aba4 203e 7e1a fbbc c34e 433e f88d 16be
00000310: 947d c9bb f0ba 34bd 323d 33bd 3c95 f13c
00000320: 9e8f 4c3d 1bb9 f9bc a197 813d 8c14 443d
00000330: 4f78 9ebe c79b aabd f048 013e a38d 5fbd
00000340: 4074 a03d 100d 4cbd f412 a83d 68d4 1f3d
00000350: 8c26 c53d dd46 56be b8a7 a7bd d0b9 88bd
00000360: fb0b afbd e7bc 39be c3cd a0bc f47e 5a3e
00000370: bab2 58bd bebd 88bd 7f29 963d 273e 5a3d
00000380: 69d8 683e f98c 62bb 6426 b63c a5c6 07bd
00000390: 8f66 cabd 06c8 433e 137a a2bd bbe4 a8bd
000003a0: 0796 8b3d 58c7 e9bb f30e 6f3d 67e4 d93d
000003b0: b822 973c 25c5 92bd 79d1 313d 9d8c aebd
000003c0: ac48 79bd 79ad 25be ab94 95bc 6355 013d
000003d0: c0cf 653c 1f02 083e 1c28 6fbd 20e1 5f3e
000003e0: 49d2 4abd 8dd9 02bc f80e cd3d ec60 c13d
000003f0: e469 fa3d 933a fd3a 8687 bebb d766 0abc

b_action_type f4 [4]
-0.0048524053 -0.00027743334 -0.0065896837 0.011719519
00000000: ed00 9fbb 7974 91b9 46ee d7bb 3a03 403c

W_play_habitat f4 [192, 4]
-0.102203704 -0.108136825 -0.007636669 -0.04428389 0.12858383 0.13949744 0.050979964 -0.041072227
-0.15345424 0.118328184 -0.06039521 0.19390492 -0.04004717 -0.00073680823 0.10655376 -0.101061754
0.031058362 -0.052670896 0.17985962 0.14279109 -0.08954691 -0.028884312 0.100951545 -0.008897836
-0.19999741 -0.20226155 0.131821 -0.24680054 -0.007952455 0.036551617 -0.14462405 -0.101768866
0.030669464 0.044519495 0.120550774 -0.15197192 0.08344951 -0.058671173 0.079499364 -0.09441612
0.05241341 -0.0061179 0.06422028 0.08110185 -0.022876186 -0.045467343 -0.013089335 0.17302635
-0.100412995 0.19723772 -0.1621813 0.031028386 0.0073115886 0.036886815 -0.16749732 0.026146056
-0.16360147 -0.034098405 0.004803773 -0.037959345 -0.0147856185 0.013742562 -0.07772417 0.2578639
0.04316088 0.11535908 0.14902422 -0.10323178 0.0345273 0.11924162 -0.15207568 -0.015087905
-0.03862686 0.13524142 -0.0711699 -0.19152306 -0.11941449 -0.14105132 0.12379653 0.062337007
-0.005719327 -0.1423757 0.17723244 -0.03283492 0.15078914 0.13990653 -0.06420502 -0.07960639
0.069578 -0.06827153 0.17331445 -0.1368812 -0.07487796 -0.04088833 0.1699295 -0.1631492
-0.0031651852 0.065171465 -0.05379985 -0.14969215 -0.1693513 0.26972428 -0.09354799 0.17378727
-0.03277138 -0.013759116 0.01126984 -0.11610406 0.10959116 0.083572924 -0.14219508 0.106064565
-0.01745582 -0.16168708 0.16250598 -0.18278527 -0.01067898 -0.10342745 -0.017000983 0.22221097
0.12178404 -0.103307836 0.0036391916 -0.11908169 -0.07901725 -0.04316356 0.03069588 0.11375703
0.1952924 0.20319284 0.009590658 0.07318509 -0.09156234 -0.0346631 0.18444687 -0.06374765
-0.06534747 -0.203559 0.14867082 -0.032671552 -0.08180252 0.13433895 0.0853222 0.018810296
0.11141304 -0.060635094 0.044741195 -0.033632554 -0.014313003 0.031233909 -0.08963595 -0.0070843096
-0.15079676 -0.10779377 0.10060669 -0.13498424 0.13496958 -0.07340678 0.03508336 0.10405631
-0.0076832683 -0.18384013 0.051212724 -0.024461495 -0.04880931 0.26913047 -0.16742966 0.003368188
-0.17519617 0.053816408 0.16250739 -0.040450595 -0.08968422 0.07610173 0.094023615 -0.10894075
-0.1142532 -0.0037048508 0.007348888 -0.042139128 0.0033783794 0.031580523 0.078364454 -0.06818487
-0.009849137 0.039362546 -0.16978885 -0.12103988 -0.07476289 -0.25715554 0.12515084 0.08000036
-0.07588071 0.065492235 0.10831067 0.035150755 0.059425987 0.010880929 0.0032828818 0.025704462
-0.11313162 -0.118116125 0.08696519 -0.01912486 -0.1224347 0.0015005876 -0.0002586587 -0.09298609
-0.10306703 -0.02062431 -0.040630378 0.15207306 -0.07520367 -0.21127379 -0.006503065 -0.01791353
-0.040368505 -0.034765393 -0.056003198 0.18338415 0.15294003 -0.14768769 -0.03628912 0.18368892
0.10536667 0.084643595 0.008080678 0.07204282 0.18202814 0.044385143 0.023656499 -0.008276056
-0.07747621 0.14028199 -0.010203753 0.04792032 0.012880226 0.08118375 -0.12914038 0.023544673
0.0750593 0.005686247 0.21356997 -0.026162235 -0.080205925 0.005318864 -0.14859109 0.023278821
0.01716552 -0.05915547 0.12821019 0.0814924 -0.030524474 0.045551285 0.031866904 -0.073623784
00000000: 2d50 d1bd d776 ddbd 063d fabb 0663 35bd
00000010: 7bab 033e 6bd8 0e3e 5ed0 503d 5a3b 28bd
00000020: 1c23 1dbe 0c56 f23d f860 77bd 038f 463e
00000030: 8008 24bd 5d26 41ba dc38 da3d 77f9 cebd
00000040: 1b6e fe3c 70bd 57bd 1f2d 383e d437 123e
00000050: 5f64 b7bd cb9e ecbc afbf ce3d 3bc8 11bc
00000060: 1fcc 4cbe a71d 4fbe 16fc 063e 48b9 7cbe
00000070: 044b 02bc 26b7 153d 5418 14be 326c d0bd
00000080: 873e fb3c 135a 363d 53e3 f63d 879e 1bbe
00000090: 94e7 aa3d 2f51 70bd 90d0 a23d 3d5d c1bd
000000a0: 72af 563d aa78 c8bb ec85 833d ba18 a63d
000000b0: d766 bbbc f73b 3abd a674 56bc d22d 313e
000000c0: 54a5 cdbd aff8 493e db12 26be 3e2f fe3c
000000d0: 0d96 ef3b a116 173d 6b84 2bbe 4130 d63c
000000e0: 2587 27be c5aa 0bbd f868 9d3b 427b 1bbd
000000f0: 613f 72bc 7c28 613c da2d 9fbd bd06 843e
00000100: 77c9 303d 6241 ec3d ce99 183e 2f6b d3bd
00000110: 806c 0d3d f334 f43d bab9 1bbe 4333 77bc
00000120: 3337 1ebd ba7c 0a3e 86c1 91bd 9f1e 44be
00000130: 968f f4bd c26f 10be 0989 fd3d 1755 7f3d
00000140: 3169 bbbb efca 11be 6c7c 353e e97d 06bd
00000150: 7868 1a3e a843 0f3e ec7d 83bd ad08 a3bd
00000160: e97e 8e3d f2d1 8bbd 5879 313e 962a 0cbe
00000170: 9e59 99bd 867a 27bd 0002 2e3e 9510 27be
00000180: ff6e 4fbb 9e78 853d 3b5d 5cbd e648 19be
00000190: 6d6a 2dbe 4d19 8a3e 1796 bfbd 4af5 313e
000001a0: 483b 06bd ea6d 61bc 23a5 383c f7c7 edbd
000001b0: 5571 e03d 4828 ab3d 969b 11be 6138 d93d
000001c0: 82ff 8ebc 4c91 25be f867 263e 102c 3bbe
000001d0: e3f6 2ebc c5d1 d3bd a545 8bbc 468b 633e
000001e0: e969 f93d 0f93 d3bd 817f 6e3b 1ae1 f3bd
000001f0: ccd3 a1bd 46cc 30bd ed75 fb3c 72f9 e83d
00000200: bbfa 473e c911 503e 2322 1d3c 11e2 953d
00000210: 0985 bbbd e5fa 0dbd a4df 3c3e 218e 82bd
00000220: e5d4 85bd c571 50be 2a3d 183e 9bd2 05bd
00000230: 1488 a7bd 2690 093e 68bd ae3d 0d18 9a3c
00000240: 852c e43d 815c 78bd 8b42 373d 4ac2 09bd
00000250: 1681 6abc 41de ff3c 0e93 b7bd 7f23 e8bb
00000260: 776a 1abe fbc2 dcbd e10a ce3d 4f39 0abe
00000270: 7735 0a3e 4b56 96bd 92b3 0f3d 7a1b d53d
00000280: edc3 fbbb 9640 3cbe 6fc4 513d 7963 c8bc
00000290: 45ec 47bd 78cb 893e ae72 2bbe d1bc 5c3b
000002a0: a066 33be 986e 5c3d 5668 263e 86af 25bd
000002b0: 5cac b7bd 39db 9b3d 748f c03d 541c dfbd
000002c0: 95fd e9bd 15cd 72bb f1ce f03b 149a 2cbd
000002d0: cd67 5d3b 945a 013d 8b7d a03d 82a4 8bbd
000002e0: 465e 21bc 9f3a 213d 21dd 2dbe c2e3 f7bd
000002f0: 491d 99bd e4a9 83be 8b27 003e 3bd7 a33d
00000300: 5867 9bbd cb20 863d fcd1 dd3d 3dfa 0f3d
00000310: aa68 733d ed45 323c 9e25 573b 2a92 d23c
00000320: 8db1 e7bd dee6 f1bd ce1a b23d bdab 9cbc
00000330: 0bbf fabd 5daf c43a 959c 87b9 7e6f bebd
00000340: cf14 d3bd 50f4 a8bc 0a6c 26bd 0ab9 1b3e
00000350: 6204 9abd 2858 58be aa17 d5bb 65bf 92bc
00000360: 7259 25bd 2866 0ebd 9c63 65bd 0ec9 3b3e
00000370: 509c 1c3e 713b 17be e6a3 14bd f318 3c3e
00000380: 7bca d73d 9f59 ad3d d264 043c 308b 933d
00000390: 9665 3a3e 32cd 353d 46cb c13c 4b98 07bc
000003a0: d9ab 9ebd 15a6 0f3e a42d 27bc 1948 443d
000003b0: 9507 533c aa43 a63d 603d 04be c2e0 c03c
000003c0: b1b8 993d b253 ba3b 16b2 5a3e 2f52 d6bc
000003d0: 0143 a4bd dd49 ae3b 4328 18be 3ab3 be3c
000003e0: b49e 8c3c 024d 72bd 8849 033e 7de5 a63d
000003f0: 760e fabc fc93 3a3d df86 023d 11c8 96bd

b_play_habitat f4 [4]
0.0011345145 0.0011474503 -0.0018114751 -0.00047048973
00000000: fdb3 943a 0b66 963a 056f edba 10ac f6b9

W_gain_food_primary f4 [192, 7]
0.04242929 0.032667875 0.13085452 -0.00082295085 0.17614716 -0.05777062 0.041942943 0.0017766451
-0.095674306 0.041773137 -0.04801634 0.018443244 0.04076491 -0.041658733 -0.020724054 0.050410405
0.005863931 -0.069505125 0.04659245 0.11500464 -0.10911647 -0.05257511 -0.11033215 -0.01994473
-0.10063405 0.08175241 0.07755594 0.040056437 -0.046369985 0.13473915 -0.15078278 -0.07341417
-0.028945992 0.057052977 -0.07895192 0.010482055 -0.19698898 0.10237382 -0.09400089 -0.084921956
-0.04290745 -0.121847294 -0.07361207 0.12566163 -0.11207665 -0.054641098 0.010929679 -0.1599685
-0.10802998 0.0064804414 -0.03773907 0.08664421 -0.12226925 -0.10281152 -0.02284847 -0.0038509516
-0.12321075 -0.012237572 -0.19612862 -0.11084877 0.07394697 0.050935373 0.01182733 -0.07721838
-0.046515446 0.016340075 -0.05737042 -0.072761215 -0.19624078 -0.05284013 -0.11565852 -0.06374545
-0.040359017 -0.14785601 0.1184743 0.03816399 -0.16816798 -0.06964968 0.05477476 0.03383864
0.00071458437 0.007991318 -0.1252139 0.06667123 0.03639029 0.14866532 -0.01002745 0.009674242
0.15203199 0.050610915 -0.07221413 0.06015787 -0.14689039 -0.1826265 0.046285003 0.010576319
-0.040245336 -0.014591928 0.05592513 0.050494976 0.08523646 -0.048427038 0.05786655 0.0057485476
-0.11891801 -0.10058673 -0.03763843 0.012382365 0.14293995 0.00045953193 -0.12093791 0.09086821
0.101051524 -0.088976406 -0.02684475 -0.20656618 0.20340711 -0.006608581 0.021479692 0.13323152
-0.14666387 -0.13061535 0.008775491 -0.042764615 0.0989968 -0.018988913 -0.14320812 0.24622688
0.13911304 0.197337 -0.037989594 0.2101079 -0.04192499 0.049553223 -0.069290556 -0.03426849
-0.102428466 0.070759915 -0.13796648 0.1453633 0.08524807 0.0044566276 0.14149196 0.11179836
0.031704623 -0.000938416 0.05006571 -0.07310527 0.01014758 0.09384123 -0.12630467 -0.061593696
0.017045671 -0.06792906 0.1836212 -0.2508111 -0.10326319 -0.0705423 -0.0988413 -0.15411066
-0.057673585 0.06923734 -0.16159911 -0.027673844 -0.014835653 0.048540756 -0.13697575 -0.007768667
-0.14411117 -0.018975832 0.028804071 0.049771443 0.010594537 0.07012618 -0.0964544 -0.06353506
-0.061276432 0.02915661 -0.029054588 -0.004079827 -0.025621608 0.021277009 -0.008598704 -0.049341124
0.014103983 0.1029145 -0.007772458 -0.028940003 -0.051077463 0.043327704 0.081436425 -0.115547396
-0.054928657 -0.13073324 -0.03219718 0.15393817 -0.036729295 0.09420106 -0.11718444 -0.029101415
0.10185465 -0.027277915 -0.031916615 0.009922106 0.20259486 -0.040282052 0.018366888 -0.043532047
0.06719905 -0.024365196 0.03354743 -0.002199981 0.035196763 0.0054748147 -0.07105223 -0.1166058
-0.059688505 0.09095511 0.040298868 -0.04115232 -0.033395514 0.06693488 0.06508286 -0.11317604
0.031825963 -0.073506005 -0.2552276 -0.101303086 0.038843356 -0.14001401 -0.009307286 0.023377234
0.13692869 -0.1152512 0.0146628795 -0.19646592 0.026120845 -0.030992188 0.09664886 -0.101792715
0.08289532 -0.06264961 -0.0960172 -0.099554546 -0.10669229 0.07738641 0.054487444 0.033207063
0.11856871 -0.20789409 -0.015332073 -0.02851111 0.11006683 0.031120045 -0.014505637 0.20194861
00000000: 56ca 2d3d c0ce 053d bafe 053e 4cbb 57ba
00000010: ec5f 343e e3a0 6cbd 5dcc 2b3d 51de e83a
00000020: e4f0 c3bd 4f1a 2b3d c8ac 44bd 4916 973c
00000030: 1bf9 263d 59a2 2abd 7ec5 a9bc 247b 4e3d
00000040: 3826 c03b b458 8ebd bad7 3e3d 8d87 eb3d
00000050: 7578 dfbd 0059 57bd d2f5 e1bd 2163 a3bc
00000060: 3a19 cebd cf6d a73d a6d5 9e3d 3812 243d
00000070: 74ee 3dbd 0ff9 093e cd66 1abe 2b5a 96bd
00000080: 2520 edbc 62b0 693d 8bb1 a1bd edbc 2b3c
00000090: 7bb7 49be 5ea9 d13d 8a83 c0bd 90eb adbd
000000a0: b9bf 2fbd 138b f9bd edc1 96bd 71ad 003e
000000b0: 7188 e5bd 58cf 5fbd 6512 333c c8ce 23be
000000c0: d23e ddbd e259 d43b 4894 1abd 8572 b13d
000000d0: 4d68 fabd d98e d2bd b72c bbbc 3f60 7cbb
000000e0: eb55 fcbd 1980 48bc f1d5 48be ae04 e3bd
000000f0: 8271 973d 9ca1 503d 6bc7 413c ac24 9ebd
00000100: fb86 3ebd 9fdb 853c 3ffd 6abd d503 95bd
00000110: 58f3 48be e46e 58bd 60de ecbd f98c 82bd
00000120: 7f4f 25bd 9167 17be a7a2 f23d d851 1c3d
00000130: 3a34 2cbe 7ea4 8ebd 805b 603d 639a 0a3d
00000140: f252 3b3a 04ee 023c 1338 00be ed8a 883d
00000150: fc0d 153d b93b 183e 2c4a 24bc b680 1e3c
00000160: 46ae 1b3e 644d 4f3d 00e5 93bd 1968 763d
00000170: 6f6a 16be 7102 3bbe 5895 3d3d 4c48 2d3c
00000180: 4bd8 24bd fb12 6fbc c011 653d d2d3 4e3d
00000190: 7490 ae3d 6e5b 46bd 7a05 6d3d 505e bc3b
000001a0: 498b f3bd 6a00 cebd c12a 1abd 67df 4a3c
000001b0: da5e 123e 55ed f039 4cae f7bd 1d19 ba3d
000001c0: 1af4 ce3d 4339 b6bd 85e9 dbbc 1686 53be
000001d0: f449 503e cc8c d8bb 2ef6 af3c d86d 083e
000001e0: 0e2f 16be 08c0 05be 14c7 0f3c f329 2fbd
000001f0: d6be ca3d a38e 9bbc 26a5 12be e622 7c3e
00000200: a673 0e3e b612 4a3e fa9a 1bbd 8626 573e
00000210: 8ab9 2bbd 52f8 4a3d 35e8 8dbd 1e5d 0cbd
00000220: 04c6 d1bd 93ea 903d 1647 0dbe 1eda 143e
00000230: 8a96 ae3d e708 923b 45e3 103e 8af6 e43d
00000240: b5dc 013d 0800 76ba b411 4d3d 37b8 95bd
00000250: 0942 263c d52f c03d 0356 01be ac49 7cbd
00000260: 5da3 8b3c 641e 8bbd 3207 3c3e 506a 80be
00000270: a77b d3bd 7b78 90bd 4f6d cabd 2fcf 1dbe
00000280: 233b 6cbd 4ecc 8d3d 3d7a 25be 42b4 e2bc
00000290: 3d11 73bc acd2 463d 5f43 0cbe 4d90 febb
000002a0: e191 13be 3473 9bbc 84f6 eb3c 24dd 4b3d
000002b0: b594 2d3c 519e 8f3d e289 c5bd ab1e 82bd
000002c0: fffc 7abd d8d9 ee3c e303 eebc 12b0 85bb
000002d0: 68e4 d1bc 1f4d ae3c 94e1 0cbc eb19 4abd
000002e0: 6414 673c d6c4 d23d 1ab0 febb 9613 edbc
000002f0: 9a36 51bd 6478 313d 24c8 a63d 1da4 ecbd
00000300: dffc 60bd efde 05be 31e1 03bd f8a1 1d3e
00000310: 7571 16bd 7cec c03d 65fe efbd 1766 eebc
00000320: 2c99 d03d ef75 dfbc ffba 02bd 5490 223c
00000330: 0775 4f3e cbfe 24bd 2876 963c a94e 32bd
00000340: a89f 893d 8599 c7bc 0869 093d 8e2d 10bb
00000350: 7b2a 103d 1366 b33b d583 91bd 06cf eebd
00000360: ef7b 74bd ac46 ba3d 6d10 253d 568f 28bd
00000370: bcc9 08bd 2815 893d 2a4a 853d d7c8 e7bd
00000380: f15b 023d 518a 96bd 31ad 82be fe77 cfbd
00000390: 361a 1f3d d55f 0fbe 967d 18bc 9d81 bf3c
000003a0: 0937 0c3e d208 ecbd 933c 703c 5d2e 49be
000003b0: 62fb d53c 54e3 fdbc d6ef c53d b378 d0bd
000003c0: 06c5 a93d 704e 80bd aaa4 c4bd 41e3 cbbd
000003d0: 7d81 dabd c47c 9e3d 3a2e 5f3d 2104 083d
000003e0: 27d4 f23d 30e2 54be 6033 7bbc 2290 e9bc
000003f0: b86a e13d 77ef fe3c 0da9 6dbc 9ecb 4e3e

b_gain_food_primary f4 [7]
-0.0015930526 -0.0008137278 0.0017581695 0.0007747738 -0.00038086248 0.001736532 -0.0014818322
00000000: facd d0ba 5950 55ba 6172 e63a 311a 4b3a
00000010: 7fae c7b9 589c e33a 0a3a c2ba

W_draw_mode f4 [192, 4]
-0.059673745 0.055181123 0.017628072 -0.0866186 0.020829782 -0.05971853 -0.16230033 -0.1438188
-0.027759574 -0.011022986 0.15702656 0.07712171 -0.037179098 0.05450632 0.07609744 -0.1884415
-0.20019336 0.01680764 -0.06038575 0.019768383 0.06433992 -0.07228209 -0.011497375 0.16069853
0.059291825 -0.014010726 0.13919245 -0.17369409 0.0051496215 0.086943455 0.0029267208 0.1938947
-0.15786734 0.06390918 0.03145144 -0.20426053 0.14507183 -0.08502634 0.04097525 -0.10233792
-0.05880386 0.045125183 -0.12690383 0.07142686 -0.10205022 0.012356639 -0.04169624 0.09138
0.005691986 -0.08803954 0.048007984 -0.025853457 -0.14296252 -0.12539351 0.07155015 -0.08054733
-0.0077922917 -0.055432543 0.027500072 -0.0974514 0.12601933 -0.10060731 -0.00066884013 0.037260517
0.010823233 0.026585672 -0.11937105 -0.11982643 -0.088709064 -0.18580256 -0.041450523 -0.02966653
0.073202334 0.05243778 -0.0009984617 0.009688091 -0.002388557 -0.23335323 -0.104744725 -0.0060738907
-0.072175875 -0.01610898 0.02439759 0.07714099 0.059751414 -0.16079848 -0.0122839175 -0.10779734
-0.056337666 -0.18564445 -0.033565722 0.006805262 0.011193589 0.10209143 -0.014904645 0.034567043
-0.10398947 -0.094013706 0.10918373 0.020259088 0.033392657 -0.17437948 0.16876297 0.13054547
-0.1159766 0.04891747 -0.121075675 -0.024696294 0.018439308 -0.10100398 -0.041182496 0.08147733
0.0627239 -0.13325922 -0.048835635 -0.035658296 0.051078547 -0.060635477 0.03664084 -0.11678967
-0.06679133 0.006539291 0.03447172 -0.010092741 -0.18652125 0.14075372 0.057354655 -0.06434316
-0.0787615 -0.008149851 0.053209525 0.04158515 0.027177922 0.09372524 0.09838158 -0.09001163
-0.034295976 -0.07062132 -0.02524703 0.19793464 0.11415651 -0.05060172 -0.074007526 0.11922313
0.11509409 0.1365498 0.042144045 0.067644954 -0.04495255 -0.036414355 0.19943914 -0.011133368
0.029830923 0.12767382 0.04943769 -0.064442195 0.06879727 0.11462574 0.2484111 -0.100235164
0.08287134 0.08402702 -0.09951622 -0.17546414 0.08774239 0.2117899 0.034597144 0.060487535
-0.07293066 -0.14016262 -0.08443991 -0.07358211 -0.20571616 -0.14625698 0.029928427 0.12106392
-0.15585114 -0.05870713 -0.0506652 0.037388146 0.2002498 -0.080317855 0.20533288 0.015099016
0.24991465 -0.03964654 -0.012362027 -0.07070288 0.16611709 0.12622578 -0.18699704 0.23609495
0.17080286 0.10294158 0.15022016 0.11426918 -0.035286773 -0.07616185 -0.04026191 0.05456624
-0.02621045 -0.20137438 0.0034609623 -0.030353002 -0.0119837215 -0.03549317 -0.050104033 -0.031191997
0.11090649 0.13292713 0.2511983 0.28299272 -0.018570175 -0.026509728 -0.019225014 -0.07958441
0.0063078557 -0.043566845 0.028988937 -0.08425069 0.17665233 -0.015807118 -0.05526434 -0.036050692
0.0713717 -0.096699975 -0.124369405 -0.16285913 -0.052888136 0.13285209 -0.04487603 0.0257725
0.04090514 -0.10279034 0.0791451 0.00843972 -0.012931804 -0.08188453 -0.0781841 0.19402954
-0.14882658 0.026152248 -0.10834736 -0.005961863 0.13333194 -0.15629837 0.040921204 0.05453752
-0.063745745 -0.025656069 -0.20539095 0.040589537 0.06263285 -0.12708628 -0.085610546 -0.042256445
00000000: 756c 74bd 9a05 623d bf68 903c 1865 b1bd
00000010: 38a3 aa3c 6b9b 74bd 0f32 26be 3c45 13be
00000020: 0c68 e3bc c199 34bc 92cb 203e fdf1 9d3d
00000030: 1c49 18bd 0542 5f3d fad8 9b3d cff6 40be
00000040: 7dff 4cbe 2db0 893c 0c57 77bd 4ef1 a13c
00000050: a6c4 833d a208 94bd 7c5f 3cbc 288e 243e
00000060: fcdb 723d 3e8d 65bc 7788 0e3e dddc 31be
00000070: 28be a83b 690f b23d 3ace 3f3b 558c 463e
00000080: faa7 21be d1e2 823d 3ad3 003d ac29 51be
00000090: b68d 143e 4a22 aebd aad5 273d 8b96 d1bd
000000a0: 51dc 70bd 2fd5 383d 14f3 01be 3f48 923d
000000b0: b5ff d0bd 8073 4a3c adc9 2abd 7025 bb3d
000000c0: d783 ba3b 134e b4bd 05a4 443d a1ca d3bc
000000d0: c464 12be 2867 00be e388 923d 00f6 a4bd
000000e0: 7b56 ffbb 3c0d 63bd d547 e13c 9994 c7bd
000000f0: 360b 013e 350b cebd 1a55 2fba 7c9e 183d
00000100: ee53 313c 32ca d93c cf78 f4bd 8f67 f5bd
00000110: 19ad b5bd 0743 3ebe 06c8 29bd 3907 f3bc
00000120: 1beb 953d ffc8 563d d1de 82ba cdba 1e3c
00000130: 5689 1cbb 26f4 6ebe 6784 d6bd 7d07 c7bb
00000140: f2d0 93bd fbf6 83bc 74dd c73c 18fc 9d3d
00000150: e6bd 743d 5ba8 24be 7c42 49bc dac4 dcbd
00000160: 53c2 66bd 9419 3ebe 367c 09bd adfe de3b
00000170: 5165 373c 5015 d13d 9d32 74bc 2c96 0d3d
00000180: 6ef8 d4bd 428a c0bd b89b df3d 63f6 a53c
00000190: bdc6 083d 8990 32be 33d0 2c3e b6ad 053e
000001a0: 2485 edbd af5d 483d 86f6 f7bd e24f cabc
000001b0: 080e 973c 2ddb cebd faae 28bd 96dd a63d
000001c0: 6375 803d 1b75 08be e007 48bd 6f0e 12bd
000001d0: bd37 513d e85c 78bd b514 163d 6c2f efbd
000001e0: e5c9 88bd 8c47 d63b 3832 0d3d 065c 25bc
000001f0: 6dff 3ebe be21 103e b7ec 6a3d 59c6 83bd
00000200: b64d a1bd f486 05bc 3bf2 593d 3155 2a3d
00000210: 3ca4 de3c 05f3 bf3d 487c c93d 0458 b8bd
00000220: f079 0cbd e9a1 90bd dcd2 cebc 61af 4a3e
00000230: e3ca e93d c043 4fbd 4291 97bd 422b f43d
00000240: 73b6 eb3d b6d3 0b3e 3c9f 2c3d 7089 8a3d
00000250: 2a20 38bd 3827 15bd c639 4c3e bb68 36bc
00000260: fb5f f43c edbc 023e 2d7f 4a3d 45fa 83bd
00000270: 95e5 8c3d e6c0 ea3d 7b5f 7e3e 1848 cdbd
00000280: 73b8 a93d 5c16 ac3d 29cf cbbd dfac 33be
00000290: 48b2 b33d 74df 583e bcb5 0d3d c7c1 773d
000002a0: ab5c 95bd ca86 0fbe d5ee acbd 38b2 96bd
000002b0: 42a7 52be 64c4 15be 762c f53c 5cf0 f73d
000002c0: 7197 1fbe e376 70bd 5086 4fbd 5024 193d
000002d0: 490e 4d3e b07d a4bd c842 523e dd61 773c
000002e0: a0e9 7f3e 6964 22bd 198a 4abc accc 90bd
000002f0: 991a 2a3e 5541 013e 277c 3fbe e0c2 713e
00000300: f2e6 2e3e 09d3 d23d 50d3 193e f605 ea3d
00000310: dd88 10bd befa 9bbd ace9 24bd da80 5f3d
00000320: 4cb7 d6bc 1635 4ebe 50d1 623b dca6 f8bc
00000330: 5f57 44bc 4961 11bd e339 4dbd 5c86 ffbc
00000340: f122 e33d 0d1e 083e 109d 803e 6ce4 903e
00000350: 7b20 98bc ee2a d9bc c77d 9dbc 27fd a2bd
00000360: 21b2 ce3b 2673 32bd 357a ed3c a08b acbd
00000370: 59e4 343e ee7d 81bc dc5c 62bd e4a9 13bd
00000380: 532b 923d a30a c6bd 63b5 febd 8bc4 26be
00000390: 3ba1 58bd 610a 083e eecf 37bd da20 d33c
000003a0: 268c 273d be83 d2bd d416 a23d c046 0a3c
000003b0: ebdf 53bc 14b3 a7bd fc1e a0bd aeaf 463e
000003c0: ff65 18be 3d3d d63c 38e5 ddbd bb5b c3bb
000003d0: 2b88 083e ae0c 20be fe9c 273d bc62 5f3d
000003e0: 218d 82bd ad2c d2bc 0152 52be 3741 263d
000003f0: a745 803d e822 02be 9554 afbd 1815 2dbd

b_draw_mode f4 [4]
-0.0054846867 0.012981086 -0.0038023225 -0.003694077
00000000: e3b8 b3bb 9fae 543c 6330 79bb 5418 72bb

W_lay_eggs_bin f4 [192, 11]
-0.20781748 0.059728563 -0.16110964 0.049611777 -0.14055692 0.07072358 0.020426681 -0.085604034
0.2228094 0.12270803 0.09812396 0.21508819 -0.027666358 -0.019168498 0.19231734 0.048262745
0.066273324 -0.112273954 -0.061607856 -0.12524436 0.22482777 -0.06125312 -0.12749875 0.062636875
-0.068550415 -0.12656763 -0.08951142 -0.030403916 0.14255998 -0.03188423 0.05249963 0.05622005
-0.1560936 -0.03268643 0.116666116 0.09849132 0.0073736385 -0.15617101 -0.03174119 0.1315192
0.07866064 0.10492013 -0.0067495652 0.12902677 0.082285196 0.07775939 0.102441445 0.19921516
0.13113967 -0.09948666 0.025758037 -0.09089819 -0.10669313 -0.0393099 -0.14022379 -0.1144293
0.09879338 -0.16462031 0.03216728 -0.08483845 0.061554324 0.020549668 -0.11032958 -0.07649637
-0.059092507 0.17235176 -0.018871566 0.08406611 -0.082332626 0.00095662044 0.055768114 -0.29409683
0.22245972 0.21121648 0.033641145 -0.14313073 0.01570719 -0.034232892 -0.108163685 -0.053874597
0.033494357 0.11658175 0.10067575 -0.004256385 -0.095598094 0.09621831 0.099095635 0.10885858
-0.13117044 -0.08604395 -0.115210414 -0.016496774 0.013809386 -0.02354431 -0.027182275 0.24446449
0.14157228 -0.022130994 0.07589646 0.15995419 -0.18662137 0.060791414 -0.11099483 -0.18010129
-0.042350575 -0.08019042 0.092852704 -0.1061891 -0.04613799 0.01790443 0.122801274 -0.05054878
-0.010728931 0.039505985 -0.12573169 -0.048581425 0.06280588 -0.09973863 0.1705742 0.030159488
-0.12117205 -0.106592 -0.0026888868 -0.011562337 0.18786351 -0.07076925 0.056086455 0.1527984
0.011233707 0.072084844 0.0075258627 0.06963207 -0.12216889 -0.046211418 -0.009067034 -0.17075266
-0.07364522 0.20223849 -0.090337045 0.083316945 0.012829208 0.15742898 0.13223192 0.119356945
-0.080468185 0.12159234 -0.051333793 -0.002353359 0.058512397 -0.013557593 -0.14527102 0.17609347
0.007778255 0.07797539 0.07937504 0.010693722 0.06478928 -0.06237619 -0.023114165 -0.0826625
-0.039733134 -0.027889978 -0.1459267 0.08304968 0.06650074 -0.064888485 0.09803863 -0.2329611
0.101279564 -0.18118615 -0.0556521 0.032987345 0.201369 -0.10225026 -0.17756495 0.17411824
-0.11076767 0.10239022 0.16430601 0.061000235 0.07172237 -0.096249424 -0.10630761 -0.11325065
-0.025208345 -0.05311928 -0.03210623 0.01211111 0.054920457 -0.06414873 0.0107304 -0.105366945
0.17734356 -0.22423123 0.00897331 -0.11875349 0.12766884 -0.049926206 -0.23903719 -0.14351824
0.032560628 -0.006750475 -0.010228045 0.13759497 -0.043070275 -0.12267553 -0.013888462 0.009104357
-0.15599184 0.030797316 0.021703769 0.13920434 0.11603481 -0.16325586 0.040776704 -0.23193096
0.07313273 -0.18508437 -0.086215116 0.028369416 0.04470238 -0.16992341 0.044998225 -0.05190219
-0.21026732 0.14643799 0.035535924 0.14515336 -0.16975217 0.104553804 -0.055321045 -0.034466535
-0.048567668 -0.06771262 0.10339137 -0.080998175 -0.08390296 0.0021805875 0.12457853 -0.0065345145
0.031573564 0.067683734 0.11673676 -0.0053983913 0.08846279 0.020029647 0.025799636 -0.08255593
0.12236853 -0.003009169 -0.08066542 -0.033532403 -0.20047931 -0.020201076 0.09834348 -0.10359264
00000000: 1bce 54be f0a5 743d edf9 24be b835 4b3d
00000010: 27ee 0fbe 86d7 903d db55 a73c 2b51 afbd
00000020: 2628 643e 594e fb3d 37f5 c83d 1440 5c3e
00000030: 8fa4 e2bc 4107 9dbc d6ee 443e 28af 453d
00000040: 4fba 873d e3ef e5bd 8558 7cbd 0f40 00be
00000050: 4039 663e 8de4 7abd 088f 02be c347 803d
00000060: 2964 8cbd f29a 01be c351 b7bd a211 f9bc
00000070: 3efb 113e 0a99 02bd da09 573d ff46 663d
00000080: 00d7 1fbe 35e2 05bd a5ee ee3d d1b5 c93d
00000090: 909e f13b 4beb 1fbe 0d03 02bd f8ac 063e
000000a0: d418 a13d 5de0 d63d 752b ddbb 981f 043e
000000b0: 2485 a83d 5140 9f3d d2cc d13d 0fff 4b3e
000000c0: 7a49 063e a9bf cbbd 8502 d33c d528 babd
000000d0: ee81 dabd 6b03 21bd d396 0fbe e959 eabd
000000e0: 2f54 ca3d 3a92 28be d6c1 033d c8bf adbd
000000f0: 6320 7c3d c757 a83c 7af4 e1bd 21aa 9cbd
00000100: fc0a 72bd fb7c 303e 8b98 9abc da2a ac3d
00000110: 029e a8bd b6c5 7a3a 1b6d 643d dc93 96be
00000120: 7bcc 633e 2249 583e 4ccb 093d dd90 12be
00000130: 5dac 803c ca37 0cbd ec84 ddbd 9cab 5cbd
00000140: 6131 093d 6ac2 ee3d 162f ce3d 2579 8bbb
00000150: efc8 c3bd 1b0e c53d a7f2 ca3d 3ff1 de3d
00000160: 8b51 06be cf37 b0bd 70f3 ebbd 3e24 87bc
00000170: c340 623c ffdf c0bc 5dad debc e654 7a3e
00000180: 53f8 103e 0f4c b5bc 9a6f 9b3d 08cb 233e
00000190: ac19 3fbe 6b00 793d 4251 e3bd 796c 38be
000001a0: cc77 2dbd e03a a4bd 8f29 be3d ac79 d9bd
000001b0: 30fb 3cbd 50ac 923c 3c7f fb3d 3d0c 4fbd
000001c0: 66c8 2fbc 07d1 213d cfbf 00be 51fd 46bd
000001d0: 5fa0 803d c443 ccbd 01ab 2e3e 0811 f73c
000001e0: 0d29 f8bd e84c dabd 0938 30bb f56f 3dbc
000001f0: 4b5f 403e 78ef 90bd e9ba 653d 2f77 1c3e
00000200: 950d 383c 38a1 933d 839b f63b 429b 8e3d
00000210: af33 fabd 2f48 3dbd e68d 14bc c9d9 2ebe
00000220: 4ed3 96bd 9b17 4f3e a102 b9bd 13a2 aa3d
00000230: 9931 523c 1035 213e ce67 073e 6a71 f43d
00000240: 81cc a4bd 6805 f93d 6243 52bd d03a 1abb
00000250: b2aa 6f3d ab20 5ebc edc1 14be d951 343e
00000260: bbe0 fe3b 90b1 9f3d 628f a23d b934 2f3c
00000270: 3eb0 843d 2d7e 7fbd eb59 bdbc f54a a9bd
00000280: 36bf 22bd 8679 e4bc cf6d 15be f315 aa3d
00000290: 8a31 883d 41e4 84bd 7ac8 c83d 5b8d 6ebe
000002a0: a96b cf3d dd88 39be 75f3 63bd bd1d 073d
000002b0: ad33 4e3e 9668 d1bd 96d3 35be 0d4c 323e
000002c0: 29da e2bd f7b1 d13d d63f 283e 62db 793d
000002d0: 2ee3 923d 6b1e c5bd ceb7 d9bd f5ef e7bd
000002e0: bb81 cebc 9a93 59bd d281 03bd ad6d 463c
000002f0: 46f4 603d 6960 83bd 8fce 2f3c a0ca d7bd
00000300: 8d99 353e df9c 65be ca04 133c 0835 f3bd
00000310: 9fbb 023e 6c7f 4cbd 2ac6 74be 72f6 12be
00000320: 4b5e 053d 1733 ddbb 8893 27bc b2e5 0c3e
00000330: 756a 30bd 4f3d fbbd 6f8c 63bc 712a 153c
00000340: 53bc 1fbe a74a fc3c 1acc b13c 958b 0e3e
00000350: a9a3 ed3d 8b2c 27be 7905 273d 4f7f 6dbe
00000360: 9dc6 953d c286 3dbe 8d91 b0bd fa66 e83c
00000370: d819 373d 6700 2ebe 0f50 383d 6497 54bd
00000380: 5150 57be d7f3 153e 1e8e 113d 15a3 143e
00000390: 83d3 2dbe 4e20 d63d 5298 62bd c82c 0dbd
000003a0: e4ee 46bd eaac 8abd dbbe d33d 5fe2 a5bd
000003b0: 51d5 abbd 30e8 0e3b 0723 ff3d 7b1f d6bb
000003c0: 4853 013d c59d 8a3d af13 ef3d fde4 b0bb
000003d0: fb2b b53d 3715 a43c c259 d33c 1513 a9bd
000003e0: 5a9c fa3d 7a35 45bb e933 a5bd 4659 09bd
000003f0: 734a 4dbe ba7c a5bc 4e68 c93d 6128 d4bd

b_lay_eggs_bin f4 [11]
-0.00048714477 -0.00034275852 0.0020962458 0.000547319 9.7414e-05 -0.00026646655 -0.0004286151 -0.00028477298
-0.00020858264 -0.00027812805 -0.00044451028
00000000: 7767 ffb9 45b4 b3b9 2b61 093b f579 0f3a
00000010: be4a cc38 89b4 8bb9 bfb7 e0b9 954d 95b9
00000020: fab6 5ab9 b7d1 91b9 290d e9b9

W_play_cost_bin f4 [192, 7]
0.32335776 -0.06102669 -0.08835948 -0.1231554 -0.048218653 -0.035008293 -0.037186064 -0.086758815
-0.073176906 -0.004400112 0.014448875 0.080155246 -0.10932687 -0.0075011966 0.0809307 -0.13460115
-0.10428201 -0.011203545 0.10070247 -0.089523636 -0.0069593946 -0.05508191 -0.057784665 0.039351832
0.08778394 0.14049277 0.034912705 0.062363032 -0.093823016 -0.25851467 0.05417426 0.11114563
-0.025684167 0.27981412 0.04112275 -0.004416652 0.14943908 0.09381527 -0.13451596 0.09641618
-0.08802062 -0.12697072 -0.21893291 -0.038894527 0.03673392 0.10995708 0.14991318 0.015342401
0.039520673 0.0060329144 -0.108703755 0.09865528 -0.049445625 0.08847861 -0.065856494 -0.001496945
-0.17703919 -0.08873889 0.0033549916 0.0953861 0.07542852 0.11172907 0.09519659 -0.010756612
0.02176216 -0.015337874 0.20661575 -0.026855819 0.014831426 -0.028442174 0.14072217 0.1307845
-0.23028009 0.09955568 0.008183089 -0.0662171 0.025656393 0.13092344 0.13126259 0.014214599
-0.059783902 0.036549043 0.06936499 -0.039584674 0.025032189 -0.061944477 0.11737172 0.14831169
-0.08747229 0.14013468 0.028846022 -0.08229844 0.08109072 -0.065441646 0.03201434 0.014682269
-0.044318143 0.025161343 0.02746751 -0.051333707 -0.23017712 -0.029409181 0.050622474 0.06791731
0.03384344 -0.12888618 -0.22291452 0.046039924 0.1532416 -0.10087944 -0.14397448 -0.028381588
0.12182465 0.22518763 -0.05447151 -0.09386845 -0.030903129 0.014823741 -0.06699794 0.1408999
0.013393652 -0.036587123 -0.1450646 -0.019685328 -0.006456852 0.14362824 0.11888234 0.08393657
0.2135267 -0.09965799 0.062059727 -0.20684658 -0.020485397 0.023893736 -0.15023066 -0.022560965
-0.06192388 0.096750446 0.22850424 0.00538436 -0.14020802 0.03054721 -0.052704163 0.07055621
-0.13596255 -0.16279432 0.0074432604 -0.03580922 -0.05491006 -0.10067489 -0.16438773 0.026304908
0.10430196 0.08513007 -0.061231796 -0.07321534 -0.0965374 0.12092777 0.10715603 0.07675836
-0.1052806 -0.033184104 0.24191399 -0.011247617 -0.0476292 -0.02921318 0.06783246 0.26179424
-0.06657375 0.11378607 0.01750658 0.13374144 0.20755751 0.041355304 -0.055354778 0.09664472
-0.18177775 -0.018577205 0.073216036 0.015663736 0.047815423 0.11511471 -0.13276693 0.05124213
-0.1457619 -0.04874542 0.09522105 -0.018503232 -0.011020361 0.014359573 -0.027023192 0.0006507183
-0.06950027 0.08087141 0.028643498 0.0057819546 -0.07663708 0.1756078 -0.18722424 -0.0818998
0.008206824 -0.041590452 -0.13464315 0.019371752 0.098562084 -0.046133056 0.052855175 0.017722718
-0.023018055 0.02976807 0.0777453 -0.1451162 0.07513992 0.0391758 -0.102816865 0.07940875
-0.004439357 0.06927719 0.0044642785 -0.124681406 -0.15869033 -0.00588818 -0.0045468733 -0.13489132
0.04542781 -0.0005363132 -0.04313644 0.15052086 0.29162782 -0.10683411 0.13648282 -0.039052244
-0.04893236 0.102132685 0.050116662 0.024268035 0.0132727185 -0.05642011 -0.14128456 0.019757478
0.06741825 0.18129161 0.067900375 0.08899946 0.01796148 -0.045721233 -0.018976301 -0.037651952
-0.02222992 -0.03468614 0.094223656 -0.074836016 -0.08622509 0.121810146 0.15554571 0.077299125
00000000: 268f a53e 1ff7 79bd d1f5 b4bd e638 fcbd
00000010: ec80 45bd db64 0fbd 6a50 18bd 9bae b1bd
00000020: c6dd 95bd d12e 90bb f9ba 6c3c 6f28 a43d
00000030: c4e6 dfbd 99cc f5bb ffbe a53d e2d4 09be
00000040: ce91 d5bd 138f 37bc 193d ce3d 2b58 b7bd
00000050: a20b e4bb 929d 61bd 9daf 6cbd 632f 213d
00000060: 11c8 b33d 56dd 0f3e a000 0f3d 6170 7f3d
00000070: 4826 c0bd 095c 84be d4e5 5d3d 52a0 e33d
00000080: 9a67 d2bc cc43 8f3e 5470 283d 90b9 90bb
00000090: 8f06 193e 3822 c03d 8dbe 09be d975 c53d
000000a0: 2844 b4bd 9d04 02be f32f 60be de4f 1fbd
000000b0: 4f76 163d 2d31 e13d d782 193e b25e 7b3c
000000c0: 6ee0 213d c1af c53b 13a0 debd c80b ca3d
000000d0: 7f87 4abd 4634 b53d c5df 86bd 2435 c4ba
000000e0: c349 35be bcbc b5bd 6bdf 5b3b ca59 c33d
000000f0: 457a 9a3d 36d2 e43d 6ef6 c23d 803c 30bc
00000100: 8f46 b23c b54b 7bbc 1493 533e bc00 dcbc
00000110: 82ff 723c 90ff e8bc 7919 103e 5fec 053e
00000120: 8bce 6bbe d9e3 cb3d 5d12 063c d59c 87bd
00000130: 5b2d d23c cb10 063e b369 063e 59e4 683c
00000140: f7df 74bd 73b4 153d 3b0f 8e3d 8a23 22bd
00000150: 4e10 cd3c 7eb9 7dbd 9660 f03d 05df 173e
00000160: ac24 b3bd 777f 0f3e 7e4e ec3c 168c a8bd
00000170: e412 a63d 4506 86bd 7821 033d e68d 703c
00000180: f186 35bd 291f ce3c 8b03 e13c 4b43 52bd
00000190: 8db3 6bbe 86eb f0bc 8359 4f3d 3b18 8b3d
000001a0: 6b9f 0a3d bdfa 03be b443 64be 5c94 3c3d
000001b0: 5eeb 1c3e e199 cebd 0c6e 13be 8180 e8bc
000001c0: 347f f93d 9697 663e 851d 5fbd 1a3e c0bd
000001d0: 8f28 fdbc 47df 723c 3736 89bd 1048 103e
000001e0: 0c71 5b3c 61dc 15bd d18b 14be 2043 a1bc
000001f0: 0094 d3bb 4813 133e 9678 f33d f0e6 ab3d
00000200: bea6 5a3e 7d19 ccbd 5732 7e3d 97cf 53be
00000210: fed0 a7bc ccbc c33c 11d6 19be c6d1 b8bc
00000220: e5a3 7dbd 1925 c63d 04fd 693e 496f b03b
00000230: b192 0fbe 243e fa3c 52e0 57bd c67f 903d
00000240: c439 0bbe 8eb3 26be 98e6 f33b b0ac 12bd
00000250: 5fe9 60bd a32e cebd 4255 28be 647d d73c
00000260: 449c d53d ad58 ae3d 31ce 7abd edf1 95bd
00000270: 66b5 c5bd fba8 f73d 9f74 db3d 7d33 9d3d
00000280: 5b9d d7bd 0eec 07bd 4db8 773e ed47 38bc
00000290: d616 43bd 7b50 efbc bfeb 8a3d e509 863e
000002a0: d157 88bd ac08 e93d f669 8f3c 84f3 083e
000002b0: f589 543e 2e64 293d b1bb 62bd abed c53d
000002c0: f223 3abe 392f 98bc 4af2 953d 3c51 803c
000002d0: 1bda 433d 43c1 eb3d 0ef4 07be 45e3 513d
000002e0: 9c42 15be 47a9 47bd 4103 c33d 1794 97bc
000002f0: bf8e 34bc 6a44 6b3c be5f ddbc f794 2a3a
00000300: 2856 8ebd e99f a53d c5a5 ea3c 8d76 bd3b
00000310: e7f3 9cbd 88d2 333e b6b7 3fbe 15bb a7bd
00000320: ea75 063c c05a 2abd e5df 09be 82b1 9e3c
00000330: ebda c93d 04f6 3cbd ab7e 583d 3c2f 913c
00000340: 5c90 bcbc 2bdc f33c ee38 9f3d 5799 14be
00000350: f5e2 993d ce76 203d a691 d2bd 0ea1 a23d
00000360: 0778 91bb 33e1 8d3d 1549 923b f758 ffbd
00000370: b87f 22be a2f1 c0bb f0fd 94bb f320 0abe
00000380: 8312 3a3d 5f97 0cba d6af 30bd 2422 1a3e
00000390: 3e50 953e d8cb dabd 27c2 0b3e 3ff5 1fbd
000003a0: 4c6d 48bd f12a d13d 2147 4d3d c2cd c63c
000003b0: d175 593c c618 67bd e6ac 10be 6fda a13c
000003c0: 9412 8a3d 82a4 393e 5a0f 8b3d 5945 b63d
000003d0: f423 933c 3046 3bbd 3074 9bbc ef38 1abd
000003e0: 851b b6bc 0e13 0ebd 55f8 c03d a043 99bd
000003f0: c896 b0bd 9977 f93d 6047 1f3e 014f 9e3d

b_play_cost_bin f4 [7]
-0.0011777112 0.0015141383 0.002370748 0.00025013843 -0.0012908943 -0.0010415567 -0.00062486203
00000000: 6e5d 9aba 0d76 c63a 8d5e 1b3b 0325 8339
00000010: 3a33 a9ba d884 88ba c8cd 23ba
