reports/ml/auto_improve_factorized_upgrade_smoke/iter_001/factorized_model.npz (npz, 71798 bytes, 17 tensors)

W1 f4 [48, 192]
000000 5c 88 cf 3e af b4 07 bf 79 1d 5c be a6 90 7b 3e
       0.4053372 -0.53010076 -0.21495618 0.24566898
000010 86 a1 03 be 56 01 37 3e e5 f5 25 3e 1d 1d 47 3e
       -0.12854585 0.17871603 0.16207083 0.194447
000020 75 48 87 3c 86 f2 2d bd 87 0b 14 3f 47 a2 21 bd
       0.016514042 -0.042467616 0.5783009 -0.0394614
000030 16 54 b4 bd d5 f5 8c be 0b c3 ab 3d 60 99 3e 3e
       -0.088051006 -0.27531305 0.08386811 0.18613195
000040 35 b2 21 be ec 1b 66 bd fc 01 7f be b1 09 89 be
       -0.15790637 -0.056178972 -0.249031 -0.26765206
000050 d4 0e 78 3e 47 10 1d be da a8 0b 3e 40 95 ac 3c
       0.24224406 -0.1533824 0.1363863 0.021067262
000060 9d 76 2f 3e 6d 01 03 be 27 da 43 3e ba d6 72 3e
       0.17135091 -0.12793513 0.19126187 0.23714724
000070 ba 6f 8e 3d 38 bb 55 be 95 66 fb bc 2a 0a 03 3c
       0.06954904 -0.208722 -0.030688563 0.007998029
000080 38 83 43 be 31 87 3f 3e 64 ab 95 3e ea 15 ac be
       -0.19093025 0.18703915 0.29232323 -0.3361047
000090 b1 c6 66 bd 7c 3f 84 bd 52 7d 6a 3e 2d 33 7a be
       -0.05634183 -0.06457421 0.22899368 -0.24433585
0000a0 a7 31 4d 3e dc 21 c9 bd d1 03 61 be d4 0e a8 be
       0.20038472 -0.09820911 -0.21974112 -0.32823813
0000b0 f3 63 1f 3e 69 26 c2 be c4 ce 24 3e 83 c3 71 be
       0.15565471 -0.3791993 0.160945 -0.23609738
0000c0 98 e4 f2 3d ee d3 a4 be 8e 6f 8d 3e 0b 09 bc bd
       0.11860007 -0.3219294 0.27624172 -0.09181412
0000d0 82 aa e7 3d 6e 36 a4 bc 3d 43 e1 bd fc 31 2f 3d
       0.11311819 -0.020045485 -0.10999153 0.04277228
0000e0 64 4a 82 3e e1 d4 2e 3e 51 7f 2a be f0 41 67 be
       0.2544738 0.17073394 -0.1665013 -0.22583747
0000f0 ea 77 18 3e fa 6b a1 3d 29 6f 13 3d f7 5d 16 bc
       0.14889494 0.07881923 0.035994682 -0.009177676
000100 5c 3b 95 be 1b 61 c4 bd 6e 62 71 bd 51 02 3a be
       -0.2914685 -0.09588834 -0.05893176 -0.18164946
000110 6e 0d 9f be 4e fa 72 be 3d 26 ca bd 89 59 8a bd
       -0.31064934 -0.23728296 -0.098705746 -0.06755359
000120 2b 63 08 bc 47 cc 7b be a3 cb 35 3d a5 5a f4 3d
       -0.008324425 -0.24589644 0.044383656 0.119313516
000130 7f 90 3d be fa 9f 87 be 4c 97 a0 be 39 47 86 be
       -0.18512152 -0.2648924 -0.3136543 -0.26226214
000140 2e ad 5c 3e 8a 34 65 3e 79 83 41 3d 1b c6 a4 bc
       0.21550438 0.22383323 0.047244523 -0.020113995
000150 a6 01 21 be 77 7e a8 3d bf 6c 94 be 93 1e 11 bc
       -0.15723285 0.08227246 -0.28989217 -0.008857387
000160 3c a7 94 3b 0b ff 42 be f4 14 dd bd ba 08 8b bb
       0.0045365375 -0.19042604 -0.10795012 -0.0042429836
000170 32 7f dc 3b 1a bb 8b 3e 3d 09 97 bc 97 e6 4a bd
       0.00672903 0.27291185 -0.018437022 -0.049536314
000180 5b c6 c6 bd 37 4f d3 bd c0 9a 49 bd 04 07 1a bd
       -0.09705802 -0.103178434 -0.049219847 -0.037604347
000190 0e 90 23 3e 94 ac cb 3c 2b b7 0c be 3d 93 f4 bd
       0.15972921 0.024862565 -0.13741748 -0.11942146
0001a0 de 06 00 3e b5 2c 9d 3e c2 85 8e ba 5f bb 95 be
       0.1250262 0.3069817 -0.0010873603 -0.29244515
0001b0 18 9b f8 bd 60 21 cc 3d 49 fd c1 bd bd b1 00 be
       -0.12138957 0.09967303 -0.094721384 -0.12567802
0001c0 95 2d 31 3e 1d a4 73 bc f1 9e fc 3d 91 f9 fb bd
       0.17302544 -0.014870671 0.12335003 -0.123034604
0001d0 69 05 49 be bc 63 76 be 29 00 bc be 28 d4 45 be
       -0.1963097 -0.24061483 -0.36718872 -0.19319212
0001e0 ee 10 df 3d 10 5c 80 3d 34 ab 31 be ad 9c c2 3d
       0.10891901 0.062675595 -0.17350465 0.0950254
0001f0 72 70 60 bd 57 ae 50 be 8e 13 65 3d 12 f9 10 be
       -0.054794736 -0.20379005 0.055926852 -0.14157513
000200 a2 37 94 3e 2a e1 60 3e a6 23 5f be 02 ce e8 3d
       0.28948694 0.21960893 -0.21790943 0.11367418
000210 90 3e 66 3e 13 bf 10 3b 3e d8 7e 3d c8 23 11 3e
       0.22484803 0.0022086545 0.062217943 0.14173806
000220 56 a2 86 3d 9f 52 58 3d 8c 18 c8 3d c0 ab f6 bd
       0.06573932 0.05281317 0.09770307 -0.120444775
000230 d4 f4 b5 bc 13 f7 0e bc 4b ee a3 3d b7 1a 72 3e
       -0.02221147 -0.008725899 0.08004435 0.23643003
000240 b3 32 f7 3d a8 3e 59 be 6e 13 7c 3e 82 d6 00 bc
       0.12070217 -0.21215308 0.24616787 -0.007863643
000250 b5 64 69 be 73 5e c6 bd 16 6a d8 3d ab 98 2a be
       -0.22792323 -0.096859835 0.10567109 -0.166598
000260 db 8c f4 be bb 08 09 bd b2 25 85 be ed ef 26 be
       -0.47763714 -0.03345559 -0.26005322 -0.16302462
000270 83 27 48 be e2 39 9c 3d 9b 29 11 be e5 ad ce 3c
       -0.19546323 0.07628228 -0.14176027 0.025229404
000280 1a 60 2b 3a 9e 4b 95 be 2e 07 61 be 16 95 e1 bd
       0.00065374526 -0.29159254 -0.21975395 -0.11014764
000290 8a 4d 5b bd 58 b2 fc 3d 84 77 29 3e 9e 39 ac 3d
       -0.053540744 0.12338704 0.16549498 0.08409427
0002a0 fd 25 23 3d ee 1f ce bd f3 82 75 be 47 d2 66 be
       0.03983115 -0.10064684 -0.23975734 -0.22541152
0002b0 73 05 15 bd cb 69 4f be ec 0f a5 3e c4 cb 40 3e
       -0.03638215 -0.202552 0.3223871 0.1882773
0002c0 7c 36 18 3e 68 f7 aa 3d 23 20 c3 3d a7 fe 89 bd
       0.14864534 0.0834797 0.09527614 -0.06738024
0002d0 43 c0 60 3e 74 11 e5 3e ea b5 2c bd 4a 2f 5b 3e
       0.21948342 0.44739878 -0.042165674 0.21404758
0002e0 9a 04 aa be d9 c1 99 be ad 2f 04 be f9 02 0b be
       -0.33206636 -0.30030707 -0.12908812 -0.13575353
0002f0 61 9b 8a be e2 ac 8b 3e 17 2b a1 3e 5a dd 9a 3e
       -0.2707167 0.27280337 0.31478187 0.30247003
000300 16 ea 4e 3d ac d6 b6 3e e4 e5 da be 68 79 b1 bd
       0.05051621 0.35710657 -0.42753518 -0.086657345
000310 46 a0 43 bd 47 77 2f 3e 1b 93 78 3d d5 de b8 3d
       -0.04776027 0.17135344 0.060687166 0.09026877
000320 8c aa 58 3d 54 e3 0d be f6 79 75 3e c5 a0 24 3d
       0.05289702 -0.1385625 0.23972306 0.040192384
000330 ab a9 32 3e 94 7f b1 3d 1f 01 79 be a5 03 48 be
       0.17447536 0.08666912 -0.24316834 -0.1953264
000340 3f d9 1d 3e b6 a2 18 bd 6b 0a 4f be 77 b5 fb 3d
       0.15414904 -0.03726455 -0.20218818 0.12290471
000350 88 3e 14 3e 70 8f 32 bd 01 81 99 3d 9e 19 18 be
       0.14476979 -0.043593824 0.07495309 -0.14853522
000360 31 b5 e7 3d 05 d6 42 3e 18 02 34 3c 0a 78 82 be
       0.113138564 0.19026954 0.010986827 -0.25482208
000370 70 9d 44 3e 79 04 ec 3e 34 60 52 be 73 7a f7 bd
       0.19200683 0.46097162 -0.20544511 -0.12083902
000380 7d 91 88 bc b9 f6 03 3e 24 56 70 be 74 e3 d2 bc
       -0.016670937 0.12887086 -0.2347036 -0.025743224
000390 c4 5f 1a 3d bd ba 46 3e 8e c8 1a bd 76 00 1f be
       0.037688985 0.19407173 -0.03778892 -0.1552752
0003a0 61 c7 57 be 2e 81 9e 3e 68 9a 8b be 4e c0 d2 3d
       -0.21072151 0.3095793 -0.2726624 0.102905855
0003b0 b2 dd 81 be bf b7 66 3c 3b 80 23 3e 71 17 c7 3e
       -0.25364453 0.014081894 0.15966885 0.38885072
0003c0 05 05 ce be 02 76 6f 3d e4 76 42 3e 2a 4e 70 bd
       -0.40238205 0.05846215 0.18990666 -0.058668293
0003d0 05 24 97 3e ed bc da 3c 06 6d 16 3e 0b ae e5 3c
       0.29519668 0.026701415 0.14690027 0.028037092
0003e0 16 97 ea be 2e f7 77 bc 70 4b cf 3e 88 e5 cc be
       -0.45818394 -0.015134616 0.40487242 -0.40018868
0003f0 86 f2 8c 3e 1e 56 2d bc d6 ae 6c bd 1c b0 8d bd
       0.2752878 -0.010579614 -0.057783924 -0.06918356

b1 f4 [192]
000000 0e 61 64 b7 20 d3 8f 37 78 47 e8 b7 a7 ec 80 38
       -1.3612456e-05 1.7145241e-05 -2.7689835e-05 6.1475956e-05
000010 fa 3a d9 36 41 9f 10 b7 38 c6 a0 b9 49 fc 23 38
       6.4739697e-06 -8.620148e-06 -0.00030665263 3.9097187e-05
000020 da bc 38 38 2d aa 4f b9 82 9c 88 36 5a 39 37 35
       4.40449e-05 -0.00019804454 4.0713358e-06 6.825627e-07
000030 09 76 8f b8 cb 8e 83 b8 1d 6a 76 b8 0a d6 80 b8
       -6.840757e-05 -6.273164e-05 -5.8749796e-05 -6.1433835e-05
000040 82 3e a8 38 f8 db df b7 00 00 00 00 6a f8 3d b9
       8.022507e-05 -2.6686103e-05 0.0 -0.00018116986
000050 6e 69 ab 38 8f f1 51 b9 43 1b 01 b9 50 d4 07 b8
       8.173553e-05 -0.00020021781 -0.00012312554 -3.238424e-05
000060 a2 e5 ad b8 00 00 00 00 95 31 b1 38 9b 69 57 b8
       -8.292055e-05 0.0 8.449253e-05 -5.1358347e-05
000070 9b cd 17 b9 00 00 00 00 00 00 00 00 b6 ab 34 38
       -0.00014477076 0.0 0.0 4.3075263e-05
000080 ea 85 ae b8 3b 4b ba b7 00 00 00 00 55 68 37 b8
       -8.32191e-05 -2.220796e-05 0.0 -4.3727767e-05
000090 48 5a df b6 ce 44 9c b6 d1 9c d9 37 b0 37 8f b7
       -6.656428e-06 -4.657172e-06 2.594144e-05 -1.707286e-05
0000a0 ac ce 8c 37 00 00 00 00 45 a0 11 b9 e8 d8 28 38
       1.678554e-05 0.0 -0.00013887983 4.025633e-05
0000b0 90 13 9d b8 d1 87 b4 35 70 88 43 b9 3c 9b fc b6
       -7.489987e-05 1.3450573e-06 -0.00018647476 -7.528257e-06
0000c0 00 00 00 00 0a 9e da b8 22 b8 99 b9 9c f3 41 b7
       0.0 -0.00010424487 -0.00029319624 -1.1560416e-05
0000d0 c0 87 71 b8 a5 7c a8 37 12 44 e2 37 32 c4 c6 b8
       -5.7585305e-05 2.0085203e-05 2.6972997e-05 -9.47792e-05
0000e0 be 88 8c b8 a2 86 f5 38 00 00 00 00 89 4f ab b7
       -6.7011904e-05 0.00011707588 0.0 -2.0421825e-05
0000f0 7d 38 a1 38 9c 68 51 b8 bc 1f c2 b4 13 a3 64 b9
       7.6876e-05 -4.9926908e-05 -3.6158406e-07 -0.00021804524
000100 00 00 00 00 83 f1 0a 39 00 00 00 00 90 82 f8 b7
       0.0 0.00013250676 0.0 -2.9624702e-05
000110 bd c3 15 b8 05 40 04 37 00 00 00 00 00 00 00 00
       -3.5706664e-05 7.882719e-06 0.0 0.0
000120 5a e6 a3 38 00 00 00 00 f0 f6 74 38 9e 42 87 38
       7.815352e-05 0.0 5.840411e-05 6.44971e-05
000130 24 62 3b b4 a8 65 d4 35 d5 f3 23 36 00 00 00 00
       -1.7451435e-07 1.5824817e-06 2.4430822e-06 0.0
000140 c2 41 e5 37 04 af 30 39 e1 27 22 39 2e e6 57 b8
       2.7329548e-05 0.00016849866 0.0001546438 -5.1474366e-05
000150 09 e5 74 b8 ab 9c c7 36 00 00 00 00 4a fd 86 b9
       -5.838744e-05 5.9489007e-06 0.0 -0.00025747187
000160 60 c9 7b 38 10 68 4e b7 f6 e0 11 b8 25 8b 85 37
       6.003061e-05 -1.2302786e-05 -3.4780205e-05 1.591963e-05
000170 51 dc 95 38 58 ae 58 39 00 00 00 00 fa a8 e4 b7
       7.145911e-05 0.00020664313 0.0 -2.7258404e-05
000180 5c fe aa 38 2e 72 02 39 58 a6 36 38 3b 1c 8e b7
       8.15361e-05 0.00012440301 4.35471e-05 -1.6940865e-05
000190 b7 e4 2c b7 80 aa 90 33 ac a9 77 b6 54 06 41 b7
       -1.0305251e-05 6.736536e-08 -3.690463e-06 -1.150517e-05
0001a0 3d f6 55 b7 a2 5e d3 36 79 c0 75 b8 b2 68 4b b6
       -1.2753121e-05 6.2993067e-06 -5.8591806e-05 -3.0310298e-06
0001b0 00 00 00 00 ac 92 24 39 26 e7 27 b5 da be e0 b7
       0.0 0.00015694898 -6.2548713e-07 -2.6791753e-05
0001c0 84 85 4c b7 4f 0c a4 b6 66 d3 d8 37 1f f7 03 b8
       -1.2190434e-05 -4.889014e-06 2.5847647e-05 -3.1462983e-05
0001d0 c4 66 04 39 00 00 00 00 94 d6 0f b8 23 fd fc b8
       0.00012626784 0.0 -3.42937e-05 -0.00012063447
0001e0 bd ac 14 b7 02 b7 0e b8 7a 37 f1 36 0c 61 87 b8
       -8.861706e-06 -3.4025878e-05 7.188818e-06 -6.455378e-05
0001f0 6b d7 8d 38 00 00 00 00 58 f1 9d 37 20 6c 85 38
       6.763529e-05 0.0 1.8828243e-05 6.362074e-05
000200 3c 8d a2 b7 00 23 9f b7 e4 31 8c b7 ce 2b 14 38
       -1.9377672e-05 -1.8970575e-05 -1.6712533e-05 3.5326746e-05
000210 0f 1a 93 36 34 a4 05 39 b0 4d af 39 1e 14 a9 b8
       4.383975e-06 0.00012745039 0.00033436483 -8.062295e-05
000220 5c d8 ae 38 49 4b d4 b2 00 00 00 00 b7 49 7d 38
       8.3372666e-05 -2.4714284e-08 0.0 6.0388553e-05
000230 18 82 25 35 93 53 cc b7 6c 42 12 39 38 88 a9 37
       6.16566e-07 -2.4357612e-05 0.00013948389 2.0209802e-05
000240 00 00 00 00 00 00 00 00 00 00 00 00 19 e4 38 b9
       0.0 0.0 0.0 -0.0001763258
000250 00 00 00 00 df de 88 b7 76 4f c4 b9 00 00 00 00
       0.0 -1.6316246e-05 -0.00037443236 0.0
000260 7c 23 1e b8 72 86 a4 38 00 00 00 00 b2 c6 54 38
       -3.7703183e-05 7.845172e-05 0.0 5.072979e-05
000270 00 00 00 00 34 7e 04 39 00 00 00 00 b0 81 56 b8
       0.0 0.00012635515 0.0 -5.1142357e-05
000280 96 f4 fc b5 00 00 00 00 00 00 00 00 00 00 00 00
       -1.8846647e-06 0.0 0.0 0.0
000290 a7 e5 ab 38 b8 51 48 36 fc 45 16 36 39 b0 44 b9
       8.1966915e-05 2.984989e-06 2.2392478e-06 -0.00018757665
0002a0 3d 54 ea 38 ac 9d 76 38 5b 1a 1d 39 1f aa 13 35
       0.0001117368 5.8797814e-05 0.00014982505 5.5009326e-07
0002b0 1d 53 0c b8 a7 a4 35 b7 ff ea 06 39 8a 97 50 35
       -3.3456006e-05 -1.0826777e-05 0.00012866779 7.7706557e-07
0002c0 a0 d5 0e b9 a4 b0 02 38 b9 70 e0 b7 74 5c 67 37
       -0.00013621757 3.1158925e-05 -2.6755371e-05 1.3790199e-05
0002d0 ad b9 45 39 f2 30 76 b9 00 00 00 00 88 64 c0 37
       0.00018856554 -0.00023478622 0.0 2.2934997e-05
0002e0 00 00 00 00 10 12 b1 b8 6c 27 7b 38 6a c2 81 37
       0.0 -8.443382e-05 5.9879778e-05 1.546853e-05
0002f0 05 b9 11 38 dc a5 89 b8 1b 85 b5 38 f4 3b 11 38
       3.4743007e-05 -6.563563e-05 8.6555454e-05 3.462653e-05

W_action_type f4 [192, 4]
000000 a1 30 28 be 6c 1e 4c 3e a3 fd c0 3d 73 6e 06 be
       -0.164248 0.1993348 0.09423377 -0.1312807
000010 d5 7b f3 3d ed c6 04 be 96 35 1b bd 0e 33 36 3e
       0.118888535 -0.12966509 -0.0378929 0.17792913
000020 36 7a c8 3d 43 4b d4 bd ed e2 72 3d 4d 93 76 bb
       0.09788935 -0.103659175 0.059298445 -0.003762442
000030 f7 47 77 3d 7b 0a d6 3c 24 12 12 3e 26 1c 11 3e
       0.060371365 0.026128044 0.14264733 0.14170894
000040 ba 7d 7b bd 41 4a 0e bd 57 08 fb 3d 63 31 bd 3d
       -0.0613992 -0.034738783 0.1225745 0.092379354
000050 49 e5 97 3e e6 06 28 3d 99 76 6f bd 95 6c 1b bd
       0.29667118 0.041022204 -0.058462713 -0.03794535
000060 92 30 5b 3e 22 b1 c6 bd 9e 31 57 3e 99 04 e9 bc
       0.21405247 -0.09701754 0.21015021 -0.028444575
000070 b9 74 36 3e 6b df ef bc 72 d6 a7 bd 0f cd 90 bd
       0.17817964 -0.029281339 -0.08195199 -0.07070362
000080 2c 2c 28 3c 10 27 85 3d 79 62 c2 bc 3c 2f 81 3d
       0.010264438 0.06501591 -0.023728596 0.06307837
000090 b7 5a 20 3e 67 6f d1 bc a3 14 02 3e 0f fb 4e bb
       0.15659605 -0.025565816 0.12703185 -0.0031582748
0000a0 82 8a aa 3d 64 ff 45 3d c5 33 e7 bc 8d a3 39 bd
       0.083271995 0.048339263 -0.028222928 -0.04532199
0000b0 cf 19 8c 3d 17 04 69 bd 13 37 12 be 03 e4 83 bb
       0.0684086 -0.056888666 -0.14278822 -0.004024984
0000c0 f6 6e a1 3d 4a 55 31 be 23 e2 b6 3d 93 5e b1 bd
       0.07882492 -0.17317691 0.08929851 -0.08660617
0000d0 86 d0 fe 3d 65 fd 1d 3e f5 29 0b be 76 ce 16 be
       0.124421164 0.15428694 -0.13590224 -0.14727196
0000e0 85 39 38 3d e2 0f 9c bd 20 b6 56 bd 4e f9 0d bd
       0.04497673 -0.07620217 -0.05241978 -0.034661584
0000f0 6c 07 4d 3d 7f 50 5b bc 20 8a b8 bc c9 9f e3 3d
       0.050055906 -0.013385891 -0.0225268 0.11114461
000100 da b1 ba 3d db 38 81 3d b9 50 63 3d e6 48 df bb
       0.09115954 0.063096724 0.055496905 -0.00681411
000110 7e aa 09 be 6a 76 21 3e 52 4a d3 3d 7b 52 e8 bc
       -0.13443944 0.15767828 0.1031691 -0.028359642
000120 f1 54 ad 3d f8 32 a7 3d 79 5a 3f bd 93 81 fd bc
       0.08463467 0.081640184 -0.04671714 -0.030945575
000130 54 47 2c 3e ce 8d 04 bd 78 51 e5 3d 79 3c 90 bd
       0.16824085 -0.032361798 0.111971796 -0.07042784
000140 45 03 85 3b 4c 92 3f 3e c8 cf 12 3d 1e da 93 3d
       0.0040592276 0.18708152 0.035842687 0.07219337
000150 b3 a3 b2 bd 4b ae 11 3d d4 70 ed 3d 4d f5 cb bd
       -0.087226294 0.03556661 0.11593786 -0.09958897
000160 41 51 59 be 8f 7e 55 3c 9e 68 3a 3e 59 fb 52 3d
       -0.21222402 0.013030662 0.18203971 0.051509235
000170 40 c5 6a 3d 73 10 2d be 3b 18 60 3d a4 2e 38 3d
       0.05731702 -0.16900806 0.054710608 0.044966355
000180 71 c4 16 3c 3e b0 0d 3d 97 1d 2a 3d c7 5a 41 3c
       0.009202109 0.034591906 0.041532125 0.011801428
000190 a1 a6 3f 3d c7 80 92 bb b0 ad c9 3d d7 23 6d 3d
       0.04678977 -0.004470918 0.098475814 0.057895508
0001a0 d8 bc 8e bd d1 1e 9b 3d 01 58 9e bd 5a 5f ed 3d
       -0.06969613 0.07574237 -0.07731629 0.115904525
0001b0 58 58 fa bd a5 00 17 bd 3a dc 25 be 90 22 2b be
       -0.122238815 -0.03686585 -0.16197291 -0.16712403
0001c0 58 ae 0f 3d 16 81 f7 3d 60 0a 52 3d b6 92 9c 3d
       0.035078377 0.12085168 0.051279426 0.076451704
0001d0 47 21 3e bc e2 6d 0c bc 4a e2 4d 3e d3 5c 88 3d
       -0.011604614 -0.00857112 0.20105854 0.0665833
0001e0 65 de 60 bd 71 26 15 3e de 03 12 bd 98 e4 a7 bd
       -0.054899592 0.14565445 -0.03564822 -0.08197898
0001f0 90 e5 6f bd d9 2f 60 3d 9a 46 2d bd 95 e4 10 be
       -0.058568537 0.05473313 -0.04230366 -0.14149697
000200 cf d6 30 3d 35 db 0a be 84 8a eb 3c 8f c2 83 bd
       0.043173607 -0.13560183 0.028752573 -0.064335935
000210 61 cb c1 3d 7e a0 8a bd 95 17 76 bd 8f 8c e3 bb
       0.094626196 -0.06768893 -0.060081083 -0.006944246
000220 96 e3 8e bd c7 55 95 bd b7 a1 63 bd 74 0a f0 bd
       -0.06977002 -0.07291751 -0.055574145 -0.11720744
000230 c9 7d c7 3d ef 37 74 bd e1 62 65 bd 20 83 d3 3a
       0.097407885 -0.059623655 -0.0560025 0.0016137101
000240 90 b0 6a 3e f5 86 06 be 23 7a ed 3d 5a ae 92 3d
       0.22918916 -0.1313742 0.11595561 0.07162161
000250 7c be 50 be dc e0 b9 3d 08 32 57 3d 06 68 27 be
       -0.20385164 0.09076092 0.052537948 -0.16348276
000260 4b 1e 49 3c ac af 22 3d 50 cd 05 bd f4 84 3b bd
       0.012275289 0.039718315 -0.032666504 -0.04578109
000270 c8 6f 6c bb c1 68 d5 ba 07 e1 d9 3b fa 7f 4a bd
       -0.003607737 -0.001628183 0.00664914 -0.049438454
000280 a3 e3 c6 bc e7 4d 4e bd 8a 20 46 bd ee 90 87 bd
       -0.024278468 -0.050367262 -0.048370875 -0.0661944
000290 53 47 23 bd 62 5e ff 3c 59 68 f7 3a b2 b6 ba 3d
       -0.039862942 0.031172935 0.0018875703 0.091168776
0002a0 80 7b 16 bd 38 e2 d0 3d 5b e2 85 3c 6f b9 fd bd
       -0.036738873 0.10199398 0.016343286 -0.12388884
0002b0 14 2c 6a bd f6 a4 bc 3d 0c 6f a8 bd cd a7 78 3d
       -0.057170942 0.09211151 -0.082243055 0.060706902
0002c0 e9 a0 27 bd ba 0a 26 bd 6d 46 c9 bd 99 2f 52 bd
       -0.04092494 -0.040537573 -0.09827886 -0.051314924
0002d0 f0 b8 17 3e e8 49 cd 3d 4f 55 a3 3b 31 7e 40 be
       0.14816642 0.10023862 0.004984535 -0.18798138
0002e0 84 b5 af 3d 13 5d 8b bb c2 55 41 bd 1b 45 fa bd
       0.08579543 -0.0042530387 -0.047200926 -0.12220212
0002f0 ca b9 da 3d 2f 60 0f 3e 18 99 b8 3d 9c b6 4d 3e
       0.10679968 0.14001535 0.09013575 0.20089191
000300 b3 a4 20 3e 60 1a fb bc b8 4e 43 3e f6 8d 16 be
       0.15687828 -0.030652225 0.19072998 -0.14702591
000310 da dc a9 bb 8f ac 32 bd 32 01 28 bd 4c 18 cf 3c
       -0.0051837983 -0.043621596 -0.041016765 0.02528014
000320 60 6d 6b 3d 83 58 fe bc 59 9e 91 3d 08 79 07 3d
       0.057477355 -0.031048065 0.071102805 0.03307441
000330 cd 0c 9d be 2a 75 aa bd 90 96 03 3e 54 6d 74 bd
       -0.3067383 -0.083231285 0.12850404 -0.059674576
000340 8a 6d a2 3d 03 34 4c bd fe 2f a9 3d b6 ce 19 3d
       0.07931049 -0.04985429 0.08261107 0.03755065
000350 46 ad c6 3d b3 39 56 be 5d d5 a4 bd 33 2d 8d bd
       0.09701018 -0.20920448 -0.08048508 -0.06893387
000360 cc d6 ae bd af b9 39 be fc db 9f bc eb 42 5a 3e
       -0.08537063 -0.18137239 -0.019514076 0.2131459
000370 0d 1f 55 bd ad 3e 88 bd f6 af 99 3d 65 9f 4e 3d
       -0.052031565 -0.066525795 0.07504265 0.05044498
000380 da 50 69 3e 74 7a 6c bb e7 74 b5 3c db b0 08 bd
       0.22784749 -0.003608373 0.02215047 -0.033371788
000390 4f 55 c7 bd a9 b0 43 3e a0 a2 9f bd b8 9e ae bd
       -0.09733068 0.19110359 -0.0779469 -0.08526367
0003a0 07 96 8b 3d 58 c7 e9 bb f3 0e 6f 3d 67 e4 d9 3d
       0.06815725 -0.0071343593 0.058363866 0.106392674
0003b0 a1 85 97 3c cc c2 92 bd 54 f4 31 3d 1c b9 ae bd
       0.018496336 -0.07166061 0.0434459 -0.085314006
0003c0 dd 12 78 bd bf 43 25 be 23 51 8a bc dc ad f1 3c
       -0.060564864 -0.16139124 -0.016884392 0.029501848
0003d0 f9 77 75 3c 73 e8 07 3e 7a be 6c bd de 65 5e 3e
       0.014982217 0.13272266 -0.05779884 0.21718547
0003e0 39 d1 4a bd 8e d2 02 bc d9 0e cd 3d a2 5f c1 3d
       -0.049515937 -0.00798477 0.100125976 0.09442069
0003f0 97 2c fd 3d 73 3a fc 3a 77 94 4f bb 0c bb 4b bc
       0.123620205 0.0019243493 -0.0031674185 -0.012434732

b_action_type f4 [4]
000000 c2 bf 70 b9 30 60 0a b8 a9 e1 db b9 c8 c6 32 3a
       -0.00022959619 -3.2991346e-05 -0.00041939065 0.0006819782

W_play_habitat f4 [192, 4]
000000 47 80 d1 bd ff 91 dd bd 2a 1b f6 bb be 50 35 bd
       -0.10229545 -0.10818862 -0.0075105624 -0.044266455
000010 c4 ab 03 3e 9b d7 0e 3e b2 d0 50 3d a1 39 28 bd
       0.12858492 0.13949434 0.050980277 -0.041070584
000020 d8 24 1d be 13 55 f2 3d 75 5b 77 bd db 8f 46 3e
       -0.15346086 0.11832633 -0.060389955 0.19390814
000030 62 03 24 bd aa 57 4c ba a2 43 da 3d 69 f0 ce bd
       -0.04004229 -0.00077950454 0.10657431 -0.10104448
000040 b6 3a fe 3c 61 dd 57 bd 95 39 38 3e ca 39 12 3e
       0.031033855 -0.052701358 0.17990716 0.14279857
000050 0b 6a b7 bd 77 a8 ec bc 76 c6 ce 3d c4 bd 11 bc
       -0.08955773 -0.028888924 0.10096447 -0.008895341
000060 06 88 4d be ef b9 4f be eb 16 08 3e e9 7b 7c be
       -0.2007142 -0.20285772 0.13289993 -0.24656643
000070 ec cc 04 bc 34 5b 15 3d 87 e5 13 be 95 53 d0 bd
       -0.008105498 0.03646393 -0.14443026 -0.10172192
000080 db bd fa 3c a4 2e 36 3d 4b 11 f7 3d 90 9a 1b be
       0.030608108 0.044478074 0.12063845 -0.1519568
000090 1f a9 a9 3d 8f 8e 72 bd 10 ba a4 3d 9b e9 c0 bd
       0.082842104 -0.059217986 0.08043301 -0.09419557
0000a0 6d 6b 55 3d 64 32 d2 bb b9 85 84 3d 87 56 a6 3d
       0.052104402 -0.0064146984 0.06470818 0.081219725
0000b0 64 69 bb bc d9 3b 3a bd 3c 70 56 bc d5 2d 31 3e
       -0.022877403 -0.04546723 -0.013088282 0.1730264
0000c0 2d be ce bd f8 93 49 3e ed 48 25 be 08 69 ff 3c
       -0.10094867 0.19685352 -0.161411 0.031178012
0000d0 71 86 e7 3b cc 2d 16 3d 03 22 2b be 6f f2 d6 3c
       0.007065587 0.03666477 -0.16712193 0.026238648
0000e0 80 8f 27 be 3c c5 0b bd 48 f6 9e 3b 0a 71 1b bd
       -0.16363335 -0.034123644 0.0048511364 -0.0379496
0000f0 b7 f1 7e bc 29 ba 54 3c 18 a9 9c bd 92 2e 84 3e
       -0.015560559 0.012983837 -0.076494396 0.2581678
000100 1a ef 2d 3d e5 07 eb 3d c4 a9 19 3e 74 e4 d2 bd
       0.042464353 0.11476115 0.15006167 -0.1029748
000110 66 65 0d 3d f2 2d f4 3d 3b b5 1b be bc 26 77 bc
       0.03452053 0.11922826 -0.15205853 -0.015084919
000120 33 37 1e bd ba 7c 0a 3e 86 c1 91 bd 9f 1e 44 be
       -0.03862686 0.13524142 -0.0711699 -0.19152306
000130 aa 05 f5 bd 61 a4 10 be bd 43 fe 3d 55 9e 7f 3d
       -0.11963971 -0.14125206 0.12415264 0.062406857
000140 59 ba d0 bb 95 64 12 be 4b 80 36 3e a1 7c 05 bd
       -0.0063698706 -0.14296181 0.17822377 -0.03258956
000150 ee e3 19 3e 47 bf 0e 3e d7 d8 81 bd e1 9b a2 bd
       0.15028355 0.13940154 -0.06340187 -0.07939888
000160 78 40 8e 3d c3 2c 8c bd 8e b4 31 3e 2d 19 0c be
       0.0694589 -0.06844475 0.17354032 -0.13681479
000170 26 36 9a bd 5f c2 28 bd d2 a5 2e 3e 30 f4 26 be
       -0.07529859 -0.04120099 0.17055443 -0.16304088
000180 7f 20 65 bb 91 67 84 3d f0 ac 59 bd ac 15 19 be
       -0.0034961996 0.06465066 -0.05314344 -0.14949673
000190 6d 6a 2d be 4d 19 8a 3e 17 96 bf bd 4a f5 31 3e
       -0.1693513 0.26972428 -0.09354799 0.17378727
0001a0 52 81 06 bd d4 6b 63 bc 08 00 3b 3c 8e b0 ed bd
       -0.032838173 -0.013880689 0.011413582 -0.11605941
0001b0 d1 57 e0 3d f6 11 ab 3d bd 8a 11 be 81 46 d9 3d
       0.1095425 0.08353035 -0.1421308 0.10609151
0001c0 92 89 92 bc 98 0b 26 be d8 29 27 3e 61 02 3b be
       -0.017887864 -0.1621536 0.16324556 -0.18262626
0001d0 e3 f6 2e bc c5 d1 d3 bd a5 45 8b bc 46 8b 63 3e
       -0.01067898 -0.10342745 -0.017000983 0.22221097
0001e0 e9 69 f9 3d 0f 93 d3 bd 81 7f 6e 3b 1a e1 f3 bd
       0.12178404 -0.103307836 0.0036391916 -0.11908169
0001f0 78 6e a2 bd f5 74 31 bd 58 a9 fe 3c 93 1b e9 3d
       -0.079312265 -0.04332443 0.031086609 0.113822125
000200 d8 81 47 3e d3 91 4f 3e 4f 54 29 3c 75 4d 96 3d
       0.19483125 0.20270471 0.010335042 0.073389925
000210 e3 93 bb bd ca 15 0e bd 6e ea 3c 3e 6c 87 82 bd
       -0.091590665 -0.03468875 0.18448803 -0.06373486
000220 e5 d4 85 bd c5 71 50 be 2a 3d 18 3e 9b d2 05 bd
       -0.06534747 -0.203559 0.14867082 -0.032671552
000230 8a f0 a7 bd 5b 5b 09 3e fe 5f af 3d bd d5 9a 3c
       -0.08200176 0.13413756 0.08563231 0.018900746
000240 34 2c e4 3d 04 5d 78 bd 89 43 37 3d 24 c2 09 bd
       0.111412436 -0.06063558 0.04474214 -0.033632413
000250 5d 8f 6a bc 0a d8 ff 3c 16 90 b7 bd a0 1d e8 bb
       -0.014316407 0.031230945 -0.08963029 -0.0070836097
000260 d6 d4 1b be fc 67 df bd e9 79 d2 3d f2 b3 09 be
       -0.15217909 -0.10908505 0.10277159 -0.1344755
000270 47 27 0a 3e d5 75 96 bd 0a 15 10 3d a7 26 d5 3d
       0.13491546 -0.073466934 0.035176314 0.10407763
000280 8a fa 08 bc 20 b8 3c be 5e 90 55 3d bf b2 c6 bc
       -0.008360514 -0.18429613 0.052139632 -0.024255155
000290 45 ec 47 bd 78 cb 89 3e ae 72 2b be d1 bc 5c 3b
       -0.04880931 0.26913047 -0.16742966 0.003368188
0002a0 52 e4 33 be f7 fe 5a 3d 57 1d 27 3e 26 1d 25 bd
       -0.17567566 0.05346581 0.16319786 -0.040311
0002b0 eb 3b b8 bd c9 75 9b 3d 57 54 c1 3d 34 ec de bd
       -0.089958034 0.07590825 0.09439915 -0.10884896
0002c0 99 c9 ea bd 44 8a 87 bb b4 c6 02 3c 5a d5 2b bd
       -0.11464233 -0.0041363556 0.007981945 -0.041951515
0002d0 0f 32 5d 3b fa 55 01 3d e0 80 a0 3d dc a3 8b bd
       0.003375176 0.031576134 0.07837081 -0.06818363
0002e0 63 aa 25 bc 6f c0 20 3d 59 89 2d be b6 c4 f7 bd
       -0.010111424 0.03924602 -0.16946925 -0.120980665
0002f0 8b 1d 99 bd cf a9 83 be 7b 27 00 3e 44 d7 a3 3d
       -0.07476338 -0.2571549 0.1251506 0.08000043
000300 58 67 9b bd cb 20 86 3d fc d1 dd 3d 3d fa 0f 3d
       -0.07588071 0.065492235 0.10831067 0.035150755
000310 82 db 70 3d c1 f9 28 3c 32 54 8b 3b 36 62 d4 3c
       0.05880309 0.010313452 0.00425198 0.025925737
000320 3a 52 ea bd e5 92 f4 bd 87 52 b6 3d e3 57 98 bc
       -0.11441465 -0.119420804 0.089024596 -0.018596595
000330 86 55 fb bd 2c 8d 99 3a ae 9f 51 39 e6 1c be bd
       -0.12272172 0.0011715046 0.00019991279 -0.09282856
000340 f9 2b d3 bd 5d d5 a9 bc 3b f6 25 bd 4d c3 1b 3e
       -0.103111215 -0.020731622 -0.040518027 0.1521122
000350 86 8f 9a bd 0e 94 58 be 5c cb c7 bb d6 06 92 bc
       -0.07546906 -0.21150228 -0.0060972404 -0.017825525
000360 39 6a 25 bd 91 74 0e bd 57 49 65 bd 4a ca 3b 3e
       -0.040384505 -0.034779135 -0.055978145 0.18338886
000370 de 35 1c 3e 8f 90 17 be c4 4c 12 bd b7 3e 3c 3e
       0.15254924 -0.14801238 -0.03571774 0.18383299
000380 ec c9 d7 3d c6 4a ad 3d a9 a6 04 3c 5a 92 93 3d
       0.105365604 0.084615275 0.0080963755 0.07205649
000390 58 2a 3a 3e 44 dd 34 3d e7 c3 c4 3c 0c 16 06 bc
       0.18180215 0.044156328 0.024019195 -0.008183967
0003a0 d9 ab 9e bd 15 a6 0f 3e a4 2d 27 bc 19 48 44 3d
       -0.07747621 0.14028199 -0.010203753 0.04792032
0003b0 1a 0c 53 3c 66 41 a6 3d ba 3c 04 be 68 e2 c0 3c
       0.012881303 0.081179425 -0.1291379 0.023545459
0003c0 44 e9 98 3d 71 bc b0 3b e1 46 5b 3e 00 55 d5 bc
       0.07466367 0.0053935577 0.21413757 -0.026041508
0003d0 ea 72 a4 bd c8 69 ab 3b 22 02 18 be de f9 be 3c
       -0.080297306 0.005231116 -0.14844564 0.023312505
0003e0 b4 9e 8c 3c 02 4d 72 bd 88 49 03 3e 7d e5 a6 3d
       0.01716552 -0.05915547 0.12821019 0.0814924
0003f0 e8 e1 fe bc a7 ad 38 3d c9 fe 05 3d 04 5c 96 bd
       -0.03111358 0.045087483 0.032713685 -0.07341769

b_play_habitat f4 [4]
000000 e0 58 e1 38 f2 61 c8 38 38 65 2b b9 cc e0 25 b8
       0.0001074539 9.554987e-05 -0.00016345538 -3.9548424e-05

W_gain_food_primary f4 [192, 7]
000000 c1 5b 2e 3d 08 06 06 3d f5 dc 05 3e 4b f6 73 ba
       0.042567972 0.032720596 0.1307257 -0.0009306415
000010 87 79 34 3e 56 58 6d bd a8 4c 2c 3d 25 b1 e9 3a
       0.17624484 -0.05794557 0.042065293 0.0017829282
000020 27 ef c3 bd 88 1c 2b 3d 05 b0 44 bd 41 1a 97 3c
       -0.09567099 0.041775256 -0.048019428 0.018445136
000030 b4 ea 26 3d f8 9e 2a bd c6 92 a9 bc 3b 90 4e 3d
       0.040751174 -0.04165551 -0.02069987 0.050430518
000040 4b ee be 3b ee 63 8e bd 13 bf 3e 3d 6f 8e eb 3d
       0.0058267466 -0.06952654 0.04656894 0.115017764
000050 84 6b df bd c3 bb 56 bd 7f bc e1 bd bc 47 a4 bc
       -0.10909179 -0.052425157 -0.11022281 -0.020053737
000060 34 60 ce bd 56 78 a7 3d f2 81 9e 3d f5 94 24 3d
       -0.10076943 0.08177249 0.07739629 0.04018112
000070 b3 e7 3d bd 76 fa 09 3e 38 66 1a be be 58 96 bd
       -0.046363544 0.1347445 -0.15078056 -0.07341145
000080 b1 16 ed bc 62 96 69 3d ae af a1 bd a0 c1 2b 3c
       -0.028941484 0.05702818 -0.07894836 0.0104831755
000090 9b b6 49 be ac a9 d1 3d 7b 86 c0 bd 2e ea ad bd
       -0.19698565 0.102374405 -0.0940065 -0.08491932
0000a0 42 c5 2f bd 65 89 f9 bd c5 10 95 bd 39 09 01 3e
       -0.04291273 -0.12184409 -0.07278589 0.12601174
0000b0 f6 fe e6 bd f5 40 61 bd bb c9 35 3c 6d b0 24 be
       -0.11279099 -0.05499359 0.01109546 -0.16082926
0000c0 d8 0b dc bd d9 95 d6 3b 85 6a 1a bd 1f 2f b1 3d
       -0.107444465 0.006548625 -0.03769924 0.08651566
0000d0 2a 64 fa bd 66 87 d2 bd ff 97 bb bc 50 20 79 bb
       -0.12226136 -0.102797315 -0.022899626 -0.0038013645
0000e0 60 0a fc bd 64 9e 47 bc 91 ec 48 be 00 04 e3 bd
       -0.123066664 -0.012183759 -0.19621493 -0.11084747
0000f0 84 83 97 3d 71 b4 4f 3d b7 12 43 3c e2 81 9c bd
       0.073981315 0.05070919 0.011906317 -0.07641961
000100 92 77 3d bd f9 e2 7f 3c 18 51 6c bd 9c a4 94 bd
       -0.04625661 0.015618079 -0.057694525 -0.07257959
000110 8a c4 49 be 9d f4 55 bd 62 e4 eb bd 5a d8 81 bd
       -0.1970388 -0.052235235 -0.1151817 -0.06340094
000120 5a b1 27 bd 94 96 17 be 2b d2 f2 3d f6 ce 19 3d
       -0.04094062 -0.14803535 0.118564926 0.03755089
000130 1c bb 2b be 51 a4 8e bd a0 5b 60 3d 70 9a 0a 3d
       -0.16770595 -0.069649346 0.05477488 0.03383869
000140 4a 61 3b 3a 62 ee 02 3c 50 38 00 be fb 8a 88 3d
       0.0007147981 0.007991405 -0.12521482 0.066671334
000150 fa 34 16 3d 61 58 18 3e 9d 76 27 bc c1 20 1d 3c
       0.036671616 0.14877464 -0.010221151 0.009590329
000160 3c c9 1b 3e 4b 8f 4d 3d 1d 77 93 bd 05 90 77 3d
       0.15213484 0.050185483 -0.072004534 0.060440082
000170 17 56 16 be 37 30 3b be d0 e0 3c 3d 7e 1a 2f 3c
       -0.14681278 -0.18280111 0.046112835 0.010687469
000180 b0 8e 26 bd 39 42 6a bc 4b b4 65 3d 17 ac 4e 3d
       -0.04066342 -0.014298015 0.056080144 0.050457086
000190 09 68 ae 3d 91 a9 46 bd 1d 13 6d 3d 36 9e ba 3b
       0.08515937 -0.048501555 0.057879556 0.0056951297
0001a0 06 64 f3 bd 80 e7 cb bd a9 7e 18 bd 36 cc 39 3c
       -0.11884312 -0.099562645 -0.037230168 0.011340192
0001b0 e7 ff 11 3e 2c eb 3f 3a 42 14 fa bd 7f e1 bb 3d
       0.14257775 0.0007321115 -0.12210895 0.09173869
0001c0 14 88 d0 3d b1 9e b5 bd 4b 61 e3 bc ee ca 53 be
       0.10182205 -0.088681586 -0.027756354 -0.2068288
0001d0 da 88 50 3e b6 01 f5 bb 7e 00 b6 3c b5 6c 08 3e
       0.20364705 -0.0074770106 0.022217032 0.13322718
0001e0 90 2d 16 be 1d c1 05 be 66 c5 0f 3c ef 23 2f bd
       -0.14665818 -0.13061948 0.008775091 -0.04275888
0001f0 50 ba ca 3d f6 81 9b bc 26 a5 12 be e6 22 7c 3e
       0.098988175 -0.018982869 -0.14320812 0.24622688
000200 a6 73 0e 3e b6 12 4a 3e fa 9a 1b bd 86 26 57 3e
       0.13911304 0.197337 -0.037989594 0.2101079
000210 8a b9 2b bd 6c 1a 4b 3d e0 df 8d bd 96 9c 0c bd
       -0.04192499 0.049585745 -0.069274664 -0.03432902
000220 dd bc d1 bd ee fb 90 3d 97 5d 0d be 8c e6 14 3e
       -0.10241101 0.07079302 -0.13805233 0.14541072
000230 c3 ef af 3d 43 f5 9b 3b 17 25 10 3e 8f 86 e4 3d
       0.08590653 0.004759462 0.14076649 0.111584775
000240 c5 4a 02 3d c2 e9 e0 ba a0 bb 4f 3d 25 c9 93 bd
       0.031809587 -0.0017159509 0.050716043 -0.072161
000250 af b0 2b 3c 08 7e be 3d a7 cd 01 be 69 83 7b bd
       0.010479136 0.09301382 -0.12676106 -0.06140462
000260 b1 7f 84 3c 6f b4 89 bd 1a 6a 3c 3e c0 5d 80 be
       0.01617417 -0.06723868 0.1839985 -0.25071526
000270 8b 79 d4 bd 9d cd 90 bd 80 43 ca bd 1a 0b 1e be
       -0.10374745 -0.070704676 -0.09876156 -0.15433922
000280 26 e9 6a bd 8d 36 8f 3d 45 5c 25 be 18 1c e6 bc
       -0.057351254 0.069928266 -0.1614848 -0.028089568
000290 91 e6 76 bc 9d 82 47 3d da ff 0c be 95 99 f1 bb
       -0.01506962 0.048708547 -0.13769475 -0.0073730447
0002a0 55 e0 12 be 0e 91 98 bc 39 33 e6 3c 22 1b 4b 3d
       -0.14343388 -0.018623855 0.028100597 0.049586423
0002b0 de c8 2d 3c a6 0f 8e 3d 8d 4b c4 bd 21 1f 82 bd
       0.0106069725 0.069365785 -0.09584723 -0.063535936
0002c0 cc fc 7a bd 06 da ee 3c 9b 03 ee bc 57 af 85 bb
       -0.061276242 0.029156696 -0.029054454 -0.00407974
0002d0 f3 e3 d1 bc 7d 4d ae 3c af 8a 09 bc a5 cf 49 bd
       -0.02562139 0.021277184 -0.008394881 -0.04927029
0002e0 4a c4 64 3c 98 b0 d2 3d f2 d2 00 bc 42 de ed bc
       0.013962815 0.10287589 -0.007862793 -0.029036645
0002f0 06 d6 50 bd 91 c4 31 3d 22 fa a6 3d b1 fc ec bd
       -0.05098536 0.04340035 0.08153178 -0.115716346
000300 79 27 61 bd a9 dc 05 be 8d 42 04 bd f4 c2 1d 3e
       -0.054969285 -0.13072456 -0.03229003 0.154064
000310 d4 3f 13 bd 06 b6 c1 3d 56 82 f1 bd 25 68 f1 bc
       -0.035949543 0.09458546 -0.11792438 -0.029468605
000320 ce 23 d1 3d 27 4f e7 bc 78 1f 00 bd 54 90 22 3c
       0.10211907 -0.028235985 -0.03128001 0.009922106
000330 07 75 4f 3e cb fe 24 bd 28 76 96 3c a9 4e 32 bd
       0.20259486 -0.040282052 0.018366888 -0.043532047
000340 a8 9f 89 3d 85 99 c7 bc 08 69 09 3d 8e 2d 10 bb
       0.06719905 -0.024365196 0.03354743 -0.002199981
000350 7b 2a 10 3d 13 66 b3 3b d5 83 91 bd 06 cf ee bd
       0.035196763 0.0054748147 -0.07105223 -0.1166058
000360 ef 7b 74 bd 6d a5 ba 3d 9c 40 25 3d 11 0d 29 bd
       -0.059688505 0.09113584 0.04034482 -0.041272227
000370 4a ba 08 bd f1 36 89 3d 41 9c 84 3d 72 7c e7 bd
       -0.033380784 0.06699932 0.064751156 -0.11303033
000380 8a ab 04 3d 48 b2 95 bd 74 06 83 be 38 6a d0 bd
       0.032390155 -0.07309395 -0.2559086 -0.101765096
000390 cc 79 1f 3d cc dc 0f be 3e 71 0f bc 3e 6b c0 3c
       0.038934514 -0.14049071 -0.008755026 0.023488637
0003a0 2e 4b 0c 3e e9 34 ec bd c3 4c 6f 3c ce 2d 49 be
       0.13700554 -0.11533529 0.014605704 -0.1964638
0003b0 75 f3 d4 3c 7c 42 fd bc d6 ef c5 3d b3 78 d0 bd
       0.025994996 -0.030915491 0.09664886 -0.101792715
0003c0 06 c5 a9 3d 70 4e 80 bd aa a4 c4 bd 41 e3 cb bd
       0.08289532 -0.06264961 -0.0960172 -0.099554546
0003d0 7d 81 da bd be c0 9e 3d 03 65 5f 3d 42 5e 07 3d
       -0.10669229 0.077516064 0.05453969 0.033048876
0003e0 3b a0 f2 3d c4 e9 54 be 65 e8 7b bc 00 5b e8 bc
       0.11846968 -0.207923 -0.015375231 -0.028363705
0003f0 3e 76 e1 3d ab 03 ff 3c 30 18 6e bc 2b cc 4e 3e
       0.11008881 0.031129679 -0.014532134 0.20195071

b_gain_food_primary f4 [7]
000000 14 1b 57 b7 1f df 90 b8 75 16 f5 38 d7 7f 9b 37
       -1.2821303e-05 -6.9080146e-05 0.00011686693 1.853697e-05
000010 58 1c 57 b8 18 d5 cc 38 d2 7a d1 b8
       -5.128639e-05 9.76717e-05 -9.988774e-05

W_draw_mode f4 [192, 4]
000000 ce 08 73 bd 91 cf 5e 3d 11 52 92 3c 3d f6 b0 bd
       -0.05933457 0.05439717 0.017861398 -0.08640716
000010 09 d0 aa 3c 37 cf 74 bd 97 2e 26 be 5c 41 13 be
       0.020851152 -0.059767928 -0.1622871 -0.14380401
000020 ee eb e2 bc f5 fc 36 bc cf d6 20 3e de 08 9e 3d
       -0.02770039 -0.011168708 0.15706943 0.07716535
000030 65 02 17 bd 3c 2b 5c 3d 84 4c 9c 3d 93 bc 40 be
       -0.036867518 0.05375217 0.07631782 -0.18821935
000040 23 f6 4c be 4f 02 89 3c 4f 3e 77 bd b7 22 a2 3c
       -0.20015769 0.016724734 -0.060362156 0.019791944
000050 a1 cc 83 3d a4 1b 94 bd 45 30 3c bc bb 90 24 3e
       0.06435514 -0.072318345 -0.011486118 0.16070835
000060 41 a7 7c 3d e4 b1 a0 bc 3e 38 10 3e 08 42 30 be
       0.061682943 -0.019616075 0.14083955 -0.17212689
000070 20 5d af 3b f5 1b b1 3d f2 20 48 3b cc af 46 3e
       0.0053516775 0.086479105 0.0030537215 0.19402999
000080 a4 7b 21 be 22 1a 82 3d a2 44 01 3d 07 0e 51 be
       -0.15769821 0.06352641 0.031559594 -0.20415507
000090 d1 f5 16 3e 86 79 b9 bd 11 89 2e 3d 2c 69 ce bd
       0.14742209 -0.09056382 0.042611185 -0.10078654
0000a0 e3 82 6b bd b2 2d 2c 3d 9c 05 01 be 5c 14 94 3d
       -0.05749787 0.042035766 -0.12599796 0.07230446
0000b0 c6 fe d0 bd a1 62 4a 3c 73 c8 2a bd ff 25 bb 3d
       -0.10204844 0.0123526165 -0.04169507 0.091381066
0000c0 c9 69 de 3b fa 86 b9 bd d5 a8 47 3d 16 ea cd bc
       0.006787513 -0.09058948 0.048744995 -0.025136035
0000d0 c6 3d 11 be 1c 25 03 be cd 25 94 3d 05 65 a3 bd
       -0.14183721 -0.12807125 0.072337724 -0.07978252
0000e0 c1 0c f7 bb b9 7d 65 bd 84 c4 e2 3c 24 40 c7 bd
       -0.007539362 -0.0560281 0.027681597 -0.09729031
0000f0 b6 3b 04 3e 20 07 dd bd 4e ba bc 3a 23 31 21 3d
       0.12913403 -0.107923746 0.0014398785 0.0393535
000100 fd a2 60 3c 2a 04 a2 3c 0c 6b f0 bd b4 6d f1 bd
       0.013710734 0.019777376 -0.117391676 -0.11788502
000110 85 a1 b5 bd 3a 50 3e be 21 b9 29 bd af e9 f2 bc
       -0.08868698 -0.18585292 -0.04143632 -0.029652445
000120 1b eb 95 3d ff c8 56 3d d1 de 82 ba cd ba 1e 3c
       0.073202334 0.05243778 -0.0009984617 0.009688091
000130 0a 2d 0c bb f4 8b 6f be 3f 32 d6 bd e1 5d c1 bb
       -0.002138915 -0.23393232 -0.104588024 -0.005901084
000140 7b df 8e bd 0a 0d b3 bc c8 bb d5 3c 8d 58 a1 3d
       -0.06976219 -0.021856803 0.026090518 0.07878218
000150 01 cf 7f 3d 1d 2d 2b be c0 91 2a bc f8 19 d9 bd
       0.062453274 -0.16716428 -0.010410726 -0.10600656
000160 33 bf 61 bd a4 13 41 be 7f e5 05 bd d5 71 f9 3b
       -0.055113982 -0.18855149 -0.032689568 0.007612447
000170 8e 0e 53 3c df 13 c9 3d 5f 40 61 bc 31 f2 11 3d
       0.012881888 0.09818243 -0.013748257 0.035631362
000180 92 01 d1 bd cd 08 ca bd 5b 5d e2 3d 8e 0e b1 3c
       -0.10205378 -0.0986496 0.110529624 0.021613386
000190 bd c6 08 3d 89 90 32 be 33 d0 2c 3e b6 ad 05 3e
       0.033392657 -0.17437948 0.16876297 0.13054547
0001a0 48 ae ec bd ab 65 44 3d e5 63 f7 bd bc 05 c8 bc
       -0.11556679 0.04794852 -0.120796 -0.024416797
0001b0 60 ab 98 3c e9 cc cf bd 1c 29 28 bd 0c 25 a7 3d
       0.018636405 -0.101465054 -0.04105483 0.08161363
0001c0 c9 4b 85 3d fc 24 0e be e5 4e 41 bd af b4 0b bd
       0.065085955 -0.13881296 -0.04719438 -0.03410786
0001d0 bd 37 51 3d e8 5c 78 bd b5 14 16 3d 6c 2f ef bd
       0.051078547 -0.060635477 0.03664084 -0.11678967
0001e0 e5 c9 88 bd 8c 47 d6 3b 38 32 0d 3d 06 5c 25 bc
       -0.06679133 0.006539291 0.03447172 -0.010092741
0001f0 75 7b 3e be ee ec 0e 3e 9d 59 6c 3d 13 1b 83 bd
       -0.18601783 0.13957569 0.05770265 -0.06401648
000200 12 33 9c bd d1 2d 66 bc 2c 00 61 3d a6 3b 31 3d
       -0.076269284 -0.014049009 0.054931805 0.043269776
000210 38 37 e0 3c 64 08 bf 3d 13 c0 c9 3d ed 15 b8 bd
       0.02737008 0.09327772 0.098510884 -0.08988557
000220 79 78 0c bd cf a3 90 bd 62 d0 ce bc a7 af 4a 3e
       -0.03429458 -0.07062494 -0.025245849 0.19793569
000230 5e 72 eb 3d 67 24 57 bd 41 72 96 bd 1a 55 f5 3d
       0.11496423 -0.05252495 -0.07346011 0.119791225
000240 d8 c3 eb 3d cf c3 0b 3e 06 b3 2c 3d fa 91 8a 3d
       0.115119636 0.13648914 0.042162918 0.06766124
000250 b0 1c 38 bd df 2e 15 bd 4c 3a 4c 3e 57 60 36 bc
       -0.044949234 -0.036421653 0.19944113 -0.011131368
000260 ce 32 13 3d 27 03 e8 3d f6 c3 5b 3d bc 4e 77 bd
       0.035937123 0.11328726 0.05365368 -0.06037782
000270 a3 e9 8d 3d 4a 64 e8 3d b3 b8 7e 3e 01 a2 cc bd
       0.06929328 0.113472536 0.24875145 -0.09991837
000280 7c da ac 3d 08 be a4 3d ad aa c9 bd f8 a3 32 be
       0.0844011 0.08044058 -0.09847007 -0.17445362
000290 48 b2 b3 3d 74 df 58 3e bc b5 0d 3d c7 c1 77 3d
       0.08774239 0.2117899 0.034597144 0.060487535
0002a0 04 3e 92 bd eb 2c 13 be 14 cc aa bd 60 a7 94 bd
       -0.07140735 -0.14372604 -0.08339706 -0.07258487
0002b0 94 98 51 be e2 40 18 be 30 f6 fa 3c 96 59 f9 3d
       -0.2046836 -0.14868501 0.03063497 0.1217529
0002c0 99 f4 1c be 15 e5 84 bd 01 1f 48 bd f8 84 20 3d
       -0.15327682 -0.064890064 -0.048857693 0.03918931
0002d0 b2 0f 4d 3e 2e 84 a4 bd be 43 52 3e aa 6f 77 3c
       0.20025519 -0.08033024 0.20533654 0.015102306
0002e0 13 3e 80 3e b0 a6 27 bd 0b 70 44 bc cd 13 90 bd
       0.2504736 -0.04093045 -0.011989604 -0.07035027
0002f0 cb 1c 2a 3e 46 3c 01 3e ba 7a 3f be 56 c4 71 3e
       0.16612546 0.12620649 -0.1869916 0.23610052
000300 f3 e6 2e 3e 02 d3 d2 3d 51 d3 19 3e f8 05 ea 3d
       0.17080288 0.10294153 0.15022017 0.1142692
000310 45 4e 08 bd f6 a4 a5 bd a0 50 1f bd a3 01 65 3d
       -0.03327777 -0.080881044 -0.03889525 0.055909764
000320 fd c9 9c bc d8 4a 5f be 97 ca 08 3c 48 f1 d1 bc
       -0.019139284 -0.21805894 0.008349082 -0.025627747
000330 84 f1 1c bc 6c 9d 28 bd ce 76 46 bd 2f 47 f2 bc
       -0.009579066 -0.041165754 -0.048453145 -0.029574959
000340 94 91 e4 3d e5 69 06 3e 05 dd 80 3e e0 22 91 3e
       0.11160579 0.13126333 0.25168625 0.2834692
000350 c0 c1 8f bc 47 de ec bc 02 bc 97 bc 6f 98 a1 bd
       -0.017548442 -0.028914584 -0.018522266 -0.078904025
000360 26 a2 d1 3b 87 4e 33 bd 8f 02 ee 3c 06 6f ac bd
       0.0063975034 -0.04377606 0.029053954 -0.084196135
000370 e3 47 36 3e 15 9d 9b bc 2e 8e 5e bd 23 f7 0f bd
       0.1780086 -0.018995801 -0.054334812 -0.035147797
000380 fb 85 92 3d 4a e0 c6 bd 95 75 fe bd f3 a6 26 be
       0.07154461 -0.097107485 -0.12424771 -0.16274624
000390 a8 3f 53 bd 96 da 04 3e 5b 03 34 bd 11 43 da 3c
       -0.05157438 0.12974009 -0.043948513 0.026643308
0003a0 26 8c 27 3d be 83 d2 bd d4 16 a2 3d c0 46 0a 3c
       0.04090514 -0.10279034 0.0791451 0.00843972
0003b0 22 52 53 bc f4 de a7 bd f4 11 a0 bd 3e b6 46 3e
       -0.012898 -0.08196822 -0.07815924 0.19405457
0003c0 a0 62 17 be 34 4f c3 3c 02 85 dc bd 09 13 ae bb
       -0.14783716 0.023841478 -0.10767557 -0.0053123278
0003d0 13 3c 09 3e d1 af 21 be e8 97 29 3d c1 24 61 3d
       0.13401823 -0.15789725 0.041404635 0.054966692
0003e0 ad 8c 82 bd d5 30 d2 bc db 51 52 be ca 41 26 3d
       -0.06374488 -0.02565805 -0.20539038 0.040590085
0003f0 b7 3d 84 3d dc cd 06 be 0a 99 ac bd 87 d0 27 bd
       0.06457084 -0.13164467 -0.084276274 -0.04097035

b_draw_mode f4 [4]
000000 24 b6 b0 b9 26 25 53 3a 20 d1 77 b9 2e 57 73 b9
       -0.0003370504 0.0008054547 -0.00023633661 -0.00023206763

W_lay_eggs_bin f4 [192, 11]
000000 bd c0 54 be a6 c4 74 3d df 32 25 be b5 ff 4a 3d
       -0.20776649 0.05975785 -0.16132687 0.049560267
000010 30 ee 0f be a2 e6 90 3d 00 ad a7 3c 23 44 af bd
       -0.14055705 0.0707524 0.020468235 -0.08557918
000020 2d 2d 64 3e 43 5c fb 3d 40 0e c9 3d 40 40 5c 3e
       0.22282858 0.12273457 0.09817171 0.21508884
000030 ea a2 e2 bc d9 12 9d bc 0b ef 44 3e 59 af 45 3d
       -0.027665574 -0.019174026 0.19231813 0.048262928
000040 95 ba 87 3d 8e ef e5 bd 2c 58 7c bd ee 3f 00 be
       0.066273846 -0.11227332 -0.061607525 -0.12524387
000050 5e 39 66 3e ce e3 7a bd dc 8d 02 be 9e 49 80 3d
       0.22482821 -0.061252408 -0.12749428 0.06264041
000060 c5 6d 8c bd 45 98 01 be 2e 5a b7 bd 5d 0d f9 bc
       -0.068568744 -0.12655742 -0.08952747 -0.03040188
000070 3c fc 11 3e 7b 96 02 bd e2 0b 57 3d cf 49 66 3d
       0.14256376 -0.03188179 0.052501567 0.056222733
000080 20 d6 1f be e8 b3 05 bd eb 01 ef 3d f9 5e c9 3d
       -0.15609026 -0.032642275 0.11670288 0.09832568
000090 50 1b f0 3b 76 f6 1f be c9 ea 01 bd 77 b7 06 3e
       0.0073274747 -0.15621361 -0.03171805 0.13155924
0000a0 4a 27 a1 3d b3 ea d6 3d 75 46 dc bb f3 28 04 3e
       0.07868822 0.10493984 -0.0067222663 0.12906246
0000b0 fa 85 a8 3d 4d 41 9f 3d d3 c5 d1 3d 90 ff 4b 3e
       0.08228679 0.07776127 0.1024281 0.19921708
0000c0 85 49 06 3e 04 bf cb bd d7 05 d3 3c 5e 28 ba bd
       0.13113983 -0.09948543 0.02575962 -0.09089731
0000d0 4c 81 da bd 4c 02 21 bd 5b 96 0f be bf 58 ea bd
       -0.10669193 -0.03930883 -0.140222 -0.11442708
0000e0 05 55 ca 3d 62 96 28 be 07 c4 03 3d 58 bf ad bd
       0.098794974 -0.16463616 0.032169368 -0.084837615
0000f0 c0 21 7c 3d 6d 5b a8 3c d7 f3 e1 bd a0 a9 9c bd
       0.061555624 0.020551408 -0.11032837 -0.07649541
000100 75 09 72 bd a0 7d 30 3e 9e 16 99 bc 7c 6d ac 3d
       -0.05909105 0.17235422 -0.018687543 0.0841932
000110 78 67 aa bd 3a fb 56 3a d0 4f 64 3d 96 86 96 be
       -0.08320516 0.0008200888 0.055740178 -0.29399556
000120 d4 f6 63 3e 3e 65 58 3e ef 1d 0a 3d 67 76 12 be
       0.22262126 0.21132371 0.033719953 -0.1430298
000130 d4 1d 82 3c e4 25 0c bd d1 7c dd bd a2 e8 5c bd
       0.015883364 -0.034215823 -0.108148225 -0.053932793
000140 32 0e 09 3d 98 bb ee 3d 2c 34 ce 3d 4d e5 8a bb
       0.033460803 0.116568744 0.10068545 -0.0042387606
000150 ec c2 c3 bd 36 12 c5 3d f5 f7 ca 3d 5e f9 de 3d
       -0.09558663 0.09622614 0.09910575 0.10887407
000160 a7 4e 06 be 48 33 b0 bd 66 0e ec bd 75 3f 87 bc
       -0.13115941 -0.08603531 -0.11526184 -0.01650975
000170 f5 38 62 3c e7 d1 c0 bc 29 98 de bc a9 56 7a 3e
       0.013807525 -0.02353759 -0.027172165 0.2444712
000180 bc f9 10 3e 3c 3e b5 bc 6d 75 9b 3d 72 09 24 3e
       0.14157766 -0.022124402 0.075907566 0.16019228
000190 db ef 3e be 02 fb 74 3d 78 e3 e3 bd 7d 7b 38 be
       -0.18646185 0.059809692 -0.111273706 -0.18015857
0001a0 4e f0 2c bd 5a d0 a3 bd 4f 70 be 3d eb 45 d9 bd
       -0.04222136 -0.07998724 0.09298765 -0.10609039
0001b0 d4 6e 3c bd 52 7a 94 3c 61 d7 fb 3d 9c 8e 4e bd
       -0.04600413 0.018124733 0.1229694 -0.05042897
0001c0 a3 2a 3c bc b0 22 21 3d 6d c6 00 be 68 9c 46 bd
       -0.011484775 0.03933972 -0.12575693 -0.048489004
0001d0 4c ee 80 3d f0 0f cc bd ff bd 2e 3e 8e d9 f7 3c
       0.062954515 -0.09963977 0.17064665 0.030255105
0001e0 b2 d9 f7 bd a5 4c da bd 6d 33 30 bb ce 6f 3d bc
       -0.12102069 -0.1065915 -0.002688612 -0.011562301
0001f0 a4 5e 40 3e 72 ef 90 bd 28 bb 65 3d 48 77 1c 3e
       0.18786103 -0.070769206 0.05608669 0.15279877
000200 67 0e 38 3c 4c a1 93 3d 32 9d f6 3b 82 9b 8e 3d
       0.011233903 0.07208499 0.0075260634 0.069632545
000210 11 15 fa bd 22 17 3d bd 8f 89 19 bc 1d e0 2e be
       -0.12211049 -0.04616464 -0.009371175 -0.1707768
000220 8c dc 96 bd ae 20 4f 3e 12 e7 b8 bd c9 b3 aa 3d
       -0.07366285 0.2022731 -0.09028448 0.083350725
000230 06 a0 52 3c 89 3d 21 3e d1 77 07 3e 79 af f4 3d
       0.012855535 0.1574613 0.132293 0.11947531
000240 05 a4 a4 bd f0 34 f8 3d d8 f1 52 bd d1 09 1f bb
       -0.08039097 0.12119472 -0.05150017 -0.0024267326
000250 43 eb 6f 3d 60 87 5c bc 99 b1 14 be 6b 5e 34 3e
       0.058573972 -0.01346001 -0.14520873 0.17614143
000260 f4 86 00 3c 29 e9 9f 3d 53 a7 a2 3d 0e 9a 2f 3c
       0.007844675 0.07808144 0.07942071 0.010717882
000270 c7 5d 84 3d 52 bb 7f bd ac 86 bd bc 38 3e a9 bd
       0.06463199 -0.062434502 -0.023135506 -0.082638204
000280 60 98 22 bd 97 49 e4 bc 8b 69 15 be db 22 aa 3d
       -0.039696097 -0.027867122 -0.14591043 0.083074294
000290 90 47 88 3d 20 4e 84 bd 91 36 c9 3d d4 d6 6f be
       0.066542745 -0.06460214 0.09824861 -0.23421794
0002a0 c4 d9 ce 3d 65 a1 39 be 25 4d 63 bd 25 2b 08 3d
       0.10100129 -0.18127973 -0.055493493 0.03324427
0002b0 7e 5f 4e 3e 55 27 d1 bd 67 a9 35 be 53 91 32 3e
       0.20153615 -0.1021258 -0.17740403 0.1743825
0002c0 83 76 e2 bd 35 f8 d1 3d 54 53 27 3e 46 53 79 3d
       -0.110577606 0.1025242 0.16340381 0.06087043
0002d0 5c cf 92 3d e8 e6 c4 bd 5b 60 d9 bd 14 b7 e7 bd
       0.07168457 -0.09614354 -0.106140815 -0.11314216
0002e0 78 d3 cd bc d9 23 59 bd 76 ca 02 bd e8 74 46 3c
       -0.02512525 -0.053012703 -0.031931363 0.012112834
0002f0 e3 f5 60 3d 91 66 83 bd 83 d1 2f 3c 52 ca d7 bd
       0.054921996 -0.06416047 0.010731104 -0.105366364
000300 d5 99 35 3e 7d 9c 65 be cb 08 13 3c 83 34 f3 bd
       0.17734464 -0.22422977 0.008974264 -0.1187525
000310 e4 bb 02 3e c2 7d 4c bd 2a c6 74 be 72 f6 12 be
       0.12766987 -0.04992462 -0.23903719 -0.14351824
000320 4b 5e 05 3d 17 33 dd bb 88 93 27 bc b2 e5 0c 3e
       0.032560628 -0.006750475 -0.010228045 0.13759497
000330 75 6a 30 bd 4f 3d fb bd 6f 8c 63 bc 71 2a 15 3c
       -0.043070275 -0.12267553 -0.013888462 0.009104357
000340 53 bc 1f be 57 56 fc 3c c0 d8 b1 3c c0 7f 0e 3e
       -0.15599184 0.030802889 0.0217098 0.1391592
000350 e7 a5 ed 3d fb 2b 27 be 80 09 27 3d a9 7d 6d be
       0.11603909 -0.16325371 0.040780544 -0.23192467
000360 c4 c8 95 3d d2 85 3d be a8 8f b0 bd de 72 e8 3c
       0.07313684 -0.1850808 -0.0862115 0.028375085
000370 ab eb 37 3d 18 da 2d be d3 8b 34 3d 52 7b 55 bd
       0.044902485 -0.16977727 0.04407866 -0.05211956
000380 db 53 57 be 09 11 16 3e e5 48 12 3d d2 c3 14 3e
       -0.21028082 0.14654936 0.03571405 0.14527825
000390 7e bb 2d be 9b 5e d6 3d 2e dc 61 bd e0 2d 0c bd
       -0.16966054 0.10467263 -0.05514162 -0.034223437
0003a0 02 3b 46 bd 35 dd 8c bd 82 52 d3 3d 49 0d a6 bd
       -0.048396118 -0.068781294 0.103184715 -0.08108003
0003b0 26 90 ab bd a6 a5 1c 3b d5 6b ff 3d 46 d0 d2 bb
       -0.083771035 0.0023902445 0.12471739 -0.0064335195
0003c0 2a e0 01 3d a5 14 8b 3d fb 68 ef 3d ea a1 ad bb
       0.03170792 0.06791047 0.11689945 -0.0052988427
0003d0 bb d5 b3 3d 7d b1 a2 3c 83 fc d2 3c 6d e6 a8 bd
       0.08781 0.019860024 0.025755173 -0.08247075
0003e0 d5 e1 fa 3d e4 71 3f bb aa 12 a5 bd 78 f9 08 bd
       0.12250105 -0.0029212171 -0.080602005 -0.033441037
0003f0 a3 24 4d be 7b 2c a4 bc 8c 9b c9 3d 9a 69 d5 bd
       -0.20033507 -0.020040741 0.09844121 -0.104205325

b_lay_eggs_bin f4 [11]
000000 e8 09 2a b8 68 e7 bc b7 66 86 06 39 42 01 e6 38
       -4.0540384e-05 -2.2519103e-05 0.00012829303 0.00010967489
000010 16 e3 5d b7 0c 90 b8 b7 98 cb 1b b8 aa 06 c9 b7
       -1.3225499e-05 -2.2001586e-05 -3.714449e-05 -2.396417e-05
000020 e2 b3 90 b7 88 fa d2 b7 92 b7 17 b8
       -1.7249902e-05 -2.5150614e-05 -3.617217e-05
