reports/ml/auto_improve_factorized_phase3_prod2/iter_003/factorized_model.npz (npz, 94180 bytes, 17 tensors)

W1 f4 [48, 256]
00000000: 91c3 063d c03f b43e 705d f03e 72e9 df3c
00000010: f5dd 71bd 7492 29bd 57b5 91bd 8617 a53e
00000020: 97ef 56be e58a 003d 5da4 a03e 52a0 81be
00000030: 6cc6 6a3e c22b 2e3d 6f7d 65be bbb5 223d
00000040: 30c3 68be e910 733d 3adb a43e f858 91be
00000050: f025 033e 7931 363e 2acf 403e 0c7d 4e3e
00000060: deb6 393e a6c0 323e e714 2a3e be35 383e
00000070: 940b 7abc 922e a33d c20f dabe 0059 9abd
00000080: 30a5 213e 62f7 49bd c8a6 a13e 194d b73c
00000090: 2a2e c13c 989e be3d 031e 733e bb4a 16be
000000a0: 0686 87be b165 203f 4aee f63b 6b9d 56bd
000000b0: efc1 56bd 9b90 e9bd 819e 4e3e 975d a03e
000000c0: 0d7a 3ebe 1138 e7bd 7102 43be 2d19 4dbe
000000d0: cdde 823e c957 2a3e 2106 48be 547f 88bd
000000e0: 8899 52bb 4c98 ee3e c66c 7a3e ae3d c23d
000000f0: 6035 bebe 2049 41be 292a 7bbe 4a56 78be
00000100: dd5d 15be b046 703d e8ba 3fbe d645 99be
00000110: 2329 cbbe f7e4 9bbd fb45 333e 9093 f8be
00000120: 83ff 803e 94c6 afbd 3ee7 76be 8ff0 74be
00000130: 008a 173e 2ba1 aabd e5f1 703e 45ed a9bc
00000140: 1901 433e 6e21 40be f38b 363e 2786 48be
00000150: 288a 5e3d 7717 9e3e a62d d9bd a7f9 903d
00000160: 4c90 a63d 8f0f f6bd d7eb cf3e 522e 173e
00000170: da30 9d3d 04dc 973d fe55 05bc 7255 da3e
00000180: a1fd da3e 99c8 b3bd 25c3 313e fda4 e63c
00000190: 3deb dd3d 6701 2f3e d9a0 29be d5c1 f6be
000001a0: f341 2b3d 7fc2 853e 35de f53e 15ca 3cbe
000001b0: a5cf 343e 31e4 25be ddc0 823e 7a76 3abe
000001c0: c804 64be fed8 35be defd 3f3d 3ffc e6bd
000001d0: 0b27 243e 1941 5fbe 8436 7dbd a8b3 a83b
000001e0: 234a 8d3e 526c 7a3e 3977 22be daa5 4ebe
000001f0: 1783 2c3e 315a 163e d09f 7abe b811 1cbe
00000200: b133 3fbe 3342 633c 624e a43e bd7a 113f
00000210: ed04 993d bed9 77be 8fbe 603e 34b5 d5be
00000220: bc86 66be b6d6 ee3d ff56 16be a8ff 19bf
00000230: 5b2a 103f 45a9 f23c d88b e63b e399 15be
00000240: 496d 26bf a431 f13c 73e1 b13e 0849 fe3d
00000250: 1b13 d0be 0d19 193e 11a4 2dbe 5168 873d
00000260: b337 183b d7f0 083e a35d 8f3e fb4c 973e
00000270: e2e3 953d 87e4 f33d 9814 59be 5fa7 413c
00000280: cef1 ff3d 0202 38be 5805 1cbe f536 62be
00000290: 6917 513e e34e 9f3e 2884 c03e 704f 5abd
000002a0: 9553 8bbe c3ef 1cbe 3550 edbb b9b6 f83b
000002b0: dac3 8fbd 0b70 11be 585a 60be 2a35 f33c
000002c0: 3e48 ba3e c512 aa3e ecd4 8a3e cac3 b13e
000002d0: 88cd 1cbe aa09 d8be 71a6 173e bbc3 05be
000002e0: 86df 6bbe b0f2 0bbe 3a1c a53e e690 edbd
000002f0: 30bf 47be 97c7 1e3e bcbc 3c3d c053 35bd
00000300: 12fe 243d 7db6 eb3c 1fab b4bd e94d dbbd
00000310: e54f 9e3e ab8f 403e db03 02bd eeb2 cd3e
00000320: 01c1 19bd ae05 983c 8e8c 4f3d ca0b 063f
00000330: 1152 aebe 19ad 1cbc a3a8 61bb f18b 07ba
00000340: 3054 51be 2633 133d fe4b 11be e958 1d3e
00000350: bcd1 aabc f1d1 813e b284 e63e e374 2b3e
00000360: 829a efbd f42c 6b3e 7942 483e b714 0fbe
00000370: 3165 803e abae 8a3d cefe e5bc 552a 683e
00000380: 4d21 5fbd eb8e 5b3d 4078 843e 7e1c d03e
00000390: bd5f c8bd cf7e 243f afa4 df3d 0a42 c83e
000003a0: 7113 0e3e 7fd4 383e b968 02be 164a f2bd
000003b0: 9ac0 2c3d 7882 833e 3652 20be 76b8 eabd
000003c0: 6397 8c3e bcc0 673e 26cc ee3d 6ecc 953d
000003d0: 0d5f 1c3d 4fab 003e 1bc1 f9bd 9c01 a23e
000003e0: 279a 9ebd bbf1 ab3e ea42 0dbe 2bec f23d
000003f0: 4b8d 213d 9911 bcbd 9546 59be 5804 abbd
0.03290135 0.35204887 0.46946287 0.027332995 -0.059049565 -0.041399434 -0.07114666 0.3224451
-0.20989834 0.03138246 0.313754 -0.25317627 0.22927254 0.0425222 -0.2241113 0.039724093
-0.22730708 0.0593423 0.32198507 -0.2838819 0.12807441 0.1779231 0.18829027 0.20164889
0.18136165 0.17456302 0.16609536 0.17989251 -0.0152615495 0.07967867 -0.42590147 -0.07536507
0.1578567 -0.04930819 0.31572556 0.02237563 0.023581583 0.09307593 0.23741917 -0.14676945
-0.2646944 0.6265517 0.0075357305 -0.05239622 -0.052431043 -0.114045344 0.20177652 0.31321403
-0.18601246 -0.11289991 -0.190439 -0.20029135 0.25560609 0.1663505 -0.19533588 -0.06664911
-0.0032134969 0.46600568 0.24455556 0.09484421 -0.37150097 -0.18875551 -0.24527802 -0.24251667
-0.14586587 0.058661163 -0.18723643 -0.29936093 -0.39679822 -0.07612031 0.17507164 -0.4855008
0.2519494 -0.08582798 -0.2411165 -0.23919891 0.14798737 -0.083315216 0.23529775 -0.020743022
0.19043387 -0.18762752 0.17826824 -0.19582425 0.054330975 0.30877277 -0.1060441 0.070788674
0.08132991 -0.12014686 0.4060962 0.14763764 0.07675333 0.074150115 -0.008138178 0.42643315
0.42771628 -0.08778495 0.17359598 0.028154844 0.10835884 0.17090379 -0.16565265 -0.48194757
0.04181094 0.2612495 0.48021093 -0.18436463 0.17657335 -0.1620033 0.25537768 -0.18209258
-0.22267449 -0.17758557 0.046872966 -0.11278581 0.16030519 -0.21802177 -0.06181957 0.00514837
0.27595624 0.24455383 -0.15865792 -0.20180455 0.16846882 0.14682843 -0.24475026 -0.15241134
-0.18672062 0.013870764 0.3209105 0.5682791 0.07471643 -0.24204156 0.21947692 -0.4173981
-0.22512335 0.116620466 -0.14681624 -0.60155725 0.5631463 0.02962173 0.0070357136 -0.14609484
-0.65010506 0.029442616 0.34742317 0.12416273 -0.40639576 0.14950962 -0.16957118 0.06611694
0.0023226559 0.13373123 0.28001127 0.2955092 0.07318856 0.119088225 -0.21199262 0.01181969
0.124972925 -0.17969516 -0.15236413 -0.22091277 0.20419087 0.31114873 0.37600827 -0.053298414
-0.27212206 -0.15325837 -0.0072422274 0.0075901416 -0.070197776 -0.14202897 -0.21909463 0.029688437
0.3638324 0.33217445 0.27115571 0.34719688 -0.15312779 -0.42194873 0.14809586 -0.13062946
-0.23034486 -0.13666797 0.32248098 -0.11599903 -0.19506526 0.15505825 0.04607843 -0.044269323
0.040281363 0.02877354 -0.08821701 -0.107082196 0.3092033 0.18804805 -0.031741958 0.40175575
-0.03753758 0.018557396 0.050671153 0.5236174 -0.34046987 -0.009562754 -0.003443279 -0.0005170694
-0.20442271 0.03593745 -0.14189145 0.15365948 -0.020851962 0.25355485 0.45023113 0.16743807
-0.11699392 0.22966367 0.19556607 -0.13972746 0.25077203 0.067715965 -0.028075602 0.22672398
-0.054475117 0.053603094 0.25872993 0.40646738 -0.09783886 0.64255995 0.10920083 0.39112884
0.13874604 0.18049811 -0.12735261 -0.11830537 0.042175867 0.25685477 -0.15656361 -0.114609644
0.2745925 0.22632116 0.11660032 0.073143825 0.038176585 0.12565349 -0.12195035 0.31641853
-0.07744246 0.33582863 -0.13795057 0.11861452 0.039441388 -0.09183044 -0.21218331 -0.08350438

b1 f4 [256]
00000000: 9eba 0a3e e8e4 833d c1a2 823d 21b9 7d39
00000010: dc11 f83b 9c83 553e 0000 0000 67b9 1b3d
00000020: 58e7 84bb 6684 5b39 760c a03c a410 7d39
00000030: d049 a23a 0000 0000 a6cb 0bba 0000 0000
00000040: 3e9f 803b 0000 0000 0547 053d 28e1 b53c
00000050: 6cfd 863d 8dc3 693e aef1 93ba 9622 523e
00000060: 7b12 ddbc 1128 5f3c 8ad2 f73d 2011 8a3c
00000070: 2dd0 763a 7dc0 153a d5f4 00bc 14df 69bb
00000080: 6345 23bc 54bb 20ba 67b5 4f3c 7fe4 223c
00000090: 78e0 edb4 5a3a f23c ddb9 7d3c 0a1b c6bc
000000a0: 5ed8 e8b9 4067 333e a61e 0a3c 9f41 cabb
000000b0: a60f 8a3b 5c54 823e a707 feb9 eabf 253e
000000c0: 0000 0000 8faa 7e3d 2e96 17bc 1be4 5d3d
000000d0: 7d46 c43d 4f8a 49bb 0000 0000 3bf7 b6ba
000000e0: 946f 2c3d d589 76bc bfbe de3d 9829 083e
000000f0: 9881 ac3b 787b d6bb fcdb 093b 3784 38bc
00000100: e51f 1d3d c8d1 5c3d c191 b13c 9c66 2bbc
00000110: 6f67 a0bb 96f0 79b7 68eb abbd 0d51 af3a
00000120: 5665 013e 0976 b8bb 847f 92bb f9c8 6a39
00000130: c0af a83d 6ff2 053b d7c0 0b3d 846b 853c
00000140: 0000 0000 a7c6 1eba 7fa7 ce3d b339 26ba
00000150: 2849 2f3a e769 d9bb 0000 0000 5ec8 f33a
00000160: 1cf3 20bc ff11 5bb8 a128 0e3e 0000 0000
00000170: 5488 a03c a3da b03d 3cdf 15bc 0a67 403e
00000180: 11d1 0b3e 5983 2bbc 0000 0000 8ec6 1e3d
00000190: 7a90 c13d 38be 28bc 0000 0000 0000 0000
000001a0: 7f9a 163d 2300 4b3e e862 ef3d c140 00b8
000001b0: 20e0 b93d c78a fb3d 846c c43d 7124 edbb
000001c0: fc33 5b3a 81f3 fc3b 613c ef3c 3129 24bb
000001d0: 1bdd 3639 91f4 e9ba dc85 1e3a 7dcc c43c
000001e0: 8892 523c fb67 1f3e 4c08 e3bb ba6c 8139
000001f0: a9b4 a03a 0af0 88ba 268e 22b9 5a4c 1dbc
00000200: 0000 0000 cc8f 233c 171b 76bc 1b5d e83b
00000210: 63a9 eb3d bcc6 68bc 83e7 dbba 65c1 803c
00000220: 0000 0000 0000 0000 ee6f e63c 0c59 7dbc
00000230: 83a6 663d 7385 26bd ab91 babc bce5 e43d
00000240: ddb8 3e3a fd7d 873d 885e 213e bc7b 403d
00000250: 3bb8 eb3d c69b 8fbc 0000 0000 655e ba3d
00000260: adc4 993d e815 943d c5d1 d43d 86b3 593e
00000270: 42f2 17bb 0ce8 4cbc a28f d43b 690d 9dbb
00000280: d02e 213b 0000 0000 65a9 03b8 2d26 0dbb
00000290: 140c e13d a83c 6e3d c7c7 8f3e 7746 1b3d
000002a0: 0000 0000 0000 0000 0000 0000 0000 0000
000002b0: 72d3 133d a325 3438 72ea d338 2b55 cc3d
000002c0: 6855 a03d 1857 20bb 044b 323d 02a2 083e
000002d0: 4c46 b9ba 7641 bab9 17d9 243e 61e5 813b
000002e0: a682 353a 97b0 d53c 4ea7 cb3b 6926 c639
000002f0: 4662 e039 7bb0 90bc 0000 0000 0d77 92bc
00000300: a2ec 10ba 7b24 cbba 4695 7eba 0000 0000
00000310: c7bc d83d 0c86 bf3b aff5 a53b 795b 4f3e
00000320: 9c91 c938 1a1c b03c 0000 0000 3ea4 a63e
00000330: 72c7 2ebc 5377 ceba 7a1d 65bb eb69 893c
00000340: 8513 3b3d 0000 0000 0000 0000 da6d 413e
00000350: 7f74 053d 322d efbb d8d4 613e dda1 923c
00000360: 0150 f23d dd47 503e a726 543e 0000 0000
00000370: e551 ae3c 751c a43c 556f 6ebc 5794 9cbb
00000380: af09 a33d d368 93bb fc6a 703e b6bf 403e
00000390: 6dcb 54bb f4cc 9d3e 80ab 973d bec1 c93b
000003a0: dc85 163d 8a25 733d 519c 2c3d d8af e93c
000003b0: 8927 843d d714 95bc 4f70 40bb d3ac d9bc
000003c0: 339f 1b3d a965 a73c a5b2 b4b8 5aad 743c
000003d0: 9214 edba 0e5a 973c 0000 0000 84d1 883e
000003e0: 0000 0000 9aa4 6a3e 2b91 283d 0000 0000
000003f0: f98c 76bc 0049 f73d 4090 d33b 0000 0000
0.13547751 0.06440145 0.06378699 0.00024196926 0.0075704884 0.20850986 0.0 0.03801861
-0.0040558986 0.0002093479 0.019537192 0.0002413416 0.0012381617 0.0 -0.0005332775 0.0
0.003925233 0.0 0.032538433 0.02220209 0.06591305 0.22828503 -0.0011287236 0.20521006
-0.026986351 0.013620392 0.12100704 0.016853869 0.0009415176 0.0005712582 -0.0078708725 -0.0035685943
-0.009965274 -0.00061314297 0.012677527 0.009942173 -4.4308013e-07 0.02956884 0.015486208 -0.024182815
-0.00044411694 0.17519855 0.008430159 -0.0061723734 0.004213291 0.25454986 -0.00048452357 0.1618649
0.0 0.062174376 -0.009252114 0.054172616 0.09583757 -0.0030752604 0.0 -0.0013959178
0.042098597 -0.01504751 0.10876226 0.13297117 0.005264472 -0.0065454803 0.0021035662 -0.011261991
0.038360495 0.053911 0.021675946 -0.010461476 -0.0048951427 -1.4897572e-05 -0.083945096 0.0013375595
0.12636313 -0.0056293053 -0.0044707675 0.00022390847 0.08236647 0.002043869 0.034119453 0.016286619
0.0 -0.0006056823 0.10090541 -0.00063409953 0.00066866213 -0.006634939 0.0 0.0018599143
-0.009823587 -5.223043e-05 0.13882686 0.0 0.019596256 0.08635452 -0.0091474615 0.18789306
0.13653971 -0.010468327 0.0 0.038763575 0.09451385 -0.010299258 0.0 0.0
0.036768433 0.19824271 0.11688787 -3.0577885e-05 0.090759516 0.12282329 0.0959101 -0.00723701
0.0008361933 0.0077194576 0.029203596 -0.0025048966 0.00017439241 -0.0017849376 0.0006047168 0.024023289
0.012852319 0.15567009 -0.0069284793 0.00024685805 0.0012260872 -0.0010447514 -0.00015502478 -0.009600723
0.0 0.009983014 -0.015021107 0.007091177 0.11506917 -0.014207538 -0.001677737 0.015717218
0.0 0.0 0.028129544 -0.015463125 0.05631114 -0.04065461 -0.022774538 0.11176631
0.00072754716 0.06615827 0.15758717 0.046993002 0.115097485 -0.017530333 0.0 0.091000356
0.07508216 0.07230741 0.10391573 0.21259889 -0.0023185168 -0.012506496 0.006486849 -0.0047928584
0.0024594553 0.0 -3.1390595e-05 -0.0021537647 0.10988632 0.058163315 0.28082106 0.037908997
0.0 0.0 0.0 0.0 0.03609032 4.2950396e-05 0.00010104933 0.09977182
0.0782879 -0.0024465974 0.04352857 0.13343051 -0.001413533 -0.00035525457 0.16098438 0.0039641117
0.000692407 0.026085181 0.0062150126 0.0003779412 0.0004279783 -0.017662277 0.0 -0.017879033
-0.0005528425 -0.0015498543 -0.00097115745 0.0 0.105828814 0.005844837 0.005064688 0.20249738
9.611549e-05 0.021497775 0.0 0.32547182 -0.010667669 -0.0015752114 -0.0034960196 0.016774138
0.045672912 0.0 0.0 0.18889561 0.032581802 -0.007299089 0.2205385 0.017899448
0.11831666 0.20339914 0.2071787 0.0 0.021279285 0.0200331 -0.014552911 -0.0047784257
0.079608314 -0.00449858 0.23478311 0.18823132 -0.0032469884 0.3082043 0.07405758 0.006157129
0.036748752 0.059361972 0.042141262 0.028526232 0.06452853 -0.018198414 -0.0029363816 -0.026571667
0.03799362 0.020434218 -8.616344e-05 0.014933908 -0.0018087795 0.018475559 0.0 0.26722348
0.0 0.22914353 0.041154068 0.0 -0.015048259 0.120744705 0.006456405 0.0

W_action_type f4 [256, 4]
00000000: 4b31 3cbc e916 94bd b811 dcbd fe34 e0b9
00000010: f817 c23d 1fb7 3cbd b405 803d 3f57 20be
00000020: a1f9 7ebb f36a abbd 67d6 1cbd 5bb5 953b
00000030: fba9 2d3d 3557 78bd 37be adbb 5d78 433d
00000040: b409 133e fdf9 093e 4b73 b6bd 5806 e43b
00000050: bad0 bcbc 3941 013e 26e2 913d 5a9d db3c
00000060: 14f0 653d e4f1 853c 56ce e8bd c3bb ed3c
00000070: c4c3 743b d97b 033d a642 b53c c209 ef3d
00000080: eb44 693c 6694 723d 099c 3b3d 8c54 38bc
00000090: 5716 183e e8ae b33d 716f c83d f741 f23d
000000a0: d812 ce3d a681 c7bd f876 13be 7cee 2e3e
000000b0: 2359 afbd 4585 47ba 8138 e4bd 507e 583d
000000c0: 95c5 a0bb 5332 b23d 8d2e cfbc d707 bc3d
000000d0: 37b6 36bc 17c1 a23d d347 953c d5db 41bd
000000e0: 84b9 be3d d59d 89bc 511d b23d c374 053e
000000f0: 0668 11bd fac2 283e 09a7 3bbd 8168 c7bd
00000100: f9a4 093c 9d43 fe3c 790f f23d 4a6d 403e
00000110: 71b2 38bd faea afbd d9fc 9f3c a674 6c3d
00000120: 2bcc f93c bf76 ecbb 412c 0fbd 4c68 e8bd
00000130: 19a0 edbd c097 ffbc af7f f03c 6e1b 9d3d
00000140: 28bb 153d 0f05 5ebd 7511 80bd dd9b 94bd
00000150: b7c4 17bc 3e15 873e bd46 65bd f642 f3bd
00000160: 1cdc 81bd d863 1e3d 967f 5f3b ee0f 503c
00000170: e6da 4f3e 9dab 95bd 7abb 3d3d 884e 023e
00000180: 6480 133e 4ca4 e83c b00f d83c fa42 983c
00000190: ac65 b03d d4b2 6cbd 5f13 1d3d 7225 823d
000001a0: bb2f a1bd 0f7b 72bc af8e 3ebd 89ed 0abd
000001b0: d0fb e13d af9e 13be 013d 5d3d 3461 3cbd
000001c0: 755f 09bd 83f0 e9bd 2842 ac3d 76ba 03be
000001d0: 2f6f cabc f38d 7abd 7b95 863c 50ec 0bbc
000001e0: 5368 4d3c 6bb9 a0bc 49b5 00bc fea8 f8bc
000001f0: 8835 3bbc fc26 103d 7617 933c 6f81 a6bc
00000200: de17 003b ed1c 1cbe 06fb 12be 572f 4fbc
00000210: 40cb 2a3d a7d7 eabd 47dd 2bbc 8988 6f3d
00000220: 52cf c03d 0e74 cb3d 47c5 edbd fb32 16be
00000230: 96d3 973d 9f10 1bbe 7a45 19bd e6ca c3bd
00000240: 8f7e 723d 62ec f4bd 7dde 10be 8ffc 843d
00000250: f070 c1bc 0d0f 32bd 9db4 c93b d594 9b3d
00000260: d11c 8d3b 083a 95bd 3aae 97bb 82fe d4ba
00000270: 5f14 aebd 2589 163e f740 073e d1c8 173d
00000280: 8d5f 323e 01e5 febc 8882 c7bc 1026 9d3c
00000290: 60bb 11be d309 b23c 3b7b 67be 29d9 6bbc
000002a0: 5c0e 2a3d e364 b3bd 634f 7dbd b8db c6bb
000002b0: f32a 3abd 84ee 2a3e 7ab6 63bd 182e d9bc
000002c0: 6be9 e73d 71a5 713d 658d c0bc e18f 21bb
000002d0: a33c c53d fe54 8dbd 3ef5 94bd 78a6 f4bd
000002e0: 4f12 db3c 2a95 ab3d df09 c33b 9061 cb3d
000002f0: 86d6 94bd 0a3b 98bd 98ff d7bd 28fd 873d
00000300: 0686 d93d 1da1 c2bd 5b28 dbbd 68a8 3f3d
00000310: fb64 c3bc 2c3a 5ebe 5c8d 173d a533 d4bd
00000320: 58f6 963d 5efa 24bc fbc2 3dbc c1ca 203e
00000330: 8b83 dc3c 25b3 5a3c a6a3 603d 1098 cfbc
00000340: 6f35 9d3d 1c4f c73c 691d a83d 11fc 6e3e
00000350: a670 79bd 3ff1 2fbd 3239 b2bd d22d ef3d
00000360: e161 dabc aa91 bebc 38c3 223e c4f4 09be
00000370: 698a b13d da9a 4bbe 1a70 8bbd 97c5 163e
00000380: 3f23 8dbc 8da6 50be de8c a03c 1642 abb9
00000390: 3e99 2f3c a3bc 223e f3ea ad3c d871 d43d
000003a0: 1c6d 22bd aa89 97bd 8058 be3d 0197 d8bd
000003b0: 93ae 303e f3be 0fbb 2961 1f3a 8f41 853d
000003c0: 69a7 f93d 9a37 2b3d 9ecd 503d 4ec1 af3c
000003d0: 3af4 ff3d d8f2 ed3d dfd3 80bc f634 e43b
000003e0: 52cd 5a3d 43ac 293d 7160 babc 6a27 a1bd
000003f0: db7f d5bd a560 edbd ba11 3d3e ca98 0f3e
-0.011486362 -0.07230932 -0.10745567 -0.00042764092 0.09477228 -0.046073075 0.06251088 -0.15658282
-0.0038906115 -0.08370008 -0.038290408 0.0045687384 0.042398434 -0.060630042 -0.0053022164 0.04772221
0.1435917 0.13474269 -0.08908709 0.006958764 -0.023048747 0.12622537 0.071232125 0.02680843
0.05613716 0.016350694 -0.113674805 0.029020196 0.003734813 0.032100532 0.022126507 0.11671783
0.014237623 0.059223555 0.045803104 -0.011250626 0.14852272 0.08773595 0.09786881 0.11828988
0.10062188 -0.09741525 -0.14400852 0.17083162 -0.08561923 -0.0007611106 -0.1114359 0.052854836
-0.004906366 0.08701005 -0.025290752 0.09181183 -0.011151842 0.07946985 0.018222725 -0.04732879
0.09312728 -0.016798893 0.08696998 0.13032822 -0.035499595 0.16480628 -0.045813594 -0.097367294
0.008401149 0.0310381 0.118193574 0.1879169 -0.04509205 -0.0858974 0.019529747 0.057728432
0.030492863 -0.007216304 -0.034954313 -0.11348018 -0.11602802 -0.03120029 0.02935776 0.076712474
0.03655544 -0.054204043 -0.0625333 -0.07256291 -0.009263209 0.26383394 -0.055975664 -0.11878006
-0.06340811 0.038669437 0.0034103147 0.01269911 0.20298347 -0.07308123 0.04632137 0.1272527
0.14404446 0.028398655 0.026374668 0.018586624 0.08613142 -0.05778773 0.03834855 0.063547984
-0.07870432 -0.014799847 -0.046522792 -0.033917937 0.110343575 -0.14416002 0.054013256 -0.045991138
-0.0335383 -0.11422827 0.08411056 -0.12864098 -0.02471122 -0.06117053 0.0164287 -0.008540228
0.01253708 -0.019619664 -0.007855722 -0.03035402 -0.011426337 0.03519343 0.017955523 -0.02032539
0.0019545476 -0.1524541 -0.1435357 -0.012645564 0.04169774 -0.11466914 -0.010489768 0.05847982
0.09414543 0.09934245 -0.11609893 -0.14667885 0.07413404 -0.15143059 -0.037419774 -0.09560184
0.059202727 -0.11959149 -0.14147373 0.06493484 -0.023613423 -0.043471385 0.006155564 0.07596747
0.0043064137 -0.07286459 -0.0046289237 -0.0016250166 -0.08499979 0.14700754 0.13208376 0.037056748
0.17419262 -0.031115057 -0.024354234 0.019183189 -0.14231634 0.0217332 -0.22605602 -0.014395037
0.0415176 -0.08759477 -0.061843287 -0.006068673 -0.045451116 0.16692549 -0.055593945 -0.026511237
0.11323818 0.058995668 -0.023504922 -0.002465241 0.09630706 -0.069009766 -0.07273339 -0.11945814
0.026742129 0.0837806 0.0059521045 0.09930718 -0.072674796 -0.07433136 -0.105467975 0.066400826
0.10621266 -0.09503386 -0.107010566 0.046791464 -0.023851862 -0.21701878 0.037000045 -0.10361413
0.07371205 -0.010069458 -0.0115821315 0.15702344 0.026918193 0.013348375 0.054843567 -0.025341064
0.07676207 0.024329714 0.082087345 0.23338343 -0.060898446 -0.04295468 -0.087023154 0.116786614
-0.026658 -0.023262817 0.15894783 -0.13472277 0.08668978 -0.1988329 -0.06808491 0.14723812
-0.01722872 -0.20376034 0.01959842 -0.000326649 0.010717688 0.15892272 0.021230197 0.103732765
-0.039654836 -0.07399304 0.09294224 -0.10575677 0.17254095 -0.0021933883 0.00060798466 0.06506645
0.12190134 0.041801073 0.05097734 0.02145448 0.124977544 0.116185844 -0.015726028 0.0069643212
0.053418465 0.041424047 -0.022751065 -0.07868846 -0.10424777 -0.11590699 0.18463793 0.14023128

b_action_type f4 [4]
00000000: 016e 07bc 5c58 d03a 034e cabb f689 523c
-0.008265973 0.0015895474 -0.0061738505 0.012850275

W_play_habitat f4 [256, 4]
00000000: 17f1 1fbb 64dd bc3d 1057 d4bb 2f1c e53d
00000010: 7a7a 0b3d 31ab 7dbd 62e0 2dbe 645f c1bc
00000020: 3ed2 e4bd 4546 3f3e b02c 9fbc 7dd0 313d
00000030: 69a2 15be 894a e03d ef2c 623d 5003 89bd
00000040: 5fc7 723b 2b37 783c ef92 ce3d 1734 6bbd
00000050: c38e 853d a644 713c 83df 5d3d 49c4 20bd
00000060: 8310 8d3d d047 003c 8504 5cbc 5c5e 573d
00000070: bf44 a93c d9b3 6abb bbba 553e bdf1 723e
00000080: e4ed b43d a8b4 f13d 96a5 25be 901e 253e
00000090: 5a52 3b3d f5dd e3bd 7141 723d 83b3 28bb
000000a0: cb87 e73d 9d93 123e b072 993d a3b4 cd3d
000000b0: 4762 d43d 37e9 bbbd 47ac 093d b170 fdbd
000000c0: 489b b03c 092d dfbd f80c 78bd 839e 82bd
000000d0: 23d8 f73d d416 48be d908 823c bab0 e639
000000e0: eee8 ccbd 8ff9 9f3d dcfe 17bd fae4 833d
000000f0: bc30 e9bd 3870 3fbd 5543 093e 9625 27be
00000100: b701 b4bb 2857 df3c d34e 43bd 7663 bb3d
00000110: e6e7 74bd 680e e5bd 82de 91bd f916 eabd
00000120: 025e 3c3d 1124 b73d c601 0cbe ac57 d6bd
00000130: efe4 aa3a e4ce 75bd a0fc f4bb 6a42 8f3e
00000140: a14a 163e 9448 1ebe 2fd9 5a3d 3c69 60bd
00000150: 0440 c43d 208d 583d c3c3 bc3d 1b31 2bbd
00000160: 16c0 fcbc 85d6 e73d 1b1b ec3d a0b1 d3bd
00000170: 2884 d2bb f781 093e c7e0 883d a9d1 0abd
00000180: 9bba 063d 27af 6e3c 099b 163b a608 5e3d
00000190: f926 093e ba21 ec3d da7a 6f3e 2506 4fbd
000001a0: 3f2d 95bd 9337 05bd d675 3c3d 6dda 24be
000001b0: c186 95bd 0b0a 9a3d 721d 153e d769 3c3b
000001c0: 9907 df3b 5774 a33d b192 89bc 2757 db3b
000001d0: 4dd0 c53d ed28 94bd 64eb 0abd dac2 e43d
000001e0: 7303 55ba 5cbf 803a a96b 0bbe 5263 0c3e
000001f0: 275e 65bd 4bbf 77be b2fa e6bd d653 0dbd
00000200: 95e2 55bd 41c1 0b3e 2c57 27bd a4ee 1bbe
00000210: 1eac e13d ecd6 903d deef 983d 971c a5bd
00000220: b65b d6bb f88b 543d cffb 1e3c 70f0 073d
00000230: 794b 0a3d 65b7 4ebd c6a4 b33c fca6 ad3d
00000240: 78fd 88bd 344a 8e3c e79d 65bd 0ca2 86bd
00000250: 4dbd bc3d a974 2dbd 5c72 63bd 2df4 0ebe
00000260: ce7b 9a3d 6a2f de3d fc95 0dbd d181 223d
00000270: 5271 edbc b283 243d c24c 6c3c b85b 1fbd
00000280: daf8 54bd 8640 023d d13d bcbc c03f e4bc
00000290: e1a8 9a3d 4a6f 1b3e 8a1b e43c 78d4 9abd
000002a0: e649 81bd c31e 1abd 3bf6 073d 5a79 37ba
000002b0: 3ccc d5bd c17b 2d3d dfe2 0d3c 6554 913c
000002c0: d00d fdbc 1d09 78bd 9877 93bc b76f 0bbd
000002d0: f56f 213d 8cda 883c 0f60 12bd ef44 933d
000002e0: edf4 a83d 3885 05be 902c 9fbd f845 1b3c
000002f0: 8f21 09be 8ccd 0bbd 0df7 28bd de18 af3d
00000300: e324 04be c023 2a3d 8361 c2bd 5f7a 6b3c
00000310: 9d31 1f3e 1560 70bd 7f98 7fbd a404 1abd
00000320: beaf 8d3d 9dff 8d3d f598 e73c ea3a d3bd
00000330: 7140 0f3c 7a08 183d 08c4 253d 69a5 c03d
00000340: 9077 62bd 38f3 613d 6947 2e3e ea29 24be
00000350: 1c4e 383e 14df 3d3d a2d2 dfbd 3f4d e6bb
00000360: 946d 903d 0fca c73d a835 8b3d b916 06be
00000370: 5ada 733c 482a 1b3e b378 4cbd a767 4dbc
00000380: 9d34 d23c f5c9 e5bd 8215 a1bc 1bea a33d
00000390: cee1 a23d 789a ba3b 59ea b63c 07ea 723d
000003a0: 75a9 0bbd c576 0ebd b5e7 8fbd 614d 12be
000003b0: 0a1e 23bc 1586 833d 90c2 043c a797 a6bc
000003c0: 5c49 4cbd fb7d 6e3d 52c2 aabc 80ce 1dbe
000003d0: d605 81bd 27b7 1f3d 3aa0 903d fbaa a5bd
000003e0: 9ca5 4a3e 924f 4bbc a310 4ebe 21fc 1f3d
000003f0: 27db cc3c bf47 d63d 7e80 b1bd 4248 e63d
-0.0024405175 0.092219144 -0.006480105 0.11187016 0.03405235 -0.06193084 -0.16980127 -0.023605056
-0.11172913 0.1867915 -0.019430488 0.04341172 -0.14612736 0.109517165 0.055218633 -0.06690085
0.0037045104 0.015149872 0.10086619 -0.057422724 0.0652137 0.01472584 0.054168236 -0.039249692
0.06887915 0.007829621 -0.013428812 0.052580222 0.020662664 -0.0035812764 0.20872013 0.23725028
0.088344365 0.118020356 -0.16176447 0.1612494 0.045732833 -0.11126319 0.05914444 -0.0025741763
0.11305197 0.14314122 0.07492578 0.10044219 0.103703074 -0.091753416 0.033611562 -0.1237501
0.021558419 -0.10897262 -0.060559243 -0.0637789 0.12101772 -0.19539958 0.01587336 0.0004400069
-0.10005365 0.078112714 -0.037108287 0.06440158 -0.113862485 -0.04673788 0.13404591 -0.16322932
-0.0054933685 0.027263239 -0.047682595 0.0914983 -0.059791468 -0.111843884 -0.07122518 -0.11430163
0.04598809 0.08942426 -0.13672552 -0.10465941 0.0013038198 -0.06001176 -0.0074764043 0.27980357
0.14676906 -0.15457374 0.05342978 -0.05478786 0.095825225 0.052868962 0.09217026 -0.041794877
-0.030853312 0.11320213 0.115286075 -0.10336614 -0.0064244457 0.13428484 0.06683498 -0.033891354
0.032892805 0.014568127 0.0022980592 0.054207467 0.13393773 0.1152987 0.23386708 -0.05054297
-0.07284021 -0.032523703 0.046010815 -0.16098948 -0.07301093 0.07521447 0.14562014 0.002874961
0.0068063256 0.079811744 -0.01679358 0.006693739 0.09658871 -0.072343685 -0.033915892 0.111699775
-0.0008125819 0.0009822655 -0.13615288 0.13709763 -0.055997994 -0.24194066 -0.11278285 -0.03450378
-0.05221804 0.1364794 -0.040854618 -0.15227753 0.11019157 0.07072243 0.07467626 -0.08062094
-0.0065416945 0.051891297 0.009703591 0.033188283 0.033763383 -0.050467867 0.021929156 0.08479115
-0.0668897 0.017369367 -0.05605879 -0.06573877 0.09215794 -0.042347584 -0.055528983 -0.13960333
0.07543145 0.10848887 -0.034566864 0.039674584 -0.0289847 0.040164657 0.014422597 -0.03890583
-0.051995136 0.031799816 -0.022978695 -0.02786243 0.07551742 0.15179172 0.027845163 -0.075600564
-0.06312923 -0.037626993 0.033193808 -0.0006998979 -0.10439345 0.04235435 0.008660047 0.017740438
-0.030890375 -0.060555566 -0.018001363 -0.034042086 0.03941341 0.016705774 -0.03573614 0.071908824
0.08249841 -0.130391 -0.077721715 0.009477131 -0.13391708 -0.03413157 -0.04125123 0.08549665
-0.12904696 0.041538 -0.09491255 0.014372437 0.1554627 -0.05868538 -0.06240129 -0.037602082
0.06918286 0.0693352 0.028271178 -0.10313971 0.008743391 0.03711746 0.040470153 0.094065495
-0.055289805 0.055163592 0.17019428 -0.16031614 0.17998546 0.046355322 -0.10928847 -0.0070282514
0.0705215 0.097553365 0.067973435 -0.13094606 0.014883602 0.15152848 -0.049919795 -0.01253692
0.025659854 -0.11220161 -0.019663576 0.080036364 0.07953225 0.0056946836 0.022328543 0.059305217
-0.034097154 -0.034781236 -0.070266165 -0.1428733 -0.009955892 0.064220585 0.008103028 -0.020335985
-0.04987465 0.058225613 -0.020844612 -0.15410805 -0.06299941 0.038993027 0.07061811 -0.080892526
0.19789737 -0.012409108 -0.20123534 0.03905881 0.025006844 0.10462903 -0.08667086 0.11244251

b_play_habitat f4 [4]
00000000: 9ef6 0abb 77de 983a a957 c23a c791 0aba
-0.0021204124 0.0011662979 0.001482715 -0.0005286005

W_gain_food_primary f4 [256, 7]
00000000: a955 4f3d 7251 97bc 3ec2 5c3d 7730 263e
00000010: e138 bc3d 217e b13d b294 b1bc eeba 2abb
00000020: 2320 8f3d 59a8 a43b 9d8b 3a3e acf5 8abd
00000030: 5493 3ebd 8435 20be 67ae 71bc e423 6f3c
00000040: 4b9e 163e 0eb6 48bd 2106 dcbd 301f 06bd
00000050: 5e15 08bd 931c 483e 29f5 043d 2474 67bd
00000060: b048 85bd ec6b f13c c295 af3d 7c41 ecba
00000070: 29e7 133c c706 c23d 5165 c73d 54f5 0a3e
00000080: 79ed 5a3c d6d6 0dbd 90a5 74bd 35f3 6bbd
00000090: 5481 093d 89e8 033e f59b debd 7567 efbd
000000a0: 8c72 cd3c 1d18 f83d 030f 523b b4d2 023d
000000b0: 5e20 97bd 4897 20be dd05 d63b a999 af3d
000000c0: 388e 11bd f026 feba ef5a 16be cbc9 ccbd
000000d0: a926 00be 08d1 75bb 8087 4e3d 0876 02bc
000000e0: 7a6b a4bd 91e9 ad39 cee9 e4bd bd5a c93c
000000f0: 9855 363d fd8d c3bc e83d 203c ab8a 76bd
00000100: 8a49 813e 564a b1bd 6c73 c63d bab4 06be
00000110: 40b2 753d 81a4 a63d 3109 eabd 3807 cfbc
00000120: 7dad 33bd 8f53 debc d114 cdbd 6e49 dd3c
00000130: 558b c03d 6f63 f93d 6f4b 38be f2ed 503d
00000140: 7379 a6bd 822f b83c 7b3c bc3d 2067 d03a
00000150: 7b12 18bc 414e a4bd 5df3 233e 2fb4 2b3e
00000160: c5fc 10be 8cf1 af3d bd8f 31bd 7190 c4bd
00000170: 093c 083d 9f3c afbc 04bc ba3d 53e8 483b
00000180: 446f fc3c 5f97 d0bb 1d46 d53c a903 c73c
00000190: 0621 dbbc a522 10bd 4bc6 c53b b62c e63c
000001a0: a0f2 c2bd 857d 843e c8e6 44bc 555a 8bbd
000001b0: c41a 4dbd f17a c9bd 85eb fa3d fc91 39bc
000001c0: 4f7b a33c 9123 c63d d7b1 94bd a42b f13b
000001d0: 3419 3e3c e39d 15bd 1f75 cabd 397f 3c3d
000001e0: ff6b 603d 3c5e 983c 7f2c 02be 0794 983c
000001f0: 00e7 063d 54e5 0b3c 3f03 75be 9f90 14bd
00000200: ae2b 9b3c 9672 6b3d 6ae2 27bd 03ad b03d
00000210: 258c a6bd 1184 85bd 3429 453d c8da 0bbe
00000220: e5c5 153e 0a71 0abe b921 6f3d 87e1 bb3d
00000230: c54b 57be be88 c4bd 60f9 0dbe 34e4 6cbd
00000240: d5cf a2bd 06ec 003d 2ba6 c33d 0f8e c1bc
00000250: 803c 983d 9196 1a3e 0f31 e33d 41e5 933d
00000260: 28a4 42bc b088 92bd 8912 183e 3370 27bd
00000270: 267f 503d 0b1f a23c 1d2a 64bd 61ea 0e3e
00000280: 46fa 173d 6cc7 bb3c 39c1 abbd b9c9 e83d
00000290: 5d30 e83c 77bc f4bb 79d3 183b 8d17 cebd
000002a0: e3de e9bd c10d d2bc 6d46 e43d 1ac2 36bd
000002b0: 258c c63d 627a 123e cdaa d5bd fa2c 933d
000002c0: 700e 3c3e d7ef 86bd 8c87 2ebd 0f01 5fbd
000002d0: 32c1 103d 9d47 b2bc 34cc 8bbd 1474 d0bd
000002e0: d1ed 63bd 4310 313c 269b 0b3d 9ccf e13d
000002f0: dcc0 00be c23b 16be 9677 abbd 1e70 143e
00000300: 79af e83c f67d 763d b5c2 3cbd 482e 2d3c
00000310: ffcd 0e3d 51a4 ad3d bd4e 5dbd 59de 9538
00000320: b691 2c3d 57ae 703d bffd 43bd 5aa8 28bd
00000330: 757e fbbc a4fd b73d 964a 023e 1829 bf3d
00000340: a3b9 49bd 9c43 67bb ea54 5a3d bdfe 6f3d
00000350: 38e8 bc3d c124 9f3d c390 11be 922a 833d
00000360: ebf9 b03d 9afe 61be 8af2 76bc 5792 143e
00000370: d727 f53c ad27 873d 9df9 0dbe 0cc8 0ebd
00000380: de78 043e 9395 bfbd 8214 19be d723 813d
00000390: 7581 a93b 278a 87bd 9dc5 aa3d 6dd5 a0bc
000003a0: f876 c6bd e37b 70bd 26f7 9b3c 6530 1a3d
000003b0: c445 d53b dd30 843d 1c2e 42bc 81c6 d23d
000003c0: c335 5d3c 5f6c da3d c0ec c13d 99e2 2b3e
000003d0: 6028 46be d6b5 fbbc b9b1 bd3b b157 083d
000003e0: d2a2 5ebd fe77 923c 4d67 c3bd 4127 77bd
000003f0: 6159 29be b44b 19bc 1a0a 8e3d 1412 103d
0.0506188 -0.018471453 0.05389618 0.16229425 0.09190536 0.08666635 -0.021677349 -0.002605136
0.069885515 0.0050249514 0.1821732 -0.067851394 -0.04652722 -0.15645415 -0.014751053 0.014595959
0.14708821 -0.049001746 -0.107433565 -0.032744586 -0.033223502 0.1954215 0.032460365 -0.056507245
-0.06508005 0.029470406 0.08573486 -0.0018024887 0.009027281 0.09473949 0.097361214 0.13570148
0.013362282 -0.03462871 -0.059728205 -0.057604987 0.033570603 0.12881674 -0.1086959 -0.11689655
0.025079034 0.12113974 0.0032052405 0.031939223 -0.073792204 -0.15682709 0.0065314607 0.0857423
-0.03553602 -0.0019390266 -0.14683126 -0.099994265 -0.12514748 -0.0037508626 0.05042219 -0.007962711
-0.08028312 0.00033171152 -0.11177407 0.0245794 0.044515222 -0.023871416 0.009780385 -0.060190838
0.25251418 -0.086567566 0.09689984 -0.13154879 0.059984446 0.081368454 -0.11427534 -0.025271997
-0.043866623 -0.027139453 -0.10013736 0.027012553 0.094015755 0.121771686 -0.17997526 0.051008172
-0.08128633 0.022483591 0.09191223 0.0015899874 -0.00928175 -0.08022738 0.16010804 0.16767953
-0.14158924 0.08590993 -0.04334997 -0.095978625 0.03326038 -0.021391211 0.091178924 0.0030656054
0.030814774 -0.006365701 0.02603441 0.024293737 -0.026749145 -0.03518929 0.0060356013 0.028097492
-0.09518933 0.25877014 -0.012017913 -0.06804339 -0.050074354 -0.09837902 0.12251953 -0.011326309
0.019956259 0.096747525 -0.07260483 0.0073599387 0.011602689 -0.036527526 -0.0988562 0.046019766
0.054790493 0.018599622 -0.12712286 0.018625272 0.032935143 0.008538563 -0.2392702 -0.036270734
0.018941727 0.057482325 -0.04098741 0.08626749 -0.08132199 -0.0651933 0.048134997 -0.13657677
0.14626272 -0.13519683 0.05838177 0.09173875 -0.21024998 -0.09596394 -0.1386466 -0.05783482
-0.07949797 0.03147509 0.095531784 -0.02362731 0.074334145 0.15096499 0.110933416 0.07221461
-0.011879958 -0.07154977 0.1485082 -0.040878486 0.05090251 0.019790193 -0.055704225 0.13956596
0.037103914 0.02292224 -0.08386464 0.113666005 0.028343374 -0.007468756 0.0023319407 -0.10063086
-0.114194654 -0.025641324 0.11146245 -0.044618703 0.09694699 0.14304498 -0.10432968 0.07186313
0.18364882 -0.065887146 -0.042609736 -0.05444437 0.035340495 -0.021762663 -0.06826058 -0.1017839
-0.05564672 0.0108071 0.034083508 0.110259265 -0.1257357 -0.14671233 -0.083724186 0.14495894
0.028403984 0.06017872 -0.046084125 0.010570116 0.034864422 0.084786065 -0.05403017 7.146289e-05
0.04213115 0.058760013 -0.047849413 -0.041176178 -0.030699948 0.08983925 0.12723765 0.0933401
-0.049249303 -0.00352881 0.053303637 0.058592547 0.0922398 0.07770682 -0.14215378 0.06404604
0.08641418 -0.22069779 -0.015072474 0.14508949 0.029926224 0.065993644 -0.13864751 -0.03485875
0.12936732 -0.09354701 -0.1494923 0.06305664 0.005172903 -0.06618147 0.08338473 -0.01963302
-0.0969066 -0.058711898 0.019038748 0.03764381 0.006508561 0.064546324 -0.011851814 0.10291768
0.013501587 0.106652014 0.094689846 0.16785659 -0.1935134 -0.030726355 0.0057890085 0.033286754
-0.054354496 0.017879482 -0.095411874 -0.06034017 -0.16538002 -0.009356428 0.069355205 0.03517349

b_gain_food_primary f4 [7]
00000000: e5e0 133a 041e 47ba 3e9e 213a 5a7c 00ba
00000010: 706d ef37 8a09 ba3a a1b9 b4ba
0.0005641117 -0.000759572 0.00061652425 -0.00049013423 2.8541981e-05 0.0014193517 -0.0013788232

W_draw_mode f4 [256, 4]
00000000: 3794 ebbd c301 d1bd bd2b 7b3d cecc 51bd
00000010: 355b b0bc 651a a6bd a642 f03d 7315 a83c
00000020: b881 2dbe a199 c53c aab1 51bd e02e ad3c
00000030: 6088 c5bc f2f0 47bd 96cb 21be 918e 0ebe
00000040: 7527 b7bd 3b2a b23d 0ea8 f63d e0b3 0e3e
00000050: 9680 21bd f36d 173d 557d 16be 5beb 1ebe
00000060: b6b4 0abd 57c7 c9bd c51b 0cbd 316b 24be
00000070: ae37 553d de82 90bd 3457 e7bc 3e46 28bd
00000080: c914 5e3c 5922 793d 18a5 313e ddc9 613e
00000090: 8c14 babd 755b 7fbc e5e1 00be e44b cabc
000000a0: ebe6 bdbd 55bc 63bd 4b44 7dbc bf31 91bc
000000b0: b0f0 563b ff3c 49bc a665 bebd fff3 d43c
000000c0: 8efb 3c3d 9c2c d7bd 4d9d 16bd 2b56 d63d
000000d0: 342c 9dbd ca12 4a3d 5882 e23c 7656 11be
000000e0: a5ee fabd 0560 aebc f4d3 70bd cb71 853c
000000f0: fb2f d6bc 949d 443e ea60 20be a6c4 613b
00000100: 7778 45bb 69cc 8c3c 34f8 023d 2ee8 4f3d
00000110: 8fe1 7dbd b143 243d 2172 813d 7970 8b3c
00000120: e0a4 8e3d eaf4 1b3b 6632 123e cfce 043d
00000130: f579 05bd 1bc2 573c 95e5 4abd b239 f4ba
00000140: 6abf 52bd 2a49 093e c340 3b3d e503 08bd
00000150: 69b0 eabc d3bc 583d 57f4 713c 2fca aebc
00000160: a299 f3bc e817 923d 0197 5ebc 775e 0a3b
00000170: c063 ea3c ceab 18bd 30e9 f3bc 8c62 0abe
00000180: 96e6 3c3d 2bdf 94bd 82e1 dcbd be68 e0bd
00000190: 00df 88bd 71c0 dbbc a641 693d 3bce d33c
000001a0: 61b5 75bd e59b 8abd 18ba 083d 4758 51bc
000001b0: 647d b7bd e98f 56bd b7b7 83bc 95b4 973d
000001c0: d85e 0e3e f638 afbd 77c5 683d 8528 6b3d
000001d0: 7113 473d 6322 23bd 49c0 98bd 55b6 373d
000001e0: 4e7e 133e 078b 513d 84fe d8bd e38e 483e
000001f0: 71b7 da3d ba5f d33d 3e32 863d 9989 f5bb
00000200: cdf9 b1bc e730 b4bc e2a5 f6bb 4941 4ebc
00000210: 54ae 0bbe 978e 203c af91 6fbd 3816 34bd
00000220: f31e 51bd 0518 3dbe 9053 88be 52b1 5e3d
00000230: edf7 fc3b 665f 243b 5fe5 2abd 7ec9 d5bc
00000240: 3dc8 0bbe df45 febd 2db9 62bd 907d 993d
00000250: 7020 1f3e dd70 9f3c 1fd9 323e ca95 06bd
00000260: b27e 7d3c 0c7b 2a3e 268f 233d f55f 573d
00000270: b04d 1f3a 9f33 15bd 747b b5bd 67e9 a73d
00000280: 4587 b83d e009 89bd 3525 7c3d c395 aabd
00000290: 9467 f7bd db1b 013e be16 e5bd d2d6 373d
000002a0: cb99 853d 9330 0c3e 8837 34bc b3a9 fd3c
000002b0: 90a6 e13d fa13 9a3c 2f93 a13d 9b6c 55be
000002c0: 4625 ca3d e849 d6bc 4354 bb3d 999f 82bd
000002d0: da44 3e3d 46d0 67bc 909e 153e 60f0 babc
000002e0: 18b6 5abd d244 eb3d 85bb 2f3e ae8e c2bc
000002f0: 362c 85bd 766d cdbc 9859 193d 6a28 4e3d
00000300: 47a7 be3c 3342 803d e456 9f3c a22f 02bd
00000310: 9d05 02bd 0313 d5bb de6c 0dbe 803a babc
00000320: 8fc5 5ebc 4bbc d1bd e11e 073e 8bac 803c
00000330: 5f97 f8bd 65e1 be3d 83a0 f13c e0f8 563d
00000340: 5f93 c13d d6b8 f83d 31bb e4bd a07d 0f3d
00000350: 3df1 0a3e 6616 14be 121b a1b9 3bed a73d
00000360: 1f60 04be 440c dbbb 51d9 333e efae ec3d
00000370: 2df5 a9bd c8ba 13bc d0e7 a53d bd2e 67bd
00000380: 5dc7 87bd 722e 6f3d 5f16 2abe f32a 0a3d
00000390: b6d3 a6bd a5fa ea3c f17e f5bd 3479 c4ba
000003a0: 06c3 86bb 5b66 e53c 70e7 e5bd bd6f ce3d
000003b0: 3e77 313d eef6 903b 065c 8c3d d0fa dbbc
000003c0: 44d2 72bb 24b0 3d3d f23d f93d 2d26 293d
000003d0: f520 27b9 8e1c cd3d eeff 1fbd c369 f63d
000003e0: 4aa0 6a3d a005 ef3d d2a2 36bc 6176 c7bc
000003f0: 4afb 043b d2ef ee3d 9cd3 073d b521 8a3d
-0.11502879 -0.10205414 0.06132101 -0.051220708 -0.021527866 -0.08110503 0.11731462 0.02051804
-0.16944015 0.024121108 -0.051194824 0.021140516 -0.02411288 -0.048813768 -0.15800318 -0.13921572
-0.08943073 0.08699461 0.12043773 0.13935804 -0.03942927 0.03697009 -0.14696248 -0.15519468
-0.033863746 -0.09852474 -0.03420617 -0.16056515 0.052055053 -0.07056211 -0.028239824 -0.041082613
0.01355476 0.060823772 0.17348135 0.22049661 -0.0908595 -0.01558577 -0.12586172 -0.02469439
-0.0927256 -0.05559953 -0.015458177 -0.017723916 0.003279727 -0.012282609 -0.09296732 0.025995253
0.04613834 -0.105065554 -0.036771107 0.10465654 -0.07674447 0.049334325 0.027650043 -0.14193138
-0.12252549 -0.02128602 -0.058795884 0.016289612 -0.026145926 0.19200736 -0.1566197 0.0034449487
-0.0030131617 0.017187314 0.031974986 0.050758533 -0.061982688 0.040103618 0.063205965 0.017021405
0.06965041 0.0023797103 0.14277038 0.03242379 -0.03258701 0.013168837 -0.049535353 -0.0018632917
-0.051452078 0.13406816 0.04571606 -0.03320684 -0.028648572 0.05291445 0.014767728 -0.021336643
-0.029736344 0.07133466 -0.013585807 0.0021113434 0.028612018 -0.03727322 -0.029774278 -0.13514155
0.04611834 -0.072691284 -0.107852 -0.10957478 -0.06683159 -0.026825162 0.056947373 0.025855174
-0.05998743 -0.06768016 0.033380598 -0.012777395 -0.08959463 -0.052383337 -0.016078813 0.0740749
0.13903368 -0.08555786 0.056828942 0.05741169 0.048602525 -0.039827716 -0.074585505 0.04485162
0.1440365 0.051157977 -0.1059542 0.19585757 0.1067952 0.10320993 0.06552552 -0.0074932096
-0.02172556 -0.021995975 -0.007527099 -0.012588807 -0.1364072 0.009799621 -0.058488544 -0.043966502
-0.051054906 -0.18466194 -0.26626253 0.054368325 0.0077199847 0.0025081276 -0.04172265 -0.026097056
-0.13650604 -0.124156706 -0.05535238 0.07494652 0.15539718 0.019462997 0.17465638 -0.032857694
0.015472101 0.16648501 0.03993144 0.052581746 0.0006076945 -0.036426183 -0.088614374 0.08198815
0.090101756 -0.06691337 0.06155892 -0.08329346 -0.12080303 0.12608282 -0.11185978 0.044882603
0.06523474 0.13690405 -0.010999568 0.030964708 0.110180974 0.018808354 0.07889401 -0.20842211
0.098703906 -0.026158288 0.09146931 -0.06378097 0.04645238 -0.014148777 0.14611268 -0.022819698
-0.053396314 0.11487736 0.17161377 -0.023749676 -0.06502573 -0.02507661 0.03743896 0.05033151
0.023273123 0.062626265 0.019450612 -0.031783707 -0.031743634 -0.0065025105 -0.13811061 -0.022732973
-0.013596906 -0.10240992 0.13195373 0.015707275 -0.12138247 0.09320334 0.029495483 0.05248344
0.09451937 0.1214463 -0.111685164 0.035031915 0.13568588 -0.1446167 -0.00030728482 0.08199545
-0.12927292 -0.006684812 0.17563368 0.115568034 -0.08298717 -0.0090167 0.08100855 -0.056441057
-0.066298224 0.058393903 -0.16610096 0.033732366 -0.081458494 0.02868397 -0.11987103 -0.0014989735
-0.004112604 0.028002908 -0.11225784 0.10079906 0.04332661 0.0044239676 0.068534896 -0.026852995
-0.0037051598 0.04631056 0.12170018 0.041296173 -0.00015938639 0.10015212 -0.039062433 0.12031891
0.05728177 0.11670995 -0.011147218 -0.02434844 0.0020291382 0.11666836 0.03316079 0.0674471

b_draw_mode f4 [4]
00000000: 0349 0ebb 8fd2 113c 9ce9 0cbb ce0b 96bb
-0.0021711 0.008900299 -0.0021501547 -0.004579044

W_lay_eggs_bin f4 [256, 11]
00000000: 7986 fb3d 1529 843d 033a fc3b c837 c33c
00000010: c72a 333e 3dbe b8bb a181 4abc cab1 203d
00000020: 1cc6 633c 439b d93d ff98 8bbd acf1 a23d
00000030: d46e c6bd 7c12 343d e383 543d 6e21 16bd
00000040: 965b 803d 6a37 37bc 1c2a 41bd 9d0a dd3d
00000050: 00df 743d ea50 84bd cdd2 55bc 52a6 b6bc
00000060: b394 c0bd d34b 37be 3a94 c83d 9e68 70bd
00000070: 1fdb 3f3d ff27 203e e030 a6bc 15d0 f4bc
00000080: d83a 2dbe 6923 b43d 3273 033e 30a0 91bd
00000090: bcdb cbbd 2d41 4fbd b346 723d 8e2c 263d
000000a0: cef6 babd b037 c1bb 759d 05bd 2b37 b93d
000000b0: 43da 073d 6a7c 4dbc 13ce 94bc 5bcf 9abd
000000c0: 3958 c53c f5fa 02be 7e36 513e 6521 86be
000000d0: eb72 aa3b 5860 423d 833e a43d bb9b 913d
000000e0: 4e27 cfbd 36fa 8c3d 24f6 283d 79f8 03be
000000f0: 1dd1 9cbd 2bb9 c6bc 67cc 51bb 11ab 8c3d
00000100: dfc1 ac3d bb24 edbd 37d1 d7bd a770 20bd
00000110: 5e0d bebd fd13 b0bd e97a 4c3d 9c37 04bc
00000120: d8aa 4c3d b154 d83a 002d da3d 6e7e 1c3e
00000130: f8f1 80bd 2d83 1f3e da8a 7d3d c515 c23d
00000140: 9426 8f3b e4e4 c93c b4ea 00bd 2553 3ebd
00000150: e12c 413c 4f2e 053e ed87 75bd 6b07 8bbb
00000160: c369 82bd ecbd 78bd 7c5b 7b3e 9b6b 043c
00000170: 04ca a13d cd50 4dbe 4cf4 023c 62da 7d3d
00000180: 8d8e 3c3c fb92 8c3d ad0b 813b faa3 163e
00000190: 521b afbc 13b9 30bd c80d 2a3d 96c2 3dbc
000001a0: be37 7abc fbae 10be 6666 fcbd ee4d 823c
000001b0: 5629 aabd ee31 633c 61e5 2e3e 056a b33d
000001c0: 80b9 ff3c 86e8 cbbd 5f6f 683d f41b 2a3b
000001d0: bd2f 69be 3662 e63d b595 a8bd 1413 f4bc
000001e0: 1d89 123e 169a 24bd 9e19 06bd 12a8 14be
000001f0: 016a babd 41eb 563d 2fee 02be 94c5 193d
00000200: 7279 ea3d c3c5 c83d b60d b73d 9d9c 06be
00000210: 63a8 c33c 59b2 8dbc 5090 a43d 57e1 adbc
00000220: 0f81 32bd 5d10 adbc ac3a 08bd 12a9 f03d
00000230: ea2c 963b b262 a5bd e89c f43d 3e29 72bc
00000240: 7890 0d3c 98f5 123e 4432 b53d cc04 b83d
00000250: ccf2 2f3d cf3e 39bd ffd2 aabd 36b9 403c
00000260: e55e 44bd c211 7e3d 0ea9 b2bd 56d0 893d
00000270: cc3c a2bc 0be9 d0bc 368f ab3d 0177 a53d
00000280: d6d6 8e3c 232f 30bd 224c e2bb 6f28 21bd
00000290: 37ad 513d 95e5 81bd 4d90 1cbd 727a 9cbd
000002a0: eda2 103d afa4 01be 68b4 edbd 9753 0ebe
000002b0: 0a50 fc3c e0e7 b3bd 3c9c 6dbe 4ded 84bd
000002c0: 5c31 093e dff0 e23d e9e8 cebd d6c6 d63d
000002d0: 4058 38bd af40 053d 35d3 c73d 545d acbc
000002e0: eef5 863d f499 01be 90c9 12bd c73c 6bbb
000002f0: 3c33 5c3e 8222 74bd ee57 8a3d ff14 c3bd
00000300: 8a98 86bd 25ef ee3c 43c0 a83d cd79 c9bd
00000310: 1587 fc3c 9d6b 513d 9c80 2e3d f25f 8c3c
00000320: ba91 74bd 6d7e 72bd 9056 68bd c1b8 44be
00000330: e641 b23d c4e1 76bc 1f13 11bd 2906 af3d
00000340: b9e5 b83d 8c4d 38bd a7ff 2c3a fe4e 2cbd
00000350: dae8 6cbd 8682 1cbd 4494 87be 6c22 ef3d
00000360: 6e82 b53d f34d 863d 37ff 043c 5b06 b63d
00000370: 6568 90bc e5e3 3c3d 53a7 dd3d 7ae9 39be
00000380: e30d 88bd 2313 64bd c526 d63d 9b5b 253d
00000390: 552a a9bd 6fd7 0b3d 775b cfbb 2ef4 0bbd
000003a0: 6cb6 053d 9220 b33c ab37 b9bc 82c4 883c
000003b0: 866f 403d 034d 8ebb 245c 553e c944 e2bd
000003c0: 64fc 983d 21db 933d ffec 19be d125 15be
000003d0: 6d09 bf3d 706c fa3d 1685 903d fe9b 8d3e
000003e0: 630b f5bb e2e6 29be 334b afbd 1ea2 fbbd
000003f0: a589 b23c f661 8f3c ed9d 95bd 7f2d b1bd
0.12281508 0.06453148 0.007697345 0.02383031 0.17496787 -0.0056379125 -0.0123600075 0.039232053
0.013902213 0.10625317 -0.06816291 0.079562515 -0.096891075 0.04396294 0.05188359 -0.036652975
0.06267469 -0.011182645 -0.0471593 0.1079304 0.059782982 -0.06460746 -0.013050747 -0.022296105
-0.09403362 -0.17900018 0.09793897 -0.05869352 0.04683983 0.15640257 -0.020286977 -0.029884377
-0.16916978 0.087958165 0.12836912 -0.071106315 -0.099540204 -0.050599266 0.059149455 0.040569834
-0.091291055 -0.005896531 -0.032620866 0.090437256 0.033167135 -0.01254187 -0.01816467 -0.07559081
0.02408992 -0.12791045 0.20430943 -0.26197353 0.0052016876 0.04745516 0.08019736 0.07109781
-0.10114919 0.068836614 0.041250363 -0.12887754 -0.07657073 -0.024258217 -0.0032012702 0.06868566
0.084354155 -0.115792714 -0.105379514 -0.039169934 -0.09279893 -0.085975625 0.049921904 -0.008069899
0.049967617 0.0016504732 0.10653114 0.15282604 -0.06296152 0.15577383 0.061899997 0.094768085
0.0043686125 0.024645276 -0.03147383 -0.04646601 0.011790485 0.13005947 -0.059944082 -0.0042428277
-0.06367829 -0.060728 0.24546617 0.008082296 0.078998595 -0.20050354 0.007992815 0.061975844
0.011508596 0.06863972 0.0039381594 0.1471099 -0.021375332 -0.04314525 0.04151705 -0.011582037
-0.015272079 -0.1412925 -0.123242185 0.0159063 -0.083086655 0.013866885 0.17079689 0.08760456
0.031216383 -0.0995646 0.056746837 0.0025956603 -0.22772117 0.11249201 -0.08231679 -0.029794253
0.14310117 -0.04018601 -0.032739274 -0.14517239 -0.0910225 0.05247045 -0.12786172 0.03754194
0.11448945 0.09803345 0.08938162 -0.1314568 0.023884004 -0.017296957 0.08035338 -0.021225614
-0.04358011 -0.021125967 -0.03325908 0.117509976 0.004582991 -0.08075465 0.1194399 -0.014780341
0.008640401 0.14351499 0.08847478 0.0898529 0.04295616 -0.045225915 -0.083410256 0.011762908
-0.04794206 0.062028654 -0.08723651 0.0672919 -0.01980438 -0.025501749 0.08376925 0.08079339
0.017436426 -0.043013703 -0.0069060484 -0.0393452 0.05119058 -0.063426174 -0.038223553 -0.07640542
0.035311628 -0.12660478 -0.116066754 -0.13899074 0.030799884 -0.08784461 -0.2320413 -0.06490574
0.13397735 0.11081099 -0.10103018 0.10487144 -0.045006037 0.03253239 0.097570814 -0.021040596
0.06589876 -0.12656385 -0.035836756 -0.003589438 0.2150392 -0.05960322 0.067550525 -0.09525489
-0.06572063 0.029166767 0.08239796 -0.09837685 0.03082613 0.05112802 0.04260312 0.017135594
-0.05970929 -0.0592026 -0.056723177 -0.19211103 0.087039754 -0.015068475 -0.035418626 0.08546097
0.09028191 -0.04499583 0.00065993745 -0.04206752 -0.057839252 -0.038210414 -0.26480305 0.11676487
0.08862768 0.065578364 0.008117489 0.08887931 -0.017627904 0.046115775 0.1082293 -0.1815547
-0.06643274 -0.055682313 0.104566135 0.040370565 -0.08260027 0.034141 -0.006328042 -0.034168415
0.032644674 0.021866117 -0.022609552 0.016695265 0.046981357 -0.0043426766 0.2083593 -0.11048276
0.07470015 0.0721953 -0.15031813 -0.14565207 0.0932797 0.12227714 0.07056634 0.27658075
-0.007478164 -0.16591981 -0.08559265 -0.12286781 0.02179415 0.017502766 -0.073055126 -0.08651256

b_lay_eggs_bin f4 [11]
00000000: f731 86ba 29de 5bba b703 1e3b 11e2 b03a
00000010: 74d5 1dba 59a2 8fb9 c5a2 4eb9 c037 86b9
00000020: 7989 8cb9 23cf 5eb9 9269 b9b8
-0.0010238279 -0.00083872915 0.00241111 0.0013495107 -0.00060208817 -0.00027396044 -0.00019706327 -0.0002560001
-0.00026805306 -0.00021248734 -8.8411514e-05
