reports/ml/auto_improve_phase3_impl_smoke/best_model.npz (npz, 38381 bytes, 17 tensors)

W1 f4 [48, 96]
000000 a5 51 64 be 4b 35 85 be aa e6 d5 3c d2 61 2e 3e
       -0.2229677 -0.26017222 0.026110966 0.17029503
000010 53 10 d2 3d 5a a0 53 3d 52 d9 87 be 13 37 92 3e
       0.1025702 0.051666595 -0.2653299 0.28557643
000020 35 32 cf be 12 2f 12 be 7b 69 f9 bd e4 42 cd 3e
       -0.40467992 -0.14275768 -0.12178322 0.40090096
000030 15 80 f6 3d 62 55 c1 3d c5 92 cb 3e b4 bc 98 3e
       0.120361485 0.094401136 0.39760414 0.2983147
000040 f7 db 0c 3e d7 a3 2e be b7 e1 0a 3e d1 84 b6 be
       0.13755785 -0.17054687 0.13562666 -0.35648206
000050 46 23 d6 bb 08 1a 99 bc 3f fa ac be 2a be 23 bd
       -0.0065349666 -0.01868917 -0.33784673 -0.039976276
000060 08 35 62 be 87 42 e5 bc 3f bc 80 3b 2d 3c 39 be
       -0.22090542 -0.027985824 0.0039286907 -0.18089361
000070 e5 ef 3a be 67 ac f4 3d 88 a9 bc bd 0a 44 07 3e
       -0.18255575 0.11946946 -0.09212023 0.13209549
000080 54 13 08 3c 8b 82 fd 3e bf bf de be b4 75 19 be
       0.008305389 0.4951366 -0.43505666 -0.14986306
000090 8e ff 63 3c f5 9a b7 be 51 7e 3d bc fa 6f b2 3e
       0.013915909 -0.3586041 -0.011565761 0.34851056
0000a0 22 ba 07 3f 90 50 d0 bd be 28 d6 3c ff 39 4c 3d
       0.5301839 -0.10171616 0.026142474 0.049859997
0000b0 74 f9 50 3e 24 04 14 bd 14 f4 9e be 8c 8d 1e 3e
       0.20407659 -0.03613676 -0.31045592 0.15483683
0000c0 be 6f 0d 3e 9f ae 96 bc 52 57 2c be 07 e6 96 3e
       0.13812158 -0.018393813 -0.16830185 0.29472372
0000d0 02 cd ac be d1 70 a8 3e e8 9b ed 3c 80 35 c5 3d
       -0.3375016 0.32898572 0.029005006 0.09629345
0000e0 e2 e0 5b 3d 30 af f0 bd 0b d4 34 3e 23 db 00 be
       0.05368126 -0.11752164 0.17659013 -0.12583594
0000f0 8e 36 73 3c a0 89 6b 3e 34 d8 7b 3d d1 54 b1 3e
       0.01484455 0.23001719 0.061485484 0.34635022
000100 d7 d9 85 3e 8d e6 ca bd 74 56 04 3d 32 7e d5 3d
       0.2614276 -0.09907255 0.03230901 0.104244605
000110 05 b4 e2 3c 0b aa 56 be 8b 70 08 be d6 f8 90 be
       0.02767373 -0.20963304 -0.13324182 -0.28314847
000120 e6 6b d5 bd 77 20 9e 3d b9 7c 0f be 02 18 41 bd
       -0.104209706 0.07721036 -0.14012422 -0.047142036
000130 14 6f 6b 3d 7a 8f f9 3e 49 3a 35 3d d8 a1 80 3d
       0.05747898 0.48742276 0.04424504 0.06280869
000140 b1 43 46 be d0 59 e3 3e dd 12 17 3d e7 dd e5 bd
       -0.1936176 0.4440446 0.036883224 -0.11223965
000150 59 3a 8a 3e ef 68 82 3e 28 cc 1d bd e3 d1 a9 3c
       0.2699764 0.25470683 -0.038524777 0.020729965
000160 fb 9c 71 bd 11 65 3a bd 47 6e 09 be 4b ab cd bc
       -0.0589876 -0.04550654 -0.13420974 -0.025106093
000170 01 5f ea be c3 32 04 3e f2 93 bb bd b6 ec ce 3e
       -0.45775607 0.12909989 -0.09159078 0.4041497
000180 61 d0 0c be 88 a7 60 3d 44 bb be 3e 84 60 58 3d
       -0.13751365 0.05484727 0.37252247 0.05282642
000190 1f d4 36 be 5e 69 02 be 45 ed 96 be 70 1a bd be
       -0.17854355 -0.12735507 -0.29477897 -0.36934233
0001a0 23 3f ab be 9b cf ac be a9 0a ad be 8c 45 1d be
       -0.33446607 -0.3375214 -0.33797196 -0.15358561
0001b0 aa 5b 7f be 2e 31 84 3e f0 92 3d 3e 0d d5 e3 3c
       -0.24937311 0.2581877 0.18513083 0.027811551
0001c0 10 d2 2e 3e dd e5 75 3c 69 c3 8f 3e f0 9c 1c 3e
       0.1707232 0.015008417 0.28078774 0.15294242
0001d0 6c dc 20 3d 6f 1d 59 be 1a a9 5a 3e cc 0f 57 3e
       0.03927271 -0.21202634 0.2135357 0.2100212
0001e0 a0 09 01 bf bd 16 f6 3d b8 a9 2c be 55 4f 1c bd
       -0.5040531 0.12016056 -0.16861618 -0.038161594
0001f0 53 75 d6 3e 68 5d d0 3e f1 3c a3 bc bb db 04 3f
       0.41886386 0.40696263 -0.01992652 0.5189778
000200 f0 47 f2 bd d4 46 b5 3c 21 3f 8d 3c f7 86 36 3e
       -0.11830127 0.0221285 0.017242016 0.17824923
000210 35 f4 06 be 9d cd b5 3d 3c 22 92 39 7d ec ac be
       -0.13179095 0.08877108 0.00027872797 -0.33774176
000220 76 1c e9 bd 54 cc 0f bd 44 dd ee bc 94 36 1a 3e
       -0.113823816 -0.03510697 -0.029158242 0.15059882
000230 d3 f2 c6 3d f9 bb a7 bc e2 cd a9 be c0 95 b8 3e
       0.09714284 -0.020475375 -0.3316489 0.3605175
000240 2b 7c d7 3d 12 f5 9a 3e 34 64 4d 3e 98 ed b4 bc
       0.1052173 0.302651 0.20057756 -0.02208595
000250 31 c8 8a be 71 36 8b be 38 07 03 3e a8 53 db 3a
       -0.2710586 -0.27189973 0.12795722 0.0016733306
000260 6a 4d 0a 3e 22 ce 2d 3d 48 eb 2e be b3 2f 47 bd
       0.13506094 0.04243291 -0.1708194 -0.048629474
000270 19 bc 44 be 9d 7d 6f bd 21 45 d3 3e df 10 06 3d
       -0.19212379 -0.058469404 0.4126368 0.032730933
000280 7b 25 71 3e 17 16 22 3e 00 da df bd 9d 18 1f be
       0.23549454 0.15828739 -0.10930252 -0.15536733
000290 52 0d db 3c ff b8 5a 3e da 6f eb bd 36 e8 50 be
       0.02673975 0.21359633 -0.11495943 -0.20401081
0002a0 1f 5e d0 bd 45 db 06 3e 78 b2 37 be 02 be 23 be
       -0.10174202 0.13169582 -0.17939174 -0.15990451
0002b0 7d d1 0b 3b 54 f7 3e 3d a5 b0 a7 be ae 94 0b be
       0.0021334582 0.04662259 -0.32751957 -0.13630936
0002c0 99 58 21 3e 6c 46 aa 3d 37 72 d5 3e d3 4e 8f be
       0.15756454 0.08314213 0.41688702 -0.27989826
0002d0 50 c4 ba 3e aa ec 11 3e 19 e3 87 3d 0b 1b 52 be
       0.364779 0.14250436 0.06635112 -0.20518129
0002e0 f6 b3 53 be c4 6c 9c be 3b 28 f4 bd b1 e5 1d 3e
       -0.20674118 -0.30551732 -0.11921736 0.15419652
0002f0 95 90 97 3c 98 f9 35 3d 77 91 70 3e 66 53 cf be
       0.01850156 0.044427484 0.2349299 -0.40493315
000300 27 19 c0 be b1 8e b1 3d e5 e2 c8 bd 07 1b 8b 3e
       -0.3751919 0.08669794 -0.09808902 0.27169058
000310 09 75 b5 3c 20 50 e4 bc 66 e6 7e 3e 20 84 6a 3e
       0.022150533 -0.027870238 0.24892578 0.22901964
000320 39 cb 83 be 6a 45 b6 bd 03 5b 00 3e cd 15 f3 bd
       -0.25740984 -0.088999584 0.12534718 -0.118693925
000330 a0 c4 3e be 67 f5 8e 3c 14 d5 55 3d 65 b9 bb 3d
       -0.18629694 0.017451001 0.05220516 0.091662206
000340 20 f4 9d 3d be 6a 33 3e ed ca c0 3d 8a 53 29 3d
       0.07712579 0.17521188 0.09413705 0.041339435
000350 f9 16 e0 bc 01 16 07 3e c6 f5 39 3e b4 96 ae 3e
       -0.027354704 0.13191988 0.18160161 0.34099352
000360 2f 9e 5f be 5a e0 17 bd b9 f8 5b be bc 53 2f be
       -0.21837686 -0.037079193 -0.21481599 -0.17121786
000370 f8 85 18 be 5d e4 df 3d 94 21 79 be ea 7e af 3c
       -0.14894855 0.10932229 -0.24329215 0.021422822
000380 ab de 80 bd 55 49 8b 3e 5e ad c0 3e 0a df e7 3c
       -0.062924705 0.27204385 0.3763227 0.028304596
000390 6f 5a 20 3e 45 a9 cd 3d 0f f8 00 be 51 36 04 be
       0.15659498 0.10042051 -0.12594627 -0.12911345
0003a0 a7 27 9e 3d e9 0a fd 3d d3 29 6e bd 56 5f ae bd
       0.07722407 0.123555966 -0.058145355 -0.08514278
0003b0 64 06 93 3e 84 b8 83 be 12 1a bb bd 9d 3a 0d be
       0.28715813 -0.25726712 -0.09135832 -0.1379189
0003c0 7b 81 0d 3e 24 a9 4f bd c2 e8 a8 3e 27 0b 23 3e
       0.13818924 -0.050698414 0.3299008 0.15922223
0003d0 d5 9b df bc 2e 87 a9 3e d5 31 c9 3d 69 99 30 be
       -0.027295986 0.33110946 0.09823958 -0.17246021
0003e0 01 e4 df 3d df c4 e0 bd 03 e6 aa bd d7 c8 5b 3e
       0.1093216 -0.1097505 -0.083446525 0.21463333
0003f0 41 31 96 3e 76 61 f5 3d 67 7a db be bc 31 02 be
       0.29334453 0.1198148 -0.42866823 -0.12714285

b1 f4 [96]
000000 28 95 ab bb b2 ce 8e ba 00 00 00 00 8a 27 db 3b
       -0.0052362867 -0.001089534 0.0 0.006688063
000010 e1 d2 10 bc 00 00 00 00 96 94 00 bb 4a d7 e9 3b
       -0.00883934 0.0 -0.0019619814 0.00713626
000020 aa 5f 7b bb c0 ce d7 37 6c 79 2f ba 6e d3 53 bb
       -0.003835658 2.5726273e-05 -0.00066938135 -0.0032322067
000030 8b 9e 94 ba 0e db 6a 3a c8 35 06 3c 48 54 ec b9
       -0.0011338753 0.00089590333 0.008191533 -0.00045076222
000040 32 a8 8f bb e8 11 31 3a 48 4f b1 3c cd 8d 52 bc
       -0.004384064 0.00067546824 0.02164425 -0.012851191
000050 56 ae 69 3c 00 00 00 00 00 00 00 00 46 62 61 3c
       0.014262756 0.0 0.0 0.01375634
000060 52 9b ee b9 bd 12 21 b9 00 00 00 00 c8 ea 35 bc
       -0.0004551062 -0.00015361137 0.0 -0.0111033395
000070 00 00 00 00 8a 0c cf b8 4a 6b d7 3b cc 91 74 bc
       0.0 -9.872865e-05 0.006574069 -0.014927339
000080 8a 86 81 bc dc 57 db 39 18 ef bb bc 23 32 46 39
       -0.015811224 0.00041836395 -0.022941157 0.00018901429
000090 dc 97 bb 39 f2 cd 10 3c 11 2c 2b 39 c6 53 e4 bb
       0.00035780563 0.008838164 0.00016324247 -0.0069679944
0000a0 7e a9 65 3b 3b 38 0c 3c 2f 92 9b 3c 80 0d 78 3a
       0.0035043652 0.008558328 0.018990604 0.0009462461
0000b0 0a ac ae 3b 2d cc 83 3c 00 00 00 00 23 7f 80 3b
       0.0053305672 0.01608857 0.0 0.003921406
0000c0 18 30 b5 38 5c b4 b7 bc 26 98 1a ba f0 b1 91 ba
       8.639711e-05 -0.02242487 -0.00058973057 -0.0011115652
0000d0 8b a1 4f bc 1f fd a4 b9 00 00 00 00 89 17 bc 38
       -0.012672792 -0.00031469107 0.0 8.968922e-05
0000e0 84 1a 0c bc e8 72 4c bc 60 a5 71 ba 97 62 4f b9
       -0.008551244 -0.012478568 -0.0009218063 -0.00019777786
0000f0 dd d0 0d 3c 3c f6 a1 bb d4 d8 e4 bb 2e a2 e5 bb
       0.008655754 -0.0049426835 -0.0069838557 -0.0070078587
000100 e5 5c 7f bc be 36 9b ba 00 00 00 00 d0 54 86 3c
       -0.015586113 -0.0011841876 0.0 0.016397864
000110 68 71 81 bc 0d 48 d9 ba 52 73 a1 39 a8 0f 23 3a
       -0.015801147 -0.0016577259 0.00030794233 0.00062202895
000120 00 00 00 00 f8 e8 85 3c 87 8c 8c 3b 00 00 00 00
       0.0 0.01634644 0.004289213 0.0
000130 32 98 ad bb 58 c7 9a 3b 2a fa 4f 39 c1 7a 24 3c
       -0.005297684 0.0047234707 0.00019834252 0.010039032
000140 58 aa ed 3a 72 17 3c bc 53 f3 10 3c 00 00 00 00
       0.0018132431 -0.011480199 0.0088470755 0.0
000150 6e 6b b8 bb 36 c2 7d 3c 82 02 3a 3b 05 c8 19 3c
       -0.005628041 0.015488198 0.0028382842 0.009386067
000160 00 00 00 00 cc ef 6f ba 2a b8 da 3a 77 dd 11 bc
       0.0 -0.0009152859 0.0016686965 -0.008902899
000170 08 13 05 bc 9f f9 ea 3b bd 4e 88 3b 58 7b 8d 3c
       -0.008122213 0.0071708704 0.004159777 0.017270729

W_action_type f4 [96, 4]
000000 87 9a 91 3d a8 60 bd 3d 64 56 cc bd 31 87 19 be
       0.07109552 0.09246951 -0.09977415 -0.14992978
000010 2a fa ac 3c 78 0d 22 bc 91 01 ba bc 83 d5 5b bd
       0.021115381 -0.0098909065 -0.022705825 -0.053670418
000020 56 48 1a be fc e1 84 3d d6 df 9f be 59 f3 73 bd
       -0.15066656 0.064884156 -0.3122546 -0.059558246
000030 e6 f8 91 3d e0 57 d3 3d 21 0e 93 3d 8c ac 7e bd
       0.07127552 0.10319495 0.07180429 -0.062176272
000040 b6 53 12 3e af 18 9a 3c b0 60 06 3d 68 53 8d be
       0.14289746 0.018810598 0.032807052 -0.27602696
000050 2f ae 5e 3e 2d e2 54 3e 93 49 47 bd ed 19 6d 3e
       0.21746133 0.20789404 -0.04865415 0.23154421
000060 8b 29 53 bb 66 a8 82 be 80 1c af bd df ec b0 3d
       -0.0032220806 -0.25519103 -0.08550358 0.086389296
000070 d9 da 9c be ea 3e bc 3c a3 d2 ca 3d b6 b4 9a 3e
       -0.30635718 0.022979219 0.09903457 0.30215997
000080 da 34 d9 bd 29 69 07 be c5 1a 9e 3e 94 bf 04 3c
       -0.10605784 -0.13223709 0.308798 0.008102316
000090 8b 0f 01 3e 5d f0 9d bc e0 6c 2d bd c5 c2 30 3d
       0.12603585 -0.019279653 -0.04234016 0.043154497
0000a0 08 15 bf 3c 65 76 dc 3c 60 05 0d 3d 2a 11 05 3e
       0.023325458 0.026911924 0.034428954 0.12994829
0000b0 b1 42 c9 bc 0e 7a f6 bd f4 ab c7 bd 55 95 ef bd
       -0.024567934 -0.12034999 -0.09749594 -0.11698405
0000c0 1b 49 10 3c a6 23 09 bb ea f7 64 be d3 f5 38 be
       0.008806492 -0.002092579 -0.22360197 -0.18062524
0000d0 c7 50 e2 bd 1f e4 e6 3d f5 d7 25 3e 85 cc 5a 3e
       -0.11050563 0.112739794 0.16195662 0.2136708
0000e0 28 de 47 bd d1 8c 34 be 85 a4 b4 ba bf 9e 3e 3e
       -0.04879585 -0.17631842 -0.0013781941 0.18615244
0000f0 95 ec ce bd 6a a3 1c 3b aa dc 3a 3e dd 0e bd bd
       -0.10103718 0.0023901113 0.18248239 -0.092313506
000100 25 45 0d 3c ca 87 fc 3d 71 90 d1 bd 3b 34 98 bd
       0.008622442 0.12330587 -0.10232628 -0.07431837
000110 eb 89 8c bd fb fe de bd 2a 06 b2 bd aa 81 50 be
       -0.06862243 -0.108884774 -0.08692582 -0.20361963
000120 8f be 8c 3d f0 6d fa bd c3 8c 7f bd 60 79 2e 3d
       0.06872284 -0.12228 -0.0623901 0.04259622
000130 24 c6 9c bc 3a 08 51 bd 53 19 65 be 9d d0 ab 3d
       -0.01913745 -0.051033236 -0.22372942 0.08389399
000140 d7 40 07 3e 59 65 8c 3d 12 32 ac 3d 77 c2 03 3e
       0.13208328 0.06855268 0.08407988 0.12867151
000150 bf c7 9a 3d a6 a9 39 be 8d 11 f5 bc ce ee 91 bd
       0.0755763 -0.18131122 -0.029915595 -0.071256265
000160 28 53 91 bd c5 c6 00 bb 2c 57 bb 3d d1 70 21 bd
       -0.07095939 -0.0019649726 0.09147486 -0.03941423
000170 78 ec 4e 3d d0 66 9a 3d af c3 7a be 4c 29 a4 bd
       0.050518483 0.07539141 -0.2448871 -0.08015689
000180 8c dd a9 3d f8 2e 71 3e be 77 1e be ff 29 41 3d
       0.0829421 0.23553073 -0.15475366 0.04715919
000190 10 cb 91 bd 41 c6 d7 3d 1c c4 7a bd 39 eb db 3d
       -0.07118809 0.10535861 -0.06122218 0.107382245
0001a0 ae 51 bb 3d fe 3e 34 bd 2b ad 11 be 3e 4c 51 3e
       0.091464385 -0.044005387 -0.14226215 0.2043924
0001b0 21 24 ae bd 85 0a b4 3d 24 f1 5b 3e 76 7e 16 bd
       -0.08502985 0.08791069 0.21478707 -0.036741696
0001c0 59 b4 c1 bb 42 a5 a1 be 81 54 fd 3d 70 23 a5 3d
       -0.0059113917 -0.31571394 0.123696335 0.080634
0001d0 ad f9 24 be 1a f0 93 bc 76 47 86 3c dc 52 93 3d
       -0.16110869 -0.018058825 0.016391497 0.071935385
0001e0 45 c6 32 3d 42 1e 8e be 78 dc ae bd e5 08 de bd
       0.043646116 -0.2775746 -0.08538145 -0.1084154
0001f0 80 03 13 3e 36 27 15 3e bb a8 d5 bc 78 fa e0 bd
       0.14356804 0.14565739 -0.026081434 -0.10985273
000200 23 86 7b bc 31 95 eb 3d 2c c8 8f 3d 87 00 24 be
       -0.015351805 0.115030654 0.07020602 -0.16015826
000210 e3 cf ee 3d 8d 52 39 bd e0 3c 08 3d 6e 5e 77 be
       0.11660745 -0.045244742 0.03326118 -0.24157116
000220 8e fb f0 3c 9a 9c 50 3e bc 88 13 be 80 76 3e 3d
       0.029416826 0.20372239 -0.14407629 0.04649973
000230 27 8b 0e 3e de 24 19 be 97 e7 97 be f3 fb 5a 3e
       0.1392027 -0.1495547 -0.29668877 0.21385173
000240 2e b8 65 be 22 66 1d be d7 d4 9b 3e 10 95 43 3d
       -0.2243354 -0.15370992 0.3043582 0.04774958
000250 b4 77 85 3d bc 36 86 bd 0b bf 34 3e 3c 14 f4 bd
       0.06516972 -0.065534085 0.17651002 -0.11917922
000260 fc 2e 4d 3e c9 18 b2 3e 2a 46 4f be 20 47 08 bd
       0.20037454 0.34784535 -0.20241609 -0.033270955
000270 3b 8f 12 be d1 0f 23 be 60 9f 1a be 43 29 2c bd
       -0.1431245 -0.15924002 -0.15099859 -0.042031538
000280 b6 62 8d be a1 98 c1 3d f4 11 64 3d 75 b8 6f 3e
       -0.27614373 0.0945294 0.055681184 0.23410209
000290 56 1f 3f 3e dc cc e6 bd 85 80 94 3d 94 86 10 3e
       0.18664297 -0.112695426 0.07251076 0.14113837
0002a0 c2 94 8f bd 30 2f 1b 3e a1 cc 8c bc e8 b5 3f be
       -0.07010795 0.1515472 -0.017187418 -0.18721735
0002b0 be 07 e0 bb f8 26 ca 3b b2 45 9a 3c 61 2d 55 bd
       -0.0068368604 0.006169196 0.018832061 -0.05204523
0002c0 85 85 e1 ba 89 db f7 3d d3 36 09 3d 5f eb d3 3c
       -0.001720593 0.1210242 0.03349955 0.02586907
0002d0 8d bd ca be 38 34 9c bd 09 49 3a bd a1 56 87 3d
       -0.3959774 -0.076271474 -0.045479808 0.0660832
0002e0 d2 2a bd 3d b9 2a a4 bd 4f 3b 1f 3e df 1c ac 3d
       0.09236683 -0.08015961 0.15549968 0.08403944
0002f0 45 64 34 be 18 21 60 b8 80 f3 f9 3d f0 69 e8 bd
       -0.17616375 -5.3436583e-05 0.12204647 -0.11348331
000300 c9 f9 b3 bd 15 36 8a be f7 89 c5 3d f5 9a 33 3e
       -0.08787877 -0.26994386 0.09645455 0.1753958
000310 9d 2c da 3c 06 c9 c6 3d d3 de c6 3c 50 71 9d 3e
       0.026632601 0.09706311 0.024276173 0.30750513
000320 b8 aa b4 bb 57 57 1b be fb 2f 87 bd c0 55 a6 bc
       -0.0055135153 -0.15170036 -0.066009484 -0.02030456
000330 93 00 56 3e e7 22 a5 be 51 c9 33 3e 90 f2 7a bd
       0.20898657 -0.3225319 0.17557265 -0.061266482
000340 79 5d 36 3e d1 a4 52 3d 39 9f 58 be 91 cf 88 3d
       0.17809094 0.051426712 -0.21154489 0.06680215
000350 f2 16 7a 3d c9 c9 ea bc 71 5c 08 3c 93 fc 12 be
       0.06105704 -0.028660672 0.008322821 -0.14354162
000360 42 f5 da 3d 3c c8 6a 3d 19 f3 41 be 42 7c 95 bd
       0.106913105 0.057319865 -0.1894039 -0.07299091
000370 2b 93 be 3c 9f 74 b3 bd c0 8d 16 3e 6a df 60 bc
       0.023263535 -0.08762478 0.14702511 -0.013725141
000380 fa de 37 bc 32 05 85 3b 09 73 45 bc cd b6 f8 bd
       -0.011222595 0.004059457 -0.012051352 -0.121442415
000390 4a 4c 34 3e dc 04 6a 3e 99 0a a0 bd a4 0d b8 bb
       0.17607227 0.22853416 -0.07814521 -0.0056168605
0003a0 fd b5 ec bd 73 bc 39 bd 95 09 90 be 80 46 92 3d
       -0.11558149 -0.045345735 -0.2813231 0.07142353
0003b0 40 0e fa 3d 71 23 67 3e ee 6c 07 be d6 f9 27 3e
       0.12209749 0.22572114 -0.13225147 0.16403899
0003c0 cf 8f 42 be 10 70 33 3e 89 ba bd bd d3 42 fd bc
       -0.19000171 0.17523217 -0.092640944 -0.030915653
0003d0 e8 23 d5 3b 18 20 e7 ba e2 a0 08 be 19 ba b0 3c
       0.0065045245 -0.0017633466 -0.13342622 0.021573113
0003e0 38 b1 64 3e a2 99 99 bd ec 57 d8 bd 80 ec 42 3e
       0.22333229 -0.07500006 -0.10563645 0.1903553
0003f0 83 22 16 bd ac 69 ca bd c3 60 1a bd a7 af c8 3e
       -0.036654007 -0.098834366 -0.037689935 0.39196512

b_action_type f4 [4]
000000 d0 3e f1 b9 56 45 8e 3a be 0e 5c ba e6 8d 60 39
       -0.000460139 0.0010854404 -0.0008394531 0.00021415166

W_play_habitat f4 [96, 4]
000000 8d 5b 35 bc 81 e4 64 3e f2 e5 47 bd 15 8d a1 bd
       -0.011069191 0.22352792 -0.048803277 -0.078882374
000010 79 e6 79 3d dd 16 d2 bc 02 fe 02 3e 50 ad 79 3e
       0.06101081 -0.025645668 0.12792209 0.2438252
000020 01 5a 9c be c3 3a 4f 3e cf 9f 12 3e 70 11 74 be
       -0.30537418 0.2023726 0.14318775 -0.23834777
000030 19 8a 15 3e 58 ec f8 be ac c3 36 bd 81 fa 41 3e
       0.14603461 -0.48617816 -0.0446202 0.18943216
000040 20 74 83 bd f2 53 01 bd 29 6f 89 bc 97 81 be bc
       -0.064186335 -0.031574197 -0.016776638 -0.023255153
000050 92 45 12 3e 9a 4f 25 3c 3c 20 b7 bc ab 03 2b 3e
       0.14284351 0.010089779 -0.022354238 0.16700618
000060 ac 15 80 3e 68 f1 52 3e 9b 87 c3 bd b7 0b cd 3c
       0.25016534 0.20599902 -0.09547349 0.02503
000070 57 fc 2d be b7 12 ae 3d bc ef 80 3e 21 87 eb bd
       -0.16990791 0.08499663 0.25182903 -0.11500383
000080 4e f4 e7 3d a8 e1 91 3c 7c 3b bd bb 0f d5 4f bd
       0.11325894 0.017807797 -0.0057749134 -0.050740298
000090 df 9f 08 3e a3 71 f1 3c d3 5f 47 3e f1 29 18 3e
       0.13342236 0.029473132 0.19470148 0.1485975
0000a0 5f f3 47 3d 87 36 52 3e d6 af c9 bd e3 2c 0b 3e
       0.04881608 0.20528613 -0.09847991 0.13591342
0000b0 fa 2f 59 3d a9 40 bb bd 80 1a 23 be d7 6b e3 bd
       0.05302427 -0.09143192 -0.15928078 -0.11104553
0000c0 de e4 24 bd 59 fe 73 bd bc 4a 6c 3e 91 c8 41 be
       -0.040257327 -0.059568737 0.23075384 -0.18924166
0000d0 46 e4 9b 3d 07 90 eb 3d 11 21 d7 3d a3 98 ee 3d
       0.07611899 0.115020804 0.10504354 0.11650207
0000e0 a4 63 3e bd a3 8f 6e bd 94 d3 b2 3c 44 c2 21 be
       -0.046481743 -0.05824245 0.021829404 -0.15796763
0000f0 0f 39 cd bd b2 58 24 be 3b 3c 26 be c8 51 00 3e
       -0.10020649 -0.1604946 -0.16233914 0.12531197
000100 fd de 81 3e 99 c7 5f 3d 90 8b 8e 3d 74 11 bd 3d
       0.2536544 0.05463371 0.06960213 0.092318445
000110 a6 25 47 be cc 27 a0 3e 7c c8 3a be cc 47 5d 3e
       -0.19447955 0.31280363 -0.18240541 0.2160942
000120 32 83 b6 3c 84 27 08 3e 3b c0 19 bc 4d 2e 3a ba
       0.022279356 0.13296324 -0.00938421 -0.0007102236
000130 47 1c 51 3e ec 6e 10 3e 3a 5f 7c bd af 7f 84 bd
       0.20420943 0.14104813 -0.061614253 -0.06469666
000140 39 c4 94 bd f5 48 04 be 48 b3 b6 be fc 0d 5e bc
       -0.07263989 -0.12918456 -0.35683656 -0.013553139
000150 c1 cb cd bb 3e 5e 4c bd fc 02 64 3d 21 f2 fb bc
       -0.006280393 -0.049894564 0.05566691 -0.030755104
000160 b2 bf be 3e 9b 9a 08 be 4c e3 46 be b5 cd 77 be
       0.37255627 -0.13340227 -0.19422644 -0.24199565
000170 db 25 f3 bc d0 d7 e7 bd ba 88 f0 3c 79 3b 85 3e
       -0.029681137 -0.1132046 0.029362071 0.26021937
000180 e8 02 2f 3e 6f 6c 25 bd f3 c2 bd be d4 c2 03 3e
       0.17090952 -0.040386613 -0.37062797 0.1286729
000190 7e d5 68 3e 88 4e fa bc 36 cd 97 bd 16 4c 59 3e
       0.22737691 -0.030555025 -0.07412188 0.2122043
0001a0 80 a5 27 be 50 cb 45 be c6 0d 70 3d 89 28 6f 3d
       -0.16371727 -0.19315839 0.058606885 0.058388267
0001b0 5e 03 0e 3e a1 11 44 be 9c ca 04 3d 88 fc eb 3d
       0.13868472 -0.1914735 0.032419786 0.11522776
0001c0 43 8e 04 3c 41 3c 37 3e af 0b 3b 3e 19 f6 2c 3e
       0.008090558 0.17894079 0.18266176 0.16890754
0001d0 f4 5d a5 3d c6 e7 30 3e 2f be 33 3e 9d 82 ab 3d
       0.08074561 0.17275915 0.17553018 0.08374522
0001e0 a7 bd 07 3e 20 6e b4 3d d2 e1 22 3d c1 59 a1 3c
       0.1325594 0.08810067 0.03976614 0.019696118
0001f0 20 13 93 bd 3b a5 fa 3b 93 79 6d 3d 78 44 b8 bd
       -0.07181382 0.0076490915 0.05797727 -0.089974344
000200 3e ae 98 3c 7c d2 96 be 45 f6 31 bc 0a 89 ed ba
       0.018637773 -0.29457462 -0.010861938 -0.0018122506
000210 79 7f 9b 3e 7d a8 fe 3d 47 47 41 bc 16 32 22 be
       0.3037069 0.1243448 -0.011796779 -0.15839419
000220 d3 81 8e 3e 73 6d 4a 3e c9 44 4c 3d a4 57 99 bd
       0.27833423 0.19768314 0.049870286 -0.07487419
000230 44 e8 13 be 50 9a 32 bc 0d 4b e7 bd 5d cc df bc
       -0.14444071 -0.010901049 -0.11293612 -0.027319128
000240 00 19 84 3c 10 f5 5b 3e 5e db af 3d d0 92 6c 3c
       0.016125202 0.21480203 0.08586763 0.0144393
000250 7c f8 ea bd 50 fb 1d 3c 96 af 39 3e 4e 67 45 bd
       -0.11473176 0.009642437 0.18133387 -0.048194222
000260 70 43 af 3d d6 ce 94 3d 80 56 32 be b4 4a c7 3c
       0.085577846 0.07266013 -0.1741581 0.024327613
000270 66 8a 3d be 8a 1d 48 3d 5a de d2 bd b0 01 68 be
       -0.18509826 0.048856296 -0.102963164 -0.22656894
000280 7f 0b 2a 3d 4d 2b 42 bd fc 83 bf 3d da cd bf 3e
       0.04151487 -0.047404576 0.09351346 0.3746174
000290 3e e1 09 3e ef 1b 54 3e 81 9e 47 3d e1 98 d2 bc
       0.1346483 0.20713781 0.048735145 -0.025707664
0002a0 ce 1d b3 3d 02 60 83 ba 96 ba 18 bd ec 82 2f be
       0.08745919 -0.0010023119 -0.037287317 -0.17139786
0002b0 5b 31 c5 39 e5 9b 12 3c ed 21 37 be dd b2 ce 3c
       0.0003761154 0.008948301 -0.17884035 0.025231773
0002c0 a0 37 26 be a3 e4 19 be 2a 90 88 3e 47 15 44 39
       -0.16232157 -0.15028624 0.26672488 0.00018699943
0002d0 79 78 1c 3e b2 2e 00 3e 8b 8c 93 3c 13 42 fd bd
       0.15280332 0.12517813 0.018011352 -0.12366118
0002e0 47 b6 01 be 8a 81 a2 bd 20 95 34 be 97 a0 42 3e
       -0.1266719 -0.07934864 -0.17635012 0.19006573
0002f0 7b 00 5d 3d c4 46 26 3e e2 00 23 be ff 74 ff 3d
       0.053955536 0.16237932 -0.15918306 0.12473487
000300 be ba d8 bd ff dc 0b be 24 73 a4 bd 3f 4e 88 bd
       -0.10582493 -0.13658522 -0.08029774 -0.06655549
000310 22 31 10 3e 7e 33 85 be 7a 8e f1 bc 24 f5 2d bd
       0.14081243 -0.26015848 -0.029486883 -0.042470112
000320 3c 84 21 3e 0a ab 9b 3d 0c a8 ee 3c 9d 8b c9 bc
       0.157731 0.076009825 0.029132865 -0.024602706
000330 ce 69 31 bd c0 35 19 be 66 5b 22 3e ad 5c 10 3e
       -0.043313794 -0.1496191 0.15855178 0.14097853
000340 00 86 f9 bd 2e 54 bd bc d8 24 d9 bd 19 37 8e bd
       -0.121837616 -0.023111429 -0.106027305 -0.06944103
000350 c4 e4 89 bd 63 28 87 bd 3a f5 6f 3c e3 87 7c be
       -0.06733087 -0.065995 0.014645869 -0.24661212
000360 e2 62 9a bd ba 2d 25 be 69 95 53 bd a5 c2 fb bd
       -0.07538392 -0.16130725 -0.05165616 -0.12292985
000370 a0 a2 b9 3e 77 9f a1 3c 29 4e 04 3e f4 ab 09 3d
       0.36256886 0.01972936 0.1292044 0.033611253
000380 06 ad 52 3d c1 0b f9 3d ea 2e df bd 69 a2 2d bd
       0.05143454 0.12160445 -0.1089762 -0.042391215
000390 4f 72 f8 bd 6f db f4 3b cb b2 02 be 05 52 eb 3c
       -0.12131178 0.0074724476 -0.12763517 0.028725633
0003a0 35 b0 f7 3c 73 c8 1c 3c 26 24 5f bd b3 e9 66 be
       0.03023539 0.009569275 -0.054477833 -0.22550087
0003b0 02 f3 2a 39 1d 4f e2 be 35 f1 99 be a0 ca 8f bd
       0.00016302991 -0.44200984 -0.3006684 -0.070210695
0003c0 7a 60 15 bd 4d 88 a3 bd 9d 21 12 3d bb 38 79 3b
       -0.03646896 -0.07984982 0.035676587 0.0038028199
0003d0 ba b5 19 be b8 60 10 3d 3a 20 41 bd b1 9b 5f bc
       -0.1501073 0.03524849 -0.047149874 -0.01364796
0003e0 22 94 03 3d 90 41 f8 bd 14 7a 07 3e 50 c6 41 bd
       0.032123692 -0.1212188 0.13230163 -0.047308266
0003f0 3e b0 03 3c b1 8e 50 be 08 69 a7 3c e9 7b 2f 3d
       0.008037625 -0.20366932 0.020435825 0.04284278

b_play_habitat f4 [4]
000000 02 2b 18 38 f7 92 bb b6 fb 2f b9 b6 46 25 d3 b7
       3.6279678e-05 -5.5901432e-06 -5.5190153e-06 -2.5170517e-05

W_gain_food_primary f4 [96, 7]
000000 e2 09 82 3d 34 14 38 bd 1e ea 58 3e 5c 6f f6 bd
       0.06349541 -0.044941142 0.21183059 -0.12032959
000010 b7 c1 c7 3e 11 7d 7c 3e 07 8f 49 be d4 8a 07 be
       0.3901498 0.24657084 -0.19683467 -0.13236552
000020 0a b3 93 3d 27 2c d9 bb 0c 8d a2 bd 8a 44 ed bb
       0.07211883 -0.006627578 -0.07937059 -0.0072408365
000030 77 88 6f 3e 48 c4 c3 3d 04 bc 13 3d 07 4b ee bd
       0.23391901 0.09558922 0.036067978 -0.11635404
000040 71 61 07 be 17 22 5f 3d 4b b1 e2 bd 86 cb a6 3d
       -0.13220765 0.05447587 -0.11068972 0.08144288
000050 f4 9b 6e 3e 2a cf 00 3c 3c f8 5c be 40 76 cb 3e
       0.23301679 0.007861892 -0.21579069 0.39738655
000060 1a 1a 04 3e 81 c2 c6 bd 0e b2 3d 3e 8a e9 59 bd
       0.12900582 -0.097050674 0.18524954 -0.053201236
000070 85 5d 5e 3e b6 b8 5f 3e ff 3f 67 3e dd 7c 1f 3c
       0.21715362 0.21847805 0.22583006 0.00973436
000080 ac 8c 88 3d 4e 61 d5 bc 3d bb 01 3a 52 5d f6 3b
       0.06667456 -0.026047375 0.000494886 0.007518449
000090 52 30 dd 3d 8f 5e a3 bd d4 59 2c be e4 68 4d 3e
       0.10800232 -0.0797702 -0.16831142 0.20059544
0000a0 0f 7b 23 3e 8c 65 3a be d2 df 8d be 18 87 02 3e
       0.15964912 -0.182028 -0.27709824 0.12746847
0000b0 46 8a c1 3c 96 da b7 3c 1c 2c f1 bd df 8a 06 be
       0.023625504 0.022443097 -0.11775991 -0.13138913
0000c0 88 ad a5 bd 8b dd b2 bc 66 95 30 3d 94 a3 78 be
       -0.08089739 -0.021834156 0.043111227 -0.2428115
0000d0 18 be 89 3d 8a 7f 47 3e 4d 25 84 be 08 a3 26 bd
       0.06725711 0.19482246 -0.25809708 -0.040682822
0000e0 6d f9 02 3d 21 1d 81 bc 38 fa ae be 21 75 1e 3d
       0.031976152 -0.01576096 -0.34175277 0.03868592
0000f0 06 52 6f bd c4 7d 83 be 1b 34 e2 bd 10 c4 76 38
       -0.058427833 -0.2568189 -0.110450946 5.8833568e-05
000100 33 8f c9 3d f0 92 df 3d 2a e7 b1 3e f9 9c 64 bd
       0.09841766 0.10916698 0.34746677 -0.055813763
000110 bc ee 85 bd aa 00 39 3e 22 cd 47 3e 7f e4 b5 bc
       -0.065396756 0.1806666 0.19511846 -0.022203682
000120 e8 3b 1e 3e f9 86 b9 bd 7c c8 af be 4a 4a dc bc
       0.1545254 -0.09058947 -0.34332645 -0.026890893
000130 ac 5c cb bd 11 de e8 3d a5 77 a2 3d 44 25 1f be
       -0.09929785 0.11370481 0.07932977 -0.1554156
000140 de dc 78 bc 6f 5f 13 3e ac 34 c3 bc 5b 70 df b8
       -0.015189378 0.14391874 -0.023828827 -0.000106543965
000150 c2 e9 45 be 88 3d 9d 3e 4f 46 3e 3e 68 ae cf 3d
       -0.19327453 0.30711007 0.18581508 0.10140687
000160 a4 06 21 3d 97 d6 d6 3d 29 5a 17 3e c9 48 72 3d
       0.039312974 0.104901485 0.14780487 0.059151445
000170 22 f9 33 be 66 3a e9 3d a1 fd 9d bc ed 9f 16 3d
       -0.17575505 0.11388092 -0.019285979 0.03677361
000180 4a e9 85 3e 49 17 8f bd 84 6c 66 bd 16 30 d5 3d
       0.26154548 -0.06986863 -0.056255832 0.10409562
000190 c8 37 ec bd 8a c4 d1 3d 73 bb d0 3c 5c 9d 7c bd
       -0.11534077 0.10242565 0.025480008 -0.061673507
0001a0 52 ca 3a be 74 83 b6 3d 77 53 12 be ff ef 58 3e
       -0.18241242 0.089117914 -0.14289652 0.21185301
0001b0 ae f0 2d 3e 5d 35 8f bc d4 8f 5e be 58 5d 25 be
       0.16986343 -0.0174815 -0.21734554 -0.16148889
0001c0 ce b2 b8 bc a0 49 d3 3d 38 2a ea bd 87 a0 41 bd
       -0.022546198 0.10316777 -0.11433834 -0.04727223
0001d0 ce 70 40 3e 50 85 97 bd 5b 24 47 bd be 0d 01 3e
       0.18793032 -0.07398474 -0.048618656 0.12602898
0001e0 f2 7e b1 3d 3b c2 57 be b0 c6 5b bd 83 94 56 bd
       0.08666791 -0.21070187 -0.05365628 -0.052387726
0001f0 9d 0c 43 be 89 a4 1d 3e 52 c3 e9 bd 0b 68 1b 3e
       -0.1904778 0.15394796 -0.114142075 0.15176408
000200 26 38 84 bc 78 32 1e bd 26 ff fc bc f4 a7 ce bd
       -0.016140055 -0.03862235 -0.030883383 -0.10090628
000210 18 ff 42 3e 91 0b 48 3e b9 8d 17 be 26 e5 09 3e
       0.19042623 0.19535662 -0.14800157 0.1346632
000220 c2 e2 fa 3c 28 5f 3e be 53 ec 7a 3e e1 fc a0 3c
       0.030625705 -0.18590987 0.24504213 0.019651832
000230 46 9c 1c 3e d4 e8 a4 be df d3 96 bd ef 6f 01 3e
       0.15293989 -0.32208884 -0.0736463 0.12640356
000240 3f 8a d1 bd 1b a8 a7 be 36 7b 72 3e 56 a9 92 bd
       -0.102314465 -0.32745442 0.23679814 -0.071612045
000250 8c e5 85 3a 95 53 1d be 2e 7a c6 3d 09 64 01 bd
       0.0010215505 -0.15363915 0.09691273 -0.03158954
000260 51 d5 50 bd 24 8b ea 3d a6 2b 2f 3e 92 1d 89 3d
       -0.050984684 0.1145232 0.17106494 0.06695093
000270 dd fc ea 3d b2 0f a8 be 95 b7 bf 3d 4c f2 7a 3d
       0.11474011 -0.32824475 0.09361187 0.06126623
000280 42 c8 53 3d c5 62 cb bd 6e b2 cb bc 96 82 71 3e
       0.051704653 -0.09930948 -0.024865355 0.23584971
000290 56 36 a2 3e f7 b0 a0 3e 0c 78 ee 3d d1 8e d9 bd
       0.3168208 0.31385013 0.11643991 -0.10622943
0002a0 36 e2 91 3d 26 a0 0f be 0a 80 ae 3d 7f 81 b5 bb
       0.071232244 -0.14025936 0.08520515 -0.005539119
0002b0 02 a7 0f be 2e 53 f2 3d d1 3c ca 3c 62 f3 c2 3d
       -0.14028552 0.118322715 0.024687203 0.09519078
0002c0 21 92 3f bd a9 bf 8e 3d a3 2c 86 be f0 83 a9 bd
       -0.04677022 0.0697015 -0.2620593 -0.08277118
0002d0 0a 3a db bd 8e de b4 3c 9f 5d b9 bd 5d b3 03 bd
       -0.107044294 0.022078779 -0.0905106 -0.032153476
0002e0 d1 80 20 3e 12 48 ce 3d e8 6d 1d 3d e8 86 f1 3d
       0.1567414 0.1007234 0.038434893 0.117933095
0002f0 50 47 6e 3e e5 ea 01 be 55 4e 50 ba 50 27 50 be
       0.23269391 -0.12687261 -0.00079462427 -0.20327497
000300 2d 88 2a 3d 36 d4 a6 bd f3 2b 2c 3e b7 b1 1f 3e
       0.041633774 -0.08145945 0.1681364 0.15595137
000310 be 84 1e 3e 6e 84 db 3d 1c 64 f0 3c 69 ce de 3d
       0.15480325 0.10718618 0.02934461 0.10879213
000320 46 eb ae 3d 93 ae 9a 3a 3b de 59 3d fb ab 77 bd
       0.085409686 0.0011801295 0.05319045 -0.060466748
000330 44 8c 93 bc 8d 64 d6 3d e5 55 ac bb 2f e7 08 3e
       -0.01801122 0.10468397 -0.005259263 0.1336944
000340 d8 da 5d 3d 82 f0 7a 3d 9c 77 18 3e 75 c1 93 bc
       0.054163784 0.061264522 0.14889377 -0.018036583
000350 e3 5d 2c be 36 56 dd bd 1b 5c 55 3e b3 64 0b be
       -0.1683269 -0.10807459 0.20835917 -0.13612632
000360 2d b0 02 be 65 52 fd bc 22 ae a7 bd ff a8 85 3d
       -0.12762518 -0.030923078 -0.0818751 0.06526374
000370 d4 71 e0 bd 01 32 45 bd 60 be cf bd 2e 9a b7 3d
       -0.10959211 -0.04814339 -0.10143733 0.08964954
000380 c4 24 f2 3d 0a 16 2d 3e d9 27 98 3d 19 e1 05 be
       0.11823419 0.16902938 0.07429475 -0.13074149
000390 37 be 9e 3e 3d 84 19 3e b2 73 9a bd 72 f7 65 3e
       0.31004497 0.14991851 -0.075415984 0.22457674
0003a0 2a 13 f0 3c 7f e0 87 3c 58 25 0c bc 4d 99 0f 3e
       0.029306013 0.01658654 -0.008553825 0.14023323
0003b0 ce 82 fe 3d d4 be 83 3c 41 92 94 be 86 fe 8e bd
       0.12427293 0.016082205 -0.29017833 -0.0698214
0003c0 3a 6b 9a bd 87 2f a7 bd 31 ce 90 3a 40 07 1d 3e
       -0.07539983 -0.08163362 0.0011047778 0.15334797
0003d0 88 66 10 be 4d 24 23 be 3b 95 a2 bd bb 06 0c be
       -0.14101613 -0.15931816 -0.0793862 -0.13674442
0003e0 55 89 2f be 58 e0 c5 3c c6 f5 19 bd 32 52 b5 3d
       -0.17142232 0.024154827 -0.037587903 0.08853568
0003f0 50 ea c9 bc 8b 0c 05 be f0 d6 9d bd 13 08 55 3e
       -0.024647862 -0.12993066 -0.07707012 0.20803861

b_gain_food_primary f4 [7]
000000 20 40 f7 37 37 d2 16 b9 f4 f2 51 39 2e 81 85 b9
       2.9474555e-05 -0.00014383426 0.000200223 -0.00025463983
000010 3e ef 37 b8 27 78 c3 39 e1 fa 27 b9
       -4.385341e-05 0.0003728282 -0.00016019821

W_draw_mode f4 [96, 4]
000000 c9 58 05 3d 12 37 c8 3c 2d d2 e1 3d af 4b 4b bd
       0.032555375 0.024440322 0.11026416 -0.049632724
000010 13 9e 32 bc 42 05 ca bd b6 04 52 3e 5c 33 0d 3d
       -0.010901946 -0.09864284 0.2050961 0.03447281
000020 85 af 36 bd a7 2a 52 bd 54 dc 14 3e 10 fd 85 be
       -0.044600982 -0.051310208 0.14537174 -0.26169634
000030 a7 c0 4b bd d8 2d f9 3c e6 dd 70 3e 65 34 a8 3d
       -0.049744274 0.030417368 0.23522148 0.082131185
000040 a3 86 2b be 0e ba 65 be 8f 63 be 3d b4 c5 bf 3d
       -0.16750579 -0.22434255 0.09296333 0.09363881
000050 66 22 7e bd 3b 86 8b 3e 80 73 61 3e 5b 05 8f be
       -0.062044524 0.27250847 0.22016716 -0.27933773
000060 2a cc 1f 3b 09 0a 13 be 86 a1 8e 3d 0a e1 90 3b
       0.0024383166 -0.14359297 0.06964402 0.004421358
000070 42 f4 3b be c7 6f 98 3c 42 84 bc bd 27 a6 3c 3e
       -0.18354896 0.018607987 -0.09204914 0.18422757
000080 cd cd aa 3c 11 d1 bb 3e c0 de 35 3e 23 4f 02 3d
       0.020850087 0.36682943 0.17760754 0.031813752
000090 4e 7f 6f be ba f3 1d 3b 26 64 f0 bc 4e 17 d9 3d
       -0.23388407 0.0024101571 -0.02934463 0.10600148
0000a0 7c 57 40 bd 05 8e 7d bd 55 e8 16 be fa 82 48 be
       -0.04695843 -0.06190302 -0.14737065 -0.19581214
0000b0 f7 ee 04 be 3a e7 87 bd 83 99 a1 bd 47 bc 75 3e
       -0.12981783 -0.066359 -0.07890608 0.23997603
0000c0 91 c1 b5 3c 3b 73 5d 3e 87 d0 12 be d6 ef 9a bc
       0.022187026 0.21625988 -0.1433736 -0.01891319
0000d0 6e 76 80 3d b6 ae 0c bd 52 0d 83 3e 04 90 29 3e
       0.06272589 -0.034346305 0.255961 0.16558844
0000e0 fb 51 9b 3d 1c 50 f6 3d a3 70 41 3d 06 0c 39 bc
       0.07583996 0.120269984 0.04722656 -0.0112943705
0000f0 15 ca d3 3d d8 a6 74 bd 76 f1 a7 bd 2c 63 bd bd
       0.103412785 -0.059729427 -0.08200352 -0.09247431
000100 1b b4 30 3d 25 22 4e 3d 5e bf 35 3e 35 29 61 3e
       0.043140512 0.05032553 0.17748782 0.21988375
000110 a8 01 51 be f8 83 e4 be c4 88 8e be e3 91 36 3e
       -0.20410788 -0.44631934 -0.2783872 0.17829089
000120 56 4e d1 3c 12 97 32 bd 2a 6c ed bd 65 00 d7 bd
       0.025550049 -0.043601103 -0.11592896 -0.10498122
000130 79 21 2d 3e 04 3a 20 be c7 3d 1f 3d 29 0f 2f be
       0.169073 -0.15647131 0.038877275 -0.17095627
000140 c4 fb 6f 3e d0 58 80 be 90 cc 09 3e ff 13 e3 3d
       0.23435885 -0.2506776 0.1345694 0.11087798
000150 49 c5 7e 3d 4b 68 a9 3c 66 2c cf bd 92 20 90 3e
       0.062199865 0.020679614 -0.1011589 0.2814985
000160 c8 d6 cc bd e0 84 aa 3e 09 21 7f 3e e0 07 d3 bd
       -0.10001904 0.333045 0.24914946 -0.103042364
000170 1e d9 a7 bd df 76 98 3d f8 89 73 3e 52 ba 0f 3d
       -0.08195709 0.07444548 0.237831 0.0350898
000180 3f 6b c5 3d 98 32 7a be a8 c3 b0 bc a3 ca 5b 3e
       0.09639596 -0.24433362 -0.021577671 0.21464019
000190 e1 86 7c bd 2b 8a 93 be 9e d7 9b 3b ba bf 15 3e
       -0.061652068 -0.2881635 0.004755928 0.14623919
0001a0 f0 31 e8 3d e2 ad 02 be 7f ad 2c be 68 28 46 3d
       0.1133765 -0.12761644 -0.16863059 0.04837838
0001b0 d9 6b 0d 3d 8b 23 29 be 77 02 49 3e 00 63 6c bc
       0.03452668 -0.16517465 0.19629847 -0.0144279
0001c0 54 17 e8 bd a8 40 3b 3e 0c bf 28 bd a2 09 67 3e
       -0.113325745 0.18286383 -0.04119782 0.22562268
0001d0 80 9f 41 3d 2e 24 c5 bb 4f 43 18 bd ad ef 9c 3e
       0.04727125 -0.006016276 -0.037173565 0.30651608
0001e0 e7 8f 9e bd 71 17 3c be b1 04 9e 3e 45 01 4d 3e
       -0.07742291 -0.18368317 0.30862954 0.20020016
0001f0 f8 80 76 be 56 61 11 3c 34 4b 60 3e ef cb 35 be
       -0.24072635 0.008873304 0.21903688 -0.17753576
000200 88 cd 94 bd 5f 45 c4 bd ef 36 f4 3d 02 73 7c 3d
       -0.072657645 -0.09583544 0.1192454 0.061633117
000210 3a e6 26 3d 20 ed f2 3d 50 ac b8 3c 53 33 21 3e
       0.040746905 0.11861634 0.022543103 0.15742235
000220 c9 ad 38 3d d2 34 2a bd ab c1 d5 3d d5 96 3e bd
       0.04508761 -0.04155428 0.1043733 -0.046530563
000230 b0 a0 70 3d c2 a8 0b 3e 1c 38 43 be 4d ab 76 bd
       0.058746994 0.13638595 -0.19064373 -0.06022196
000240 86 e9 c6 3d b6 4c e4 bd a9 1c 01 3e 62 79 bd bc
       0.0971251 -0.11147444 0.12608589 -0.023129169
000250 1a e3 5d 3d 2a da ba bd ad bd d9 bd 30 bc 79 bd
       0.05417166 -0.09123643 -0.10631881 -0.060970485
000260 34 b5 1e be 89 c3 bf bc 1a d4 19 be 7b e8 c2 3d
       -0.15498811 -0.023408668 -0.15022317 0.095169984
000270 20 a6 ba 3d 3f a8 d8 3d f2 70 ca bc ac 5a 2e be
       0.09113717 0.105789654 -0.02471206 -0.17026776
000280 1f 44 82 be af e9 a3 bd 62 54 40 be 0b a7 65 3e
       -0.25442597 -0.08003556 -0.1878219 0.22427003
000290 82 b3 61 be 3d c1 cc bc cb d0 1b 3e bc 67 e2 bd
       -0.22041133 -0.024994487 0.15216367 -0.11054942
0002a0 09 69 05 3d 83 8d df 3c 58 5b fa bd d5 4a 68 3c
       0.032570872 0.027289158 -0.12224454 0.014177998
0002b0 b6 73 03 be 04 e5 1a 3d ee 39 6d 3d b6 48 15 be
       -0.12837109 0.037816063 0.057916574 -0.14578518
0002c0 95 28 e1 3b 6a 07 57 bd 55 42 1e be 38 e1 1a bd
       0.006871293 -0.052497305 -0.15454991 -0.03781244
0002d0 77 eb 52 bd e5 9c c8 bd b5 8b fb bc a0 24 0c 3b
       -0.051494088 -0.0979555 -0.030706266 0.0021384135
0002e0 e7 63 04 bd 59 0e 93 be 2a 1e 3f be af 98 63 bd
       -0.032321837 -0.28721884 -0.1866385 -0.055565532
0002f0 ad 73 09 be a3 0c 9a be b9 90 d7 3d c9 08 e2 bd
       -0.13423033 -0.30087766 0.105256505 -0.11036832
000300 8f 8e 2d 3e 34 71 43 bd 4d 0e 6e bb 76 35 7d 3d
       0.16948913 -0.04771538 -0.0036324442 0.061818562
000310 c8 e4 81 bd a8 fd e9 bd 16 2f cb 3d 12 2c 41 3d
       -0.06342465 -0.11425334 0.0992109 0.04716117
000320 89 a8 9d bd 6b 50 00 3d d8 12 32 bd 96 0e a3 3d
       -0.07698161 0.031326693 -0.043475002 0.079617664
000330 fe bd 99 3d 8d f5 30 3c 0b 12 bd 3c 9e 7f 70 3d
       0.07506941 0.010800731 0.023079893 0.058715455
000340 2f b0 95 3e 49 28 01 3e ef ca 51 3d 7c c7 52 be
       0.2923598 0.12613024 0.051218923 -0.2058391
000350 b6 18 e2 bd 1e 0d 30 be 4d 56 76 bd 33 cf 7c 3d
       -0.110398695 -0.17192504 -0.060140897 0.061721038
000360 b4 db b1 bd 98 d8 bd 3c 63 53 a3 bc e8 33 af 3d
       -0.08684483 0.023174569 -0.019937223 0.08554822
000370 77 20 e8 bd 56 ef 3d 3e 99 90 f2 bc 71 8b f2 bd
       -0.11334317 0.1854833 -0.029609965 -0.118430026
000380 f9 97 ef bd c3 52 b0 3d 50 75 91 3d 1b 01 81 bd
       -0.11698908 0.086095355 0.07102454 -0.06299039
000390 72 e8 63 3d 5e 25 ca 3c a8 38 be bd e0 df 06 bd
       0.0556416 0.024676021 -0.0928815 -0.032928348
0003a0 03 ac 1b be aa ba 48 3e 64 eb 49 3e 46 1b d7 3d
       -0.15202336 0.19602457 0.197187 0.10503249
0003b0 ae 76 1e 3c 22 4f df 3c 9c cc b7 3e 7f 6a a7 3d
       0.00967185 0.027259413 0.35898292 0.081746094
0003c0 5e 88 df 3c 66 91 4f 3d 33 33 fc 3d f2 a8 00 3e
       0.027286705 0.050675772 0.12314453 0.12564448
0003d0 e8 17 a4 bd 0e 0d ab 3d 41 87 63 3d e9 dd 21 3e
       -0.08012372 0.08352099 0.05554891 0.15807308
0003e0 50 f6 17 3e ee fd f1 ba 61 01 dc 3d 54 29 89 bd
       0.14840055 -0.0018462518 0.107424505 -0.06697336
0003f0 96 96 e4 bc e9 4b ff bd 8a 37 4a 3d 6e 4e 67 3c
       -0.027903836 -0.124656506 0.049369372 0.01411782

b_draw_mode f4 [4]
000000 04 ca 48 b9 04 9f 67 3a 2f 22 96 b9 da b6 d4 b9
       -0.00019148743 0.0008835646 -0.00028635698 -0.00040572026

W_lay_eggs_bin f4 [96, 11]
000000 f9 6c 7f be f9 be 01 be 45 03 07 be fa 9e 80 be
       -0.24943914 -0.12670507 -0.13184841 -0.2512129
000010 77 db 4f bb 41 16 50 be 01 fb be bd 19 c3 98 3d
       -0.0031716505 -0.20320989 -0.09325219 0.07459087
000020 b4 db ae 3b a7 16 d0 bd bb 2c f4 bd e7 b4 f9 3d
       0.0053362492 -0.101605706 -0.11922594 0.121927075
000030 dd e7 35 be 61 da c4 bb 94 b0 2d be e5 eb 11 be
       -0.1776423 -0.006007478 -0.1696189 -0.14250143
000040 f0 6d 8d be ff a4 fd bd 08 c9 d3 bd cd 3b 48 3e
       -0.27622938 -0.12384986 -0.10341078 0.19554062
000050 52 ba 7c 3e fc d8 4e 3e fe 2a 72 3d 88 84 8e bb
       0.2468045 0.2019996 0.05912303 -0.004349295
000060 07 0c b6 3d 6f 62 d3 bd 86 39 2f 3e 8e ac db 3d
       0.08889013 -0.10321509 0.17111787 0.107262716
000070 ab 45 db bd 40 8d 22 bd f5 82 c4 bd 33 87 0c be
       -0.107066475 -0.039685488 -0.095952906 -0.1372345
000080 c0 67 54 3d 2b e6 7f 3e 5e c5 0b 3e e1 ee 8c bd
       0.051856756 0.24990146 0.13649508 -0.068815
000090 be 61 2f 3e b9 d6 d7 3e 1d 81 f0 bd 6b 3b 54 bc
       0.1712713 0.42156008 -0.117433764 -0.0129536195
0000a0 b4 d3 9e 3e 0e ca 46 ba 51 3d bf 3c 2d 5e b3 3d
       0.31020892 -0.0007583209 0.023344668 0.08758197
0000b0 f1 a6 46 bc 74 58 03 3e 46 2a 2f bd f2 37 1f 3c
       -0.012124763 0.12826711 -0.042764924 0.009717928
0000c0 86 c9 ba 3d cd b3 a1 bd 3e aa 4c bc b8 09 bd bd
       0.09120469 -0.078956224 -0.012491761 -0.09230369
0000d0 48 07 b6 3d 8f f1 1a 3e d2 9d 8d bd 63 34 9c 3b
       0.088881075 0.1513121 -0.069148675 0.004766987
0000e0 a1 c9 6d be 35 1a 37 3e 9d dd 4b be 6e c5 c5 3d
       -0.23221447 0.17881091 -0.19908758 0.09656797
0000f0 23 9f 49 bd a1 27 87 be 78 65 e7 3d 83 b0 3c 3d
       -0.04922403 -0.26397422 0.112986505 0.046066772
000100 92 11 44 3e 8f 83 96 bb d2 6c 58 be f1 3a 30 be
       0.19147328 -0.0045933197 -0.21135262 -0.17209984
000110 91 fb 10 bd b4 a8 fd 3d 0b ee b8 3e 35 db 22 3e
       -0.035396162 0.12385693 0.36119112 0.15903933
000120 53 4e e9 3d a3 ed 2e bd 26 3d a0 be 71 82 53 be
       0.11391892 -0.042707097 -0.31296653 -0.20655228
000130 7e 6a 8c bd 14 63 1a bc 46 da 30 3e ce 33 1b bd
       -0.06856249 -0.009423036 0.17270765 -0.0378912
000140 3c c0 54 bd a6 5c 9f 3c 12 77 9d 3d 05 a5 23 be
       -0.05194114 0.019453358 0.076887265 -0.15980919
000150 1a 10 90 3c 65 7e e3 3c b3 52 88 3e b9 28 83 be
       0.017585803 0.02777023 0.26625594 -0.25617006
000160 b8 9d 96 bc db 7f 1f be 28 f9 9d bd 71 f1 bf bb
       -0.018385753 -0.15576117 -0.077135384 -0.0058576395
000170 ff 00 6c be cb dd ff 3c f3 cb 59 bd 93 fa 25 3d
       -0.23047255 0.031233689 -0.053173017 0.04052217
000180 62 fd 21 3c 26 7f 50 be 87 d1 48 be a0 78 7c bd
       0.009887071 -0.20361003 -0.19611178 -0.061638474
000190 dd f7 5f bd 13 18 ca 3d d3 27 08 3e 1c 95 45 be
       -0.05467974 0.09867873 0.13296442 -0.19295162
0001a0 e8 05 4e 3d c5 69 79 3e 9f 2c 15 be c9 2a 1f 3e
       0.0502986 0.24356754 -0.14567803 0.15543665
0001b0 4a 72 e5 bd d6 2e 5f 3c 62 15 2e be aa 47 87 3d
       -0.112034395 0.013622006 -0.17000344 0.06605466
0001c0 e3 a9 39 3e fc c5 51 3e 8f d9 2b bd 4c b5 b7 bd
       0.18131213 0.20485681 -0.041955527 -0.089701265
0001d0 37 bb f8 3d 0a 94 1c 3c dc 26 8b bd 9c bd 3f 3e
       0.121450834 0.00955678 -0.06794521 0.18724674
0001e0 c2 f3 7e 3e f5 fb 35 be 6a c6 21 3d 08 9a 9d 3d
       0.24897674 -0.17771895 0.039495863 0.07695395
0001f0 84 56 51 3e 12 f4 28 bd 7b 4d 7e 3d 29 57 52 3e
       0.2044316 -0.04124839 0.06208561 0.20541061
000200 40 43 b8 3c e6 a6 44 bd 29 e9 f2 bd 81 89 2d 3e
       0.022493005 -0.04801073 -0.11860878 0.16946985
000210 bb 68 0b be 75 f2 09 3e f5 6e 64 be 50 71 e8 3d
       -0.1361417 0.13471396 -0.22307952 0.11349738
000220 47 5f 3c 3d 20 9e 5d bd ff de 21 3d fc 55 c2 bd
       0.0459893 -0.054105878 0.039519306 -0.094890565
000230 96 ed 6d 3a da 28 49 3d 98 fa 1c bc d7 e5 e9 bd
       0.00090762356 0.049111225 -0.009581231 -0.114207916
000240 22 39 32 bd d5 d1 2d 3e ae ec a7 3e 60 05 e6 bd
       -0.043511517 0.16974576 0.3279776 -0.11231494
000250 8c f6 58 3d 82 59 fc 3d fe 2c 89 bd 4b cc 4c 3d
       0.0529695 0.1232176 -0.06698035 0.049999516
000260 c5 3c 02 3e 9b 01 89 bd b4 dd 26 3e 03 8c b4 bd
       0.12718494 -0.06689759 0.1629551 -0.088157676
000270 9a 6c 2c 3d d8 8f 71 3d c4 0f 72 be ba 65 ec 3d
       0.042095758 0.05897507 -0.23638827 0.1154284
000280 3d 82 92 3b cd e6 46 3e 5e 4c 6c 3a 0e 0e a1 bd
       0.004471092 0.19423981 0.0009014065 -0.07864009
000290 de 8c 5f be 98 16 0b bd b4 89 c5 bd 9e 5f 40 3d
       -0.2183108 -0.033957094 -0.096454054 0.046966188
0002a0 d6 2a b9 3d c5 35 2e be 8b b6 01 bd 3a a9 ad 39
       0.090413734 -0.17012699 -0.031668227 0.00033123215
0002b0 86 87 a3 3d 3d 2e e2 bc 89 28 bf 3d a7 7d 1f 3e
       0.079848334 -0.027609939 0.09333903 0.15575276
0002c0 42 4f 88 be af ce 3a 3e bf ee 91 3c d3 68 b1 3d
       -0.2662297 0.18242906 0.017814038 0.08662572
0002d0 0c c9 9c 3d de 00 22 3e b4 35 20 bd c3 54 98 bd
       0.07655534 0.15820643 -0.039113715 -0.07438042
0002e0 bf d7 49 be 22 dd 9e 3b 77 79 89 bd 95 b5 80 be
       -0.19711207 0.0048481384 -0.06712621 -0.25138536
0002f0 7f ac b0 be f4 2a 01 be 5b 66 2c 3c ca cb 82 bd
       -0.34506604 -0.12614042 0.01052245 -0.06386526
000300 b0 58 8f 3d 16 a7 95 3e bb e8 40 b9 3f 0f bc 3d
       0.06999338 0.2922904 -0.00018397246 0.091825955
000310 78 37 86 bd 16 46 d7 bd b1 47 22 3c 34 f0 b7 be
       -0.065535486 -0.10511415 0.009904788 -0.35925448
000320 e6 db aa be 2c c6 8b bd 18 bb 23 3e 7b 5d bd 3d
       -0.33370894 -0.06824908 0.1598934 0.092463456
000330 47 1b 0d 3e c7 48 78 bd 87 6c 5b be 13 52 66 be
       0.13779937 -0.06061628 -0.21428119 -0.22492246
000340 2a 6f 2e bd 4c 0e 2e 3e b6 4e bf 3d 07 27 2d 3e
       -0.042586483 0.16997641 0.09341185 0.16909419
000350 08 84 0f be 67 d4 5c 3d 4a 0e 10 bd 9d 59 b1 bd
       -0.1401521 0.0539135 -0.035169877 -0.086596705
000360 ea 68 2e bd 88 a8 65 3e 98 1a 6a be a9 df e7 3d
       -0.042580523 0.22427571 -0.22861707 0.11321957
000370 63 61 8a bd 64 b0 6c bd cd 03 58 3e e8 c1 d3 bd
       -0.06756856 -0.057785407 0.210952 -0.10339719
000380 39 3e b2 be a0 ff be bd 57 cb 79 bd 12 0c 06 be
       -0.34813097 -0.093261 -0.060984936 -0.13090542
000390 94 dc 16 3d 60 f5 14 bd 36 7e cf 3d e1 ef 8e 3d
       0.036831453 -0.03636682 0.10131495 0.06979347
0003a0 f0 70 f3 bd d1 32 59 3e ad 12 88 bd 1e b8 9b 3d
       -0.118867755 0.21210791 -0.06644187 0.07603477
0003b0 a7 d2 de 3d 62 a9 f6 3d 0a c7 34 3e b0 02 8b be
       0.108800225 0.12044026 0.17654052 -0.27150488
0003c0 d1 0c 17 be 8e d0 bf 3d 1d c7 70 3d c9 e5 a9 be
       -0.14750983 0.093659505 0.05878364 -0.33183125
0003d0 39 d3 0c bc 51 c9 c5 3c a5 99 72 bd 11 0e a0 3d
       -0.008595281 0.024143847 -0.059228558 0.07815183
0003e0 76 cd de 3d 94 44 2a 3d 70 83 2c 3e e3 13 c0 3d
       0.10879032 0.041569307 0.16847014 0.09378793
0003f0 25 52 23 be 8f 5c 4e be d8 6f 2d be bc b7 e6 3d
       -0.15949304 -0.20152496 -0.16937196 0.11265513

b_lay_eggs_bin f4 [11]
000000 00 00 00 00 00 00 00 00 00 00 00 00 00 00 00 00
       0.0 0.0 0.0 0.0
000010 00 00 00 00 00 00 00 00 00 00 00 00 00 00 00 00
       0.0 0.0 0.0 0.0
000020 00 00 00 00 00 00 00 00 00 00 00 00
       0.0 0.0 0.0
