reports/ml/auto_improve_factorized_long_live/iter_001/factorized_model.npz (npz, 72118 bytes, 17 tensors)

W1 f4 [48, 192]
000000 e5 8c 0f bd 26 38 c2 bd 38 73 68 3d 2a e9 ab 3e
       -0.035046477 -0.09483366 0.056750506 0.33576328
000010 58 a2 93 3d 0c b9 c5 3e 12 8f 38 be 1c 42 b2 3d
       0.07208699 0.38617742 -0.18023327 0.087040156
000020 5a dc cc bd 16 26 a7 3e 07 cc 75 3e c7 70 c0 bd
       -0.10002966 0.32646245 0.24003612 -0.093965106
000030 b8 94 3a be 41 82 b5 bc b4 9b 8b 3e 47 6d 32 3e
       -0.18220794 -0.022156836 0.2726723 0.17424498
000040 63 ed 60 bd 74 9f 43 be 26 ea 53 be 30 72 2b ba
       -0.05491389 -0.19103795 -0.2069479 -0.00065401476
000050 59 4c f2 bd c3 5a 59 3e 4e 7b b9 3c 5a ec 50 3e
       -0.118309684 0.21226029 0.022641804 0.20402661
000060 7a 32 ec 3d c6 d8 9c 3e 2b a4 c0 3e c8 39 fc 3d
       0.11533065 0.30634135 0.3762525 0.123157084
000070 ea 72 12 3e 9d b4 a5 3e a2 eb 64 be e2 52 bb 3d
       0.14301649 0.3236436 -0.22355512 0.09146668
000080 54 db 5e 3d fb 4e ba be 01 da 27 be f3 ce 81 3e
       0.054408386 -0.36388382 -0.16391756 0.25353202
000090 d4 85 99 3d 3b ae 86 3d 90 78 8b be 7d 11 31 3e
       0.07496229 0.065762006 -0.2724042 0.17291827
0000a0 f0 70 f3 3e fe 61 a7 be 8c d9 95 be 0e bc 61 be
       0.47547102 -0.3269195 -0.29267538 -0.22044393
0000b0 a0 b3 3e bc fd 06 a0 3e a0 92 94 3e 15 0f 47 be
       -0.011639506 0.31255332 0.29018116 -0.19439347
0000c0 a6 6d f6 bd 90 dd 95 bd cd e4 8d 3c 27 bc 98 3d
       -0.120326325 -0.0731765 0.017321015 0.07457762
0000d0 26 0b ef bd 6f 12 88 be 04 81 50 be c2 46 20 be
       -0.11672048 -0.26576564 -0.20361716 -0.15651992
0000e0 83 66 ba bd 0c f3 e5 3e 19 85 62 3e bd 9f 90 3d
       -0.09101584 0.44911993 0.22121085 0.07061718
0000f0 06 14 16 3e b0 9e e5 3c 2b d3 ae 3e de 3f 07 bd
       0.14656076 0.02802977 0.34145483 -0.033019893
000100 66 5a 37 3e d3 cf 9c 3e 56 9c f3 3d 10 ec 19 bc
       0.17905578 0.30627307 0.11895053 -0.009394661
000110 19 e2 5c be 00 c5 e6 3b 46 89 33 bd 8b 6c ac be
       -0.21570624 0.007042527 -0.043832086 -0.33676562
000120 95 93 67 bd 04 54 b6 3d f1 0b 9b bd cd be 59 bc
       -0.05653723 0.089027435 -0.07570637 -0.013290119
000130 88 bd 61 3d 58 9b a8 bd 42 0a c2 be 6f a0 a5 3d
       0.05511239 -0.082327545 -0.3789845 0.08087241
000140 11 96 67 3d a8 f5 b3 3e 01 9f ce 3d 5c 28 5b 3e
       0.0565396 0.35148358 0.10088921 0.21402115
000150 b2 77 0d 3e 8d 8e f7 bd 81 0d 02 3f b2 47 c3 3e
       0.13815191 -0.12087736 0.50801855 0.38140637
000160 a9 a4 05 be 5d c7 14 3e 05 92 41 be b1 f5 53 be
       -0.13051094 0.14529176 -0.18903358 -0.20699193
000170 57 20 8a 3e 9f f5 15 bd e2 58 b6 3d cc 44 b5 bd
       0.26977798 -0.036611196 0.08903672 -0.088510126
000180 d0 2b 09 bd ab ab 85 3e 76 3b 16 be 6c 05 17 be
       -0.03348905 0.26107535 -0.1467112 -0.14748162
000190 73 e3 5d be 4d 0c 0e 3f f4 56 b4 be 77 69 fe bc
       -0.21668796 0.5548752 -0.3522259 -0.031056149
0001a0 66 48 df bc ce ae af be ab 35 ed 3e 4d fb bd 3e
       -0.027256202 -0.34313053 0.46330008 0.3710579
0001b0 01 6a 90 be 1b be e2 3c 8b 63 a7 3e 33 fe 7b bd
       -0.28205875 0.02767854 0.32693133 -0.06152172
0001c0 3b d2 a4 3e ed e5 bf be d1 6d d6 3d 17 3d 4e 3e
       0.32191643 -0.37480107 0.104701646 0.20140491
0001d0 3b b3 da 3c 6b ba 1e be 0d 17 94 3e b6 aa 55 3d
       0.026696792 -0.155008 0.28923836 0.052164756
0001e0 d1 92 ff bd bf 5a 24 3e 3a ea f7 3c 16 01 dc 3d
       -0.12479175 0.16050242 0.030263055 0.107423946
0001f0 25 5d 84 3d 68 42 f6 bd b0 33 c5 3e 9f 85 c7 bd
       0.064630784 -0.12024385 0.38515997 -0.09742283
000200 e2 cc a8 3d e6 09 77 3e 7f 98 04 be 21 c0 b5 be
       0.08242203 0.2412487 -0.12948798 -0.35498145
000210 6f 81 40 bd b4 ea 17 3e 92 b3 b6 be be 67 43 3e
       -0.046998437 0.14835626 -0.35683876 0.19082543
000220 c2 06 20 3e 36 df cb 3d 97 ef 2c 3e 65 62 25 3e
       0.15627578 0.099546835 0.16888271 0.16150816
000230 76 d0 fd bc 4b e7 17 3e 5b 70 4d 3e 71 c5 f7 3c
       -0.030983191 0.14834325 0.20062391 0.030245515
000240 04 d0 19 be a7 6d 02 3e c6 9f 38 be a0 ba 95 3d
       -0.15020758 0.12737142 -0.18029699 0.073109865
000250 54 70 37 3e e2 f0 3c 3d 15 05 1e be e7 62 44 3e
       0.17913944 0.04612816 -0.15431626 0.19178353
000260 51 95 af bd f2 5e 2b 3e 1e b4 72 3d bd f6 cb bd
       -0.08573402 0.16735438 0.059253804 -0.09959171
000270 3b 16 b7 3d a3 75 b7 bd e6 1e 8a be 66 f7 46 bd
       0.08939787 -0.08957984 -0.269767 -0.04857578
000280 90 56 5e 3d 32 85 00 3e 51 35 aa 3d ac 7c b3 3e
       0.05428177 0.1255081 0.083109505 0.35056055
000290 60 72 15 be d4 89 b8 bd bb 5f 2b bd e3 9b 3d be
       -0.14594412 -0.09010664 -0.041839343 -0.18516497
0002a0 68 4d 86 3e 22 90 1e 3e dc 6c 5b bc 3c b6 e9 3d
       0.2623093 0.1548467 -0.013392653 0.114117116
0002b0 9d bb 0e be 97 31 94 3e 94 65 e3 bd d4 e2 14 3e
       -0.13938756 0.28944084 -0.11103359 0.14539653
0002c0 bf 15 db be 7d c9 69 3e ec 2b 0a be fd 78 a6 3e
       -0.42790028 0.22830768 -0.13493317 0.32514182
0002d0 a6 0a 87 be 8f 06 65 3e 8f 32 cd bd b4 10 13 3e
       -0.26375312 0.22365783 -0.10019409 0.1436184
0002e0 57 8f 3b be c1 1a 9f 3c 5d 67 b3 3d 30 00 2d bd
       -0.18316399 0.019421937 0.08759949 -0.042236507
0002f0 eb fa 90 3d 68 8b e5 bc c0 c1 00 3e 92 12 1f 3d
       0.07079109 -0.028020576 0.1257391 0.03883607
000300 5c 2b 55 3d 8d 36 4d 3e c4 cf e2 bd 7d f0 71 be
       0.052043304 0.2004034 -0.110747844 -0.23626895
000310 53 59 01 be 8c c8 24 be 8a b3 11 bd 68 a0 8d 3e
       -0.1263173 -0.16092128 -0.035571612 0.27661443
000320 7a 89 6a be e5 cd da 3e ed ad 0c 3e ff f9 e5 3d
       -0.22904006 0.4273521 0.13738222 0.112293236
000330 cb 26 3f bc 8a 22 02 be b5 9d 4b 3e 12 60 8e 3e
       -0.011666964 -0.12708488 0.19884379 0.2780767
000340 8a e3 20 bf 05 75 cc bc 11 d0 75 3e db d9 8d be
       -0.628472 -0.024958143 0.24005152 -0.27705273
000350 ce be fd bc cc 0c 30 be bf 2a 37 3d b1 48 e2 bd
       -0.030974772 -0.17192382 0.0447185 -0.11049021
000360 9c 19 0f 3e 58 35 88 3e a8 da 57 3e 01 cd ae 3d
       0.13974613 0.26603198 0.21079504 0.08535195
000370 8b 8b 90 ba 14 2c c1 3d 3c 57 a4 bd 5c 44 d0 bc
       -0.0011027915 0.09432235 -0.08024451 -0.025423221
000380 71 29 b6 3d f9 24 03 3d 38 a3 af 3c 60 7e 7e bd
       0.08894623 0.03201768 0.021440133 -0.06213224
000390 d7 a9 95 bd e8 15 0d be a7 0d 68 bd f0 2c 64 3d
       -0.07307785 -0.13777888 -0.056653645 0.05570692
0003a0 2c e9 2c 3e 37 a0 81 3e 09 97 97 3e 2b 8f 58 3d
       0.16885823 0.25317547 0.29607418 0.05287091
0003b0 a7 be db bd 48 f5 ee bd 1f d1 3b 3e eb 8b 9c be
       -0.107297234 -0.116678774 0.18341492 -0.305755
0003c0 00 a4 5a 3d 16 04 c7 bd a0 66 c5 be 7b 6a a6 3d
       0.05337906 -0.09717576 -0.3855486 0.08125778
0003d0 fc f5 86 bd 2f 53 4d 3e 5e 28 fb bd 02 21 77 bc
       -0.065898865 0.20051263 -0.12263559 -0.015083553
0003e0 78 c0 a7 3e 3d 34 b8 bc b1 ec c0 be 6b 1a a3 3d
       0.3276403 -0.022485847 -0.3768058 0.07964023
0003f0 78 69 17 be 2a 21 8f be 31 ac 80 3d a7 f2 38 3d
       -0.14786327 -0.2795499 0.06282843 0.045153286

b1 f4 [192]
000000 87 16 83 bc 1b 36 9f 3b 50 01 e0 3b 23 16 1e 3a
       -0.016001953 0.004858745 0.006836094 0.00060305203
000010 e4 b7 ac 37 03 9c fa 3b 00 00 00 00 ae f8 fe 3b
       2.0589629e-05 0.0076479926 0.0 0.00778111
000020 26 da 02 bc d8 35 ad 37 ed d8 cd 3b e7 ac 4a ba
       -0.007986581 2.064828e-05 0.006281963 -0.0007731453
000030 da 4d 78 3a 5b 5b dc 3b 60 d3 ac 3b 6b b9 6b 3a
       0.000947205 0.0067247576 0.0052742213 0.0008992168
000040 06 7b 42 bb b8 5b d8 3a da 0b 64 3b 7a 0b 4a ba
       -0.0029675378 0.0016506827 0.0034797103 -0.00077073986
000050 32 e8 51 36 c7 0c 1d bb 8b 2c da 3a d9 bc 82 3a
       3.1278582e-06 -0.0023963915 0.0016645355 0.0009974494
000060 4e c9 52 b7 91 6f 84 3c f8 93 10 b6 ad c0 8f bc
       -1.2563845e-05 0.01616648 -2.1543801e-06 -0.01754793
000070 4a 35 c4 ba 44 de de b9 e9 c0 f5 bb be de 0a 3c
       -0.0014969495 -0.0004250874 -0.0074998033 0.008475957
000080 21 8b ef bb 7b 38 55 39 c4 de 81 ba 83 55 e1 ba
       -0.0073102866 0.00020334304 -0.0009908308 -0.0017191622
000090 c1 93 0d 3c a0 81 c5 b9 c2 ff aa ba 08 29 40 ba
       0.008641184 -0.00037671346 -0.0013046192 -0.0007330333
0000a0 22 01 c5 3b f6 40 00 bb e1 dc 29 bb 27 81 f7 bb
       0.006012098 -0.001956997 -0.0025919008 -0.007553238
0000b0 ad f3 a0 b9 8d d3 05 bb 22 94 c0 bb 82 28 fe 3b
       -0.0003069913 -0.0020420284 -0.005877034 0.0077562938
0000c0 50 cc 6d b8 00 00 00 00 6b f2 14 b7 70 ad 1a 3a
       -5.6695484e-05 0.0 -8.87793e-06 0.0005900478
0000d0 8b 25 cb bb 24 e6 ca 3b d1 b6 21 3b 5c ef fa b8
       -0.006199544 0.0061919857 0.0024675617 -0.00011965513
0000e0 00 00 00 00 c4 55 51 3c 54 17 82 3c 98 86 17 3c
       0.0 0.012776796 0.015880264 0.009248398
0000f0 ee e0 4f bc 69 70 55 ba a4 15 01 bb 08 6c da 37
       -0.012687905 -0.00081420556 -0.0019696737 2.6037931e-05
000100 f1 bb 09 3c 86 96 7f 3c 6e 4e fa bb 4b e8 b4 bb
       0.008406625 0.015599852 -0.007638744 -0.0055208555
000110 8e 08 24 3a f7 01 05 3b 4f fe 2c b9 72 2d 47 b7
       0.0006257378 0.002029536 -0.00016497936 -1.1871905e-05
000120 11 64 44 bb 00 78 50 3a 29 68 9c 3c fd d9 84 ba
       -0.002996687 0.00079524517 0.019092636 -0.0010135766
000130 6f c6 bf bb 39 92 e5 ba f8 6d 0a 3c 48 c5 83 39
       -0.0058525125 -0.0017514891 0.00844907 0.00025133253
000140 5c 9c e4 3b 49 bb a0 3a f7 18 34 bc 1a 8f 27 38
       0.0069766473 0.0012262847 -0.01099228 3.9949176e-05
000150 00 00 00 00 00 00 00 00 7b 29 33 3c a0 53 68 3c
       0.0 0.0 0.010935183 0.014180094
000160 1e 56 4f bc 0e bf a5 bb 00 00 00 00 57 ec fd bb
       -0.012654809 -0.005058176 0.0 -0.007749121
000170 75 ec 69 bb 87 1a 16 bb 0f d9 01 bb 98 eb 59 bc
       -0.0035693918 -0.0022903995 -0.0019813215 -0.013300799
000180 2b 94 26 3c 48 4e 3e 3a 17 c0 38 3c 67 99 89 3a
       0.010167162 0.00072595896 0.011276267 0.0010497988
000190 33 92 df bb 07 5d 85 bb 44 3a 0c b9 c8 c3 ca 3a
       -0.006822848 -0.0040699276 -0.00013373146 0.0015469724
0001a0 17 99 1d 39 7d b3 ee 39 cc b4 e3 bb d3 8a 7c 3b
       0.00015029717 0.00045528627 -0.006949043 0.0038534894
0001b0 29 66 6b ba e1 04 9e 3c b1 ce 95 bc fa 4e e6 b8
       -0.00089797616 0.019289436 -0.018287035 -0.00010981965
0001c0 5e 86 31 bb 00 00 00 00 15 34 ba 37 4e 13 3e b9
       -0.0027088146 0.0 2.219718e-05 -0.00018127004
0001d0 ff 88 1b 3b 04 33 c0 bb c0 61 d6 b8 17 f4 32 3a
       0.002373278 -0.0058654565 -0.000102225225 0.00068265334
0001e0 15 b3 2f ba 9b 9a 3f 3c bd 6c 09 39 08 1c fa b8
       -0.00067024055 0.011694576 0.00013105846 -0.0001192615
0001f0 86 07 83 3c 25 51 8f bb 55 73 1a 3c 8c 61 de 3c
       0.015994798 -0.004373687 0.009426911 0.027146123
000200 5d 6e 2b bc 6f 15 b3 3c 0a b6 45 ba 61 b5 92 bb
       -0.010463324 0.021860806 -0.00075420795 -0.0044771885
000210 9e 9c 01 37 8e 53 1e 3c a1 82 b5 3a 03 75 05 3c
       7.7254645e-06 0.009663476 0.0013848135 0.008145574
000220 2f f1 84 3b 5c f0 de b8 1c 83 50 bb 80 20 e4 37
       0.0040570716 -0.00010630555 -0.0031816429 2.7194852e-05
000230 9e 55 63 3a 58 d9 c6 ba 1e cb bb bb 00 00 00 00
       0.0008672121 -0.0015170975 -0.0057310006 0.0
000240 98 b4 2b 3c 07 e1 f7 3b bc b6 8f 39 3a d0 f1 ba
       0.010480069 0.007564667 0.00027411233 -0.0018448897
000250 a1 24 50 bb b0 2d 01 b8 00 00 00 00 3a 72 0c ba
       -0.0031760114 -3.0798547e-05 0.0 -0.0005357597
000260 00 00 00 00 00 00 00 00 72 52 2f 3b c1 04 43 b7
       0.0 0.0 0.0026752022 -1.1624013e-05
000270 f9 f5 00 3c c3 7c 22 b6 d5 4d de b7 00 00 00 00
       0.007871144 -2.4212502e-06 -2.6500706e-05 0.0
000280 75 8f 0b bc 21 49 54 ba ee 44 e4 ba 12 48 6d 3c
       -0.00851809 -0.0008098055 -0.0017415562 0.014482515
000290 df 57 e9 b8 d7 37 1e b9 32 e2 09 3b e8 6b 43 b7
       -0.00011126673 -0.00015088856 0.0021039364 -1.164803e-05
0002a0 6b 19 6e 3a 5a 58 c8 3b b5 e6 bc bb 0f 50 21 3d
       0.0009082767 0.006114048 -0.005764807 0.03938299
0002b0 ad f4 e7 bb ea 39 a2 3a fb b5 d4 bb 49 bb 84 bb
       -0.007078728 0.0012376879 -0.0064914203 -0.0040506464
0002c0 cc 85 02 39 48 b6 c1 3b 2c 3a 82 b9 cc 3a e2 bb
       0.0001244761 0.005911622 -0.00024838874 -0.006903982
0002d0 00 00 00 00 8c ec cb 3a f9 7d 1b bb 84 fd e2 bb
       0.0 0.0015558167 -0.0023726209 -0.006927194
0002e0 00 00 00 00 84 61 cb 39 f6 8b a9 3b 79 fa ae b8
       0.0 0.00038791832 0.0051741553 -8.343621e-05
0002f0 39 fd 91 3c f4 49 98 b6 72 6c 96 bc 59 b3 a1 bb
       0.017820941 -4.5385623e-06 -0.018362258 -0.00493471

W_action_type f4 [192, 4]
000000 e9 7e 34 be a4 98 27 3d 66 fc 37 bd 45 dc a1 bd
       -0.17626537 0.040917054 -0.04491844 -0.07903341
000010 5d 67 8d 3d 98 40 06 bd 59 82 bc bc 4b 92 ff bb
       0.069044806 -0.032776445 -0.023011373 -0.007799422
000020 c2 de a8 3b c9 17 de 3c 74 c7 3a bd 6a 32 93 3c
       0.005153508 0.027110951 -0.04560037 0.017968375
000030 54 1a 60 3c a3 ca 1d 3e 0a 6c 19 bc 90 6c 06 3c
       0.013678152 0.15409331 -0.009364137 0.008204594
000040 38 07 d3 3d 59 92 7f bc 3a 3a 1d 3e 30 a0 00 be
       0.10304111 -0.015598857 0.15354243 -0.12561107
000050 3b 48 37 bd 63 ff ce bd e5 91 6d bd 92 30 7a 3b
       -0.04474662 -0.10107305 -0.058000464 0.0038175923
000060 3a 90 3f bd 23 13 c5 bd fb 6e c5 3d 8e de 35 3e
       -0.046768405 -0.09622791 0.096403085 0.17760679
000070 ca 1d be bd 49 15 95 bd 19 a2 17 be d5 1c 38 bd
       -0.092830256 -0.072794504 -0.14807929 -0.04494937
000080 44 bc 9f bd 3a 6c 0f ba d7 29 f7 3a eb 2f 55 3c
       -0.07799581 -0.0005471144 0.0018857074 0.013011913
000090 1f 06 17 bd 25 f3 0f be df 66 06 bd 90 2e ae bd
       -0.036871072 -0.14057596 -0.03281295 -0.08504975
0000a0 4b 69 03 bd 60 1b ab bd fa 22 48 be 4b bc 3e be
       -0.032082837 -0.08354831 -0.19544592 -0.18626516
0000b0 1a 36 34 be ff b2 21 3d a8 d7 f4 bc 9e f0 ad 3c
       -0.17598763 0.039477345 -0.02988799 0.0212329
0000c0 1a f7 b4 3d 00 aa 20 39 9f 30 ef bd 80 3f 50 3d
       0.088361934 0.00015322119 -0.116791956 0.05084181
0000d0 5e 85 15 bd 49 94 6e 3d 02 fa 2a 3d 4a 29 8b 3d
       -0.036504142 0.058246884 0.041742332 0.06794985
0000e0 b5 24 4e 3b cd b0 e0 3c ce e0 00 bd 37 13 01 3e
       0.0031454985 0.027428055 -0.03146439 0.12604986
0000f0 91 78 8f bc c9 b6 b8 bd 1e f5 c7 bc 07 3f 05 3e
       -0.017513545 -0.090192385 -0.024408873 0.13012324
000100 39 02 4b 3e e8 72 02 3d 54 d3 3e 3d 43 46 95 3d
       0.19825067 0.031847864 0.046588257 0.07288792
000110 0e c1 68 3c 8a f7 0d be 89 14 35 bd 7e 1e 4e bb
       0.014206184 -0.1386396 -0.044209037 -0.003145128
000120 66 4b 5c 3d 0b d9 5f 3e 07 ec 60 3e b1 10 22 3e
       0.053782843 0.21860139 0.21965037 0.1582668
000130 ec d8 7a bc ec d2 03 3d 16 96 84 bc 70 07 b6 bd
       -0.015310507 0.032183573 -0.016184848 -0.08888137
000140 86 44 94 bd 48 73 6c 3c 97 3a 92 3b 48 42 98 bd
       -0.07239632 0.014431782 0.004462551 -0.07434517
000150 fc f3 9f 3e bb 42 6a 3e 9a 78 74 bd 65 d0 4c 3e
       0.31240833 0.22877018 -0.059685327 0.20001371
000160 d0 e4 59 bd 9d 5a c1 3d 19 1a be bd a0 c0 31 bd
       -0.05319673 0.09441111 -0.092823215 -0.043396592
000170 1b fd 78 bd 02 01 c5 3d 36 ad 1d bd 33 c3 a0 3d
       -0.060788255 0.09619333 -0.038495265 0.07849731
000180 36 ab c8 3d 5a 12 0f bd 7e 22 bd 3a 13 73 96 bd
       0.09798281 -0.03492961 0.0014429835 -0.073461674
000190 5d 49 b6 bd 2b 96 a1 bd 85 57 36 bc da bd 23 3d
       -0.08900712 -0.078899704 -0.011129265 0.03997598
0001a0 94 da fb 3c dc 42 04 bd 75 72 3a 3e 49 57 0a bd
       0.030743875 -0.032290325 0.18207724 -0.033774648
0001b0 18 7f 42 3e d2 71 01 3e 9b 48 88 3e da 9d 11 bd
       0.18993795 0.12641075 0.26617894 -0.03555093
0001c0 90 19 a3 bd 30 48 1c be 91 1e b9 3d 07 e8 f4 3d
       -0.0796386 -0.15261912 0.09039033 0.11958318
0001d0 80 71 e6 3c 3a e4 a2 3d b6 5f dd 3d 8f b5 0f 3d
       0.028130293 0.07953687 0.10809271 0.035085257
0001e0 ec f9 fd bd 29 0e 92 bc b5 37 9b 3d 3a 0c 2b 3e
       -0.124011844 -0.017829018 0.07578985 0.16703883
0001f0 85 45 72 bd 88 3b f0 bd 5e 2b c3 3c 69 3e 8b 3c
       -0.05914833 -0.11730105 0.02382439 0.016997533
000200 3e 4b f0 bd 56 91 9c bd bc 47 6a 3e 70 c8 6d 3c
       -0.11733101 -0.07644908 0.22878927 0.01451312
000210 e1 8e 2b bd c8 17 cd 3b a0 b9 91 3a 4c 06 d8 3d
       -0.041884307 0.0062589385 0.0011117943 0.10548076
000220 07 06 15 bd 4a 5a b6 3d 6d 7d 10 3e ef da 74 3c
       -0.0363827 0.0890394 0.14110346 0.014944776
000230 03 61 bb bd 8a a6 c8 3d 56 b8 01 3e 3c c9 5c bd
       -0.09149363 0.0979739 0.12667975 -0.05390285
000240 a1 1e 53 3b 71 bf f1 bb 9c c1 85 bc 3a a1 e8 bc
       0.0032214301 -0.007377558 -0.016327672 -0.028397191
000250 d8 43 43 3d c3 60 b6 bd 35 4b e0 bc 4d a2 b2 3c
       0.047672123 -0.089051746 -0.027379612 0.021805907
000260 9d b3 25 be 08 4d 65 3c 35 6e 14 3d 53 6a 51 3d
       -0.16181798 0.013995416 0.036237914 0.05112679
000270 9b 21 90 3d 86 f7 c1 3b 7d 82 d4 bd b9 48 03 be
       0.0703766 0.0059193997 -0.10376451 -0.1282071
000280 7c dd 7c 3e 25 5e c4 3d 13 b8 fc 3d 40 c8 a8 3d
       0.24693865 0.09588269 0.12339797 0.0824132
000290 3c 74 08 be bf e2 6b bd 14 3e 0a 3e 9f 19 c6 3c
       -0.1332559 -0.05758929 0.13500243 0.024182139
0002a0 1a 53 49 be 6d e7 9d 3d 7b 82 02 3b 51 6a b3 3d
       -0.19660607 0.077101566 0.0019914198 0.087605126
0002b0 51 5e c2 bc 72 1e ca bd f8 62 18 be 14 6a 0a bd
       -0.023726614 -0.09869088 -0.14881504 -0.03379257
0002c0 6e 30 88 3d cc f5 23 3d ab 86 0d 3e 9e 16 88 3d
       0.06649862 0.040029332 0.13820903 0.06644939
0002d0 77 94 49 bd ec 8b 22 bd db 94 03 3e e7 96 c6 3d
       -0.049213853 -0.03968422 0.12849753 0.09696751
0002e0 98 2c ac 3d d1 2d 81 be de 45 d1 bd e6 61 74 3d
       0.08406943 -0.25230268 -0.10218404 0.059663676
0002f0 1c 23 87 bb f0 f7 a1 bd 07 a4 91 3d d3 fb 2a 3e
       -0.0041240584 -0.079086185 0.07111364 0.16697626
000300 95 56 f3 bd 73 87 fb 3b d2 93 53 3d c0 0a 1c 3e
       -0.118817486 0.007676059 0.051654644 0.15238476
000310 ac a5 b5 bd 86 de 3e bd 9e 48 0b 3d 02 56 84 bd
       -0.0886949 -0.046598934 0.0340048 -0.06461717
000320 b0 d3 91 bd a4 15 77 3c 7f 48 4e 3e 16 a5 3c 3e
       -0.07120454 0.015080843 0.20144843 0.1842235
000330 f2 e6 73 3d 91 cf aa bd c6 47 db bd d4 0f 45 3e
       0.05954642 -0.083403714 -0.10707049 0.19244319
000340 90 2d e1 3c fe d3 cb 3d 4a 55 1e 3d b9 6f 33 bb
       0.027487546 0.09952544 0.038655557 -0.0027379824
000350 7c 75 82 3d 88 52 b0 bd df 22 ad bc 55 32 34 3e
       0.063700646 -0.086094916 -0.021134792 0.17597325
000360 46 16 64 bd e2 d7 18 3d dd 75 11 be 63 76 93 3d
       -0.055685304 0.037315257 -0.14205118 0.07200315
000370 4d 98 e0 3c aa 5f 15 bd 64 7b f4 3b f6 8f 29 3e
       0.027416373 -0.036468185 0.0074609984 0.16558823
000380 4a ac 9f bd ea 59 cd bd a5 eb b3 bc 49 06 60 be
       -0.077965334 -0.10026915 -0.02196295 -0.21877398
000390 f6 ee ed bd f2 93 ca bc c3 f2 7c be 64 55 76 3d
       -0.11617844 -0.024728749 -0.24701981 0.06014003
0003a0 98 ca 2e be 71 91 c4 bb 99 ed e8 bd 62 4b 16 3d
       -0.17069471 -0.0059987833 -0.11373443 0.036692984
0003b0 e4 4d 8b bd c3 c6 ca 3d 97 0b 20 bc 60 35 d8 3d
       -0.06801966 0.09901192 -0.009768388 0.105570555
0003c0 e2 c0 47 bd 4a 15 13 3d e5 0e 25 be 46 cc 60 3c
       -0.04876793 0.035908975 -0.16118963 0.013720578
0003d0 16 73 8f bd f9 01 3c 3e 73 0b 16 bd 70 5b cc bc
       -0.07004373 0.18360128 -0.036632013 -0.024945945
0003e0 80 f5 05 3e f1 9a 26 be c3 84 ae 3d 13 53 b0 bd
       0.13081932 -0.16270043 0.08521416 -0.08609595
0003f0 92 b8 16 3d 9d 7e 98 3c f5 fc f1 3d f9 1b 07 3e
       0.036797114 0.018615061 0.11815826 0.13194264

b_action_type f4 [4]
000000 f9 96 eb bb 67 d4 36 3b 8b 09 c0 bc bd 14 e4 3c
       -0.007189628 0.0027897598 -0.02344205 0.02784192

W_play_habitat f4 [192, 4]
000000 ee a6 00 3e da b3 b4 3d a5 42 0d bc a5 d9 ee bc
       0.12563679 0.088233665 -0.008621846 -0.029156515
000010 48 c2 fd 3d a6 35 1b 3d d4 cc 17 bd c9 d7 89 3d
       0.12390572 0.03789296 -0.037060574 0.06730611
000020 89 32 0e bc 08 26 42 bc 34 4d 87 bc db 9f 24 be
       -0.008679041 -0.011849888 -0.016516306 -0.16076605
000030 74 ea 1a bd b5 c4 19 bc 0a 56 af bd ec 1e 8d bd
       -0.03782125 -0.0093852775 -0.085613325 -0.068906635
000040 e7 da e6 bd 60 4d 52 3d 5d 40 86 3d 78 4b 76 bb
       -0.11272221 0.05134332 0.06555245 -0.0037581604
000050 e6 db a1 bd 38 c3 c0 3c 12 1c 08 bd a6 b6 7f 3d
       -0.079032704 0.023530588 -0.033229895 0.062430046
000060 ca 21 4f 3c b8 dd 96 bd 18 00 26 bd ac 6e d2 3d
       0.012642333 -0.07366508 -0.040527433 0.10275015
000070 21 c5 e4 bd 23 6d 63 3e 98 2a 30 3d ba 64 5b bc
       -0.11170412 0.22209601 0.04300937 -0.013390714
000080 b7 59 08 3c f3 d6 d7 bd f0 9e 68 3d 00 29 41 3c
       0.008322171 -0.10539045 0.0567922 0.01178956
000090 aa d9 3c bd 24 26 0e 3d 58 e4 06 be df 73 5e be
       -0.046106018 0.034704342 -0.13173044 -0.21723889
0000a0 f8 86 13 bb 87 bf 50 3d b0 90 0b be 37 5a 16 3d
       -0.0022510868 0.050963905 -0.13629413 0.03670713
0000b0 3f f8 19 3e be 8d 78 bd 5a 7b 65 3d cb 6f 47 3c
       0.15036105 -0.06068205 0.05602584 0.01217265
0000c0 c4 aa 65 3c cf 22 6d 3e 86 bc 99 bd 07 80 9c 3d
       0.0140177645 0.2315781 -0.07506661 0.07641607
0000d0 5c ec 1e bd b4 30 91 bd ba 5a 07 be 71 ef c0 bd
       -0.03879963 -0.070893675 -0.13218203 -0.0942067
0000e0 01 ec ab bc 48 b6 cd bd 98 93 28 3e d1 31 28 3e
       -0.020986559 -0.10044533 0.16462553 0.16425253
0000f0 12 1c 9e 3d db ef be 3d 7b 6b 36 3d 06 b7 64 3d
       0.07720198 0.093230926 0.044536095 0.055838607
000100 4d 9d b9 3b 1e 86 de bd b4 c9 0e 3e b3 43 d5 3d
       0.0056645037 -0.108654246 0.13944131 0.10413303
000110 ab b6 5a 3c 58 b0 15 3e 6a 9c 64 bd a0 81 3e bc
       0.0133492155 0.14618051 -0.05581323 -0.011627585
000120 73 fc d2 3d 72 96 a5 3d c6 ac 0d 3e 63 a2 b7 3d
       0.10302057 0.08085336 0.13835439 0.0896652
000130 93 83 d5 bd ff fb 12 be dd fb b3 bb 0a 91 0b 3e
       -0.104254864 -0.14353941 -0.005492671 0.13629547
000140 5d 9b f5 3d 47 e1 c3 ba 01 27 a7 3e 92 fe b9 3d
       0.11992524 -0.0014944457 0.32646945 0.090817586
000150 c8 68 02 3e c5 b8 b6 3d af d9 7e be 5b 4f 19 3e
       0.12735283 0.08921961 -0.24887727 0.14971678
000160 d9 8a 3c bd 6b ba 4e be 85 0c c8 ba ee 5d ef bd
       -0.046030853 -0.201883 -0.001526252 -0.116878375
000170 ce 0a b3 bc dc 34 56 3d 98 ff 24 bd 96 45 44 be
       -0.021855738 0.052296504 -0.040282816 -0.1916717
000180 4e 11 ea bd 4b 52 66 3e 48 b7 fc bb f4 11 d6 3c
       -0.11429082 0.2249233 -0.0077122785 0.026131608
000190 77 65 0d bd bd 8e 68 3e 01 e8 dc 3d 04 ca 49 3d
       -0.034520593 0.227107 0.10786439 0.049264923
0001a0 01 ed ef 3c b0 d1 7e 3d 44 40 d3 3c 5b 8d 39 bd
       0.029287817 0.062211692 0.02578748 -0.045300823
0001b0 b7 1c 01 be 2c e4 ab 3d e0 5a b9 bd 45 df 05 be
       -0.1260861 0.0839313 -0.09050536 -0.13073452
0001c0 39 95 ef bd cc fd 0f 3e 52 82 fb 3a d7 9d a8 ba
       -0.11698384 0.1406166 0.0019188619 -0.0012864423
0001d0 db d1 af bd 1b ab 0d be 82 6d de 3d f9 cf a7 3d
       -0.08584949 -0.13834803 0.10860731 0.081939645
0001e0 2b 6a a6 bc 20 d4 f7 3b 71 e4 03 3e fd 63 ed 3c
       -0.020314297 0.007563129 0.12880112 0.028978342
0001f0 1f 2d 16 be 07 4c 85 bd 26 e5 91 bc 9c c3 92 bd
       -0.1466565 -0.06508642 -0.017809462 -0.07166216
000200 e4 51 42 3d 1e 43 4b bd 6c 74 2f 3d ae f7 23 bd
       0.04744138 -0.049624555 0.042835638 -0.040031128
000210 48 33 f8 3d 23 da 27 be 32 12 d1 3c 41 3f 50 bb
       0.12119156 -0.16391806 0.025521372 -0.0031775984
000220 e3 3a 05 3d 6b 9f 9d bd ff 42 58 3d ba 4d 9d bd
       0.032526862 -0.07696422 0.052798267 -0.07680841
000230 56 95 a6 3d 2f c1 c5 bd f1 33 cf bd ca ec 99 3c
       0.08133952 -0.096559875 -0.10117329 0.018789668
000240 17 bd 03 3e d2 43 05 3d d3 21 16 3d 62 87 d8 3b
       0.12865101 0.03253538 0.03665335 0.0066079358
000250 a4 6f 22 be a4 a6 92 3c d8 8e e9 3d 5a 81 b2 bd
       -0.158629 0.017901726 0.114041984 -0.08716078
000260 d0 4b e1 3d 6e 4b ce bd 49 cd e9 3c 5e 5f af 3d
       0.11000788 -0.10072981 0.02854027 0.08563112
000270 8d aa c9 bd 9f d5 d4 3d 14 ab bf 3c 28 d9 05 3d
       -0.09846983 0.103923075 0.023397006 0.0326778
000280 13 d2 e1 bc 43 01 68 3b 65 fe ae bd 8a 51 10 3d
       -0.027565992 0.0035401143 -0.08544616 0.03523401
000290 96 09 b9 3d b0 f8 66 3d 74 66 8f bd b2 a6 09 be
       0.090350315 0.05638951 -0.07001963 -0.13442495
0002a0 6f 38 5f 3d a4 7f 08 be a6 d3 a3 3c 6d a1 b6 bb
       0.05449718 -0.13329941 0.019998383 -0.0055734427
0002b0 43 e5 d6 bd 44 94 1f bc db a1 b0 3d 8a f3 73 3d
       -0.10492947 -0.009739939 0.086246215 0.05955843
0002c0 73 af fe bd d0 53 18 3c 09 0c 0b 3d 3f 44 a2 3d
       -0.12435808 0.009297326 0.033947024 0.07923173
0002d0 95 b6 4e 3e 6f c7 4b bd ed a0 d2 bd 6a c6 fb bd
       0.20186837 -0.04975074 -0.102846004 -0.12293704
0002e0 d3 5f 98 bd 7b ea 32 bc e5 3c a8 3d ef fc 07 3d
       -0.07440152 -0.010920162 0.0821474 0.0332002
0002f0 c0 4e 4b 3e db e9 1d 3e 82 86 cb bd dc 33 6d 3d
       0.1985426 0.1542124 -0.09937765 0.057910785
000300 3e b5 eb 3b a9 f3 0d 3e 0f eb 86 3d 3c cd 34 be
       0.0071932366 0.1386248 0.065878026 -0.17656416
000310 75 5c 76 3d cb d5 ab bd 31 7b a3 bd e3 8d bc 3c
       0.060146768 -0.08390387 -0.07982481 0.023016876
000320 9c 8d 75 bc 9c a3 ae bd 06 79 8b bd 28 f6 2a bd
       -0.014987376 -0.085273 -0.06810193 -0.04173866
000330 cc e6 88 3c 74 45 9c bd 59 f5 61 3d e7 0d 29 bd
       0.016711615 -0.07630435 0.055165622 -0.041273024
000340 80 c7 6b 3e 29 b7 fe 3c 41 1b 01 be 85 41 17 3e
       0.23025322 0.031093197 -0.12608053 0.14771087
000350 4e 0c 4c bc cd 8b eb bd 54 0c 21 3e a3 25 88 bd
       -0.012454106 -0.11501274 0.15727359 -0.06647804
000360 19 31 63 be d0 8c 0c bd ce 0d 1d be 67 26 83 3c
       -0.22186698 -0.034313977 -0.15337297 0.016009523
000370 c8 1e cf bd 1b 79 b5 bd cb fa d6 3d 25 12 53 3c
       -0.10113293 -0.0886099 0.10497054 0.012882744
000380 e4 7c bc 3d ca 15 06 3d e6 5d af bd 13 26 c2 3c
       0.092035085 0.032735623 -0.085628316 0.023699796
000390 51 57 bf 3d e0 ef 8d 3d f5 0a 8a bd f0 6f 78 be
       0.09342826 0.06930518 -0.06740371 -0.24261451
0003a0 0d 87 94 3d 53 5a 87 bc 8a 57 9e 3d 08 2c 89 3d
       0.072523214 -0.016522562 0.077315405 0.066978514
0003b0 4d 94 09 3e 6f 36 d6 3b 33 3b c5 bd 0c ea 86 3d
       0.13435479 0.0065372507 -0.09630432 0.0658761
0003c0 67 d4 de 3c 6a d4 a7 3d c1 eb 39 bd 5e 49 e0 3d
       0.02720089 0.08194812 -0.045390848 0.10951494
0003d0 b0 23 84 3d 1e bb 81 bc d7 09 29 bd 87 18 0e bc
       0.06452119 -0.015836295 -0.04126915 -0.00867284
0003e0 ef df 8c bd fd 1e 26 be 3a b1 15 be 3f 6a 00 be
       -0.068786494 -0.16222759 -0.14618388 -0.1254053
0003f0 d0 cc 94 bd 52 aa 06 3b a0 74 49 3d 68 7f 06 3d
       -0.072656274 0.0020548296 0.049183488 0.032836348

b_play_habitat f4 [4]
000000 b7 c3 a1 3b ec 22 01 3b f7 b4 99 ba e4 e7 bb bb
       0.004936661 0.0019704653 -0.0011726905 -0.0057344306

W_gain_food_primary f4 [192, 7]
000000 b0 1e a0 bd 48 51 d0 bc 2c fc cc 3d 78 1f 4f 3e
       -0.07818353 -0.025429383 0.100090355 0.20226848
000010 7b 95 24 3e 0b 71 32 be 2b 7e c0 bc 5f e2 19 3e
       0.16072647 -0.17425935 -0.023497662 0.1502776
000020 90 4f e2 bd a4 26 bb 3d 82 85 66 3b 19 8a c6 bd
       -0.110503316 0.091382295 0.0035174792 -0.09694309
000030 1e f4 aa bc 88 db 36 be 05 53 12 bd 46 47 8b 3c
       -0.020868357 -0.17857182 -0.035723705 0.01700176
000040 1f 54 c3 3c ab 9a 2b bd 25 4c 7b bd 39 52 a5 3c
       0.023843823 -0.04189555 -0.061351914 0.020180808
000050 62 ce 15 be 14 fe ec bc 1c a6 7e bb da df 1e 3e
       -0.1462951 -0.028929748 -0.0038856333 0.1551508
000060 eb 8f 2a 3d b2 43 67 3d 83 b1 19 bd 37 1f 51 3e
       0.041641157 0.056461044 -0.037522804 0.20422064
000070 8b 51 81 3d 09 31 ef bd c6 5c 13 3d e6 50 4e bc
       0.06314381 -0.116792746 0.035977148 -0.01259253
000080 b2 e5 1e 3d 74 99 1b be 80 39 9b 3c 65 50 41 3e
       0.038793273 -0.15195256 0.018948317 0.18878324
000090 6b 7c 1e be e8 02 a8 bd 16 38 b9 bd f6 35 3a 3d
       -0.15477149 -0.08203679 -0.09043901 0.045461617
0000a0 0b ff 3e 3d 47 61 44 3e 04 22 4a be c5 3c 0c bd
       0.046629947 0.19177733 -0.19739538 -0.03423764
0000b0 b5 54 74 bd aa a2 93 3d 5b ef 73 3d b9 72 72 bc
       -0.059651095 0.0720876 0.05955444 -0.01479786
0000c0 e2 20 95 3d 95 b9 cc bd 99 d0 93 3c dc c1 a6 3d
       0.072816625 -0.099963345 0.018043803 0.081424445
0000d0 e4 9c 2f 3d 83 96 cc 3d 1a 28 64 3d 79 4c 3e bd
       0.042874232 0.09989645 0.055702306 -0.04645965
0000e0 ac c7 65 bd 88 28 39 3c 1b 0f 19 3d 06 18 e4 bc
       -0.056098625 0.011301167 0.03736792 -0.027843487
0000f0 84 54 c4 bb 66 9b e0 3d f6 17 0a bd ec 32 26 3d
       -0.0059915204 0.1096714 -0.033714257 0.040575907
000100 27 c2 ea bc db bf bf bb e6 c7 ef 3d b0 49 b0 3d
       -0.028657032 -0.0058517284 0.117080495 0.08607805
000110 30 86 74 3c 42 b6 77 be 41 c2 94 bd 07 72 4f 3d
       0.014924571 -0.2419062 -0.072636135 0.050645854
000120 75 b3 a8 3c 11 d9 77 3c 5b 4d 1b be 59 4b b8 3c
       0.020593384 0.015127436 -0.15166228 0.022496866
000130 ab 27 b5 3b 7e 27 63 be ae 83 04 be 9e ed be 3d
       0.0055284104 -0.22183034 -0.12940857 0.09322666
000140 69 7f da bd 7e f7 e8 3d 81 3c 01 be 8d 98 22 bc
       -0.10668833 0.113753304 -0.12620737 -0.009924066
000150 52 5b 94 3d 9d d8 20 be cf c9 e0 ba 24 51 44 bd
       0.072439805 -0.15707631 -0.0017149987 -0.047928944
000160 0c df a3 3d 91 2e 82 bd 27 ff 4f bb b1 9a 43 bd
       0.08001527 -0.06356538 -0.0031737776 -0.047754947
000170 dc 17 3a 3e 6a bd 8a 3d 97 cc 1a bc 8a ae aa bd
       0.18173164 0.06774409 -0.009448192 -0.08334072
000180 59 be 13 bd af d5 10 be 5f 5b 26 bd 89 fb a9 bd
       -0.0360702 -0.14144014 -0.040614482 -0.0829993
000190 01 c3 e4 bb e1 5c 06 be 4c ae 42 3c fc a4 18 3c
       -0.006981254 -0.13121368 0.011882376 0.009316679
0001a0 08 03 9c bb ff 4e 03 3d b3 0d e1 bd a8 26 70 3d
       -0.0047611035 0.03205776 -0.10988941 0.058630615
0001b0 74 50 88 bc b7 63 9d bd 43 40 2d 3d 36 5a af 3c
       -0.016639926 -0.07685035 0.042297613 0.02140532
0001c0 1b c1 78 bd cd eb 03 bd 85 b3 c5 3d 58 7b 9f 3d
       -0.060731035 -0.0322073 0.09653381 0.07787198
0001d0 ce 7a 0e 3e 64 e0 5e bc 96 36 dc bb 2d c4 d6 3c
       0.13914034 -0.013603304 -0.0067203743 0.02621659
0001e0 9b f9 5f be bb 23 82 3e 1b b8 a3 3d 29 33 41 3d
       -0.2187256 0.25417885 0.079941 0.04716793
0001f0 d5 8f f5 bd 71 86 21 be 47 ce 18 be 10 a2 ba b8
       -0.119903244 -0.15773942 -0.14922439 -8.8993576e-05
000200 e8 ce c6 bd 27 49 d6 3d 1d 12 59 3d b8 43 8e bd
       -0.09707433 0.104631715 0.05299579 -0.0694651
000210 9f 9c 95 bc aa 6a 73 3d ac f5 b6 bd ce 5e b8 3d
       -0.01826316 0.059427895 -0.08933577 0.090024576
000220 6e 8f 3c bc 91 68 dc 3c 93 73 e6 3d 63 55 c0 3c
       -0.011508806 0.02690533 0.11252513 0.023478216
000230 c1 e4 71 3d 31 ac 8c bd 91 eb 29 3e dc ca e5 bd
       0.059056047 -0.068687804 0.16593768 -0.11220333
000240 d8 f8 46 3e 56 94 0a 3e 16 ee b0 3c d6 3f c2 3c
       0.19430864 0.13533148 0.021597903 0.02371208
000250 04 c6 95 bd e2 a7 90 bd 95 c9 74 bd 77 9a fb 3d
       -0.07313159 -0.07063271 -0.059762556 0.12285321
000260 c1 31 b8 3c 8b f9 39 3c d5 c6 1e be 05 fb ed bc
       0.022484662 0.011351 -0.15505536 -0.02905036
000270 1e 2e 59 bd d6 39 c2 3c 7e da 10 3d fa 7a 39 be
       -0.053022496 0.023709219 0.03536462 -0.18113318
000280 9b ba 71 bd b9 3a 86 3b 2b 3a 19 3d 6a 25 9f 3d
       -0.05901585 0.0040963558 0.03740899 0.07770808
000290 87 33 db bd 80 53 a9 bd 4e 84 3d bc 7f a9 8e bd
       -0.107031874 -0.082678795 -0.011567188 -0.069659226
0002a0 a9 59 97 bd a4 2d 94 bd d6 85 bf 3d fb 61 b7 3d
       -0.07390148 -0.07235268 0.09351699 0.08954235
0002b0 fe ae 89 3c 33 92 3b 3e de ba 2e bc 4a 4d cd 3d
       0.016807076 0.1831749 -0.01066467 0.10024507
0002c0 7f 29 bb ba 53 55 a3 3d c6 01 34 3d 8e 30 b0 3b
       -0.0014279335 0.07975259 0.043947004 0.005376882
0002d0 12 8e 51 bd 9a b5 e5 bc 0f d2 e8 3d 69 3e 28 be
       -0.05116088 -0.028040696 0.113681905 -0.16430058
0002e0 7f df 1d 3e bc f4 24 be fb 24 a7 bd e9 e3 6a 3c
       0.15417288 -0.16108984 -0.0816135 0.014336565
0002f0 71 d1 d9 bc 0d c5 58 3e 3c c2 8d be e2 52 06 be
       -0.026589127 0.21168919 -0.27687252 -0.13117555
000300 92 18 b7 3c 6a 8a 92 bc 8a f6 d9 3b 63 e4 d9 bd
       0.022350583 -0.017888267 0.006651704 -0.106392644
000310 92 0e a5 bd c8 a8 ae 3c e4 2b 99 3b ab 44 85 3e
       -0.0805942 0.021320716 0.0046744216 0.26028952
000320 72 81 74 3e 1c 2f 60 3d da fa 28 3e fa 70 78 3c
       0.23877504 0.054732427 0.16501942 0.015163654
000330 2e f9 79 bd 18 ea a2 bd 42 ea 96 3e 0b a3 d8 bc
       -0.061028652 -0.07954806 0.294756 -0.026444932
000340 5c e2 ec 3d 5f 0b 33 3e d3 97 52 3d da 68 24 3d
       0.11566612 0.17484806 0.051414322 0.040139057
000350 8f 99 c3 bc da 58 5e bc 49 01 0f be 71 01 78 3d
       -0.023876933 -0.013570989 -0.13965334 0.06054825
000360 d4 19 ed 3d d8 e6 56 3e fb aa a7 bd a8 f2 d3 3b
       0.11577192 0.20986497 -0.08186909 0.006468136
000370 3b 59 e6 3d e1 0c 95 3c 76 19 b0 3c 97 1f 10 be
       0.11247488 0.018194618 0.021496516 -0.1407455
000380 37 5e 1f bd 3f da 7b 3c 13 c4 0f be 3f 3d 56 3e
       -0.03890821 0.015371858 -0.1403964 0.20921801
000390 92 2a 3a bc 86 d4 ad bd 6b dd 87 bc 78 86 f0 3c
       -0.011362689 -0.08487801 -0.016585073 0.029360995
0003a0 a0 66 14 be 81 4a 88 3d dd f8 86 bd c1 8a b8 bd
       -0.14492273 0.066548355 -0.06590436 -0.0901084
0003b0 1a 95 fc bc 1c 59 13 be b5 00 ed 3b da 0d 1e be
       -0.030832816 -0.14389461 0.0072327503 -0.15434971
0003c0 17 fe 7a 3d 89 47 2b 3d f9 d6 66 bc ed 55 f1 bc
       0.061277475 0.041816268 -0.014089339 -0.029459918
0003d0 a2 57 c1 3d 2e 09 30 3d 79 0c 61 bc 1e 7f 5f bd
       0.09440543 0.042977504 -0.013735884 -0.054564588
0003e0 d3 7f 97 be 01 8d 20 be 2f 72 9a 3b 54 a2 5e bd
       -0.2958971 -0.15678789 0.004713319 -0.054354027
0003f0 1a c0 73 be 90 12 40 3e 0f cf 94 bc 9a e9 7f be
       -0.2380375 0.18757081 -0.01816514 -0.24991456

b_gain_food_primary f4 [7]
000000 c1 7c c0 3b f8 3c b8 bb 20 2d 7f bb 43 09 11 3b
       0.005874247 -0.0056225024 -0.0038936809 0.0022130765
000010 d9 ff 4d bb f0 ec 51 3c e5 03 07 bc
       -0.0031433015 0.012812838 -0.008240675

W_draw_mode f4 [192, 4]
000000 05 03 ea 3d 5c 48 00 be ba ad db 3c ce 47 47 3d
       0.11426357 -0.12527603 0.026816238 0.048652463
000010 88 0e 34 be 9b 39 b7 bb 14 61 8f bd bf cd a1 bb
       -0.17583668 -0.005591584 -0.07000938 -0.004937857
000020 34 8b 57 be 41 38 0a 3d 85 f9 e8 bd ad 99 b2 bd
       -0.21049196 0.033745054 -0.11375717 -0.087207176
000030 55 6f dc 3d f3 4f 65 3e 80 30 fc bb f7 f0 de bc
       0.107634224 0.2239378 -0.0076962113 -0.02721451
000040 fb b3 71 3d 27 44 1b 3d 8f e2 bf bd 30 0f 00 be
       0.059009533 0.037906792 -0.093693845 -0.12505794
000050 c7 65 51 3d 4d 72 00 bd a2 c5 97 bc 28 d8 c1 bd
       0.051122453 -0.031359006 -0.018526856 -0.09465057
000060 7a 87 32 3d 46 f7 8d 3a 3a 6e 54 3c 65 88 08 3e
       0.04358623 0.001083114 0.012965733 0.1333328
000070 ef c2 2d bd 1f 4c a6 3d 2d f8 52 3d 29 3f 10 be
       -0.04242223 0.08119988 0.05150621 -0.14086594
000080 d2 0d d4 bd 92 19 4c be 8d 5c c3 bd 6a 91 68 be
       -0.103541985 -0.1993163 -0.09539137 -0.22711721
000090 c7 b4 2e be 47 9f 3d be 9a 9d 0b 3d 48 07 01 3e
       -0.17061149 -0.1851779 0.034085847 0.12600434
0000a0 30 5a 58 bd 0e ef 29 3c c7 33 49 bd c9 a7 01 bd
       -0.052820385 0.0103719365 -0.049121644 -0.031654153
0000b0 c7 72 8c be 10 13 a1 bd 0a e5 6a bd ea 38 2b 3d
       -0.27431318 -0.07864964 -0.057347335 0.041802324
0000c0 df 13 0c bc 38 42 45 bd 01 f8 3e 3e e4 52 a1 bd
       -0.0085496595 -0.048158854 0.18649293 -0.07877138
0000d0 b0 e5 aa bd fe a5 0c 3e c7 92 5e 3c 2f ac 5e bd
       -0.08344591 0.13735196 0.013584799 -0.054363426
0000e0 21 c2 a3 bd 9e 98 0a 3c ec 1d 7d be d5 1a 48 bb
       -0.079960115 0.008459238 -0.24718446 -0.0030533571
0000f0 46 4c e2 3d 32 8f 9f bd 5c a1 a3 bd 5c 9b 13 3d
       0.11049704 -0.07790984 -0.07989761 0.036036834
000100 19 ae e4 3d 85 ec 05 bb cb c5 07 3d bd d6 7e 3e
       0.11166019 -0.0020435166 0.033147614 0.24886604
000110 91 21 34 3d a6 8d ac 3d de 95 52 3c c2 43 3c bc
       0.043977324 0.08425455 0.012853114 -0.011490764
000120 74 1b 02 3e 48 f2 6a 3d 7a 58 cb bd 25 19 a4 bd
       0.12705785 0.057359964 -0.09928985 -0.080126084
000130 5e bc 6f bd 41 7e 33 be 2e ee 5f 3d ab 30 13 bc
       -0.05852925 -0.17528631 0.054670505 -0.008983771
000140 48 82 37 3e fb 6c 74 bd ed 78 bb b9 24 26 3b be
       0.17920792 -0.059674244 -0.00035757516 -0.18276268
000150 21 6b cc bd 6b b3 13 3c e0 67 2a 3e bd c7 30 3e
       -0.09981371 0.009014945 0.16641188 0.17263694
000160 69 01 55 bd 52 71 4a 3e 5f 12 8f bd 6b 8c 2f 3d
       -0.052003298 0.19769791 -0.06985926 0.042858522
000170 13 fd 9b bc 27 b5 80 bd dd bf 55 bd ba 28 db bd
       -0.019041574 -0.06284552 -0.05218493 -0.10701127
000180 33 25 6c be 7b f1 b2 3c 7e f6 12 3d a0 84 b7 3c
       -0.23061065 0.021843662 0.035879605 0.022402108
000190 4c f3 50 be 73 b1 c4 3d e2 67 f2 bd 17 d4 09 3b
       -0.2040531 0.09604158 -0.1183622 0.0021030956
0001a0 3a 0a 84 be 09 98 0b be bd d3 6b bd e1 5f ef bd
       -0.25789052 -0.13632216 -0.057574976 -0.11688209
0001b0 14 70 9d bc 9b 8c 2d be c7 21 b4 bd de 53 97 3d
       -0.019218482 -0.16948168 -0.08795505 0.07389043
0001c0 5d 60 56 3d d6 6f ca 3c 34 d8 cb bd 77 cf 1a 3e
       0.052337993 0.02471153 -0.09953347 0.15118204
0001d0 14 19 96 3d ae 8d 1f 3d 62 30 75 3e ca 4a ef bd
       0.07329002 0.038953476 0.23944238 -0.11684187
0001e0 00 26 1f be df 1d 11 bc 3b b6 27 3d 33 ea 91 bc
       -0.1554184 -0.0088572195 0.040945273 -0.01781187
0001f0 e1 89 23 bd fd 20 52 bd 0c 4e 8a be a1 cb ce bd
       -0.039926413 -0.05130099 -0.2701267 -0.10097433
000200 15 bb f3 3d f5 b8 d1 bd f9 9b 5c bd 53 2a d0 bd
       0.119009174 -0.10240356 -0.053859685 -0.10164323
000210 4d e3 82 3d 2a 12 17 3d 26 a5 ac bd 0a db 31 bd
       0.063910104 0.036882557 -0.08429937 -0.043421783
000220 3d 61 00 3e 37 f4 a7 3d d1 4c 6f 3e 08 9a 48 3d
       0.12537093 0.08200877 0.23369147 0.04897502
000230 c6 f4 2f bd 77 1d 5b 3d 00 b2 c8 bc 32 54 1c be
       -0.042958044 0.053494897 -0.02449894 -0.15266493
000240 77 13 b5 3c 09 a3 9b 3d cb ad c1 3d 0e 48 18 be
       0.022104008 0.07599456 0.094569765 -0.14871237
000250 63 f0 c2 bd b4 76 09 3d 5a 3f db bc dc 82 a0 bc
       -0.095185064 0.03356047 -0.026763607 -0.019593649
000260 fb 49 00 be be b7 be 3d c6 c8 1a 3e 86 24 22 3d
       -0.12528221 0.0931239 0.15115651 0.039585613
000270 36 fd db bd 95 4d 91 bc 36 f8 a6 bd f4 f1 1f 3d
       -0.107416555 -0.01773719 -0.08152811 0.039049104
000280 eb d4 89 3d af a8 3e 3d fd 5e 2b be 78 90 f7 bd
       0.06730064 0.046547588 -0.16735454 -0.12088102
000290 a1 39 4d bd 17 cc a4 3d bd 40 da bd 6a 6c 96 ba
       -0.050103787 0.080467395 -0.10656879 -0.0011476402
0002a0 83 dc 0c 3e 42 51 ec bc 49 e9 1a 3d be 45 6d 3c
       0.13755994 -0.02884734 0.037820134 0.01448196
0002b0 b1 40 2c 3c e2 12 45 be a5 7d 13 3d 1b 1e fb 3d
       0.0105134705 -0.19245484 0.036008496 0.122616015
0002c0 d6 ad 8b 3c bf 6a 72 3d 32 9f f5 3d c0 2c 6f 3d
       0.017050665 0.059183832 0.11993255 0.058392286
0002d0 a8 2a e6 bc 0d a7 9a 3d 60 e0 95 3d 38 e5 ef 3d
       -0.028096512 0.07551394 0.07318187 0.11713642
0002e0 3b 35 9c bc 65 4c 4d 3c 02 cf cc 3d 15 34 52 3d
       -0.019068351 0.012530421 0.10000421 0.0513192
0002f0 31 55 22 3e 52 9c 6c 3d 52 6e 56 be a0 9d 02 3e
       0.1585281 0.057766266 -0.20940521 0.12755442
000300 a3 5e cc 3c 8d 2b ed 3d 79 f8 df 3d 50 6c 89 3c
       0.02494747 0.11580572 0.10936064 0.01677528
000310 42 3a dd bd b1 27 31 3d e4 bc e6 bd 58 d3 7a 3d
       -0.108021274 0.043250743 -0.11266497 0.06123671
000320 39 64 d7 bd df 3a d2 3b 40 78 00 be 6c 82 60 be
       -0.10517163 0.0064157094 -0.12545872 -0.21924752
000330 d8 e6 da 3c 9d 8d 3e bd f3 38 ab 3d 86 94 2a 3d
       0.026721403 -0.04652177 0.083604716 0.04164555
000340 2c b2 0f 3e db b5 a6 bd 19 ca d8 bb 0b ba 1d be
       0.14032811 -0.08140155 -0.006615889 -0.15403001
000350 80 e2 1c be 5d e2 81 bc 34 8e ba bd fc 07 cd bc
       -0.15320778 -0.015855009 -0.09109154 -0.025028221
000360 01 a6 fa bc 4e 19 61 3d 83 32 27 bc 21 02 34 3d
       -0.030596735 0.054955773 -0.010204914 0.043947343
000370 0f c1 03 bd a5 fa 98 bd 62 9a 33 3d 17 d0 e7 bc
       -0.032166537 -0.07469682 0.043848403 -0.028297467
000380 a1 c8 9f bc 02 83 78 bd 13 b9 6a 3e f5 07 91 bd
       -0.019504847 -0.060671814 0.22922163 -0.07081596
000390 76 a6 0e 3e 2d 13 64 bb 1c 67 52 be 0e 4b 1d be
       0.13930687 -0.0034801469 -0.20547146 -0.15360662
0003a0 40 bd 27 bd 94 18 a9 3d 33 8b da bd ba d0 6b bd
       -0.040951967 0.08256641 -0.106710814 -0.057572104
0003b0 bd 88 bd bc 07 db c1 3d 67 15 d4 3d 26 fe ff bd
       -0.023136491 0.09465604 0.10355645 -0.12499647
0003c0 56 f0 35 3c a3 d4 66 bd 0e 79 58 3e 74 ac 8f 3d
       0.011104664 -0.05635513 0.21139929 0.07015315
0003d0 87 67 18 3e 85 b4 91 3d d4 9b d9 bd 61 c4 41 3c
       0.14883243 0.071145095 -0.10625425 0.011826606
0003e0 63 90 5c bd 98 31 f7 3d d5 8d 82 3d 23 0e 80 3e
       -0.053848635 0.12070006 0.063747086 0.25010785
0003f0 f3 fc c1 bc 29 74 aa 3d 39 2a 71 3d 51 d3 8d 3d
       -0.023680186 0.08322937 0.058878157 0.06925071

b_draw_mode f4 [4]
000000 19 1c 7b bc 9f ca 7a 3d 54 1e bd bc d4 e8 ba bc
       -0.015326523 0.06122839 -0.02308575 -0.0228161

W_lay_eggs_bin f4 [192, 11]
000000 28 bd 06 be 89 a9 14 be ac 83 74 3d 70 5f ca bd
       -0.13158095 -0.14517798 0.059695885 -0.098814845
000010 49 85 15 3d 92 30 6b bc a6 f9 51 be ca 7a a3 bc
       0.036504064 -0.014354842 -0.2050539 -0.019956011
000020 e5 58 0d 3e 1c 4e 11 be 68 fa 53 bd 1f 8d 86 bc
       0.13803442 -0.14189953 -0.051752478 -0.016424714
000030 d3 ba c2 3d 44 a3 a6 3c e9 95 2f 3d 14 b4 17 be
       0.0950829 0.020341523 0.042867575 -0.14814788
000040 d4 62 1e 3e 52 77 15 bd 8c 9d 8f bd 83 c9 17 3d
       0.15467387 -0.036490746 -0.070124716 0.03705741
000050 ec 9a bd bc 00 12 74 3d 63 67 2e bd 73 61 9b bd
       -0.023145162 0.05958748 -0.042579066 -0.07586946
000060 79 eb 07 bd 93 0d c6 bd 4c 2e da 3d 6c ab f9 bc
       -0.03318355 -0.09670558 0.10653362 -0.030477248
000070 49 08 32 3b d5 26 f4 bd ba f0 a9 ba 96 f4 48 bd
       0.0027165583 -0.11921469 -0.0012965419 -0.04906138
000080 ca 14 3b 3d cb 4a 21 3c ba 19 b8 bd 05 7b 99 bd
       0.045674123 0.009844492 -0.08989282 -0.07494167
000090 6d 15 d8 3c 5b 44 44 3d e4 ff de bc ed 7b 86 be
       0.026377404 0.04791675 -0.027221628 -0.26266423
0000a0 01 90 fc bb df 94 f8 bd 71 86 bc bc 44 77 36 bd
       -0.0077075963 -0.1213777 -0.023013325 -0.044547334
0000b0 ef 16 76 bc 99 12 34 bd 23 9c cf 3c c2 cc 4f 3c
       -0.015020116 -0.04396305 0.025343006 0.012683095
0000c0 a7 0d d5 bd a7 d9 89 bd 37 2d eb 3d 8f 04 a1 bd
       -0.104029946 -0.06730967 0.114832334 -0.078621976
0000d0 27 d9 b9 bd b0 8c f0 bc a9 52 0a 3e 6b ac 38 3e
       -0.09074622 -0.02936396 0.13508095 0.18034522
0000e0 2a b9 2d 3e 7c 6c 41 3e dc 5f 19 3e 6b 46 ad bd
       0.16965166 0.1888904 0.14977974 -0.08460697
0000f0 73 a9 c7 3d 4b 76 2b 3d d0 fd b5 bc c0 85 7d be
       0.09749117 0.04186086 -0.022215754 -0.24758053
000100 33 6c 57 be 4d 7d fd 3d c9 b6 fa bd a0 09 35 3d
       -0.21037368 0.12377415 -0.12241895 0.044198632
000110 d9 61 88 bd 65 7f e9 3d fb e9 b3 3c ef 6a 8e bd
       -0.06659288 0.11401252 0.021962157 -0.0695399
000120 86 c6 63 bb 8e 68 a6 ba f2 a1 d9 3b 7b 92 82 bc
       -0.003475578 -0.0012695955 0.00664162 -0.015938988
000130 5e 12 f8 3d 43 16 03 bd 59 4f 2f 3d b2 f4 b1 bd
       0.12112878 -0.032003652 0.04280028 -0.0868925
000140 0c f3 90 bc 70 cc 9d bd 0f 9e 9e be 10 e8 29 3d
       -0.017694019 -0.07705009 -0.30979964 0.041481078
000150 45 c3 cb bb 02 16 06 be 50 ce 9d bc fa ff 7a be
       -0.0062183463 -0.13094333 -0.019263417 -0.2451171
000160 4d 46 82 bc eb c5 fd bd fc be 83 bd c2 f7 04 bc
       -0.015902663 -0.123912655 -0.06432912 -0.008115711
000170 e0 c0 12 3d 6e 61 8f 3c 77 5b a3 3c 52 e0 df 3d
       0.03582847 0.017502513 0.019941075 0.109314576
000180 06 37 2e 3c 90 31 7e bd 0f 1d 1a 3e 86 93 83 bd
       0.010633236 -0.062058985 0.15050147 -0.06424622
000190 8a 21 42 bd e9 26 2a 3e 20 f4 88 3c 2d f8 09 bd
       -0.047395267 0.16616406 0.01671797 -0.033683944
0001a0 7b 4b 47 3c 34 e4 75 3e 0e 33 05 be 8f 84 5a bb
       0.012163992 0.24012834 -0.13007757 -0.0033343171
0001b0 cb d9 d6 bc d2 0c 26 be 8f 16 3a 3e 45 f1 32 3e
       -0.026226899 -0.16215828 0.18172668 0.1747485
0001c0 04 82 35 bd 5d ec 11 be 40 76 78 3d f9 f3 fa bd
       -0.044313446 -0.14250322 0.060659647 -0.12253565
0001d0 e0 31 1b be 2a e9 10 bd 37 31 fe bc 78 a7 ad 3d
       -0.15155745 -0.035378613 -0.031029327 0.08479208
0001e0 bd af 44 be 0f 4d 8a 3c 29 f4 55 be 49 c1 a6 3e
       -0.19207664 0.016882448 -0.20893921 0.3256934
0001f0 5e e4 bb 3d 54 62 55 be a8 28 5d 3d 0f 62 1c 3e
       0.09174417 -0.2083829 0.05399385 0.15271781
000200 37 e1 09 3e fe d2 d1 3c 45 95 04 be 7d d3 2e be
       0.13464819 0.025613304 -0.12947567 -0.17072864
000210 3f ad 99 3d a8 c7 8a bd 20 b0 aa bc 14 28 3d bd
       0.07503747 -0.06776363 -0.020835936 -0.0461808
000220 34 85 ca 3d ca 83 96 bd 7b 1a f9 bd 13 ce 61 3d
       0.09888688 -0.073493555 -0.12163254 0.05512817
000230 8f 56 8f 3d c9 dd 7b bd 18 0f 05 3e f8 bb 18 be
       0.069989316 -0.061490808 0.12994039 -0.14915454
000240 73 6a b9 bc c5 ca 36 bd f9 da 2c be 1a 19 05 3e
       -0.022633767 -0.04462697 -0.16880406 0.12997857
000250 76 bc a3 bc 4c 38 12 be aa d8 09 be 25 af b0 bd
       -0.019987326 -0.14279288 -0.13461557 -0.08627156
000260 37 c2 b2 3d ac 89 7b bd a4 de d0 3d af f0 65 3e
       0.0872845 -0.06141059 0.10198715 0.22455095
000270 ea 0b cc 3d 4b 7e e9 bb d8 8e d1 3d 19 c5 a4 3d
       0.0996321 -0.007125651 0.102323234 0.08045406
000280 3e 62 e6 bd 96 42 78 be 3a 17 8b 3c 56 b2 56 be
       -0.11249207 -0.2424415 0.016978849 -0.20966467
000290 8e 7c 90 bc dd e0 48 3d 46 a7 3f be 42 0e 3f 3e
       -0.017637517 0.04904257 -0.18716154 0.18657783
0002a0 7d e7 ef 39 a3 2f 00 3e d2 df 0e bc f2 4b 0a 3e
       0.00045758105 0.12518172 -0.008720355 0.13505533
0002b0 e4 88 c5 3d f2 25 e1 3c 52 29 ae bc bd 8d da 3c
       0.096452504 0.027483914 -0.021259937 0.026678914
0002c0 9c 4d 76 be be ad d7 bd 98 a6 fd bd 88 17 b5 bd
       -0.24053043 -0.105311856 -0.12385291 -0.08842379
0002d0 cf bc 0f be 13 4e 69 bc c7 54 97 bc a3 7c cc 3c
       -0.14036869 -0.014239806 -0.018473042 0.024961775
0002e0 ae 08 4d bd 2d fa 62 3e 4a ed 6f bd 5d 44 e3 bd
       -0.050057106 0.22165747 -0.058575906 -0.11097024
0002f0 a5 13 dd 3c 1b 88 61 bd d2 bf cc bd 4b c6 66 3d
       0.026986906 -0.05506144 -0.09997524 0.05634145
000300 6a 9b 1a bd 55 7a ae 3d e7 44 0b bd e9 19 61 3d
       -0.03774587 0.08519427 -0.034001257 0.05495635
000310 86 44 bd 3d f1 45 24 3e 89 7c 9c 3d e0 3c 8c bb
       0.092415854 0.16042306 0.07640941 -0.004279718
000320 f6 cc b4 bd a7 fb 90 3b 20 2f 39 be 06 4f 06 bd
       -0.08828156 0.0044245305 -0.18084383 -0.032790206
000330 59 ee 60 bd e5 19 10 bd 48 e3 d2 3d 84 1a bb 3d
       -0.054914806 -0.035180945 0.10297257 0.09135917
000340 87 e7 e4 bc a7 fd 62 3e f6 71 0a be f0 47 57 3a
       -0.027942432 0.22167073 -0.13520035 0.00082123186
000350 b7 48 21 bd 58 ea 44 3e 24 c1 6e bd 67 e8 99 bd
       -0.039375987 0.1923002 -0.058289662 -0.0751503
000360 ee aa b4 3c 1b d9 ff bd df d1 27 3d 40 07 ff bd
       0.022054162 -0.124925815 0.040971633 -0.12452555
000370 d4 1e 36 3d 99 ab 15 be 31 e2 08 3b 28 36 13 bd
       0.044462994 -0.1461624 0.0020886774 -0.03594032
000380 26 82 63 3d 76 c7 35 bd 02 02 11 be 7b 07 27 3e
       0.05554404 -0.044379674 -0.14160922 0.16311447
000390 85 64 18 3e 8a b2 3d 3d 18 36 8c 3d 24 e1 b1 bd
       0.14882095 0.046312846 0.06846255 -0.0868552
0003a0 32 2e aa 3d c1 8c e5 3d af dd 0b 3d 78 80 e0 bd
       0.08309592 0.11208487 0.03414696 -0.109620035
0003b0 bc 1b 85 bc d8 31 cd bd 08 6d e5 bd d0 63 a4 3c
       -0.016248576 -0.100192726 -0.11202437 0.020067126
0003c0 48 2c 39 3d f1 10 b6 3d ef 0a 51 3d c8 8b 94 3c
       0.045208246 0.0888995 0.051035818 0.01813306
0003d0 c6 df 0d be 06 0d dd 3d c4 d2 8a 3c 78 11 62 3d
       -0.13854894 0.107935 0.016946204 0.05519244
0003e0 ec d0 33 3d 88 ce 3e 3d 06 1f 32 bd 76 f3 03 bd
       0.043900415 0.046583682 -0.043486618 -0.032214604
0003f0 58 91 c3 3d 36 cf d9 bc d8 f8 50 bc cc 01 d5 3d
       0.095492065 -0.026588064 -0.0127546415 0.10400733

b_lay_eggs_bin f4 [11]
000000 f4 f1 1a bb 73 9a 8e bb 1a 14 c5 3c a6 cc ea 3b
       -0.002364275 -0.004351908 0.024057437 0.0071655093
000010 a1 11 52 bb 3e a3 8c bb 16 5e 29 bb 7b 7f 71 bb
       -0.0032053965 -0.004291921 -0.0025843433 -0.0036849666
000020 27 ae c8 ba 01 d9 b3 bb 7b d4 73 bb
       -0.001531069 -0.0054885154 -0.0037205506
