reports/ml/next_strict_run2/iter_001/factorized_model.npz (npz, 72116 bytes, 17 tensors)

W1 f4 [48, 192]
000000 29 a2 61 3d 4f f9 0e 3e 57 23 f2 bd cd 4e 4d be
       0.05508629 0.13962291 -0.11823147 -0.20049591
000010 8d 2b d0 be 85 22 5e 3e 46 08 16 3b 8d 0b ef 3d
       -0.40658227 0.21692856 0.0022893115 0.11672125
000020 bc 69 61 bd e2 f8 0f 3f fb ec 4f 3e 41 e1 cc bc
       -0.055032477 0.5623914 0.20305245 -0.025009753
000030 af 4a 07 be dc 52 8d bd 7f ee 17 be 3e 79 05 bc
       -0.13212083 -0.0690057 -0.14837073 -0.008146582
000040 19 a0 fb bd 80 d8 e3 3e d1 3e 90 bd b9 f0 44 bd
       -0.122863956 0.44501114 -0.07043231 -0.048081134
000050 03 6a 98 3e 96 db 24 3e 2a 3d a3 be d2 c7 d6 3d
       0.2976838 0.1609939 -0.31882602 0.104873314
000060 4a 29 d9 be 69 e2 21 3d 6e 0b 80 3e 42 6c ed 3d
       -0.42414314 0.039522562 0.2500872 0.11592914
000070 91 72 a9 ba 19 69 d6 be ab 73 e9 3d 54 16 de 3d
       -0.001292782 -0.41877058 0.11399015 0.108441025
000080 ea e7 4f be 43 cb fc 3e 6b 4f 7f be d4 37 b1 be
       -0.20303312 0.49373826 -0.2493264 -0.34612906
000090 a8 24 bd be b8 ce ae 3d fe ea b8 3d 89 52 cb 3d
       -0.3694203 0.08535522 0.09029196 0.09927852
0000a0 ff 75 04 bd f2 55 70 bc 0d f8 85 3e 85 2a 8e bd
       -0.032339092 -0.014668928 0.2616581 -0.06941704
0000b0 86 2e 81 be 21 45 91 3e 8f 82 1a 3e 31 a0 a4 3d
       -0.25230807 0.28373054 0.15088867 0.080383666
0000c0 7f 42 c2 3e 92 a8 09 3e c9 29 74 3c 6d 67 21 3e
       0.37941357 0.1344321 0.0149025405 0.1576211
0000d0 e6 31 a9 bd f9 67 99 3e 32 dc 58 3e e3 2a 82 be
       -0.082614705 0.29962137 0.21177748 -0.25423345
0000e0 43 1e 4c 3e 85 7f 87 be 90 01 15 3d 49 c4 5b 3d
       0.19933419 -0.26464477 0.036378443 0.05365399
0000f0 a8 c1 82 3e d6 6b 6a be 3b 76 14 be 47 64 4b 3d
       0.25538373 -0.22892699 -0.14498226 0.04965618
000100 a7 2d 0e 3d c9 17 71 3e 91 1b 81 3e 91 81 96 3e
       0.034711506 0.2354423 0.25216344 0.29395726
000110 4b ae 73 3e 5d d8 cd 3e 8c 54 8d be 96 d8 43 bb
       0.23796956 0.40204135 -0.27603567 -0.0029883734
000120 88 60 1e 3e 61 d4 41 3e 82 39 ef 3e bb 55 13 3d
       0.15466511 0.18928672 0.46723562 0.03597043
000130 f7 e1 21 3e 23 2e 48 3e fe 3a 11 bf 54 68 b3 bd
       0.15808855 0.1954885 -0.5673064 -0.087601334
000140 fb 6a 16 3f fe e9 2c 3d c7 8d ef 3e c0 69 46 be
       0.5875699 0.04221534 0.46787855 -0.19376278
000150 47 cc b9 3d f2 26 db bc 3b 27 cc 3e ae 14 53 be
       0.09072166 -0.026751969 0.3987368 -0.20613357
000160 76 cd 0f bf 57 9c 1f 3d ab dc d6 3e 99 75 a2 3d
       -0.56172884 0.038967457 0.4196523 0.07932586
000170 f5 b5 bb be 07 3b 60 be ca ed b9 3d 80 ee 96 bd
       -0.3666226 -0.21897517 0.09078558 -0.07369709
000180 20 27 3e 3d 98 f5 d2 be ff 84 6c 3d b8 c2 cd 3e
       0.04642403 -0.41202998 0.057744022 0.4018762
000190 a5 42 7b bc b9 aa 55 be d1 2f 82 3e 72 d4 3b 3e
       -0.0153357135 -0.20865907 0.25427106 0.1834276
0001a0 f0 f6 c0 bd 36 6b 30 bd 91 11 5e 3e 2a 46 cf bd
       -0.094220996 -0.043070994 0.21686389 -0.101208046
0001b0 7a 10 8c bc c6 de 22 3f 0c af 40 3c df c7 cf bd
       -0.0170977 0.63621175 0.011760484 -0.10145544
0001c0 da 8e ce be 56 d8 e5 3e 58 be 80 3e f6 49 02 be
       -0.40343362 0.44891614 0.2514522 -0.12723526
0001d0 b5 4d 8c 3e 94 32 86 be 6e 05 a3 be ec 9f 61 3d
       0.27403036 -0.26210463 -0.3184008 0.055084154
0001e0 77 de 6d bb 03 e4 9f be a1 63 7c be 88 b7 68 bd
       -0.003629593 -0.31228647 -0.2464738 -0.056815654
0001f0 ed c8 c6 3c 7f c3 05 be 10 86 3f 3e eb b3 ec be
       0.02426573 -0.13062857 0.18703485 -0.46231017
000200 9e 07 70 3e 10 7e 0d be c1 73 8a 3d ba bb c9 3e
       0.23440406 -0.1381762 0.067603596 0.39401037
000210 88 95 86 bd 3b 6e d3 3c bd b0 4d 3e 2d e2 8e be
       -0.065714896 0.025809398 0.20086952 -0.27906933
000220 df d1 bb 3e 42 fd 26 3e f6 1c 3d bd 2b d9 1a 3e
       0.36683556 0.16307548 -0.046170197 0.15121906
000230 26 4b 8f 3e 08 f5 65 be ca ae 8f be 40 df 38 3e
       0.2798702 -0.22456753 -0.2806304 0.18053913
000240 d3 07 d6 3e 5d e2 08 bd 2f c8 89 3d c4 28 1f be
       0.41802844 -0.033419 0.06727635 -0.15542895
000250 2e 64 ab 3d a3 e9 ee bd 49 88 91 be 93 fe 83 3c
       0.08368717 -0.116656564 -0.2842429 0.016112601
000260 9d e5 7c 3e d8 73 66 3e 7f 68 e0 bd 9b 6a f1 3e
       0.24696966 0.22505128 -0.10957431 0.47151646
000270 55 b9 e6 3c 40 a7 b8 3e 50 cf 90 be 08 f4 86 3f
       0.028164545 0.36065102 -0.28283167 1.0543222
000280 64 80 53 bd 64 0e 88 be d6 99 35 be 39 2b e7 3e
       -0.051636115 -0.2657348 -0.17734465 0.45150164
000290 d9 32 0d 3e 4a 6d ba 3e 48 7e ff 3d 90 5a 7b be
       0.13788928 0.36411506 0.12475258 -0.24546266
0002a0 d7 dc 15 bd 95 39 f9 be 07 d6 48 be cc 7c 68 3e
       -0.036587562 -0.48676744 -0.19612895 0.22703856
0002b0 c0 27 cb be e0 80 e2 3e 72 e7 f5 3e e6 a4 97 bd
       -0.39678764 0.4423895 0.4802814 -0.07404499
0002c0 c3 a1 bd 3d 7e 57 f5 3d 67 80 3d bd 14 dc d4 3d
       0.09259369 0.119795784 -0.046265032 0.10393539
0002d0 b1 90 87 bd 75 df bf 3b e6 9b 05 3e a2 79 8b 3e
       -0.066193946 0.0058554956 0.13047752 0.27241236
0002e0 44 85 1d 3e e1 ec 5e 3d 5d 7a 42 3e 31 a1 11 3e
       0.15382868 0.054425124 0.1899199 0.14221646
0002f0 9f 45 7c be 59 81 20 be c9 ec f2 3e 42 22 82 3e
       -0.24635933 -0.15674342 0.47446278 0.25416762
000300 90 14 e9 3d 1d 20 6b bd 9d a4 2a 3e d2 c7 0a 3e
       0.11380875 -0.057403672 0.16664357 0.13552788
000310 78 01 a2 be e4 d2 87 3c 31 93 92 be 82 e2 a2 bd
       -0.31641746 0.016580053 -0.28627923 -0.07953359
000320 30 1a d1 3c 1a 2c d3 3e fa df da be ef 07 95 bd
       0.025525182 0.41244584 -0.42749006 -0.07276904
000330 98 be 0a 3e ab f1 0b 3e 9e 5c 34 3e 8e be 53 be
       0.13549268 0.13666408 0.17613456 -0.2067816
000340 fc 51 d1 bc 31 5b f2 bc 0f 3c 89 3e 93 e0 c0 bc
       -0.025551789 -0.0295845 0.26803634 -0.023544585
000350 eb a1 c5 39 a9 4f cd 3d 54 8e 88 be d4 97 e3 3d
       0.00037695406 0.100249596 -0.26671088 0.11112943
000360 12 0d 67 be 1c 55 10 3d fb 65 0d be 1c fe 86 3e
       -0.2256358 0.035237417 -0.13808434 0.26365745
000370 6b 1e e6 3b 37 cb c9 3e de 74 e9 be 92 dc 91 3e
       0.007022669 0.39412853 -0.45596975 0.28488594
000380 7f 37 3c 3e 24 9d a4 3d 00 c5 e6 3e da b0 95 be
       0.18380545 0.08037785 0.45072174 -0.2923649
000390 b3 35 32 3d b1 bd 89 3e 1d c7 02 3e 9a 2e 9a bd
       0.043508243 0.26902536 0.12771268 -0.0752842
0003a0 aa ac 0e 3e 44 60 5e bd c6 0c 52 bd 5f c4 e8 bd
       0.13933054 -0.054291025 -0.051281713 -0.1136558
0003b0 82 8a 5b 3e 1d e5 81 3d 25 aa 09 3f d3 45 2d 3e
       0.21439555 0.06342528 0.53775245 0.16921167
0003c0 33 f6 81 be ea 82 57 3e 67 c3 49 be d3 0c 56 bd
       -0.25383148 0.21046034 -0.19703446 -0.052258324
0003d0 03 c4 1a 3d a1 a6 36 be 49 d4 66 bd 79 ff 0e be
       0.037784588 -0.17837001 -0.056354795 -0.13964643
0003e0 88 be ed 3c 55 2f 7c bc 5a 60 c1 bc 18 e5 b6 3e
       0.029021516 -0.015392144 -0.023605514 0.3572166
0003f0 ca cf e1 3d c6 d1 b4 3d 1f 93 5c 3e 59 89 ca 3e
       0.11025961 0.088290736 0.21540497 0.39557913

b1 f4 [192]
000000 85 39 86 3c af ca c1 3a f7 0a 05 3b e3 9d b5 bc
       0.01638485 0.0014785136 0.0020300725 -0.022170013
000010 00 00 00 00 08 08 cb 3c e6 67 9f ba 5d d6 ec 3d
       0.0 0.024784103 -0.0012161701 0.11564324
000020 56 50 1c 3e 45 fe fa 3e f6 b1 14 3d a2 34 15 b9
       0.1526502 0.49022117 0.03630253 -0.00014229355
000030 63 53 fa bc 13 b9 65 3b fa ff 9e 3c a0 76 01 bd
       -0.03055734 0.003505294 0.019409169 -0.03160727
000040 40 84 d8 3b 8c c8 04 3f 69 a9 97 3b 22 25 16 3d
       0.0066075623 0.5186851 0.0046283496 0.036656506
000050 e4 eb d8 bc db e3 fa 3e e9 dc 97 3b 2f 68 33 3d
       -0.026479669 0.49001965 0.004634489 0.04380053
000060 00 00 00 00 47 d9 8c bc 35 e4 a3 3d aa 20 1c 3e
       0.0 -0.01719345 0.080025114 0.15246835
000070 ce 0e bb bb 49 f7 48 b9 a3 43 b8 39 d5 ec 1b 3d
       -0.005708552 -0.00019165607 0.00035145608 0.038067658
000080 93 56 87 3d 24 49 29 3e 1c d2 b8 3a 08 3a e2 bb
       0.066083096 0.16531807 0.0014100703 -0.0069038905
000090 58 18 71 3a bc 8f ec 3d e7 00 f7 3c 4f f9 81 3c
       0.0009197048 0.11550853 0.030151797 0.01586595
0000a0 5f 9a 67 3d 35 93 79 3e 34 b1 15 3e b6 f3 2f 3e
       0.056543704 0.24372561 0.14618379 0.17182812
0000b0 d9 d8 d2 bb 0e 53 18 bb 45 52 45 3e 90 8f f0 bc
       -0.0064345417 -0.0023242864 0.19269665 -0.029365331
0000c0 f1 93 c8 3e 3b 07 bf 3e ef 92 4e 3e 8a d5 06 3d
       0.3917537 0.37310204 0.20173238 0.03291849
0000d0 02 0e 93 3d 2f 0e b5 3e 33 bd bf 3e 47 8e 89 bc
       0.07180406 0.35362384 0.37449035 -0.016791476
0000e0 da 0b 07 3b a5 2a 4a bb 19 5f 99 bc de 12 92 3d
       0.002060643 -0.0030848172 -0.018722104 0.07132505
0000f0 39 59 75 bb 3b 53 41 ba 39 94 8c bd 33 04 fd 3d
       -0.0037437214 -0.0007374768 -0.06864209 0.123543166
000100 7d 7a 51 bb 09 55 b1 3d d1 fd 9a 3e 92 c8 e5 3e
       -0.0031963878 0.08658797 0.30271772 0.44879586
000110 ec 62 31 3d 4a 4d f1 bc 59 d4 0e 3b 69 13 16 bb
       0.04330723 -0.0294558 0.002179405 -0.0022899753
000120 74 4b ff ba af db 86 3e 92 14 8f 3e 44 6a 29 3e
       -0.0019477443 0.2633948 0.2794538 0.16544443
000130 55 59 15 3f ee c6 9e 3c b7 9b ca ba ba 4a a8 3c
       0.58339435 0.019381966 -0.0015457784 0.020543445
000140 e7 4b 26 3e ea ee 80 3d d8 15 1c 3f fb 20 39 3a
       0.16239892 0.06295569 0.6097083 0.00070621044
000150 a9 1d 25 3e 6f da c5 3a 5f b8 e2 3c 3c 57 89 3b
       0.16124596 0.0015095006 0.027675806 0.0041913074
000160 32 d1 ff 3b f9 00 47 bd ef 1e 14 3e 6d 40 b2 3e
       0.0078069204 -0.048584912 0.14464925 0.34814778
000170 e3 2b 5c 3c c2 9e e4 37 28 30 29 3b c3 51 8c 3d
       0.013438198 2.7253645e-05 0.0025816057 0.06851532
000180 76 af 87 3d 2d e2 d8 3d 7d fe 85 3e 9a e2 c0 3e
       0.066252634 0.105900146 0.26170722 0.37672883
000190 15 c8 79 3d 09 47 31 3b 19 85 68 3d fd 6a c5 bc
       0.06098183 0.0027050397 0.056767557 -0.024098868
0001a0 24 49 83 3a 65 2e 29 3e da 7c 95 bd 51 f9 ab 3c
       0.0010016304 0.16521604 -0.07299204 0.020992907
0001b0 b0 cf 2c 3d a6 97 d6 3e 4b 16 21 bd 5a 6c 07 ba
       0.042190254 0.41912574 -0.0393279 -0.0005165987
0001c0 00 00 00 00 12 70 31 3f d7 d1 d2 3e 5e 39 80 39
       0.0 0.6931163 0.4117572 0.00024456804
0001d0 24 92 0a 3e 0c ff 06 3b b2 f2 09 3c 57 e0 b2 3e
       0.1353231 0.0020598797 0.0084196795 0.34936783
0001e0 8c b6 13 3c 20 9d 12 b8 ec 47 ab 39 96 0d 4d 3e
       0.009015691 -3.4955447e-05 0.00032669248 0.20024714
0001f0 74 ee 70 3d a3 23 0d 3d 00 24 0e 3b 78 44 a0 3c
       0.058821157 0.034457814 0.0021688938 0.019563898
000200 5c e8 86 3e c1 e1 b6 3a 45 a9 35 bc 70 2f 43 3c
       0.2634915 0.0013952778 -0.01108772 0.011913165
000210 11 5e 26 bd fc 62 c2 ba 03 3d 91 3d 61 52 6a 3c
       -0.040617052 -0.0014830525 0.07091715 0.014301867
000220 e9 35 cc 3e 62 72 b6 3c 5a 6d db bb ed 57 6e 3d
       0.3988488 0.022271339 -0.0066963853 0.05818932
000230 9b 50 d5 3e dd af 84 bd ed 5c c2 3c 4a d6 d3 ba
       0.4166306 -0.06478856 0.023725951 -0.0016161886
000240 e3 6f 06 3e 93 aa 5d 3e e3 b4 58 3c ea 7e 29 3e
       0.13128619 0.216471 0.0132267205 0.1655232
000250 e6 b1 9e 3e 97 bf 93 ba 97 de 6e bd 44 38 a6 3d
       0.309951 -0.0011272308 -0.058317747 0.081162006
000260 79 8b c5 3d d3 35 4e 3e 16 a9 97 3c 82 f5 9c 3e
       0.09645743 0.2013772 0.018513244 0.30656058
000270 59 37 63 3a 1c d9 ac 3c 00 00 00 00 8d 5d 36 3f
       0.000866761 0.02109962 0.0 0.712365
000280 95 10 fe 37 e3 9f c1 bc 0b 04 c1 3d 60 ad dd 3e
       3.0286881e-05 -0.02363581 0.09424599 0.43296337
000290 fe 39 23 bd a6 3b b0 3e c6 62 b4 3c 12 f0 b8 ba
       -0.039850228 0.34420508 0.022019755 -0.0014109632
0002a0 12 8a 2f 3c 00 00 00 00 d1 05 79 bb d8 79 27 3e
       0.010714071 0.0 -0.0037997852 0.16355073
0002b0 c7 1e 16 3b 3c bd 20 bd ec 4d bf 3e 8d c6 87 3e
       0.0022906528 -0.039242968 0.37364137 0.2651867
0002c0 fb 1b 4d bd c6 dd 5e 3d 9e 30 96 bc dc b2 e9 bb
       -0.050075512 0.05441072 -0.01833373 -0.0071319174
0002d0 00 00 00 00 4a 59 25 3d 81 cc 40 3d 53 8c 95 3e
       0.0 0.040368356 0.04707003 0.2920862
0002e0 b5 77 02 3e 92 89 b8 bc 58 aa 8d bb f7 d4 9a bc
       0.12740977 -0.022526536 -0.004323285 -0.018900378
0002f0 a3 78 8a b9 27 88 72 3b df e6 92 3e 88 8c bc bd
       -0.00026411292 0.0037007423 0.28691766 -0.09206492

W_action_type f4 [192, 4]
000000 c8 e5 a0 bc 45 88 2a be 5a 37 29 be 33 57 d1 3b
       -0.019640818 -0.16653545 -0.16525021 0.006388569
000010 09 9c 74 bd af 82 2c bd e5 8d 4f bd 83 b4 e7 bc
       -0.05971912 -0.042116817 -0.05067243 -0.028284317
000020 56 c7 49 3e 32 d4 f2 bd ea ce cf bc 78 68 de 3d
       0.19704947 -0.11856879 -0.025367219 0.108597696
000030 ac 58 8e 3e 7c 5d 0f bc 73 65 70 3d 25 60 7c bd
       0.27802026 -0.008750316 0.0586905 -0.061615128
000040 f2 be 85 bd 6e 72 22 3d 9c 0b a4 bd 34 03 b9 3d
       -0.065305606 0.03965991 -0.08010027 0.09033814
000050 7f 8c 93 bc 7e c1 cb bd e8 5c 1f 3c 49 b7 b2 3d
       -0.01801133 -0.09949015 0.00972674 0.08726365
000060 53 e6 fe bc c5 e0 90 bc a1 44 55 bd 40 f7 17 3d
       -0.031115687 -0.017685303 -0.052067403 0.03710103
000070 6d 22 2c 3c 3d 7d b1 3d 24 5e 2e be b8 84 25 be
       0.010506255 0.086664654 -0.170281 -0.1616391
000080 77 11 26 bd 56 11 32 3d c6 44 dd 3c c2 56 23 be
       -0.040544 0.043473564 0.027010333 -0.15951064
000090 4c c0 86 3c 6b 7e 87 39 c6 e8 ac 3d 1c 78 dd bc
       0.016449116 0.00025843395 0.084428355 -0.027034812
0000a0 45 34 cf 3c 2b 53 57 bc 3c 6d 0a be 0d 70 55 3d
       0.025293479 -0.013142387 -0.13518232 0.052108813
0000b0 c2 1b 0c bd 33 fa f2 bd 4f aa 60 3e 43 da d2 3d
       -0.03420616 -0.11864128 0.21939968 0.10295536
0000c0 6c 77 fc 3c b2 c2 b6 3d 81 07 dd 3c 72 4a 53 3d
       0.030818664 0.08923854 0.026981117 0.05158467
0000d0 04 9a a1 bd 92 b1 00 3e c6 7b 01 be 44 a5 e6 bd
       -0.07890704 0.12567738 -0.12644872 -0.11261991
0000e0 9d 6f 96 3d 2b c4 25 bc 7b db 49 3d f5 8e 22 3b
       0.07345507 -0.010117571 0.04928158 0.0024804447
0000f0 4b eb 69 bc 68 20 d2 3d 10 7f 0e be bf 67 1e 3d
       -0.01427729 0.10260087 -0.13915658 0.03867316
000100 45 5a 00 bd e8 4d 0d 3e c1 eb 30 3c 61 17 7b 3d
       -0.031336088 0.1379925 0.010798396 0.061301593
000110 c8 79 9b bd ee 86 da 3d 0f 57 bc 3c 7f bb 2f be
       -0.07591587 0.10670267 0.022990732 -0.17161368
000120 5b e0 98 3d ed a8 52 bd dc fd e1 bd 00 51 22 3e
       0.074646674 -0.05143063 -0.11034748 0.15851212
000130 8d 3a 1f 3e 4e 07 20 3d c0 eb cb 3d 85 00 ed bc
       0.15549679 0.039069466 0.09957075 -0.028930912
000140 e5 2f 03 3e 6b cd a7 3c 6b 09 2e be e2 a8 2e be
       0.12811239 0.020483693 -0.1699578 -0.17056611
000150 c9 5d 26 bd 77 9c 01 be 23 43 19 be ff 3f 43 3e
       -0.040616784 -0.12657343 -0.14967017 0.19067381
000160 1c b8 f4 bc 6c 19 63 3d f7 a0 0b 3a 5b 1b 85 3d
       -0.029872946 0.055444166 0.0005326415 0.06499358
000170 d8 3b 03 3a c9 7d 83 be 6e ef 03 3e 62 bb f5 bd
       0.0005006171 -0.25681904 0.12884304 -0.11998631
000180 dc c0 2c bd 88 a8 f1 bd b3 6d 45 3e d2 8f 9b be
       -0.042176113 -0.11799723 0.19280128 -0.30383164
000190 4a d9 0e 3e a3 d5 8b 3d 00 21 25 bd 55 5a 2f bd
       0.13950077 0.06827857 -0.040314674 -0.042810757
0001a0 30 dc 13 3e 0b 17 74 3e 3e 56 96 bd 6d 03 80 3e
       0.14439464 0.23836915 -0.07340668 0.25002614
0001b0 8f f4 aa bc 41 ab 64 bd 2d d8 3f 3e e6 91 79 3d
       -0.020868568 -0.055827383 0.18734808 0.060930155
0001c0 1d 71 29 bd e5 33 97 3d b2 23 70 bd cc b3 15 3e
       -0.04136764 0.07382945 -0.05862779 0.14619368
0001d0 58 5b a1 3c 02 14 21 bd d9 98 21 3e 46 9d 8e 3d
       0.019696876 -0.03932572 0.15780963 0.06963591
0001e0 74 31 db bd fd 96 e8 bd a3 6c 32 bd 61 b1 37 3d
       -0.10702792 -0.11356924 -0.043560635 0.044846896
0001f0 95 59 e1 3d e1 42 bf bd 90 25 a7 3d 4a af b1 bd
       0.110034145 -0.09338928 0.08161461 -0.08676012
000200 a0 5b 21 3e fe 9d dd bd c8 59 db ba 98 1c 80 3e
       0.15757608 -0.1082115 -0.0016735131 0.25021815
000210 3d 32 4d be e9 0f 12 be d9 7e bc 3d 48 da 66 bc
       -0.20038696 -0.14263882 0.09203882 -0.014090128
000220 8d 73 6f 3d cd bd 48 3c 37 a3 de bd 5d d9 33 bd
       0.058459807 0.012252283 -0.108709745 -0.043908466
000230 2e 8f dd bb 40 b7 c5 3b d4 3c b5 3d 54 57 07 3b
       -0.006761453 0.006033808 0.08849493 0.0020651417
000240 ef 93 df bd f3 5b 4c bd f3 cd 44 bd 61 a6 48 bd
       -0.10916888 -0.049892377 -0.04804797 -0.048986796
000250 08 8f 85 3c f7 eb 83 bd df c6 32 3e a3 b3 07 3d
       0.016303554 -0.06441491 0.17458676 0.0331303
000260 e6 be cf bd 78 04 76 bd 0b 8b 83 3d 45 a9 5a 3c
       -0.10143833 -0.060062855 0.06423005 0.013346021
000270 bc 1d 2e be 71 13 49 be 10 ae 27 3d 3d e0 be bd
       -0.1700353 -0.19636323 0.040937483 -0.09320114
000280 23 45 eb bd f1 e9 bf bc c1 54 c5 bd cc a2 01 3e
       -0.11487796 -0.023426982 -0.09635306 0.12659758
000290 74 c4 4a bd 99 3b 4e 3d d9 80 5a 3d 57 e1 cf bc
       -0.04950376 0.050349806 0.053345535 -0.025376005
0002a0 a3 0e 3f be 04 66 b6 bb 3b 4c ef bd 5b ae 68 3c
       -0.18657927 -0.0055663604 -0.11684462 0.014201726
0002b0 62 2b e5 3c 3b 58 7d 3a 56 0f d2 3d 6a 6b 9e 3a
       0.027974788 0.00096643314 0.10256831 0.0012086455
0002c0 70 b7 72 3d 00 c5 1b be 56 a6 ec bd 9a 0f 76 3e
       0.05925697 -0.15211868 -0.115551636 0.24029389
0002d0 2c fc 94 3d cc 9a cb bd 33 93 d8 3d db e2 1f bd
       0.072746605 -0.099416345 0.10574951 -0.039034706
0002e0 2d c5 20 3e 67 99 ef bd 65 fb b2 bd 9b 6c 9b 3d
       0.15700217 -0.11699181 -0.08739356 0.07589074
0002f0 d7 89 6e 3d f0 a0 28 3e 7d 88 b7 3d 51 d6 40 bd
       0.058236923 0.16467643 0.0896158 -0.047079388
000300 b7 32 42 bc ac 36 1a 3e d8 a0 85 3c 38 bb 88 bd
       -0.011852912 0.15059918 0.016312048 -0.06676334
000310 ac e0 83 bd 49 6c 6a 3d f9 a2 0d 3e 32 02 c6 bd
       -0.06439337 0.057232175 0.138317 -0.096683875
000320 28 ec 1d 3e 5d 20 3e 3e ad f4 16 be 1f c2 14 3e
       0.15422118 0.18567033 -0.14741774 0.14527176
000330 c7 05 c7 bc 1f 2d 6e be ae 68 e1 bd f0 13 a2 3c
       -0.024294747 -0.232594 -0.11006294 0.019784898
000340 23 11 04 be df d8 fd 3d 6b 8d 0a 3d 47 dd d1 bb
       -0.12897162 0.123948805 0.033826273 -0.006404552
000350 48 11 2a be 28 4e 97 3d d5 84 45 bd 1d 33 ff bc
       -0.16608155 0.07387954 -0.04822238 -0.031152302
000360 85 81 d6 bc 9d 9c fe 3d 11 34 88 bc b3 c6 c8 b9
       -0.026184807 0.12432215 -0.01662639 -0.00038295015
000370 3c 60 aa bc 8e 91 fb bd 2c b4 a6 3d b6 d3 22 be
       -0.020797841 -0.12283622 0.08139834 -0.15901074
000380 15 0d 57 bd 8e 69 fb 3d 9e 1e 33 3d ff b8 22 3c
       -0.05250271 0.12275992 0.04373037 0.009931802
000390 94 f0 bc bd 8d 5b f6 bd 50 a7 f7 bd 0c f4 d9 bb
       -0.09225574 -0.12029181 -0.12092459 -0.006651407
0003a0 0f 84 40 be 1c 7d 4d 3e 4c a8 93 bc 99 d8 27 be
       -0.18800376 0.20067257 -0.018024586 -0.16391219
0003b0 77 27 2d 3e cd a2 31 be 69 3c bd 3d fe 23 25 3e
       0.16909586 -0.1734726 0.09240038 0.16127011
0003c0 9d 3f a6 bd f8 17 b4 bd 7e e9 80 bd 01 72 6a bc
       -0.08117602 -0.08793634 -0.06294535 -0.014309407
0003d0 5a 86 0c bd 01 87 03 3d 81 2f 0a be b8 91 0d be
       -0.034307815 0.03211117 -0.13494684 -0.13825119
0003e0 ae 75 e6 bd e5 6d 09 3e bf 70 8d bd 7a fb 8b bd
       -0.11252914 0.13420828 -0.0690627 -0.06835075
0003f0 44 60 c5 3d f2 c0 8c bc 37 93 42 bd d9 70 1e 3d
       0.09637502 -0.017181847 -0.047503676 0.03868184

b_action_type f4 [4]
000000 5e 36 84 bc 4c a1 61 3c d0 e9 58 bc 3f b5 7f 3c
       -0.016139206 0.013771366 -0.013239339 0.015607177

W_play_habitat f4 [192, 4]
000000 8c b6 80 3d f6 97 8a be 4c f9 e2 bd d8 bb 9b 3b
       0.06284818 -0.27069062 -0.11082706 0.0047526173
000010 55 58 29 3c 60 e5 9f bd 8c c0 1b bc f0 f1 3a bb
       0.010336001 -0.07807422 -0.009506356 -0.0028525554
000020 77 52 54 3e 15 de 15 bd ef c3 82 3d d1 69 4a be
       0.20734583 -0.036588747 0.063850276 -0.19766928
000030 cb e1 07 3e a1 30 0f be 2e 1b 3a 3e a9 fd 21 3e
       0.13269727 -0.13983394 0.1817443 0.1581942
000040 f4 f5 f4 3c 8c f7 39 3b d4 72 5e bb 09 55 d2 3c
       0.029902436 0.002837631 -0.0033942955 0.025675314
000050 fe 41 6c bd 48 3d 05 3d 2b be 03 3d 5c 17 f5 39
       -0.057680123 0.032529145 0.03216378 0.00046747446
000060 d1 16 04 3d d6 b4 e8 3d 85 af 89 3e 69 0f 10 be
       0.032248322 0.11362617 0.26891723 -0.14068379
000070 1c c0 ab 3c 9c d5 6c 3d 24 cc fd 3c 0e e0 6b 3d
       0.020965628 0.0578209 0.03098113 0.057586722
000080 5f 03 25 be dc 46 00 be 29 6f 9c 3b 74 c9 4b bc
       -0.16114567 -0.1252703 0.0047739935 -0.012438167
000090 b2 3a 32 3e f1 6c 11 bd 33 75 7b 3c ca 9a c2 3d
       0.17405203 -0.035504285 0.015347767 0.0950218
0000a0 6b 08 09 be bd 5b ab 3d d4 c2 1a be eb b3 c9 bb
       -0.13382117 0.08367107 -0.15113384 -0.006155481
0000b0 ba 30 a6 3c 9c b7 e3 bd 44 bb 1d 3e 5d 3d 1e 3d
       0.020286907 -0.11119005 0.15403467 0.03863274
0000c0 87 b9 27 bd 01 26 75 3c 5f 82 e7 3d 26 39 50 be
       -0.040948417 0.014962674 0.11304163 -0.203343
0000d0 6f 13 ba 3d b6 ff 2a bc d8 11 46 3d f8 50 07 3d
       0.09085738 -0.010436943 0.04835686 0.033036202
0000e0 7f bf 51 be 85 e0 a8 3d da 03 e3 3c cf 6b 8b 3e
       -0.20483206 0.08245949 0.027711798 0.2723069
0000f0 3d e7 e9 3d a4 a0 63 3d a2 d6 28 3d a3 1a cb 3b
       0.11421058 0.05557312 0.041220315 0.0061982437
000100 40 19 24 3d 6a 85 8f 3d b4 ea 2a be e7 f3 0a be
       0.040063143 0.070078686 -0.16691095 -0.13569604
000110 cf a3 6e 3d 11 ee c0 bc 60 91 8f bd 84 b4 ae bd
       0.05826169 -0.023551019 -0.0701015 -0.085305244
000120 06 3a 20 3d 01 b2 15 be 06 4e 9b 3d c3 28 47 bd
       0.039117835 -0.14618684 0.07583241 -0.048622858
000130 4f c3 33 3d 42 e6 df 3c 13 f9 af 3d bc 6b 1e 3d
       0.043887433 0.027331475 0.08592429 0.038676962
000140 dd 4c 4d 3d 67 6e 38 3d 57 83 d3 bd 24 95 29 3a
       0.05012213 0.045027163 -0.103277855 0.0006469062
000150 f5 3e f8 3c 38 ea 19 3e 45 96 17 3d 97 2d 1f 3e
       0.030303458 0.15030754 0.037008543 0.15544735
000160 e5 71 06 3d 9c fa 0c bd f2 4f 96 3c 46 0d 24 be
       0.032823462 -0.034418687 0.018348668 -0.16020688
000170 30 af 0a be ae 1c c8 bc 8d 57 13 3e 41 bd d8 bd
       -0.13543391 -0.024427738 0.14388867 -0.10582972
000180 c7 ac 9c 3e ef 1f 17 bd ab 85 27 3e 4b 13 0c 3d
       0.3060057 -0.03689569 0.16359584 0.034198087
000190 7d 0f 23 3d a5 ae 81 bc 20 27 5d 3d 97 c3 93 3d
       0.039809693 -0.015830347 0.05399239 0.0721504
0001a0 52 9e 66 bc 92 ce 34 bd aa b6 e9 bc 9d 64 1d 3d
       -0.014075832 -0.044142313 -0.028529484 0.03842603
0001b0 4f aa ab 3d f5 4b 23 be 8a 4b 6b 3e 2e 8f 09 be
       0.08382093 -0.15946944 0.22978035 -0.13433525
0001c0 09 67 92 bd c6 11 f6 bd 1b bf 66 bd c9 61 88 3e
       -0.07148559 -0.12015109 -0.056334596 0.26637104
0001d0 ef 36 74 be ae 9b 47 bd 12 cb 24 bd e4 e1 96 bd
       -0.2384908 -0.048732452 -0.040232725 -0.07367304
0001e0 c4 3b 2a 3e b6 99 71 3c 8b 84 d5 bc 70 e0 a1 bd
       0.16624361 0.01474612 -0.026064178 -0.07904136
0001f0 4e 51 c2 3d b1 d9 14 bd 84 cb 0b 3e 95 d2 8f bd
       0.09488164 -0.03634042 0.13651854 -0.07022587
000200 d2 7f 3a 3d 42 52 26 bc 50 05 bc 3d ed 20 4c bd
       0.045532055 -0.010151448 0.09180701 -0.049836088
000210 10 5d 7f 3e 61 25 17 3d 07 23 47 3c b1 a0 77 3d
       0.24937844 0.03690088 0.012154347 0.06045598
000220 e0 65 db 3d 14 bb 5b bc 3e 1b 9b bd 33 1a 52 3c
       0.107127905 -0.013411302 -0.075735554 0.012823629
000230 5a 7e 51 bd 68 7b d7 3c 75 57 4c 3d 57 b3 02 bd
       -0.05114589 0.026303962 0.049888093 -0.031909313
000240 55 a2 20 3b b3 a1 5f 3e 8e 50 0f 3e f1 03 b1 bd
       0.002451082 0.21839027 0.13995573 -0.0864333
000250 22 e4 aa 3d ec 73 85 3c a3 b7 24 3c 4a 92 e6 bd
       0.08344294 0.016290627 0.010053548 -0.11258371
000260 ae d7 c0 3c ef 6f 87 3c 7d 34 2f 3e 4a 56 f8 bd
       0.023540344 0.016532866 0.17109866 -0.12125833
000270 d5 75 32 3e 5e 14 52 be 03 0d 3a 3e 27 85 7a bd
       0.17427762 -0.20515582 0.18169026 -0.06116214
000280 2f ae 66 bc e4 21 79 be 83 f6 09 3e e4 f7 34 3d
       -0.014079615 -0.24329334 0.13472943 0.04418172
000290 ec 56 8c 3d 42 a8 8e 3d 46 c9 bc bd 09 95 ab bd
       0.068525165 0.069656864 -0.09218077 -0.083780356
0002a0 16 9b 32 be 8e d5 30 3b d3 a8 06 bd 8b 3c 32 bc
       -0.17441973 0.0026982757 -0.032875847 -0.010878692
0002b0 cc c1 ab bd c5 1b a5 bc ff 76 8e bd 7c 95 9d bc
       -0.08386573 -0.020154843 -0.069562905 -0.019236319
0002c0 67 ec 35 bc 0d c7 4d bc 8d a5 19 be 6a 50 47 ba
       -0.011103726 -0.012559664 -0.15004559 -0.000760323
0002d0 72 e4 93 3c a4 3b b4 3d 74 83 ae 3d 37 b2 ee 3c
       0.018053267 0.08800438 0.085211664 0.029137714
0002e0 55 a7 47 bd 1b fd bd 3d e2 50 3d 3c 65 92 82 be
       -0.048743565 0.09276792 0.0115549285 -0.25502315
0002f0 92 2e d5 bd 21 bd 6c bd db f6 64 3c 12 17 49 3d
       -0.10409273 -0.057797555 0.013974871 0.049094267
000300 86 13 d7 3d e7 58 9a 3d b2 3a 1c 3d 2d 16 9a bd
       0.10501771 0.07536488 0.038141914 -0.07523761
000310 57 67 02 3d 4d 0a b6 bc 01 db 1e be 3f 31 d0 3c
       0.031836834 -0.022221709 -0.15513231 0.025414107
000320 b4 35 af bd 1c 06 35 3e 3b ae f3 bd eb 8b 6b bc
       -0.08555165 0.17678112 -0.11898466 -0.014376621
000330 11 ec e2 3d 66 3f 82 3d b1 4d 07 3c 7c 0c cc bd
       0.11080182 0.063597485 0.008258269 -0.09963319
000340 55 46 34 bb 45 69 0a be 92 6f c3 bc 95 ab 04 bd
       -0.0027507741 -0.1351672 -0.023856912 -0.032390196
000350 c5 ec 86 bd ce fc 83 3c 84 04 8a bd b9 d0 32 be
       -0.06588129 0.016111758 -0.067391425 -0.17462434
000360 cb f0 f4 bd c8 56 e7 3d c8 5e 45 3d da 1a f3 3d
       -0.1195999 0.11295849 0.048186094 0.11870356
000370 68 b1 b3 3d 95 21 34 be 18 67 0d 3e 59 97 20 3d
       0.08774072 -0.17590936 0.13808858 0.039206836
000380 f5 74 08 be 06 e0 c6 3c 62 3e 27 be 72 bc bd 3d
       -0.13325866 0.024276745 -0.16332391 0.09264459
000390 38 ad de 3d 71 47 4f bd ac f1 46 bd 16 59 88 3d
       0.108728826 -0.05060524 -0.04857032 0.06657617
0003a0 62 57 0e 3c 5c ea 51 bc 7b 83 42 3d dd 5c 17 3d
       0.008687826 -0.012812223 0.04748867 0.036953796
0003b0 12 7a 0c be 51 c6 47 3d b8 fc 0b be 93 1b 7a be
       -0.13718441 0.048773114 -0.13670623 -0.24424581
0003c0 80 44 71 bd 58 64 31 3d 9b 39 df 3c c8 72 a7 bd
       -0.058903217 0.043308586 0.027249148 -0.0817619
0003d0 a4 25 29 3c 57 5e 0f be 2a 97 12 be 5c 60 58 3d
       0.010323916 -0.14000832 -0.14315477 0.05282627
0003e0 c9 db 65 3e 70 08 95 3d f6 62 ae 3d 13 96 2a 3d
       0.22447123 0.07277 0.08514969 0.04164703
0003f0 4a 3f 80 3e 89 8d 05 be 61 82 66 3e 8c d0 d1 3d
       0.25048286 -0.13042273 0.22510673 0.10244855

b_play_habitat f4 [4]
000000 a8 a6 47 ba ab 45 dd 3b f0 e8 41 3c a9 08 92 bc
       -0.0007616081 0.00675269 0.011835322 -0.017826395

W_gain_food_primary f4 [192, 7]
000000 53 25 12 3e c7 cd 82 bc 24 b6 2f 3d 48 63 32 be
       0.1427205 -0.015967263 0.042898312 -0.17420685
000010 ae 91 b8 3d 2a ca 1e 3e 60 17 bd 3d 76 52 06 bd
       0.09012161 0.15506807 0.09232974 -0.032793485
000020 c4 ac f5 3c ff 8b d1 3c f2 4e 21 3c 45 c5 16 3e
       0.029989608 0.02557945 0.009845482 0.1472369
000030 8a 81 96 bc ac fd f9 bd 2d 3d 97 bd d1 6d e3 3d
       -0.018372316 -0.12206587 -0.07384715 0.1110493
000040 c1 f6 ff 3d 82 26 38 be 0f 71 2e bd 94 bb cb 3d
       0.124982364 -0.1798344 -0.04258829 0.09947887
000050 c3 46 d8 bc a2 79 7d 3e 14 0f 95 bd e0 3a 16 be
       -0.02640093 0.2475343 -0.072782665 -0.14670897
000060 4b 02 2f 3d 9f 60 23 bd 8c f8 08 3d a5 76 d4 bb
       0.042726796 -0.039887067 0.033440158 -0.00648387
000070 04 4b 60 3d 9e 7d ed bd 24 34 60 bd 9c ea 14 be
       0.05475904 -0.11596225 -0.054737225 -0.14542621
000080 69 de ff bc 80 15 ef bd 6a d4 b1 3d e4 2c 7e 3e
       -0.031233983 -0.11674023 0.08683093 0.24821812
000090 e8 c5 80 3c d4 fd a3 39 c0 41 81 bd b8 08 f9 3d
       0.015719369 0.000312789 -0.06311369 0.12159866
0000a0 53 ed db 3d e4 f6 03 3e 11 2c 87 3d 29 a1 46 bd
       0.107386254 0.1288715 0.06600202 -0.048493538
0000b0 56 7d f2 3d 2c 07 34 bd c9 81 47 bc 25 21 12 3e
       0.11840312 -0.043952152 -0.012176939 0.14270456
0000c0 10 f8 f0 3d 25 2d 0d 3e ed 1c 50 3d e7 d3 17 3c
       0.11766064 0.13786753 0.050808836 0.00926683
0000d0 3f b3 dd bb b3 df 34 bc f9 5c 4e 3c 0c 61 d0 3c
       -0.0067657526 -0.011039662 0.012595409 0.0254369
0000e0 82 5b a5 bd 09 8a 2b bd 22 d8 91 3d 9c 06 bd 3d
       -0.08074094 -0.041879687 0.07121302 0.09229776
0000f0 04 86 04 bd 03 60 1b bd 2a 17 45 3c a3 d3 00 bd
       -0.03235437 -0.03793336 0.0120294485 -0.031451833
000100 56 a9 95 3c 46 e3 10 be 47 0e 3a 3d 29 5a f0 bd
       0.018269222 -0.14149198 0.045423772 -0.11735947
000110 57 22 1f bc 0b c3 53 be f8 ba b4 bd ea 7e 9b 3d
       -0.009712777 -0.20679872 -0.08824724 0.07592566
000120 15 5d 08 bd 47 c4 14 3e 60 f8 f2 bc b0 6a 2b 3d
       -0.033291895 0.14527999 -0.02965945 0.041849792
000130 91 bc c7 3b 10 9a 99 bc 31 85 0a be 91 00 87 be
       0.006095477 -0.01875022 -0.13527371 -0.2636762
000140 87 7d ce 3d b2 57 3d be 39 a9 25 3d a6 91 0a 3d
       0.10082536 -0.18490484 0.040444586 0.033830307
000150 df 2a d4 3d 7f 22 ca 3c fe 26 74 3b 36 9a a1 bc
       0.103597395 0.024674652 0.0037254686 -0.019726854
000160 ae 13 95 bd 57 4c 29 3d 89 dc bb 3d 60 fe 85 3b
       -0.07279144 0.04133257 0.09172923 0.0040891618
000170 82 12 ac 3d 42 7e f5 bd 11 a2 a8 bc 9b 5f 34 bd
       0.084019676 -0.119869724 -0.020585092 -0.04403649
000180 25 3e 4e bd 17 6a da 3d 3c 76 ef 3c d5 26 06 3e
       -0.050352234 0.10664766 0.029231183 0.1310075
000190 15 0b 17 3d 27 fa 79 3c 30 d9 45 3d 66 95 06 be
       0.036875803 0.015257395 0.04830283 -0.13142928
0001a0 48 65 8b 3c 27 af d0 bc a9 8d b1 bd fa e7 6b 3c
       0.017016068 -0.025474144 -0.08669598 0.014398569
0001b0 d5 4c a8 bd 21 0f d6 3d ce 16 03 be 25 ec 4b 3e
       -0.082177795 0.10452104 -0.12801668 0.199143
0001c0 e4 39 30 bd ff 6c 14 3e c7 4c e2 3d 96 2c 22 3e
       -0.04302396 0.14494704 0.110498 0.1583732
0001d0 bf 3a 9d bb fe 9d 99 3c eb 2f 05 3e 8b 04 b8 3d
       -0.004798263 0.018752094 0.1300656 0.089852415
0001e0 21 20 ec 3c af d0 64 3d 71 69 d0 3d b6 2b d6 3d
       0.028823914 0.05586308 0.10176361 0.10457556
0001f0 e1 44 8e 3d cd 9d 10 bd 7a cb 74 bd be c4 31 be
       0.06946731 -0.03530674 -0.059764363 -0.17360207
000200 ba e0 15 3e 4e 6e 24 3d 55 a6 b5 bd d4 91 74 bd
       0.14636508 0.040144257 -0.08869616 -0.059709385
000210 fe c5 dc bd 62 0d ae 3d 49 7f 5e 3d f7 d9 04 bd
       -0.107799515 0.08498646 0.054320607 -0.03243443
000220 ab 5b cc 3d b9 fe 77 3d 48 4e 7c bc f7 cc 2f 39
       0.09978422 0.060545657 -0.015399523 0.00016765656
000230 13 6e 05 3c 79 aa d0 3b d8 76 3f 3d 18 3e 24 bd
       0.0081439195 0.006367978 0.046744198 -0.04009828
000240 c5 85 0b 3e 48 a8 08 3d de 29 42 3e 12 75 a3 3c
       0.13625248 0.03336361 0.18961284 0.019953284
000250 d6 c2 89 bc f1 3f 3f bd 02 e0 6a be 28 03 b1 3c
       -0.016816538 -0.04669184 -0.22937015 0.02160795
000260 fd b1 7c 3e 7f cd 11 bd fd 0e 9a bd 5a ae d8 3c
       0.24677272 -0.035596367 -0.0752239 0.026450325
000270 4c 1a ed 3d 58 e5 8c 3d 26 67 00 be 15 ea 8e bd
       0.11577281 0.06879681 -0.12539348 -0.06978241
000280 7b bc f7 bd 43 f2 02 3e c5 e7 a6 3d 59 2b 84 3d
       -0.12096497 0.12787728 0.08149675 0.064535804
000290 ab 1f c7 bc 1e d3 44 be 08 3c 18 3e 8a d1 89 3d
       -0.024307093 -0.1922116 0.1486665 0.067294195
0002a0 46 de d1 3d 87 c0 af bd f0 37 fe bc dd 1c 0a 3e
       0.102474734 -0.085816436 -0.031032532 0.13487573
0002b0 cb 51 21 bd 57 4a 04 3e f9 16 84 bd 3f b6 f8 3a
       -0.039384644 0.12918983 -0.06449694 0.0018975212
0002c0 a4 70 ba 3d b9 6c 9f 3c dd 78 dc bb 08 89 a5 bd
       0.09103516 0.019461023 -0.006728275 -0.08082777
0002d0 6c 14 95 3d 6b 68 e4 3c fb f0 f3 3c fc 2c 92 3d
       0.07279286 0.027881822 0.029777994 0.07137486
0002e0 5a 11 62 3c 17 dd 9f be 24 03 76 be 9f 63 43 3d
       0.013798082 -0.31223366 -0.24024636 0.047702428
0002f0 ff 51 29 3d ad ec ce bc 12 07 88 bc 15 ab aa 3c
       0.041337963 -0.02525934 -0.016604934 0.020833531
000300 5c 6e 25 3e 17 7c 53 be df 12 14 3c ec 9f 4e bd
       0.1615538 -0.20652805 0.009037702 -0.050445482
000310 37 67 11 be b7 b0 c4 bd 9a 7f f6 bc f6 00 01 3e
       -0.1419953 -0.09604018 -0.030090142 0.12598023
000320 0b 78 ec 3d 68 81 6c 3e f6 59 3c 3e 60 a7 8c bc
       0.11546334 0.2309624 0.18393692 -0.017169654
000330 a1 30 d1 3d 80 72 98 3c 7b 05 7f bd f1 63 08 bd
       0.10214353 0.018609285 -0.062261086 -0.033298437
000340 4e e3 32 3e 33 49 75 bd ba cb 49 3e 0e a6 85 3c
       0.17469522 -0.05988426 0.19706622 0.016314533
000350 52 e2 4a 3c c7 8f e9 bc 24 a7 6e be 83 fa 08 bd
       0.0123830605 -0.028510941 -0.23305947 -0.03344203
000360 a1 b2 3c bb 7f 22 fe bd 38 19 f2 3d 48 62 06 3d
       -0.0028792995 -0.12408923 0.11821216 0.032808572
000370 af 35 40 bd 5b 06 a4 3c ad 52 49 bd 6d b3 0e be
       -0.046926197 0.020022562 -0.04915111 -0.13935633
000380 3a c6 9c 3b c9 29 04 bd e5 c9 a2 bd 0a 42 51 be
       0.0047843726 -0.032266412 -0.079486646 -0.20435348
000390 68 e6 6b 3e de 38 63 bd de 68 9f bd 49 1b f4 3d
       0.23037112 -0.055474155 -0.07783674 0.11919267
0003a0 b7 5d e3 bd 7a 12 8b bd 3b 19 54 3d f3 10 03 bd
       -0.11101859 -0.067906335 0.051781874 -0.031998586
0003b0 af e0 11 be 5f d8 06 3e 9b 3e 05 bd ba 38 d0 3d
       -0.14245866 0.13168477 -0.03253041 0.1016707
0003c0 42 b4 f3 3d 7e 10 ec 3c 30 6c 48 bd 30 a0 9d bd
       0.11899616 0.028816458 -0.0489313 -0.07696569
0003d0 59 03 ce bd be ea e1 3d 42 f7 9c 3d 30 e6 56 3e
       -0.10059232 0.11031102 0.07664348 0.20986247
0003e0 99 56 4a 3d 2e 83 f7 3d 1c 33 58 bd c2 0e 28 3e
       0.049398992 0.120855674 -0.052783117 0.1641188
0003f0 15 e4 3f 3d c9 ae 0a bd 68 06 b0 3d ed ff 42 bc
       0.046848375 -0.033858094 0.08594972 -0.011901838

b_gain_food_primary f4 [7]
000000 83 60 03 3c 6e 09 82 3b f9 aa 2a 3c f2 77 87 3a
       0.008018616 0.0039684093 0.01041674 0.0010335429
000010 bc 30 fa bb 97 e7 b5 3b 4f ed ae bc
       -0.007635204 0.0055512893 -0.021353392

W_draw_mode f4 [192, 4]
000000 c5 9d 0b be 5b 34 43 3e 4b a9 96 bd 39 c0 6e bd
       -0.13634403 0.19062941 -0.07356509 -0.058288787
000010 40 86 27 3e 04 75 7e bd 1f b7 a4 bd 7b 16 12 3e
       0.16359806 -0.062123314 -0.0804274 0.14266388
000020 22 2f cb bd 64 51 87 bc b5 ca 43 bc 23 9f 08 be
       -0.09921099 -0.016518302 -0.011950185 -0.13341956
000030 9f ee 05 be 6a f6 4c bd 2c 11 a7 bb 7d 46 25 3c
       -0.13079308 -0.050039686 -0.0050984826 0.0100876065
000040 aa 57 43 3d b9 00 ad 3d 4f a6 ce 3c 43 d9 ea 3d
       0.047691025 0.084474035 0.025225786 0.11467221
000050 0e 0c 0c 3d 56 28 b8 bd 00 10 a4 bc 24 93 d3 bd
       0.034191184 -0.089920685 -0.02002716 -0.10330799
000060 47 60 2b bd 8c 79 2f 3e fb bb 01 3e 4b f6 ea 3c
       -0.041839864 0.1713621 0.12669365 0.028681895
000070 8c a7 03 be 56 d6 0b 3e 80 c9 af bd 2c 20 78 3d
       -0.12856883 0.13655981 -0.08583355 0.060577556
000080 46 97 da 3d 09 7b ce 3d 6c cd 09 be 43 4b 43 bc
       0.10673384 0.10082061 -0.13457268 -0.011919799
000090 f1 36 5a be 77 03 c7 3d 94 b8 d9 bd 6c 53 e1 bd
       -0.21310021 0.09717458 -0.106309086 -0.110022396
0000a0 52 04 c5 bd 0f d6 65 3d 7e fc 64 3d 34 08 14 bd
       -0.09619965 0.056112345 0.055904858 -0.036140636
0000b0 2b 79 ca bd 2e ed f4 3c 0e 6d b3 3d bd 5a 18 3d
       -0.09886392 0.029898252 0.08761035 0.03719591
0000c0 1d 14 8a 3e d4 fa fe 3c f3 71 96 bc b5 37 82 3d
       0.2696847 0.031125464 -0.018364882 0.063582815
0000d0 97 bb 7f bc f6 c3 27 bc fb ff 8e 3d e4 8e ae bd
       -0.01560869 -0.010239592 0.06982418 -0.08523348
0000e0 cf eb b2 3d a9 3f cc bd db f3 79 3d 42 b2 7f 3d
       0.08736383 -0.0997308 0.061023574 0.06242586
0000f0 47 44 0e bd a5 d5 85 3d e6 a0 d9 3c 61 1a 69 be
       -0.034733083 0.0653489 0.02656598 -0.22763969
000100 c2 b2 36 be 03 af 90 bd d4 b8 2d 3e e2 d5 57 3e
       -0.17841628 -0.07064631 0.16965038 0.21077684
000110 66 d0 ab 3d 72 c2 24 3b 92 a6 35 be d8 87 88 bd
       0.08389358 0.0025140313 -0.17739323 -0.06666535
000120 7b 36 27 bd 96 73 b1 3d 28 58 53 bd e0 28 85 3d
       -0.04082344 0.086646244 -0.051597744 0.06501937
000130 d9 04 ab bd 0e ee c8 3c 35 dc 58 bd 08 31 da 3d
       -0.08350534 0.024527576 -0.05294438 0.10653883
000140 82 e6 9a 3d aa 3d 41 bd f0 7f 06 3d 52 5e 8a bd
       0.07563497 -0.047177948 0.032836854 -0.067562714
000150 10 35 e6 bd e2 38 2c 3e 38 34 64 bd 9d 32 13 3e
       -0.112405896 0.16818574 -0.055713862 0.14374776
000160 0c 1f ef bd 1f fc c7 3d 0f 5c 20 bd 8d 77 27 3d
       -0.116758436 0.09764885 -0.039150294 0.040885497
000170 13 f5 62 bd 07 6e 2d 3e ca f7 76 bd b5 98 c4 bb
       -0.055409502 0.16936503 -0.060294904 -0.0059996494
000180 30 bf 61 bc 20 ad 3b 3d 5d ec 7f bd 31 36 66 3c
       -0.013778493 0.0458194 -0.062481273 0.014051006
000190 f5 60 25 3d 28 b7 05 be e4 2f 52 be 8b ab f1 bd
       0.04037567 -0.1305815 -0.20526081 -0.11800297
0001a0 40 54 d1 3c c7 ee 18 bd 30 f1 ec bd 7f 6f 4c bb
       0.025552869 -0.03733709 -0.1156944 -0.0031194387
0001b0 7d ec cc bc b7 ed d7 3b a5 de e6 bd 21 f9 e5 bd
       -0.02501511 0.006589617 -0.11272935 -0.11229158
0001c0 8b cc 4a 3b 0e d7 62 3e 15 8e 1c 3e 4a 48 3e bd
       0.003094467 0.2215235 0.15288575 -0.04645566
0001d0 d1 c2 83 3d ad a9 48 3d 93 4d 1d 3d b5 cc 89 3d
       0.06433643 0.04898994 0.03840406 0.06728498
0001e0 9b 72 86 3d 77 15 ec bd d7 b5 43 3d 73 0a 65 3d
       0.06564828 -0.115275316 0.047780838 0.05591817
0001f0 1a df f7 bd 93 7a e5 bd 09 63 bf 3d 55 32 0c bd
       -0.121031 -0.1120502 0.09345061 -0.034227688
000200 4b 86 43 be c4 ad 50 3e 2b 04 c1 bc 80 86 7d 3d
       -0.19094197 0.20378786 -0.023561558 0.061895847
000210 bf 68 22 be 62 6e 83 bd ec 8e 19 3c d9 d6 22 3c
       -0.1586027 -0.06417538 0.009372454 0.009938919
000220 54 f3 19 3c de 47 0b bd ba 1a e2 3d 8f 54 ac 3d
       0.009396393 -0.034004085 0.11040254 0.08414566
000230 79 76 3b be 40 b2 1c 3e fb b3 20 be 03 d4 47 bd
       -0.18306912 0.15302372 -0.15693657 -0.048786175
000240 2e 77 41 3d 49 1b 11 3c 59 56 94 3b 37 81 3b 3c
       0.0472328 0.008856603 0.004526895 0.011444381
000250 e6 db 76 3e fc a5 1e be 94 bb 83 3d 18 0a 5e bb
       0.24107322 -0.15493006 0.06432262 -0.0033880528
000260 7e 5f de bd 80 69 f1 3d 48 9b e6 3d d1 cc 00 3e
       -0.108580574 0.11787701 0.11260086 0.12578131
000270 31 a6 1c 3e cd fc 2f 3e 6a d0 8c bd 34 66 68 3c
       0.15297772 0.1718628 -0.06875689 0.014184523
000280 a9 14 1d 3d 75 5b 90 3d 1d 44 23 bc f6 e0 a8 bc
       0.03834978 0.07048694 -0.00996497 -0.020615082
000290 e7 34 10 be b8 f0 1a 3d fc d3 64 3e b7 8d 86 bd
       -0.1408268 0.037827224 0.2234649 -0.06569999
0002a0 89 fe 3c 3e 06 a0 70 bd ff 24 39 bd d5 11 b0 bd
       0.18456472 -0.05874636 -0.045201298 -0.08597151
0002b0 73 18 d7 bc 95 99 46 bd 3b 28 de 3e 8d d0 f6 3d
       -0.026256775 -0.04848631 0.43390068 0.12051497
0002c0 63 2f ee bd 81 03 15 3e eb 68 2f bc 06 86 88 3d
       -0.11630132 0.14552118 -0.010706167 0.06666188
0002d0 dc d7 9c bc 5a 9b 91 bd 37 ab 44 3d c0 75 e3 3d
       -0.019145899 -0.07109709 0.048014846 0.111064434
0002e0 1a 21 d7 3d 97 b5 5c 3d c8 e0 d3 bd 70 8a a0 bd
       0.105043605 0.053884115 -0.10345608 -0.07838905
0002f0 d5 8f d7 3c cc 22 42 3c 09 b1 da 3d cb 4d 11 3e
       0.026313702 0.0118491165 0.10678298 0.14189832
000300 33 89 17 be 80 f9 23 3d bd b8 24 be 18 fd 47 3d
       -0.14798431 0.040032864 -0.16086097 0.048825353
000310 5b 76 a6 bc db c2 77 3c b3 a0 03 be 83 9e 8e 3c
       -0.020320108 0.015122141 -0.1285427 0.017409569
000320 58 4f 02 bc 18 61 99 bd f4 83 28 bd a5 75 47 3c
       -0.007953487 -0.07489222 -0.041141465 0.012174045
000330 41 36 2d bb 33 c9 c1 bd a0 8a 3a 3e f4 46 8a bb
       -0.0026430043 -0.09462204 0.18216944 -0.004219884
000340 79 db 38 3d b3 ab 38 bd 94 8a 3b 3e 8f 4d 4e 3c
       0.04513118 -0.04508562 0.18314582 0.012591734
000350 77 9d 18 be fb f1 3b 3b 1f 0f 4e 3d e6 83 66 bd
       -0.14903818 0.0028678167 0.05030739 -0.056278132
000360 af 0c c8 bd f1 cf 6a 3e c3 06 f3 3d 15 29 0e be
       -0.09768044 0.22930886 0.11866524 -0.13882859
000370 7b a1 22 3d 69 00 0c bd 76 b6 11 3d ac 0e c5 3c
       0.03970478 -0.03418008 0.0355744 0.024054848
000380 a9 52 f9 bd 48 e3 d8 3c b8 81 e5 bd 2e 5a af 3d
       -0.12173969 0.026475564 -0.112063825 0.08562122
000390 4c fe e9 3d a6 6c 92 3e 6e 8e 67 3c ba e5 a0 ba
       0.114254564 0.28598517 0.014133079 -0.0012275495
0003a0 21 6a 8f 3d 50 4c 7d bd 80 82 64 3c 10 97 15 3d
       0.07002664 -0.061840355 0.013947129 0.036521018
0003b0 a4 0d bb bc 0d 1a 16 be 62 9f e0 bd b9 cf 49 3d
       -0.022833653 -0.14658375 -0.109679 0.049270365
0003c0 f9 e9 af bc 3e c9 05 3e 72 05 54 3c da 73 b2 3d
       -0.021473872 0.13065049 0.012940751 0.08713503
0003d0 f4 94 bd bc 51 5e a5 bb 66 d0 7d 3d 10 d3 1a be
       -0.023142315 -0.005046644 0.061966322 -0.15119576
0003e0 ce 5d 2d 3d ae 30 35 3d 3c 44 68 bd 36 21 d1 3d
       0.042325787 0.044235878 -0.0567057 0.102114126
0003f0 0e c9 68 bc 59 78 c1 bc 29 a9 3b 3e 14 df 5f be
       -0.014208091 -0.023616957 0.18326248 -0.21862441

b_draw_mode f4 [4]
000000 07 76 d2 bb 17 3a 8a 3c 40 7d ff bb 28 ea 2d bb
       -0.0064227614 0.016873403 -0.0077969134 -0.0026537273

W_lay_eggs_bin f4 [192, 11]
000000 ab 69 f2 3d 17 0e 0b 3e 2c de 0c 3e f2 21 a4 3d
       0.11836561 0.13579594 0.13756627 0.08014287
000010 46 bc f4 bc 47 59 ac bd 3c 86 df bd 62 2e 68 3d
       -0.029874932 -0.08415466 -0.10914275 0.05668486
000020 32 dc 73 3c a8 68 0d 3d c9 59 62 3d 74 0c 73 3d
       0.014884042 0.034523636 0.055261407 0.059338048
000030 fa 5c 86 bd 8d 23 73 3e 41 43 88 3d 6e 5d 73 bd
       -0.065607026 0.2374403 0.06653453 -0.059415273
000040 4f c3 c2 3d fa 59 cb 3d bb 72 02 bd ce 40 f4 bd
       0.095099084 0.09929271 -0.031847697 -0.11926423
000050 bd 62 f0 3d 15 b5 08 be ee 2d 81 3d 43 a5 b5 bd
       0.11737583 -0.13350327 0.063075885 -0.08869412
000060 2d 91 27 3e 27 3b 23 be 68 88 34 3e 8b d3 a0 bd
       0.16363974 -0.15940534 0.1763016 -0.078528486
000070 c8 40 5f bc 56 86 08 3e b4 c3 79 be ef 39 09 3c
       -0.013626285 0.13332495 -0.24391061 0.008375629
000080 8c 48 42 bd aa 8e 1d 3e d7 49 37 3d f8 b3 df 3c
       -0.047432467 0.15386453 0.044748154 0.027307495
000090 b1 fe c3 3c ff 29 b9 3d 10 66 91 3d e9 25 f2 bd
       0.023925157 0.09041213 0.07099545 -0.11823637
0000a0 3f 8f 2d be ba 7d 17 bd c1 0e 93 be 98 b5 a5 3d
       -0.16949175 -0.036985137 -0.28722194 0.08091277
0000b0 43 54 76 3d a3 f0 40 bd 93 c9 4e bd dd 81 9b bb
       0.060138952 -0.04710449 -0.050485205 -0.0047457055
0000c0 54 6d 12 3d c3 2f 28 3e ed 4d b3 bd 27 7b 8c bc
       0.035748795 0.1642447 -0.087550975 -0.017148567
0000d0 83 ca 1b 3e 26 f3 1f bd a0 0f 19 3d 7e 34 94 3c
       0.15213971 -0.039050244 0.037368417 0.018091436
0000e0 02 6c 0e be 5c ff 32 bd 03 56 22 bc 47 25 2c bd
       -0.13908389 -0.04370056 -0.009908202 -0.042027738
0000f0 4f 9c 07 bd 76 4a d1 3c a9 13 80 3d 1e 4a 92 bd
       -0.033108052 0.025548201 0.0625375 -0.07143043
000100 85 c7 01 be 35 7a 5b bd 2a af 46 3d 4a 17 c7 3c
       -0.12673767 -0.053583343 0.048506893 0.024303097
000110 bd 0a 92 bd 32 8b 75 3d 3c b7 a3 bc 4c 52 5f 3c
       -0.071309544 0.0599472 -0.019984834 0.013630461
000120 08 6c d7 bd e1 00 9a bd de 2b 98 3d 15 e8 2c bd
       -0.10518652 -0.07519699 0.07430242 -0.04221352
000130 17 33 38 3d 6b 00 8e bd 2d 6c 96 bd fa f4 b3 bc
       0.044970598 -0.069336735 -0.07344852 -0.0219674
000140 24 b2 82 bd e6 d4 d5 bb 66 0a 14 bc 93 12 77 bd
       -0.06381634 -0.0065256236 -0.009035682 -0.060320448
000150 8f 50 82 bc 5e ba d1 bd 02 b2 65 3d fe 6c 5d be
       -0.015907554 -0.10240625 0.056077965 -0.21623608
000160 e8 ee 21 3e 92 d5 fe 3d 56 70 18 3e d1 76 38 3c
       0.15813792 0.12443079 0.14886603 0.011258797
000170 8d a2 7a 3c 18 3c ac bc b9 e1 33 be 34 79 98 3d
       0.015297544 -0.021024749 -0.17566575 0.07444993
000180 7b d4 2c be 91 04 52 be 32 7b 66 3d bb c3 9a bc
       -0.1687793 -0.20509554 0.056269832 -0.01889216
000190 d5 2b 4e bd 40 4c 56 3e 28 8a 04 be cb df 92 3d
       -0.05033477 0.20927525 -0.12943327 0.07171591
0001a0 8a 78 b2 3c 8f b7 e0 bc 3a bb 98 3c 1e c5 6e bd
       0.021785993 -0.027431278 0.018643964 -0.058293454
0001b0 8e 61 f3 3d 1c af 4a be 73 a6 23 bc f9 1c 9f 3d
       0.118838415 -0.19793361 -0.009988415 0.07769198
0001c0 ce 80 84 3d 47 88 07 3e 14 9b 86 3c 98 db 58 3d
       0.0646988 0.1323558 0.016431369 0.052943796
0001d0 63 62 ab bc f0 5f 8e bd a8 59 97 3d 1f e0 1e be
       -0.020920938 -0.069518924 0.073901474 -0.15515183
0001e0 75 2d c4 3d a7 1f 1b be 89 39 e7 bc e5 51 e0 bb
       0.09578983 -0.15148793 -0.028225677 -0.0068457
0001f0 5b 14 59 bd d2 3c 04 bd 25 55 56 b9 e7 bc 21 3e
       -0.052997928 -0.032284565 -0.00020440349 0.15794717
000200 db f1 fb 3d 98 90 b6 3d 55 8c 34 bc b2 70 c0 3d
       0.1230199 0.08914298 -0.011019786 0.09396495
000210 4c cf 54 3e f0 a3 40 3d d5 24 55 bc 86 70 d1 3d
       0.20782202 0.047031343 -0.01300927 0.1022654
000220 8b 90 b3 bd ab 5c ac 3d 48 fb 2b 3e b1 13 8f 3d
       -0.08767804 0.084161125 0.16795075 0.06986178
000230 f1 b9 9b bd be e8 24 be b6 ec 0e bd de 98 ce 3d
       -0.07603825 -0.16104409 -0.034893714 0.10087751
000240 d9 5d a1 3d e2 f1 0a bd cf ed a4 bc 15 ff 8b bc
       0.07879228 -0.033922084 -0.020132927 -0.017089406
000250 db 15 0f bc c9 06 6e be ea b8 15 3e da 6b 9b bd
       -0.008733238 -0.23244776 0.1462132 -0.075889304
000260 9c a0 54 bb 9e 52 e2 3b 38 95 1e 3c 03 17 56 bd
       -0.0032444363 0.0069068214 0.009679131 -0.05226804
000270 76 08 fd bd bb 8a 49 3c ed be 91 3d 5b 32 89 3c
       -0.123551294 0.012301142 0.07116494 0.016747644
000280 7c e1 69 bc 35 b7 e7 3d 62 9a a0 bd 6d 57 3a 3d
       -0.014274951 0.11314241 -0.07841946 0.045493532
000290 ab 6e 4e 3d 6d 27 c3 bb 0c 4b df 3d fb 62 8a bc
       0.05039851 -0.0059556277 0.10902986 -0.0168929
0002a0 15 4c 3d 3c 87 a7 57 be 86 44 97 3c dd 2c 8c 3d
       0.011553784 -0.2106 0.018465292 0.068444945
0002b0 58 a8 76 3d bb 91 87 3d 78 22 ee bd a1 34 59 3d
       0.06021914 0.06619593 -0.11627668 0.053028706
0002c0 b4 50 28 be 9e 54 8b 3c 66 64 bb 3d c0 e3 b4 bc
       -0.16437036 0.017008122 0.09150009 -0.022081256
0002d0 84 7c 89 3d 59 1e 5b 3d 03 76 cb 3d fb b7 50 bd
       0.067132026 0.05349574 0.09934618 -0.050956707
0002e0 b8 2d 31 3e 2f 93 e5 bd 37 c2 77 3d b7 31 a4 bd
       0.17302597 -0.11209714 0.060487952 -0.08017295
0002f0 19 80 3a be 13 a4 37 3e 8a 4a 71 bd 86 80 18 bd
       -0.18212928 0.17933683 -0.058908977 -0.037231945
000300 bc 31 c1 bd fd b7 20 3c f9 e6 15 be f4 3a e3 bd
       -0.09433314 0.009809491 -0.1463889 -0.11095229
000310 3b ff f5 bd e8 7b 0b bd 02 f5 24 be a4 ef 6a 3d
       -0.12011572 -0.034053713 -0.16109088 0.057357445
000320 fb 68 e0 bc 3d ad 6f bc 4b 54 df bc fd f2 a0 bd
       -0.027393809 -0.014628706 -0.027261874 -0.07858846
000330 a2 a1 45 bd cd d8 06 3c 2b bd 4e 3c 28 55 c4 3d
       -0.04824985 0.0082304 0.012618343 0.09586555
000340 ce ac fb 3c 37 73 c4 3c 4f 9d 73 3d e6 d7 ba bd
       0.030722048 0.02398072 0.059476193 -0.091232106
000350 9c d5 f0 3d cd 5b bb bd 9e 17 8b 3d 93 d5 f7 3c
       0.11759493 -0.09148369 0.06791614 0.030253207
000360 41 7c 7a 3d 74 21 42 3c 46 05 34 bc 7e 45 85 bc
       0.061153654 0.011848796 -0.010987585 -0.016268488
000370 96 79 2c 3e 65 05 65 3d 20 a0 10 bd db 9e 93 3d
       0.16843256 0.055913348 -0.035308957 0.07208034
000380 3a e3 31 3c b1 ee a8 bd 3c fb a5 3d f7 cc 09 3e
       0.010857398 -0.08248652 0.0810456 0.13457094
000390 6b 7c 23 3d ba 3f 3d 3e 1a 93 54 be 6b fd e0 3c
       0.039913576 0.18481341 -0.2075924 0.02746459
0003a0 54 0a e1 3c 12 48 41 be 60 be cd bd 11 dd 2f bd
       0.027470745 -0.18875149 -0.10046077 -0.042935435
0003b0 fd cf d1 bd 07 cb 75 3c 7a 2f c9 bd 99 92 53 bd
       -0.10244749 0.015002019 -0.098235086 -0.05165348
0003c0 a3 e9 28 3e e2 65 07 be 58 52 50 bc b7 d2 23 3c
       0.16495375 -0.13222459 -0.012714945 0.009998969
0003d0 12 a2 b4 bb 3b 7f fe 3d 79 cc d9 3d 23 88 4b bd
       -0.0055124843 0.12426611 0.10634703 -0.049690377
0003e0 a2 dc dc 3d 1b 71 d0 bd c7 53 c5 3c 3a 0c 85 bd
       0.1078427 -0.10177823 0.0240878 -0.06496473
0003f0 a6 6e 31 3e 1d a6 bc 3d 89 3a 68 bc fa d2 c9 bd
       0.17327365 0.09211371 -0.014174112 -0.09854694

b_lay_eggs_bin f4 [11]
000000 d1 78 68 bb fa 42 05 3b 4b 98 f9 3c fa bb 10 3a
       -0.0035472403 0.002033411 0.030468127 0.0005521175
000010 2f 0d 93 ba 0f 9d 5b bb a1 07 11 bb 78 d7 5c bb
       -0.0011219139 -0.0033510362 -0.0022129791 -0.0033697765
000020 97 3f 85 bb 9c 81 3d bc 09 33 7a bb
       -0.0040664184 -0.011566546 -0.0038177392
