reports/ml/auto_improve_factorized_stageB_ramp/iter_001/factorized_model.npz (npz, 94214 bytes, 17 tensors)

W1 f4 [48, 256]
00000000: e05d 8fbe ed6c 123e 5384 84be cda2 34be
00000010: f6b6 58bc 5218 d43e 346d 403e 09dc 983d
00000020: a675 613d 9913 adbd 3c44 723e 58a5 083d
00000030: bf02 923e 567d ce3e 18df c23e 8b80 11be
00000040: a293 e23d 1334 3fbe 5dc1 063c 4240 46be
00000050: 40b8 383f 97d9 e43c 3f48 513e 0975 e53d
00000060: b1b1 39be 7489 ef3d 6228 593d cd8a 96bd
00000070: cb26 7a3c 8791 a2bc e09f 133e ff03 95be
00000080: 325d 933e d141 f43e f72c 4fbd 855a 0bbe
00000090: 55ae d7be 7735 403b 527f 883e 294e 83be
000000a0: 45d8 bbbe ecbe 67be 2c92 1cbe fc37 e13d
000000b0: 469b a13e 70d9 243e 34fa 6e3d db76 a7bb
000000c0: b101 1e3e 384c 433d d01c f7bd ab9b 4e3e
000000d0: 41d9 08bd 8f08 0b3e fdf4 9ebe 9aef 053e
000000e0: 2687 723e 5401 573e 7206 973d 17a0 1abe
000000f0: a8eb 81bc 9c5b 9b3e 1a48 873e b4a8 d3bb
00000100: 02f9 02be 4465 503e f10f 6e3d ca57 563e
00000110: d19f 95be eeb7 b5bd 15d6 ba3d 6591 57be
00000120: 0b1e 5c3b 20d6 193e ee4b 343d fc88 5bbc
00000130: 14f5 963e f051 bbbc b97a 08bd c57c 943e
00000140: 4ca4 14bf 3a52 ebbd ae14 f93d cb01 99bc
00000150: 695e 0c3e 0ccf 63be cddd 85bd 8108 933e
00000160: bf14 8c3e be98 af3d af76 9cbe 9aed a8bc
00000170: bd68 c43e 90fb a4bd e37f 433d 30fa 8fbe
00000180: b690 b7bd 9553 89be afee f03d aa6b 833b
00000190: 58ef 2a3e f200 e0be 467d 3a3d 30ef 98bd
000001a0: f3e7 8d3e 9be9 c0bd 1f79 963d 93c9 b43c
000001b0: 16ad df3e a76a 3f3e 11d5 883c 16e4 853b
000001c0: ab6d 073f f733 96bd 0d9f d0be 9387 b93d
000001d0: 0667 5c3d dfe2 aabe 7e7d 9e3e bb3b f5bd
000001e0: 2747 d53e f309 5e3e e79c 96be ce0a 4e3e
000001f0: 8683 c83d 9628 cbbe 7c00 1b3c afdc af3d
00000200: aa90 a63e 8b15 e33e 3989 99be ec5a 97bd
00000210: 821c 77be 9a7f 333e 09b9 83be e61e 2dbe
00000220: ef7a 193f a6aa 88bd 2db9 8a3e e1cd 98bd
00000230: 7128 86be e227 383e af1f 493a 4c37 c73d
00000240: 1d79 4e3e b685 1c3d 4049 e23d 52df c03e
00000250: 5424 333e 0f19 b5bc 4188 ae3c f902 2abe
00000260: b100 cf3d 5d5e ea3e 273d 1c3e a84a 533d
00000270: c4c5 963e ef8f 9dbe 7b7c 983b 6e95 a23c
00000280: f85a d33e 4e0c 7a3e 6a5a 6e3e 52cc 04bd
00000290: bfbe dd3b c9a6 e03d 2f2d 963d b8b1 26be
000002a0: 79d2 023e b537 c03e bd65 763c c6fd 05be
000002b0: f06d efbd 82f3 3ebe 7a85 143e bc06 df3c
000002c0: 90e3 503e 553e f9be d8b7 c83d 08f9 453e
000002d0: 9837 7fbd 17e4 cb3e bb96 c53e cf27 bc3e
000002e0: 8512 73be 12c2 cc3d 082f 143e 7155 fdbd
000002f0: 7bcf 42bd 7415 f23e 42f3 4dbe 5820 4bbe
00000300: c701 0e3e 7e68 863d 7472 a63e 1a44 1cbc
00000310: c514 923e 4815 de3d 282b 2abd b569 673e
00000320: 10de a3bd 40da fdbd 4429 483d 7d45 81be
00000330: 8b72 cfbd 23ab c63c 26de ad3d 88bb 99bc
00000340: 308b 40be fa02 15be 0066 0c3e 21aa 92bd
00000350: 94b5 2a3e 4886 223e 3cd6 07bf a166 f13e
00000360: 2205 acbc ae2c ac3d 2c60 1f3e e5f5 853d
00000370: 0ae8 9c3e a3d6 ae3d 6e18 9e3e f01d 43bd
00000380: d2c3 a03e b100 873e dfd9 aa3e c67b b33e
00000390: 0b71 903e ec23 ea3e d3bf 583e 56c6 31bd
000003a0: d1d5 eb3c 9a30 f33d fd3b a9be e0b8 173e
000003b0: 9ff7 01be a4fa 2bbe c7ad a9bd 7fa8 a03e
000003c0: 8138 e63d 1689 bb3c abf0 003f 37a2 d93d
000003d0: 5307 c73e 5853 893e f0c1 cc3e 6b9a 093f
000003e0: f1af 453d 46b1 88bd d0e7 773a f1ff 183e
000003f0: 951f fdbc 6ae0 463e e038 853e 1df4 bb3d
-0.28001308 0.14299364 -0.25882205 -0.17640229 -0.013227215 0.41424805 0.18791658 0.074638434
0.05504384 -0.084510036 0.23658842 0.03336081 0.2851772 0.4033 0.38060832 -0.14209192
0.11063315 -0.18672208 0.008224812 -0.1936045 0.72156143 0.027935786 0.20437716 0.11203963
-0.1813419 0.11696139 0.053017028 -0.07350693 0.015268038 -0.019844783 0.14416456 -0.2910461
0.2878204 0.47706464 -0.05057999 -0.13608749 -0.42125192 0.0029328743 0.26659638 -0.2564557
-0.36688438 -0.22631425 -0.15290135 0.10997006 0.31563777 0.16098571 0.05834408 -0.005110604
0.15430333 0.04768011 -0.120660424 0.2017657 -0.033410314 0.13577484 -0.31046286 0.13079682
0.23684368 0.209966 0.07374276 -0.15100132 -0.01585944 0.3034333 0.26422197 -0.00645932
-0.12790301 0.2035113 0.05812067 0.20931926 -0.29223493 -0.088729724 0.09122864 -0.21051557
0.0033587243 0.15023088 0.044017725 -0.013399359 0.29483855 -0.02286622 -0.033320162 0.29001442
-0.580632 -0.11490293 0.121621475 -0.018677613 0.1370789 -0.22246951 -0.06536446 0.28717425
0.27359578 0.08574055 -0.30559298 -0.02062111 0.3836116 -0.08055794 0.047729384 -0.28120565
-0.08963148 -0.2682158 0.11764275 0.0040106373 0.16692865 -0.4375072 0.045529626 -0.074674964
0.27716026 -0.09419557 0.07347321 0.022068774 0.43686742 0.18693028 0.01670316 0.004086028
0.52901715 -0.0733413 -0.40746346 0.09059062 0.05380919 -0.33376214 0.30955118 -0.11974283
0.41655847 0.21683483 -0.29416582 0.20121309 0.09790711 -0.39679402 0.009460565 0.08587014
0.32532245 0.44352373 -0.29987505 -0.07390389 -0.24131969 0.17529145 -0.25727108 -0.16906318
0.59953207 -0.066731736 0.27094403 -0.07461143 -0.2620273 0.17983964 0.0007672263 0.09727344
0.20163389 0.038213454 0.110491276 0.3767038 0.17494327 -0.022106675 0.021305205 -0.16602696
0.10107554 0.45775118 0.15257703 0.05158487 0.29447758 -0.30773875 0.004653511 0.019846644
0.4128034 0.24418756 0.23276678 -0.032421418 0.0067671235 0.10969312 0.07332837 -0.16278732
0.12775601 0.375425 0.015038905 -0.13085088 -0.11690891 -0.18647578 0.14504042 0.02722489
0.20399308 -0.48680368 0.098006904 0.19333279 -0.062308878 0.39822456 0.3859156 0.36749122
-0.23737533 0.099979535 0.14471066 -0.12369812 -0.04756115 0.47281992 -0.20112327 -0.19836557
0.13867866 0.06562899 0.32509196 -0.009537721 0.2853147 0.10843903 -0.041545063 0.22598918
-0.080013394 -0.123951435 0.04886748 -0.25248328 -0.10129269 0.024251526 0.08489637 -0.01876618
-0.18803096 -0.14551917 0.13710785 -0.07161356 0.16670829 0.15871537 -0.5306127 0.47148612
-0.020998541 0.084069595 0.1556403 0.06541041 0.30645782 0.085370325 0.30878013 -0.047635972
0.313994 0.26367715 0.33369347 0.3505537 0.28211245 0.4573053 0.21166925 -0.04340204
0.028788479 0.118745044 -0.3305358 0.14816618 -0.12692116 -0.1679483 -0.082850985 0.31378552
0.11241246 0.022892516 0.5036723 0.10626643 0.38872775 0.268214 0.39991713 0.5375125
0.048263494 -0.06674437 0.0009456845 0.14941384 -0.030898849 0.19421545 0.26019955 0.0917742

b1 f4 [256]
00000000: 70c2 2c3c 1bed b53d de3b e5b7 b2ac 1e37
00000010: 27f4 403a b0fc e13d a235 903d a1c3 1c3c
00000020: 0000 0000 80a6 12bc 49f9 e33d 2758 b13b
00000030: 5f80 683d 4486 333e b723 ad3d 9e99 5f37
00000040: c994 9a3d 2698 9b38 cb98 313c 7623 883c
00000050: e77f 573e 2db7 d6bb ef2d 0d3e bd85 bc3c
00000060: 0086 513d 0ee8 3e3d 58ce 2bbc efaf af3d
00000070: 9911 d33d 3c5c 523c 4797 cd3d 2492 c13d
00000080: a7b3 34bd 3c26 8c3d a931 01bd 6bc9 1fbc
00000090: bd9a c2bc 5194 5f3c c94f ea3a e2c7 0f3d
000000a0: d27e 24ba 11e6 f3bc 2efe f5b8 f62f f73c
000000b0: fdc5 6f3b 8437 853e 7f0b 2d3d 9287 9d3c
000000c0: e56f b7bb 1736 1f3e 5d0c 2e39 03f3 093d
000000d0: 244e c03b bf07 7bbc 296e 22bb 429f be3d
000000e0: 7616 5dbc 333c ccbb f1eb e93d 2d4d c93b
000000f0: 54ca f63c 7d8f 813b 10a8 163d 418e 2e3c
00000100: 0000 0000 411c 8fbb 8356 123b ab19 213e
00000110: 0000 0000 0000 0000 b1b5 023e 2188 a83b
00000120: c607 4e3d 2799 9cba 0000 0000 49a2 8e3d
00000130: 3216 cfbb 37f0 c8bb 9f03 9a3b 9008 db3d
00000140: 0000 0000 6771 2b3b e31f f8bb 301a 0dbd
00000150: f42a 333e 7e87 173c 9b7f 8c3a 425d 15b9
00000160: 7ed6 3a3d cafb a83d 8318 d4bb a09e 613c
00000170: a9a3 cb3c 902b 5ebd b8e4 9838 1304 023d
00000180: 7f33 92ba 9cdc b8ba 10f9 be3d 6673 b23d
00000190: f454 233e 7509 2c3d 0000 0000 4b5e 38bc
000001a0: a529 85bc 83c0 183d 7206 043d b07d e13d
000001b0: 2c07 643c 0ba1 b6bb 8fff 943b f7ff af3a
000001c0: e191 873e 7051 32bc fc73 e33a b73a 383e
000001d0: 2375 77bc 50f3 23bd 1b24 0c3e 23ef 063d
000001e0: 43ac 19bb 0be2 54bc 1aa5 94bc 9fec d93c
000001f0: a555 1f39 8f37 bc3b 5f5e 313e 0000 0000
00000200: 59d3 193e 0eff 0d3e aeda a8ba 125b 0b3d
00000210: 74e9 19bd 1519 1d3c d1d5 e0b8 9f66 163c
00000220: 5017 973d 14a9 eebb 4fe2 623c 9769 853c
00000230: 0000 0000 da53 e33d 5ad1 743c d5d7 573d
00000240: fdb0 a93d aa3a fa3d e08c 9e3c 4b85 3f3e
00000250: baf7 4a3b 7284 03bb 297c ddb7 e58b 3d3d
00000260: d9ec 3b3c 6728 703d 6a33 c43d 167b 8c3d
00000270: 1f2f a23b 00c6 433c 708d 583c bb4c 1b3d
00000280: 9a3d 363d 27e1 f13d 9f76 b43d ff97 2abc
00000290: 648a 34bb 13db e9ba 20ae 223d 0000 0000
000002a0: 1149 023a 7230 713d a7fb 3cbd 8b35 193d
000002b0: 0e3a 293d 548c 12bd 052f 5c3d 4f6a c6bb
000002c0: acee 1dbb db21 4939 029e 19bd fb92 953c
000002d0: 847e 453d 691a 343e 0000 0000 cbdd 483d
000002e0: 2e2e 52b7 359a 913d 370b 4ebb fa26 b33b
000002f0: 7b55 6e3d e989 e13d aab6 223d 2276 38bb
00000300: d730 adbb 3231 313e b6c3 8a3d 9b24 1fbc
00000310: 3e57 17b9 5563 843d 6c55 35bb bea8 45bb
00000320: 0000 0000 057b d33d 849b 253e 85f8 b33d
00000330: 34f5 153b ee86 093d 13d6 cd3d debb 923b
00000340: 186d 273d 0000 0000 dd5e 623b 0eb8 fa3c
00000350: 990f 22b7 e516 0d3c 5937 ecb8 4bd5 ed3d
00000360: 4162 523c c96b 3d3d 9826 1f3d f7ce 9a3d
00000370: 35c1 b53d 2ae9 5dbb 1a16 3d3c 4b8c 2139
00000380: f533 4abc f793 bfba e1c2 a4b7 6390 123d
00000390: 0000 0000 ef5d 333e 3a6d 833c 9a07 e73a
000003a0: 8b2c 443b 0a6e e0b8 8bc3 ffba 0000 0000
000003b0: 1287 f3bb 7c6d d4b9 2b61 013d a6b7 b33d
000003c0: 5d7d 113e 0000 0000 f663 323e a1eb 053b
000003d0: 0000 0000 65cc b3b9 70d8 283e 6fc8 d63d
000003e0: d592 4dbb 8cda 14b9 3dfa 56bc 0000 0000
000003f0: 66c5 b73d 2990 603c e047 553d d340 213e
0.010544404 0.08883115 -2.7326805e-05 9.457743e-06 0.00073606 0.110345244 0.0704148 0.009568126
0.0 -0.0089508295 0.11131532 0.00541212 0.05676305 0.17531687 0.08454078 1.3327603e-05
0.0754791 7.419316e-05 0.010839651 0.016618472 0.21044885 -0.006552598 0.13787054 0.02301299
0.051153183 0.046608023 -0.010486208 0.085784785 0.10306091 0.012839373 0.100386195 0.09451702
-0.044116642 0.0684323 -0.0315415 -0.009752612 -0.023755426 0.013646201 0.0017876561 0.035102732
-0.0006275001 -0.02977279 -0.00011729855 0.030174237 0.0036586516 0.26018918 0.04224729 0.019229684
-0.0055980557 0.15547977 0.00016598539 0.03367902 0.00586869 -0.015321671 -0.00247849 0.0930772
-0.013494125 -0.0062327622 0.114219554 0.0061432333 0.030125774 0.0039538727 0.03678137 0.010654033
0.0 -0.004367382 0.0022329397 0.15732448 0.0 0.0 0.12764622 0.005143181
0.050300382 -0.0011947498 0.0 0.06964547 -0.0063197846 -0.0061321515 0.0047001387 0.106949925
0.0 0.0026160122 -0.0075721606 -0.034448802 0.17496854 0.009248612 0.0010719182 -0.00014244489
0.045614712 0.0825115 -0.0064726486 0.013770729 0.024858313 -0.054240763 7.290527e-05 0.031742167
-0.0011154263 -0.0014103833 0.09324849 0.08713417 0.15950376 0.042001206 0.0 -0.01125295
-0.01625521 0.03729297 0.03223271 0.11010301 0.0139177255 -0.005573397 0.0045470665 0.0013427724
0.26478484 -0.010883674 0.0017353292 0.17991148 -0.015103611 -0.040026963 0.13685648 0.032942902
-0.0023448623 -0.012993346 -0.018145133 0.026602088 0.00015195327 0.005743928 0.17321156 0.0
0.15022029 0.13866827 -0.0012882554 0.0340224 -0.037576154 0.0095885 -0.00010720979 0.00917974
0.073774934 -0.0072833393 0.0138479015 0.0162857 0.0 0.11099978 0.014942491 0.052696068
0.08285711 0.122182205 0.019354284 0.18703191 0.003097041 -0.0020067957 -2.640307e-05 0.046275992
0.011470043 0.05863228 0.09580119 0.06859414 0.004949465 0.011949062 0.013217315 0.037914973
0.04449234 0.118105225 0.08811688 -0.010412215 -0.0027548308 -0.0017841778 0.03971684 0.0
0.0004969994 0.05888409 -0.046138432 0.03740458 0.04131513 -0.03577836 0.05375578 -0.0060551534
-0.0024098558 0.00019181466 -0.037504204 0.018258562 0.048216358 0.175882 0.0 0.049039643
-1.2527727e-05 0.07109491 -0.003143979 0.005467293 0.05818699 0.110126324 0.039724983 -0.0028146585
-0.005285363 0.17303923 0.0677561 -0.009713317 -0.00014432982 0.064642586 -0.0027669324 -0.0030160393
0.0 0.103261985 0.16172606 0.08787636 0.0022881748 0.033575945 0.10050597 0.004477962
0.040875524 0.0 0.0034541406 0.030605342 -9.659584e-06 0.0086114155 -0.00011263666 0.11612948
0.012840808 0.04624537 0.038855165 0.07559007 0.08874742 -0.00338609 0.011540914 0.0001540642
-0.012341489 -0.001461624 -1.9641071e-05 0.03578223 0.0 0.17516302 0.016043294 0.0017626167
0.0029933776 -0.00010701649 -0.0019513232 0.0 -0.007431873 -0.00040517363 0.031586807 0.087752625
0.14207979 0.0 0.17420945 0.0020434635 0.0 -0.00034293826 0.16488814 0.104874484
-0.0031368036 -0.00014195795 -0.013121185 0.0 0.08973198 0.013706245 0.0520705 0.15747385

W_action_type f4 [256, 4]
00000000: 95af a8bc c39e 6a3d 04b7 843d 13bc a0bc
00000010: fd35 503d 43f5 fcbc db8f 8d3e 3ef1 5dbc
00000020: f123 c7bd 661d 993d 8112 b73d dfdb 553c
00000030: fc4b a9bc 6a70 14be 7703 463d 7aca 8abd
00000040: ef42 87bd d217 6b39 2a70 8f3c 915c 933d
00000050: 4967 943d 702c 563c f343 a63d 9575 8b3d
00000060: 688a b2bc c1ae a1bd ec35 943a 7cce 3bbd
00000070: 782f 1fbd ef82 afbd cbcd 61bb 1dd0 8b3c
00000080: a3c6 143d e7b3 643d ef5a 8cbd 91fa c43b
00000090: d7cb b9bd 8eb7 b13d 4bcc aabd 7632 873d
000000a0: 9f11 09be b0ea a6bd 8916 733d f2b3 0cbe
000000b0: 274e 843a 5765 23be 9d42 71bd baeb babd
000000c0: 773c 6f3c dccb 8ebd 93c9 20be 77be 953d
000000d0: 26d3 753e 6671 10bd 5964 313e d5f1 87bd
000000e0: 844a 58bc e23e 963d fb7a 93bd e12a a43c
000000f0: 7c58 b13d f319 1b3e 1b1b 6abd 228a 10be
00000100: f8da ef3b 592b 49bd b77e a03c c123 d3bd
00000110: e13c 6cbd f234 e33d 622f a03d c3da ef3c
00000120: f719 ff3c 15cc fa3c db02 e73d 8029 4cbd
00000130: 2a8f b33c 749e d5bd a976 02bd 8538 2dbd
00000140: fc5a 08bd 49b8 543c 067b 25be cf7a 9d3d
00000150: 65c1 48be edda dabd d63a 213e 5cdd 3bbc
00000160: e03f 773d 3d28 1b3e 4adc 84bd 59a3 24bc
00000170: c7f0 213e 984c b5bd 582e 7d3a 5dac 2a3e
00000180: 4017 5d3d de73 00bd 3256 cd3c 410a 0f3e
00000190: abf8 48bd c8a0 b1bc fa79 34bd 84a3 b03c
000001a0: 7d36 a93d 5e4f ec3d 6e22 f23c a886 a9bd
000001b0: 172b a8bd 2314 b7bd 1057 c73d 3a9b 07bb
000001c0: 5174 9539 5431 4fbd 8208 4ebd e621 46bc
000001d0: a413 31bd 65ca a33d bc3f 3e3d b91f d5bd
000001e0: 92a1 cc3b 8fed c33d 5d37 52bd d9d9 30bd
000001f0: 04d0 c93d 2ebc 21bd 9fcf 83bd 8a73 263d
00000200: e958 5abd 7c96 ec3d 6170 063d 7de6 013d
00000210: 9b20 99bd 5257 c43d 61f0 81bc c88d 14bd
00000220: 95fd 94bd 1571 d5bd 6f55 173e c3e6 24bc
00000230: f146 d93d 0b9c b4bd bb1e bb3a 81f1 883c
00000240: a23b a9bd 2127 37bd a774 fbbb 9a3c d8bb
00000250: ed8b 6bbd 4315 1f3d c947 68bd dc2f 5bbd
00000260: eb26 c0bd e5bc 5abc ddfb 88bc 5cfa 5cbc
00000270: f6ad 6e3e 911a e73d f10b e73b 427b 12bd
00000280: a8f0 bbbd e424 fa3c bc03 3a3d 265f 9ebd
00000290: 5f88 233e 3a5a c3bd 7bba 68bc 86aa 93bd
000002a0: c7c5 f8bd 1bb2 89bd 8b62 b53c 7861 73bc
000002b0: 9352 74bd 7ab2 503d 7cfb cb3d f0c1 f43b
000002c0: 8677 b33c bb99 e2bc 82d9 f13d 5fe7 24bd
000002d0: 821d bcbd ed4d 1bbd 2875 f3bc 4e76 233d
000002e0: 440b 393e 036c e93d da9c 38be de4b 953d
000002f0: db1c 5cbd 27f4 4ebd 9ce5 c7bd ea2a 05be
00000300: 0c9e 353d bdeb 1e3d c4e0 64be 2cdc bb3a
00000310: ad66 e2bc ad3d 863d bdee 7abd b671 7fbd
00000320: adbe a5bd 7300 a53d c7dd 943c 7b6e d2bb
00000330: b45c 25bd 795a 17bd a6a4 913c fc9a 9c3b
00000340: d076 1bbb ff26 8e3d 9c15 8ebd b547 78bc
00000350: bc1a f23c 11ec 6d3d f6bf 903c 5d9a 423c
00000360: 3eed ddbd f356 053d 5ad9 0cbd 1316 bbbc
00000370: 556e d03d fb21 0a3e ba7f b6bd 90e4 633d
00000380: 334c 59bd 2ee5 c23d 64b8 d9bd f3d3 73bd
00000390: 169a 883c fc5e 5dbd 17a5 613c e923 43bd
000003a0: 43c6 9cbc 8714 f53d 71c4 c9bc 5c03 85bc
000003b0: 9022 e9bd a3d1 84ba 2966 90bd 1019 59bd
000003c0: b718 45bd aa99 513e 9a38 8f3d b49b 7dbb
000003d0: 6ae4 3b3d 61dd 21bd fa99 8d3c 3fb0 193d
000003e0: 7f35 6c3d 9e28 373e 29b3 273d 0d5f c5bd
000003f0: 6984 d83d 7446 f23d fda4 d33d cdb5 39bc
-0.020591537 0.057280313 0.0648022 -0.01962093 0.050832737 -0.030878669 0.27648816 -0.013546286
-0.09723652 0.074763104 0.08939076 0.01305291 -0.020666115 -0.14496008 0.048343148 -0.067769006
-0.066045634 0.0002242022 0.017509539 0.0719539 0.072462626 0.013072118 0.08118429 0.06809536
-0.021794513 -0.0789466 0.0011307574 -0.045851216 -0.03886363 -0.085698955 -0.0034454938 0.01706701
0.036322247 0.05583563 -0.06853282 0.006011315 -0.090720825 0.086775884 -0.08339747 0.066014215
-0.13385628 -0.08150232 0.059347663 -0.13740519 0.0010094092 -0.15956627 -0.058901418 -0.091269925
0.014601818 -0.06972477 -0.15701894 0.07311719 0.24006328 -0.035264395 0.17323436 -0.06637923
-0.01320136 0.07336213 -0.07201191 0.020039978 0.08659455 0.15146618 -0.057154756 -0.14115193
0.0073198043 -0.049113605 0.019591672 -0.10309554 -0.057675246 0.11094083 0.078215376 0.029279118
0.03114031 0.030614892 0.112798415 -0.049844265 0.021918852 -0.10430613 -0.031851444 -0.04229023
-0.033289894 0.01298339 -0.16160211 0.076894395 -0.19605024 -0.10686288 0.157451 -0.01146635
0.06036365 0.15152068 -0.06487329 -0.010048711 0.15814506 -0.088525 0.000965809 0.16667314
0.05397725 -0.0313605 0.025065515 0.13968755 -0.049065273 -0.021683112 -0.04406164 0.021562345
0.08262346 0.115385756 0.029557433 -0.08277637 -0.08211344 -0.08939388 0.09733403 -0.0020691887
0.00028506157 -0.050584152 -0.050301082 -0.012093043 -0.04323162 0.07997588 0.0464475 -0.10406441
0.0062448466 0.09566795 -0.05132233 -0.043176506 0.09854129 -0.039486103 -0.06436085 0.04063753
-0.053307448 0.1155214 0.032822017 0.03171395 -0.07476922 0.095869675 -0.015861692 -0.036268026
-0.072749294 -0.10421959 0.14778684 -0.0100647835 0.10609234 -0.08818825 0.0014276126 0.01671672
-0.08263327 -0.04471505 -0.007673818 -0.006599021 -0.05750649 0.038838636 -0.056709085 -0.05351244
-0.09382423 -0.0133507 -0.01672166 -0.013487425 0.23308548 0.11284364 0.007050984 -0.03576208
-0.09176761 0.030535169 0.045413718 -0.07732992 0.1596999 -0.09538694 -0.014204617 -0.07210259
-0.12147098 -0.06723424 0.022141716 -0.014854781 -0.05964906 0.05095146 0.09960076 0.007469408
0.02190758 -0.027661195 0.118090644 -0.040259715 -0.09185316 -0.037916113 -0.02971895 0.039907746
0.18070704 0.11397555 -0.18028584 0.07289861 -0.053738456 -0.05052581 -0.097605914 -0.13004652
0.04434018 0.038799036 -0.22351366 0.0014332584 -0.02763685 0.065547325 -0.061262835 -0.062364303
-0.08093009 0.08056726 0.018172158 -0.0064218617 -0.04037161 -0.036951516 0.017778706 0.0047792178
-0.002372194 0.06941032 -0.069377154 -0.015153815 0.029553764 0.05808646 0.01766966 0.011877623
-0.10836266 0.032553624 -0.03438697 -0.022837674 0.10177294 0.13489525 -0.08911081 0.055637896
-0.053051185 0.09516369 -0.10630873 -0.059528302 0.016675036 -0.054045662 0.013772271 -0.04764167
-0.019137507 0.11966806 -0.024629803 -0.016236953 -0.113835454 -0.0010133277 -0.070507355 -0.053002417
-0.048119273 0.20468774 0.06993218 -0.0038697543 0.04587213 -0.039517764 0.017285336 0.037521597
0.057668205 0.17886588 0.040942345 -0.0963727 0.1057213 0.11829844 0.103342034 -0.011334849

b_action_type f4 [4]
00000000: 608a b83a 7906 383a ecee 0cbb e706 2a38
0.0014079325 0.00070200075 -0.0021504713 4.0537587e-05

W_play_habitat f4 [256, 4]
00000000: 9bd8 54bd b0a1 8c3d c8a1 283e 2386 f83b
00000010: 62f4 a2bc f1b9 063d 9fd4 08bd c5a5 0e3d
00000020: 079a 7c3d 45a7 c83c a571 a33d b712 6f3d
00000030: 8a96 dbbd a9f3 4cbd 246b 553d 8eb0 f13c
00000040: 9149 15be 5166 91bd 38e0 9ebd d3af 3f3d
00000050: de9a a93d 255b 17bc 4a12 363d c025 d9bc
00000060: 5235 55bc 2e58 86bc b838 013d b47b 243d
00000070: 71e6 1dbe e1ac 8bbd b657 b43e 30c1 8a3d
00000080: f3d7 0ebe f688 68be d8d1 c43d cd28 563d
00000090: bd4d 613d fecb 11bd fe77 56bd 1d33 503c
000000a0: a464 3d3d 35ec 32bd e674 33bd 5490 753d
000000b0: 222d 93bd aec8 abbd 8eda 113e 8a14 20bd
000000c0: e40c 8e3d a121 20be 463a 62bd e9d2 e3ba
000000d0: 54b0 1cbd 47dc 1c3d 5716 9ebd a62d 983d
000000e0: f825 0dbe 536f e43d 52a7 193e fd7b 543d
000000f0: 720a 4abd 6658 973d ad58 51bd 7325 fe3c
00000100: 5f1d 6c3d 094c bbbd 9cce 6e3d 7e5b d33c
00000110: 998f b13d 8612 6c3d 4326 0dbd 49a2 7c3c
00000120: f8d9 dbbd da4d 713c 6bae 013d ed6d c13c
00000130: de48 abbd 1093 743e 18fe 96bd 419e f63c
00000140: 3686 943c d83f f33c 9e9d 12bd d4f7 90bc
00000150: 01d2 a93d 31b6 b93b 1552 37be b17c af3d
00000160: 1d51 973d 7458 053b 0517 34be 79e2 65bd
00000170: 2bcf 48bd 0b36 a13d e66d f1bd dd66 4d3e
00000180: 5f9b f6bd 1525 963b 871e 9dbc 90cd 013e
00000190: ce26 263b f932 8bbc aac0 06bc 1641 9a3d
000001a0: 2647 47bd f7de fdbc f6ab f63d 9cd0 edbd
000001b0: 32e8 f23c bc91 17bc ad9a 03be c34a a0bd
000001c0: 6971 0f3d 44fb 643d 75c3 95bc 5b0e 1e3e
000001d0: 4904 c5bd 20cd c6bc 00a5 423c 24f1 fc3d
000001e0: f921 f03d a25f ff3d 9dd4 98bd ea34 0ebe
000001f0: 543b 5fbd 5ad5 12be 10cc 89bd 0158 163d
00000200: 8e89 3abd 7da1 05be 98a5 3b3c 7f7a 5cbd
00000210: cbeb bc3d 0b80 d53c 1926 95bd a8a7 3cbd
00000220: 57c1 2abd a121 08bd ce35 333d ed4f 56ba
00000230: 8936 423d 3ba9 223d 23c7 873d 81fd e33d
00000240: c3ee 28bc c010 a33d 41fd c5bd 0a2b 8cbd
00000250: 2549 cdbd f1c9 e13d 74dc e33c 2907 d5bd
00000260: dfea 61bd b3a5 12bd 7478 7ebd a568 313d
00000270: 7412 94bc cc35 82bd 1d5f 3cbe 4e0e e83d
00000280: 61ac d9bb 019a 743d 8cbe 0abb ce96 91bd
00000290: e198 a53c 483e eebc d5c9 893d 719d 48be
000002a0: 5641 3e3d 4cee c4bd 1964 d83d 12d6 033e
000002b0: 4b91 0d3e f13d 5e3e 9895 0bbe 2316 0c3e
000002c0: 3bb5 8f3d d894 1e3d d431 aebd cde6 b53d
000002d0: d786 fe3d 5f87 a1bd 683c a03d 6cc2 873d
000002e0: a036 04be 9c30 0e3d 9679 9a3d 09f7 e13c
000002f0: 5591 e3bd 9d42 813e a86e 0abe 2073 20bd
00000300: 0191 5dbc e6f4 74bd f6b6 eabd b917 123e
00000310: b437 f3bb b01c 733d b75e 4e3d cee4 e0bc
00000320: 524a 83bd e94c 35bd 9b2b 09bd 6609 21be
00000330: 2299 3a3d b90e d2bd 0abc fa3c aa1a fa3d
00000340: de1c 25be 1a9f f93c de6f 903d a178 593d
00000350: a149 b7bd d4a6 0d3c 6714 613c c7c2 6a3e
00000360: 07da 19bd 588d 6a3e f675 533d 4f61 ac3d
00000370: b3e7 003e db6a 54bc e230 32bd 8251 eabd
00000380: 65a3 8bbc b79f 81bd 9cf5 30bd 3b93 423d
00000390: 39b9 7d3d 37ed a43d d46f 733d b804 6fbd
000003a0: 1e42 273c bb66 16bd 621c a0bd 1da2 a8bd
000003b0: 1dfa aabd 8190 d53d ae04 91bd 3577 bc3c
000003c0: b251 da3d 7e42 2bbd 5b00 a33d ef4d 5fbd
000003d0: a015 c4bd 20c1 203d 6ffa d03c 97a6 d03c
000003e0: 1a7c fb3c f5b1 f0bc 47d3 d83d 3e31 143d
000003f0: 4113 e2bc d4a6 0dbc 721a 25bd 67fc 1a3e
-0.051964384 0.06866777 0.16467965 0.0075843497 -0.019891921 0.03289217 -0.033405896 0.03482606
0.06167033 0.024493823 0.0798066 0.058367457 -0.107220724 -0.05003706 0.05210413 0.029503133
-0.14578845 -0.070995934 -0.0775761 0.04679854 0.08281492 -0.009238039 0.044451036 -0.026507258
-0.013013201 -0.01639947 0.03154823 0.040157035 -0.15419938 -0.068200834 0.35223168 0.06775129
-0.13949566 -0.22708496 0.09610337 0.052285004 0.055005778 -0.035594933 -0.052360527 0.012707499
0.046238557 -0.043682296 -0.043812655 0.059952095 -0.07186343 -0.08387886 0.14243528 -0.039082088
0.069360524 -0.15637828 -0.055231355 -0.0017381582 -0.038254097 0.03829601 -0.07719105 0.07430582
-0.13784015 0.11154046 0.15005234 0.051876057 -0.049326368 0.073899075 -0.05110996 0.031023717
0.057645198 -0.09145362 0.058302507 0.025800463 0.08669967 0.057634853 -0.034460317 0.015419551
-0.107349336 0.014728034 0.03166048 0.023611987 -0.08363508 0.23884225 -0.07372683 0.030104758
0.018130403 0.029693529 -0.035794847 -0.017696299 0.08292008 0.005667471 -0.17902406 0.08568705
0.07388518 0.0020346912 -0.17586906 -0.056124184 -0.049025696 0.07871636 -0.117885396 0.2005877
-0.120413534 0.0045820572 -0.019179596 0.12676072 0.002535272 -0.01699208 -0.008224646 0.075319454
-0.048651837 -0.030990107 0.12044518 -0.11612055 0.029651735 -0.009251054 -0.12851973 -0.0782676
0.035020266 0.055903688 -0.018281678 0.15435164 -0.09619958 -0.024267733 0.011880159 0.123506814
0.1172523 0.124694124 -0.07462428 -0.13887373 -0.05449994 -0.143392 -0.06728375 0.03670502
-0.04554134 -0.13049884 0.011453055 -0.05382776 0.092246614 0.026062032 -0.07282657 -0.046058327
-0.04168829 -0.033235196 0.043752484 -0.0008175362 0.04741529 0.039712172 0.06629779 0.111323364
-0.0103108315 0.07962179 -0.09667445 -0.068441465 -0.10023717 0.110248454 0.027815081 -0.10401756
-0.05515563 -0.035802554 -0.06212659 0.043312687 -0.018075205 -0.06357917 -0.18395658 0.113308534
-0.0066428636 0.059717182 -0.0021170704 -0.07108842 0.0202145 -0.029082432 0.067279495 -0.19591309
0.046449028 -0.09615764 0.10565967 0.1287463 0.13824956 0.21703316 -0.13631284 0.1368032
0.07016989 0.038716167 -0.08505598 0.088819124 0.124280624 -0.07887148 0.078240216 0.0662888
-0.12911463 0.034714326 0.07542722 0.027583616 -0.11111704 0.25246134 -0.13518775 -0.03917229
-0.013523341 -0.059803866 -0.11460678 0.14266862 -0.007422412 0.05935353 0.050383296 -0.027452853
-0.0641066 -0.0442628 -0.03348885 -0.15726241 0.045556195 -0.102567144 0.030607242 0.12212117
-0.16124293 0.030471373 0.07052587 0.053093556 -0.089495905 0.008645732 0.013737774 0.22925864
-0.037561443 0.22905481 0.05162617 0.08416998 0.12588386 -0.012964929 -0.04350365 -0.11441328
-0.017045686 -0.06329291 -0.04320298 0.04750369 0.06194422 0.08053058 0.05943282 -0.05835411
0.010208635 -0.036719065 -0.078179136 -0.08234046 -0.083484866 0.104279526 -0.07080971 0.023006061
0.106601134 -0.04181146 0.07959052 -0.054517683 -0.09574437 0.03924668 0.025510041 0.025470061
0.030698825 -0.029381732 0.10587173 0.036179774 -0.027597072 -0.008645732 -0.040308423 0.15135346

b_play_habitat f4 [4]
00000000: 679a a8b9 012b 413a 6582 e73a a7f8 0ebb
-0.00032158496 0.0007368774 0.0017662762 -0.0021815689

W_gain_food_primary f4 [256, 7]
00000000: 0954 9abd 70a2 023e b2da 41bd 1915 32be
00000010: f1f2 84bc e724 7ebd 9490 793c 80ee 37bc
00000020: ef0a 84bc 0ce7 6bbe 7126 14be 49d7 a7bc
00000030: 5158 f2bc 035f 1b3d 01e7 dc3d a5ca d5bd
00000040: 5471 003d f48b 243c 7ebc 9dbd 21b2 263d
00000050: 9af2 6dbd 102e 843c f492 843d 7617 12be
00000060: 2c0b b6bc c973 303e 9c0b 44bc 79a3 7ebc
00000070: 2829 34bd 8a7e f2bc a37e 053d 7f81 ebbc
00000080: 53eb e6bd a82c 0bbe 09ce 17be de1c 053e
00000090: 8294 86bd dd3d 293e c850 72bd 2738 193e
000000a0: 6627 81bc 7789 fcbc 0a9a 1c3d 101f e4bd
000000b0: 0d55 723d 8eca 043e 3b08 e7bd 36d3 953d
000000c0: 79dc 28bd 43ac 3cbd 0c87 a5bc 8e70 bdbd
000000d0: 57ff 31bd fa04 1ebd 20ce 623b 4c42 153d
000000e0: 2082 ad3c 566d e7bd e47d 47bb d5f8 313d
000000f0: ab17 413d 0dca acbb 910c 8fbd 483a 0e3c
00000100: 98cd 1d3e eeb8 353d 9177 6c3c 33a1 ffbc
00000110: 97d4 61bd 520e 84bd 2815 f23d ff75 ca3d
00000120: f5dd 45bd 305b ccbd f29c a43d 92a2 503d
00000130: 1b9d 39be d76b 00be 8590 933c 235d f1bd
00000140: bbe5 3cbe 8fb4 36bd dffb 67bc 78f3 9cbc
00000150: f2fc 93bb 63c5 833c 7319 073c 97e6 8b3d
00000160: 5f27 0abd 90c9 ce3d 236e 593c 3bed 1b3d
00000170: eccc 823d f883 823d 2466 cabc ea9e 46bd
00000180: 5c52 97bd f523 adbd 84c3 263b 4629 283c
00000190: d3c0 8b3d 7dd9 af3d 9579 78bd e4ee 273d
000001a0: 9bcd b9bc fd98 31be 5a97 ad3b e55e 44be
000001b0: d380 1abe 53cd 5abd b742 293e 8fdf f83d
000001c0: 0586 97bc 4127 a0bc 2178 ecbd 5909 26be
000001d0: 315e 923d 0f07 c7ba 2cc9 5c3d 7ea5 233d
000001e0: 9def e83c e626 ac3c 508c fc3d e9f9 143e
000001f0: 76ab 00be 1316 24be f7ec 0cbd 9dca ca3c
00000200: 38ec ecbd 9c05 a23d 8f81 44bd 3ff5 9cbd
00000210: 8d22 8fbd 39d5 df3c ba42 533d bda3 a5bc
00000220: ade8 6bbd 9e1d 1dbd 1b96 20be 3cf2 fb3d
00000230: 95e6 033d d904 02be 508c 213e 7cbd f33d
00000240: 77bb 4ebe 60a1 0d3e 7e80 fb3a 9fc3 b3bd
00000250: 6141 2cbc 314d 1abe 40dc fc3c be02 8abc
00000260: d073 0cbe aa6d 95bd 30b6 d33d f79b b23a
00000270: f0cd ebbd cad3 a5bd d53e 05bd 14d9 e5bc
00000280: 1923 503c 374d 25bd 9dd2 9d3d 2d7d 8d3c
00000290: 58f7 22be 6751 c63c 9384 073d b38f b0bc
000002a0: f124 a13d 1272 86bd 6d3b 02bc 55f3 843d
000002b0: 8e10 a8bc 9837 94bc e300 9cbd f833 fb3d
000002c0: a490 533d ab03 143b 13d0 afbd a726 3dbd
000002d0: 9bda 0a3d f665 12bd 6e77 8e3d 6a19 acbc
000002e0: 5383 823d f02e 5c3d 54e4 d83d e7b7 833d
000002f0: ff79 22bc 379f 6a3e 89ad a0bd 9b2f 1c3d
00000300: 788e 2e3e f076 633d 9387 36be b98b 813d
00000310: 5480 a0bd 4ba9 d1bd b94a 99bd 0a05 27bd
00000320: 3a7e 413d a156 e03d 0caa 0abe 13ab 9e3b
00000330: 125e 8ebc 5447 ee3d 3236 c2bc 6dd2 9dbd
00000340: 56df c43d ede5 b1bd c5f4 67bd 8543 23bd
00000350: 9863 f8bb f5e3 b0bd 4cf4 0d3c 6956 1c3e
00000360: 9f16 863d 6493 83bd d37a 87bd b7a1 ee3d
00000370: ca5c fa3d 04f9 6cbb 36a1 19bd 567a 5c3c
00000380: 2606 a4bc 3df4 f8bd cb1a a1bd 5d01 82bd
00000390: 838d 5dbc 222b a73d 840c 963c eaad c1bb
000003a0: e507 f0bd 4c00 adbd 88e2 523d d5ce a23d
000003b0: cab8 c2bd 5335 ebbd 2869 94bd 5396 0ebe
000003c0: 7a4d 5e3d 6d71 e8bd 3ef9 143d ad93 11bd
000003d0: 1c8e ffbd 8d02 88bd 0b49 e13d 8602 03be
000003e0: 75d8 edbd ff10 86bd 3786 063d cba2 52bd
000003f0: affb 61bb 1160 673d cf23 1d3c d90b a63d
-0.0753556 0.12757277 -0.047327705 -0.1739086 -0.016229125 -0.06204691 0.015232224 -0.011226296
-0.016118495 -0.23037356 -0.14467789 -0.020488398 -0.029583128 0.037932407 0.10786248 -0.10439042
0.031358078 0.010043133 -0.07701968 0.04069722 -0.05809269 0.016135246 0.064733416 -0.14266762
-0.022222124 0.17231669 -0.0119656585 -0.015541905 -0.043984562 -0.029601354 0.032591473 -0.028748272
-0.11275353 -0.13591254 -0.1482469 0.12999293 -0.06571294 0.16527505 -0.05915907 0.14962827
-0.015765857 -0.030827267 0.03823284 -0.11138737 0.059163142 0.12967893 -0.11280867 0.07315676
-0.041225884 -0.04606272 -0.020205997 -0.09249984 -0.0434564 -0.038578965 0.0034607723 0.03644018
0.021180212 -0.11300151 -0.0030440027 0.043450195 0.047141712 -0.00527311 -0.06984819 0.0086808875
0.15410459 0.044365816 0.014432804 -0.031204795 -0.055134382 -0.06448044 0.118204415 0.09885787
-0.048307378 -0.0997833 0.080377474 0.05093629 -0.18126337 -0.12541138 0.018013248 -0.117853425
-0.1844701 -0.044605788 -0.014159172 -0.019159064 -0.0045162374 0.016085332 0.008245814 0.06831091
-0.033728953 0.10097039 0.013270888 0.038068037 0.06386742 0.06372827 -0.024706908 -0.048491396
-0.07388756 -0.08454124 0.0025446126 0.010263747 0.06823888 0.085864045 -0.060662825 0.04099931
-0.022681048 -0.17343517 0.0052975835 -0.19176824 -0.15088205 -0.05341847 0.16529356 0.121520154
-0.018496523 -0.019549968 -0.1154635 -0.16214503 0.07146872 -0.0015184599 0.05390279 0.039952748
0.028434569 0.021014642 0.1233145 0.14548458 -0.12565407 -0.16024046 -0.034405675 0.024754817
-0.11568493 0.07911226 -0.04797512 -0.076639645 -0.06989012 0.027323352 0.051577307 -0.020219678
-0.057594944 -0.038358323 -0.1568226 0.12302062 0.032202322 -0.12697162 0.15776181 0.11901376
-0.201887 0.13831091 0.0019188074 -0.08777546 -0.010513634 -0.15068509 0.030866742 -0.01684701
-0.13716054 -0.072963074 0.10337484 0.0013626803 -0.11513889 -0.08097036 -0.032530624 -0.028057612
0.01270368 -0.04035684 0.07706187 0.017271603 -0.15914667 0.024208738 0.033085417 -0.021552896
0.07868374 -0.06564726 -0.0079487385 0.064917244 -0.020515706 -0.018092915 -0.07617357 0.122657716
0.051651612 0.0022585194 -0.08584609 -0.04617944 0.033899885 -0.03574177 0.06956373 -0.021008212
0.06372704 0.0537557 0.10590425 0.06431561 -0.009916781 0.22912298 -0.07845599 0.038131338
0.17046535 0.05553335 -0.17825155 0.06325478 -0.07836977 -0.10237368 -0.07484955 -0.04077629
0.04723952 0.10954023 -0.1354143 0.004842171 -0.01737884 0.116346985 -0.023707483 -0.07706151
0.096129104 -0.08686433 -0.056629915 -0.039859314 -0.007580232 -0.08637229 0.008664202 0.15267338
0.065472834 -0.06424597 -0.06615224 0.116519384 0.12224729 -0.0036159167 -0.03750726 0.013456902
-0.020022463 -0.1215596 -0.078664385 -0.06347916 -0.013522509 0.08162524 0.018316515 -0.0059106247
-0.11720256 -0.08447322 0.05148557 0.07949606 -0.09507902 -0.1148478 -0.072466195 -0.13924532
0.054273106 -0.11349759 0.03637051 -0.035541225 -0.12478277 -0.066411115 0.1100026 -0.12793931
-0.116135515 -0.065462105 0.03284284 -0.051424783 -0.003448229 0.0564881 0.009591057 0.081077285

b_gain_food_primary f4 [7]
00000000: d877 9c3a 0f04 03bb 459a 913a 4098 373a
00000010: 336a d8b9 3958 9e3a cc13 ecba
0.0011937572 -0.0019991433 0.0011108598 0.0007003583 -0.00041277855 0.0012080736 -0.0018011271

W_draw_mode f4 [256, 4]
00000000: 9d33 6a3e bb97 413d 24d0 7abc 2000 f93b
00000010: a1d4 483d a93c 0cbd d4ef 1c3c b424 1c3d
00000020: bce3 fbbd 321a c73d ba40 4b3d a217 aebc
00000030: b6c5 263d a8f9 edbc 20c8 143b 9934 9d3d
00000040: 7cdc c6bc 4049 9abd 1fde 8fbb 21e3 cc3d
00000050: e3d0 013d 3791 2abd 3b32 29bb c5c7 21bd
00000060: c0da c0bd 0a18 343d d648 0c3e b565 48bd
00000070: 4315 0cbc 29be 873c da72 e6bc dfd1 60bc
00000080: 49ed cebd f1dd 52bd 6317 21be 1b01 be3c
00000090: f5e4 283e 85ab 16be af4d c2bc 0709 943a
000000a0: 8a5b 0cbd 12f7 cf3d f914 8a3d 46c1 c5bd
000000b0: 5254 a0bc ac91 b3bc 05d7 9e3c e5f0 0cbd
000000c0: 379f 1c3b 457b 9d3c fccc a1bc e449 34bd
000000d0: 1978 983b 83bf 223d 9e1b 523d fcb1 60be
000000e0: 83c1 22bd fc64 443d 2b59 01be 619d 883c
000000f0: a121 4e3c 5ce1 cdbd bc30 b2bd f6cc b5bd
00000100: 6214 3c3d bdd8 b0bc 73a7 65bd 9076 4abe
00000110: 90f0 8a3d f0fb dc3c eaa2 e83b 2ec0 b13d
00000120: 3b59 1e3d 98de 9dbd 80d3 283d 955b 643d
00000130: 8a17 8fbc addc b93d 6594 653b d9b1 fbbc
00000140: 5f74 aa3d a34a b6bd f50b 953c 43e7 713d
00000150: b103 d4bd 58c2 85bd 1634 df3d 12e6 80bc
00000160: 6c37 c7bc b285 443d ba74 9dbd 7cf6 2b3e
00000170: 3a3c 223d f99a 083e fb75 fd3d 3d0d 3c3d
00000180: 135e 48bd 5adb 2a3c b4e0 c6ba 1429 7fbd
00000190: a487 f53d 4a01 a6bd e4ef 1cbc 3a80 b6bd
000001a0: 2686 ccbd 06e0 48bd 4c8f 45bd 73c1 20bd
000001b0: 0c88 18bd 598f 60bd 68fc d23c 204f 933d
000001c0: c9ea 893d 40d8 b63d 081f 0abe a8bf fd3b
000001d0: 7e75 d33c 02e1 17be edfa 693e a5e3 aebd
000001e0: 6eb4 b13d 14f0 8d3d 9485 9ebd e5e4 fabc
000001f0: f7f4 ffbd 6ca2 e23d e50f 29be 4810 dfbd
00000200: be33 60bd 7788 2d3e 6eb8 073d 5fa4 2abe
00000210: 0b1c 373d d576 373e 95c3 d7bd 2f24 133d
00000220: 495a 8bbd 7fa3 253c 2562 e03a e273 4c3d
00000230: 6f74 283e 8de0 34bd ff11 80bd 3689 af3d
00000240: 7742 f53c 6022 2b3d 069b ab3d 7dbf 843a
00000250: c896 86be 9c32 363d 8b2e e4bd 7235 323e
00000260: 111e 1fbe 81df 5cbd 98e3 383e e533 f33d
00000270: 1ed0 a73d dd8a 9ebb a4d7 e03c e1a0 f93d
00000280: 2b1d c2bc 3326 cabb 3e2f 1c3e 9019 043e
00000290: 30a2 f6bc f2d6 183d 1cb8 a83d 96c7 c93b
000002a0: 34dc a3bd 8adc 0bbc f1fb 06be 3704 bebc
000002b0: 339b ce3d aa69 1c3d 7c91 893d 664f 36be
000002c0: bb72 373e 6d07 623e b882 cabc 3a10 123e
000002d0: 46b4 e2bd aa48 70bd 9626 9ebc fcc4 fcbd
000002e0: db36 0fbd aa46 a2bd 4ebb a7bd 15f8 123e
000002f0: a484 02be fb6a 6e3c 4db9 8a3d 8d58 b1bc
00000300: a776 14be e391 36be 0fcb 753d 1bd2 9fbd
00000310: 55c8 f33d d8f0 de3c 2e85 af3d 3044 983d
00000320: d57a de3c ade0 2cbd 942f f8bc 45c0 a3bd
00000330: 7c13 ccbd e26c 153e 7dde dc3d 232f 2d3e
00000340: 81cd 7abd 2b20 063c efd1 3cbd 9472 7c3d
00000350: e8dc 5fbb 6ec7 a1bd 5c90 5bbd e32f d13d
00000360: 77a2 a33c 59b6 00bd 5ef9 55bd a53e 9f3d
00000370: 67e9 f33d 18e3 c63d 22d2 4c3e 55a1 c3bd
00000380: 8073 16bd f56e 18be 7520 cb3d 2b84 623d
00000390: 5b62 9dbd 2bb2 133e 6519 0bbe 8e36 79bd
000003a0: dfb1 be3d 4573 43be 85bb e6bc 4cc2 d1bc
000003b0: d2aa 883d bd26 b93d aa15 c93d 241e 35bd
000003c0: a532 733d 892f 1a3d 6463 13be 0871 acb5
000003d0: 06c5 d2bd 4d20 a4bd 6c0a d03d 3643 73bb
000003e0: 7004 54bc ee5d 753d 8880 683c cb97 f1bd
000003f0: ef6d f8bd fd90 f9bc 6a80 3b3c 4021 d83c
0.22871251 0.047263842 -0.015308414 0.007598892 0.049030904 -0.034237538 0.009578664 0.03812094
-0.12299296 0.09721793 0.049622275 -0.021251503 0.040715896 -0.02904971 0.0022702292 0.07676048
-0.024275057 -0.075335026 -0.0043904926 0.10004259 0.03169335 -0.041642394 -0.0025817293 -0.039497156
-0.09416723 0.043968238 0.1369966 -0.04892512 -0.008549991 0.016570168 -0.028130937 -0.013721912
-0.10103852 -0.05148119 -0.15731578 0.023193887 0.1649359 -0.14713867 -0.023718683 0.0011294194
-0.034266986 0.10154547 0.067422815 -0.096560046 -0.019571457 -0.021920048 0.019389639 -0.034409422
0.002389861 0.019223819 -0.019751064 -0.04401578 0.0046529886 0.03973342 0.05129587 -0.21942896
-0.03973533 0.04794787 -0.12631671 0.016676607 0.01258126 -0.100527495 -0.087007016 -0.08876984
0.045917876 -0.021587724 -0.056067895 -0.1977179 0.06784165 0.026975602 0.007099499 0.086792335
0.038659316 -0.07708472 0.041217327 0.055751402 -0.017467279 0.09075294 0.0035031077 -0.030724453
0.08322977 -0.089009546 0.018194178 0.05905844 -0.103522666 -0.06531209 0.108986065 -0.015734706
-0.02431842 0.047979064 -0.076882794 0.16793245 0.039608218 0.13340367 0.123760186 0.045911063
-0.04891784 0.010428274 -0.0015173168 -0.062295035 0.11988762 -0.081057146 -0.009578679 -0.08911176
-0.09986524 -0.04904177 -0.04823236 -0.039246988 -0.03723912 -0.054824207 0.025755122 0.07192826
0.06734235 0.08927965 -0.134884 0.0077437945 0.02581286 -0.14831927 0.22849627 -0.085395135
0.08676992 0.06930557 -0.07740322 -0.030626724 -0.12497895 0.11066136 -0.1650997 -0.10891777
-0.054736845 0.16946588 0.03313487 -0.16664265 0.04470448 0.17916425 -0.10535351 0.03592318
-0.0680433 0.010109781 0.0017119093 0.049915202 0.16450666 -0.04415946 -0.062534325 0.08571093
0.02993892 0.04178083 0.08379178 0.0010127869 -0.26286912 0.04448186 -0.1114169 0.174032
-0.15538813 -0.053924087 0.1805557 0.118751325 0.08193992 -0.004838331 0.027446575 0.12188888
-0.023695549 -0.0061691045 0.15252396 0.12900376 -0.030106634 0.037314363 0.08238241 0.0061578257
-0.08000985 -0.008536467 -0.13182046 -0.02319537 0.10088196 0.038186707 0.06717202 -0.17803726
0.1791486 0.22073145 -0.024720535 0.14264002 -0.11069541 -0.058663048 -0.019305509 -0.12342259
-0.034964424 -0.07923634 -0.081900224 0.14352448 -0.12745911 0.014551873 0.067736246 -0.02164867
-0.14498387 -0.17829089 0.060008105 -0.07803746 0.11903445 0.027214453 0.08570324 0.07434881
0.02715818 -0.042206455 -0.030296125 -0.07995657 -0.09964654 0.14592317 0.10784624 0.16912512
-0.06123114 0.00818638 -0.046098646 0.061632708 -0.003415877 -0.07899366 -0.05360447 0.10214212
0.01997493 -0.0314239 -0.05223977 0.0777562 0.11909752 0.097112834 0.20002034 -0.09552256
-0.036731243 -0.14886077 0.099183 0.055301826 -0.076847754 0.14423434 -0.13583906 -0.060843043
0.0931127 -0.1908694 -0.028165588 -0.025605343 0.066732064 0.09040592 0.09818585 -0.044218197
0.05937447 0.03764299 -0.14393383 -1.2847895e-06 -0.102914855 -0.080139734 0.10158238 -0.0037118918
-0.012940511 0.05990403 0.0141908005 -0.1179653 -0.12130343 -0.030464644 0.0114441905 0.026383042

b_draw_mode f4 [4]
00000000: 795c 2fbc da2f 6b3c 3206 b3ba 63ca 15bb
-0.0107032 0.01435467 -0.0013658463 -0.0022856228

W_lay_eggs_bin f4 [256, 11]
00000000: 016a dcbd 05a0 c0bb cbd8 a73d d85c 693c
00000010: 186b 44bc c05c cdbd d1ed 9b3c 9355 cb3c
00000020: c115 643d cfee 493d b48b b73d 57db f6bd
00000030: 0343 b7bd bc06 d4bc 8118 0ebc 6bca 1dbe
00000040: f10d b2bd 5b77 11bd 0632 183d 812d 1cbc
00000050: fd4e e2bd e6b9 60bd 105f 843d bfc8 263e
00000060: 039e 433d 0687 5dbd 0ecb c0bd ba20 b9bc
00000070: ee14 eb3d f4d5 443e f392 bfbd 5bd6 b1bd
00000080: 5c51 3bbd 770f 8abd 1451 8bbc 293f 80bd
00000090: 8dba 393e 67cc ae3d c222 983c 376c 463c
000000a0: 1e77 7bbd ac00 c53d c262 debc 17e3 e1bc
000000b0: cc58 063e e3bd c93d d9d2 533c 422d 3c3d
000000c0: f77a f53d cdac c8bd 85e9 f23c 7b5c 1bbd
000000d0: 57ad d43d 73fa 983d 63c0 a2bd 1693 353c
000000e0: 0694 693d 2b49 553d 6559 e13d 3eb6 fdbc
000000f0: 2e5b 0abe 5dfb 3d3e c95a 0fbb ca79 85bd
00000100: 6176 3f3c fa5d d7bd 39dc 8f3b a21c 94bc
00000110: df24 6f3c 6dba 22bd e355 68bc 6d68 2e3c
00000120: 48af 663d 94d9 dcbd 7308 c23d 6060 08bd
00000130: 63ab d23d 06ae 2f3e 9f56 533d 7c58 cb3c
00000140: bcc0 1a3e 1b41 183e d572 813d 3598 893d
00000150: de22 163d 5ba0 213e fac1 81bd 13d5 87bb
00000160: f894 043d bb96 473d fd0e ea3c 7d4d babb
00000170: 1cb5 18be e63f 3dbe d426 613e 885e 59bd
00000180: 9ccf 2c3e 6c13 07be 071e 7ebd 53b6 563d
00000190: 5dda bd3d b022 71bc f67a c4bd 64f9 99bd
000001a0: f24c 873d e9c4 833c e750 f0bd dedb c43d
000001b0: 11de 483d e829 243d df1f ed3d 707e e43b
000001c0: 49ba a33c fd8d 74bd d10b 9f3c 3335 8bbd
000001d0: 240e 25be 8915 95bc d044 02bd 0f33 093e
000001e0: f179 f73c bb18 6f3c abb5 e8bd c680 a83d
000001f0: 3ffc eabd f56c ad3c 1a73 993d 24c2 993c
00000200: e187 e43c 48d5 e23d f7b9 803d 9a6f 29be
00000210: 71ba 0a3d e8d2 94bc 93c0 403e 1c2b 82be
00000220: d26a afbd 8863 533d b0e2 2e3d e761 f1bd
00000230: 8bfe 9abd af07 253d e58c 4e3d 8b86 a4bd
00000240: 08f7 9abd 2454 3e3e 3d8e b4bc 91ec f33d
00000250: 8260 2ebe 886f 61bd c64e 43be 8f9c 0d3e
00000260: a222 a63d 402c eb3c 06a0 1b3d c79d 3abe
00000270: 048a 1ebc d41e a43d 2ce7 20bd a61c 9abd
00000280: a7f9 7ebd a381 643d ec55 d9bd 3edc b7bd
00000290: 2cf8 5d3d 2e4a 3abd 7498 273d d605 3cbd
000002a0: 841b 663c b678 debd f98a 603d b98c 0b3e
000002b0: 8e9c e4bd 55bf 43bd 88a7 c1bd 9784 863d
000002c0: d72b 18bd d8ac b4bd 40bb 91bd b932 143d
000002d0: 4623 893e 6e85 9cbc b06f dcbd e7d9 ff3c
000002e0: d162 96bd 6ad5 813e 3979 833d f1fa 03be
000002f0: 1c39 983a f26e a0bd de41 7f3c ef96 183e
00000300: 8245 173d b9b8 2dbd 5970 c53c bc38 15bd
00000310: b2d9 0fbd 8fe2 05bd 71b0 3a3e d350 d53b
00000320: 7de4 97bd 6573 7c3d c105 e53b 8e2e 203d
00000330: 7740 b53d c3d6 743b b3b2 963d 1609 f03c
00000340: 37eb 11bd 15bf 63be 6901 053e d9fe 213d
00000350: 145a c03d ae7d 823d 7529 6b3d 05d4 913d
00000360: ca8b af3c a4de 7abb 5d47 213d 021b f53d
00000370: 3a7a c83c 470f a5bd a8de 8bbb 66f6 cb3c
00000380: 34e3 d7bd f760 7ebc 4f5f 0f3e 634b ecbd
00000390: ea72 1b3a cc80 3abc bdd8 a5bd 6d52 0abe
000003a0: d1f9 123e 4de9 523d 969b 833d 3f12 8fbe
000003b0: 8c88 b13c 9e0c b63d 8e50 5cbd 7009 493c
000003c0: 900e b8bc 474d ddbd 5623 a6bc 90a3 123c
000003d0: 9024 c6bd d5a2 abbd dff7 8c3c 2db5 7b3d
000003e0: 6d0f 043e 81d5 103e f915 1f3d da43 093c
000003f0: 083b aabd 58cf 0abe 3c73 f53d 789c 88bb
-0.10762406 -0.005878451 0.08195647 0.014243327 -0.011988424 -0.10027456 0.019034298 0.024821078
0.05568481 0.04930001 0.08962193 -0.120535545 -0.08948328 -0.025882117 -0.008672834 -0.15409248
-0.08694065 -0.035514217 0.03715708 -0.009532333 -0.11050222 -0.054864787 0.06463444 0.16287516
0.047758114 -0.054083847 -0.094137296 -0.022598613 0.114786014 0.19222242 -0.093542 -0.08683463
-0.045731887 -0.06741231 -0.017006435 -0.06262047 0.1813757 0.085350804 0.018571261 0.012110761
-0.061392896 0.09619269 -0.0271467 -0.027574105 0.13119811 0.09850671 0.012928688 0.0459416
0.11986344 -0.09798584 0.029652366 -0.037929993 0.103846245 0.074696444 -0.07946851 0.011082431
0.05702593 0.05207173 0.11003379 -0.030970689 -0.13511345 0.18552919 -0.002187418 -0.0651737
0.011685939 -0.105159715 0.0043902663 -0.01808006 0.014596193 -0.03972857 -0.014180633 0.010645014
0.056319505 -0.10783687 0.09474268 -0.033295035 0.10286596 0.17156228 0.05159628 0.024822466
0.15112585 0.14868586 0.063207306 0.06718484 0.036654346 0.15783827 -0.06335826 -0.0041452735
0.03236863 0.048727732 0.0285716 -0.005685507 -0.14912838 -0.18481407 0.21987468 -0.053068668
0.16876072 -0.13191003 -0.062040355 0.05241997 0.09270165 -0.014717743 -0.095937654 -0.075182706
0.06606473 0.016085105 -0.11734181 0.09612249 0.049039904 0.040079027 0.115783446 0.0069730803
0.019986289 -0.059705723 0.019414814 -0.06797256 -0.16118675 -0.018198745 -0.031803906 0.13398384
0.030209513 0.014593299 -0.113627754 0.082276866 -0.114738934 0.021170119 0.07492657 0.018769331
0.027896823 0.110758364 0.0628547 -0.16546479 0.03386921 -0.018166974 0.18823461 -0.25423515
-0.08565296 0.051608592 0.042696655 -0.117862515 -0.075680815 0.04029053 0.050427336 -0.080334745
-0.07566649 0.18586785 -0.02204048 0.11910356 -0.17029002 -0.055038005 -0.19073018 0.13829254
0.081120744 0.028707623 0.037994407 -0.1822425 -0.00967646 0.080136925 -0.039282963 -0.075249955
-0.062249806 0.055787694 -0.106120914 -0.08977555 0.054191753 -0.0454809 0.040916875 -0.045904003
0.014044646 -0.108628675 0.054820035 0.136279 -0.11162673 -0.04778989 -0.09455782 0.06568258
-0.037151184 -0.0882203 -0.07115793 0.036181185 0.26784724 -0.019106593 -0.1076349 0.031231834
-0.073430665 0.25358135 0.06419606 -0.12888695 0.00116137 -0.07833661 0.015579669 0.14901327
0.036931522 -0.042412493 0.024101423 -0.03643106 -0.03511972 -0.032686766 0.1823137 0.006509879
-0.074166276 0.061633486 0.0069892113 0.039106898 0.08850186 0.0037359453 0.07358303 0.029301208
-0.03562471 -0.22240861 0.12988819 0.039549682 0.09392181 0.06371628 0.057412583 0.07120518
0.021428961 -0.0038279677 0.039374698 0.11968042 0.024472345 -0.080595545 -0.004268486 0.024897765
-0.105413824 -0.015526048 0.14001201 -0.115378164 0.00059299043 -0.011383247 -0.0809798 -0.13508005
0.1435311 0.051492024 0.0642616 -0.27943608 0.021671556 0.08889125 -0.05378776 0.0122703165
-0.022467881 -0.10805755 -0.020280521 0.008950129 -0.096749425 -0.08380667 0.017208038 0.06145208
0.1289651 0.14143945 0.038839314 0.0083779935 -0.083120406 -0.13555658 0.1198487 -0.004169043

b_lay_eggs_bin f4 [11]
00000000: 8302 75b9 9f8d b9b9 a445 253b f27f 1b39
00000010: b776 19b9 22b7 ccb8 78e5 a7b9 70a2 dab8
00000020: e7e3 10ba c3da 10ba ace9 a1b9
-0.00023365956 -0.00035391466 0.002521851 0.00014829615 -0.00014635442 -9.761589e-05 -0.0003202369 -0.000104253064
-0.0005527124 -0.0005525762 -0.00030882412
