reports/ml/post_fix_pipeline_20260210/auto_improve_iter1/best_model.npz (npz, 72285 bytes, 17 tensors)

W1 f4 [48, 192]
00000000: 85f9 74bc 9656 8fbd 8bcf 063d 0819 b63e
00000010: f223 943d 247f ce3e 128f 38be f89d 743d
00000020: 4100 b8bd 5206 a73e af0f 483e de2f c2bd
00000030: 3064 3fbe 8436 06bd 0085 8e3e c69a 3a3e
00000040: 89de 62bd d80a 45be dcae f9bd 9b67 d63c
00000050: 287a f2bd f262 4d3e 2010 083d 37de 493e
00000060: 6b54 eb3d e808 853e bf24 c13e 84ce 2d3e
00000070: 8c9c f83d 4b19 a73e cabe 5abe e587 ae3d
00000080: c194 7b3d 1458 a8be 9cbc 12be 4720 803e
00000090: bf6f a73d 0c5d 9e3d cb2c 88be 3a12 7c3e
000000a0: 42e2 f13e 7437 b3be ba87 99be b048 5cbe
000000b0: 9262 8a3d 09ff db3e 2228 943e 4e05 8dbe
000000c0: 4e25 f0bd 90dd 95bd bb97 8e3c c05f 923d
000000d0: 0846 1fbe b9cc 87be e849 5dbe daef 20be
000000e0: 8366 babd c425 f83e 2375 743e 7444 ac3d
000000f0: 8a15 133e d500 313c f44a af3e 9149 07bd
00000100: 5bd3 233e 26ce 9f3e ab25 043e a646 10bc
00000110: b3f9 5fbe a95e 993b de8d 33bd c4a0 adbe
00000120: 8944 c1bc 1ed1 aa3d ff1a cebd a4c4 6abc
00000130: aacb b33d 4a44 9cbd d093 b1be b1f7 8c3d
00000140: b78b ad3d 819d c53e 0842 213e af72 5a3e
00000150: b277 0d3e 8d8e f7bd c6d2 053f 6412 cd3e
00000160: 478b c4bd 3d7e 1e3e 0592 41be 568f 51be
00000170: 442c 8d3e 68c7 08bc ee9b 003e 8c4e 6dbd
00000180: a007 05bd 12b0 853e e4ac 1bbe 73db 02be
00000190: 2641 50be 5753 143f bd67 b4be 0a82 acbc
000001a0: ef3a 1bbd 66ff acbe 4bc2 033f e372 c53e
000001b0: 5156 90be e285 4f3c 99cf bb3e bd12 7cbd
000001c0: 9103 aa3e 6cd6 bfbe 71db c93d 855a 4d3e
000001d0: ee31 da3c a626 1bbe a96f 983e a68c 4f3d
000001e0: c81c 07be 2612 173e d08e bb3d 3ee2 dd3d
000001f0: 60a4 d13d 563d 0cbe a556 cc3e 3161 99bd
00000200: 0654 dd3d b27a 463e 4936 04be fd12 a9be
00000210: 8287 40bd 692f 163e d076 bbbe 4100 1c3e
00000220: b79e 263e e99a d23d ea96 143e 26b3 3b3e
00000230: 25cd 0ebd b47e 213e a7fc 5d3e 61d4 f63c
00000240: c687 f6bd af47 d43d cdba 39be f1af eb3d
00000250: 936c 703e 74fd 3e3d 1505 1ebe 4e99 693e
00000260: 5195 afbd f25e 2b3e 1213 003e 0bfa c9bd
00000270: 5e59 7e3d cd88 9abd 2029 8abe 66f7 46bd
00000280: 32e5 3d3d e77a 143e 7976 843d fbcb b03e
00000290: 6387 0abe bfd4 b7bd f219 31bc 209b 3dbe
000002a0: a241 8d3e 94df 143e da88 453c 3258 0b3d
000002b0: 494d 0fbe fb4d 9c3e c036 09be e3a2 be3d
000002c0: 99f8 dabe e61c 473e 6444 0abe e3af b03e
000002d0: a60a 87be 15d0 673e 7240 b1bd 1ef0 323e
000002e0: 578f 3bbe 62a7 293c 1e94 983d ce6c 2abd
000002f0: 8b7b 6c3d 0789 e5bc d3c0 253e c942 503d
00000300: d8b8 913d 92d4 533e 50e6 c6bd 7ec6 6dbe
00000310: db50 01be 9470 19be 8ab3 11bd 2ca7 923e
00000320: d299 5abe ebc7 da3e f0ed 093e 647c e63d
00000330: ec81 53bc 74f8 04be e5ed 4d3e 498f 8f3e
00000340: 2fe6 20bf b6ca cfbc 1c64 7d3e 922a 8bbe
00000350: d5d9 fdbc 74cf 31be 861d 403d fa91 ccbd
00000360: e90b 0f3e 1a91 883e d0fa 573e 41d4 e03d
00000370: eca1 173c ab1e c23d 14a0 86bd 84a4 debc
00000380: f256 b73d 6165 363d 6973 d53c a5e9 7dbd
00000390: 79d0 89bd d253 0abe 8628 31bd 792f ac3d
000003a0: 6b50 333e d0e7 7e3e 6392 9b3e cf6e 5f3d
000003b0: c3a5 c7bd c6c6 d7bd ad43 4e3e a1d0 a3be
000003c0: c2a6 6c3d 1604 c7bd 0365 c5be 8548 a53d
000003d0: d819 7bbd 6177 4d3e 9f4d 00be 2c96 78bc
000003e0: 78c0 a73e c989 0bbb d33b c0be adf0 a53d
000003f0: 0a9e 0bbe 811c 8cbe cd07 aa3d 0cf2 383d
-0.014952068 -0.06998937 0.032912772 0.35565972 0.072334185 0.40331376 -0.18023327 0.059720963
-0.089844234 0.3262201 0.19537233 -0.09481786 -0.18690562 -0.032766834 0.27835846 0.18223104
-0.055388007 -0.19242418 -0.12191555 0.02617245 -0.11839706 0.20057276 0.033218503 0.19713674
0.11490711 0.25983357 0.37723348 0.1697331 0.12139234 0.32636485 -0.21361843 0.085220136
0.06142116 -0.32879698 -0.14329761 0.25024626 0.08175611 0.07732591 -0.26596674 0.24616328
0.47242934 -0.35003245 -0.29986364 -0.21512103 0.06757082 0.42968014 0.2893687 -0.2754311
-0.11725865 -0.0731765 0.017406335 0.07147169 -0.15554059 -0.26523378 -0.21610224 -0.15716496
-0.09101584 0.48466313 0.23872809 0.08411494 0.14363685 0.010803421 0.34236872 -0.033029143
0.15998594 0.31211966 0.12904994 -0.008805906 -0.21872596 0.004680474 -0.043836467 -0.33911717
-0.02359225 0.08340667 -0.10063743 -0.014329109 0.0877908 -0.076302126 -0.34683084 0.06883181
0.08473914 0.38596728 0.15747845 0.21332811 0.13815191 -0.12087736 0.5227474 0.40053093
-0.095968775 0.15477844 -0.18903358 -0.20464835 0.27572834 -0.008348323 0.12559482 -0.057936236
-0.032477975 0.26110893 -0.15202671 -0.12779026 -0.20337352 0.57939667 -0.35235396 -0.021058101
-0.037898 -0.33788604 0.5146834 0.38564214 -0.28190854 0.0126661975 0.36681822 -0.061541308
0.33205846 -0.37468278 0.09856308 0.20054062 0.026635136 -0.15151462 0.2977269 0.050671242
-0.13194573 0.14753017 0.09158099 0.10834168 0.1023643 -0.13695273 0.39909855 -0.07489241
0.10807042 0.19382742 -0.12911333 -0.330223 -0.04700423 0.14666523 -0.36614084 0.15234472
0.16271482 0.10283453 0.14510694 0.18330058 -0.03486361 0.1577099 0.2167841 0.030130567
-0.120376155 0.10365235 -0.18137665 0.115081675 0.23478918 0.04662843 -0.15431626 0.22812387
-0.08573402 0.16735438 0.12507275 -0.09862145 0.062096946 -0.07545624 -0.269845 -0.04857578
0.046361156 0.14500009 0.06467909 0.34530625 -0.13528208 -0.08976125 -0.0108094085 -0.18516207
0.27589136 0.14538413 0.012056554 0.034019656 -0.13994326 0.30528244 -0.13399792 0.09308412
-0.4276779 0.19444618 -0.13502651 0.3450919 -0.26375312 0.22637971 -0.0865487 0.1747441
-0.18316399 0.010354849 0.07450126 -0.04160767 0.057735007 -0.028019441 0.16186838 0.05084494
0.07115334 0.20686558 -0.097118974 -0.2322025 -0.126285 -0.14984351 -0.035571612 0.28643167
-0.2134774 0.4273065 0.13469672 0.112541944 -0.012909394 -0.12985402 0.20110281 0.28039005
-0.6285123 -0.025365215 0.2474522 -0.27180916 -0.03098766 -0.17364293 0.046903156 -0.0998878
0.13969387 0.26673204 0.21091771 0.10977984 0.009254914 0.09478506 -0.06573501 -0.027178057
0.089521304 0.044530276 0.026056008 -0.0619904 -0.06729216 -0.13508537 -0.043251537 0.08407492
0.17511146 0.24893117 0.30385122 0.054549035 -0.097484134 -0.1053596 0.20143004 -0.3199511
0.05777622 -0.09717576 -0.38553628 0.08070473 -0.061303943 0.2006507 -0.1252961 -0.0151725225
0.3276403 -0.0021291843 -0.37545642 0.08102546 -0.13634506 -0.27365497 0.08302269 0.04515271

b1 f4 [192]
00000000: ca29 0c3e 70a7 673d c34b ed3d 21b8 073d
00000010: 1c0e 9239 3929 c53d 0000 0000 48c8 b03d
00000020: a19e ee3d 4f50 b4b9 f815 79bc 2d6b 9f3a
00000030: 1954 13bc 44c8 7cbc 003e bf3c cbf7 9e3c
00000040: 9b82 57bb 4b8c d2ba 8060 803d 08ae 283d
00000050: da87 d1b8 714b 84bc becf 9c3c ebc0 af3d
00000060: 2e84 e1b9 1b52 b23c 2e48 803a e924 363e
00000070: 88a2 a63d 54ae 563b ed5c de3d 6547 b6bb
00000080: 2895 31bb 3a6c cd3d b531 133d 6e2b 19ba
00000090: 58fb 603d d56f ad3c 5fe8 d83d 8ea3 673e
000000a0: fb86 653d a916 13bd c038 743d f064 c03b
000000b0: 5926 a03d 2d45 b53d 1f90 0d3e 63b5 d8bd
000000c0: 5bda 0f3d 0000 0000 9a5b bc38 963c 7bbb
000000d0: c558 fa3c 1a18 ef3b c724 9abc e4f4 59ba
000000e0: 0000 0000 5ad8 333e 4e82 da3c 628b a63c
000000f0: d1ba a23d f5d3 3d3d ff69 233e 7404 b437
00000100: c9f0 d2bc d23f ba3c 1d6a 903d 9c3f de39
00000110: f351 aa3d 0c92 853b 9094 063a 9e22 30bb
00000120: 5237 9f3d 5f10 36bc 013d 693d 54f7 f6bb
00000130: cc9c 173e 514c ee3b e5b1 3d3e 7e3f 57bc
00000140: 5ff2 bc3e b9bc 313e c40f 053e 5475 63ba
00000150: 0000 0000 0000 0000 79a9 fb3d 09d0 333e
00000160: c8f5 583d 35ca e13b 0000 0000 fe43 d63b
00000170: 342d 5e3d fbb8 cb3d a256 f13c 4fb1 4d3e
00000180: e308 9d3d 72b3 f5b9 200c b73d 417a 933d
00000190: 4f25 9b3d f3ff 9b3e 8795 29ba 08e2 4b3c
000001a0: 2ff8 7abc 2072 a43c 218a 803e 0212 fc3d
000001b0: 1c48 86ba 7a90 d43a aaa7 003e ca36 073a
000001c0: fc3c cb3c 5338 c839 c764 e8bb 1f48 96ba
000001d0: 7a39 983b b3d2 203d 1ca2 1b3c 61a4 7ebb
000001e0: de03 0f3b 17d9 02bd b3a5 443d ecd2 603b
000001f0: 5245 763d 1d1b cabc ec71 a83d 6c8e 033e
00000200: cc49 773e 9202 4c3c a839 a3b8 6037 273e
00000210: 0000 0000 9a90 eb3d 8ed3 a3bc 1fdc 68bc
00000220: 764c e93d 7732 443b 541b b53b 6b14 d33c
00000230: 4c2a c7bb e32a 3c3c e972 a13c a940 00b9
00000240: 3520 843d f92b 793d 4708 7cba 235c c53d
00000250: 3020 473e 7207 0e3b 0000 0000 c7ef f83d
00000260: 0000 0000 0000 0000 a47a 343e 000d c93a
00000270: d4f9 9b3d 142a 7d3c 97a8 4ab9 0000 0000
00000280: 8801 553d 1a1a 403d 741c c0bc 94e2 9d3c
00000290: cbb7 803d b6a0 3e3a 8eab 2f3e 0000 0000
000002a0: ead9 e33c c328 9a3d cbd1 623d 9e47 5f3b
000002b0: da68 58bc 93eb 563c e291 97bc 5759 b43d
000002c0: d80f 8c3a c70a 1bbd 5109 acb9 09fa d43c
000002d0: 0000 0000 88dd 3bbc 203a e73d ff42 0d3e
000002e0: 0000 0000 cc59 15bc 7e08 383d 642d 83ba
000002f0: fa03 cb3d 0000 0000 9975 7e3e 0ded 213d
0.13687816 0.056556165 0.11586716 0.033134583 0.00027857802 0.09627003 0.0 0.086319506
0.1165135 -0.0003439211 -0.015202992 0.0012162678 -0.008992218 -0.015428606 0.023344994 0.019405266
-0.0032884243 -0.0016063539 0.06268406 0.041181594 -9.991201e-05 -0.016149255 0.019142028 0.08581718
-0.00043013826 0.021767667 0.0009787136 0.17787518 0.08136469 0.0032757716 0.10857568 -0.00556271
-0.002709696 0.10030408 0.035936076 -0.00058429583 0.0549272 0.02117149 0.10591196 0.22620985
0.05603693 -0.035910282 0.059624434 0.0058714077 0.07819814 0.08851085 0.13824509 -0.10581472
0.03512035 0.0 8.981601e-05 -0.0038335673 0.030559907 0.0072965743 -0.018816365 -0.00083143846
0.0 0.17563 0.026673462 0.020330135 0.07945789 0.046344716 0.15958403 2.1459746e-05
-0.025749581 0.02273551 0.070514895 0.00042390532 0.08316412 0.004076248 0.0005133832 -0.0026876102
0.077742234 -0.011112302 0.056942943 -0.007536808 0.14805907 0.007272281 0.18524893 -0.013137696
0.36903664 0.17357148 0.12994295 -0.0008676846 0.0 0.0 0.12288184 0.17559828
0.05296877 0.00689056 0.0 0.006538867 0.054242328 0.099473916 0.029460255 0.20087169
0.07667711 -0.0004686374 0.089378595 0.072010525 0.075754754 0.3046871 -0.00064691197 0.012444027
-0.015317961 0.02007395 0.25105384 0.12308122 -0.0010244879 0.0016217374 0.12563959 0.00051580055
0.024809353 0.00038188937 -0.0070920917 -0.0011465586 0.0046455236 0.03926344 0.009499099 -0.0038855302
0.0021822373 -0.031945314 0.048009586 0.0034305407 0.060124703 -0.024671132 0.08224854 0.12847298
0.24149245 0.012451785 -7.783185e-05 0.16329718 0.0 0.1150219 -0.019998338 -0.014212637
0.11391537 0.0029937306 0.0055269394 0.025766572 -0.00607804 0.011484834 0.019708114 -0.00012231119
0.064514555 0.06083295 -0.00096142705 0.09636714 0.19445872 0.0021671918 0.0 0.12155109
0.0 0.0 0.17624909 0.0015338957 0.0761601 0.015451927 -0.00019327026 0.0
0.052003413 0.046899892 -0.023451068 0.01927308 0.06285056 0.00072718726 0.17155287 0.0
0.02781387 0.07527306 0.055375855 0.0034069787 -0.013208592 0.013117689 -0.01850218 0.08806103
0.0010685874 -0.037852075 -0.00032813338 0.025998132 0.0 -0.011466391 0.11290383 0.13795088
0.0 -0.0091156475 0.044929974 -0.0010008034 0.09912868 0.0 0.24849547 0.03953271

W_action_type f4 [192, 4]
00000000: c4a4 35be 4165 283d 7151 35bd 514c a1bd
00000010: de83 953d a9d8 1bbd 6adf d1bc 404b 7ebb
00000020: ff61 d13b cb79 bd3c ed0e 0ebd df7c 203c
00000030: 527d 543c cd39 1f3e 645a 0ebc 590a e03b
00000040: 5900 d33d 8a83 7fbc 3142 1d3e b9a5 00be
00000050: 9951 3fbd 4d2f cbbd 223c 55bd 8c98 04bb
00000060: 3a90 3fbd 2313 c5bd fb6e c53d 8ede 353e
00000070: b2d2 c4bd 79c1 8bbd 6ba0 0dbe 5a61 65bd
00000080: 195a 9dbd f015 11bc 6f43 eb3b d081 733c
00000090: de0e 17bd f3eb 0fbe dc74 06bd 8e31 aebd
000000a0: 0154 f6bc 51a6 aabd 2e2b 3cbe 6bfe 4cbe
000000b0: b459 33be ab94 203d b054 f6bc 1bc7 aa3c
000000c0: 0d2b b63d 92c2 cd39 1ce0 edbd e23b 4a3d
000000d0: 5cb7 0dbd 42d8 713d c825 393d d114 7d3d
000000e0: 6ef8 8a3a 5640 0a3d 157b f0bc 1d26 f53d
000000f0: ea04 97bc 192b b9bd 95d7 bebc 1247 053e
00000100: cb5b 4b3e 6a59 ff3c d68b 3f3d 089a 953d
00000110: e328 723c 4f7b 0dbe 8d10 35bd 7c85 89bb
00000120: d03d 643d 8091 603e 6b4d 5f3e 38fa 203e
00000130: 5bf7 84bc 67af 053d a0fd 34bc da98 bfbd
00000140: 8842 94bd b885 6c3c 082a 923b 9345 98bd
00000150: 6d16 a03e bf5c 6b3e 9785 6fbd 9534 4a3e
00000160: 97a8 53bd 903b c23d afef c2bd 8813 30bd
00000170: b837 6dbd 7546 b13d f825 f8bc e7cd 9d3d
00000180: b6a8 c83d 62ec 0ebd f45f c13a 8d94 96bd
00000190: 2838 b5bd fc3e a9bd dae6 92b9 e67c 043d
000001a0: b7cf fb3c 8335 04bd 2370 3a3e f155 0abd
000001b0: 04f9 3f3e e295 fe3d f937 893e e264 06bd
000001c0: 3798 a7bd 839b 1bbe adf1 cc3d 513a e43d
000001d0: a9f7 cd3c a075 a23d 882a e53d 433a 0d3d
000001e0: d648 f5bd a7a4 bfbc 3f5d ac3d c6d3 233e
000001f0: 4c44 71bd 1fe5 f0bd d475 d73c b72f 6f3c
00000200: 2b81 edbd 379e 9cbd 62ba 693e 0eb4 603c
00000210: 6111 18bd 6a73 d93b 3aff 6abb b020 d73d
00000220: 210d 13bd a299 b53d f66a 103e 3d24 743c
00000230: 64c0 b9bd 6122 c33d ed6e 043e 93dc 5fbd
00000240: 372f d23b b115 85bc 02d9 49bc 80f8 dabc
00000250: 7b69 473d 8669 b3bd 80a6 eabc 58d5 a83c
00000260: 4c51 2cbe dd68 623c 008d 1c3d 807b 643d
00000270: 6ffb 8c3d 05d8 8a3a 9392 d2bd 1367 fbbd
00000280: 280d 7f3e 8ddf c03d 3c0c 0b3e 0987 8e3d
00000290: 94e2 ffbd 564b 7bbd d0b5 0d3e c815 853c
000002a0: 24a4 48be 42c0 903d afc6 2f3b 7ac9 bd3d
000002b0: b5a1 bbbc 65ef c9bd aac4 18be c99f 0cbd
000002c0: 8ab5 843d 6598 283d 0f52 0c3e 6fa9 8b3d
000002d0: f051 47bd 05b5 12bd 6ac2 fe3d 64f1 c53d
000002e0: f2ad ad3d cecd 84be 5409 cabd 7de6 7f3d
000002f0: 4424 a2bb 8907 a0bd 2eb1 a33d 05d5 213e
00000300: 0e82 efbd aec0 ba3b 5173 4f3d d52e 1d3e
00000310: aca5 b5bd 86de 3ebd 9e48 0b3d 0256 84bd
00000320: 88d4 91bd 562c 773c 4b48 4e3e 4ca4 3c3e
00000330: 36a4 723d 7f4e adbd ce55 dbbd eda6 463e
00000340: e9a7 e23c 46e0 bb3d 2f5c 393d 6f72 e2ba
00000350: 7972 8a3d cb13 b5bd 3fc7 b4bc 0c89 333e
00000360: 486f 65bd 0533 1a3d 9565 10be ac54 913d
00000370: 07b9 e03c 9c7a 15bd 0019 f43b b795 293e
00000380: 4aac 9fbd ea59 cdbd a5eb b3bc 4906 60be
00000390: 2f49 f2bd bbb2 e8bc 5627 78be 6eeb 7a3d
000003a0: 83bd 2fbe 4afc a8bb 05ec e3bd 8aa1 0c3d
000003b0: 09d5 8abd c9f6 cf3d d416 0dbc e92d d03d
000003c0: 386b 2fbd 4ec2 c13c 660e 25be c51e a43c
000003d0: 3663 9cbd 904f 423e 0abc ccbc 5431 15bd
000003e0: 3cad 033e 0de8 2cbe 3af8 c73d 009c b8bd
000003f0: f6bd 163d 398e 983c 87fc f13d e218 073e
-0.17738634 0.04111219 -0.04426712 -0.07875884 0.07300542 -0.03804842 -0.025619227 -0.0038802177
0.006389856 0.023129364 -0.034682203 0.009795397 0.012969332 0.15549393 -0.008688543 0.006837171
0.10302801 -0.015595326 0.15357281 -0.12563218 -0.046708677 -0.09921131 -0.0520593 -0.0020232527
-0.046768405 -0.09622791 0.096403085 0.17760679 -0.096104994 -0.06824011 -0.13830726 -0.056001045
-0.076832004 -0.008855328 0.0071796696 0.014862493 -0.036879413 -0.14054851 -0.03282629 -0.085055456
-0.030069353 -0.083325036 -0.18375847 -0.20018928 -0.17514688 0.03920428 -0.030069679 0.020846894
0.0889493 0.00039245613 -0.11615011 0.049373515 -0.034598693 0.05904413 0.045202047 0.06178743
0.0010602602 0.03375276 -0.029355565 0.1197016 -0.01843496 -0.09041423 -0.023296157 0.13015392
0.19859235 0.031170566 0.046764217 0.0730477 0.014780256 -0.1381657 -0.044205237 -0.004196821
0.05572301 0.21930504 0.21806876 0.15720451 -0.01623123 0.03263798 -0.011046797 -0.09355326
-0.07239252 0.014436178 0.004460577 -0.07435145 0.3126711 0.22984599 -0.05847701 0.19746621
-0.05167445 0.09484017 -0.09518372 -0.042987376 -0.057914466 0.08656017 -0.030291542 0.077052884
0.09797804 -0.0348934 0.0014753328 -0.073525526 -0.088486016 -0.082639664 -0.00028019288 0.032345675
0.030738695 -0.032277595 0.1820684 -0.033773366 0.18747336 0.12430932 0.26800516 -0.032811053
-0.081833296 -0.15196042 0.100070335 0.111439355 0.025142508 0.079325914 0.11189753 0.03447939
-0.11976783 -0.023393942 0.08416223 0.15998754 -0.058903024 -0.117624514 0.026301302 0.014598778
-0.115969025 -0.076473646 0.22825006 0.013714803 -0.03712595 0.006636073 -0.0035857693 0.105042815
-0.035901193 0.08867194 0.14103302 0.014901218 -0.09069899 0.09528042 0.1293294 -0.054653715
0.00641432 -0.016245695 -0.012319805 -0.026729822 0.04868458 -0.087603614 -0.028643847 0.020609543
-0.16827887 0.013818947 0.038220406 0.05578184 0.06883895 0.0010592943 -0.10281863 -0.12275519
0.24907362 0.09417639 0.13578886 0.0695935 -0.12494388 -0.061351143 0.13838887 0.016245738
-0.19593865 0.0706792 0.0026821306 0.09266944 -0.022904256 -0.09860114 -0.14918771 -0.03433207
0.06479938 0.04116096 0.13703178 0.06819426 -0.048662126 -0.035817165 0.12439425 0.09665182
0.08480443 -0.25938267 -0.098650604 0.06247567 -0.004948171 -0.07813937 0.07992779 0.15803917
-0.11694728 0.0056992387 0.050647084 0.15349896 -0.0886949 -0.046598934 0.0340048 -0.06461717
-0.07120615 0.015086254 0.20144765 0.1842205 0.059238635 -0.084622376 -0.10709725 0.19399615
0.027667956 0.09173636 0.04525393 -0.0017276536 0.06760115 -0.08841666 -0.022067664 0.17532748
-0.05601433 0.037646312 -0.1410125 0.07096228 0.027431978 -0.036493883 0.0074492693 0.16561018
-0.077965334 -0.10026915 -0.02196295 -0.21877398 -0.11830365 -0.028405538 -0.24233755 0.06125968
-0.17162137 -0.0051570283 -0.111290015 0.034333743 -0.067789145 0.101544924 -0.0086114 0.10165007
-0.04282686 0.023652222 -0.16118774 0.020034203 -0.076361105 0.18975663 -0.024992008 -0.036423996
0.12859052 -0.16885395 0.09764142 -0.0901413 0.036802255 0.018622505 0.11815744 0.13193086

b_action_type f4 [4]
00000000: cedd 5e3a 6672 67bb ab32 44bc 6d21 703c
0.00085016794 -0.003531599 -0.011974971 0.014656407

W_play_habitat f4 [192, 4]
00000000: 6bae 083e 0e7c b83d ba1e 6fbc 27a4 06bd
00000010: bab0 013e de5c 1d3d e1b5 20bd 7899 873d
00000020: 8e81 3bb9 0652 38bc 2715 bcbc 6358 27be
00000030: 533a 1abd 55c5 1bbc 9140 afbd 664c 8dbd
00000040: 1fdb e6bd cc41 523d df45 863d 7d3a 76bb
00000050: 0f42 95bd be44 c43c 8e12 1abd 8eb8 763d
00000060: ca21 4f3c b8dd 96bd 1800 26bd ac6e d23d
00000070: ac51 d8bd 1192 633e 6952 1f3d 8bed 7dbc
00000080: 1a7a 843c 52a1 d5bd 81c3 4f3d 964f 123c
00000090: 84df 3cbd a126 0e3d 9ce3 06be 4273 5ebe
000000a0: ead7 06ba ef4e 513d 52f0 0dbe 892c 183d
000000b0: 4a12 1a3e 11b5 78bd 9b38 653d f176 473c
000000c0: bbb8 643c 814b 6d3e 1328 9abd 62b8 9c3d
000000d0: 017b 1bbd fd19 90bd 5a57 09be b7c5 bfbd
000000e0: 8098 a2bc 587a ccbd b450 273e 52ac 273e
000000f0: ebdc 9e3d c8a9 bf3d 5f0f 343d 9a1d 643d
00000100: 6270 b53b cc45 debd 5dcc 0e3e c940 d53d
00000110: 2232 5a3c b482 153e dfe2 63bd f808 3ebc
00000120: 73e0 d43d 6036 a63d 8eeb 0c3e c0a0 b63d
00000130: 6740 d5bd fddf 12be 103b b7bb 5f6d 0b3e
00000140: 8a9a f53d 0810 c3ba 6e26 a73e 60fe b93d
00000150: ae99 023e 8f50 b63d 23e7 7ebe 0660 193e
00000160: bcac 37bd 872f 4ebe 3c03 45bb c2da efbd
00000170: f90c 72bc f58c 583d 1600 3cbd f95b 46be
00000180: 540a eabd 504f 663e d7bf fcbb e00f d63c
00000190: 0eea 02bd c300 683e fd00 d93d d154 493d
000001a0: 11ee ef3c 82cf 7e3d 9641 d33c 5a8c 39bd
000001b0: a596 ebbd 2f38 af3d 3097 c9bd 7ebc 0abe
000001c0: d610 e3bd c6d6 103e ea52 43bb 4d06 5abb
000001d0: 231f aebd 66a3 0dbe bbd8 dc3d 8ba2 a73d
000001e0: be2b 3abc 57a4 103c fe40 f83d 8dd2 d73c
000001f0: 431a 16be fb24 85bd e763 94bc a370 92bd
00000200: 3f3c 453d d20b 49bd 2fca 293d 176f 23bd
00000210: 501f ff3d 5fa8 25be 1b8d b13c f604 9fbb
00000220: 5301 053d 5c88 9dbd 5a66 583d ab59 9dbd
00000230: 9833 a83d 262e c6bd 8045 d0bd c86d 993c
00000240: 45c7 073e 0451 073d 8b19 073d 111c bf3b
00000250: 0052 20be c50c 9a3c 902e e43d fb35 b3bd
00000260: f3eb e93d dc0b cebd 133b d73c 4324 ab3d
00000270: 15ed afbd 39b2 d93d 636e 663c 49be dd3c
00000280: 43a9 b0bc 076b 2d3b be00 b7bd 2b6b 0b3d
00000290: 2c5f ba3d d413 673d 2247 93bd df67 08be
000002a0: a043 6d3d 5622 08be 0e4b 8f3c b082 e0bb
000002b0: 119f d5bd 4b78 20bc c882 af3d 47de 733d
000002c0: b333 fdbd 9b4e 1d3c 5e32 083d ff95 a13d
000002d0: 1d4e 4f3e 330e 48bd 5acb d3bd 97a7 fdbd
000002e0: da51 86bd 6416 1abc 520f 9a3d 540e f43c
000002f0: 78c9 493e d3d3 1c3e 34c4 cabd 7c1c 763d
00000300: 1d72 fb3b 94b6 0e3e 0011 853d 0321 35be
00000310: 755c 763d cbd5 abbd 317b a3bd e38d bc3c
00000320: 398d 75bc c4a3 aebd f678 8bbd 18f6 2abd
00000330: 6067 893c d748 9cbd fdc7 613d fe19 29bd
00000340: 3c98 6f3e b615 023d 3fad 04be 3354 163e
00000350: db1f 49bc cf86 ebbd 5cb4 203e 71d8 87bd
00000360: a96c 63be 287a 0cbd a826 1dbe 33a4 853c
00000370: 0723 cfbd 2c6e b5bd 72f3 d63d d517 533c
00000380: e47c bc3d ca15 063d e65d afbd 1326 c23c
00000390: 5ddb d13d 1a4e 903d c5e0 96bd 2c76 7cbe
000003a0: 52b7 953d e008 89bc 9982 9d3d 863c 893d
000003b0: fe19 0a3e 0ec2 ca3b 0095 c5bd b6ef 863d
000003c0: 958a 043d 58f2 a93d 6330 4cbd 83bd dc3d
000003d0: c6d5 873d 3658 74bc 062b 31bd 8b42 1abc
000003e0: 5269 6abd e2f9 24be d0c9 1ebe 7a4c 04be
000003f0: d0cc 94bd 52aa 063b a074 493d 687f 063d
0.13347785 0.090080366 -0.014594728 -0.03287139 0.12665072 0.038418643 -0.039235953 0.06621069
-0.00017881973 -0.011250025 -0.022959305 -0.1634231 -0.03765328 -0.009507497 -0.08557237 -0.068993375
-0.11272263 0.05133228 0.065562956 -0.0037571483 -0.0728799 0.02395856 -0.03761535 0.0602346
0.012642333 -0.07366508 -0.040527433 0.10275015 -0.10562453 0.22223689 0.03889695 -0.015498529
0.016171504 -0.1043116 0.050723556 0.008930108 -0.0461116 0.03470481 -0.13172764 -0.21723655
-0.0005143868 0.051100668 -0.13861206 0.037151847 0.15046039 -0.060719553 0.055962186 0.012174354
0.013960059 0.23173334 -0.07527175 0.07652356 -0.037959103 -0.07036207 -0.13412228 -0.09363883
-0.019848108 -0.09984273 0.1633938 0.16374329 0.077569805 0.09358555 0.04395997 0.055692293
0.0055370787 -0.108531564 0.13945146 0.104127474 0.013317617 0.1460064 -0.055636283 -0.011598818
0.10394373 0.0811584 0.13761732 0.089173794 -0.104126744 -0.14343257 -0.0055917576 0.1361594
0.119923666 -0.0014882097 0.32646507 0.09081721 0.12753937 0.08902084 -0.24892859 0.14978036
-0.044842467 -0.20135318 -0.0030061742 -0.117116466 -0.014773601 0.052868802 -0.04589852 -0.19371022
-0.11427751 0.22491193 -0.007713299 0.026130617 -0.031961493 0.2265654 0.105958916 0.049153153
0.029288324 0.062209614 0.02578811 -0.045299865 -0.115033425 0.08555638 -0.0984329 -0.13548467
-0.110871956 0.1414443 -0.002980406 -0.0033267916 -0.085020326 -0.13831863 0.107835256 0.081852995
-0.011362968 0.008828244 0.12121771 0.026345516 -0.14658456 -0.06501194 -0.018114043 -0.0715039
0.04815316 -0.04908354 0.041452583 -0.039900865 0.12457144 -0.1617751 0.02167373 -0.0048528863
0.032471966 -0.07692024 0.052831985 -0.076831184 0.08212966 -0.09676771 -0.10169506 0.018729106
0.13259609 0.033036247 0.032983344 0.005832203 -0.1565628 0.018804917 0.111416936 -0.0875053
0.11421957 -0.10060856 0.026273286 0.08356526 -0.08590142 0.106296964 0.014064404 0.027068274
-0.021565085 0.0026461498 -0.089356884 0.03403775 0.09100184 0.056415394 -0.07191302 -0.13320874
0.05792582 -0.13294348 0.017491844 -0.0068515167 -0.1043073 -0.009794305 0.085698664 0.059538152
-0.123633765 0.009601261 0.03325116 0.078899376 0.20244642 -0.048841666 -0.103415206 -0.12385481
-0.06558581 -0.009404752 0.07522453 0.029791988 0.1970576 0.1531518 -0.09900704 0.06008576
0.0076735155 0.13936836 0.06497383 -0.17688374 0.060146768 -0.08390387 -0.07982481 0.023016876
-0.014987283 -0.085273296 -0.06810181 -0.0417386 0.016772926 -0.076310806 0.055122364 -0.041284554
0.23397917 0.031758986 -0.12956713 0.14680557 -0.012275661 -0.11500322 0.15693802 -0.0663308
-0.2220942 -0.034296185 -0.15346777 0.016313648 -0.10114103 -0.08858904 0.10495652 0.0128841
0.092035085 0.032735623 -0.085628316 0.023699796 0.10246918 0.07046147 -0.0736709 -0.24654454
0.07310356 -0.016727865 0.07690925 0.06700997 0.13486478 0.006187684 -0.0964756 0.0658869
0.032358725 0.082981765 -0.049850833 0.10778334 0.06632571 -0.014913609 -0.04325392 -0.009415279
-0.057229348 -0.16110948 -0.15506673 -0.12919798 -0.072656274 0.0020548296 0.049183488 0.032836348

b_play_habitat f4 [4]
00000000: d859 133c 8c58 0f3b 1fe2 c3bb c97d aabb
0.008993588 0.0021872846 -0.0059778835 -0.005202983

W_gain_food_primary f4 [192, 7]
00000000: 4d79 a1bd c24d d8bc 3c8a ba3d 7dbc 513e
00000010: 804e 243e a782 20be 6ab9 05bd 5427 193e
00000020: c123 e4bd d4fe b33d 6829 c13b 72fb c6bd
00000030: 3239 7cbc fc73 39be dbb2 1fbd 3440 923c
00000040: 644e 7e3c b5f1 21bd b51d 73bd a874 0f3d
00000050: bb78 1ebe c6d5 eabc 7291 8abb 5ce5 1e3e
00000060: ebeb 283d 30d8 673d 967e 16bd c6a5 503e
00000070: 5c54 813d ef2f efbd 8b56 133d d843 4ebc
00000080: bde4 1e3d 529a 1bbe 6138 9b3c 9be5 3d3e
00000090: 75c0 1ebe 3a23 b4bd b3ff b3bd ae23 3f3d
000000a0: f8ca 703d 84d5 3d3e 0422 4abe c53c 0cbd
000000b0: b554 74bd aaa2 933d 5bef 733d b972 72bc
000000c0: e220 953d 04d4 d4bd 2c1c 963c 8c49 9a3d
000000d0: abfb 413d 4e85 ce3d 505d 883d 881b 59bd
000000e0: a8e2 70bd 7fcf 3b3c 2880 e83c 837a b8bc
000000f0: 8635 dabb 384f ff3d 1652 2bbd 402c 263d
00000100: 89c4 eabc bbd2 bfbb 90c2 ef3d 6249 b03d
00000110: d4dd 743c 58b6 77be db4a 9dbd cfea 553d
00000120: 32d6 9e3c 231e 8c3c 5028 1bbe 7d8e cb3c
00000130: cbea 9e3b 6326 63be 1185 04be 6fe1 be3d
00000140: 5389 dabd 39f9 e83d 8731 01be 809f 22bc
00000150: 7c7e 933d aa97 20be 760c 00bb c2b3 44bd
00000160: f3ab a43d 7b45 82bd 4291 45bb 577b 49bd
00000170: 515c 3b3e 6db0 853d 992f 35bc 0f11 a7bd
00000180: a3ee 09bd f3b7 10be 5c4d 2dbd 8b56 aabd
00000190: bea5 16bc eaa5 05be fa43 4a3c 5a32 613c
000001a0: 5e5f cdbb e687 023d 2935 e0bd c8ad 713d
000001b0: cbe8 8cbc 7f38 9cbd 1698 2c3d 71b3 ab3c
000001c0: 69ee 78bd b352 03bd bee6 c53d cc09 9f3d
000001d0: 83b4 0e3e c020 62bc fe66 dcbb a933 d53c
000001e0: 1a17 60be 1726 823e fada a33d 9226 413d
000001f0: bbfd f4bd ce92 21be 7eef 18be f85d cab7
00000200: 83c4 c6bd 4e19 d63d 97b9 573d 66d8 8abd
00000210: ea80 9fbc c586 723d 108b b6bd b36a b73d
00000220: d8cf 2fbc 11b5 dd3c c75b e63d e4f5 bc3c
00000230: afed 713d 74ac 8cbd ebea 293e 0ecc e5bd
00000240: bef8 463e a793 0a3e 85ed b03c fed4 bb3c
00000250: 2643 95bd fb66 90bd df28 74bd 35ce fb3d
00000260: 56b3 b93c ed8c 393c 206c 1ebe 3298 efbc
00000270: 0c54 62bd 80b9 ba3c 4190 123d d9e9 35be
00000280: d46a 75bd 16d2 5839 cd39 163d 4824 913d
00000290: 4f66 d4bd da18 a8bd 2811 1f3b ede1 9bbd
000002a0: 1464 97bd e333 94bd b083 bf3d 0353 b73d
000002b0: ace7 893c 0a9e 3b3e d6da 2ebc 59af ca3d
000002c0: 9241 afb9 bcd1 993d b95f 3d3d d524 cc3b
000002d0: b188 40bd a8e8 f9bc 4dcb e83d 8d3e 28be
000002e0: 5ade 1d3e c0ee 24be 2925 a7bd adcf 6a3c
000002f0: 6dd1 d9bc 221a 573e a78d 8ebe 4699 12be
00000300: 4605 ce3c 65de 84bc 552b f23c 91e5 f2bd
00000310: cbfc a9bd d854 b13c 822e cfba 91ec 853e
00000320: 72f9 753e 3bf3 883d 964e 223e 7316 623c
00000330: 6962 79bd 9d13 a2bd 8741 973e cf7c ddbc
00000340: 8cd6 ef3d be52 323e 43c1 413d 7365 243d
00000350: d1d9 06bd 9c2b 26bc be54 0ebe 2687 9f3d
00000360: 1528 dc3d 73e9 553e 2044 a7bd 6ecf d73b
00000370: 5606 e63d 6d16 9a3c 4508 b13c 170a 10be
00000380: 5fa6 1bbd 4a7f 823c 39c4 0fbe 4928 553e
00000390: f95a 3dbc d5d1 adbd 3da8 89bc a41f fa3c
000003a0: baeb 13be 5240 7b3d 906a 88bd 7f57 b8bd
000003b0: c494 bdbc c1f2 16be 12b5 eb3b 4a01 1ebe
000003c0: ed2a 7b3d 0e28 2b3d da53 67bc ad2f f1bc
000003d0: a052 c13d 30f0 2d3d d260 52bc 5d32 64bd
000003e0: d4e7 96be 1ed1 20be 9866 ad3b 4b8f 61bd
000003f0: 3ded 75be 6ba5 403e 9aa7 c9bc d66b 7fbe
-0.078844644 -0.026404265 0.09108397 0.20482059 0.1604557 -0.1567484 -0.032647528 0.14956409
-0.11139632 0.08788839 0.0058948286 -0.09715928 -0.015394496 -0.18110651 -0.03898893 0.01785288
0.0155216195 -0.03953715 -0.059354503 0.03502336 -0.15475743 -0.028666388 -0.004228764 0.15517181
0.041240614 0.056602657 -0.036741816 0.20375738 0.063149184 -0.116790645 0.035971206 -0.012589417
0.03879236 -0.15195587 0.018947782 0.18544619 -0.15503104 -0.087957814 -0.08789005 0.046664886
0.058787316 0.18538481 -0.19739538 -0.03423764 -0.059651095 0.0720876 0.05955444 -0.01479786
0.072816625 -0.10392001 0.01832398 0.07533559 0.04735915 0.100840196 0.06658423 -0.05300477
-0.058809906 0.011463045 0.028381422 -0.022519356 -0.0066592125 0.12466282 -0.04182633 0.040569544
-0.028658168 -0.0058539785 0.11707032 0.08607747 0.014945466 -0.24190652 -0.07680293 0.052225884
0.019389246 0.017104214 -0.15152097 0.024848217 0.004849767 -0.22182612 -0.12941386 0.09320342
-0.10670724 0.113756604 -0.1261655 -0.009925723 0.07201859 -0.15682855 -0.0019538677 -0.048022993
0.08040609 -0.063609086 -0.0030146395 -0.04918989 0.18296935 0.06527791 -0.011058711 -0.081575505
-0.033674847 -0.14132671 -0.042310104 -0.08317288 -0.009194789 -0.13051572 0.012345308 0.013744915
-0.006267472 0.031867884 -0.109476395 0.05900362 -0.017200848 -0.07627963 0.042137228 0.020959588
-0.06077424 -0.03206129 0.09663151 0.077655405 0.13936047 -0.0138017535 -0.006726145 0.02602561
-0.21883813 0.25419685 0.08000751 0.047155924 -0.11962458 -0.15778658 -0.14935109 -2.4124034e-05
-0.097054504 0.10454045 0.052667227 -0.06779556 -0.01947065 0.059210557 -0.08913243 0.08955898
-0.010730706 0.027063878 0.11247974 0.023066469 0.059064563 -0.0686883 0.1659352 -0.11220561
0.19430825 0.13532887 0.021597633 0.022928711 -0.07288198 -0.07050892 -0.05960929 0.1229519
0.022668522 0.011325103 -0.15470934 -0.029247377 -0.055255935 0.022793531 0.035782102 -0.17764987
-0.059916332 0.00020677628 0.036676217 0.07086998 -0.10371076 -0.08207865 0.00242717 -0.07611451
-0.07392135 -0.07236459 0.09351289 0.0895138 0.016834103 0.18322006 -0.010672292 0.09896726
-0.00033427455 0.07510707 0.046233866 0.0062299767 -0.04700536 -0.030506447 0.113669015 -0.16430111
0.15416852 -0.16106701 -0.081613846 0.01433174 -0.02658912 0.21006063 -0.27842447 -0.14316282
0.025148999 -0.016219327 0.029561678 -0.118601926 -0.083001696 0.021646902 -0.0015806707 0.26157048
0.24020937 0.066870175 0.1585029 0.013799298 -0.060884867 -0.07913897 0.2954218 -0.027037052
0.117108434 0.17414376 0.04730345 0.040135812 -0.03292257 -0.010142233 -0.13899514 0.077894494
0.107498325 0.20889835 -0.08167291 0.006586007 0.11231677 0.018809522 0.021610389 -0.14066349
-0.03800046 0.015929837 -0.14039697 0.20816149 -0.011557334 -0.08487288 -0.016803855 0.030532666
-0.14445391 0.061340638 -0.0666095 -0.090010636 -0.023142226 -0.14741041 0.007193216 -0.15430179
0.061320234 0.041786246 -0.014119113 -0.029441679 0.094395876 0.04246539 -0.012840467 -0.055712093
-0.29473746 -0.15704772 0.005291771 -0.055068295 -0.2401628 0.18813102 -0.024616051 -0.2494348

b_gain_food_primary f4 [7]
00000000: fb48 123a 6170 1cbb c66b 1abc 92ca 3f3b
00000010: 17a2 f8b9 fd08 a03c 3bdc 2fbc
0.0005580333 -0.0023870694 -0.009425109 0.0029265028 -0.00047423012 0.019535536 -0.010733659

W_draw_mode f4 [192, 4]
00000000: f29a e83d 964d cdbd 7755 5b3c 8693 1a3d
00000010: 688c 33be 61e2 ba39 2302 97bd 15e6 fabb
00000020: 3e62 53be 053c 373d a46f fbbd 6ef7 bebd
00000030: dc6b dc3d 96c9 653e 7b58 02bc a38f e0bc
00000040: 88b4 713d e644 1b3d b4e2 bfbd 5f0f 00be
00000050: eb37 573d 4ce7 a1bc 2884 d4bc f050 cdbd
00000060: 7a87 323d 46f7 8d3a 3a6e 543c 6588 083e
00000070: 6d95 1fbd c791 b53d 5ae5 373d aea8 14be
00000080: 35fd cdbd e75c 3dbe 2054 d8bd aada 6fbe
00000090: e6b3 2ebe 22a2 3dbe 1da2 0b3d 2608 013e
000000a0: f692 47bd e7bb 5e3a e68c 3fbd fa29 eabc
000000b0: a471 8cbe 1d17 a1bd fce6 6abd 023c 2b3d
000000c0: 6366 01bc 1420 4ebd d4aa 3f3e 349f 9fbd
000000d0: 5e8e a3bd 715b 023e b4a7 873c de5f 50bd
000000e0: 15b2 a2bd 6ba7 363c 0000 7fbe 79e8 90bb
000000f0: 6b0d e33d a229 9fbd eb4c a4bd daa4 123d
00000100: f61d e53d 989b 23bb c42b 083d 1dfc 7e3e
00000110: 8c2f 353d b732 ab3d e3a0 553c 38af 38bc
00000120: c353 033e 97d3 623d 62bc cabd 5b16 a3bd
00000130: fe2b 6fbd 1d87 33be 0fc0 5f3d 4e2b 14bc
00000140: 4682 373e 116c 74bd f8b3 bbb9 3926 3bbe
00000150: c08b cbbd 36a8 fb3b 35e2 2a3e a73b 313e
00000160: f3cd 53bd b599 4c3e 6dd9 91bd 8e45 2b3d
00000170: ddc8 88bc 34a8 54bd 07f6 75bd b93b e6bd
00000180: f624 6cbe bdf8 b23c 48f4 123d d980 b73c
00000190: 48a4 4cbe 6fa7 bc3d a41e f4bd f029 2e3b
000001a0: 3d0a 84be 9a97 0bbe 7ed4 6bbd 5760 efbd
000001b0: 36c3 99bc 0492 0ebe 1b6e d7bd 4f7f 773d
000001c0: e13d 603d 5f2f 0e3d aaca dabd 9393 153e
000001d0: 65fc 973d 70b9 1d3d 3cad 743e a93d efbd
000001e0: 7d82 1abe 5507 793a 617f 033d 2ff0 bebc
000001f0: b469 1fbd 1be2 5ebd 96ce 89be cf78 ccbd
00000200: 3a2e f53d 2e09 d4bd ca2c 5cbd d184 cfbd
00000210: 4fe9 823d 23c1 383d 31ac b5bd ed87 41bd
00000220: 396a 003e edc5 a73d bd55 6f3e f7ae 483d
00000230: 1bcc 2abd 7d12 583d 760e cdbc 1850 1cbe
00000240: 5258 de3c a949 963d 7c1e bd3d 567c 18be
00000250: 4e44 c1bd 2919 103d 0c0e e7bc 61a9 a8bc
00000260: 7bb1 01be 5bc3 e33d b362 113e 7643 033d
00000270: 5bd0 debd 4f92 a43c 3a19 d0bd c0d4 b93c
00000280: 3040 963d 59db 323d c632 2ebe 716d f8bd
00000290: f635 37bd 187d 843d 192c d0bd d5ec 8d3b
000002a0: a7c5 0d3e 6979 adbc eecf 063d d368 313c
000002b0: 813e 393c ef76 46be de03 143d 5203 fc3d
000002c0: 7af9 8a3c 7f51 763d fec8 f43d 794c 6d3d
000002d0: cba7 e7bc 1755 9f3d b5b9 933d 12bd ed3d
000002e0: abfa 93bc 0c54 133d 5e97 b03d 2585 263d
000002f0: 669d 273e 67a5 1a3d d1f1 4ebe 9056 0a3e
00000300: 53f0 d23c 8570 ed3d 9ea3 de3d 131a 873c
00000310: 423a ddbd b127 313d e4bc e6bd 58d3 7a3d
00000320: 3964 d7bd bb3a d23b 4078 00be 6c82 60be
00000330: c7fc da3c 37a8 3dbd a7f5 aa3d e22a 2a3d
00000340: 43f1 113e 8717 a1bd 46d7 1fbc 2d91 1fbe
00000350: b85f 1cbe 0f9c 8abc 6a22 babd 7c13 cabc
00000360: b6bb f6bc 6083 5a3d 612e 1ebc d261 363d
00000370: 11bf 03bd a7f4 98bd 4291 333d d7d9 e7bc
00000380: a1c8 9fbc 0283 78bd 13b9 6a3e f507 91bd
00000390: 0954 0e3e d062 bf3c 0280 61be 575c 29be
000003a0: 24bb 22bd 6f30 a23d 9a75 d8bd cd2d 67bd
000003b0: 56e0 b4bc fde0 bd3d a3bb d43d 73d4 febd
000003c0: d466 493c 534e 37bd ffef 503e a48c 843d
000003d0: 4603 1a3e 2b1f 953d 69a4 ddbd 0ff8 2c3c
000003e0: 3698 47bd b699 0e3e a967 4b3d 694a 763e
000003f0: 14fb c1bc fb70 aa3d 9f2d 713d 51d4 8d3d
0.113576785 -0.10024564 0.013387076 0.037738346 -0.1753403 0.0003564535 -0.073734544 -0.0076568224
-0.20642945 0.044734973 -0.12277153 -0.09324537 0.1076276 0.2244018 -0.007955666 -0.027412241
0.05901006 0.037907504 -0.09369412 -0.12505864 0.052543562 -0.019763611 -0.025941923 -0.10025203
0.04358623 0.001083114 0.012965733 0.1333328 -0.038960863 0.088656954 0.04489646 -0.14517471
-0.10058061 -0.1849247 -0.105629206 -0.23423257 -0.17060813 -0.1851888 0.03409015 0.12600765
-0.048724137 0.00084966276 -0.04676523 -0.02858447 -0.2743045 -0.07865737 -0.05734919 0.041805275
-0.007897946 -0.05032356 0.1871751 -0.077940375 -0.07986139 0.12730195 0.01655946 -0.050872676
-0.07944123 0.011148314 -0.24902344 -0.004422244 0.11086544 -0.07771613 -0.080224834 0.035801746
0.11187355 -0.0024964567 0.033244863 0.24900861 0.044234797 0.083592825 0.013038847 -0.011272244
0.12824921 0.05537757 -0.098992124 -0.07963248 -0.058391564 -0.1753201 0.05462652 -0.009043528
0.17920789 -0.059673373 -0.00035801507 -0.182763 -0.099387646 0.0076799644 0.16687854 0.17307912
-0.05171008 0.1998051 -0.07121549 0.04181438 -0.016697342 -0.051918224 -0.060049083 -0.1124186
-0.23060974 0.021847123 0.035877496 0.022400307 -0.19984543 0.09211623 -0.11919907 0.002657529
-0.2578906 -0.1363205 -0.057575695 -0.11688297 -0.018769842 -0.13922888 -0.10519048 0.060424145
0.054746512 0.034713145 -0.10683186 0.14607076 0.07421187 0.038506925 0.23894209 -0.116816826
-0.1508884 0.0009499689 0.0321039 -0.023307888 -0.038919166 -0.05441485 -0.26915425 -0.0998398
0.11971708 -0.103533134 -0.05375365 -0.101327546 0.06392156 0.045106065 -0.088707335 -0.04724877
0.1254052 0.08192048 0.2337255 0.048994984 -0.041698556 0.052752007 -0.02503131 -0.15264928
0.027141724 0.07338268 0.0923433 -0.1489118 -0.09436856 0.035180245 -0.02820494 -0.020588579
-0.1266536 0.111212455 0.14197807 0.032046758 -0.108795844 0.020089297 -0.101610616 0.022684455
0.073364615 0.043666217 -0.17011556 -0.12130249 -0.044729196 0.06469172 -0.10164661 0.004331211
0.1384493 -0.021176057 0.03291314 0.010828215 0.011306406 -0.19381307 0.0361365 0.12305321
0.016964663 0.060136314 0.11952399 0.057934258 -0.028278252 0.077799015 0.07213155 0.11608328
-0.018063864 0.035968825 0.08622621 0.04065432 0.16368636 0.037755396 -0.20209433 0.13509583
0.025749361 0.11593727 0.10871051 0.016491925 -0.108021274 0.043250743 -0.11266497 0.06123671
-0.10517163 0.0064156926 -0.12545872 -0.21924752 0.026731862 -0.046303 0.08347636 0.041544802
0.1425219 -0.078658156 -0.009755915 -0.15582724 -0.15270889 -0.016920118 -0.09088595 -0.024667494
-0.030118804 0.053347945 -0.009654612 0.044526882 -0.032164637 -0.07468539 0.0438397 -0.028302116
-0.019504847 -0.060671814 0.22922163 -0.07081596 0.13899244 0.023362547 -0.22021487 -0.16539131
-0.039729252 0.07919394 -0.10569306 -0.056440163 -0.022079628 0.09271429 0.10387351 -0.12442865
0.012292583 -0.04475243 0.20404051 0.064721376 0.15040311 0.072813354 -0.108223744 0.010557189
-0.048729144 0.13925824 0.049659405 0.24051823 -0.023679294 0.083223306 0.0588814 0.06925262

b_draw_mode f4 [4]
00000000: 2547 88bb c839 213d 0280 9bbc cde1 84bc
-0.0041588717 0.039361745 -0.018981937 -0.016220951

W_lay_eggs_bin f4 [192, 11]
00000000: b3d7 08be 3503 1dbe 3d37 9e3d 214c 99bd
00000010: d4a3 f13c ba18 9abc df57 55be 0e33 cabc
00000020: 3a00 0d3e 94f2 17be c27d 68bd ae37 8bbc
00000030: a964 bd3d 47a3 c03c 3b89 513d f0df 18be
00000040: 0906 1d3e da67 19bd 1880 92bd 0f8f 173d
00000050: ad11 cdbc 7aee 6d3d d0e2 34bd 72d7 acbd
00000060: 9dd2 b2bc 970f 8cbd ff82 cb3d 23e3 0cbd
00000070: 6677 f1b9 7589 fdbd 0c96 8bba 00d6 61bd
00000080: 5c19 273d aecc 1f3c 9b8b b8bd 1b70 98bd
00000090: 12d4 dd3c b4c4 433d bb13 e0bc 698b 86be
000000a0: 1ec9 00bc 369b f8bd 2d42 bebc 6618 37bd
000000b0: cf1f 76bc 9d19 34bd 31d9 cf3c f8c6 4f3c
000000c0: b610 d5bd d5da 89bd 2d2c eb3d c905 a1bd
000000d0: 2cd9 b9bd 3193 f0bc cd51 0a3e bf60 373e
000000e0: cd5e 273e ee9c 4b3e db03 2d3e f360 b8bd
000000f0: 05c6 c13d 0819 223d 27f1 d0bc 7d71 7dbe
00000100: 09df 5bbe fd46 f63d c9b6 fabd a009 353d
00000110: d961 88bd 657f e93d fbe9 b33c ef6a 8ebd
00000120: 86c6 63bb 8e68 a6ba f2a1 d93b 7b92 82bc
00000130: 5e12 f83d d874 08bd 8957 133d 7d63 9dbd
00000140: b5b5 633b 9137 aabd fb1f a0be 3800 203d
00000150: e109 1fbc bddf 05be d662 c3bc f0dd 7ebe
00000160: a46f 92bc b401 07be e702 55bd 08c2 8c3c
00000170: e53a f83c ee97 5d3c 7208 8a3c d0d4 d63d
00000180: 96b1 2d3c 3e5b 8bbd a74f 153e 3697 83bd
00000190: 9826 42bd a227 2a3e 40f6 883c d8f9 09bd
000001a0: 2954 473c 7ee4 753e aa32 05be cb79 5abb
000001b0: 7ad3 d6bc 810c 26be 3e0d 3a3e 9d10 313e
000001c0: 7419 45bd bcb8 09be ab94 763d 0350 fbbd
000001d0: 5691 1bbe 0b2b 13bd e34a fabc d776 ac3d
000001e0: c061 45be 7453 8a3c d0f2 55be e3bb a63e
000001f0: 44e6 bb3d e361 55be ca2d 5d3d c362 1c3e
00000200: bae2 093e 49d9 d13c 4f93 04be 66d2 2ebe
00000210: cac5 993d 34ce 8abd 4c06 afbc e155 3cbd
00000220: 5097 ca3d 875f 96bd 9111 f9bd ecf6 613d
00000230: 066c 8f3d 029e 7bbd e917 053e af76 18be
00000240: a0f3 c1bc a2f1 3bbd a18d 29be c04a 043e
00000250: ec9e a3bc 6b5a 12be b605 0abe e82b b0bd
00000260: 048f b23d a3a1 7cbd 9c45 d03d 8cc5 633e
00000270: f976 d53d 7fde 46bb 1efc cd3d 131c a33d
00000280: 569c e7bd 5530 79be 9f5b 8b3c 4cea 57be
00000290: e32d 99bc d031 483d ba86 40be 1dcc 403e
000002a0: eae7 063b 8c18 ff3d 35a9 13bc d10c 0a3e
000002b0: 9bdb c43d 7b44 e13c 897d b1bc f03e d73c
000002c0: 9d4e 76be 64ee d7bd 7273 febd 0f3e b4bd
000002d0: 6899 0fbe 0828 69bc 936f 97bc fe5c cc3c
000002e0: 5fef 4cbd 03f6 623e 2004 70bd cb40 e3bd
000002f0: 9e20 dd3c 1178 61bd 68b4 ccbd 7f86 663d
00000300: 4d97 1abd 7079 ae3d c248 0bbd 482a 613d
00000310: f745 bd3d 7b44 243e 29ea 9b3d 82f9 afbb
00000320: 530c acbd 311b c73b 2ca6 3abe 9b9c 08bd
00000330: 34cb 62bd c5a6 12bd 3ce3 d23d 6389 b93d
00000340: 99cd eabc a6ed 623e 9f01 0bbe bf7f 1db9
00000350: c6cf 13bd b41c 453e 262a 70bd cb74 9abd
00000360: 1269 b13c 4fd3 ffbd 4bd1 253d e1df ffbd
00000370: d41e 363d 99ab 15be 31e2 083b 2836 13bd
00000380: 2682 633d 76c7 35bd 0202 11be 7b07 273e
00000390: 8564 183e 8ab2 3d3d 1836 8c3d 34c3 b1bd
000003a0: 8507 aa3d a96b e23d 31c3 0f3d 5766 e0bd
000003b0: c7fb 83bc b116 cdbd b751 e5bd d853 a53c
000003c0: 64ba 393d 742c b63d 8ff6 503d f878 8d3c
000003d0: cf80 0bbe 1cd4 e03d 50d2 803c 7692 603d
000003e0: 0ab1 323d f91a 3d3d 2014 32bd 783d 06bd
000003f0: 03a4 c23d eea5 e5bc f506 a0bc 190d e43d
-0.13363533 -0.15333255 0.077253796 -0.074852236 0.029497065 -0.018810619 -0.20834301 -0.024682548
0.13769618 -0.1483863 -0.056760557 -0.016994324 0.09247715 0.023515357 0.051156264 -0.14929175
0.15334333 -0.037452556 -0.07153338 0.037001666 -0.025032843 0.058088757 -0.044161618 -0.084395304
-0.021828944 -0.06838911 0.09937095 -0.034396302 -0.0004605606 -0.123797335 -0.0010649576 -0.055135727
0.04079567 0.009753389 -0.09011003 -0.074432574 0.027078662 0.047795013 -0.027353158 -0.26278237
-0.00786045 -0.12138979 -0.023224914 -0.044701003 -0.015022232 -0.04396974 0.02537212 0.012681715
-0.10403578 -0.06731192 0.11483035 -0.078624316 -0.090746254 -0.029367061 0.13507767 0.17908
0.16344757 0.19884083 0.16896002 -0.090028666 0.09461597 0.039574653 -0.025505615 -0.24750324
-0.214718 0.12025259 -0.12241895 0.044198632 -0.06659288 0.11401252 0.021962157 -0.0695399
-0.003475578 -0.0012695955 0.00664162 -0.015938988 0.12112878 -0.033314556 0.035972152 -0.076849915
0.0034745757 -0.0831138 -0.312744 0.03906271 -0.009706945 -0.1307363 -0.02385084 -0.2488935
-0.0178755 -0.13184243 -0.05200472 0.017182365 0.03030152 0.013524992 0.01684973 0.104898095
0.010601422 -0.068045124 0.14581166 -0.064253256 -0.047400087 0.16616681 0.016718984 -0.033685535
0.012166061 0.24012944 -0.13007608 -0.0033336754 -0.026223887 -0.16215707 0.18169114 0.17291494
-0.048119977 -0.13449377 0.060200375 -0.122711204 -0.1519216 -0.03592972 -0.030553287 0.084211044
-0.1927557 0.016885497 -0.20893407 0.3256522 0.09174779 -0.20838122 0.053998746 0.1527205
0.13465396 0.025616305 -0.12946819 -0.17072448 0.075084284 -0.067776114 -0.021365307 -0.045980338
0.09892142 -0.07342439 -0.12161554 0.055167124 0.07003026 -0.061429985 0.12997402 -0.14889024
-0.02367574 -0.045884736 -0.16557933 0.1291914 -0.01997324 -0.14292304 -0.13478741 -0.086021245
0.08718684 -0.061677586 0.10169527 0.22243327 0.10423083 -0.003034502 0.10057853 0.07964339
-0.113091156 -0.24334843 0.017011462 -0.21085471 -0.018698638 0.04887563 -0.18801394 0.18827863
0.002058501 0.12455854 -0.00901251 0.13481452 0.09612199 0.027498474 -0.021666305 0.026275128
-0.24053426 -0.10543516 -0.12424363 -0.08800899 -0.14023364 -0.014230736 -0.01848582 0.024946686
-0.05003297 0.22164159 -0.058597684 -0.11096343 0.026993092 -0.055046145 -0.09995347 0.05628061
-0.037741948 0.08519256 -0.034004934 0.054971963 0.0924186 0.16041748 0.07613022 -0.00537032
-0.08400788 0.0060762395 -0.18227452 -0.033352476 -0.05536957 -0.035803575 0.10297248 0.090594076
-0.02866249 0.22160968 -0.13574837 -0.00015020276 -0.03608682 0.1924923 -0.058633946 -0.07541808
0.021656547 -0.12491476 0.0404828 -0.124938734 0.044462994 -0.1461624 0.0020886774 -0.03594032
0.05554404 -0.044379674 -0.14160922 0.16311447 0.14882095 0.046312846 0.06846255 -0.0867981
0.083022155 0.11055691 0.03509826 -0.1095702 -0.016111268 -0.10014094 -0.111972265 0.020181581
0.04534377 0.088951975 0.051016387 0.017269596 -0.13623355 0.10977957 0.015725285 0.054827176
0.04362587 0.0461683 -0.043476224 -0.032773465 0.09503939 -0.028033223 -0.019534567 0.11135311

b_lay_eggs_bin f4 [11]
00000000: 49ab 25bb d2c0 0cbc 0607 bb3c 3fc1 be3c
00000010: a382 f2bb 9625 a8bb d2c9 73bb 851f adbb
00000020: 99fb 24ba 8c86 eebb f3f6 b5bb
-0.0025279096 -0.008590894 0.022830497 0.023285506 -0.007400827 -0.0051314337 -0.0037199152 -0.0052832984
-0.00062935945 -0.007279223 -0.0055531203

W_play_cost_bin f4 [192, 7]
00000000: 696c 353e e206 d53c 954a d53d cd15 83bd
00000010: 442c 063d 6c51 cc3d bb59 efbd 5c85 943d
00000020: e12b c7bd 76cb d33d df7d 403d b372 87be
00000030: 17dd 9e3d 7758 303c 835e 93bd 01b1 b5bc
00000040: bca3 3fbe d4a9 07be 21c2 f33b b01b fd39
00000050: 48c3 f73d 7482 3abe 0307 153d dce2 3f3d
00000060: d99d 30be 1844 1abe 11eb be3d a23e bb3d
00000070: 7fb8 9dbc f01e 223d 8a0a 583c b7a4 f5ba
00000080: 468e 46be 5d76 9dbd 2ebb bfbd 368b 01bc
00000090: 5315 c03d 7b2a 673c 816f 2d3d c3c3 d3bc
000000a0: 8259 c73d 2dc7 a2bd 52a9 063c 824c 293d
000000b0: da5d 983c 22c6 1dbe 146a 2dbe 4060 84bc
000000c0: aeba 40be 38b2 303d 7d76 0ebe 552a 193e
000000d0: 7c47 9cbd 7d28 b0bd 197e a33d a458 713d
000000e0: a76f 8bbd fe10 06bd a955 903d b982 1abd
000000f0: 6996 c7bd e8ed 18bd 0bc1 d13d fcba 7fbc
00000100: 862b b4bc 603a f63c bd83 2e3e 54b5 0cbe
00000110: c21a 50bd c2a3 cf3d c432 d5bd 5792 a5bc
00000120: 3533 d53d eb7d df3c dcb2 c23d 3b25 e2bd
00000130: c1a0 053d 30b8 2cbc c09a 00bc f045 333d
00000140: 2449 fb3d ea89 653d ba9d 383d 977b dcbd
00000150: 2808 e6bd 896c cdbb 85e0 723d 20ee d9bd
00000160: 8b61 32bd 1d45 98be abe9 6f3d a5a8 013e
00000170: 7c5b a2bd 8b71 09be 5365 fa3d d51d 46bc
00000180: 94ee 483c fc99 f0ba 4304 32be a24a a3bd
00000190: 24dd 33be 5340 a8bd bde3 083d 6fd9 243d
000001a0: 52d1 e1bb 4bea e8bc bd14 133d 3d67 a9bb
000001b0: 98ad 01be ccb0 f5bd fb20 3e3e 8811 933d
000001c0: a2e4 3bbe b3b4 023e fdfe b43d 15bd 463d
000001d0: b2c8 0dbe c509 41bd becf cb3d e027 663c
000001e0: c045 2b3e f6a1 99bc c88f 653c 5742 58ba
000001f0: d8b7 713c cef8 82bd 3bbb 85bd 85a8 913d
00000200: 12e8 df3d 620e 4abc fef6 51bd 78d9 3fbd
00000210: f3ff a5bd a97e 05be 63ab 3fbd c5df cdbc
00000220: 6c51 9f3d 0279 e93d 7f8b 4c3d dd24 f9bd
00000230: 4ade 3b3d 9823 213d 6e16 b43d f245 953c
00000240: a2a3 0fbe c9b4 fe3d 5820 783d 529f a4bd
00000250: e69d ce3d a432 e3bd b9aa e3bd b011 47bd
00000260: d456 b33c bb57 c73d bb9e e73d f60d ab3d
00000270: ad68 94be 3dbb 37be 17d4 47bd a90a 6b3d
00000280: 83b4 3ebc 47da b0bc 4797 b5bd 9cc8 bdbd
00000290: 0608 70bc 76ef 2ebe 4e98 393d b490 c23c
000002a0: 8189 583c 4a41 b8bd aac3 c7bd d26e 0bbb
000002b0: a9ed 99bd c909 883d 171a a33d 6b74 743d
000002c0: 1d3d dd3d 04cc d33c ff99 a1bd 3150 26be
000002d0: e1dd 07be 4952 c23d 4777 193e c02f 853d
000002e0: cc47 8c3c e143 72bc 3375 c9bd e7e2 4e3d
000002f0: c5f6 74bd af09 51bd d675 da3d 5c70 ac3d
00000300: 2785 ffbd 7e25 57be ed12 b8bb 86e5 923d
00000310: 5652 0dbd 802b cd3d 361f 04be 3707 0b3e
00000320: 8182 9a3d a071 3ebe 1030 95bd 7a57 84bd
00000330: 6ea7 1fbd ca6a d63d 758c b0ba 39bf 22bd
00000340: 2467 76bd eec8 ec3d 58b1 0f3e ec30 efbd
00000350: 5208 80bd e410 81bc e767 1a3e 1eb7 123e
00000360: 476c 353d 3b10 be3c 7e90 0e3e 226e 76bd
00000370: 0c74 30bd 7f76 0dbe 8946 973d 79ed abbd
00000380: 4e5b 703e 5777 c43d eb20 3e3d 802d c63d
00000390: c696 273d fa59 acbd b30c 063d 050b 5cbd
000003a0: c524 88bb 70db 303e 84c8 a3bd fd5d 5e3b
000003b0: fea8 02bd fe1c 09bd 2b23 73bc 33db 043e
000003c0: d5b2 1fbe adee 0b3d 0d54 853d e27b 20bd
000003d0: 8ed1 fdbd 78d7 88bc ecb0 283d 7b2d 8a3c
000003e0: 6b28 03be a152 6fbd 6dc5 0dbe db9e eebc
000003f0: 3830 f3bd 5900 93bd f276 9b3d 52b5 43bd
0.17717136 0.026004259 0.10414616 -0.064006425 0.03275706 0.099764675 -0.116870366 0.07251999
-0.09725166 0.103415415 0.04699504 -0.26454696 0.07757013 0.010763279 -0.07195761 -0.022179129
-0.18714803 -0.13248378 0.0074389135 0.0004827655 0.12097794 -0.18213826 0.03638364 0.04684721
-0.17247714 -0.15065038 0.09322179 0.09142806 -0.019253014 0.039580286 0.013186106 -0.0018741105
-0.1939021 -0.07688592 -0.093618736 -0.007906726 0.09379067 0.014109249 0.042342667 -0.025850182
0.09733869 -0.07948146 0.00821908 0.04133273 0.01859944 -0.15407613 -0.16934997 -0.016159177
-0.18821213 0.043138713 -0.13912387 0.14957555 -0.07630822 -0.086014725 0.079830356 0.058922425
-0.06808405 -0.03273105 0.070475884 -0.037722323 -0.09745485 -0.03733626 0.10241898 -0.015608545
-0.02199341 0.030057132 0.17042442 -0.13741046 -0.05080677 0.10138656 -0.104100734 -0.020211382
0.104101576 0.027281722 0.09506771 -0.110422574 0.03262401 -0.010541961 -0.007849395 0.04376787
0.1226981 0.05603973 0.045072295 -0.107657604 -0.112320244 -0.006269042 0.05929615 -0.10641122
-0.043550055 -0.2974023 0.058572453 0.12661989 -0.079276055 -0.1342222 0.12226357 -0.012092073
0.012263913 -0.0018356438 -0.17384438 -0.079732195 -0.17564827 -0.08215394 0.033420313 0.040246423
-0.006891408 -0.028432032 0.03590845 -0.0051697777 -0.12663877 -0.11996612 0.18567269 0.07181078
-0.18348935 0.12764244 0.08837698 0.048520166 -0.1384609 -0.047128458 0.09951733 0.014047593
0.16725826 -0.018753987 0.014011331 -0.00082496315 0.014753304 -0.06395112 -0.06529852 0.07112221
0.10932936 -0.012332531 -0.05126094 -0.046838254 -0.08105459 -0.13036598 -0.046794306 -0.025131116
0.07779202 0.114000335 0.04993772 -0.12165234 0.04586629 0.039340585 0.087933406 0.01822183
-0.14027265 0.12436826 0.06057772 -0.080382004 0.100887105 -0.11093643 -0.11116547 -0.048600852
0.021891989 0.0973353 0.11309572 0.08352272 -0.2898611 -0.1794252 -0.04878625 0.057383213
-0.011639717 -0.021588458 -0.088667445 -0.09266779 -0.01465035 -0.17083535 0.045311265 0.02375064
0.013216377 -0.08996828 -0.09754117 -0.002127577 -0.07516033 0.06642491 0.079639606 0.059681337
0.10802672 0.025854118 -0.078907005 -0.16241528 -0.13268234 0.09488351 0.14986907 0.06503248
0.01712408 -0.014786691 -0.09836807 0.05050936 -0.05980565 -0.051034626 0.10667007 0.08419868
-0.12476569 -0.21010396 -0.0056174905 0.07172684 -0.03450235 0.100180626 -0.12902531 0.13576971
0.07544423 -0.18598032 -0.07284558 -0.06461997 -0.038978033 0.10469587 -0.0013469594 -0.039733145
-0.060156956 0.11561762 0.14032495 -0.11679253 -0.06251587 -0.015755124 0.15078698 0.14327666
0.044292714 0.023201099 0.13922307 -0.060163625 -0.04307942 -0.13814734 0.073865004 -0.08394904
0.2347233 0.09593075 0.04641811 0.09676647 0.040915273 -0.08415599 0.032726955 -0.053721447
-0.004154774 0.17271209 -0.0799723 0.0033930533 -0.031899445 -0.033474915 -0.014839928 0.12974243
-0.15595563 0.034163166 0.06510172 -0.039180644 -0.12393485 -0.016704306 0.04118435 0.01686739
-0.12808387 -0.05842841 -0.13844843 -0.029128483 -0.11874431 -0.07177801 0.075910464 -0.047780342

b_play_cost_bin f4 [7]
00000000: b5d0 2abc ae18 b23c 1ced 963b 75a7 d43b
00000010: e2ea 31bb 26fb 98bb ab32 76bc
-0.010425736 0.021740284 0.0046059024 0.006489689 -0.0027148058 -0.004668611 -0.015026729
