reports/ml/auto_improve_factorized_stageB_ramp/iter_003/factorized_model.npz (npz, 94230 bytes, 17 tensors)

W1 f4 [48, 256]
000000 65 45 a3 3e 43 e4 5b 3d 03 23 e4 3d a6 d2 a4 3d
       0.3188888 0.053684484 0.111394905 0.080479905
000010 bd 01 d2 be fd ce 2b be db c4 bb 3e e6 3e 96 3e
       -0.4101695 -0.16778179 0.36673626 0.29344863
000020 ca 5c df 3d 01 d3 ce 3e c8 2a 95 3e 4a 03 38 be
       0.1090637 0.40395358 0.29134202 -0.17970005
000030 0b 82 89 3e fe 43 c5 3e 57 9c 09 3f 3c 14 d2 bc
       0.26857027 0.38528436 0.5375418 -0.025644414
000040 a4 f2 24 3d 6a ae a2 bd 59 30 73 bd 0a 2a 2e 3e
       0.040270463 -0.07943423 -0.05937228 0.17008224
000050 00 05 4a bd fd ea 93 3c 2f a5 b4 3e 6b 27 e7 bc
       -0.049321175 0.018056387 0.35282275 -0.028217038
000060 29 f1 8e be 1c 85 84 be fc 3e 71 bd 83 69 f8 bc
       -0.27918366 -0.25882804 -0.058897957 -0.03032375
000070 66 c2 aa 3e 89 e1 8b 3e c0 8f 95 3d 3e 1f 9e be
       0.3335144 0.27320507 0.07302809 -0.3088321
000080 d1 68 e9 3d 9c 53 74 bd fa b3 3a bd 6d a2 3d bd
       0.11396945 -0.05965005 -0.045581795 -0.04629748
000090 db ae 8f bd 2d 67 32 be 6d 18 04 3e c3 fa 2a bd
       -0.07015773 -0.17422171 0.12899943 -0.04174305
0000a0 59 b8 f9 3e e9 a8 8b 3e 7e 50 dc 3e e8 a7 15 3f
       0.4877346 0.27277306 0.4303016 0.5845933
0000b0 d1 26 c7 bd 3b e6 42 3d 31 ae 3e 3e d0 ad 2c 3e
       -0.097242005 0.047582846 0.18621136 0.16863179
0000c0 46 85 69 3d 9d 3b 8b 3e 83 1e 4e 3e e2 7e 50 bd
       0.057011865 0.2719392 0.20128827 -0.050902255
0000d0 a1 ed d0 3e 04 b9 f7 3d b2 60 54 3e b0 ed 6a 3e
       0.40806296 0.12095836 0.20740011 0.22942233
0000e0 c4 c9 04 be f6 98 64 bd f2 54 4e be ce e9 99 be
       -0.12967592 -0.055809937 -0.20149592 -0.3006119
0000f0 93 e5 bd be b4 3c 4f 3e 1f ca 42 3d 24 42 0c 3e
       -0.37089214 0.20238 0.04755604 0.13697106
000100 a6 36 08 be d5 b3 83 3e 56 93 04 bc 99 77 14 be
       -0.13302097 0.25723138 -0.008091768 -0.14498748
000110 bf b8 4c be bd fd 56 bd 91 5d f0 3e 76 74 16 3e
       -0.1999235 -0.052488077 0.46946386 0.14692864
000120 10 1e 35 be 54 59 b0 3e 06 a6 48 bc c1 8a cf 3d
       -0.17687249 0.34443152 -0.012246614 0.10133887
000130 d3 2a 9a bd 98 99 66 3c 83 db fc bd 09 14 44 3e
       -0.07527699 0.014074706 -0.12346556 0.19148268
000140 67 37 77 3d 9f 3b a5 3c bc 15 00 be 02 3e 3f 3e
       0.06035557 0.020170031 -0.12508291 0.18675998
000150 6e d5 e3 3d 7e 17 a4 be 4d 3a f2 bd 28 a2 bc bd
       0.11124693 -0.32049173 -0.11827526 -0.09210616
000160 8d d7 5d 3e 6a bb 2c 3e a5 04 f8 3e f0 dd 0a bf
       0.21664257 0.16868368 0.48441043 -0.542449
000170 54 8f 9d be a8 11 9f 3e 33 22 10 be b6 5c 4b 3c
       -0.30773413 0.31068158 -0.14075546 0.012412241
000180 10 73 56 bd 28 c0 1b 3e b5 cd 95 bd 7c 68 f8 bd
       -0.052355826 0.1521002 -0.07314626 -0.12129304
000190 08 63 21 be 2c f8 0a 3e 14 f9 09 be 6b ff 27 3e
       -0.15760434 0.13571233 -0.13473922 0.16406028
0001a0 eb 83 4b bd 4d cd bc be 25 16 a2 bd 55 19 74 3e
       -0.049686354 -0.36875382 -0.0791438 0.23837788
0001b0 fa db ba be 09 f6 c1 be 97 a2 20 be 3f 1d fe 3d
       -0.36495954 -0.37883022 -0.15687023 0.12407922
0001c0 32 e4 5a be 22 9a 4a 3e fa 20 44 3e 29 91 1b 3f
       -0.21376112 0.1978536 0.19153205 0.6076837
0001d0 9c 62 ea 3c 19 c8 2e be b9 3a a6 be bf e4 52 be
       0.028611474 -0.17068519 -0.32466677 -0.20595072
0001e0 5a 00 5b 3e 1d ce 11 be 91 bd 8a 3e 10 dc 80 bd
       0.21386853 -0.14238782 0.27097753 -0.062919736
0001f0 47 a3 9b bd a3 b1 8c 3e a7 a7 28 be 40 c2 85 be
       -0.07599502 0.27479276 -0.16470204 -0.26124763
000200 ac 6f 80 3e 4d 15 a2 bc e6 1a 37 be d5 9e 3f be
       0.250852 -0.019785548 -0.17881355 -0.18712933
000210 43 35 56 3e 8d 32 78 bd 46 69 04 3e f3 89 52 3d
       0.20918755 -0.060595084 0.12930784 0.05140109
000220 55 4b 6b 3c 30 d5 9b 3e 94 4e 51 3e 5b 5c 0e bd
       0.014361222 0.30436087 0.20440131 -0.034756046
000230 a7 d7 23 be e8 51 5c 3e 2a a4 72 3e 16 90 39 3e
       -0.16000234 0.2151562 0.23695436 0.1812137
000240 0c 67 8e 3e ad 3f 08 3e da cf b2 3e 50 dc 0c be
       0.27812994 0.1330554 0.34924203 -0.13755918
000250 87 89 9b bd 69 6d bc 3e 7c 60 fc bd 33 c5 90 be
       -0.07594591 0.36802223 -0.123230904 -0.2827545
000260 26 f2 09 3f 49 0e b2 be 0b 75 9e be c2 2e c5 3e
       0.53885114 -0.34776524 -0.30948672 0.38512236
000270 d0 82 bf bd 5d 3f 36 3e 99 b5 a7 bd 43 21 c9 be
       -0.093511224 0.17797609 -0.08188934 -0.3928319
000280 ce 82 40 3d 5e e8 34 3e 10 59 ca bd 7f d0 da 3d
       0.046999745 0.17666766 -0.098802686 0.10684299
000290 7d 22 88 3e d3 f7 5a be e1 49 11 3e f4 bf ad bd
       0.26588812 -0.213836 0.14188339 -0.08483878
0002a0 ed 85 01 bc 48 b4 b6 be 6b 51 d2 bc 01 82 cd bd
       -0.007905466 -0.3568442 -0.025673589 -0.10034562
0002b0 39 99 52 3d 13 04 86 bd 64 8e a9 3e cd 8a 11 bd
       0.051415656 -0.06543746 0.33116448 -0.03553276
0002c0 4d 96 29 3e 9b 4d 62 39 3d 58 e5 bd e4 6c 95 3e
       0.16561241 0.0002158195 -0.11198471 0.2918464
0002d0 21 ce 45 be e7 a9 eb bd 8b 35 85 3c ae a2 d5 3e
       -0.19316913 -0.11507016 0.016260883 0.41725677
0002e0 6f 9f b2 3d 70 25 73 be e9 1b 81 be 3c 5e 71 3e
       0.08721816 -0.2374475 -0.25216606 0.23571104
0002f0 38 f4 a8 3d 18 a0 01 3d 79 07 03 be 97 19 ea 3e
       0.08249706 0.031646818 -0.1279582 0.45722649
000300 46 70 cf be 01 57 60 3d 19 b5 7f 3e 0e f9 43 3e
       -0.40515345 0.054770473 0.24971427 0.19137976
000310 e5 4d 38 3e 87 86 06 bf 0b 5c 49 3e 4c ec ab bd
       0.17998464 -0.5254902 0.19664018 -0.083946794
000320 9c 8f 34 be 2d 81 ec 3d e7 64 23 3e 51 1f 82 bd
       -0.17632908 0.11548076 0.1595646 -0.063536294
000330 1a 0b 56 bc 3a 15 d7 3e ce 28 83 bb 75 da aa be
       -0.01306417 0.42008382 -0.004002667 -0.33369794
000340 7c e5 f9 3a e8 6c a2 3e 1d 3b 07 be 85 b8 13 3d
       0.0019065584 0.31723714 -0.13206144 0.036064643
000350 4b ad c3 3e 60 d1 28 be f1 19 95 be 81 6a 53 3e
       0.3821815 -0.1648612 -0.29121354 0.20646097
000360 b9 f8 16 3f 87 6e 82 be 62 cb 8f 3e 0a 1b 97 b9
       0.5897327 -0.2547495 0.28084856 -0.0002882111
000370 f3 6d 05 be a6 51 10 3e d4 b1 2a 3d cb 48 9a 3e
       -0.13030224 0.14093646 0.041673496 0.30133662
000380 34 cd 07 be c9 76 20 3f e4 27 ff 3e 17 98 ba 3c
       -0.13261873 0.6268125 0.49835122 0.0227776
000390 d4 66 27 3e 09 55 88 3e 1f 1e 5b be 54 ce 8a bd
       0.1634782 0.26627377 -0.21398209 -0.06777635
0003a0 3f fa 0a 3f a1 bb 1e be f8 54 e1 3d f2 5a c7 3d
       0.54288095 -0.15501262 0.11002535 0.09734143
0003b0 7a 42 42 be a7 b4 21 3d 43 fa be be 5b f9 57 3e
       -0.18970671 0.039478924 -0.3730031 0.21091215
0003c0 ed c0 07 bd 07 ee 69 be a7 fb 76 3e 80 81 10 3d
       -0.033142973 -0.22844706 0.24119435 0.03527975
0003d0 0d 61 24 3d b8 45 8f 3d fd 4e e4 bd 71 24 48 3d
       0.040131617 0.0699572 -0.11147878 0.04886288
0003e0 47 aa 43 be 04 18 51 be bd c4 f5 3d 96 aa 05 3e
       -0.19107924 -0.20419317 0.120004155 0.13053355
0003f0 a1 fd a8 3d d5 b9 21 3e 8f 57 da 3d 1a f9 b2 3d
       0.08251501 0.15793546 0.10661232 0.087389186

b1 f4 [256]
000000 0e 9a e8 3d 5d cd c8 3b 01 fa 7a 3c 74 5e da 3d
       0.113575086 0.006127997 0.015318395 0.10662547
000010 ff a9 05 bc 3f 8b 23 bc d1 94 79 3e 5b be 1b 3e
       -0.008158206 -0.009981929 0.24373175 0.15209334
000020 4c 3a 67 bc c5 52 9c 3c f7 e8 08 3d 75 c6 5a bb
       -0.01411302 0.019082436 0.033425298 -0.003338245
000030 8e 65 50 3e 0c 14 00 3e fb 73 09 3e f9 24 3f 3b
       0.2035124 0.12507647 0.1342315 0.0029166325
000040 39 dc f6 3d 1d 46 ab bc 1d ae a7 3d f1 0f e3 3d
       0.12053723 -0.020907456 0.08187506 0.11087025
000050 84 a4 11 bd f8 d0 43 3e f0 7b 46 bd 00 00 00 00
       -0.035557285 0.19122684 -0.04845804 0.0
000060 00 00 00 00 9c 14 96 bc eb fa a8 3a 00 00 00 00
       0.0 -0.018320374 0.0012892162 0.0
000070 9c 0e c0 bc e2 14 8f b7 6a aa ab 3d 00 00 00 00
       -0.023444466 -1.7056653e-05 0.08382113 0.0
000080 55 0a c0 3c 6c 3d 36 3d b6 1f 8e bb ae 0b 39 3d
       0.023442427 0.04449217 -0.0043372763 0.045177154
000090 09 3c dc 3d 00 00 00 00 ef 8c 4b 3b ad 6d 71 3d
       0.10753638 0.0 0.0031059345 0.058942486
0000a0 21 2e 26 3e f0 6a bd 3d 8b 88 25 3e 7a 12 f4 3d
       0.16228534 0.09248912 0.16165368 0.119175866
0000b0 ee c3 7e b8 c6 bf d3 3d c8 84 a2 3c 41 99 9a bc
       -6.0740793e-05 0.10339312 0.019838706 -0.018871905
0000c0 f7 67 9a bc af 6b e7 bc a5 2a f8 bb f7 fe 84 bd
       -0.018848402 -0.02824959 -0.007573443 -0.06493943
0000d0 67 31 17 3d f4 c0 bd b9 c1 16 7e ba 1c 86 07 3e
       0.036912348 -0.0003619265 -0.00096927217 0.13234752
0000e0 b3 9a 8e 39 63 7e 31 3c cc a4 27 39 82 3f 71 ba
       0.0002719961 0.010833356 0.00015987753 -0.0009202884
0000f0 f4 c6 6c 3c 26 19 14 bc f9 3a 09 3b a5 fb a8 3d
       0.014451731 -0.009039199 0.0020939691 0.082511224
000100 94 da 40 3c a1 5c 1c 39 4c f1 53 bc 19 73 65 3b
       0.011770863 0.00014911826 -0.012935948 0.003501123
000110 91 49 b3 ba dc aa 9c bb 3e 6f 29 3e 00 00 00 00
       -0.0013678541 -0.00478111 0.16546342 0.0
000120 73 99 0f 3c 2b 42 ca 3c ec 49 44 3b 0a 0a cf 3c
       0.0087646125 0.024689754 0.0029951287 0.025273342
000130 a8 5d c5 3a 4e 36 98 3c 09 43 5e 3d 97 5d 0f 3d
       0.0015057819 0.018580582 0.05426315 0.035001364
000140 6f 55 80 b9 54 d5 ea 3a 68 75 00 38 a0 c4 89 bb
       -0.00024477715 0.001791636 3.062692e-05 -0.0042043477
000150 51 93 c1 3d 22 d4 6f 3c 64 d1 12 3d 3e 4a 81 3d
       0.094519265 0.014637979 0.03584422 0.06312989
000160 c0 94 41 3c 5c c3 1b 3e de ed 9e 3d 67 9b 1a bc
       0.01181525 0.15211242 0.07760213 -0.009436465
000170 20 69 74 bb 5c ca 03 3e 8c 03 21 3c 43 25 70 37
       -0.0037294105 0.12870163 0.009827506 1.431379e-05
000180 85 a6 ec 3c 39 e7 20 bb 38 9d 65 bd 0f 34 a2 bb
       0.028887996 -0.0024551882 -0.05605814 -0.0049500535
000190 9c 8b 0a bb 7b 07 09 3d b3 ed 85 bd 99 6c 0c bb
       -0.0021140343 0.0334544 -0.06539478 -0.0021427034
0001a0 f2 d0 84 3d 69 cf 5d 3d f3 72 e2 39 6a db 3f 3d
       0.06485166 0.05415288 0.00043191723 0.04684011
0001b0 17 90 0d bb 08 de cc b8 a8 b3 19 3c 7a 91 9d ba
       -0.0021600777 -9.7688346e-05 0.009381212 -0.0012021505
0001c0 c1 e2 a9 bb 42 c4 9a 3d 5f 5d 8e bc 0c 41 85 3d
       -0.005184502 0.075569645 -0.017378507 0.06506547
0001d0 84 21 54 3c ab c2 cc bb 98 b6 5a bc a7 74 85 3a
       0.012947444 -0.006248792 -0.013349198 0.001018186
0001e0 66 9d b3 39 b0 ac 2f bc 00 1d ec 3d 62 e8 29 3c
       0.00034258812 -0.010722324 0.11528969 0.010370346
0001f0 9d 72 5c 39 a5 c7 19 3e 6d 7f d5 bb 50 59 16 ba
       0.00021023532 0.15017565 -0.0065154345 -0.00057353545
000200 d5 8e 4e 3d 29 d6 5a 3d 3e a3 ab 3d 1c 11 c5 bc
       0.050429184 0.053426895 0.08380745 -0.02405601
000210 7e 58 a5 3d 00 00 00 00 49 db 6f 3e 20 d0 c2 3c
       0.08073519 0.0 0.23423494 0.023780882
000220 92 16 04 3e 98 83 f9 3d a2 2b ac 3c 00 00 00 00
       0.12899235 0.12183303 0.0210169 0.0
000230 17 e7 7c 3c e8 9d 81 3d 8d e8 56 3e 63 8a c7 3b
       0.0154359555 0.06328946 0.20987149 0.006089495
000240 40 0d 50 3d e1 26 36 bb ac 69 ec 3d 5c 87 6d b8
       0.050793886 -0.002779417 0.11543593 -5.6631266e-05
000250 76 af 70 bc f5 38 05 3e cb 79 12 3c 8d a7 21 3d
       -0.014690271 0.13010009 0.0089401705 0.03946643
000260 9f 2e 91 3d 52 c3 4a ba 5e 32 15 3b bb 42 43 3e
       0.070889704 -0.00077347935 0.0022765617 0.19068424
000270 0f 3a 36 39 73 49 7b 3b 62 6f 30 3a 79 d2 90 3a
       0.00017378501 0.003834334 0.00067304645 0.0011049054
000280 14 1a fc 3b 00 00 00 00 3e 57 6a 3c d8 c4 23 3c
       0.0076935384 0.0 0.014303027 0.009995662
000290 26 74 bf b9 36 17 aa bb 5e ef 6f 3d ca 04 c1 3a
       -0.00036516896 -0.0051907552 0.058577888 0.0014726159
0002a0 b6 f1 73 3b df ff 8c 3b 55 df 91 3d f2 3b fc 3a
       0.0037222928 0.004302963 0.07122675 0.0019243939
0002b0 cb b1 e4 3d d8 f3 05 bd 82 5c 37 3e 3f 73 3b 3e
       0.11166724 -0.03270325 0.17906383 0.18305682
0002c0 02 65 41 3d 8c f2 2e 3a c1 61 00 3e 30 12 42 3c
       0.04721547 0.00066737155 0.1253729 0.011845157
0002d0 8c df 2e 3a 63 71 0b 3e 00 00 00 00 c0 e9 33 3e
       0.00066708843 0.13617472 0.0 0.17569637
0002e0 d7 c4 ed 3d 00 00 00 00 a9 80 ec 39 8d ee 62 3d
       0.1160981 0.0 0.00045109287 0.05540328
0002f0 7a 5f 23 3e 79 6a a1 3d d1 a7 d9 3d 3c c7 66 3e
       0.1595439 0.07881636 0.106277116 0.2253694
000300 8e 15 c6 bb f4 96 8a 3d f2 1f 56 3c 26 f5 b0 3c
       -0.00604505 0.06767073 0.01306914 0.02160127
000310 71 39 04 3e 00 00 00 00 96 74 b6 3b 00 00 00 00
       0.12912537 0.0 0.0055680973 0.0
000320 f6 4d bb 3d 3a 67 24 3e 0a a0 3a 3d 8a 48 c4 bc
       0.09145729 0.16055003 0.04556278 -0.02396037
000330 00 00 00 00 f5 99 06 3e 36 fb f4 3b 9d 37 8c 39
       0.0 0.13144667 0.0074762357 0.00026744316
000340 c9 1c ec b9 6a 31 9a 3d 4b 03 70 bc 94 b6 45 3d
       -0.00045034874 0.07528956 -0.014649223 0.048269823
000350 5a a6 3c 3c ee 88 ea 3c a7 8c ae b9 f7 60 fe 3d
       0.011514271 0.028629746 -0.0003329266 0.12420838
000360 41 64 8a 3d 26 59 b9 3d be f1 57 3e aa 5e 4b 3c
       0.06757403 0.09050207 0.21088311 0.012412706
000370 a4 c9 06 3e 09 d4 00 3c 31 30 2e bd b7 64 b6 ba
       0.13162857 0.007863053 -0.042526428 -0.0013915513
000380 00 00 00 00 06 a3 a5 3d 8d 39 be 3d 9d 99 3c 3e
       0.0 0.08087735 0.09288321 0.18417974
000390 82 8a 8d bc a6 53 1e 3e 00 00 00 00 76 4e ca bc
       -0.01727796 0.15461597 0.0 -0.024695616
0003a0 0d c9 03 3e 06 2b 7f 38 bb 4b 45 3d c3 60 e3 3d
       0.12869664 6.0836806e-05 0.048167925 0.1110244
0003b0 00 00 00 00 cb 1e 13 bc d5 1d 01 b9 ed c2 fe 3d
       0.0 -0.00897951 -0.00012313512 0.12439523
0003c0 ae f9 bf 39 2b 14 a3 bc 7b 83 c9 35 6f 82 85 3c
       0.00036616385 -0.019907078 1.5013933e-06 0.016297547
0003d0 71 e6 81 3d 29 08 2b 3a dd 40 ee bb f8 33 88 ba
       0.06342781 0.0006524348 -0.007270916 -0.0010391464
0003e0 a0 ae d1 3b 03 a1 c3 bc 76 14 b5 3d 3d ea 9f bc
       0.0063989908 -0.023880487 0.08841793 -0.019520873
0003f0 5c ce 53 b9 12 ca 4b b7 7c ec 85 bc ad 4c 65 3e
       -0.00020199403 -1.2146791e-05 -0.016348116 0.2239253

W_action_type f4 [256, 4]
000000 a7 a1 f9 3d 09 44 06 3e 91 2a 0b be c1 7b 48 3d
       0.12189036 0.13111891 -0.13590457 0.048946146
000010 e6 ff e0 3d 9d 33 7f bd 0d 5f 15 bd 0d 30 09 bc
       0.10986309 -0.06230508 -0.0364676 -0.008373273
000020 dc 3c 1b bd b1 e0 c8 3c b8 85 f0 bd d4 7c dc bd
       -0.037899837 0.024521204 -0.11744255 -0.107659966
000030 7b 0b 99 3c b8 f3 d6 3d 0e ad c5 bd 6f 10 04 be
       0.018682232 0.104957044 -0.09652148 -0.12896894
000040 65 8c 95 3d 6e 16 03 bc 90 d3 b4 bc e0 c0 4d be
       0.07302169 -0.008000953 -0.022073537 -0.20093107
000050 e3 76 4d bd 62 fa 43 3d 28 1c 23 be 4e fe b1 3c
       -0.050162207 0.047846206 -0.1592871 0.021727707
000060 a7 3d 19 3d 40 13 22 3d 5d ba 85 3d 5c 4e 1d 3d
       0.037412312 0.03956914 0.065296866 0.038404807
000070 4c 52 9a bc f3 f0 a7 bd e4 66 95 3c f0 df 22 be
       -0.01883807 -0.08200254 0.018237539 -0.15905738
000080 04 3f 2e bd 32 4b 10 3e 09 9b 44 bd 5e 9c 19 bc
       -0.042540565 0.14091185 -0.047999416 -0.00937566
000090 d2 1e 93 3b 17 ca f4 3d 53 eb af 3c 97 6a 5c 3e
       0.004489758 0.11952608 0.021474516 0.21525036
0000a0 53 8d 92 bc 33 ef 02 bd 8d 0c a9 3d b0 78 64 bb
       -0.017889654 -0.0319664 0.08254347 -0.0034861974
0000b0 10 c7 04 bd 99 a5 b3 bd 92 1b 04 be 1f e1 93 3c
       -0.032416403 -0.087718196 -0.12901142 0.018051682
0000c0 b4 d0 cc 3c e3 85 e3 3d c4 d8 80 3d 8f 11 16 be
       0.025001861 0.11109521 0.06291345 -0.14655136
0000d0 60 2e 14 be 12 57 e4 bd cb 5c 38 3d a0 b2 49 be
       -0.14470816 -0.1114942 0.04501037 -0.19697046
0000e0 b0 47 74 3d 3a c1 12 3e e3 47 f0 bd 0b 00 03 bd
       0.05963868 0.14331523 -0.11732461 -0.031982463
0000f0 6e ce 40 bc bc 52 cb 3d 00 74 2d bd a4 d2 a2 bd
       -0.011767967 0.0992789 -0.042346954 -0.07950333
000100 11 f1 e5 ba 6b 82 65 3d 4b d1 47 be d6 aa 66 bd
       -0.0017543157 0.05603258 -0.19513433 -0.056315266
000110 25 ba 13 3d 02 04 c9 3b 2b e4 02 3d 45 35 bd 3b
       0.036066193 0.006134511 0.03195588 0.0057741725
000120 3f 25 07 bd af ce 5f bd b0 33 5e 3d e5 fa 13 bb
       -0.032994505 -0.05464047 0.05424851 -0.0022579965
000130 69 66 02 be 23 87 76 3d 54 56 35 bd f5 18 b2 3d
       -0.12734379 0.06018747 -0.044271782 0.086961664
000140 80 84 a5 3c ba 87 bd bb 2f 79 00 bd 9d 1d 51 3d
       0.020204782 -0.005784002 -0.03136557 0.051053632
000150 ef 64 7b 3d af 71 45 3e 11 db da bd a8 74 06 bc
       0.061375555 0.19281648 -0.10686315 -0.008206524
000160 03 53 5e ba b1 ec 25 3d d0 b6 29 bd 15 79 d3 3c
       -0.00084809976 0.04050893 -0.04143411 0.025814572
000170 3a 5b 9c bd b8 82 cd 3d b5 a8 5e 3e d6 fc 1a 3e
       -0.076345876 0.10034698 0.21744044 0.15135512
000180 54 c4 65 bc 90 a0 4b bd d8 8a 9a 3b 0f a7 29 bd
       -0.014023859 -0.04971367 0.0047162585 -0.041419085
000190 12 92 d2 3d cd ed ad bd 6d 90 57 bc 4f 27 0f 3c
       0.10281767 -0.084926225 -0.013156992 0.008737399
0001a0 fb 33 a7 bd a8 28 ef bd 71 d8 3f bd 86 24 c4 bd
       -0.08164211 -0.116776764 -0.046837274 -0.09577279
0001b0 eb ce 41 3d fa cf 67 bd ab ae 26 3c 3b b1 08 bc
       0.047316473 -0.056594826 0.01017348 -0.008343036
0001c0 b7 4d 87 bc 30 38 3e bd 3b d5 77 bd 68 13 4b 3d
       -0.01651655 -0.046440303 -0.060506087 0.049579054
0001d0 be da 0a be 3f 7f ff bb f7 02 55 bb 23 31 35 be
       -0.13560006 -0.0077971513 -0.0032502988 -0.17694525
0001e0 c1 6e 21 3c c0 c4 8d 3a bc ea 19 bc 8b e9 99 3d
       0.009853066 0.0010816082 -0.009394344 0.07515248
0001f0 0a aa 60 3c 13 86 1c bd 03 6e 9a bd 8e 47 1c 3d
       0.0137124155 -0.0382138 -0.07540514 0.038154177
000200 3e 88 7a 3e 4b af ab 3b ba 55 0a 3e 14 f7 c2 3c
       0.24466035 0.0052394024 0.13509265 0.023799457
000210 87 32 97 bd f5 40 ba 3d 9d 74 bb 3d 7a c2 04 3d
       -0.07382684 0.09094421 0.091531016 0.03241203
000220 38 fe 2d 3d f2 33 3e 3c 37 94 28 be e5 9d 9a bd
       0.04247877 0.011609064 -0.1646279 -0.07549647
000230 ff 90 d8 3d a0 fe 98 3d 6d 6f 02 be 4a 0d 57 3d
       0.10574531 0.07470441 -0.12737818 0.052502908
000240 30 80 a5 3d 66 1c 34 3d 4a 45 54 3d ac ca 84 3d
       0.080810905 0.043972395 0.05182389 0.06483969
000250 86 45 26 be 19 cf 6c bb ff ff 49 3b 34 dd 18 bd
       -0.16237459 -0.0036134182 0.0030822752 -0.03732033
000260 f7 b2 de 3c c5 47 c6 bd b3 00 c5 3d 28 38 9b 3d
       0.027184946 -0.09681658 0.09619274 0.0757907
000270 e5 e7 61 3d e7 a7 b5 3d 5a 62 85 3a 6a 14 96 3d
       0.055152792 0.088699155 0.0010176406 0.073281124
000280 af ef 35 bd 8a 1c 8f be 72 02 3b 3d 90 3a 1e be
       -0.044418033 -0.2795146 0.04565663 -0.15452027
000290 6d a8 cc bc 52 fa 05 be f7 24 9f bd 95 b3 8f bd
       -0.024982655 -0.13083771 -0.07770722 -0.070166744
0002a0 32 46 0b be 70 a8 b7 b8 2c b3 ff bd 9d c8 57 be
       -0.13600996 -8.757494e-05 -0.12485346 -0.21072622
0002b0 f5 c5 ba 3d f6 95 2a bd 69 ab 02 bd a4 c5 31 3d
       0.091197886 -0.04164692 -0.03190175 0.043401375
0002c0 47 e9 01 be 24 66 fc 3d b1 be 06 3c 36 f7 e5 3d
       -0.12686644 0.12324169 0.008224175 0.11228792
0002d0 88 3a 85 bd a3 6d 0c bb 45 df d5 3c 0d 53 00 3d
       -0.065053046 -0.0021427653 0.02610744 0.031329203
0002e0 26 56 0e 3c bc 83 6a bb 08 7e 22 3e 84 15 e0 bd
       0.008687532 -0.0035784086 0.1586839 -0.10941604
0002f0 98 39 71 bd f7 f2 a6 3d 5a 56 c7 bd 0a 8e 27 bd
       -0.058892816 0.081518106 -0.09733267 -0.040906943
000300 fe d2 d5 bd b0 d6 52 3e 9e 48 30 bd 64 97 df 3c
       -0.10440634 0.2058971 -0.043038003 0.027293868
000310 55 7b 43 3c 76 d1 71 bd 82 32 c2 bc 7f 73 2e 3d
       0.01193126 -0.05903765 -0.023705725 0.042590614
000320 9a f7 67 bc 3f 7d 47 be 51 40 88 3c ca 2a 93 bd
       -0.014158154 -0.19481371 0.016632231 -0.07185896
000330 63 65 85 bd 58 da 1d 3d 83 7d 47 bc 19 3f 0f bd
       -0.065134786 0.038538307 -0.01217592 -0.034972284
000340 f0 26 0a be d0 ce 48 bd 84 12 43 3e 8a aa 9e 3d
       -0.13491416 -0.049025357 0.19050032 0.077473715
000350 c0 16 2e bd 78 56 a8 bc 24 c7 9b bd ac 0d a1 bd
       -0.042502165 -0.020549044 -0.076063424 -0.07863936
000360 05 b1 f2 3a 0b e2 08 bc 80 93 23 3e 9c a3 55 3b
       0.0018515891 -0.008354674 0.15974236 0.003259874
000370 91 d1 06 3d 6a 2b fd bd 40 b4 98 3d 75 74 13 3e
       0.0329147 -0.12361796 0.07456255 0.14399894
000380 f7 2b b9 bd a1 5e 1f 3d ff b7 98 ba 29 68 e4 3d
       -0.09041589 0.038908605 -0.0011651515 0.111526795
000390 5e d7 a0 bd 43 cf 61 3c 28 9a ae bc e0 35 44 b8
       -0.07853578 0.013782325 -0.021313742 -4.6780217e-05
0003a0 a5 33 3b bd 8e ad 6d bc 50 40 53 3d 71 b0 0f be
       -0.04570355 -0.014506711 0.051575005 -0.14032151
0003b0 be c6 97 3c 87 c1 02 bd ed b8 0d bd 6e 4b c2 bd
       0.018527385 -0.031922843 -0.034600187 -0.09487043
0003c0 0a 21 ac 3d 73 c1 7f bc ec b7 80 3c bd 2d e3 3d
       0.08404739 -0.015610087 0.0157127 0.11092708
0003d0 49 50 6f 3b d6 45 e9 bd 78 34 6f bd 39 49 f3 3c
       0.003651636 -0.11390273 -0.058399647 0.029698001
0003e0 dc c2 5e 3d 08 35 bb ba 7a 1d a6 3b b3 f2 86 3d
       0.05438505 -0.0014282772 0.005069432 0.0658926
0003f0 13 75 ed 3c 5e 83 02 3d 8b 1e a5 bd 3d ac cd 3c
       0.02898649 0.031863563 -0.08062466 0.025106544

b_action_type f4 [4]
000000 22 57 9f b9 19 2e 5b 3b 81 be 0c bc 66 db b5 3b
       -0.00030391762 0.0033444224 -0.008590342 0.005549836

W_play_habitat f4 [256, 4]
000000 2b d1 8f bd b1 e3 3b 3d db 44 70 bd 6b a3 94 3c
       -0.070223175 0.04587144 -0.058659416 0.01814433
000010 3f 5f 63 3d f6 97 f0 bd 17 ce 88 3e 56 25 29 3e
       0.055510756 -0.11747734 0.26719734 0.16518149
000020 7f fc b0 bc f0 b9 06 bd fe ea 0b 3e 2d 72 00 be
       -0.021604775 -0.032892168 0.13663861 -0.12543555
000030 95 64 5e 3d ec 44 27 3e 06 48 fe 3b 3b c3 38 be
       0.05429514 0.16334885 0.0077600507 -0.18043225
000040 ee 09 c7 bd 70 32 73 bd 6e 42 b4 bd 20 a5 90 bd
       -0.09718691 -0.059374273 -0.08801733 -0.07062745
000050 2e d0 e8 3d 2e a2 aa 3d 25 8d ae bd 05 22 10 be
       0.11367832 0.083317146 -0.08523015 -0.14075477
000060 18 2a f6 bc be ce 30 bd 5e 19 e2 ba ef d1 79 3d
       -0.030049369 -0.043165915 -0.0017249992 0.060991224
000070 7c 56 89 3c a3 21 20 3e 8b 38 f1 3d 81 72 9c bc
       0.016764872 0.15637831 0.11778363 -0.019097568
000080 44 7b c7 bd 9f 88 38 bd eb d8 c1 3d ec ec 66 3d
       -0.09740308 -0.045052167 0.09465202 0.05637829
000090 af 1b 2e bd b9 ad 84 3d 94 95 2b ba 63 57 05 3c
       -0.04250687 0.064784475 -0.0006545421 0.00813851
0000a0 52 46 d6 bc a6 1c 96 3d 4a 90 73 39 d4 af 00 3d
       -0.026156578 0.07329683 0.00023228038 0.031417683
0000b0 8a 4c 67 bd ec 1f 80 bc e1 82 93 3d 5a c4 d1 bd
       -0.056469478 -0.015640222 0.072026975 -0.10242529
0000c0 23 9d 70 bd 49 10 29 3d 5f f5 e5 bb 17 09 92 bd
       -0.058743607 0.041275296 -0.007017776 -0.0713064
0000d0 a6 d5 1c bc b8 5c 1b bd ef 92 4b bd b5 57 4f be
       -0.009572422 -0.03793022 -0.049700674 -0.20248301
0000e0 ba 46 6b 3c ef fb 89 3c 21 d6 b6 3d 58 03 89 3c
       0.014360124 0.016843764 0.089275606 0.016725227
0000f0 d8 3e 4b bd bd cc e7 bc b3 22 bc bc 74 37 cd bd
       -0.04962048 -0.028295869 -0.022965765 -0.100203425
000100 ed ab 24 3e 2f 3a 00 3d 02 74 b2 bd da c9 84 bd
       0.1608121 0.03130549 -0.08713533 -0.06483813
000110 95 0c 89 bd 12 a8 14 bd a3 09 35 be 9e b4 4b bc
       -0.06691853 -0.036293097 -0.17679457 -0.012433199
000120 f2 1b 42 bd ae 9d e0 3c 87 78 92 bd d1 d8 ce 3d
       -0.047389932 0.027418938 -0.07151895 0.10099948
000130 4b e0 27 3d 83 3c 17 bc 09 65 9f 3e ea 32 12 3e
       0.040985387 -0.009230736 0.3113177 0.14277235
000140 f7 cd d1 3d 04 db e9 3d 7f 34 1f bd 34 ce cd bd
       0.10244363 0.11418727 -0.038868424 -0.10049096
000150 78 1c 15 be 15 b4 a0 bc 5f b4 2f be 3b 41 09 be
       -0.14561641 -0.01961712 -0.1715865 -0.1340379
000160 64 35 28 be 91 29 d3 3d 23 9e 2d 3d 4a 73 00 bd
       -0.16426617 0.103106625 0.04238714 -0.03135995
000170 37 df d0 3d 0b 94 c1 3d 1d d2 fc 3c 87 59 83 bc
       0.10198825 0.09452065 0.030861909 -0.0160339
000180 bc 39 6f 3d 58 d7 f1 3c be 59 5d 3d f2 c5 a8 3d
       0.05840467 0.02952163 0.054040663 0.0824088
000190 67 53 d6 3d 52 5a 52 bd 74 d5 85 bc 4b bd 02 3e
       0.104651265 -0.051355667 -0.016337134 0.12767522
0001a0 e1 d5 0b be c3 85 54 3e 7a 45 4f 3d f1 85 3e be
       -0.13655807 0.20754151 0.050603367 -0.18605782
0001b0 fa a3 9c bc 60 fb 77 3e ef 3a 1a 3e 5f 52 2b 3e
       -0.019121159 0.24216986 0.15061544 0.16730641
0001c0 09 ab 84 bd ce 5b 23 be e5 9a bc 3d 6d e3 0d 3c
       -0.06477935 -0.1595299 0.09209231 0.00866018
0001d0 73 d8 37 3d bc e0 de 3c d1 d1 3d 3d 4c 7a ac 3d
       0.044884156 0.027206771 0.046342675 0.08421764
0001e0 5c 47 48 bd 7e 6a 07 3c cb 00 a0 bd 80 ec 75 3d
       -0.04889618 0.008265136 -0.07812651 0.060039997
0001f0 ba ac 2c 3d 29 79 36 3c 55 e1 41 3d 46 eb 02 bd
       0.042156912 0.011137285 0.047334034 -0.031962655
000200 20 05 36 bd 7d 2e 4c bd f0 61 ee bd 98 59 5e 3d
       -0.04443848 -0.049849022 -0.11639774 0.054284662
000210 70 de ef 3a 19 14 1d 3e 0c c2 6e 3d 37 bf 82 3d
       0.0018300544 0.15339698 0.058290526 0.063841276
000220 34 e0 d5 3b 03 c5 ea 3c 53 e4 2b 3b 52 be 89 3d
       0.0065269712 0.028658396 0.002622862 0.06725754
000230 7c 2a 83 bd 66 ea 0a bc f5 8c 33 3d aa 38 e5 3a
       -0.064045876 -0.0084787365 0.0438356 0.0017488201
000240 7c e6 d4 bd 7d b4 6a 3d 8a d1 63 bb 55 fd 77 bd
       -0.10395524 0.057301033 -0.0034762346 -0.06054433
000250 df e4 f7 3c 7a df 0f 3c 5a 6e 70 bc 64 c2 f2 3b
       0.030260501 0.008781308 -0.014674747 0.007408427
000260 12 b8 e3 bd 6a 90 05 be be 20 f3 bd 13 eb ca ba
       -0.11119093 -0.13043371 -0.118714795 -0.0015481435
000270 85 e7 66 3d af b1 1c be b6 27 03 3d 81 15 e5 bc
       0.056373138 -0.15302156 0.032020293 -0.027964355
000280 45 5f b0 bd 7d d0 69 3d 0b d3 bb bc 2e 82 15 3e
       -0.08611921 0.057083596 -0.022927782 0.14600441
000290 ca df 19 be f8 24 62 3d ce 24 d3 bc 65 26 4d bd
       -0.15026775 0.055211037 -0.025774386 -0.050085444
0002a0 e1 cf 4d bb 0f 2e 68 3d 43 6a e5 bd f2 c8 f2 3d
       -0.0031404423 0.05668455 -0.112019084 0.118547335
0002b0 76 6d ba 3b 2e d0 02 3e dd 7a b1 3d bd b6 f9 3b
       0.0056893183 0.12774727 0.086660124 0.007620661
0002c0 89 61 92 bd 4c 5b 20 3b 4a b8 80 3d 23 66 a1 3c
       -0.071475096 0.002446848 0.0628515 0.019702023
0002d0 dd ee 04 be 69 71 90 bd e0 6d b6 bb 3e 65 01 3d
       -0.12981744 -0.07052881 -0.0055672973 0.031590693
0002e0 55 5a 99 bd 42 a1 f0 3b af bd 99 bc 5c af 79 3d
       -0.074879326 0.007343442 -0.018767206 0.06095825
0002f0 42 d9 81 3c b2 b1 e7 bd c7 60 05 bd ef 78 12 bd
       0.015850667 -0.113131896 -0.032562997 -0.035759863
000300 92 f0 02 be e3 bc c8 bd dd bc 37 3d fa cb 76 3d
       -0.12787083 -0.09801652 0.04485785 0.06025312
000310 5a e1 f7 bc 9b b3 ee bd 10 0b 01 3d 62 7a eb bc
       -0.030258823 -0.11655351 0.03150469 -0.02874488
000320 c0 c4 25 bc 37 6f 7a 3d 38 d7 8b 3b 8c ec 44 bd
       -0.01011771 0.06114122 0.0042675994 -0.04807715
000330 01 46 a2 3c c9 cc 58 bd 52 cf bb 3d ca 8e a7 bc
       0.019808771 -0.052929673 0.091704026 -0.02045383
000340 c9 67 cb 3d 83 e8 11 be 3d c1 81 ba 4a 04 7a 3d
       0.09931905 -0.14248852 -0.0009899508 0.061039247
000350 af ca 4d be c9 60 e2 bd c3 44 b6 bd 61 7b cd 3d
       -0.20096849 -0.110536166 -0.08899834 0.10033298
000360 5e 2a e4 bc 39 99 ac bd 14 84 9e bd 43 f4 79 bd
       -0.027852233 -0.084276624 -0.07740036 -0.06102396
000370 6e 6e 9b 3c f0 f6 dc 3d 19 6a 4d be ef 0c 20 3c
       0.018973555 0.10789287 -0.20060004 0.009768709
000380 48 15 da bc 52 1d cc bc 79 73 51 bd d7 ea 43 3d
       -0.026621476 -0.024916325 -0.051135514 0.047831383
000390 b9 76 b8 3c 95 69 4e bc c6 96 68 3c 44 36 f3 bd
       0.022517549 -0.012598415 0.014196103 -0.11875585
0003a0 10 35 cd bd 37 bf 37 be 0e 10 30 3d 61 e9 96 3d
       -0.100198865 -0.17944036 0.04298406 0.07368732
0003b0 f0 ae 4b bd e5 23 0f be 13 3b 1a 3b 3c 33 31 bc
       -0.04972738 -0.13978536 0.0023533746 -0.010815438
0003c0 a3 82 f3 bd 7d f8 00 be 67 d6 b3 bd 39 a5 84 bd
       -0.11890151 -0.12594791 -0.087811284 -0.06476826
0003d0 a7 58 03 3e 4e dd f9 bc 4f 44 81 3c 03 65 e7 3d
       0.12826787 -0.030501034 0.015779642 0.11298563
0003e0 fa f4 89 bd de c5 87 bd d3 ef ee bc 1f 33 06 3e
       -0.06736179 -0.06629537 -0.029167091 0.13105439
0003f0 2d 44 1b 3d 6b 1c 33 3d 96 55 46 bc 23 5b 09 bc
       0.037906814 0.043728273 -0.012105366 -0.008383545

b_play_habitat f4 [4]
000000 e7 fd a9 3a a1 07 18 ba f5 6e f5 3a 87 b4 29 bb
       0.0012969346 -0.00057994766 0.0018725084 -0.0025894956

W_gain_food_primary f4 [256, 7]
000000 d7 d7 8f bd 8b 2f 7b 3d 9f 30 60 3b 0a 13 e4 bd
       -0.0702359 0.061324637 0.0034208668 -0.11136444
000010 ba 72 d6 3d e4 d5 68 bd 03 2e 38 bd 27 8e de 3d
       0.10471101 -0.056844607 -0.044965755 0.10866957
000020 3c 2f 92 3d c6 81 13 be 52 60 cf 3d 1d c9 76 bd
       0.071379155 -0.14404973 0.101257935 -0.06025039
000030 ed 66 d9 3d f0 f6 33 bd cc 41 48 be 1a 81 1a bd
       0.10615335 -0.04393667 -0.1955635 -0.037720777
000040 f0 00 da 3d 9c 3c 0b be 01 68 44 bc c2 7c 12 3d
       0.1064471 -0.1359734 -0.011987687 0.03576351
000050 48 0b 57 bd 75 21 08 3c 8e 10 f1 3d bb 3b c6 bd
       -0.052500993 0.008308758 0.11770736 -0.096793614
000060 c9 ff f6 3d 5c 53 9e 3d df a4 d5 3d 16 b9 e0 bd
       0.12060506 0.07730743 0.10431837 -0.10972802
000070 bc a3 c3 3c 7f ea 8c bc e8 90 40 be ef 22 2f 3e
       0.023881786 -0.01720166 -0.18805277 0.1710317
000080 dd c5 ee 3d a0 70 12 3e 86 af 75 3d 54 6f 19 be
       0.11658833 0.14300776 0.059981845 -0.14983875
000090 36 90 21 be 37 d9 ca 3d fc 8f 1f bd ff e8 4f 3d
       -0.15777668 0.09904712 -0.038955674 0.05075931
0000a0 18 33 e7 bd 10 53 8b bd 12 1f 0a 3b 78 94 33 3d
       -0.11289042 -0.06802952 0.0021075648 0.043842763
0000b0 01 62 cc bc cd 65 de ba f5 ea bf bd 42 b8 06 bd
       -0.024949076 -0.0016967595 -0.09370986 -0.032890566
0000c0 6d 84 de bd 78 cb 88 3d 24 66 31 bd 95 e5 01 3d
       -0.10865102 0.066794336 -0.0433103 0.031713087
0000d0 16 2b 8b 3d 74 0f 36 bd 03 4d 99 bd e9 61 28 bd
       0.06795327 -0.04444833 -0.07485392 -0.041109
0000e0 4e 33 32 bd ab ed 42 bd dd 83 4e bd ca ed ac 3d
       -0.04350596 -0.04758994 -0.050418723 0.08443792
0000f0 eb be 2d 3d 56 1d 60 3d 18 37 b5 bd 4f 0a ff 3b
       0.0424184 0.054715477 -0.08848399 0.0077832113
000100 a9 13 43 3d 30 1a ce 3c b0 4e 1a 3d 8a 20 ae bd
       0.04762617 0.025158972 0.0376727 -0.085023
000110 ff a2 cc 3c dd a9 b5 3d ba 3b 3f 3d 44 98 3d bd
       0.024980066 0.088702895 0.04668782 -0.04628779
000120 28 45 1e be c7 35 80 3d 37 8b 39 3b 24 0f 81 bc
       -0.15456069 0.06260257 0.0028311738 -0.01575429
000130 df 02 01 bd 21 43 83 3d 33 5c 01 3e 37 72 25 bc
       -0.03149688 0.06409288 0.12632827 -0.010098032
000140 7f 35 81 3d eb 53 b6 bd 51 79 26 3e ab 13 76 3d
       0.06309032 -0.08902725 0.16257216 0.06007735
000150 2b 5b c5 bd 26 eb aa 3a 44 f2 88 3a db b2 35 be
       -0.096365295 0.001304005 0.0010448177 -0.17744009
000160 76 4d 8c 3d 1a f1 27 be f7 b4 8c 3c f3 df 01 bd
       0.06850712 -0.16400567 0.017176135 -0.031707715
000170 3a 40 33 3c a1 0b bb 3d 0e 15 86 39 99 bb 21 bd
       0.010940606 0.091330774 0.0002557416 -0.039485548
000180 21 6a 21 3d a9 70 1d 3c 0b 2c d1 3d 07 e7 c8 bc
       0.039407853 0.00960938 0.10213479 -0.024524225
000190 47 0f 8a 3c 97 40 ca 3d dc 19 90 3d d3 d8 b2 bd
       0.016852988 0.09875601 0.07036182 -0.08732762
0001a0 93 87 ef bc 5b d1 ac bd 22 a8 16 3d 2f e1 84 3d
       -0.029239452 -0.08438369 0.036781438 0.06488263
0001b0 38 2d d2 bc f1 40 8f bd 32 85 04 bd db 30 c7 3d
       -0.025656328 -0.069948085 -0.032353587 0.09726115
0001c0 b6 2b 14 be a5 2b de bb e8 8c 9e bd 6a c1 33 bd
       -0.144698 -0.006780105 -0.077417195 -0.043885626
0001d0 d9 6f ab bd 88 a1 e1 bd 1b 5c 12 be 19 f5 93 3d
       -0.083709426 -0.11017138 -0.14292948 0.07224483
0001e0 03 1b bf 3d a6 92 86 bd db b2 c7 bd ec cb 8c bc
       0.09331324 -0.0657094 -0.09750911 -0.017187081
0001f0 38 ac da 3d 40 d1 1e bd 48 5a 32 bc 97 8c e5 bd
       0.10677379 -0.038773775 -0.010885783 -0.11208456
000200 62 fd c8 bd e5 2d 97 3d f3 fe 01 3d 55 01 59 bb
       -0.09813954 0.073818006 0.03173728 -0.0033112366
000210 47 94 9d 3d 91 3f b5 3d c7 27 59 bd 82 46 c5 3d
       0.07694297 0.08850015 -0.05301645 0.09632589
000220 b8 34 c7 bd cc 41 b4 3d 19 34 cc bc 0f af a4 bd
       -0.09726852 0.08801612 -0.024927186 -0.08041202
000230 4e d5 d9 bc 8d cb c7 3c 73 98 9a 3d f6 26 5c be
       -0.02659097 0.024389053 0.07548609 -0.21499237
000240 8a 20 44 3d da 42 88 bd b6 1b ab bc 68 b9 94 bd
       0.047882594 -0.06653376 -0.020887237 -0.07261926
000250 2f 9a c5 bc fe 85 08 3d 5a c2 65 bd 15 21 2c 3d
       -0.024121372 0.03333091 -0.05609355 0.042023737
000260 90 7a 81 3d b3 45 90 3d a7 74 6d 3e 87 53 d7 bb
       0.06322205 0.07044544 0.2318903 -0.0065712365
000270 46 7b df bc 65 d2 51 3e 8c c7 22 bc be a8 9b 3d
       -0.027280461 0.20490415 -0.009935271 0.076005444
000280 6e fb e1 3d 6d 93 88 3d a1 96 d0 bd 45 f6 cb 3b
       0.110342845 0.06668744 -0.1018498 0.006224426
000290 b6 b2 4d 3d d5 f0 0d bd c3 75 d4 bd 52 d4 03 3d
       0.05021926 -0.034653503 -0.10374024 0.032184906
0002a0 91 f9 6d bb 3e 47 c7 bd 2a ff 94 3d 0f 18 4b 3d
       -0.0036312083 -0.09730385 0.07275231 0.04958349
0002b0 19 d6 3a 3e c6 14 bc 3a 16 a0 0d be 88 f3 14 3e
       0.18245734 0.0014349453 -0.13830599 0.14546025
0002c0 88 ab be 3d b0 a6 57 3c 8a 99 7e bc 94 62 41 3e
       0.09310061 0.0131623 -0.015539536 0.18885261
0002d0 6f 6f c3 bd 88 24 61 bc f0 81 ab be 06 73 4e be
       -0.09542739 -0.01374162 -0.33497572 -0.20161065
0002e0 64 fc 45 3d cd 19 80 bd 33 e9 8a 3d 48 a6 5f 3d
       0.0483364 -0.06254921 0.067827605 0.054601938
0002f0 01 9d 71 bd 30 7d 09 3e 7d 94 14 3e dc 13 52 3d
       -0.05898762 0.13426661 0.14509769 0.05128847
000300 fb 99 f2 3a ed a8 f3 bd 38 0b 73 bd ae 97 f9 3c
       0.0018509025 -0.118974544 -0.05933687 0.030467834
000310 f1 40 e3 3c 48 e7 bd 3d fc 1f 73 bd ab 25 64 3d
       0.027740927 0.09272629 -0.059356675 0.055699985
000320 f0 61 99 bd 3d 1c 3e bd db b2 43 bd f0 76 b3 3d
       -0.07489383 -0.04641365 -0.04777799 0.0876292
000330 ec e7 37 3e 86 25 bd bd d6 88 75 ba c2 6e be 3c
       0.17959565 -0.09235673 -0.00093663984 0.023246173
000340 21 ae 7c bd b0 3b 8e 3d bc fc 05 be b8 33 89 3e
       -0.0616895 0.06944978 -0.13084692 0.2679727
000350 09 36 18 3e 0a 68 74 bc 66 82 cd 3c 0e 45 e1 3d
       0.14864363 -0.014917383 0.025086593 0.10999499
000360 b8 f9 92 bd 0c 68 df bd 55 d4 ea bc b5 f8 01 3e
       -0.07176536 -0.10908517 -0.0286657 0.1269253
000370 82 22 00 3e 67 5b ba 3d da f0 c6 bd 6a 0b 95 3d
       0.12513164 0.09099465 -0.097139075 0.07277568
000380 a2 45 9e bd 2d f4 ad bd b8 8d e3 3c e0 d9 d1 3c
       -0.07728125 -0.084938385 0.027777538 0.025616586
000390 51 d7 6a be 04 79 79 be c8 bf 0d bc 00 5f 6c bd
       -0.22933699 -0.2436257 -0.008651681 -0.057707787
0003a0 e4 01 2c bd 02 f8 7d 3d 8d ae ce 3c 1a 85 43 be
       -0.04199399 0.062004097 0.025229717 -0.19093743
0003b0 8c 3e ef 3c e9 8c 00 3d 00 2c 9b bd cf a7 0b 3d
       0.02920463 0.031384382 -0.07576752 0.03409558
0003c0 e2 0c f9 bd bf bf 01 bc b9 fe 55 bd 86 4a 21 3d
       -0.1216066 -0.007919251 -0.052244876 0.03937771
0003d0 5d 6b 1b bd fe e7 67 3e 19 a4 1d bd e6 fd 57 3d
       -0.037944186 0.22647092 -0.038486574 0.05273237
0003e0 b7 d6 18 bd 5e 74 2f 3e fa f2 a1 3d 79 d4 a1 3d
       -0.037314143 0.17134234 0.07907672 0.07901854
0003f0 43 a6 a6 3d 99 9b 8f bc c2 cf 21 be fd 33 44 3e
       0.08137181 -0.01753025 -0.1580191 0.19160457

b_gain_food_primary f4 [7]
000000 c6 43 9d 3a a8 32 00 bb 07 92 ac 3a ff 23 e4 39
       0.0011998347 -0.0019561443 0.0013166078 0.00043514368
000010 49 60 f2 ba 14 8a a9 3a fd 8c e6 b9
       -0.001849183 0.0012934827 -0.00043974063

W_draw_mode f4 [256, 4]
000000 b5 69 af bd 70 e2 b4 3d 0d 10 82 be be e5 87 bd
       -0.08565084 0.08832252 -0.2540287 -0.06635617
000010 eb b8 19 be 97 83 1d 3d 51 bd 78 bd 6b b0 76 bc
       -0.15011947 0.038455572 -0.06072742 -0.01505671
000020 ed 89 94 bc 34 2f bc bd a2 90 4b 3e 82 1d 7d 3c
       -0.018132174 -0.09188691 0.19879392 0.01544893
000030 e2 a7 8d 3c d5 55 7d bc 32 8a 96 3d 89 c6 46 3e
       0.017291967 -0.0154623585 0.073505774 0.19411673
000040 cf 6c 30 3d 05 de b2 bd 79 52 df bd b0 0b 24 bd
       0.043072518 -0.08733753 -0.10904402 -0.04005021
000050 11 f5 03 3e 26 a9 83 bd c7 71 e2 bd 95 b3 a8 bd
       0.12886454 -0.06428747 -0.110568576 -0.082373776
000060 c4 b7 1a 3d 76 97 bd 3d 08 71 30 bd d8 d1 e5 3d
       0.03777291 0.092574045 -0.043076545 0.11221665
000070 d7 f9 83 bc 00 1e ba bc bc 40 4b bd 40 6e ff bc
       -0.016110344 -0.022719383 -0.049622282 -0.031180501
000080 e3 94 4c 3d cf 60 a2 bd a8 71 43 bd e8 b5 44 3d
       0.049946677 -0.07928621 -0.047715813 0.04802504
000090 9e 18 be 3b c7 43 43 3d 91 6c 10 3e f9 ff 0c be
       0.0058012744 0.04767206 0.14103915 -0.13769521
0000a0 d7 b2 b2 3d 7a a9 2d 3d 2b 9d 87 bc a9 96 f6 3d
       0.08725517 0.042397954 -0.016554436 0.12040455
0000b0 88 83 28 3e 6e e6 bb bd 03 5c 9e bc e2 43 bb bc
       0.16456425 -0.0917481 -0.019330984 -0.022859517
0000c0 bb e5 b6 3d b7 d6 e3 3b 1b 49 e3 3d e7 71 75 bc
       0.08930536 0.0069530862 0.11097928 -0.01498077
0000d0 9c ff 4d 3d 54 18 08 bd de cf e6 bd 73 81 1f 3e
       0.050292596 -0.033226326 -0.11270116 0.15576725
0000e0 04 ee 5f 3c bb e9 cb 3d 3c 48 69 3e 91 88 fd 3b
       0.013667587 0.0995669 0.22781461 0.0077372272
0000f0 28 6d a7 3b 8d ce b1 bc 01 73 77 bd b5 29 29 bc
       0.005109448 -0.021704936 -0.06041241 -0.010324885
000100 96 94 a6 bc 69 f6 56 bc bc 7c 28 3e 52 72 f5 bd
       -0.020334523 -0.013120272 0.16453832 -0.119846955
000110 a7 49 b5 bd 99 38 9d bb a1 3a 35 3d 9b e8 df bd
       -0.08851939 -0.0047980067 0.044245366 -0.10933038
000120 fd 1a 5b 3d e3 0c 31 3e e4 18 1a 3b 42 cf 16 bc
       0.053492535 0.17290072 0.002351337 -0.009204688
000130 1c f1 1d 3d c2 3f 14 be b1 e8 8e 3c bb dd f4 3c
       0.038560018 -0.14477447 0.01744494 0.029890886
000140 39 be d0 3c ae 15 2f be 83 5e 6e 3d e4 c1 07 bb
       0.02548133 -0.17098114 0.058195602 -0.0020714933
000150 1a 1c b5 bd 66 7d a2 3d 8d 50 17 3e 7d 7c 76 3c
       -0.088432506 0.07934074 0.14776821 0.015044329
000160 68 78 2b bd 48 2e e0 3c 7b 2e 43 bd 68 5c a9 bc
       -0.041862875 0.027365819 -0.04765175 -0.020673946
000170 29 ae 84 bc e5 b4 44 3b 11 fc 06 3c 62 5c 8c 3c
       -0.016196327 0.0030015048 0.008238808 0.017133895
000180 96 73 d9 bd 33 2d 6e 3d a0 e0 1e 3c aa 35 31 3d
       -0.106177494 0.058148574 0.009697109 0.04326407
000190 1b 3b 24 be 6f b2 62 3c be 67 91 bd cb 55 ba 3d
       -0.16038172 0.013836487 -0.070998654 0.09098395
0001a0 08 2d b4 3d 8d 39 6a 3e 33 24 fe 3d 96 b4 26 3d
       0.087976515 0.22873516 0.12409248 0.040699564
0001b0 52 ac d2 3c d6 3d ee 3c 97 e5 a2 3c f2 34 55 3d
       0.025716934 0.02908222 0.019884868 0.052052446
0001c0 08 df aa bc da 1a 19 3d 22 b3 cd bd f7 c8 1f be
       -0.020858303 0.037379123 -0.100439325 -0.15604006
0001d0 52 c3 6c 3d 3d 99 3b be a5 06 66 3c c6 35 03 be
       0.05780346 -0.18320175 0.01403967 -0.12813482
0001e0 83 ec f6 bd 3a 1a 0d 3e 2c 62 cb 3b 89 64 a5 bc
       -0.1205683 0.13779536 0.0062067714 -0.02018954
0001f0 dd 1c ba bd 86 36 a7 3d 7f 29 a6 bd c4 1d 24 bc
       -0.090875365 0.081646964 -0.081133835 -0.010016862
000200 c3 0c 17 3d a3 9e b2 bd 68 0d 7c bd 12 8b 8f 3b
       0.036877405 -0.08721664 -0.061536223 0.004380592
000210 8d a2 d1 bc 75 ce d8 3d cc ec ee bc a0 26 40 bd
       -0.025590206 0.105862536 -0.029165648 -0.046911836
000220 fa a6 4b 3c a5 f5 90 bd 11 0a e4 bd fa 07 38 be
       0.012429947 -0.07078103 -0.111347325 -0.17971793
000230 a8 48 f4 bd 86 9c ec 3d 9c f1 12 3d f1 f1 cd bd
       -0.119279206 0.11553292 0.035874948 -0.10055912
000240 a5 af 8e 3d 11 e2 cc 3d bd ae 10 bd 98 c3 68 bd
       0.06967095 0.10004056 -0.035322893 -0.056827158
000250 30 cc b6 3d 6c 34 37 be c7 09 3b 3e d1 3f 0e bd
       0.089256644 -0.17891091 0.18265449 -0.03472883
000260 57 98 e0 bc 77 31 f3 3d dd 00 1c bd cc a1 9e 3d
       -0.027416391 0.11874669 -0.03808676 0.07745704
000270 b4 b4 01 be a3 ea ba 3d 55 85 65 bd ab e2 9b bd
       -0.12666589 0.09126785 -0.05603536 -0.07611593
000280 c0 d3 3b bd a8 d0 05 bc 44 5f 1a be 21 1c e5 3c
       -0.045856237 -0.008167423 -0.15075403 0.027967514
000290 b5 9e 21 bc df ce 42 bd 7f 93 84 3c 88 9c e0 3d
       -0.009864499 -0.04756057 0.016183613 0.10967356
0002a0 f2 a0 49 3d 73 ee 0e 3c 45 5b 08 3d 2f 39 a0 bd
       0.049225755 0.008723843 0.033290166 -0.07823407
0002b0 db 85 ff 3a ee fd 62 bd d5 7c 0d 3e 5e 1d e4 bd
       0.0019494848 -0.055417947 0.13817151 -0.11138414
0002c0 c0 c7 84 bd 87 34 2d bd 27 34 13 bc d6 9b 7d 3d
       -0.06483412 -0.042286422 -0.008984602 0.061916195
0002d0 2c 8e c6 3d dd 58 e2 3d 53 3d 18 3d f5 cf 4d 3d
       0.09695086 0.110521056 0.03716786 0.05024715
0002e0 09 14 45 39 9b 4e f0 bd d5 3b 3e 3d 1a 01 ff b8
       0.00018794848 -0.11733743 0.04644378 -0.00012159553
0002f0 5d b7 15 bc 97 ad f0 3d 58 eb 72 3c df 96 97 3d
       -0.0091379555 0.1175186 0.014826618 0.07401823
000300 5a 58 3f 3c 03 17 df 3d 3f 51 35 bc fd bf 80 3e
       0.0116787795 0.10893061 -0.011066734 0.25146475
000310 fc f4 d0 bd aa c7 8c 3d c8 5f ad bd a4 d7 4d bd
       -0.10202977 0.068740204 -0.084655344 -0.05025448
000320 7a 55 12 bd c9 fb 14 bd 9c 65 27 be b7 b1 77 bd
       -0.035726048 -0.036372934 -0.16347355 -0.060472216
000330 81 61 de bc 67 37 96 3c db 5a 76 bd b9 3b 05 3e
       -0.027146103 0.018336965 -0.06014524 0.13011064
000340 d3 3f 40 3d 81 e4 be 3d ae a0 ec 3d 96 af 26 3d
       0.046935868 0.093209274 0.11554085 0.040694796
000350 1a c6 1b be 9c 57 da bc b8 36 3f bd c5 6a b6 bd
       -0.15212288 -0.026653104 -0.046683043 -0.089070834
000360 9f 18 d9 3d 2c a9 50 bd 42 41 0b 3d 0b 60 44 bd
       0.10600399 -0.050942585 0.03399778 -0.047943156
000370 6b 07 31 be 9f d8 23 bd e7 f6 0d bd a5 4e 2d 3b
       -0.17287986 -0.040001508 -0.034659293 0.002644458
000380 7f ff aa bd f9 32 18 3c d3 81 96 bc 67 c6 cc bd
       -0.08349513 0.009289497 -0.018372452 -0.0999878
000390 58 e3 d1 3c ee 7b dd bc 08 72 16 be 31 d7 c1 bd
       0.025621101 -0.027036633 -0.14691937 -0.09464873
0003a0 42 13 1f 3c fe e6 02 3e 15 07 12 3d d7 ee 9f bd
       0.009709181 0.12783429 0.035651285 -0.07809227
0003b0 da c2 03 3d 06 96 07 ba 81 14 84 bd e9 58 d1 3d
       0.032168247 -0.00051721965 -0.06449223 0.102220364
0003c0 30 0e 28 3e 5e c2 a0 bc 47 18 9b 3c b2 ef fb bd
       0.16411662 -0.019623931 0.018932475 -0.12301578
0003d0 5d c7 0b bd ed 29 7b bd 4a 17 2a bd 80 11 93 3d
       -0.034125675 -0.06131928 -0.041526116 0.07181072
0003e0 50 de 0a be 00 2f b0 3c ba 87 88 3c 8e c4 a6 3c
       -0.13561368 0.021506786 0.016666282 0.020357396
0003f0 b7 1d 24 3e 22 6b 08 bd 76 c0 c5 bd ea 1b 99 3d
       0.1602696 -0.033305295 -0.0965585 0.07476027

b_draw_mode f4 [4]
000000 c5 d8 51 bb 13 a2 26 3c f3 1b 3a bb cc 49 87 bb
       -0.0032020074 0.010170477 -0.0028398007 -0.0041286703

W_lay_eggs_bin f4 [256, 11]
000000 a3 c0 23 be 27 41 25 3e 8b 76 4d bd fd 41 41 3d
       -0.15991454 0.16138135 -0.05016188 0.047182072
000010 1c 09 92 3d 85 ba 80 3d 47 2b cc bd fa 61 1a 3d
       0.07130644 0.06285576 -0.09969192 0.037691094
000020 73 b5 17 bc 37 db 73 3d 67 6c 47 3d 28 e2 c1 39
       -0.009259569 0.05953523 0.048687365 0.00036980328
000030 6d f8 82 bb eb 7f 56 bd 5c 9d 3f 3d 73 9b be 3c
       -0.0039969 -0.052368086 0.04678093 0.023267483
000040 9c 3f 41 3c 26 1c d0 bd 7d 3a 0e 3e 00 35 02 bd
       0.011794951 -0.10161619 0.13889499 -0.031788826
000050 b1 18 c7 3d 3c 04 14 be 07 8e 43 be 5d 9e 1f bd
       0.097215064 -0.1445474 -0.19097148 -0.038969386
000060 1c 87 98 3d 01 63 69 3d 46 5f 40 bd 1e d2 bf bc
       0.07447645 0.056979183 -0.04696586 -0.023415621
000070 26 04 fe 3d da 3d ce bd 1a 99 1e 3e da 28 35 bd
       0.12403135 -0.10070391 0.15488091 -0.044228412
000080 8d 31 7d bc d6 54 08 3d bb ca 94 3c d9 11 5a bd
       -0.015453708 0.03328403 0.018163076 -0.053239677
000090 08 17 15 3e 00 4a 19 be fb 32 34 3d a6 ea d1 bc
       0.14559567 -0.14969635 0.04399393 -0.025624584
0000a0 ea 03 65 be 2f 7e 2e 3d 5e 2d e8 3d 77 75 da bb
       -0.22364774 0.042600807 0.11336778 -0.006666835
0000b0 f2 da 07 3e 7b e3 a5 bc 2e ea 0e 3d 27 3a e4 bb
       0.13267115 -0.020250073 0.0348913 -0.00696494
0000c0 a9 fa 80 bd ad ad ba 3b 75 9d 41 bb 11 eb a1 bd
       -0.0629781 0.0056969733 -0.0029543315 -0.079061635
0000d0 60 27 73 bd 26 05 46 bc b5 6f c3 bd ec e4 6c bd
       -0.059363723 -0.012086188 -0.09542791 -0.057835504
0000e0 58 22 29 be a1 46 33 ba 74 4a db 3d 35 a3 80 3c
       -0.16517007 -0.00068388326 0.1070756 0.015702823
0000f0 b7 66 7c 3b 1e fb 96 3c 5c c8 b7 bd 62 87 f4 3d
       0.0038513371 0.018430289 -0.089737624 0.11939885
000100 fa f7 83 bd d1 fa 42 3c fe 1f 44 bd 83 e9 79 bd
       -0.06443782 0.01190062 -0.047882073 -0.06101371
000110 82 36 2d bd 99 03 29 be 85 59 aa bd 0f 79 fd bc
       -0.04228831 -0.16505279 -0.08317856 -0.030941514
000120 a2 31 8a bd e9 ed e1 3d d2 12 8b bb be 4d d6 3c
       -0.06747748 0.11031706 -0.004244187 0.026160117
000130 7e 3a 54 3d b0 98 74 3d 03 b5 80 3d ed c4 9d 3a
       0.051813595 0.059715927 0.06284525 0.0012036838
000140 ca f2 dd 3d 00 05 04 3e 4c ee 37 bd fd 70 36 3e
       0.10837324 0.12892532 -0.044904992 0.17816539
000150 42 67 8b 3d 79 fa fc b9 06 68 42 bd b5 13 92 3e
       0.06806804 -0.00048251802 -0.047462486 0.2853066
000160 7b 46 a6 bd 7f ae f6 bc 10 90 03 be 91 dc 2c 3d
       -0.08118912 -0.030112503 -0.12847924 0.042202536
000170 f0 b1 cb 3b f3 62 ba 3d fb 36 a6 bc 9e 85 9e bd
       0.00621628 0.09100904 -0.020289889 -0.07740329
000180 bf 14 a0 bc bc f7 55 3e ea fb 00 bd 44 e3 68 3d
       -0.019541143 0.20895284 -0.031490244 0.056857362
000190 bc 7c 82 3c 92 86 62 bc 45 51 ab bd 9b f3 2a bd
       0.015928619 -0.013826029 -0.0836511 -0.041736227
0001a0 9b 06 07 3e 5e bf 55 bc 4f 91 07 3d f9 e4 ca bd
       0.13186114 -0.013046114 0.03309756 -0.09906954
0001b0 24 20 18 3e 94 2c a8 bd 94 32 c6 bd 59 f3 4f bd
       0.1485601 -0.082116276 -0.09677616 -0.050769184
0001c0 dd c8 47 3d de a3 ae bd 31 c5 55 3d f0 4d 02 3e
       0.048775543 -0.08527349 0.05219001 0.12725043
0001d0 b3 f2 3c bc ad a3 8b 3c 57 d8 db bd 02 63 38 3e
       -0.011532473 0.01704582 -0.10734623 0.18006518
0001e0 6e 5d e1 3d 2f 5d 55 3b 15 13 c3 bd e3 b7 86 3d
       0.110041484 0.0032556762 -0.09525124 0.06578042
0001f0 5f e0 8d 3e c4 32 72 be 2d 1c f4 bd c4 65 eb bc
       0.27710244 -0.23652178 -0.119194366 -0.02873505
000200 c3 e5 1b 3d 87 94 98 bd 6b a5 d4 3c 15 d0 40 3d
       0.038060915 -0.07450204 0.025957784 0.047073442
000210 f5 10 22 3d 49 54 90 3a 2c e5 f8 bd 69 87 af 3d
       0.039566953 0.0011011447 -0.12153086 0.08570749
000220 bb 7b bd bd 4f 0a 9f bd 0f 2c b7 3d b1 3c e5 3c
       -0.09252115 -0.07765638 0.089439504 0.027983041
000230 3d 74 a7 3d 3c d9 37 3e f4 db 0b bd 75 80 37 3d
       0.081764676 0.17953962 -0.03414531 0.04480024
000240 fd ec 4a bd 9e a3 23 be aa 10 cf bd 4b f5 80 bd
       -0.049542416 -0.15980384 -0.101106 -0.06296786
000250 c1 da fc bd 48 91 5f be ef c6 18 3d 0d 72 19 3e
       -0.123464115 -0.21832764 0.037299093 0.14984913
000260 c0 2f 52 3d 26 ef 8f 3d 16 72 09 be 57 9a f8 bc
       0.05131507 0.07028036 -0.13422427 -0.030347032
000270 6f f7 ba bd 60 61 5e be e5 5c 0b 3e 51 93 00 bc
       -0.091292255 -0.21716833 0.13609655 -0.007847623
000280 65 76 1b 3e 14 5e cc 3c 45 25 d8 3d 0d 72 bf 3d
       0.15181883 0.024947204 0.105539836 0.09347925
000290 00 18 f1 3c 0b b5 ae 3d bd d3 a2 3d 88 d6 4b bd
       0.02943039 0.08530625 0.07950542 -0.04976514
0002a0 7b 83 78 bd dd 25 c2 bd 89 23 26 bd 13 d0 18 3d
       -0.060672265 -0.09479878 -0.040561233 0.03730781
0002b0 e7 f1 a1 bd 7b 74 c9 3d fb eb bf 3c 56 6c 9a bd
       -0.07907467 0.0983667 0.023427954 -0.07540195
0002c0 ae 5d 30 bd 5a 07 bc 3c 63 10 92 bd 7a 28 86 bd
       -0.04305809 0.022952724 -0.07132032 -0.06550689
0002d0 0c 03 74 bc c5 a0 03 3d c3 c2 a0 3c bc d2 95 3d
       -0.014893305 0.032135744 0.01962412 0.07315585
0002e0 16 16 a0 bd 26 30 24 3d aa 2b 4a be e8 05 73 3c
       -0.078167126 0.04008498 -0.19743219 0.014832951
0002f0 81 94 e9 3b 25 d1 d1 bd 67 71 86 bd 55 eb 8a bd
       0.0071282987 -0.10244969 -0.065645985 -0.06783167
000300 45 b5 39 3e f8 e6 4d bd 6f 7d e5 3d 89 c8 95 3b
       0.18135555 -0.050269097 0.11205565 0.004571025
000310 22 09 42 bd a0 1c 2b 3d cd ac 1a 3e 32 bb ab bd
       -0.04737199 0.041775346 0.15104981 -0.08385314
000320 ae 5a dd bc e2 28 ec 3d 7e ae 8d 3b 60 01 b5 3d
       -0.027020779 0.11531235 0.0043237796 0.08838153
000330 6e e4 1e 3e c3 eb 41 3d 88 90 bd bd 3c 38 19 be
       0.15516827 0.04734398 -0.09256083 -0.14962858
000340 cb 6f f5 3c 41 7e 5f 3d 38 0d 04 3d eb 31 82 3d
       0.029960534 0.054563764 0.03223917 0.06357177
000350 50 a7 aa 3c c6 72 b8 3d b3 56 b8 bd 76 e3 97 3d
       0.020831734 0.09006266 -0.090009116 0.074164316
000360 a5 78 41 bd c2 5d 4a bd 98 b4 f9 bd 32 97 98 3d
       -0.047234196 -0.04940582 -0.12192649 0.07450713
000370 de eb a3 3c 15 fd a8 3c fa 85 77 3b dd cc ab bd
       0.020009931 0.020628491 0.0037769065 -0.08388684
000380 dc 36 0b 3e 83 3b 83 3d 90 25 75 3e de 89 f9 3d
       0.13595146 0.06407835 0.2394011 0.12184499
000390 0b ca a2 3d 62 cb 43 3c df d3 63 bd 4e cd 91 3a
       0.07948693 0.011950346 -0.055621978 0.0011123808
0003a0 5a eb e6 3b 92 b5 89 bc 8c e3 d4 3d 50 91 c0 bb
       0.007047099 -0.016810212 0.103949636 -0.0058766976
0003b0 68 ad 46 bd b4 42 78 bd 74 48 90 3b 4a b5 1e 3d
       -0.048505217 -0.060610488 0.0044031683 0.03874711
0003c0 3c 95 88 3d 61 1f 0b 3e 2c 86 fc bc c5 32 8f bd
       0.06669089 0.13586189 -0.030825697 -0.069921054
0003d0 ef 85 b9 bc a6 31 1e bd 7a c0 3b 3c 28 c5 18 3e
       -0.022646872 -0.038621567 0.011459464 0.14918959
0003e0 4f 42 95 3d 97 08 cf 3c b6 a4 4d 3d 32 2d 08 bd
       0.07288038 0.02527265 0.05020591 -0.033246227
0003f0 f8 f1 c1 3a ac 5e f8 bc 94 a5 06 bc 77 1b 0b 3c
       0.0014796844 -0.03031858 -0.008218188 0.008490435

b_lay_eggs_bin f4 [11]
000000 32 da 2f b9 08 0f 0f ba 2b c3 02 3b d6 a2 a2 3a
       -0.00016770585 -0.0005457257 0.0019952755 0.0012408148
000010 73 b0 bf b9 c6 cd b0 b9 bf ab d9 b9 e7 b9 cc b9
       -0.00036561824 -0.0003372265 -0.00041517426 -0.0003904842
000020 d6 da e5 b8 f9 65 4c b9 fb 05 3a ba
       -0.00010960332 -0.00019492944 -0.0007096228
