reports/ml/auto_improve_factorized_phase3_prod2/iter_001/factorized_model.npz (npz, 94219 bytes, 17 tensors)

W1 f4 [48, 256]
0.023801373 0.3522957 -0.18414477 -0.05111 0.27834287 0.059514053 -0.3848169 -0.20871636
0.108809404 -0.040877216 0.34778807 -0.03806913 0.07931676 -0.07509872 -0.12310831 0.086269565
0.14668848 0.056222394 0.107089765 0.029371783 -0.34636018 0.050879415 -0.17328723 0.122223504
-0.12989683 0.06294865 0.019872796 -0.07170854 -0.13131045 0.14615607 -0.3470978 -0.12736666
0.077312134 0.035599012 -0.09964238 -0.23083934 -0.052020162 -0.014465887 -0.121416554 0.043225423
0.09008713 0.24190934 0.5045952 0.030017776 0.39207485 0.3105939 -0.26815107 0.5512408
0.08237058 -0.16259073 0.4151852 -0.0071724206 -0.15545583 0.13962029 -0.008922736 -0.1661083
0.49066782 0.58586055 0.22301203 0.12887184 0.046521157 -0.34306374 0.0073914714 0.032557104
-0.2954781 0.19094345 0.13947627 0.15286565 -0.041628934 0.04963819 -0.14236777 -0.30308858
0.088512704 -0.03379171 -0.10804328 -0.16570853 -0.47603706 0.020875314 -0.16515768 -0.29663315
-0.082781486 0.571602 0.12630814 -0.060062148 -0.102543436 0.4320376 0.29007423 0.166914
-0.12771156 0.07657821 -0.042950463 -0.11952554 0.09206051 -0.064940505 -0.20444986 -0.015570284
0.19523466 0.02002628 0.15417509 -0.014409402 -0.26898465 0.3340308 0.18796968 0.035669245
0.32325915 -0.081578396 -0.16921236 -0.16257146 0.47966403 -0.0521186 -0.44600847 -0.13332479
-0.17396313 -0.026799034 0.014336738 0.12582193 0.094751686 0.068482 -0.31211478 0.21007274
0.04297209 0.25516042 -0.021089755 -0.04899042 0.11812112 0.27212548 0.010103949 -0.29265004
-0.4738119 -0.16757299 0.25482786 0.051941797 0.34387958 -0.114281185 -0.07390942 -0.22502823
-0.044903893 -0.074469484 -0.46717724 -0.1296034 -0.021866938 -0.14593276 0.21430098 0.15851834
0.25410843 0.071074404 0.19470757 0.13596512 -0.105339274 -0.053489026 0.10014124 -0.046684388
-0.2953425 0.19529575 -0.30765346 0.230796 0.5474224 0.025344418 0.011386031 0.08139204
-0.017062843 0.27192494 0.35281053 0.015101604 0.33553827 0.24913007 0.19325444 -0.16694193
-0.18657234 0.049347423 0.3268148 -0.11573833 -0.56744444 0.06414059 -0.14908135 -0.20775665
0.23735541 0.109536104 0.054422636 0.098829396 -0.2569764 0.003556089 -0.37158704 0.32593578
-0.43356925 -0.7026286 0.09316042 -0.23088801 0.10832733 0.13997547 0.5236162 0.20906307
-0.35201082 0.06993312 0.13320088 -0.3156518 0.06676511 -0.2963989 0.14264819 0.077102646
0.3586927 0.15902777 0.14604 0.19507354 0.07355161 0.6090774 -0.2038735 0.4823454
-0.2368032 0.05673494 -0.05435144 0.6438831 -0.08816349 0.049414486 -0.34475702 -0.36948806
0.27386773 0.14614193 0.020915614 -0.064249516 -0.33464733 -0.2349372 -0.0023234207 -0.099252656
-0.22561051 -0.08273809 -0.30477414 0.46814197 -0.05551665 0.1917467 0.27802974 -0.15104643
0.0014494014 -0.21381782 0.02104721 0.15798843 0.083258964 0.08694733 -0.21437496 -0.33889362
0.30358237 0.41139495 0.15775765 0.24858265 0.18505804 -0.18448576 0.39640895 0.2954471
0.043565422 0.3842781 -0.1604764 0.027124876 -0.05668637 0.043005947 -0.09574975 -0.06045982
00000000: 19fb c23c 1a60 b43e 7290 3cbe b858 51bd
00000010: f582 8e3e 02c5 733d b906 c5be beb9 55be
00000020: 77d7 de3d de6e 27bd 4711 b23e 60ee 1bbd
00000030: d370 a23d 5ccd 99bd 3620 fcbd 19ae b03d
00000040: 8135 163e 7449 663d e151 db3d 189d f03c
00000050: 1f56 b1be ef66 503d 3572 31be 5150 fa3d
00000060: ad03 05be 39eb 803d 46cc a23c eddb 92bd
00000070: 3f76 06be f0a9 153e ceb6 b1be 686c 02be
00000080: d355 9e3d 45d0 113d 4e11 ccbd 2661 6cbe
00000090: 1813 55bd 5402 6dbc 3ea9 f8bd 240d 313d
000000a0: 9a7f b83d 15b7 773e 272d 013f d7e7 f53c
000000b0: 09be c83e 2a06 9f3e 194b 89be 1e1e 0d3f
000000c0: e8b1 a83d 2f7e 26be 2893 d43e a006 ebbb
000000d0: d02f 1fbe 9ff8 0e3e ab30 12bc 4b18 2abe
000000e0: d038 fb3e f5fa 153f 445d 643e fbf6 033e
000000f0: f88c 3e3d 0da6 afbe 2834 f23b 995a 053d
00000100: e848 97be ae86 433e ded2 0e3e d088 1c3e
00000110: 1a83 2abd 6a51 4b3d dbc8 11be 6d2e 9bbe
00000120: 2646 b53d 2d69 0abd cc45 ddbd 7faf 29be
00000130: 21bb f3be b502 ab3c 181f 29be 4de0 97be
00000140: 5789 a9bd 8254 123f ec56 013e ba03 76bd
00000150: 4b02 d2bd 0834 dd3e 9c84 943e 81eb 2a3e
00000160: d2c6 02be 09d5 9c3d d3ec 2fbd cec9 f4bd
00000170: 388a bc3d 87ff 84bd 4e5b 51be 811a 7fbc
00000180: 98eb 473e 270e a43c 13e0 1d3e 6a15 6cbc
00000190: 5bb8 89be 1606 ab3e 207b 403e ea19 123d
000001a0: 3982 a53e 9312 a7bd 0146 2dbe 2279 26be
000001b0: 8696 f53e 507a 55bd 395b e4be 4b86 08be
000001c0: 6423 32be a689 dbbc a3e4 6a3c 77d7 003e
000001d0: 2c0d c23d 4a40 8c3d 82cd 9fbe 4f1d 573e
000001e0: 8103 303d 63a4 823e 6cc4 acbc 2eaa 48bd
000001f0: 7ce9 f13d 0854 8b3e 098b 253c 3ad6 95be
00000200: 7997 f2be 4198 2bbe cc78 823e ecc0 543d
00000210: fc10 b03e 410c eabd d25d 97bd cd6d 66be
00000220: 25ed 37bd 7583 98bd db31 efbe c1b6 04be
00000230: 4b22 b3bc 666f 15be b771 5b3e a252 223e
00000240: 801a 823e 758f 913d 6c61 473e 713a 0b3e
00000250: 1ebc d7bd 4f17 5bbd da16 cd3d 2138 3fbd
00000260: 2237 97be 9cfb 473e c184 9dbe c955 6c3e
00000270: e023 0c3f 199f cf3c 7a8c 3a3c dfb0 a63d
00000280: 60c7 8bbc bf39 8b3e 95a3 b43e b86c 773c
00000290: accb ab3e f41b 7f3e 7ee4 453e d3f2 2abe
000002a0: d20c 3fbe 8620 4a3d 4554 a73e 3808 edbd
000002b0: 0a44 11bf 245c 833d c8a8 18be 29be 54be
000002c0: 4c0d 733e 7754 e03d 45ea 5e3d 1167 ca3d
000002d0: 6992 83be 460d 693b a840 bebe 0ee1 a63e
000002e0: cafc ddbe 78df 33bf e4ca be3d e86d 6cbe
000002f0: b8da dd3d bb55 0f3e b60b 063f a114 563e
00000300: c33a b4be 1839 8f3d d065 083e 1d9d a1be
00000310: 25bc 883d 99c1 97be 5e12 123e fee7 9d3d
00000320: 92a6 b73e 2dd8 223e 828b 153e 5cc1 473e
00000330: 3aa2 963d 7fec 1b3f 37c4 50be faf5 f63e
00000340: 8a7c 72be e562 683d 9e9f 5ebd 86d5 243f
00000350: 0f8f b4bd d866 4a3d fe83 b0be 8a2d bdbe
00000360: 6438 8c3e 3ba6 153e 3957 ab3c 4095 83bd
00000370: e556 abbe 6193 70be 8844 18bb fa44 cbbd
00000380: 7106 67be 9672 a9bd 5b0b 9cbe 4eb0 ef3e
00000390: 6d65 63bd 3f59 443e ea59 8e3e eaab 1abe
000003a0: d7f9 bd3a 0ff3 5abe 336b ac3c b8c7 213e
000003b0: ad83 aa3d 7111 b23d 1c85 5bbe 7783 adbe
000003c0: 266f 9b3e 5ca2 d23e 398b 213e 738c 7e3e
000003d0: db7f 3d3e d6e9 3cbe 1df6 ca3e d844 973e
000003e0: a871 323d 19c0 c43e ed53 24be fd34 de3c
000003f0: f82f 68bd 0127 303d 7218 c4bd b7a4 77bd

b1 f4 [256]
-0.005659351 0.18755908 0.006324344 0.00032185498 0.0064841784 -0.00014380133 -0.0028307047 0.017246066
0.18191238 0.0 -0.008255221 0.021080848 0.0014000925 -0.025174553 0.00067505124 0.0020067967
0.0 0.0 -0.024792336 -0.008767035 -0.010052594 0.034112345 0.00036447632 0.117815465
-0.00013441533 0.08298763 0.19278699 -0.0019326254 0.0 -0.0010713377 -0.0031876895 0.04775263
0.15376554 0.029883416 0.00057974795 -0.050113864 0.017009627 -0.010656566 2.3812445e-06 -3.7345853e-07
0.013372719 0.11475544 0.11334762 0.0 0.08058471 0.25427175 -0.0008611825 0.13804139
0.004486266 0.075774536 -0.0038750179 -0.024819255 0.07203283 0.08383627 -0.023234323 0.030055782
0.2562634 0.26004797 -0.00012889876 0.0 -0.017426165 0.083050646 -0.0029571443 0.117890134
0.0 0.0 0.0025356354 -0.017106285 0.0055003883 0.0126135675 0.007417854 -1.897676e-05
0.16192882 -0.0014735254 0.15517811 0.0 0.00033071238 0.107447 4.5158242e-05 -0.010333878
-0.009399499 0.16260293 -0.0018907582 0.0020939065 0.0 -0.013859877 -0.0050292513 0.0
0.023843605 0.11951463 0.005728769 0.09414291 -0.0010583457 0.0 -4.000375e-06 -0.012478196
-0.0031282192 0.14739086 0.0022083654 -0.0074494337 0.09484798 0.09012612 0.057004932 -0.0033208115
0.11033241 0.0 0.0 0.0009880754 0.076747015 0.16952683 0.009868877 0.0
0.0035623831 -0.01948725 0.0 0.0 -0.0046890536 -0.013783466 -0.00013322107 -0.032246783
-0.014719101 0.007561277 -0.011328872 0.00205211 0.155286 -0.032837138 -0.0019259414 -0.0040800427
0.030619117 0.0 0.093434654 0.00723702 -0.0044592805 0.0955841 -0.034394547 0.010693928
9.908951e-05 -0.0052596484 0.00020159532 0.0 0.12625085 0.04245269 0.017258156 0.12826458
0.17030689 0.0 -0.075407326 0.04704868 0.041317225 -0.002652787 0.03617044 0.018233195
-0.0017146278 0.040316682 0.0 -0.005565 0.078145385 0.032413352 -0.039744537 0.0
0.0006164091 -0.012846579 0.19134332 -0.007861113 0.23356391 0.0 0.10731969 0.002198899
0.0061485907 0.18399641 0.0851743 0.11190105 0.0018825418 1.1997319e-05 0.10136055 -0.0068870625
-0.021214793 0.115394875 0.044756502 -0.0014878586 -0.022939058 0.03145512 0.009876666 -0.018497674
-7.0569113e-06 8.023897e-05 -0.018788157 0.021926956 0.10011333 0.17381386 0.21935895 0.17401458
-0.013143691 0.15197462 0.011650258 0.008967062 0.15271962 0.0 0.07066751 0.012797796
0.09280453 0.004396585 0.029962191 0.08470293 0.017525025 0.26502788 0.0 0.2028947
0.0041473205 0.068415545 7.186487e-05 0.13193609 0.04236652 -0.0013525027 0.0 0.0
0.10026748 0.09157556 -0.024917949 -0.003474508 -0.0033656275 -0.01618336 -0.005571736 0.0035001463
0.0024019675 0.04098615 0.06176807 0.24232548 0.010399846 0.16216186 0.14077748 0.016937066
-0.009862626 -0.0009205378 -0.056583583 -0.010023579 0.0 -0.009028848 0.0 -0.006845356
0.06955586 0.23219268 -0.00053131435 0.0070675737 0.109936714 -0.015561521 -0.01207569 0.07617607
0.004538387 0.22021145 -0.0009803147 -0.00307515 -0.0012785606 -0.00056011544 0.04839786 0.017995529
00000000: 1472 b9bb 7d0f 403e 713c cf3b a5be a839
00000010: 3b79 d43b 60c9 16b9 5883 39bb 9f47 8d3c
00000020: 3d47 3a3e 0000 0000 e840 07bc beb1 ac3c
00000030: 4f83 b73a dd3a cebc ecf5 303a 7684 033b
00000040: 0000 0000 0000 0000 4c19 cbbc 9ca3 0fbc
00000050: a3b3 24bc 63b9 0b3d 2f17 bf39 3c49 f13d
00000060: d7f1 0cb9 6bf5 a93d f469 453e 2650 fdba
00000070: 0000 0000 216c 8cba 8ee8 50bb 4398 433d
00000080: b774 1d3e 11ce f43c 3afa 173a 3244 4dbd
00000090: c657 8b3c e198 2ebc 78cd 1f36 c07f c8b4
000000a0: 4019 5b3c e604 eb3d cc22 e83d 0000 0000
000000b0: 9909 a53d e82f 823e fbc0 61ba b95a 0d3e
000000c0: 8701 933b ae2f 9b3d 03f4 7dbb c051 cbbc
000000d0: f385 933d 5ab2 ab3d e855 bebc 8b37 f63c
000000e0: f534 833e 0225 853e ff28 07b9 0000 0000
000000f0: 51c1 8ebc 7516 aa3d a6cc 41bb 6270 f13d
00000100: 0000 0000 0000 0000 e72c 263b 7b22 8cbc
00000110: 9a3c b43b 23a9 4e3c 7811 f33b 4830 9fb7
00000120: abd0 253e 4f23 c1ba 03e7 1e3e 0000 0000
00000130: 7763 ad39 2c0d dc3d 4b68 3d38 6d4f 29bc
00000140: 5b00 1abc 6281 263e 51d3 f7ba ec39 093b
00000150: 0000 0000 8a14 63bc 6bcc a4bb 0000 0000
00000160: aa53 c33c 16c4 f43d 66b8 bb3b ffcd c03d
00000170: 30b8 8aba 0000 0000 f63a 86b6 5971 4cbc
00000180: cf02 4dbb a1ed 163e 39ba 103b 611a f4bb
00000190: a83f c23d 0b94 b83d 017e 693d f9a1 59bb
000001a0: f5f5 e13d 0000 0000 0000 0000 4f82 813a
000001b0: 8a2d 9d3d 7198 2d3e 12b1 213c 0000 0000
000001c0: df76 693b baa3 9fbc 0000 0000 0000 0000
000001d0: a2a6 99bb 0cd4 61bc 42b1 0bb9 3415 04bd
000001e0: 6228 71bc 97c4 f73b bc9c 39bc b17c 063b
000001f0: 4b03 1f3e 3c80 06bd df6f fcba e1b1 85bb
00000200: f1d4 fa3c 0000 0000 ab5a bf3d 8624 ed3b
00000210: 281f 92bb 99c1 c33d 4ce1 0cbd 9635 2f3c
00000220: 47ce cf38 2159 acbb 5563 5339 0000 0000
00000230: e747 013e dfe2 2d3d fa60 8d3c ca57 033e
00000240: ee64 2e3e 0000 0000 286f 9abd 1eb6 403d
00000250: 403c 293d 61da 2dbb 7527 143d c85d 953c
00000260: 5dbd e0ba 1b23 253d 0000 0000 9b5a b6bb
00000270: b00a a03d ddc3 043d 2bcb 22bd 0000 0000
00000280: 8496 213a 757a 52bc 81ef 433e e6cb 00bc
00000290: 612b 6f3e 0000 0000 6dca db3d 671b 103b
000002a0: 1e7a c93b 8e69 3c3e dd6f ae3d 612c e53d
000002b0: 9fbf f63a 1848 4937 1f96 cf3d deac e1bb
000002c0: a5ca adbc 2654 ec3d 9852 373d 4004 c3ba
000002d0: b1ea bbbc 15d7 003d bdd1 213c 6f88 97bc
000002e0: 68ca ecb6 f845 a838 9fe9 99bc 29a0 b33c
000002f0: 3808 cd3d 43fc 313e a29f 603e e130 323e
00000300: a358 57bc 3c9f 1b3e b9e0 3e3c 96ea 123c
00000310: 8862 1c3e 0000 0000 21ba 903d d9ad 513c
00000320: 4d10 be3d 3a11 903b 4573 f53c bb78 ad3d
00000330: a490 8f3c bcb1 873e 0000 0000 a1c3 4f3e
00000340: 3fe6 873b 731d 8c3d 29b6 9638 411a 073e
00000350: 8488 2d3d 7646 b1ba 0000 0000 0000 0000
00000360: 0959 cd3d f88b bb3d ba20 ccbc 92b4 63bb
00000370: dc91 5cbb f792 84bc 1c93 b6bb b662 653b
00000380: 546a 1d3b 18e1 273d 8400 7d3d 2c24 783e
00000390: 1e64 2a3c c20d 263e f927 103e 9abf 8a3c
000003a0: da96 21bc 3f50 71ba 30c4 67bd f039 24bc
000003b0: 0000 0000 bced 13bc 0000 0000 024f e0bb
000003c0: 4d73 8e3d ebc3 6d3e e747 0bba 1b97 e73b
000003d0: 8026 e13d c0f5 7ebc 1dd9 45bc 3302 9c3d
000003e0: c0b6 943b 1c7f 613e e77d 80ba 7588 49bb
000003f0: 6095 a7ba b6d4 12ba d63c 463d 5c6b 933c

W_action_type f4 [256, 4]
0.15481582 0.03833397 0.0139269475 0.10583429 -0.12628856 0.017846553 0.014069422 0.13950145
0.17044207 0.089044906 -0.16802876 0.0016912835 0.034718756 -0.022168757 0.06461371 -0.021463787
-0.06608417 0.049460676 0.10060551 0.17451598 -0.09274233 0.05024431 0.1236089 -0.12518066
0.035525013 -0.055390365 0.09401409 0.01016598 0.21503998 -0.079358675 -0.059554093 0.1659197
0.028758418 -0.049329977 0.06977658 0.1737107 -0.016877992 0.046942748 0.030889248 0.02502103
-0.02856276 -0.007210243 0.016936043 0.04228093 0.09359828 0.09106387 0.14858909 0.029428858
-0.03107565 0.0022043085 0.16005144 0.03235411 0.14049831 -0.026836665 0.14121652 -0.0039349976
-0.009055068 0.043987814 -0.048851978 0.03352991 -0.095963575 -0.027460428 -0.03002018 0.027576234
0.20094001 -0.045398884 0.08236452 -0.04656135 -0.09896754 0.09078131 -0.044344034 -0.017170649
0.07587107 -0.020329745 0.0012694717 0.028947616 0.113149635 0.10488413 0.036209874 0.0895629
-0.025729196 0.016377797 0.027044276 -0.013730335 -0.118727215 -0.04086743 0.07711949 -0.06294613
-0.05481004 -0.08351691 0.064662725 -0.025535569 0.07379843 0.12227562 -0.08179779 -0.10161325
-0.061622962 0.13014303 0.0003633805 0.06562975 -0.098909765 -0.015790155 0.13884509 -0.04522462
-0.07469617 -0.013946666 -0.043055445 0.053878445 0.044127896 0.01974746 -0.053316236 0.026451774
0.05035728 -0.0365187 0.09905089 -0.048649665 0.09630933 0.07295965 0.04811868 -0.038412794
-0.11726341 0.03894777 0.059454635 -0.06254191 -0.012892412 -0.037388824 -0.10836166 -0.055409577
-0.036421336 -0.0020773388 -0.08191589 -0.037926 -0.048244335 0.0008915339 0.037751637 0.006714443
-0.058949277 -0.02842568 -0.10591392 -0.08178332 0.07357267 -0.09864797 -0.057060704 0.11084765
-0.041176796 -0.112488694 0.07925471 -0.11785997 -0.010867722 -0.15931976 0.07489816 0.042355414
0.04602455 0.1002044 0.052554704 -0.015059096 -0.13659263 0.09340202 0.0128025785 -0.122741975
0.12302054 -0.0213618 0.024766669 -0.047544185 -0.10809146 0.004232994 -0.039861154 0.061998434
-0.046944637 -0.08213008 0.083121054 -0.11274908 -0.11410334 -0.06969337 -0.22375321 -0.005591242
0.08345818 0.049945354 -0.013398603 -0.024139537 0.09019088 0.035095043 -0.070331566 0.05228108
0.18418723 0.047020264 -0.0712826 0.10419958 -0.027174687 -0.06234276 -0.0586612 0.09665507
-0.0799346 -0.13723004 -0.04655708 0.17636856 -0.03708086 0.1714184 0.061480116 -0.062193487
0.058190342 -0.030990867 -0.020831032 0.15692733 0.11780704 -0.08678211 0.009932589 -0.05117126
0.10319666 -0.049459707 0.082702845 -0.006742938 0.016807823 0.032482993 0.0739871 -0.19073276
-0.06782372 -0.032745603 0.0738966 -0.15353133 -0.014579236 0.18432583 0.046555348 0.061647482
0.052015923 0.17248535 0.18554671 -0.116551384 0.029892994 -0.0049212626 -0.040884975 0.06410368
-0.123227805 0.0684352 -0.10793002 0.07206405 0.10010678 -0.204654 0.026729763 0.06820586
-0.06749485 -0.025694815 0.08725414 -0.02003865 -0.13635957 -0.12663288 -0.07178242 -0.00468777
-0.0060257423 -0.04934036 -0.14945035 0.18449108 0.05605726 0.19243301 -0.07183248 -0.039568372
00000000: 0a88 1e3e 1504 1d3d da2d 643c a6bf d83d
00000010: ca51 01be ef32 923c 6f83 663c 78d9 0e3e
00000020: 5e88 2e3e 2d5d b63d bb0f 2cbe 0fae dd3a
00000030: 4135 0e3d 419b b5bc 3154 843d d3d4 afbc
00000040: 2357 87bd 4797 4a3d 430a ce3d 51b4 323e
00000050: b1ef bdbd facc 4d3d aa26 fd3d 5c2f 00be
00000060: ad82 113d 02e1 62bd 768a c03d 368f 263c
00000070: 7133 5c3e cd86 a2bd feee 73bd dbe6 293e
00000080: c696 eb3c 3b0e 4abd 06e7 8e3d 38e1 313e
00000090: b743 8abc 0a47 403d 730b fd3c e7f8 cc3c
000000a0: 73fc e9bc e743 ecbb 75bd 8a3c c52e 2d3d
000000b0: 74b0 bf3d b27f ba3d bd27 183e ca14 f13c
000000c0: 5d92 febc 2976 103b 86e4 233e be85 043d
000000d0: cade 0f3e 91d8 dbbc 109b 103e 27f1 80bb
000000e0: b55b 14bc 912c 343d 0319 48bd a956 093d
000000f0: 8d88 c4bd b1f4 e0bc e1ec f5bc 8ee7 e13c
00000100: 38c3 4d3e 2ef4 39bd bbae a83d 1db7 3ebd
00000110: 7eaf cabd 8deb b93d 17a2 35bd 76a9 8cbc
00000120: 4b62 9b3d 918a a6bc 6764 a63a 8d23 ed3c
00000130: ffba e73d 7ecd d63d ce50 143d c16c b73d
00000140: 09c6 d2bc bb2a 863c f58b dd3c 33f5 60bc
00000150: 4127 f3bd 9b64 27bd d3f0 9d3d e7e9 80bd
00000160: 7e80 60bd ea0a abbd e46d 843d f82f d1bc
00000170: a223 973d a46b fa3d 9a85 a7bd 9c1a d0bd
00000180: 5c68 7cbd 3744 053e 1b84 be39 e468 863d
00000190: 3491 cabd 5b5a 81bc 682d 0e3e 733d 39bd
000001a0: 4efa 98bd 8f80 64bc e85a 30bd a5af 5c3d
000001b0: 74bf 343d 6dc5 a13c 2062 5abd 64b1 d83c
000001c0: 6f43 4e3d a294 15bd 31db ca3d df44 47bd
000001d0: d33d c53d de6b 953d 1818 453d bc56 1dbd
000001e0: cc27 f0bd b287 1f3d b486 733d f915 80bd
000001f0: b23a 53bc 0625 19bd b8ec ddbd 27f5 62bd
00000200: 8a2e 15bd f623 08bb 85c3 a7bd 4b58 1bbd
00000210: da9b 45bd d4b5 693a 76a1 1a3d d504 dc3b
00000220: cc74 71bd f9dc e8bc 66e9 d8bd 037e a7bd
00000230: 45ad 963d f207 cabd 7cb8 69bd 1804 e33d
00000240: 00a9 28bd 7960 e6bd 4b50 a23d 9160 f1bd
00000250: 880e 32bc b824 23be 3564 993d df7c 2d3d
00000260: 3d84 3c3d f737 cd3d 9a43 573d 6dba 76bc
00000270: f0de 0bbe 8f49 bf3d e8c1 513c 2560 fbbd
00000280: 31f2 fb3d f1fe aebc 78e3 ca3c b1bd 42bd
00000290: 0e5f ddbd edb4 8a3b 7345 23bd 12f2 7d3d
000002a0: 0549 40bd d133 a8bd 5f3b aa3d fde8 e6bd
000002b0: 03af e9bd 66bb 8ebd 901f 65be bd36 b7bb
000002c0: 1fec aa3d 8093 4c3d d085 5bbc 47c0 c5bc
000002d0: ffb5 b83d d2bf 0f3d ff09 90bd b024 563d
000002e0: 949b 3c3e 5298 403d 9dfc 91bd 9766 d53d
000002f0: 739d debc 1f5b 7fbd ba46 70bd 18f3 c53d
00000300: c0b4 a3bd 0886 0cbe a3b2 3ebd f699 343e
00000310: 1ae2 17bd 4e88 2f3e 93d2 7b3d 99be 7ebd
00000320: ff58 6e3d 8fe0 fdbc d7a5 aabc 8fb1 203e
00000330: d144 f13d d2ba b1bd 4cbc 223c f598 51bd
00000340: c558 d33d 4396 4abd 1c60 a93d ddf3 dcbb
00000350: 8fb0 893c e30c 053d 8c86 973d 734f 43be
00000360: 2ae7 8abd 4120 06bd 1a57 973d 5137 1dbe
00000370: bfdd 6ebc e9bf 3c3e d2b0 3e3d 1282 7c3d
00000380: a60e 553d 00a0 303e f5ff 3d3e 7eb2 eebd
00000390: 27e2 f43c 8b42 a1bb 0177 27bd ca48 833d
000003a0: dc5e fcbd c127 8c3d 6a0a ddbd 5196 933d
000003b0: c904 cd3d d190 51be 60f8 da3c 84af 8b3d
000003c0: bd3a 8abd ef7d d2bc 4cb2 b23d 1828 a4bc
000003d0: d8a1 0bbe 0dac 01be a902 93bd dd9b 99bb
000003e0: 9773 c5bb 1e19 4abd 8309 19be 3beb 3c3e
000003f0: 4c9c 653d 290d 453e e81c 93bd 7212 22bd

b_action_type f4 [4]
-0.005524834 0.0059639853 -0.010410897 0.009971743
00000000: ab09 b5bb 896d c33b 7892 2abc 8660 233c

W_play_habitat f4 [256, 4]
0.12935868 0.13019772 0.07248033 0.03054811 -0.14578794 0.016342206 -0.012264154 -0.11593159
-0.033872932 0.11182675 0.02420055 -0.064974114 0.03597542 -0.027833859 0.03443265 -0.014378562
-0.073709846 -0.03908084 0.04830658 0.09848603 -0.09917966 -0.02334223 0.18274778 -0.08383551
0.15301332 -0.03884422 0.0024705846 -0.07257448 -0.0011802182 0.15665269 -0.101644665 -0.009808256
-0.19918011 -0.012998776 -0.060744375 0.07911729 0.07020116 -0.05135159 -0.18215714 0.03181513
-0.02306009 -0.08566528 0.008357828 0.07777264 0.011187911 -0.026664777 -0.08055207 -0.03429085
-0.14935213 -0.08871194 0.17842253 -0.047706623 -0.032986253 0.12293788 -0.04356909 -0.08203907
-0.07225374 -0.036625866 -0.042907264 -0.038572736 0.090719424 -0.065477714 -0.077592604 -0.032657802
-0.05468883 0.017984403 -0.14148484 -0.089642495 0.08370578 -0.0030630096 0.019982161 -0.04054564
-0.03592815 0.12889314 0.023580533 0.054903455 -0.15174955 0.003618479 0.13210256 -0.08884297
0.0738366 -0.14243768 0.01163666 -0.028394027 0.15644072 -0.0043200296 -0.109366484 0.1244749
-0.16653511 -0.048311707 -0.17935018 -0.073085494 0.056144226 0.074637726 -0.08987563 -0.05977083
-0.10576323 0.025492815 0.057173014 0.03434642 0.04713114 -0.18519871 -0.0603651 0.002064123
-0.0066129947 0.16123566 0.083521284 -0.10090812 -0.050093148 -0.021713935 -0.063123964 0.04619358
0.040436834 0.042487018 0.08915076 0.17626427 0.030318674 0.013837341 0.058701374 -0.078999415
0.18827792 0.07237519 0.038026515 0.16681804 -0.02376526 0.09953799 -0.001143274 0.023574937
-0.046959933 -0.0025487007 0.0047767623 -0.19434837 -0.0093895905 -0.00010677155 0.15980653 0.041578792
-0.12635508 0.028564727 -0.021296658 -0.1583284 -0.041971985 0.13608107 0.08279224 -0.16652809
-0.020890003 -0.05113971 -0.096558295 0.013310048 -0.06727864 0.005701875 -0.0018353075 0.07414516
0.054278396 0.027889313 0.21294795 -0.042901233 -0.03336315 -0.06888117 -0.15683836 -0.052417766
0.11656344 -0.01325042 -0.008829639 0.041716628 -0.06607167 -0.053540967 -0.10119436 0.1548677
0.20635247 -0.07334006 0.033395562 0.008388637 0.00720526 -0.06853072 0.066794805 -0.061223328
-0.18773976 -0.035978265 -0.12573457 0.052217655 -0.051064577 -0.043192405 -0.02709465 -0.024769677
0.17983271 0.067591354 0.071772106 0.13386135 -0.13009937 -0.07689113 0.024127027 -0.007843356
0.0918992 -0.03923293 0.050207935 -0.09404149 -0.029306896 -0.13203317 0.1408892 -0.056069538
0.1473678 -0.17603937 0.016246313 0.14460257 -0.11708608 0.14108607 0.056077972 -0.08363207
0.037022647 -0.0053269463 -0.15110569 0.12571226 -0.07495357 0.03029679 -0.0131653845 -0.015682494
-0.0771186 -0.028536346 0.1694142 -0.14781892 0.05396782 0.09474357 -0.1310004 0.06907754
-0.042869374 -0.019018618 -0.077896066 0.030648446 0.04983335 -0.14619678 0.06082222 0.018105302
0.03574755 0.1606074 -0.024388378 -0.08303136 -0.08182322 -0.10810829 -0.0004159902 0.07418065
-0.104737036 -0.0028069403 0.020230178 -0.038588203 0.0056264377 -0.04114493 0.0032232385 0.1279924
-0.08926109 -0.05376243 0.15620475 -0.05147264 0.057209358 -0.02896837 -0.044202063 0.074464954
00000000: 9a76 043e 8d52 053e 9170 943d 0840 fa3c
00000010: 6f49 15be 17e0 853c 97ef 48bc 8b6d edbd
00000020: 58be 0abd 6c05 e53d 3b40 c63c 2611 85bd
00000030: f65a 133d d503 e4bc 4009 0d3d 0f94 6bbc
00000040: 30f5 96bd 3b13 20bd 1fdd 453d 0bb3 c93d
00000050: b51e cbbd 3438 bfbc 3c22 3b3e f4b1 abbd
00000060: 86af 1c3e 1e1b 1fbd 88e9 213b eea1 94bd
00000070: 8db1 9aba 9069 203e 142b d0bd cfb2 20bc
00000080: dff5 4bbe d1f8 54bc 18cf 78bd 3f08 a23d
00000090: a0c5 8f3d 0b56 52bd 6787 3abe 9550 023d
000000a0: 84e8 bcbc 4771 afbd 45ef 083c 4347 9f3d
000000b0: 804d 373c 1770 dabc 7cf8 a4bd 9074 0cbd
000000c0: c4ef 18be 9bae b5bd 65b4 363e 0568 43bd
000000d0: 981c 07bd dbc6 fb3d 8175 32bd 1a04 a8bd
000000e0: c5f9 93bd 0105 16bd 87bf 2fbd 72fe 1dbd
000000f0: 1bcb b93d 2e19 86bd dfe8 9ebd 30c4 05bd
00000100: 6501 60bd 0754 933c 67e1 10be 7c96 b7bd
00000110: f06d ab3d c6bc 48bb a1b1 a33c 2f13 26bd
00000120: 6529 13bd 90fc 033e f62b c13c 72e2 603d
00000130: 3c64 1bbe 0124 6d3b e545 073e 4ef3 b5bd
00000140: a537 973d 2fdb 11be b1a7 3e3c 979a e8bc
00000150: ff31 203e 098f 8dbb 89fb dfbd b2ec fe3d
00000160: 2e88 2abe 7fe2 45bd 93a7 37be d9ad 95bd
00000170: 7df7 653d aadb 983d b710 b8bd 42d2 74bd
00000180: 649a d8bd 4fd6 d03c 402e 6a3d d5ae 0c3d
00000190: 950c 413d bba4 3dbe 6541 77bd 3d46 073b
000001a0: d2b1 d8bb f61a 253e 350d ab3d eba8 cebd
000001b0: 792e 4dbd 6ce1 b1bc 2347 81bd 7b35 3d3d
000001c0: 18a1 253d de06 2e3d ac94 b63d 9f7e 343e
000001d0: de5e f83c 04b6 623c da70 703d 72ca a1bd
000001e0: edcb 403e 7239 943d b1c1 1b3d 59d2 2a3e
000001f0: 5daf c2bc 93da cb3d e9d9 95ba 3a20 c13c
00000200: 0f59 40bd 1a08 27bb 6386 9c3b 4203 47be
00000210: ccd6 19bc 8aea dfb8 53a4 233e 864e 2a3d
00000220: 3a63 01be 9300 ea3c 5476 aebc d720 22be
00000230: d1ea 2bbd d658 0b3e fa8e a93d 5786 2abe
00000240: 8321 abbc df77 51bd 5bc0 c5bd 6312 5a3c
00000250: 62c9 89bd cbd6 ba3b b38e f0ba 6bd9 973d
00000260: 0653 5e3d 2178 e43c 070f 5a3e 34b9 2fbd
00000270: cca7 08bd 9211 8dbd 3c9a 20be 03b4 56bd
00000280: d0b8 ee3d 4a18 59bc 31aa 10bc 0edf 2a3d
00000290: 9550 87bd c64d 5bbd fd3e cfbd a395 1e3e
000002a0: 104e 533e 5033 96bd c9c9 083d 7e70 093c
000002b0: 1a1a ec3b d659 8cbd b7cb 883d 50c5 7abd
000002c0: da3e 40be f25d 13bd 90c0 00be 2ee2 553d
000002d0: 1729 51bd 85ea 30bd 99f5 ddbc c7e9 cabc
000002e0: 1126 383e 566d 8a3d 41fd 923d f312 093e
000002f0: c538 05be 1979 9dbd 0ba6 c53c 6b81 00bc
00000300: a635 bc3d b5b2 20bd d6a6 4d3d d398 c0bd
00000310: 0415 f0bc b433 07be 4245 103e 2ca9 65bd
00000320: 96e7 163e aa43 34be fd16 853c b212 143e
00000330: d4ca efbd de78 103e 04b2 653d 4a47 abbd
00000340: 0fa5 173d aa8d aebb 73bb 1abe b7ba 003e
00000350: 4281 99bd f930 f83c a0b3 57bc 9378 80bc
00000360: 5bf0 9dbd 0ec5 e9bc eb7a 2d3e d85d 17be
00000370: 5c0d 5d3d eb08 c23d f824 06be 8678 8d3d
00000380: cc97 2fbd efcc 9bbc f987 9fbd 7312 fb3c
00000390: 0e1e 4c3d 9cb4 15be b820 793d 9251 943c
000003a0: 066c 123d 4476 243e 23ca c7bc 580c aabd
000003b0: ef92 a7bd e167 ddbd 4219 dab9 06ec 973d
000003c0: 5f80 d6bd a5f4 37bb c2b9 a53c aa0e 1ebd
000003d0: fb5d b83b 9687 28bd f83c 533b 7110 033e
000003e0: 85ce b6bd fe35 5cbd 23f4 1f3e fad4 52bd
000003f0: 5c54 6a3d 134f edbc 390d 35bd 1581 983d

b_play_habitat f4 [4]
-0.00028642663 -0.00029588785 0.0012123801 -0.000630066
00000000: 882b 96b9 6521 9bb9 bae8 9e3a 032b 25ba

W_gain_food_primary f4 [256, 7]
0.07494006 -0.050887823 0.09542056 0.13012923 -0.116803855 0.20311399 -0.04789633 0.15698333
-0.025710348 -0.0009257791 0.040638465 -0.04935117 0.074955255 -0.034092408 0.1196128 -0.08015303
0.023942359 -0.029864727 -0.027048264 0.070255816 0.034474727 0.16180617 -0.009352354 0.07886416
0.0335254 -0.014345002 -0.02264013 0.06935989 -0.12962197 0.059810266 0.1161024 0.07129287
-0.10738698 0.07134519 -0.19850759 0.05616081 -0.03614464 0.033679582 -0.022296026 0.15962125
-0.062650196 0.05307905 -0.1631443 -0.0666814 -0.058573075 0.23126556 -0.07669083 0.121174045
0.20255353 0.11261676 0.07712054 0.0060204044 -0.013324976 -0.11121242 -0.09347977 0.0642453
0.043602567 -0.025207423 0.13693213 0.072257 -0.006353631 0.07484542 0.080163665 0.1280589
0.0073749786 0.043880075 0.12073295 0.1986856 -0.09706419 0.11094338 -0.014882918 -0.0054695397
-0.045877628 -0.1572813 0.09113284 0.022240734 0.04203868 -0.077034526 -0.06496598 0.053896423
-0.012456343 -0.05351901 0.04979273 0.033641484 0.05828486 0.083223686 -0.07751578 -0.03112422
-0.13234362 -0.000774025 -0.10877457 0.027992146 -0.00069581985 0.017012624 -0.047554124 0.23396197
0.22136903 0.1068501 -0.0562693 0.08933194 0.006156199 0.07209042 -0.14347199 -0.10662699
0.008202243 0.054266762 -0.019512018 -0.044411387 -0.21151598 -0.059770152 -0.08882505 -0.031854343
0.03550205 0.03855572 0.017443372 -0.032465648 0.0794712 -0.009508266 -0.1691409 -0.060002774
-0.000575226 -0.059284303 -0.03873676 -0.05468521 0.01146096 -0.020518558 -0.12229063 0.052758284
-0.056603737 0.08864949 0.07069434 0.12092523 -0.061305817 0.03531966 0.10116019 -0.09171376
0.01922516 0.054358 0.011009006 0.018284233 -0.157429 0.073365964 0.078910656 -0.123323716
-0.028759928 -0.066219985 0.029256852 -0.006495254 -0.084911786 -0.15978645 -0.11934881 0.16181143
0.015987953 -0.12632212 -0.023376139 0.0063675437 -0.06256264 0.055600185 0.021045588 0.021015946
-0.047051817 0.11133743 -0.011671321 0.052083068 0.100922555 -0.06836701 0.04535069 0.09607455
-0.011312137 0.25158334 -0.19619608 0.045049854 -0.05861693 -0.09364236 -0.14597477 -0.22249894
-0.025162788 -0.055888247 0.15506671 0.13679618 0.02317569 -0.0038271153 -0.045448642 -0.011376131
-0.030277394 0.100508794 -0.07535344 0.054103155 -0.004485328 0.0007634009 -0.04812445 0.013213186
-0.021119883 -0.13475767 0.031735048 -0.036716156 0.08477579 -0.0039292024 -0.01621699 -0.13256112
-0.04877443 -0.04360196 0.16819498 0.07027354 -0.014093566 0.2930089 -0.039811023 -0.049022112
0.063845254 0.052722238 -0.06406717 -0.051804252 0.034908593 -0.09217895 -0.013406075 -0.14355306
-0.04732453 0.07949521 -0.12864135 -0.052022822 -0.10717709 0.12936378 0.0011511047 -0.1638819
-0.09086987 -0.18865724 -0.13957486 -0.12837133 0.17874706 -0.16583946 -0.14816737 -0.03927449
0.19104452 -0.07108779 0.011732464 -0.16978677 0.10338144 -0.084445536 0.054055374 0.085405625
0.06186564 0.020741915 -0.15469787 -0.027920034 -0.034966514 0.08589755 -0.018429207 -0.055243257
-0.10161797 -0.013944219 -0.09874393 -0.21154122 -0.1088041 -0.19540942 -0.020120705 0.066586204
00000000: 2d7a 993d c06f 50bd db6b c33d 9940 053e
00000010: dc36 efbd 1dfd 4f3e f12e 44bd 3dc0 203e
00000020: 829e d2bc fcaf 72ba 8574 263d 7424 4abd
00000030: 2482 993d 7ba4 0bbd 8ef7 f43d 4627 a4bd
00000040: c422 c43c dfa6 f4bc 5294 ddbc 48e2 8f3d
00000050: 5f35 0d3d 84b0 253e 9e3a 19bc 8883 a13d
00000060: ee51 093d 4d07 6bbc cb77 b9bc 8f0c 8e3d
00000070: 9fbb 04be 9cfb 743d 18c7 ed3d ff01 923d
00000080: b4ed dbbd 6d1d 923d 9345 4bbe e108 663d
00000090: 670c 14bd 9af3 093d 28a6 b6bc c173 233e
000000a0: bf4e 80bd 6b69 593d 4d0f 27be 4290 88bd
000000b0: 52ea 6fbd e1d0 6c3e 1510 9dbd 192a f83d
000000c0: 316a 4f3e 9ea3 e63d 60f1 9d3d d046 c53b
000000d0: 0051 5abc 56c3 e3bd 5272 bfbd 0a93 833d
000000e0: 9b98 323d cc7f cebc f037 0c3e 7afb 933d
000000f0: 1f32 d0bb 8e48 993d d92c a43d df21 033e
00000100: cea9 f13b 98bb 333d d642 f73d 3d74 4b3e
00000110: 97c9 c6bd 4836 e33d 7cd7 73bc d339 b3bb
00000120: 2eea 3bbd 590e 21be dba3 ba3d 3332 b63c
00000130: c030 2c3d 47c4 9dbd e20c 85bd 7fc2 5c3d
00000140: b015 4cbc c036 5bbd 76f3 4b3d a7cb 093d
00000150: 1bbc 6e3d 2e71 aa3d 98c0 9ebd 38f8 febc
00000160: 1685 07be f0e7 4aba 34c5 debd c94f e53c
00000170: ae67 36ba 0f5e 8b3c 1dc8 42bd ba93 6f3e
00000180: 90ae 623e 3ad4 da3d a37a 66bd aaf3 b63d
00000190: f1b9 c93b 24a4 933d 52ea 12be 405f dabd
000001a0: b362 063c d346 5e3d abd7 9fbc b7e8 35bd
000001b0: a597 58be 8cd1 74bd e8e9 b5bd b379 02bd
000001c0: 996a 113d 9aec 1d3d 67e5 8e3c b3fa 04bd
000001d0: ccc1 a23d 8fc8 1bbc 4633 2dbe 78c5 75bd
000001e0: c3ca 16ba 19d4 72bd 70aa 1ebd 99fd 5fbd
000001f0: c0c6 3b3c 8916 a8bc 8373 fabd 1219 583d
00000200: 52d9 67bd dd8d b53d 32c8 903d a6a7 f73d
00000210: cf1b 7bbd 59ab 103d 132d cf3d 6cd4 bbbd
00000220: 157e 9d3c 7fa6 5e3d 1e5f 343c d1c8 953c
00000230: 1135 21be e540 963d e99b a13d 2591 fcbd
00000240: f199 ebbc 589e 87bd 11ac ef3c 24d6 d4bb
00000250: 3be6 adbd 0f9f 23be 266d f4bd e5b1 253e
00000260: 2bf9 823c 965a 01be 517f bfbc d4a6 d03b
00000270: d720 80bd 05bd 633d cc67 ac3c a229 ac3c
00000280: 68b9 40bd e104 e43d 1139 3fbc 0e55 553d
00000290: 7cb0 ce3d 0104 8cbd a5c1 393d bcc2 c43d
000002a0: 8b56 39bc 88cf 803e a0e7 48be 3286 383d
000002b0: 4e18 70bd 91c7 bfbd 697a 15be c3d6 63be
000002c0: 3122 cebc 13eb 64bd cfc9 1e3e 4c14 0c3e
000002d0: f2da bd3c 57d0 7abb 5b28 3abd f462 3abc
000002e0: 4c08 f8bc 8ed7 cd3d e852 9abd 459b 5d3d
000002f0: a9f9 92bb f81e 483a 251e 45bd 1e7c 583c
00000300: 9b03 adbc eafd 09be 9cfc 013d ae63 16bd
00000310: ee9e ad3d 8ac0 80bb 7ed9 84bc 1abe 07be
00000320: b2c7 47bd f897 32bd 4e3b 2c3e 93eb 8f3d
00000330: b3e8 66bc 4305 963e e210 23bd 69cb 48bd
00000340: 4dc1 823d 46f3 573d a635 83bd b230 54bd
00000350: 50fc 0e3d 51c8 bcbd 27a5 5bbc 93ff 12be
00000360: 5ed7 41bd 62ce a23d 8fba 03be e215 55bd
00000370: aa7f dbbd f077 043e aae0 963a a8d0 27be
00000380: fb19 babd 5d2f 41be b6ec 0ebe c673 03be
00000390: 7809 373e d2d1 29be 30b9 17be 4ade 20bd
000003a0: 2da1 433e 7a96 91bd 8539 403c 95dc 2dbe
000003b0: a6b9 d33d c8f1 acbd 2b69 5d3d 25e9 ae3d
000003c0: d366 7d3d f3ea a93c 1e69 1ebe 8eb8 e4bc
000003d0: 0c39 0fbd 0eeb af3d d9f8 96bc c146 62bd
000003e0: 151d d0bd 4b76 64bc 423a cabd 439e 58be
000003f0: afd4 debd 6819 48be 2dd4 a4bc 595e 883d

b_gain_food_primary f4 [7]
0.0010053631 -6.03111e-05 0.0011392173 -0.0009251609 -0.00076857413 0.001132182 -0.0015227161
00000000: 63c6 833a 8df6 7cb8 ca51 953a 7f86 72ba
00000010: 237a 49ba b965 943a e095 c7ba

W_draw_mode f4 [256, 4]
0.070111185 -0.17280087 -0.0495456 0.10331811 -0.05272787 0.106099166 0.089247 -0.045906402
-0.007388668 0.12781227 -0.04030831 -0.0547289 -0.012876292 -0.067538515 -0.043533467 0.00010783932
-0.019947173 -0.050621983 -0.017020866 -0.029207814 -0.004067997 0.06640275 -0.09742832 -0.067766674
0.07465648 -0.0033878458 0.1047524 -0.08511377 0.096118614 0.04292594 -0.0032952996 0.031075891
-0.088680744 0.018792499 0.080230966 -0.03344477 0.2171756 0.13323861 0.08756951 -0.027846523
0.008790447 0.014099332 0.1421569 -0.054270487 -0.07659433 0.1262873 -0.03104303 -0.04021893
0.0210647 0.1280472 -0.15467519 -0.16678852 -0.05784614 -0.050445903 -0.17441604 -0.026513966
0.18405075 -0.04590007 -0.04093432 -0.030658556 -0.027429279 -0.056450617 0.004697842 -0.16483788
-0.05673719 -0.005519533 -0.092491396 0.14426693 -0.13396832 -0.09300266 0.019660842 0.009159895
-0.26068717 0.030425893 -0.043647647 0.0618124 0.036678288 0.06722266 0.086663015 0.044690773
-0.1573463 0.14236589 0.07567886 -0.03599584 0.002326043 0.057328425 -0.085747935 -0.12820095
-0.10827041 -0.14569153 0.046598215 -0.037179578 0.036344234 -0.051323026 -0.033214096 -0.01396068
0.015949458 0.05071547 0.0013325857 0.08121599 -0.1883401 0.057996143 -0.06317837 0.13713658
0.13262098 0.075168654 0.14564359 -0.07664861 0.101429075 -0.073304445 0.10606119 -0.110486455
0.055753764 0.10443922 0.06561178 -0.13619415 0.021813523 0.11948376 -0.117598735 -0.027460393
-0.04859137 0.12782955 0.07382829 0.015346853 0.02653579 -0.20147976 -0.22298713 -0.010864036
0.050310325 0.04446866 -0.07280303 0.008023286 0.042550936 -0.049692098 0.014592046 0.008088227
0.053726193 -0.057603754 -0.030180275 0.069780275 -0.05464642 0.119202025 -0.023379344 -0.0959983
-0.037165456 -0.042260453 -0.12422087 0.10080311 0.050113935 -0.047018506 0.014192784 0.06520801
0.086516105 -0.015167672 0.016342111 -0.108799234 0.13016957 0.06274892 0.11709994 -0.021477869
0.049252864 0.03469893 -0.041946232 0.021652017 -0.029732136 0.22509311 -0.13682382 -0.062337946
0.07019625 -0.11860887 -0.013851955 -0.0042870757 0.021338627 0.13868645 0.053836185 -0.14206204
-0.03840269 0.024308443 0.07978692 0.032273486 -0.013076235 -0.017104272 -0.057737704 -0.07243253
0.07596181 -0.009536928 -0.074599326 0.04506884 -0.050124336 0.0601141 0.032793596 0.025626028
-0.064703345 -0.016902905 -0.1424542 -0.020310786 -0.12915619 0.0517959 -0.20974371 0.088831626
0.13104576 -0.042108558 -0.014141839 0.07109518 0.03803837 -0.009522034 -0.0034829811 0.023678854
-0.20111544 -0.04162286 0.011900566 -0.07724422 0.028923398 -0.12790418 -0.16352239 0.0155971665
-0.012645266 -0.021389732 -0.043418042 0.11738967 -0.063937575 -0.02597705 -0.10186263 0.020580882
-0.035798613 0.01390972 -0.031513505 -0.05016955 -0.08195356 0.0628685 -0.08386915 -0.030893747
0.12604833 -0.1242013 0.025028773 0.05064373 0.03255815 -0.06419356 0.11955885 0.0738084
0.007541014 -0.08830466 0.054094944 -0.14105351 -0.06835778 -0.023605824 0.01370662 0.09266155
0.20764029 -0.034468632 -0.021892527 -0.018009743 0.005725616 0.0774441 -0.16051026 -0.08160331
00000000: 7496 8f3d b6f2 30be 54f0 4abd 7298 d33d
00000010: 2ef9 57bd 854a d93d 22c7 b63d 5a08 3cbd
00000020: a41c f2bb 38e1 023e 541a 25bd 692b 60bd
00000030: 15f7 52bc a251 8abd 2650 32bd cb27 e238
00000040: 4168 a3bc ff58 4fbd 586f 8bbc 3a45 efbc
00000050: d54c 85bb 2afe 873d 8088 c7bd 41c9 8abd
00000060: 7fe5 983d 9f06 5ebb 6d88 d63d 2150 aebd
00000070: d6d9 c43d 1cd3 2f3d f4f5 57bb de92 fe3c
00000080: 409e b5bd baf2 993c 2250 a43d 62fd 08bd
00000090: 4863 5e3e b46f 083e a557 b33d 641e e4bc
000000a0: cf05 103c e200 673c 9491 113e bb4a 5ebd
000000b0: 7ddd 9cbd 7551 013e f44d febc 9bbc 24bd
000000c0: e18f ac3c ce1e 033e 2c63 1ebe 9cca 2abe
000000d0: 13f0 6cbd 5da0 4ebd 1e9a 32be d133 d9bc
000000e0: cd77 3c3e b601 3cbd bfaa 27bd a727 fbbc
000000f0: 5eb3 e0bc c338 67bd 5bf0 993b 43cb 28be
00000100: 4165 68bd 33dd b4bb 216c bdbd b6ba 133e
00000110: fe2e 09be 2e78 bebd c60f a13c 6213 163c
00000120: ca78 85be b93f f93c e0c7 32bd 002f 7d3d
00000130: f93b 163d 09ac 893d 617c b13d ac0d 373d
00000140: 631f 21be 5dc8 113e 85fd 9a3d 6070 13bd
00000150: 8770 183b 36d1 6a3d 9d9c afbd 1c47 03be
00000160: e0bc ddbd 2930 15be c5dd 3e3d 9d49 18bd
00000170: b1dd 143d 1838 52bd 810b 08bd 56bb 64bc
00000180: 70a8 823c 06bb 4f3d 28aa ae3a 9254 a63d
00000190: 3adc 40be 5d8d 6d3d a963 81bd 886d 0c3e
000001a0: cbcd 073e 06f2 993d 9823 153e f2f9 9cbd
000001b0: 0cba cf3d a420 96bd 9c36 d93d b946 e2bd
000001c0: 0f5e 643d 3be4 d53d 785f 863d 7b76 0bbe
000001d0: 46b2 b23c e7b3 f43d 9bd7 f0bd 9ef4 e0bc
000001e0: bf07 47bd c0e5 023e 4933 973d 5e71 7b3c
000001f0: 9661 d93c b650 4ebe bd56 64be 12ff 31bc
00000200: 3312 4e3d c524 363d c119 95bd 1a74 033c
00000210: e449 2e3d f189 4bbd 7a13 6f3c 7c84 043c
00000220: ff0f 5c3d eaf1 6bbd a03c f7bc f6e8 8e3d
00000230: edd4 5fbd 3120 f43d 0a86 bfbc c29a c4bd
00000240: ce3a 18bd 4c19 2dbd 8367 febd dc71 ce3d
00000250: 4544 4d3d 7a96 40bd da88 683c c78b 853d
00000260: 5b2f b13d d481 78bc e4df 853c 22d2 debd
00000270: 2c4b 053e 8182 803d 18d2 ef3d 5bf2 afbc
00000280: 5fbd 493d 7720 0e3d d0cf 2bbd 925f b13c
00000290: cf90 f3bc cf7e 663e 8b1b 0cbe 1356 7fbd
000002a0: 0dc3 8f3d 35e9 f2bd 4ff3 62bc 997a 8cbb
000002b0: 58ce ae3c d203 0e3e 5583 5c3d b678 11be
000002c0: 244c 1dbd 8022 c73c 5367 a33d 3431 043d
000002d0: b43d 56bc 421e 8cbc 5f7e 6cbd 8257 94bd
000002e0: de91 9b3d c640 1cbc 88c7 98bd 1b9a 383d
000002f0: 2d4f 4dbd 343a 763d 9452 063d aded d13c
00000300: 3083 84bd f677 8abc 84df 11be ce62 a6bc
00000310: 8541 04be f027 543d 0ec7 56be 5bed b53d
00000320: dc30 063e 067a 2cbd 2cb3 67bc 5a9a 913d
00000330: 1fce 1b3d 4e02 1cbc ba42 64bb 28fa c13c
00000340: 35f1 4dbe bb7c 2abd 97fa 423c 3832 9ebd
00000350: c3f0 ec3c 50f9 02be 6a72 27be 428b 7f3c
00000360: 172e 4fbc 8539 afbc 1ed7 31bd ff69 f03d
00000370: b4f1 82bd d3cd d4bc 5b9d d0bd 3d99 a83c
00000380: 91a1 12bd 98e5 633c 4e14 01bd 967e 4dbd
00000390: 45d7 a7bd 33c1 803d 97c3 abbd e214 fdbc
000003a0: d012 013e 405d febd 2409 cd3c cd6f 4f3d
000003b0: b25b 053d ea77 83bd 45db f43d dc28 973d
000003c0: 9c1a f73b 13d9 b4bd a992 5d3d 5570 10be
000003d0: 2aff 8bbd 0061 c1bc bb91 603c 57c5 bd3d
000003e0: a89f 543e fb2e 0dbd f557 b3bc 2b89 93bc
000003f0: f39d bb3b 039b 9e3d cd5c 24be a31f a7bd

b_draw_mode f4 [4]
-0.006578595 0.010027739 -0.0025979918 -0.0008511517
00000000: 4191 d7bb 634b 243c 1243 2abb d31f 5fba

W_lay_eggs_bin f4 [256, 11]
-0.09222911 -0.004467351 -0.0072978283 -0.038170423 -0.06038809 -0.14254135 0.02989398 0.0069461693
0.13006863 -0.035524603 -0.12899835 -0.027105669 0.09587398 0.13625233 0.17173313 0.043339476
0.11017068 0.062059678 0.035735134 -0.013514496 -0.120976985 0.036295902 0.020519432 -0.048385195
-0.035981942 0.04335062 0.03186697 0.107656054 -0.049312543 0.03194627 -0.114540406 -0.018396482
0.13103832 0.083011836 -0.19929945 0.17665175 -0.0062681744 0.05390538 -0.023878682 -0.02200374
-0.008058388 0.027292341 -0.013136557 -0.11030604 0.005554289 0.018879807 0.011017105 -0.027669836
0.12114821 0.04883653 -0.05945986 0.0106521975 0.005703167 -0.07734606 0.034280494 -0.031682435
0.0054042125 0.07444458 0.010277324 -0.049435552 -0.10447473 -0.09021513 -0.03154931 0.07155288
-0.004331013 0.117108166 0.085361205 -0.03608778 -0.032956626 0.12981594 0.15278108 0.11850807
-0.059524693 0.117798865 0.004839685 0.013947713 -0.13238917 0.03272861 -0.13141951 -0.029786589
0.11172158 -0.120000824 0.023824284 -0.056848697 -0.10232934 -0.0988973 0.06838399 -0.05897452
-0.004328711 -0.02864432 -0.028743073 -0.00048724402 -0.07760799 -0.08581463 0.009608243 0.1905196
0.034199774 0.13124232 -0.078904584 -0.0015738849 -0.069054104 -0.047433294 0.041321043 -0.04359084
-0.0142238205 -0.019815577 -0.1457562 0.09060874 -0.02098583 0.036709495 0.03344645 0.06539095
0.17275982 -0.027984064 0.11819704 -0.088857576 -0.090275705 -0.06557041 0.045421135 -0.00855701
-0.09197103 0.033373088 -0.1167839 0.043685365 0.07358335 0.1882874 -0.08459622 0.037681676
0.17750968 0.05033512 -0.016246242 -0.00031471648 0.04469895 0.021452202 -0.05497241 0.11189002
-0.009131523 -0.04578028 -0.029571129 0.085334465 -0.033760287 0.026861103 -0.16326194 -0.098009706
0.007833739 -0.15142654 -0.00037522204 0.1036495 -0.0205514 0.057336513 0.06426921 0.011558077
0.008462676 -0.044449694 -9.045989e-05 0.008658426 0.047289204 -0.12584476 -0.035530955 0.09740243
0.11108254 0.15922433 -0.042889666 -0.16393435 -0.015103582 0.019361237 0.054299153 -0.13152231
0.0815193 -0.0628804 0.064753145 0.0063810553 -0.013173996 -0.14510585 -0.084899426 0.1211441
-0.05631574 0.046634484 -0.016042193 -0.07317567 0.023630518 0.039000034 0.02763753 -0.01679094
0.14932366 -0.11334032 -0.09647507 -0.09288204 0.06458352 0.056523263 -0.07978717 0.008110609
0.015571953 -0.026810614 0.026259406 -0.13614398 -0.06352126 0.024012648 -0.042004656 0.011370421
0.031024389 0.05759029 0.1644316 0.007504646 -0.070559725 -0.046598982 -0.0706963 0.05441772
-0.11648773 -0.16667747 -0.023707343 -0.053747844 0.043069914 0.04100215 0.15194687 0.0381314
0.016471976 0.051084124 -0.076718934 -0.005773458 -0.11569782 -0.050352506 0.20638204 -0.028928012
0.0055736434 0.07153769 0.032732796 -0.19302607 0.17582375 0.039864887 -0.054136094 -0.019077528
0.02302844 -0.08054544 0.38039526 -0.09934538 -0.15672727 -0.11415158 0.10208318 -0.034563772
0.055953052 -0.080794975 -0.061704982 -0.021137932 -0.021100434 -0.21743487 -0.0024522522 0.068373375
-0.09423287 -0.0692049 0.08082846 0.019596115 0.11190582 0.062542975 0.15302315 -0.01804588
00000000: 9ee2 bcbd db62 92bb 9f22 efbb 9758 1cbd
00000010: 8059 77bd 5cf6 11be 38e4 f43c b19c e33b
00000020: b630 053e 3f82 11bd 2518 04be b50c debc
00000030: 9459 c43d bb85 0b3e cfda 2f3e bc84 313d
00000040: 2aa1 e13d 4a32 7e3d 015f 123d e86b 5dbc
00000050: c8c2 f7bd 03ab 143d 5e18 a83c 8e2f 46bd
00000060: cd61 13bd 6b90 313d f186 023d c77a dc3d
00000070: f3fb 49bd 18da 023d 2994 eabd 38b4 96bc
00000080: e92e 063e 1c02 aa3d 2815 4cbe 32e4 343e
00000090: 4265 cdbb e3cb 5c3d 3a9d c3bc 3041 b4bc
000000a0: 5407 04bc 3094 df3c b73a 57bc 22e8 e1bd
000000b0: c100 b63b d3a9 9a3c 1681 343c daab e2bc
000000c0: 8d1c f83d d008 483d 2f8c 73bd 8e86 2e3c
000000d0: a2e1 ba3b 9c67 9ebd b469 0c3d 71c5 01bd
000000e0: d215 b13b 6676 983d 3962 283c ef7c 4abd
000000f0: d9f6 d5bd b6c2 b8bd d939 01bd 518a 923d
00000100: 2ceb 8dbb 68d6 ef3d dbd1 ae3d c8d0 13bd
00000110: 87fd 06bd 78ee 043e a572 1c3e 5cb4 f23d
00000120: 2ad0 73bd 8840 f13d 3896 9e3b f384 643c
00000130: 0791 07be 6f0e 063d d692 06be 0103 f4bc
00000140: 49ce e43d fec2 f5bd 252b c33c 2eda 68bd
00000150: 0c92 d1bd ab8a cabd e80c 8c3d 448f 71bd
00000160: dcd7 8dbb 7ea7 eabc 9876 ebbc c974 ffb9
00000170: f0f0 9ebd 95bf afbd e46b 1d3c 9217 433e
00000180: 1015 0c3d 6364 063e ba98 a1bd d04a ceba
00000190: 3d6c 8dbd 6a49 42bd 4140 293d 4f8c 32bd
000001a0: 070b 69bc 4754 a2bc 1d41 15be 1391 b93d
000001b0: 7aea abbc b25c 163d 25ff 083d b1eb 853d
000001c0: f3e7 303e d63e e5bc 4a11 f23d f6fa b5bd
000001d0: 78e2 b8bd c749 86bd 830b 3a3d b432 0cbc
000001e0: 4f5b bcbd 38b2 083d 662c efbd 6def 323d
000001f0: deb2 963d 6ace 403e c840 adbd 1a58 1a3d
00000200: 19c5 353e 332c 4e3d d716 85bc 8800 a5b9
00000210: 3f16 373d 87bc af3c c02a 61bd 9826 e53d
00000220: 629c 15bc 1a84 3bbd 273f f2bc d6c3 ae3d
00000230: 3a48 0abd d10b dc3c 232e 27be 50b9 c8bd
00000240: 1559 003c 8f0f 1bbe 73b9 c4b9 3046 d43d
00000250: 695b a8bc b1d9 6a3d 939f 833d 175e 3d3c
00000260: 09a7 0a3c e210 36bd 49b5 bdb8 12dc 0d3c
00000270: 53b2 413d 73dd 00be e888 11bd ed7a c73d
00000280: 3e7f e33d b40b 233e 13ad 2fbd 68de 27be
00000290: 0475 77bc 759b 9e3c ca68 5e3d c9ad 06be
000002a0: 97f3 a63d 70c7 80bd 4c9d 843d 2c18 d13b
000002b0: bed7 57bc a196 14be c0df adbd 661a f83d
000002c0: 55ab 66bd cd03 3f3d eb6a 83bc 20dd 95bd
000002d0: ca94 c13c 80be 1f3d 1a68 e23c 278d 89bc
000002e0: 4de8 183e f81e e8bd b994 c5bd f038 bebd
000002f0: 5d44 843d f084 673d 7567 a3bd 5ce2 043c
00000300: 8121 7f3c efa1 dbbc f71d d73c 5469 0bbe
00000310: 6f17 82bd 2cb6 c43c 130d 2cbd 014b 3a3c
00000320: dc26 fe3c cce3 6b3d c260 283e 89e9 f53b
00000330: 9e81 90bd 93de 3ebd 39c9 90bd 1de5 5e3d
00000340: 1e91 eebd 80ad 2abe e735 c2bc b326 5cbd
00000350: 146a 303d dff1 273d f697 1b3e ac2f 1c3d
00000360: 3df0 863c 963d 513d d11e 9dbd 472f bdbb
00000370: fbf2 ecbd 6e3e 4ebd d055 533e 70fa ecbc
00000380: 1ca3 b63b 5a82 923d d312 063d a0a8 45be
00000390: 240b 343e 5d49 233d cfbd 5dbd 7a48 9cbc
000003a0: 24a6 bc3c 02f5 a4bd 2bc3 c23e 9775 cbbd
000003b0: 1d7d 20be 4ec8 e9bd fc10 d13d be92 0dbd
000003c0: 072f 653d d677 a5bd 5dbe 7cbd 7529 adbc
000003d0: d1da acbc 3fa7 5ebe f7b5 20bb 5707 8c3d
000003e0: 2afd c0bd 4cbb 8dbd 6489 a53d 0888 a03c
000003f0: e12e e53d 8816 803d 1ab2 1c3e f4d4 93bc

b_lay_eggs_bin f4 [11]
-0.00017323165 -0.00013971879 0.0017401578 0.000680121 4.0113493e-05 -0.00042698323 -0.00017181673 -0.000560111
-8.609169e-05 -0.00032150213 -0.00058093725
00000000: 84a5 35b9 7a81 12b9 0216 e43a 264a 323a
00000010: 893f 2838 b8dc dfb9 b429 34b9 6ad4 12ba
00000020: 208c b4b8 498f a8b9 0a4a 18ba
