reports/ml/auto_improve_factorized_stageB_ramp/iter_002/factorized_model.npz (npz, 94257 bytes, 17 tensors)

W1 f4 [48, 256]
0	0x3eae4f1f	0.3404474
1	0xbd980484	-0.07422736
2	0x3ebed9c7	0.37275526
3	0xbe72e15c	-0.2371878
4	0x3daa36a1	0.08311201
5	0x3d60f827	0.054924157
6	0xbe2332a7	-0.15937291
7	0x3e6cae27	0.23113309
8	0x3e92a464	0.28641045
9	0x3e9857dc	0.2975453
10	0x3d7a16c6	0.061056875
11	0x3d9afc5b	0.07567664
12	0x3ea0b579	0.31388453
13	0xba2393f0	-0.0006240001
14	0xbda0976e	-0.07841383
15	0xbe9325e7	-0.28739855
16	0x3d00e2d6	0.031466328
17	0xbda108ee	-0.07863031
18	0xbe2317bb	-0.15927021
19	0xbf087d2f	-0.53316015
20	0x3e3610c2	0.1777983
21	0xbe1c89a2	-0.15286878
22	0x3eb64883	0.35602197
23	0x3b778e91	0.0037774185
24	0x3ea26902	0.3172074
25	0xbddc12e6	-0.10745792
26	0x3e87ef30	0.26549673
27	0xbda4824d	-0.080326654
28	0x3ec82239	0.3908861
29	0x3e2e81bd	0.17041679
30	0x3eed4387	0.46340582
31	0x3ebcc6e2	0.36870486
32	0x3df3ff23	0.11913898
33	0x3e6bd3ad	0.23029967
34	0x3e954b0c	0.2915882
35	0xbda5db30	-0.08098447
36	0xbdbda31f	-0.092596285
37	0xbed5fcd5	-0.41794458
38	0xbdee692b	-0.11641153
39	0xbe277573	-0.16353397
40	0x3d988c41	0.07448626
41	0x3df45f0e	0.11932193
42	0x3d4ce75a	0.05002532
43	0x3f055da1	0.5209599
44	0xbd846cdd	-0.064660765
45	0xbc81e8e2	-0.015858117
46	0x3dac4013	0.08410659
47	0x3d4bc118	0.049744695
48	0x3dbc15c2	0.091838375
49	0x3d9203bc	0.071296185
50	0x3d2bcf49	0.04194573
51	0xbe019843	-0.1265574
52	0x3d25751c	0.040394887
53	0x3e917094	0.28406203
54	0x3cdc1c10	0.02686885
55	0xbe3d9f0e	-0.18517706
56	0x3e783fee	0.24243137
57	0xbdcc68a3	-0.09980895
58	0xbdf1a415	-0.11798874
59	0x3ea34433	0.3188797
60	0x3d08df54	0.033416107
61	0x3e55ecec	0.2089116
62	0xbb56ba2a	-0.003276477
63	0x3d78e870	0.060768545
64	0x3d0f74b1	0.035023395
65	0x3d73194f	0.059350308
66	0x3b829b63	0.0039858087
67	0x3d858a4e	0.0652052
68	0x3e116ef3	0.1420248
69	0x3e43bd68	0.19115222
70	0xbdf6b336	-0.120459005
71	0xbe9cbffc	-0.30615222
72	0xbdc7b4bf	-0.097512715
73	0xbd5c2975	-0.053750474
74	0xbdc99755	-0.098433174
75	0x3e01d959	0.12680568
76	0x3e835c55	0.2565638
77	0x3d4bf32b	0.04979245
78	0x3e82499e	0.2544679
79	0xbc04072f	-0.008058353
80	0x3e344486	0.17604265
81	0x3da2487c	0.079239815
82	0x3e796e50	0.24358487
83	0x3cc86cb1	0.02446589
84	0x3e25b9e2	0.1618419
85	0x3db3942e	0.087684974
86	0x3e42b569	0.19014515
87	0xbea29b96	-0.31759328
88	0x3df6fb2b	0.12059625
89	0xbe74cca3	-0.23906188
90	0x3edfee34	0.43736422
91	0xbe26c269	-0.16285099
92	0xbb07b87f	-0.0020709333
93	0xbe93cf7e	-0.2886924
94	0xbbd9c5d1	-0.006645896
95	0x3e0a5aff	0.13511275
96	0xbe362f70	-0.17791533
97	0x3d169d24	0.036770955
98	0xbe2067ab	-0.15664546
99	0x3e1e79c4	0.15476137
100	0xbe429672	-0.19002703
101	0x3d7f8006	0.062377952
102	0xbe0ab845	-0.13546856
103	0xbdf5e485	-0.12006477
104	0xbd9d16b4	-0.07670346
105	0x3ed1a465	0.40945736
106	0xbe514d52	-0.20439652
107	0xbd867d79	-0.06566901
108	0xbe825cc4	-0.254614
109	0x3d9e792a	0.07737954
110	0xbe3a012f	-0.18164514
111	0xbd3b6060	-0.045746207
112	0xbdbb81b0	-0.09155595
113	0xbcb391e0	-0.021920145
114	0xbee95f8e	-0.45580715
115	0x3e216d21	0.15764286
116	0x3dbf58bb	0.09343096
117	0x3e8f95c5	0.28043953
118	0x3e79c0f8	0.24390018
119	0xbd78bc36	-0.060726367
120	0x3e52fb93	0.2060378
121	0xbe8c9906	-0.27460498
122	0x3e8f6163	0.28003988
123	0x3e8f5bf1	0.27999833
124	0x3d99bb2c	0.07506403
125	0xbd5a7ee8	-0.053343683
126	0x3ce8e03d	0.028427238
127	0xbdb6ed4e	-0.08931981
128	0xbc35ea3e	-0.011103211
129	0x3d74cd94	0.059766367
130	0x3e54f2ba	0.20795718
131	0x3e46025a	0.19336835
132	0xbe1f9ac5	-0.15586384
133	0xbd9beae3	-0.076131605
134	0x3e93f39a	0.2889679
135	0x3e0da141	0.13831045
136	0x3c9d8c8b	0.019232055
137	0x3d879ef9	0.066221185
138	0x3d2e6610	0.042577803
139	0x3e6a85f8	0.22902668
140	0x3e0f2d35	0.13982089
141	0x3e151aff	0.1456108
142	0xbd249db6	-0.040189467
143	0xbd083f5a	-0.03326354
144	0x3eb9af8f	0.36266753
145	0xbe64f2a4	-0.22358185
146	0xbe0b08f7	-0.13577639
147	0xbe421e7d	-0.18956943
148	0xbdfd57c9	-0.12370259
149	0x3db40011	0.08789075
150	0xbe8fc4fe	-0.2807998
151	0xbdf27052	-0.1183783
152	0x3e771f0e	0.2413294
153	0xbd6a1d77	-0.057157006
154	0x3ed83c03	0.42233285
155	0xbde88fe1	-0.11355568
156	0xbb70adc9	-0.0036724678
157	0xbe2631a0	-0.16229868
158	0x3d1b6ef8	0.037947625
159	0x3d62828a	0.055300273
160	0x3ed97eaf	0.42479464
161	0x3f2dc72a	0.67882025
162	0xbec4ca08	-0.38435388
163	0xbe6dcf00	-0.23223495
164	0x3d7dcdcb	0.061963838
165	0xbc103925	-0.008802687
166	0xbe2f4a84	-0.17118269
167	0x3c370d36	0.011172583
168	0xbe610e42	-0.21978095
169	0x3e7eaaae	0.24869797
170	0xbdf3b341	-0.11899424
171	0xbdc6c2f5	-0.09705154
172	0xbc748bee	-0.01492594
173	0x3dcc7ca3	0.0998471
174	0x3c11c4ac	0.008896988
175	0x3e8e3484	0.2777444
176	0x3e81f5ca	0.25382835
177	0x3dbdb0ba	0.092622235
178	0x3d1f38b7	0.038872447
179	0x3d9fa52a	0.077951744
180	0xbd39cf40	-0.045363665
181	0xbc48973f	-0.012243091
182	0xbdab0fdf	-0.083526365
183	0x3ead73b2	0.3387733
184	0xbe2778cc	-0.16354674
185	0x3db789cd	0.0896183
186	0x3dcef57b	0.101054154
187	0x3e91e60a	0.28495818
188	0xbe377e46	-0.17919263
189	0x3eec7e41	0.46190074
190	0x3e6c50bf	0.23077677
191	0x3e602f7f	0.21893118
192	0xbd6ad056	-0.05732759
193	0x3dcc2732	0.099684134
194	0x3deb18cd	0.1147934
195	0xbdee0e3e	-0.1162381
196	0x3ee43d7a	0.44578153
197	0xbca35827	-0.019939495
198	0xbbd5485b	-0.0065088696
199	0x3da52d1f	0.08065247
200	0x3e2322c3	0.1593123
201	0x3d304900	0.04303837
202	0xbe0b1157	-0.13580833
203	0x3ea35ce9	0.31906822
204	0xbd1cc2ad	-0.038271595
205	0x3d5ec94a	0.054391183
206	0xbd911aae	-0.07085167
207	0xbd9f65b2	-0.07783069
208	0x3ceb2bd8	0.02870743
209	0x3e416b7a	0.18888655
210	0x3e0356ac	0.12826031
211	0x3df9072b	0.1215957
212	0x3e75acfb	0.23991768
213	0x3f1d3f2c	0.6142452
214	0xbd17cfd0	-0.03706342
215	0x3d48dd9c	0.04903947
216	0x3c7bb70a	0.015363464
217	0xbe3db10b	-0.18524568
218	0x3d1a744f	0.037708577
219	0x3cf44de5	0.0298223
220	0x3dcf37fa	0.101180986
221	0x3e4ed523	0.20198493
222	0xbe763600	-0.24044037
223	0xbdaa9a05	-0.08330158
224	0x3e5d39af	0.21604036
225	0xbcfd2f56	-0.03090636
226	0xbddefc67	-0.10887986
227	0x3eccbee6	0.39989394
228	0xbdf1a5ef	-0.117992274
229	0x3da056fb	0.0782909
230	0xbe3a9d0b	-0.1822397
231	0xbe0b53f5	-0.13606246
232	0x3e83f817	0.25775215
233	0x3dc2459f	0.094859354
234	0xbd3d089a	-0.04615078
235	0xbe6bac22	-0.23014882
236	0x3e24005e	0.16015765
237	0x3f131868	0.57459116
238	0x3e93cab3	0.28865585
239	0x3d575ed6	0.052580677
240	0x3d7dc9c7	0.061960008
241	0x3e227ea6	0.15868625
242	0xbd12d116	-0.03584393
243	0x3dea09bf	0.1142764
244	0x3d2d82fa	0.042361237
245	0xbe99cbab	-0.300382
246	0x3d84f7b9	0.06492562
247	0x3d07bd21	0.03313935
248	0x3e712253	0.2354825
249	0x3e922293	0.28542003
250	0x3d5c54c7	0.053791787
251	0xbdfc4e5d	-0.12319634
252	0xbe83fccf	-0.25778815
253	0xbe46cca2	-0.19413999
254	0x3e80d595	0.2516295
255	0x3c3facd3	0.011698919

b1 f4 [256]
0	0x3c658c89	0.014010557
1	0x3cb1f4d4	0.021723188
2	0x3dc28025	0.09497098
3	0x3bde9d77	0.0067936736
4	0x3e019f03	0.12658314
5	0x3c750e73	0.014957058
6	0x3e0ddbed	0.13853426
7	0x3c9c6085	0.019088993
8	0x3e32dbf6	0.17466721
9	0x3e0a21cb	0.13489453
10	0x3a0b2389	0.00053077244
11	0x3c9b6575	0.018969277
12	0x3e04baca	0.1296188
13	0xbcb8e706	-0.022571098
14	0x00000000	0.0
15	0xbbc503c3	-0.0060124113
16	0xbbb8b905	-0.0056372904
17	0xbc7e97f0	-0.015539154
18	0x39a12211	0.00030733694
19	0xb918ab63	-0.00014559696
20	0x3c918583	0.017763859
21	0x3bae688f	0.005322523
22	0x3e45e351	0.19324996
23	0x3d85e677	0.06538098
24	0x3bfe684e	0.007763899
25	0x00000000	0.0
26	0x3a2cebae	0.00065963983
27	0x3d1d7aaf	0.03844708
28	0x3d8de962	0.0692928
29	0x3d90e7d6	0.07075469
30	0x3d982b5f	0.074301474
31	0x3e1c5bb1	0.15269352
32	0xb94ff446	-0.00019832057
33	0xbba90da5	-0.0051590973
34	0x3e786e29	0.24260773
35	0xbbabbcdf	-0.005241021
36	0x37a886af	2.0089878e-05
37	0xbaf07e73	-0.0018348232
38	0x371dc8c0	9.40467e-06
39	0x00000000	0.0
40	0x3c06dfca	0.008232066
41	0x3dea9530	0.114542365
42	0x3d0b2400	0.03396988
43	0x3e68f815	0.22750886
44	0x377648f3	1.4679727e-05
45	0x3e095291	0.13410403
46	0x3bc73ee9	0.0060804975
47	0x3d4815ca	0.048848905
48	0x3dac2844	0.084061176
49	0xb99e4ec4	-0.00030194793
50	0x3d45e289	0.048311744
51	0xbc211da6	-0.009833729
52	0x00000000	0.0
53	0x3e0c7cd5	0.13719495
54	0x3e30cbb2	0.17265204
55	0x3bae130d	0.0053123296
56	0x3d9bab7e	0.07601069
57	0xbc0b2b41	-0.008494199
58	0x3a7dab40	0.00096767023
59	0x3e4ce355	0.20008595
60	0xbc5bba24	-0.013411079
61	0x3bf03b67	0.0073313
62	0xbd23c84d	-0.039985944
63	0xb99aebe4	-0.0002954892
64	0x3d982716	0.0742933
65	0x3d0ce427	0.03439727
66	0x3ac6444a	0.0015126553
67	0x3e265743	0.16244225
68	0x3d1e096f	0.038583215
69	0x3cdaea3d	0.026723022
70	0xbb8c9b79	-0.0042909947
71	0xbbf5f167	-0.007505584
72	0xbb5dee40	-0.0033863932
73	0xbab9c2fd	-0.0014172491
74	0x3a6a4c9d	0.0008937808
75	0x3ddc53c7	0.10758167
76	0x3d21f69e	0.039541833
77	0x3db53e38	0.08849758
78	0x3dbd21d6	0.09234969
79	0xbc700b0e	-0.014651073
80	0x3c8e61b5	0.017380575
81	0x3e413528	0.18867934
82	0x3d57eab9	0.052714083
83	0x3b97f24a	0.0046370374
84	0xbc5fe051	-0.013664321
85	0x39af3b8f	0.00033422976
86	0x3cf7a54f	0.030230192
87	0x3d8b3e4c	0.067989916
88	0x3da65437	0.081215315
89	0xbc5a2f66	-0.013316965
90	0x3d4d361a	0.050100423
91	0x3c02e869	0.007989981
92	0x3c81fe31	0.015868278
93	0xb8103ad5	-3.4387067e-05
94	0x3d8e1fc8	0.069396555
95	0x3e2e7bbb	0.17039387
96	0xba4955e1	-0.00076803385
97	0xba640f61	-0.00086998014
98	0x00000000	0.0
99	0xbc4567a5	-0.012048637
100	0xbcae3435	-0.021265129
101	0xbb763920	-0.003757067
102	0xb8c3513e	-9.313457e-05
103	0x3e318e27	0.17339383
104	0xbbadce4f	-0.005304135
105	0x3bf29195	0.0074026086
106	0x00000000	0.0
107	0x00000000	0.0
108	0xbd85edf6	-0.06539528
109	0x39dd895e	0.0004225475
110	0x00000000	0.0
111	0x3db0ad89	0.08626849
112	0x39af911c	0.00033486716
113	0x3c5a7bb0	0.013335153
114	0x3b27dfec	0.0025615646
115	0x3c916e4a	0.017752785
116	0x3d0a4fa5	0.03376736
117	0x3e0aec55	0.13566716
118	0xbc100d26	-0.008792197
119	0xbbdba149	-0.0067025763
120	0x3e48ffd0	0.19628835
121	0x3d16417a	0.036683537
122	0x3e2d0f3e	0.16900346
123	0x3e443875	0.19162162
124	0x38904960	6.880122e-05
125	0x3c16a4a2	0.009194525
126	0xbbd9c032	-0.006645226
127	0xbb6d9507	-0.0036252157
128	0xbaed58c6	-0.0018108122
129	0x3cb36e5a	0.021903206
130	0x3912495a	0.0001395097
131	0x3d7503bb	0.05981801
132	0x3d98544d	0.07437954
133	0xbcc7cf94	-0.024390973
134	0x3e0f6600	0.14003754
135	0x3d976517	0.07392328
136	0x3bbc9fd3	0.005756357
137	0x00000000	0.0
138	0xba736a11	-0.00092855195
139	0xbc5ee422	-0.013604196
140	0x3d825a5b	0.0636489
141	0x3d607f69	0.054809008
142	0x00000000	0.0
143	0x3b200fd9	0.0024423508
144	0x3de173a4	0.11008385
145	0x3c7be381	0.015374065
146	0xbc4f40ad	-0.012649697
147	0x00000000	0.0
148	0x3a827c27	0.0009955213
149	0x00000000	0.0
150	0xbc2200ba	-0.009887869
151	0x3c0a06c9	0.008424469
152	0xbd024a23	-0.031808984
153	0xb9506f2f	-0.00019877845
154	0x3dd7cd1d	0.10537169
155	0x3c29899f	0.010347753
156	0x39ac0eb9	0.00032817366
157	0xb960b205	-0.00021428622
158	0x3da7a349	0.08185441
159	0x3dd9b4ba	0.10630174
160	0x3bb3a3e5	0.0054821842
161	0x3e70823a	0.23487177
162	0x3cea6b84	0.02861572
163	0xb99c2b3c	-0.0002978685
164	0x3b65bb56	0.0035054288
165	0x00000000	0.0
166	0x00000000	0.0
167	0xbc39ac56	-0.011332592
168	0xb84b5a9b	-4.8483354e-05
169	0x3c6beb23	0.014399323
170	0xba8e8edf	-0.0010876319
171	0xbd971b98	-0.0737831
172	0x3ccbfe94	0.024901666
173	0x3c80a303	0.01570273
174	0xbb8ce90a	-0.0043002414
175	0x3e0e2d21	0.13884403
176	0x3d53cc25	0.05170836
177	0x3c72c9d1	0.014818625
178	0x3b8360fb	0.0040093637
179	0x3a7d2b46	0.00096576323
180	0xba57cd8d	-0.00082322286
181	0x3d965e4f	0.07342207
182	0x3d8140ca	0.06311186
183	0x3c6edcf9	0.014579051
184	0x3d105083	0.035233032
185	0x3d93ff60	0.07226443
186	0x3d38e00b	0.04513554
187	0xbc2df8b3	-0.010618377
188	0x398c3023	0.00026738746
189	0xbc35306b	-0.011058907
190	0x3dd898b0	0.10575998
191	0x3e255b2d	0.16148062
192	0x399f54c8	0.0003039001
193	0x3daa9c74	0.08330622
194	0x3d55bf62	0.05218447
195	0x3c77d49c	0.015126374
196	0x3dd47e64	0.103756696
197	0x00000000	0.0
198	0x3db82c41	0.08992816
199	0x3c2ce9c5	0.010553782
200	0x00000000	0.0
201	0x3cf5a8cb	0.029987713
202	0xbcfced2f	-0.030874817
203	0x3e0b399c	0.13596195
204	0x3cc4a3c2	0.024003867
205	0x3aea5386	0.0017877675
206	0xbab761a0	-0.0013990887
207	0xbc825bac	-0.015912853
208	0x3e008b22	0.12553075
209	0x3a6e2814	0.00090849516
210	0x3dbdf690	0.09275544
211	0xbd70d57b	-0.05879734
212	0x3e5393cd	0.2066185
213	0x3e669aca	0.22519985
214	0xbbaa8d1a	-0.005204809
215	0x3e5d2f47	0.21600066
216	0x3a0c7a73	0.00053588225
217	0xbc91ec69	-0.017812924
218	0x3da44b01	0.08022118
219	0x3c9eebc6	0.019399535
220	0x3d37254d	0.044713307
221	0xbc6a77a0	-0.014310747
222	0x3d2738cb	0.040825646
223	0x3bd91aa0	0.0066254884
224	0x3dd50c89	0.104027815
225	0x00000000	0.0
226	0xbcdd5ab5	-0.027020792
227	0x3debbcc5	0.11510614
228	0x3d1f6e76	0.038923703
229	0x3c7fa7f0	0.015604004
230	0xb64b432c	-3.0288456e-06
231	0xbd0238f3	-0.031792592
232	0x3db7b782	0.08970548
233	0x3d4f96a8	0.050680786
234	0x3961e9e1	0.00021544799
235	0xbb290469	-0.0025789982
236	0x3e0ccfec	0.13751191
237	0x3e1fe9f3	0.15616588
238	0x3d72d9e1	0.059289817
239	0xbd2d9d15	-0.042386133
240	0x3c975e24	0.018477507
241	0x3dbdce5c	0.092678756
242	0xbc4359b5	-0.011923243
243	0xbccb4c80	-0.024816751
244	0x3dc2829f	0.0949757
245	0x00000000	0.0
246	0x3d0a3d95	0.033750135
247	0xbbcb9720	-0.006213084
248	0xba092324	-0.00052313716
249	0x3dd8c475	0.10584346
250	0xbc2d21cc	-0.01056714
251	0x39f2a390	0.000462797
252	0xbd342d28	-0.043988377
253	0x3c547603	0.012967589
254	0x3dd03d1c	0.10167906
255	0x3d938163	0.07202413

W_action_type f4 [256, 4]
0	0x3d47bed3	0.04876597
1	0x3cd990c7	0.026558293
2	0x3c0c1b99	0.008551502
3	0x3dcc065c	0.099621505
4	0xbb57b867	-0.003291631
5	0x3d0a8d99	0.033826444
6	0x3d750817	0.05982217
7	0xbd262cfd	-0.040570248
8	0xbcc0f33f	-0.023553489
9	0xbc8776ec	-0.016536199
10	0xbd57e2bf	-0.052706476
11	0xbdd9944b	-0.10623988
12	0x3dc058dc	0.093919486
13	0xbd7110bd	-0.058853853
14	0xbd659350	-0.05604869
15	0x3c28a430	0.010293052
16	0x3d9f3bed	0.07775102
17	0x3d742807	0.059608486
18	0xbc4dd6ab	-0.012563388
19	0xbdb17e69	-0.08666689
20	0xbe0f7b49	-0.14011873
21	0x3d51f806	0.051261924
22	0xbaa14c48	-0.0012306059
23	0xbcc6f51a	-0.024286795
24	0xbd64c0ff	-0.055848118
25	0xbd85b2ec	-0.06528267
26	0xbddd02ee	-0.107915744
27	0x3d0e78ea	0.03478328
28	0x3d1fbff4	0.03900142
29	0x3bada767	0.005299497
30	0x3c41ed02	0.011836292
31	0x3d7b298f	0.06131893
32	0xbd8ba279	-0.068180986
33	0xbdb034fb	-0.08603855
34	0xbdf0e1af	-0.11761796
35	0x3cfbc376	0.030732851
36	0x3d210267	0.03930893
37	0x3e0da98a	0.13834205
38	0x3da1f950	0.07908881
39	0x3cb88047	0.022522105
40	0xbe1acce5	-0.15117224
41	0x3dd00774	0.101576716
42	0x3d4eb7b1	0.05046815
43	0x3daedf66	0.085387036
44	0x3e359a05	0.17734535
45	0xbdd6ff0a	-0.104978636
46	0xbc7c5060	-0.015400022
47	0x3d2045fe	0.03912925
48	0x3d71e17a	0.05905292
49	0x3c54d60f	0.012990489
50	0xbe8e11e3	-0.2774802
51	0x3e0999da	0.13437596
52	0x3d52ac78	0.05143401
53	0xbdf3d4c3	-0.119058155
54	0xbb7b4c9d	-0.0038345226
55	0x3cadf12b	0.021233162
56	0x3db82a62	0.08992459
57	0x3d98cdb8	0.07461113
58	0xbe60b3b5	-0.21943553
59	0x3c17d797	0.009267709
60	0xbd1ee345	-0.03879096
61	0x3e7bdb89	0.24595465
62	0x3dd226f1	0.10261334
63	0xbdee43e7	-0.11634045
64	0xbcef8230	-0.029236883
65	0x3daca707	0.084302954
66	0x3df89f58	0.121397674
67	0x3c95960c	0.018260024
68	0xbe154d62	-0.145803
69	0xbcfb2eb1	-0.030661913
70	0xbda56295	-0.08075444
71	0xbd7c797b	-0.06163929
72	0xbd81eef2	-0.06344403
73	0x3cda86b9	0.026675569
74	0x3dd80d50	0.10549414
75	0xbd9083e4	-0.07056406
76	0x3df7788b	0.120835386
77	0xbbec3fa5	-0.0072097355
78	0xbc880af2	-0.016606782
79	0xbd90228a	-0.07037838
80	0xbd05bf49	-0.032653127
81	0x3df167c3	0.11787369
82	0xbd43ef43	-0.0478356
83	0xbdaadbd2	-0.08342709
84	0xbdd2073b	-0.10255285
85	0xbb892faa	-0.00418659
86	0xb9c11f21	-0.00036835021
87	0xbd728795	-0.059211332
88	0xbd8865dc	-0.06660053
89	0xbc3fae54	-0.011699278
90	0x3d85ee35	0.06539575
91	0xbd20d9d6	-0.039270245
92	0xbe0fd185	-0.14044769
93	0x3deae6b3	0.11469784
94	0x3dc6813e	0.0969262
95	0xbe4a91dc	-0.19782203
96	0x3d1310d4	0.03590472
97	0x3de0e248	0.1098066
98	0x3db73391	0.089453824
99	0xbd873307	-0.066015296
100	0xbe2928a8	-0.16519415
101	0x3da495b6	0.080363676
102	0xbe3a8874	-0.18216115
103	0x3a681875	0.0008853742
104	0x3bafe219	0.005367529
105	0x3e49c81f	0.19705246
106	0x3c2f62b5	0.010704686
107	0x3d80e925	0.06294469
108	0xbdf9702f	-0.121796004
109	0xbdba1a41	-0.09087039
110	0xbdc2c4b8	-0.095101774
111	0xbe471108	-0.1944009
112	0xbdf6ff37	-0.12060397
113	0x3d015c61	0.03158224
114	0xbe229108	-0.15875638
115	0xbd81ddc9	-0.0634113
116	0x3c5eced7	0.013599119
117	0xbda23441	-0.07920123
118	0xbdac7979	-0.084216066
119	0x3dd85488	0.10562998
120	0x3d8a4175	0.06750766
121	0x3e782ae9	0.24235119
122	0xbc1daf5d	-0.009624329
123	0x3bca19fb	0.006167648
124	0x3c75d952	0.0150054265
125	0xbde74178	-0.11291784
126	0x3dde1d4f	0.10845434
127	0xbe326025	-0.17419489
128	0xbe496a1b	-0.19669382
129	0xbc894336	-0.016755681
130	0x3e0daab1	0.13834645
131	0xbd9c0b3b	-0.076193295
132	0x3dedbf14	0.11608711
133	0xbce6db0a	-0.028180618
134	0xbdacade4	-0.084316045
135	0xbcf4c1d7	-0.029877586
136	0xbdb4a2db	-0.08820125
137	0xbd5783bb	-0.052615862
138	0xbd3409ad	-0.04395454
139	0xbdec35de	-0.11533712
140	0xbd93b677	-0.07212537
141	0xbd1f7d03	-0.03893758
142	0x3da5ce02	0.080959335
143	0x3e2d0a13	0.16898374
144	0xbe1228c7	-0.14273368
145	0x3dcf7666	0.101300046
146	0x3d12e3d0	0.03586179
147	0xbdaf37a4	-0.085555345
148	0x3b96c9f5	0.004601712
149	0x3d65dfdc	0.056121692
150	0xbdcc4d1f	-0.09975647
151	0x3d80bf2e	0.06286465
152	0xbc731046	-0.014835423
153	0x3e26a4af	0.1627376
154	0x3d10d9a6	0.035363816
155	0x3bc8b554	0.0061251316
156	0x3dc6a14b	0.09698733
157	0xbd95aac3	-0.07307961
158	0xbe08b593	-0.13350515
159	0x3c939454	0.018015064
160	0xbd21a94c	-0.039468095
161	0xbc0ef3ef	-0.0087251505
162	0x3e0a8874	0.13528615
163	0x3d29e496	0.041477762
164	0xbd124185	-0.035707016
165	0x3cf76811	0.03020099
166	0xb972f40e	-0.00023169836
167	0xbe0a1314	-0.1348384
168	0xbd583649	-0.052786145
169	0x3d0da3cd	0.03458004
170	0x3db479ab	0.08812269
171	0x3d04c449	0.032413755
172	0x3d359918	0.044335455
173	0xbd4f0faf	-0.050552066
174	0xbe2a3e0e	-0.16625234
175	0x3c0626c9	0.008187958
176	0x3d8db7e2	0.069198385
177	0xbdb95af1	-0.09050549
178	0xbcd341bb	-0.025788179
179	0x3dd69c7c	0.10479066
180	0x3d0ae95d	0.03391396
181	0xbc46cba5	-0.012133514
182	0xbc050a84	-0.008120183
183	0xbc603728	-0.013685025
184	0x3c7f289d	0.015573648
185	0xbc9eabf9	-0.019369112
186	0x3e002a2c	0.12516087
187	0xbd09ce89	-0.033644233
188	0x3d120c60	0.035656333
189	0x3c90f343	0.017694121
190	0x3da20e90	0.07912934
191	0xbe4da52c	-0.2008254
192	0xbd3c4282	-0.045961864
193	0xbdbec51f	-0.093149416
194	0xbccccec3	-0.025000935
195	0xbb5c6b37	-0.003363324
196	0x3c255d79	0.010093086
197	0x3d06f54c	0.032948777
198	0x3d96e458	0.07367772
199	0x3dd1c977	0.102435045
200	0x3dba9736	0.091108724
201	0xbd93d39b	-0.07218095
202	0xbc397712	-0.0113198925
203	0xbb3f00d5	-0.0029144783
204	0x3e573275	0.21015342
205	0x3e35b3a0	0.17744303
206	0x3ddafcb1	0.10692728
207	0x3ccff1f4	0.025383927
208	0x3d7e75c7	0.06212404
209	0x3df1f2fd	0.118139245
210	0xbdb4c833	-0.088272475
211	0x3907be73	0.00012945551
212	0x3dd044b1	0.10169352
213	0x3cb92808	0.022602096
214	0xbd9ecb7e	-0.07753657
215	0x3d8630cf	0.06552278
216	0xbe350fdf	-0.17681836
217	0x3e116640	0.14199162
218	0x3cef8326	0.029237341
219	0xbdc54d03	-0.096338294
220	0xbbf10f93	-0.007356593
221	0xbd9ca5c6	-0.07648806
222	0xbe2db17d	-0.16962238
223	0xbc4c3b13	-0.012465256
224	0x3dca4b09	0.09877593
225	0xbd73e33d	-0.059542883
226	0xbd9abe07	-0.07555776
227	0x3c399e90	0.011329308
228	0x3d46e21c	0.04855548
229	0x3ca3c21d	0.019990021
230	0x3dae0796	0.08497541
231	0x3e801d56	0.25022382
232	0x3b9a982d	0.004717848
233	0xbde4b04b	-0.11166438
234	0xbcc40e45	-0.023932585
235	0x3d1e9b1c	0.038722143
236	0x3dccd0b6	0.10000746
237	0x3d82f912	0.06395163
238	0xbd8249d9	-0.063617416
239	0xbd3f3962	-0.046685584
240	0x3cbaf5d9	0.022822307
241	0x3d6d3231	0.057909194
242	0xbd17898a	-0.0369964
243	0x3db6a320	0.089178324
244	0xbdbc5e5b	-0.091976844
245	0x3e2a0754	0.16604358
246	0xbe129138	-0.14313209
247	0xbd8983ce	-0.06714593
248	0xbc757a67	-0.014982796
249	0xbd03cf05	-0.03217985
250	0x3db39c1a	0.087700084
251	0x3d8295ca	0.06376226
252	0x3d90ddfd	0.07073591
253	0x3cd615f7	0.02613352
254	0xbda66c3c	-0.08126113
255	0xbe162cb4	-0.1466549

b_action_type f4 [4]
0	0xbaf433ed	-0.0018631198
1	0xbbbe5ee5	-0.005809652
2	0xba620efa	-0.00086234475
3	0x3c0bd6e1	0.008535118

W_play_habitat f4 [256, 4]
0	0xbe2e2fcd	-0.17010422
1	0xba9d2398	-0.0011988757
2	0x3d587c28	0.05285278
3	0x3e03b748	0.12862885
4	0xbc5d968f	-0.0135246655
5	0x3d92093c	0.071306676
6	0x3e0ab914	0.13547164
7	0xbd051197	-0.032487478
8	0xbd7b7f7a	-0.061400868
9	0xbe16444d	-0.14674492
10	0x3e0fada8	0.14031088
11	0x3c712c5e	0.014720051
12	0x3da3d858	0.08000249
13	0x3c80f63a	0.01574241
14	0x3cbddf42	0.023177747
15	0x3e350843	0.17678933
16	0xbb95bb4b	-0.004569446
17	0x3d5b790f	0.053582247
18	0x3dc3e04a	0.09564264
19	0x3d126d5f	0.035748836
20	0xbdd523d8	-0.10407227
21	0x3dc24765	0.09486274
22	0xbca84102	-0.02053881
23	0xbc12599d	-0.008932498
24	0x3c620e22	0.013797315
25	0x3c8313e7	0.016000701
26	0xbd2f3282	-0.042772777
27	0x3db77042	0.08956958
28	0x3e30b65e	0.17257068
29	0xbd4c0738	-0.04981157
30	0x3ccf09ce	0.02527323
31	0x3d16977a	0.036765553
32	0x3d5a8a8a	0.053354777
33	0x3d89a85e	0.067215666
34	0x3d9f3773	0.07774248
35	0x3d10145b	0.035175662
36	0x3c97b763	0.018520063
37	0xbd2e6b8f	-0.042583045
38	0xbd4478c1	-0.047966722
39	0xbdfb6891	-0.12275804
40	0x3e05d96e	0.13071224
41	0xbd01fbcd	-0.031734277
42	0x3dd6af18	0.10482615
43	0x3bc6b468	0.0060639866
44	0xbd19d14b	-0.037553113
45	0x3c763308	0.015026815
46	0xbe321448	-0.17390549
47	0x3d426c82	0.047466762
48	0xbdc41e6c	-0.09576115
49	0x3d7b8da9	0.061414395
50	0x3cc575df	0.024104057
51	0x3d0a7246	0.033800386
52	0xbe1b6cee	-0.15178272
53	0xbdc474fc	-0.095926255
54	0x3e339642	0.17537788
55	0x3b07c02f	0.0020713916
56	0xbde8938d	-0.11356268
57	0xbd856347	-0.06513076
58	0xbc79c92a	-0.015245715
59	0xbdb05a3d	-0.086109616
60	0xbe02261c	-0.1270985
61	0x3e09c0cd	0.13452454
62	0x3da2ccdc	0.0794923
63	0x3e1bb5f3	0.15206127
64	0x3e23ea6a	0.1600739
65	0xbe2cf1f9	-0.1688918
66	0x3d4eb4e4	0.05046548
67	0x3d8fa0d1	0.07013095
68	0xbd8cce7b	-0.068753205
69	0xbd0465a5	-0.0323235
70	0x3dc9f504	0.09861186
71	0xbc2fc487	-0.010728008
72	0xbd028004	-0.031860366
73	0xbd0369b9	-0.032083247
74	0x3e02a532	0.1275833
75	0x3cb4470a	0.02200653
76	0xbdaf1377	-0.085486345
77	0x3df027ea	0.11726363
78	0xbce41e4c	-0.027846478
79	0x3d71b4b2	0.059010215
80	0x3d0789b7	0.03309032
81	0xbc4827c5	-0.012216513
82	0xbcd05595	-0.025431434
83	0x3dbdc47f	0.09265994
84	0x3c919285	0.017770061
85	0xbd8833ba	-0.06650491
86	0xbd1b803d	-0.037964094
87	0x3cebf81b	0.02880483
88	0xbe31e630	-0.17372966
89	0x3e5b7f6f	0.21435331
90	0x3e07d36e	0.13264248
91	0x3d186e4e	0.03721457
92	0x3dde019b	0.1084015
93	0x3cf3713f	0.029717086
94	0x3d2988ac	0.041390106
95	0xbd20c5ca	-0.039251126
96	0x3dd1c7c4	0.102431804
97	0xbd2dcb1a	-0.04243002
98	0x3dcc7001	0.099823005
99	0xbe1a6b4c	-0.15079993
100	0x3d262e84	0.040571705
101	0x3df87558	0.121317565
102	0x3d03c8e3	0.032174002
103	0x3d849781	0.064742096
104	0xbda1a6eb	-0.07893165
105	0xbddec62d	-0.10877643
106	0xbdb84dbc	-0.08999202
107	0xbdb47ad1	-0.08812488
108	0xbdb12449	-0.08649499
109	0x3d0f3bbb	0.034969073
110	0xbe3bcc6c	-0.183397
111	0x3cc5c4f6	0.02414177
112	0xbd35fc8c	-0.0444303
113	0xbd8a835d	-0.06763337
114	0xbe5cb056	-0.21551642
115	0xbda8db08	-0.08244902
116	0x3b5ba6db	0.0033516202
117	0x3c77c7fc	0.015123364
118	0xbd035eae	-0.032072715
119	0x3d0f393c	0.034966692
120	0x3dbf31f0	0.09335697
121	0xbc907d22	-0.017637793
122	0x3d21b762	0.039481528
123	0xbd09e75a	-0.0336679
124	0x3e22f0af	0.15912126
125	0xbda424f6	-0.08014862
126	0x3d773aac	0.06035869
127	0xbe239e28	-0.159783
128	0xbcbe6d4e	-0.02324548
129	0x3e048fa5	0.12945421
130	0xb927cb26	-0.0001600204
131	0xbdea8281	-0.11450673
132	0xbd4ac1a3	-0.049501073
133	0x3d85a7cf	0.065261476
134	0x3b01cb6f	0.0019805094
135	0xbe49385c	-0.19650406
136	0x3bdb4389	0.0066914004
137	0x3b386c97	0.0028140896
138	0x390a7875	0.0001320558
139	0xbbd649c6	-0.006539556
140	0xbde37c9d	-0.111077525
141	0x3d978622	0.07398631
142	0xbe3c4689	-0.18386282
143	0x3ceec9d3	0.029148972
144	0x3d9eb5d5	0.077495255
145	0xbe4bc708	-0.19900143
146	0xbcd20f36	-0.025642019
147	0xbdf233e2	-0.11826302
148	0x3de1c089	0.11023051
149	0x3e054ca1	0.13017513
150	0x3bc1376e	0.0058965003
151	0x3d524d2e	0.051343136
152	0x3c94ed00	0.018179417
153	0xbddf2081	-0.108948715
154	0xbdc3ea7e	-0.0956621
155	0xbd0e6391	-0.034762923
156	0xbe4ad850	-0.19809079
157	0xbd50b072	-0.05094952
158	0xbd2dd2e6	-0.042437457
159	0xbde2a2c2	-0.110662
160	0xbd88dbc5	-0.06682543
161	0x3e5f0f0a	0.2178308
162	0xbd187c4b	-0.03722791
163	0xbdd88826	-0.10572843
164	0x3db18bb1	0.08669222
165	0x3d95e8a0	0.0731976
166	0xbe3fe972	-0.18741396
167	0x3cddc40b	0.02707102
168	0xbd8fd5c5	-0.07023195
169	0xbb46eaf7	-0.0030352452
170	0x3dd010b5	0.101594366
171	0x3c272432	0.010201501
172	0xbb61e6ce	-0.0034469846
173	0x3d70ef19	0.05882177
174	0xbcf745cb	-0.030184647
175	0xbcccb58a	-0.024988908
176	0xbc009315	-0.007847567
177	0xbbaa1709	-0.0051907343
178	0x3cf01ff1	0.029312106
179	0x3debbb2d	0.1151031
180	0xbd918453	-0.07105317
181	0xbafeb39f	-0.0019432193
182	0x3c930b16	0.017949622
183	0x3beac585	0.0071646594
184	0xbd8daa32	-0.06917228
185	0x3dd798c8	0.105271876
186	0x3e0b930f	0.13630317
187	0x3d6b9a5b	0.05752025
188	0x3e25b8bc	0.16183752
189	0x3ccec197	0.025238795
190	0xbdee3af9	-0.11632342
191	0xbdb25a91	-0.087086804
192	0x3cd29561	0.025705995
193	0x3c9b850b	0.018984338
194	0xbd05d580	-0.032674313
195	0xbdafb724	-0.08579853
196	0x3da772df	0.08176207
197	0x3dd226d7	0.10261314
198	0xbd214ba3	-0.039378773
199	0xbdfbc166	-0.12292747
200	0xbe1717ec	-0.14755219
201	0x3e33f08c	0.1757223
202	0xbe0108c4	-0.12601
203	0xbc6acb4b	-0.014330695
204	0x3e2c86d0	0.16848302
205	0xbd69d4b6	-0.057087623
206	0x3da04a5f	0.07826685
207	0x3d7fd2d4	0.06245692
208	0xbd958a12	-0.073017254
209	0x3da08eee	0.07839762
210	0xbd878633	-0.06617393
211	0xbc0ffa70	-0.008787736
212	0x3e0cd619	0.13753547
213	0xbc9accd1	-0.018896492
214	0xbc4c486f	-0.012468441
215	0x3e05c398	0.13062894
216	0x3dee2bd7	0.116294555
217	0x3cf64775	0.03006337
218	0xbe0dda3c	-0.13852781
219	0x3d8fee6a	0.07027896
220	0x3d4950dd	0.049149383
221	0xbd8eff74	-0.069823176
222	0xbcfe17c2	-0.031017188
223	0xbd8c48ad	-0.06849799
224	0xbe2bdd87	-0.16783725
225	0x3de063fc	0.109565705
226	0x3d8157e2	0.063155904
227	0xbdb56af4	-0.0885829
228	0xbe0f2893	-0.13980322
229	0xbe23c250	-0.15992093
230	0x3d1c26b4	0.038122848
231	0x3d04a902	0.03238774
232	0x3d8c0ac4	0.06837991
233	0x3df45788	0.11930758
234	0x3d849a9a	0.064748004
235	0xbe34cb0b	-0.1765558
236	0xbd4ea1d2	-0.050447293
237	0x3b880944	0.004151495
238	0xbdbe7bc5	-0.09300951
239	0x3dfbb309	0.122900076
240	0x3d82ae5a	0.06380911
241	0xbd9916e3	-0.074750684
242	0x3e2d64ef	0.16933034
243	0xbc891407	-0.016733183
244	0xbd13bccb	-0.03606872
245	0xbe2d09ea	-0.16898313
246	0xbe62c3b4	-0.22144967
247	0x3e46dde0	0.19420576
248	0xbc078e8c	-0.008273732
249	0x3c63cf30	0.013904378
250	0xbd686b5a	-0.056743003
251	0xbdcb8274	-0.09936991
252	0x3c677702	0.014127495
253	0x3d0def4b	0.034652036
254	0xbd968c91	-0.0735103
255	0xbe205cec	-0.15660447

b_play_habitat f4 [4]
0	0x3a072077	0.0005154679
1	0xb9950bc9	-0.00028428275
2	0x3ab13dc7	0.0013522439
3	0xbacf8b10	-0.001583429

W_gain_food_primary f4 [256, 7]
0	0x3d34b8b9	0.044121478
1	0x3d7b2e92	0.06132371
2	0xbc84ad6d	-0.016195977
3	0xbdaf4bba	-0.085593656
4	0x3ba71f95	0.0051002004
5	0x3b1572f4	0.0022804113
6	0xbd862e74	-0.06551829
7	0xbd4198a6	-0.047264718
8	0xbd511d29	-0.0510532
9	0xbc88cc6a	-0.016699035
10	0x3dcae76c	0.099074215
11	0xbd6b5b58	-0.05746016
12	0x3d35f352	0.0444215
13	0xbe01b1c0	-0.12665462
14	0x3db8bb30	0.09020078
15	0xbc0155fb	-0.0078940345
16	0x3df58981	0.119891174
17	0xbe1c7399	-0.15278472
18	0x3d428356	0.047488533
19	0x3ba49d18	0.00502361
20	0x3d771afd	0.060328472
21	0x3c3f8969	0.011690476
22	0x3c82151a	0.015879203
23	0xbdd3c150	-0.10339606
24	0x3cbe6517	0.023241563
25	0xbc2080e3	-0.009796354
26	0xbe404546	-0.18776426
27	0x3d65cd5a	0.05610404
28	0x3dae1ced	0.08501611
29	0x3d7f7040	0.06236291
30	0x3ccdcfb9	0.025123464
31	0xbc7c12d0	-0.015385345
32	0xbc7dd047	-0.015491552
33	0xbdaf00c7	-0.0854507
34	0xbd8f0884	-0.06984046
35	0xbd8ede1b	-0.06975957
36	0xbdac088b	-0.08400067
37	0x3d4a589e	0.04940092
38	0x3daf3b68	0.08556253
39	0x3d6779bd	0.056512583
40	0xbdf378a8	-0.11888248
41	0xbdc5ff82	-0.09667875
42	0xbad10f4b	-0.0015949992
43	0x3e3aa348	0.1822635
44	0x3b390c1c	0.0028235978
45	0x3d02f1be	0.031968825
46	0xbc84c13c	-0.016205423
47	0x3da90b07	0.082540564
48	0x398ba3fb	0.0002663432
49	0x3cf4ba89	0.029874103
50	0x3e6b6723	0.22988562
51	0x3d9413ae	0.07230316
52	0x3d149daf	0.03628319
53	0x3bb7b188	0.00560588
54	0xbcf26704	-0.029590137
55	0x3c23e35a	0.010002935
56	0xbd248e0f	-0.04017454
57	0xbd800ca6	-0.062524125
58	0x3dba4f5e	0.09097169
59	0xbda811a5	-0.082064904
60	0xbd509e02	-0.050931938
61	0xbe27fc3b	-0.16404812
62	0xbc3d772f	-0.01156406
63	0x3c9d7920	0.019222796
64	0x3d02cc90	0.031933367
65	0xbe4c7623	-0.1996694
66	0xbe29bd83	-0.16576199
67	0xbd441c50	-0.047878563
68	0x3d947795	0.07249371
69	0xbca0bada	-0.019620348
70	0x3bbc9551	0.0057551046
71	0x3c8337f6	0.016017895
72	0x3dc0d218	0.09415072
73	0xbd8428df	-0.06453108
74	0xbc8178bb	-0.01580464
75	0xbd8f3227	-0.06991988
76	0xbca0498c	-0.01956632
77	0x3dadea7a	0.084919885
78	0xbdc53c94	-0.09630695
79	0x3ddaebfa	0.1068954
80	0x3d68f8e5	0.05687799
81	0xbcc577ae	-0.02410492
82	0x3cd18f1d	0.025580937
83	0x3c46ff81	0.012145878
84	0x3d8ae48e	0.067818746
85	0x3de81ac7	0.113332324
86	0x3d49c802	0.049263008
87	0x3d495afc	0.049159035
88	0xbd4781f1	-0.048707906
89	0xbd8bfe77	-0.06835645
90	0x3d75e28c	0.060030505
91	0xbcc8513c	-0.024452798
92	0xbd9262b7	-0.071477346
93	0x3c235a55	0.009970267
94	0x3caffc2c	0.02148255
95	0xbd10ac74	-0.035320714
96	0xbe24d440	-0.16096592
97	0xbb8121c6	-0.0039407937
98	0xbd15c1c1	-0.03656173
99	0xbdf0f38e	-0.11765204
100	0x3d4b2432	0.049595065
101	0x3d22e3e3	0.03976811
102	0xbd99abea	-0.07503493
103	0x3dbdc630	0.09266317
104	0x3d66fdd7	0.056394424
105	0xbd9b4de0	-0.07583213
106	0xbaa0f5fb	-0.0012280339
107	0x3d418f60	0.047255874
108	0x3caef7ea	0.021358449
109	0xbcc8f1e0	-0.024529397
110	0xbd9c955c	-0.076456755
111	0x3e13ae34	0.14421922
112	0x3dec02e2	0.11523987
113	0xbe109cd3	-0.14122324
114	0x3d1a6b80	0.037700176
115	0x3e1c3404	0.15254217
116	0xbe17dd9e	-0.14830634
117	0xbe0733f5	-0.13203414
118	0xbd63330f	-0.055468615
119	0x3e45d5b0	0.19319797
120	0xbe013a48	-0.12619889
121	0xbd37c1ad	-0.044862438
122	0xbd857d87	-0.06518083
123	0x3bf52b15	0.0074819424
124	0x3d4c24d9	0.04983983
125	0x3c9669e9	0.018361049
126	0xbdac960a	-0.08427055
127	0xbe0621a4	-0.1309877
128	0xbdad6705	-0.08466915
129	0xbd90b89b	-0.07066461
130	0xbc9f2ebd	-0.019431466
131	0xbcaee070	-0.021347255
132	0xbe312c60	-0.17302084
133	0xba891f10	-0.0010461528
134	0x3e244d95	0.1604522
135	0xbd78d8a7	-0.06075349
136	0xbe23798d	-0.15964337
137	0xbd3371d0	-0.043809712
138	0x3db70af2	0.089376345
139	0xbd2f29b3	-0.042764377
140	0x3d0f26c4	0.03494908
141	0x3d2cff91	0.042235915
142	0xbbeb3758	-0.0071782283
143	0x3cfb9116	0.03070883
144	0x3e1a96e7	0.15096627
145	0x3e2f6f34	0.17132264
146	0xbdfc8b03	-0.12331202
147	0x3e205dc4	0.15660769
148	0xbd297948	-0.04137543
149	0x3d1bdfc3	0.038055193
150	0x3dbb26bc	0.09138247
151	0xbd1a41e2	-0.037660487
152	0x3d2f6c9c	0.042828187
153	0x3dc52c96	0.09627645
154	0x3e58075f	0.21096562
155	0x3d98cfab	0.074614845
156	0xbcfef51b	-0.031122735
157	0x3db2dcd4	0.08733526
158	0x3da01b69	0.07817728
159	0xbdc38e49	-0.09548623
160	0x3dc06ddb	0.09395953
161	0x3e29c92a	0.16580644
162	0xbcaedaf1	-0.021344634
163	0x3bb017dc	0.005373938
164	0xbcbcc682	-0.023043875
165	0x3dfa4950	0.122210145
166	0x3d6cafbd	0.057784785
167	0xbd96558c	-0.073405355
168	0x3e0c9936	0.1373032
169	0x3d3f3694	0.04668291
170	0x3d0f7964	0.035027876
171	0x3e37e4b8	0.17958343
172	0x3af966be	0.0019027812
173	0x3ca52bb2	0.020162437
174	0x3d8a6b83	0.067587875
175	0x3d1a9f8c	0.037749812
176	0xbd04203f	-0.032257315
177	0xbdbc6095	-0.09198109
178	0xbe153c17	-0.14573704
179	0xbcd126ae	-0.02553114
180	0x3e158e49	0.14605059
181	0x3cbfd56e	0.0234172
182	0xbd82d699	-0.063885875
183	0xbdd12291	-0.10211671
184	0x3d67e687	0.056616332
185	0xbae5bccb	-0.0017527578
186	0xbe4b7871	-0.19870164
187	0x3e091975	0.13388617
188	0x3cecbed1	0.028899582
189	0x3df8782e	0.121322975
190	0x3db29859	0.08720464
191	0x3db062d6	0.086126015
192	0x3dbba049	0.09161431
193	0x3e16883a	0.14700404
194	0xbc682c03	-0.014170649
195	0x3d82326c	0.063572735
196	0x3e29c3e5	0.16578634
197	0xbdd1d1c8	-0.10245091
198	0x3d2b9651	0.0418914
199	0x3d9dfb6a	0.07713969
200	0x3d0ed5a1	0.0348717
201	0x3d1cf679	0.038320992
202	0xbb22af9d	-0.0024823912
203	0xbd92ac49	-0.07161767
204	0xbdc8536c	-0.097815365
205	0xbd14bcda	-0.036312915
206	0xbc9f7b7d	-0.019468063
207	0xbe31e1dc	-0.17371315
208	0xbd2f5330	-0.042803943
209	0xbd4269d9	-0.047464225
210	0xbdf8b944	-0.121447116
211	0xbd98ec05	-0.07466892
212	0xbda9358b	-0.08262166
213	0xbd89555f	-0.06705736
214	0x3c954852	0.018222962
215	0x3d22f2a8	0.039782196
216	0x3da9e8cf	0.08296358
217	0x3bbe8d1e	0.0058151623
218	0x3d46f35c	0.04857193
219	0x3e329c9c	0.17442554
220	0x3dbe1798	0.09281844
221	0xbd76c05d	-0.060242046
222	0x3d73c3ba	0.05951283
223	0x3d5dfbad	0.054195095
224	0x3e0a7c67	0.13524018
225	0xbb80fef6	-0.0039366437
226	0xbe0c6abd	-0.13712592
227	0xbc567483	-0.013089302
228	0x3ca2de12	0.019881282
229	0xbd0c2755	-0.034217197
230	0x3bf77bb6	0.0075525893
231	0xbc3fd353	-0.011708098
232	0xbad83d04	-0.0016497676
233	0x3d342bf0	0.043987215
234	0x3c71acd2	0.014750676
235	0x3d01c010	0.031677306
236	0x3e2064d9	0.1566347
237	0x3dd64733	0.10462799
238	0x3e68b4d1	0.22725226
239	0x3d446681	0.047949318
240	0xbdea9beb	-0.1145552
241	0xbd945022	-0.072418466
242	0x3d344ed2	0.04402048
243	0xbd9fe597	-0.07807463
244	0xbd459049	-0.048233304
245	0xbe561de2	-0.20909837
246	0x3d17a890	0.037025988
247	0xbd1276bd	-0.03575777
248	0x3d780ae3	0.060557257
249	0x3daedb4e	0.08537923
250	0xbd28dbeb	-0.041225355
251	0x3c274f04	0.01021171
252	0x3d94f892	0.072739735
253	0xbc376006	-0.011192327
254	0xbe0e88dc	-0.13919395
255	0xbbf55426	-0.007486838

b_gain_food_primary f4 [7]
0	0xb97c018c	-0.00024033169
1	0x3921834b	0.00015403067
2	0x393d593d	0.00018057688
3	0xb9f59317	-0.00046839632
4	0x39dfbd0f	0.00042674734
5	0x3ad0837c	0.0015908326
6	0xbad7695b	-0.0016434597

W_draw_mode f4 [256, 4]
0	0xbe1b4c4d	-0.15165825
1	0x3d68ff66	0.056884192
2	0xbdcf006b	-0.101075016
3	0xbcab9213	-0.020943677
4	0xbd39afe2	-0.04533375
5	0xbe240a77	-0.16019617
6	0xbda77991	-0.08177484
7	0xbd809f03	-0.06280329
8	0x3d5bb8fd	0.053643215
9	0xbe2e848d	-0.17042752
10	0x3d8f8697	0.07008093
11	0xbd8a5b45	-0.067556895
12	0xbd4e151e	-0.050313108
13	0x3cf901ae	0.030396309
14	0xbe10df3f	-0.14147662
15	0x3d5bfc58	0.05370745
16	0x3db1f43a	0.08689161
17	0xbd8bb9d9	-0.06822557
18	0xbd7f00e6	-0.062256716
19	0xbe30a2ba	-0.17249575
20	0xbae2255a	-0.0017253563
21	0xbad1095b	-0.0015948223
22	0x3d83ccd0	0.06435549
23	0x3da9ce97	0.08291357
24	0xbc6858aa	-0.014181295
25	0xbdb12c53	-0.08651032
26	0xbe020e40	-0.12700748
27	0x3e30de49	0.17272295
28	0x3d80b22b	0.06283983
29	0xbcb5fea1	-0.022216143
30	0xbb96a5d7	-0.0045974064
31	0x3d48917b	0.048966866
32	0xbd876175	-0.06610385
33	0x3e4b6ef8	0.1986655
34	0x3ca3a2ec	0.019975148
35	0x3d095223	0.033525597
36	0x3dbd1f09	0.09234435
37	0x3e1cac3e	0.1530008
38	0xbe4187f8	-0.18899524
39	0xbd813b91	-0.063101895
40	0xbd212c87	-0.039349105
41	0x3d075559	0.03304038
42	0x3d028320	0.03186333
43	0xbd88cfc5	-0.06680254
44	0xbd9ce937	-0.0766167
45	0x3dbda622	0.09260203
46	0xbbaaee41	-0.0052163904
47	0xbe3bbe52	-0.1833432
48	0x3c32e098	0.010917805
49	0xbdc51038	-0.09622234
50	0x3d023828	0.031791836
51	0x3d8d099f	0.06886601
52	0xbdbf97e8	-0.09355146
53	0xbd8a741e	-0.06760429
54	0x3e143384	0.14472777
55	0x3dccca47	0.09999519
56	0x3d7c2ab6	0.06156417
57	0xbd945e9d	-0.072446086
58	0x3dd80845	0.10548452
59	0x3d06db7d	0.032924164
60	0x3d4e2c51	0.050335232
61	0xbd5e13cc	-0.0542181
62	0xbdd1dbed	-0.10247026
63	0xbba6b543	-0.005087526
64	0xbe49b4a1	-0.1969781
65	0x3ce4f306	0.027947914
66	0xbd3b1dbd	-0.045682658
67	0x3d12ff36	0.03588792
68	0xbdb0e45a	-0.086373046
69	0xbe0e5db1	-0.13902928
70	0xbe246e01	-0.16057588
71	0xbb96f306	-0.0046066074
72	0x3d4f7ae0	0.050654292
73	0xbde6abb3	-0.11263218
74	0x3cc12a83	0.023579841
75	0x3d137f3c	0.036010012
76	0x3d1e9116	0.038712583
77	0xbde0c474	-0.109749705
78	0xbc66a17f	-0.01407659
79	0x3d35fda5	0.044431347
80	0xbd0e4480	-0.034733295
81	0xbd319d92	-0.04336316
82	0xbc987848	-0.018612042
83	0x3c958ad6	0.018254679
84	0x3cbc7406	0.023004543
85	0x3b647ecc	0.0034865616
86	0xbd697ec6	-0.057005666
87	0xbe61ae5e	-0.22039172
88	0xbe45b891	-0.19308688
89	0x3e132b8b	0.14372079
90	0xbc6f6069	-0.014610388
91	0xbdb1e92c	-0.08687052
92	0x3d294e1e	0.041334264
93	0x3d9aaa27	0.07551985
94	0xbd88e94c	-0.06685123
95	0x3d58fe22	0.052976735
96	0x3e37a3b6	0.17933545
97	0x3d3120d8	0.043244213
98	0xbe188fed	-0.14898653
99	0xbda79c10	-0.081840634
100	0x3caa440c	0.0207844
101	0x3d39aae2	0.045328982
102	0x3d3f8d40	0.046765566
103	0x3daa1937	0.083055906
104	0x3cf8169a	0.030284215
105	0x3d52251f	0.051304933
106	0x3e070b1a	0.13187829
107	0x3da5e0e7	0.08099537
108	0x3ceebd37	0.029142959
109	0xbc93b7b2	-0.018031929
110	0x3e1544d3	0.14577036
111	0x3dbfb22e	0.09360157
112	0x3db3d67d	0.08781145
113	0x3b934309	0.004494075
114	0xbc664b5a	-0.014056051
115	0x3b1f2200	0.002428174
116	0xbd900038	-0.07031292
117	0xbe36218b	-0.17786233
118	0x3cf1ca04	0.029515274
119	0x3d2e73b1	0.0425908
120	0xbc87d39f	-0.016580401
121	0xbe6a4b74	-0.22880346
122	0xbcd8f057	-0.02648179
123	0xbce051a3	-0.027382677
124	0x3e051822	0.12997487
125	0x3cd8cdc0	0.026465297
126	0x3d80cf0d	0.06289492
127	0xbe3720b0	-0.17883563
128	0xbae0cc70	-0.0017150771
129	0xbc9db484	-0.019251116
130	0x3cea1489	0.028574245
131	0x3d3c2bf0	0.04594034
132	0x3ce1ec9e	0.027578648
133	0xbd1e12d1	-0.038592163
134	0x3bc5202f	0.0060157995
135	0xbcec2711	-0.028827222
136	0xbdfc42ff	-0.12317466
137	0xbcd15778	-0.025554404
138	0x3dbfef43	0.093718074
139	0x3de66cff	0.11251258
140	0x3c77085e	0.0150776785
141	0xbdbb185a	-0.09135504
142	0x3e2e94c3	0.17048936
143	0xbda0bcd3	-0.07848515
144	0xbd01a207	-0.031648662
145	0x3d31c9ef	0.04340547
146	0x3df2d42e	0.11856876
147	0x3c5e195f	0.013555854
148	0xbd19d7f0	-0.03755945
149	0x3dd8c0d6	0.105836555
150	0xbe18efcb	-0.14935224
151	0x3dc26798	0.09492415
152	0x3c43eae1	0.011957855
153	0x3d869ad3	0.06572499
154	0xbd127a68	-0.035761267
155	0xbdbcb591	-0.092143185
156	0xbc706617	-0.014672778
157	0xbd40009e	-0.04687559
158	0xbd9065c9	-0.07050664
159	0x3ce02d0c	0.02736523
160	0xbe13ba42	-0.1442652
161	0xbdeb528a	-0.114903525
162	0xbaac35c3	-0.0013138581
163	0x3dd0415b	0.101687156
164	0x3d9be518	0.076120555
165	0xbe038875	-0.12845023
166	0xbd0e2809	-0.03470615
167	0xbcf708a2	-0.030155484
168	0x3c95c3b2	0.018281791
169	0x3e02ff8a	0.12792793
170	0xbd0fa636	-0.03507062
171	0x3c891d89	0.016737716
172	0xbd85acb5	-0.06527082
173	0xbc2e4888	-0.01063741
174	0x3eb61f63	0.3557082
175	0xbdb66878	-0.089066446
176	0x3ddcb2f6	0.107763216
177	0xbddc24a4	-0.10749176
178	0xbdcf8fbd	-0.10134838
179	0x3e057b0f	0.13035224
180	0xbd87a43a	-0.066231206
181	0xbdb49db2	-0.088191405
182	0xbd067610	-0.032827437
183	0xbdb643a7	-0.088996224
184	0x3d759b8e	0.0599628
185	0xbe1da54d	-0.15395088
186	0xbc7746cc	-0.015092563
187	0x3d1a9abb	0.03774522
188	0x3d84cc0a	0.0648423
189	0x3d0faaf7	0.035075154
190	0xbd72ffe2	-0.05932606
191	0xbe5e9300	-0.21735764
192	0x3db20b5c	0.08693573
193	0x3d836515	0.06415764
194	0x3db5b225	0.08871869
195	0x3e33f102	0.17572406
196	0x3e6965bf	0.2279272
197	0xbcc7a308	-0.024369732
198	0x3d0ac3d3	0.03387816
199	0x3db8dd4c	0.09026584
200	0x3c9b8400	0.018983841
201	0x3dd8d0d1	0.105867036
202	0xbce21b91	-0.027601035
203	0xbdf2d49c	-0.11856958
204	0xbd503353	-0.050830197
205	0xbc87d7be	-0.016582366
206	0xbdda4124	-0.10656956
207	0x3da4adbd	0.080409504
208	0x3d42f880	0.04760027
209	0xbd2015a1	-0.039083127
210	0xbd15f3d6	-0.036609493
211	0x3dd6240a	0.10456093
212	0xbcb442d9	-0.022004532
213	0x3d85a891	0.06526292
214	0x3d9f69f8	0.07783884
215	0x3b264abd	0.0025374137
216	0x3d5887ed	0.052864004
217	0xbdb2eec4	-0.08736947
218	0xbdbbdf55	-0.091734566
219	0xbe06f644	-0.1317988
220	0xbe008835	-0.12551959
221	0x3dea1f4e	0.11431752
222	0x3c9efbd7	0.019407196
223	0x3d0f5321	0.034991387
224	0xbde03d58	-0.109492004
225	0x3d5e59b9	0.054284785
226	0xbdc2d61c	-0.09513494
227	0x3c897f60	0.01678437
228	0x3decd9da	0.115649894
229	0x3c3565d3	0.01107164
230	0x3db8ef95	0.09030072
231	0x3b816607	0.00394893
232	0xbd3a0bec	-0.045421526
233	0x3e067bdc	0.13133186
234	0xbd8a1045	-0.067413844
235	0x3bce10dd	0.0062886314
236	0xbd2837bf	-0.04106879
237	0xbbd56c54	-0.006513158
238	0xbce2c7e1	-0.0276832
239	0xbc86df94	-0.016464032
240	0xbe28ced9	-0.16485156
241	0xbccc9ca5	-0.024977038
242	0x3d8a377d	0.06748865
243	0x3e5fe167	0.21863328
244	0x3d868146	0.06567626
245	0xbd7451ab	-0.059648197
246	0xbbd3234e	-0.0064434176
247	0xbd8ed3a2	-0.069739595
248	0x3c52f93e	0.012876807
249	0xbd179fad	-0.037017513
250	0xbdba0b2a	-0.090841606
251	0x3d473312	0.04863269
252	0xbd6b7449	-0.057483945
253	0x3e3d810d	0.1850626
254	0xbd5bdc0b	-0.053676646
255	0x3ad3fbbb	0.0016173044

b_draw_mode f4 [4]
0	0xbb5e72fa	-0.0033943043
1	0x3c373a3d	0.011183319
2	0xbba03c6b	-0.004890015
3	0xbb3dfd23	-0.0028989993

W_lay_eggs_bin f4 [256, 11]
0	0x3c6a2a09	0.0142922485
1	0xbd9e403c	-0.077270955
2	0xbd48fbad	-0.04906814
3	0x3dad2681	0.0845461
4	0x3d96a1f9	0.073551126
5	0x3db0a7a9	0.08625729
6	0x3d8c2934	0.06843796
7	0xbd00af08	-0.031416923
8	0x3e05ca8d	0.13065548
9	0xbd32d946	-0.04366424
10	0x3e2883d3	0.16456537
11	0xbdb829cf	-0.08992349
12	0x3c05c552	0.008164721
13	0xbdded5ef	-0.10880648
14	0xbdc57120	-0.096407175
15	0x3b8a8064	0.004226731
16	0x3d0506d9	0.032477234
17	0xbc1f3801	-0.009717942
18	0x3dd82bd4	0.105552346
19	0x3ca1804e	0.0197145
20	0xbd10cbdb	-0.03535066
21	0xbc2dea19	-0.010614895
22	0x3e25c1a4	0.1618715
23	0xbdd0837a	-0.10181327
24	0xbc81fc29	-0.01586731
25	0x3d5864d4	0.052830532
26	0x3c768369	0.015045979
27	0x3d26afe5	0.04069509
28	0xbd20ff2f	-0.039305862
29	0x3d943a05	0.07237629
30	0xbc430a67	-0.011904336
31	0x3c783387	0.015149004
32	0x3e2449ab	0.16043727
33	0x3c40d3d4	0.011769254
34	0x3d1eceb3	0.038771342
35	0x3d92012a	0.07129128
36	0xbd3bc00a	-0.04583744
37	0x3ba02c66	0.004888105
38	0xbcc627d7	-0.024188919
39	0xbce1255a	-0.02748363
40	0x3db9e035	0.09075967
41	0xbd44bdee	-0.048032694
42	0x3d04246a	0.03226129
43	0x3d96d52d	0.07364879
44	0x3b77231f	0.0037710143
45	0xbdc9226c	-0.098210186
46	0x3a5bdb52	0.0008386868
47	0x3e1ce782	0.15322688
48	0xbe00b47d	-0.12568851
49	0x3d8dd38d	0.06925116
50	0x3d1caf2d	0.038253
51	0x3daed637	0.08536952
52	0x3ce60d8b	0.02808263
53	0x3c0b72a0	0.008511215
54	0x3d2daf5f	0.042403575
55	0xbe795253	-0.2434781
56	0xbd56960b	-0.052389186
57	0x3b72d7dc	0.0037054932
58	0xbc7c8aea	-0.015413979
59	0xbd429617	-0.047506418
60	0xbd3c8866	-0.046028517
61	0xbd91f062	-0.071259275
62	0x3d18af05	0.037276287
63	0xbd72a191	-0.059236113
64	0x3c8817b2	0.016612861
65	0x3c8bb5c6	0.01705445
66	0xbd21dd25	-0.03951754
67	0x3cd604ca	0.02612533
68	0x3b16c223	0.0023003898
69	0xbdea6c5f	-0.114464514
70	0xbe1a9005	-0.15094002
71	0xbdb20a7f	-0.08693408
72	0xbd7e53a2	-0.062091477
73	0x3d70042b	0.058597725
74	0x3c849dca	0.016188521
75	0xbd3373f2	-0.043811746
76	0x3e1c8fcd	0.1528923
77	0x3d56da96	0.052454554
78	0x3de0d96f	0.10978972
79	0xbde3fe56	-0.11132495
80	0x3cfe9d0d	0.031080747
81	0x3be1ec88	0.006894652
82	0xbd104746	-0.03522422
83	0xbd044cc6	-0.03229978
84	0x3d8b9e0f	0.06817257
85	0x3dde0ad6	0.108419105
86	0xbd83170d	-0.06400881
87	0x3e035043	0.12823586
88	0x3dae08bf	0.08497762
89	0xbd67822a	-0.05652062
90	0x3a7fbfcc	0.0009756058
91	0x3d996cfa	0.07491489
92	0xbc619550	-0.013768509
93	0x39400b32	0.00018314717
94	0xbdad35f1	-0.08457554
95	0x3e33482e	0.17508003
96	0xbdeca7af	-0.115554206
97	0x3da95be4	0.0826948
98	0xbdeb6b6c	-0.114950985
99	0x3c0a9267	0.008457757
100	0xbb6a2caa	-0.0035732188
101	0xbc5a7203	-0.013332847
102	0xbd6539b1	-0.055963222
103	0xba6f085c	-0.0009118372
104	0x3d0e79ee	0.03478425
105	0x3def71fa	0.11691661
106	0xbddab3ca	-0.10678823
107	0xbd3940c1	-0.04522777
108	0x3d6885f5	0.056768376
109	0xbceaedbb	-0.028677812
110	0xbd1b3022	-0.0378877
111	0x3d59ec97	0.053204145
112	0xbda64462	-0.08118512
113	0xbe15f560	-0.14644384
114	0x3d48cb0a	0.04902176
115	0xbbad2cdd	-0.005284889
116	0x3d02e944	0.03196074
117	0xbdb35eac	-0.087582916
118	0x3ce2481e	0.027622279
119	0xbe3a4651	-0.18190886
120	0xbbdb6ba6	-0.0066961823
121	0x3bef1435	0.00729611
122	0xbdaad9e1	-0.08342338
123	0x3d6d63b1	0.0579564
124	0x3d8d0c23	0.068870805
125	0x3e1c1e71	0.15245987
126	0xbe1d76b1	-0.15377308
127	0x3da4853e	0.080332264
128	0x3cd5b300	0.02608633
129	0x3db7b199	0.08969421
130	0x3e119780	0.14217949
131	0x3d9371b3	0.07199421
132	0x3da915fc	0.08256146
133	0xbe0965d6	-0.13417754
134	0xbc1ac599	-0.009446525
135	0x3d94c92c	0.07264933
136	0xbdd1a883	-0.10237219
137	0xbd8d1414	-0.06888595
138	0x3e07b984	0.13254362
139	0x3e6dbb2d	0.23215933
140	0x3e0be7e3	0.13662677
141	0x3d8e692f	0.06953656
142	0x3ccbdafa	0.02488469
143	0xbc6aee50	-0.014339045
144	0xbcd59b11	-0.026074918
145	0xbe2527eb	-0.16128509
146	0xbdbab801	-0.09117127
147	0x3e2986fd	0.165554
148	0x3e193201	0.14960481
149	0x3db68b8c	0.08913335
150	0x3c2e3f20	0.010635167
151	0x3d8d51c8	0.06900364
152	0xbdab5ced	-0.083673336
153	0x3d1c2340	0.038119555
154	0x3b2d3161	0.0026427137
155	0xbda6cb48	-0.081442416
156	0xbc4a98b1	-0.012365506
157	0x3d2f2a2a	0.04276482
158	0x3c81b6c1	0.015834214
159	0xbca79a83	-0.02045942
160	0x3e49c0f3	0.1970251
161	0x3d136114	0.035981253
162	0x3e1c8720	0.15285921
163	0x3da5211f	0.08062958
164	0x3c4ab72b	0.012372772
165	0x3e00309b	0.12518542
166	0xbcd79fc7	-0.026321305
167	0x3d0fd51c	0.035115346
168	0x3d870f7b	0.065947495
169	0xbe19dec7	-0.15026389
170	0x3d2bfc6e	0.041988783
171	0xbc7b7e95	-0.015350004
172	0xbd3cb8ef	-0.046074804
173	0xbcc0c3c8	-0.023530856
174	0xbe1706c9	-0.14748682
175	0xbd7f5b49	-0.062342916
176	0xbd891b41	-0.066946514
177	0x3d0a94cb	0.033833306
178	0xbe50f130	-0.20404506
179	0x3dbd358b	0.09238728
180	0x3dc8a5a8	0.097972214
181	0x3dc88b26	0.097921655
182	0xbc646f5f	-0.013942569
183	0x3c23833a	0.009980017
184	0xbd5ea76f	-0.054358896
185	0x3cddd885	0.027080784
186	0x3e074852	0.13211182
187	0x3cc6bb4b	0.02425923
188	0x3e0fc6c0	0.14040661
189	0x3e1d8ae4	0.15385014
190	0x3d653e0a	0.05596737
191	0x3cf244ca	0.029573817
192	0x3dc727c5	0.09724382
193	0x3e251cd8	0.16124284
194	0xbb93015a	-0.004486245
195	0xbdbe7619	-0.09299869
196	0x3d494faa	0.04914824
197	0xbc811d47	-0.01576103
198	0xbc8e686d	-0.017383778
199	0xbd34d3c8	-0.044147283
200	0x3c964859	0.018345045
201	0x3c6362df	0.013878553
202	0x3d37fd6f	0.044919427
203	0xbe0b3b05	-0.13596733
204	0xbe3fda80	-0.18735695
205	0xbdb0aa8d	-0.0862628
206	0x3c6b3455	0.014355739
207	0x3e50fd44	0.20409113
208	0x3d87c793	0.06629863
209	0xbd13a36c	-0.036044523
210	0x3d70b7bc	0.058768973
211	0x3e2dbd3d	0.1696672
212	0xbd54086f	-0.051765855
213	0xbcaee0f7	-0.021347506
214	0xbe24c821	-0.16091968
215	0x3d378881	0.044807915
216	0xbcbfac09	-0.023397462
217	0x3e302207	0.1720048
218	0x3c4dba16	0.012556573
219	0xbd4f2aaa	-0.050577797
220	0x3b802e70	0.003911786
221	0xbce1adf6	-0.027548771
222	0x3db2a2d3	0.087224625
223	0x3b8c9390	0.0042900518
224	0xbd1629be	-0.036660902
225	0xbd17556d	-0.036946703
226	0xbd3f7776	-0.046744786
227	0x3e04817a	0.12940016
228	0xbd7a2786	-0.06107285
229	0x3daa86df	0.08326506
230	0xbc921033	-0.01782999
231	0xbc477b4f	-0.012175395
232	0x3de177ea	0.110092
233	0x3e2112b4	0.15729791
234	0x3daeab1d	0.08528731
235	0xbdf6475a	-0.12025328
236	0xbd983b87	-0.07433229
237	0x3d5cd4b2	0.05391378
238	0xbde8fd99	-0.11376495
239	0xbd6c1aa8	-0.05764261
240	0xbd6bac6e	-0.05753749
241	0x3ca81a0d	0.020520234
242	0x3e421d8b	0.18956582
243	0xbc5dfc4f	-0.013548925
244	0xbc193642	-0.009351315
245	0x3e2bc36d	0.16773768
246	0x3d0e71e9	0.034776602
247	0x39e7671d	0.0004413658
248	0x3e005fd3	0.12536554
249	0x3cb455e7	0.022013618
250	0x3d78df7e	0.060760014
251	0xbbe606ee	-0.007019869
252	0x3cb4c498	0.0220664
253	0x3e066ace	0.1312668
254	0xbbedccd4	-0.0072570834
255	0x3e68159e	0.22664496

b_lay_eggs_bin f4 [11]
0	0xb9871f5b	-0.00025772568
1	0xba1deea7	-0.00060246367
2	0x3b06a00b	0.002054217
3	0x3a5f2884	0.0008512812
4	0x39808e67	0.0002452016
5	0xb914da63	-0.00014195735
6	0xb90f4724	-0.00013664045
7	0xb95c1ef2	-0.00020992363
8	0xba132495	-0.0005613056
9	0xb962e0a2	-0.00021636722
10	0xba86425a	-0.0010243163
