reports/ml/next_strict_run3/iter_001/factorized_model.npz (npz, 72265 bytes, 17 tensors)

W1 f4 [48, 192]
000000 32 a3 3e 3d ec e2 8d be 87 55 f2 bd 38 8b 1d be
       0.046542354 -0.2771219 -0.11832719 -0.15385139
000010 fe 6a aa 3c d9 9a 92 3e fc 88 0b be f4 46 b9 bc
       0.020802971 0.28633764 -0.13626474 -0.02261684
000020 e0 0e 3c 3d 22 96 c3 3e 2c 46 e6 3d 7f c3 41 3e
       0.045912623 0.3820048 0.11243853 0.18922232
000030 d6 da ec 3e 64 3e 93 3c 31 a3 5d 3d 78 d4 c2 bd
       0.4626071 0.017974086 0.05411071 -0.095131814
000040 aa 55 5a 3c 9d 41 07 3e 59 41 0e 3d 3a 85 5a 3e
       0.013326088 0.13208623 0.03473029 0.21339884
000050 9c 2f b5 bd 09 19 54 3e da 2f 0c 3e a6 db 34 bd
       -0.088469714 0.20712675 0.13690129 -0.044154786
000060 a1 b3 d8 3a 01 83 ea 3e 2d b2 9c 3d e2 20 3c bc
       0.0016533026 0.45803073 0.07651172 -0.011482449
000070 0e 21 0a 3f e2 7f 2e 3d 45 5d 90 3d 03 b0 89 bd
       0.5395669 0.042602427 0.0704904 -0.06723025
000080 93 21 88 3d de 3f 02 3d 09 40 82 3d 17 84 b1 bc
       0.06647029 0.03179919 0.0635987 -0.02166943
000090 6f f3 18 3f cd 93 dd be f7 20 ae 3e e3 db a0 3e
       0.5974645 -0.43276826 0.34009525 0.3141776
0000a0 58 0d 8c be 45 2c 9a be ff 24 2c be 45 00 a8 be
       -0.2735393 -0.301119 -0.16810988 -0.32812706
0000b0 40 33 3b bd 34 c8 c0 bd c2 57 d6 3e 36 50 22 bd
       -0.045703173 -0.09413186 0.4186383 -0.039627276
0000c0 f5 bd 03 3e 18 84 b1 3d 7d 9d 96 bd c0 f6 46 3d
       0.12865432 0.08667773 -0.07354257 0.048575163
0000d0 76 df 97 be a1 1e cd be e5 5f 8d 3d 12 06 93 bd
       -0.29662675 -0.4006243 0.06903056 -0.07178892
0000e0 49 72 12 be ca f1 82 3e ef e0 b9 bc e2 2f 91 be
       -0.14301409 0.25575095 -0.022690265 -0.28356844
0000f0 e1 36 32 3e ea a0 df 3d af b5 a8 3d 58 ad ff bd
       0.17403747 0.10919364 0.082377784 -0.124842346
000100 b8 71 7c 3e ad ed 81 3e 1d 0c c0 3e c8 98 10 3e
       0.24652755 0.25376645 0.37509242 0.14120781
000110 b3 c2 c4 bd b5 17 83 bd 21 63 f9 3c fc fc 0e 3f
       -0.096074484 -0.06401006 0.030442776 0.55854774
000120 62 a6 55 be ae 96 9d 3e e8 5f 2c 3e 19 70 6e 3d
       -0.20864251 0.30779022 0.1683346 0.058212373
000130 bb cf 80 bd aa 65 28 3e 44 56 43 bd 10 28 c0 3e
       -0.062896214 0.16445032 -0.04768969 0.37530565
000140 bf 6a 0c be ee d6 e7 bd 54 81 78 be 6c 8b 13 3e
       -0.13712595 -0.113202915 -0.24268085 0.14408654
000150 a9 24 d9 3e d8 8d 81 3d 81 80 c1 bc 1a ce a4 be
       0.42410782 0.06325883 -0.023620846 -0.32188493
000160 8c a1 21 be 92 2a d7 3e a3 d0 34 be 5f d5 90 3d
       -0.15784281 0.42024666 -0.17657714 0.07071947
000170 eb d6 18 3e af f9 f4 3c 43 4d a3 3e 3b d3 d0 3c
       0.14925735 0.029904215 0.31894884 0.025491348
000180 32 53 25 3e ce 63 85 3e c5 74 8d 3e 74 aa 8e 3e
       0.16145018 0.26052707 0.2762815 0.2786442
000190 de ea 6f be ef a3 65 be 1f 1d 90 3e 7d 0b 6b 3e
       -0.23429438 -0.22425817 0.28147218 0.22953601
0001a0 68 3f 09 3e 28 c3 db be 40 23 81 3e 7a fe 30 3e
       0.13403094 -0.4292233 0.25222206 0.17284575
0001b0 c6 32 2e 3e ba 62 95 3e f5 b1 fc 3d a1 1e bf 3e
       0.17011556 0.29176885 0.1233863 0.37328056
0001c0 eb 26 12 be 5a d6 ae 3e 09 c0 c8 3e e5 c4 31 be
       -0.14272659 0.34147912 0.3920901 -0.17360266
0001d0 9d 42 e2 bd 66 9c 62 3e a7 aa 09 3e f3 d2 07 be
       -0.11047862 0.22129974 0.13444005 -0.13264064
0001e0 9c cb 8e 3e e9 6c 07 3e 48 e2 09 bf c3 7d 6f be
       0.27889717 0.1322514 -0.538609 -0.23387818
0001f0 87 68 b4 3e d4 90 9b be 12 cc 56 3c 7e ba 0e 3e
       0.35235998 -0.30383933 0.013110178 0.13938329
000200 87 7e e1 bc 12 28 62 bd 91 e3 86 bd a9 1c 10 be
       -0.027526153 -0.055213995 -0.065863736 -0.14073433
000210 c4 26 db 3e 88 58 29 bc f0 44 05 bd 0f 1a 94 3d
       0.42803013 -0.010336049 -0.032536447 0.07231533
000220 99 5d 89 3d 7a 93 2c 3e 9e 00 33 bd 91 4f ff be
       0.067073055 0.16853133 -0.04370176 -0.49865392
000230 1b 05 d4 bd a2 4e 1c 3e 8e 42 d9 3d 04 00 65 3d
       -0.10352536 0.15264371 0.106083974 0.055908218
000240 7a 7b 85 bd eb f8 c1 bc 1f b4 ba 3e fd da 16 3e
       -0.06517692 -0.023678264 0.36465546 0.14731975
000250 29 9d 5e 3e d2 07 ea 3d aa 3a 16 3e 9c 48 2f 3f
       0.2173964 0.11427273 0.14670816 0.6847017
000260 f0 82 85 3d cf f3 09 be 23 fc 1f be 99 8f 58 3e
       0.06519115 -0.13471912 -0.15623526 0.21148528
000270 7d d4 23 be 63 f8 56 bc 73 05 3e 3e 8a 7d 9e 3d
       -0.15999027 -0.013120743 0.18556766 0.077387884
000280 03 b4 8e 3c a1 e5 70 3e c3 5b 42 3d 8a 3d 7b 3d
       0.01741982 0.23525096 0.047450792 0.061337985
000290 33 98 82 bd 03 17 4a bd 19 8e b3 3e e2 91 17 3e
       -0.06376686 -0.049338352 0.3506935 0.14801744
0002a0 5a db 74 be 6b 1b 8c bb 8a 03 1a be a7 fa 73 3e
       -0.23911801 -0.0042757294 -0.15040413 0.23826085
0002b0 62 5e 88 bd 44 f5 18 be 62 7e b3 bc ca 21 38 bc
       -0.06658627 -0.14937311 -0.02191085 -0.011238525
0002c0 dc 35 60 3d 84 08 63 bd 97 25 ac bd 8d 80 7e bd
       0.054738864 -0.055428043 -0.08405607 -0.062134314
0002d0 9f 8b 8e be 57 a5 3f 3e a0 a6 b8 be 55 e2 37 bd
       -0.27840897 0.18715416 -0.36064625 -0.04489358
0002e0 39 28 53 3d 75 9a a3 3e e7 ac 9d 3d b1 b7 ef bc
       0.05155203 0.3195378 0.07698994 -0.029262396
0002f0 54 80 63 3d 15 14 9c be 75 ce 1c 3e 0c ef 04 3f
       0.055542305 -0.3048407 0.15313132 0.51927257
000300 26 05 71 be a0 ee 27 3e b1 e2 3a be d8 73 da bc
       -0.2353712 0.16399622 -0.18250538 -0.026666567
000310 85 55 16 be c5 2f ba 3e 1c 84 8b 3c 4c 14 71 bd
       -0.1468106 0.3636457 0.017030768 -0.058857247
000320 93 26 dd 3d 6a 46 2b bd 79 d4 29 3c 8f 34 3d be
       0.10798373 -0.0418152 0.010365599 -0.18477081
000330 3b 1d f0 3e 0a ac 21 3e ff 7d b5 3e e8 e3 13 3d
       0.468973 0.15788284 0.3544769 0.03610602
000340 77 90 92 3e 77 3a 06 3e fb 18 a5 bd a5 ef b5 3e
       0.28625843 0.1310824 -0.08061405 0.35534397
000350 7b 9b be 3d 7d 5a ca 3e 65 cb af be 65 74 b4 be
       0.09306999 0.39522162 -0.34334865 -0.35245052
000360 15 37 96 bd fb 6b 9d be 0d 84 ce 3c 86 63 73 be
       -0.07334725 -0.30746445 0.025209451 -0.23768434
000370 b1 68 a7 3d f1 59 15 bc 23 06 78 3d 9e 93 65 be
       0.08174265 -0.009115682 0.060552727 -0.22419593
000380 09 6e fe bd e9 34 30 bd 20 ba ae bd 66 ff 54 3e
       -0.12423331 -0.04301921 -0.08531594 0.20800552
000390 35 6e cc 3c db ac 7d 3e 58 7b a8 bd 38 7f af 3a
       0.024954895 0.2477297 -0.08226651 0.0013389355
0003a0 52 e1 94 be cf a8 79 3e 97 34 73 3e 00 ef d0 3d
       -0.29078156 0.24380802 0.2375053 0.10201836
0003b0 6c 9d 67 be ed c2 53 3e 70 ed a2 3d cc a0 a0 3d
       -0.22618645 0.20679827 0.07955444 0.078431696
0003c0 17 96 48 be 0d c7 03 be d5 ea ee bd 28 45 0d 3e
       -0.19588505 -0.128689 -0.116658844 0.13795912
0003d0 6e e4 75 be 7f f9 2e 3e e9 8f ef be 0c 5c 7d 3d
       -0.2401292 0.17087363 -0.46789482 0.06185536
0003e0 15 6b 52 be 84 fd f4 3d bf 89 46 3e 6b 85 88 3d
       -0.20548661 0.11962417 0.19388483 0.066660725
0003f0 18 80 8b 3e 02 74 0a be a6 0b 91 3e 79 d1 d4 bd
       0.27246165 -0.13520816 0.283292 -0.10391516

b1 f4 [192]
000000 e7 9b 2e 3d 7c 84 fa 3d a3 cc 7b bd 31 4e a0 3c
       0.04262915 0.12232301 -0.061474454 0.019568535
000010 5f 88 44 3d f3 f9 f2 3e 5f 73 c5 3a 09 53 f7 3c
       0.047981616 0.4745632 0.001506429 0.030190961
000020 7c 9f f1 3b e2 54 c6 bb 63 ea 0c 3e a6 02 5c 3b
       0.0073737483 -0.0060525993 0.13761286 0.0033570915
000030 b0 04 f0 3e 4a 8c 15 b8 4c e7 00 3e 3e af 10 3c
       0.46878576 -3.5655023e-05 0.12588233 0.0088308435
000040 69 6d 6d b9 ce eb 11 3d 7f a8 b5 3d d7 dc 75 3e
       -0.0002264284 0.03562527 0.08870029 0.24010025
000050 93 f7 0c 3d 55 ca 0a 3c 36 05 3f 3c 64 eb c7 b9
       0.034415793 0.008471091 0.011658957 -0.00038131617
000060 87 d1 f9 3d 03 3c 99 3e d3 9e 9a 3c df 3e b9 ba
       0.12198167 0.29928598 0.018874561 -0.0014133117
000070 db 6f 00 3f 90 9e d9 bb 59 62 c5 3c 32 94 ba 3c
       0.5017068 -0.0066412166 0.024094747 0.022775743
000080 78 ff 03 bd ca 23 a8 3d 5e 42 33 bc 00 00 00 00
       -0.032226056 0.08209951 -0.010941116 0.0
000090 db 8e 4c 3e 00 00 00 00 0f 97 32 3d 9a b7 7e 3e
       0.1997637 0.0 0.043601092 0.24874726
0000a0 7a 29 22 3b e2 b3 bf 3d 59 d2 b7 3e 0c 29 08 bd
       0.002474396 0.09360482 0.3590267 -0.03324227
0000b0 f5 91 8a 3a 00 00 00 00 16 da b6 3e 65 ff 11 bb
       0.0010572063 0.0 0.3571326 -0.002227747
0000c0 dd 32 75 3c 35 75 02 3e 3e 7e 0e 3d 59 02 c4 bc
       0.01496574 0.12740023 0.034788363 -0.0239269
0000d0 69 36 e4 ba 99 dd d9 bc 6d 0f 39 bc c4 9e 8c 3b
       -0.0017411235 -0.026594924 -0.011295182 0.0042913873
0000e0 1c 46 57 3c be 72 bd 3e cb 83 be 3e 6e 41 a0 bc
       0.013139274 0.37001604 0.37209925 -0.01956245
0000f0 f1 b5 47 3e a0 5b 18 3e 9b 60 27 3b 62 da 0f bc
       0.19502999 0.14878702 0.002553976 -0.008780094
000100 27 b0 b7 3e bb 02 f4 3e 38 35 40 bc 3c 64 25 3d
       0.3587658 0.47658333 -0.011731438 0.040378794
000110 00 18 31 3d 6f 77 3f ba 0d 04 74 3e c9 e8 80 3e
       0.04323578 -0.0007303869 0.2382967 0.251776
000120 ec 04 58 ba 04 1e dd 3e 3a a8 c9 3d 4c 45 af 38
       -0.00082404795 0.43186963 0.0984654 8.357558e-05
000130 1d d0 1d 3d 04 a6 b7 3b cb 6d cf bc 85 b0 ee 3e
       0.03852855 0.0056045074 -0.025320908 0.4661905
000140 01 9a 9c 3d fd 24 22 3b d1 41 b8 bc ce ba 8d 3d
       0.076465614 0.0024741285 -0.022492321 0.06920396
000150 24 0f a7 3e c8 79 b7 3b 4e f0 96 3a 40 7a e0 3a
       0.3262874 0.0055992343 0.0011515708 0.0017126277
000160 9f 4f 38 bc a7 5a c4 3e c2 bc d8 3d f6 6b 8c bc
       -0.011249452 0.38350412 0.10582878 -0.017141324
000170 1b 10 52 3c c4 e4 b5 3b ac 04 b6 3e 81 6a 33 3d
       0.012821223 0.0055509526 0.3555044 0.043802742
000180 67 f7 87 bb 15 d3 a9 3e bf be 02 3e 06 2c c1 3e
       -0.0041493657 0.33168855 0.12768076 0.377289
000190 5a 57 1c ba 2b 03 24 3c 13 04 fa 3d e2 a7 4f bb
       -0.0005963944 0.010010521 0.12207808 -0.003168576
0001a0 72 5a 82 3d d1 e8 6f 3e d8 0b fa 3d 35 c6 29 bd
       0.06364907 0.23428656 0.1220929 -0.04144879
0001b0 7b ac 8a ba 65 4e 52 3d 62 08 7a 3e f1 af b0 3e
       -0.0010579968 0.051344294 0.2441726 0.34509233
0001c0 76 a9 64 3d df cd 2a 3f 96 fe e1 3e e9 23 59 3a
       0.055825673 0.66720384 0.44139546 0.0008283244
0001d0 84 e0 7e 3e c2 03 45 3e 5c aa 21 3c 1e c2 6a 3e
       0.24890333 0.19239715 0.009867277 0.22925612
0001e0 15 cb da 3e dd 79 a2 3e a2 b0 2d 37 52 2d 76 3a
       0.42733064 0.317336 1.0352729e-05 0.00093909085
0001f0 c9 35 b4 3e 72 a6 c0 3b 1f 14 de 3a a4 e4 2b 3e
       0.35197285 0.005879217 0.0016943252 0.16786438
000200 b2 37 aa bc 87 65 39 3e a8 7f 97 3d 0f ed 82 bb
       -0.02077851 0.18105136 0.07397395 -0.0039955447
000210 42 c1 0d 3f 12 19 a0 3d 83 9e a1 3a 09 aa 75 3e
       0.55373013 0.07817282 0.0012330565 0.23990645
000220 4b 49 14 bd a8 b8 17 bd df ff 18 3c a0 36 93 bc
       -0.03620271 -0.037041336 0.009338348 -0.017970383
000230 05 1e 73 3d d3 60 44 39 38 5e 93 ba 96 e9 95 3b
       0.0593548 0.00018728086 -0.0011243289 0.0045749648
000240 25 67 86 3e 44 e3 d7 3d 87 27 2d 3e 70 45 af 3e
       0.26250568 0.10541394 0.1690961 0.34232664
000250 49 74 ef 3c 28 d8 83 3e 7a cf 85 bc 4d 4b f5 3e
       0.029230254 0.25750852 -0.016334284 0.47909012
000260 6d d7 0c bb 9f 68 d6 bb 77 d9 4d bc 92 1b 95 3e
       -0.0021490708 -0.0065432335 -0.012564055 0.29122597
000270 0a 4e e1 bc f4 16 a8 bc 90 41 2c 3e d8 01 0c 3e
       -0.027503032 -0.020518757 0.16821885 0.13672578
000280 d2 e8 a9 3e de f6 d6 3b 80 00 66 3e 88 49 8b bc
       0.3318544 0.0065601906 0.22461128 -0.017002836
000290 a7 71 01 3d f7 e1 cc 3d ae 9a c3 3e e0 e9 19 bd
       0.031602528 0.10004037 0.3820395 -0.037576556
0002a0 2c b9 ef 3d d2 01 28 bc 53 0a 59 b9 82 33 f5 3e
       0.117052406 -0.01025434 -0.00020698579 0.4789086
0002b0 5c cd 8d bc 1d 20 48 3e 29 db 8b 3b a7 90 86 3b
       -0.017309837 0.195435 0.0042680693 0.0041065994
0002c0 01 6a a0 3d eb 84 05 ba c9 e8 96 3d 90 67 e9 b9
       0.07832719 -0.00050933537 0.07368619 -0.00044518383
0002d0 01 73 5b 3e 09 55 66 bc 2c a6 37 3c 85 6b 8b 3a
       0.2143059 -0.01405836 0.011209052 0.0010636902
0002e0 dd be 00 bc 09 95 dd bb 53 6f 15 bb 22 f5 62 bd
       -0.007858005 -0.006762151 -0.002280195 -0.055409558
0002f0 7a 01 9d 3c a6 3f ea 3b f9 ba cf 3d 2c fe 7b 3d
       0.019165743 0.0071487008 0.10143084 0.061521694

W_action_type f4 [192, 4]
000000 71 cf 53 bd 53 d7 b8 bd 62 22 0f bc 97 86 ff 3d
       -0.051711503 -0.09025445 -0.008736225 0.12476843
000010 7f aa 70 3e 37 c5 7a 3d 12 ae d7 bc 27 d1 22 be
       0.23502539 0.061223235 -0.02632812 -0.15900098
000020 d7 12 02 3d 64 c6 8b 3d 07 73 25 3e ac cd ca 3d
       0.03175625 0.068249494 0.1615716 0.0990251
000030 c8 b6 68 3b 45 3e 2e 3c b9 e6 b0 bd 39 5c 34 3e
       0.0035509337 0.010634963 -0.08637757 0.17613305
000040 a4 8a 54 bd 2f 1e b2 3d a9 bc ad bd f1 70 57 bc
       -0.05189003 0.08697163 -0.0848325 -0.013149486
000050 8f 42 e4 bd 23 c9 52 be c7 fb 2d be 93 3e 88 3d
       -0.111455075 -0.2058454 -0.16990577 0.0665256
000060 da 60 cc 3d ec e5 bf bd 59 23 ae bd c6 b2 a5 bd
       0.099794105 -0.09370026 -0.08502836 -0.08090739
000070 b6 28 0b 3d 26 df de bc d5 bb bd 3d d1 99 1e 3e
       0.03397437 -0.027206015 0.09264342 0.15488364
000080 d9 16 4d bc 8c dc ed 3c d6 b9 cd bd 84 58 ca 3c
       -0.012517654 0.029035829 -0.10045211 0.02470041
000090 c1 82 12 be d9 f1 69 3d 1f 3d 97 bd 2f 7b ea bd
       -0.14307691 0.05711541 -0.07384705 -0.11449277
0000a0 5a d5 15 3d 96 87 98 3c 2c fe 4d bd 8b 05 9d bd
       0.03658042 0.01861934 -0.050291225 -0.07667073
0000b0 0b 95 a9 bc 2c ed 56 bd 77 8f e9 3c 79 62 76 3c
       -0.020700952 -0.05247228 0.028510792 0.015038126
0000c0 f9 23 de 3b d3 12 30 be ee 6a 88 3d f7 29 2d bd
       0.0067791906 -0.17194681 0.0666102 -0.04227635
0000d0 37 a4 fd bd fe a1 08 be 92 61 60 3d 0a 0c 9f bd
       -0.12384837 -0.13343045 0.05478055 -0.07765968
0000e0 49 87 f5 bd db b4 ab 3d 38 4b 9b 3d 79 97 af bd
       -0.11988694 0.08384105 0.07582706 -0.08573813
0000f0 7f dd df 3c 7e 24 28 bd f4 67 a5 bc 8e 58 02 3d
       0.027327297 -0.041050427 -0.02019117 0.031822734
000100 81 26 00 3e ad 9d 2b 3e 66 e0 98 3d 59 93 0f 3e
       0.12514688 0.16759367 0.074646756 0.14021052
000110 fd 1a 17 bc a5 bf 07 3d 5b 6f d4 3d e0 e0 c5 bd
       -0.009222743 0.03314175 0.10372802 -0.09662032
000120 8a d6 20 be 35 7b 62 3d 90 19 5c be 89 24 d9 bd
       -0.1570684 0.05529328 -0.21494126 -0.10602672
000130 0d f5 65 3d c1 3f ab 3d a2 f5 ee 3b e8 14 dd bd
       0.0561419 0.083617695 0.0072924653 -0.10795003
000140 54 38 ab b9 20 59 b0 3c cc e0 a7 3d b3 ad a1 bd
       -0.0003265763 0.021526873 0.081971735 -0.078944586
000150 a9 ac 48 3e c8 44 a3 3d 9f 93 8e 3d 10 90 ea bd
       0.19597115 0.07972103 0.0696175 -0.11453259
000160 3a 09 c6 bd 06 a9 c2 bd 83 42 b9 bd 45 fd d4 3d
       -0.096697286 -0.09504895 -0.09045889 0.1039987
000170 72 23 f1 bc 93 16 d9 3d 78 3f 21 bd fe 72 e0 bd
       -0.029435847 0.10600009 -0.03936717 -0.10959433
000180 ca 48 ed 3d f4 c9 c3 3d b6 2a ea bd e5 a7 6f 3d
       0.11586149 0.09560004 -0.11433928 0.058509726
000190 37 b0 61 bd 93 5b 24 3d 0d c1 8d 3e 5e 5d 3e 3c
       -0.055099692 0.040126394 0.2768635 0.01161894
0001a0 3d 9f bd bd 0d 43 f5 bd af e6 4c be 60 60 a2 bc
       -0.09258888 -0.119756795 -0.20009874 -0.019821346
0001b0 17 95 b3 3d 03 aa cc bd 8d a6 45 3d 10 1f 0a 3c
       0.08768671 -0.09993365 0.04825454 0.008430257
0001c0 1b 73 54 bd 76 5e ed 3c b8 43 a0 3d 3d 02 22 be
       -0.051867586 0.028975707 0.07825416 -0.15821166
0001d0 50 65 17 be 5c 5e 19 bc 1b 1c 7f bd 34 83 21 be
       -0.14784741 -0.009360876 -0.062282663 -0.15772706
0001e0 d5 6e ff bd 50 64 b6 bd 66 64 98 bd 5b 06 96 bd
       -0.124723114 -0.08905852 -0.074410245 -0.07325431
0001f0 93 28 06 3e 55 d1 01 bd 52 fc 1d be 2b 15 b3 bd
       0.13101415 -0.031693775 -0.15428284 -0.08744272
000200 bf 23 c2 3d b3 64 5e 3b 90 5f b9 3d 74 21 5d 3d
       0.09479474 0.0033934533 0.0905143 0.05398698
000210 06 ab 6a bd 22 69 bf 3d 10 36 f8 3d c6 42 0e 3c
       -0.057292007 0.09346224 0.121196866 0.008682912
000220 2b 87 07 3d 27 23 77 3d 75 1a d1 bd 30 20 52 3d
       0.03308789 0.06033626 -0.102101244 0.051300228
000230 33 52 84 bd 07 db 15 3e 8c bd af 3d 36 ad 08 bd
       -0.06460991 0.14634334 0.08581075 -0.03336831
000240 f7 ee 9f 3d 8c 02 bf bc da 91 92 3d 40 33 ea ba
       0.07809251 -0.023316644 0.07156725 -0.0017868057
000250 bd 0a 55 bd 2a 8e c5 3d 86 b1 40 3d fd e5 f6 3b
       -0.052012194 0.09646256 0.0470443 0.007534741
000260 d4 fb d5 bd d5 70 c7 3d 3d 93 55 bc ae c0 44 3d
       -0.10448423 0.09738318 -0.013035593 0.048035316
000270 47 a4 8b 3e fe 1d 69 3c cf 95 1e bd 05 db 28 3c
       0.2727377 0.014228342 -0.038717087 0.010306125
000280 c7 7e 62 3d bf 32 4a 3d db 6a 66 3e 92 5d 27 bd
       0.055296686 0.0493648 0.225017 -0.04086072
000290 5e 88 42 3d 0a e0 72 bd 01 c4 aa 3d db e5 18 3e
       0.04749333 -0.05929569 0.08338166 0.14931433
0002a0 f6 96 ea 3d a4 95 72 be 4f b2 20 3c af 53 bd 3d
       0.11454575 -0.23689896 0.009808137 0.09244477
0002b0 94 2b ab 3d 5c f0 e2 3d 97 cf 1d bd cc fa 4f 3d
       0.08357921 0.11081001 -0.03852805 0.050776288
0002c0 3b 23 40 3e a4 9d 25 3d ef 4f 70 3d 02 87 8d bc
       0.1876344 0.04043354 0.05866998 -0.01727629
0002d0 12 5a 6c bd 0e 97 22 3d 70 5c a5 3c b1 85 03 3e
       -0.057703085 0.03969484 0.02018568 0.12843968
0002e0 f9 78 33 3c ee c2 e2 3c 8f 2d 2a 3d ed 5a 81 bd
       0.010954135 0.02768084 0.041547354 -0.06316171
0002f0 8c e7 cd bc 95 ef af 3c 99 0f c4 bd c1 ca 8d be
       -0.025134824 0.021476546 -0.095732875 -0.2769375
000300 f3 fa 33 3e 3c 20 f4 bd d5 5e 25 3e ac 05 7d bc
       0.17576198 -0.11920211 0.16149457 -0.015443247
000310 26 b2 e1 bd 82 f6 4f bd a4 18 03 3e e3 b6 de 3c
       -0.11020307 -0.050772198 0.12802368 0.027186817
000320 eb 8b d9 bd 39 77 b2 bd b0 f2 0d 3e f3 00 a0 b9
       -0.1062239 -0.08714146 0.13862109 -0.00030518285
000330 6b ce 3d be 51 c4 08 be 38 98 14 bd 82 6e 0d be
       -0.18535773 -0.13356139 -0.03627798 -0.13811687
000340 a5 69 3c bd de ba ce bd 8e 6c 89 3c c2 3e fc 3d
       -0.045999188 -0.10094236 0.016775396 0.123166576
000350 17 8a e7 3d d3 1b 37 bd fd 66 4b 3d dd 52 14 3c
       0.113056354 -0.04470427 0.049658764 0.009052959
000360 05 87 61 3e dd 8a 30 3e 8d 72 01 3e 79 16 0f 3b
       0.22024162 0.17240472 0.12641354 0.0021833463
000370 9f 78 20 be 06 60 77 be a9 1a 8a bd 54 ee ca 3c
       -0.15671013 -0.24157724 -0.06743366 0.024771847
000380 ae f0 c6 3d 45 04 29 3d 79 1a 60 be 3c 98 d4 bb
       0.09713875 0.041263837 -0.21885099 -0.0064878743
000390 3a dd d2 3c 5d 0a 9f 3c 54 25 83 bd c4 e2 11 be
       0.025740255 0.019414121 -0.06403604 -0.1424666
0003a0 15 51 ac bd ef f7 3d be 14 e0 8d bb 4f de 6e bd
       -0.08413903 -0.1855161 -0.0043296907 -0.05831748
0003b0 14 48 01 be 1e f1 0e 3d 02 d2 3e 3d 04 52 63 bb
       -0.12625152 0.034897916 0.046586998 -0.0034686336
0003c0 f9 1a 1b 3d 5c f2 ad bd 1d 82 a0 bd cb 47 b3 bc
       0.03786752 -0.08493492 -0.07837317 -0.02188482
0003d0 25 74 f8 3c a4 d8 0d bd 3f ab 22 3e 8b 5c e5 3d
       0.03032882 -0.034630433 0.15885638 0.11199292
0003e0 9c 99 b3 bd b4 bb ef 3c 99 fa 51 3d 72 c7 5c 3d
       -0.08769533 0.029264309 0.05126438 0.053901143
0003f0 8e 0e 1e be 75 f4 d6 3d a0 7c eb bd 0d 69 19 bd
       -0.1543524 0.10495845 -0.1149838 -0.0374537

b_action_type f4 [4]
000000 bf fe 26 3c a4 96 8d 3b b5 08 23 bc a7 82 95 bb
       0.010192572 0.0043209363 -0.009950806 -0.004562694

W_play_habitat f4 [192, 4]
000000 6e 9a bc 3d 32 18 ad 39 7b f6 af bd ee 5c 61 bd
       0.092091426 0.00033015158 -0.08591934 -0.055020265
000010 96 33 8a bc 5f 7a 1f be 7f b2 ca 3d a0 3f da bb
       -0.016870301 -0.15574025 0.09897327 -0.0066604167
000020 9f 94 2b bd 8a 74 6a 3c 3e 35 f0 bd 3e e9 72 3d
       -0.041889783 0.014310012 -0.11728905 0.05930447
000030 41 1a 04 be 21 c8 51 bd 8c b2 8e bc 9b f9 85 3b
       -0.1290064 -0.05121625 -0.017419122 0.004088593
000040 31 f7 6a 3d f9 f0 f6 bc a6 cf f1 3d b3 c0 8b bd
       0.057364646 -0.030144202 0.11807184 -0.06823864
000050 e6 db 81 bd 95 f1 3a bd f6 80 9d bd fd 10 08 be
       -0.063407704 -0.045640547 -0.07690613 -0.1328773
000060 23 ec 80 bc 97 00 eb 3d 2b 77 94 bd fc ba ae bd
       -0.015737599 0.11474722 -0.07249292 -0.08531758
000070 f4 d4 12 bd 00 44 48 bd 60 9c 34 bd 2a 9d e8 3d
       -0.03584762 -0.048892975 -0.044094443 0.11358102
000080 89 f6 b2 3d d9 4c b1 3d ec d6 d2 3d 81 ac a7 3c
       0.08738429 0.08657236 0.10294899 0.020467998
000090 99 c3 93 3c 1f 5b 9c bd 04 19 5a be c5 13 6d be
       0.018037604 -0.076345675 -0.21298605 -0.23152073
0000a0 e9 6a b3 3d 4a 64 1f 3d b1 b4 e4 bd 4f 1f 60 bd
       0.08760626 0.038914002 -0.11167277 -0.05471736
0000b0 fd 02 62 bd 49 49 22 3e 25 04 e6 bd ea c1 3a be
       -0.05517863 0.15848269 -0.11231259 -0.18238035
0000c0 44 be f6 bd 72 20 36 be 4c 09 08 bd ae 19 b8 3d
       -0.12048009 -0.17785814 -0.03321199 0.08989273
0000d0 a6 7c 29 3d 87 99 5f 3d ed 00 f3 3c f6 02 ca 3c
       0.04137864 0.054589774 0.029663527 0.024659615
0000e0 e0 b9 2e be 20 e0 3f 3e 27 c6 ad bd 2b d9 f8 3d
       -0.17063093 0.1873784 -0.0848506 0.121507965
0000f0 e3 44 00 3e 0d 8b c7 bd 5c c3 f5 bd a0 bd e7 3d
       0.12526278 -0.09743319 -0.120001525 0.11315465
000100 da 34 74 be e6 64 88 be 64 db e6 bc 2a c5 b4 bd
       -0.23848286 -0.2663948 -0.028180785 -0.088266686
000110 cd a1 e2 bc 4b 39 34 3c b9 e0 c6 bd 2a c5 dc 3d
       -0.027665043 0.010999988 -0.09710831 0.107797936
000120 27 f4 e3 3d 36 bb b7 bd 63 8e c7 bd a9 c2 5c 3c
       0.11130553 -0.089712545 -0.09743955 0.013474145
000130 0c 19 1b bd c2 7a b6 3d 0f 55 d2 bd 4a 76 35 bd
       -0.037865683 0.08910133 -0.1027013 -0.044302262
000140 91 22 20 bd 62 21 57 be 2d d6 89 bd 71 4f 14 3e
       -0.039095465 -0.21008828 -0.06730304 0.1448343
000150 8e 15 4f 3d 22 69 8d bd ba 08 37 3d 35 08 b5 3d
       0.050557666 -0.06904818 0.044686057 0.08839456
000160 23 5f 44 3e 03 d5 f2 3d 0f 47 35 be 6e 65 0c be
       0.19176917 0.11857035 -0.17702888 -0.13710567
000170 8f f9 5f 3c 1c 58 73 bc 7e b8 2e 3e 4d d5 55 bd
       0.013670339 -0.01485255 0.17062566 -0.052205373
000180 24 68 f4 3a 94 94 87 3d c0 54 c6 3d 57 b6 16 3e
       0.0018646759 0.06620136 0.096841335 0.14717995
000190 00 39 35 bd 75 02 65 3d 96 20 c3 3d 91 a8 8a 3b
       -0.044243813 0.055910546 0.095277 0.0042315205
0001a0 fa ed 18 3e 2a 6b 56 3e 4c 03 c3 3d 4c 69 fb 3c
       0.14934531 0.20939317 0.09522113 0.030689858
0001b0 e8 60 7b bc bd 14 60 ba 76 4a d3 bc c2 e2 ef b9
       -0.0153429285 -0.0008548012 -0.025792342 -0.0004575458
0001c0 bd e2 ab bd 18 9a 36 3e aa 26 3e 3c a5 47 19 3e
       -0.08392856 0.1783222 0.011605898 0.14968736
0001d0 11 f3 87 bd f5 31 17 3e 09 cb ca 3d 41 8c 06 3e
       -0.06638158 0.14765151 0.09902007 0.1313944
0001e0 ad d8 97 bd ba 2d 27 3e d6 7e 55 3d 84 1f a9 3d
       -0.074143745 0.16326037 0.052122913 0.08257964
0001f0 e1 ab 9b 3d ad e3 eb bc 6f f3 d6 bd 28 ca 65 be
       0.07601143 -0.028795088 -0.1049565 -0.22440398
000200 a3 09 12 bc 11 03 51 bd e4 23 bf 3b 9a 0e 5e bd
       -0.00891343 -0.051028315 0.005833136 -0.054213144
000210 c8 ae 05 3e 2c 3e f8 bc a6 47 28 be c5 24 35 3d
       0.13054955 -0.030303083 -0.16433582 0.04422452
000220 50 5a fe 3d 24 a7 00 3e 7b af 0c 3c 88 33 76 bd
       0.124195695 0.12563759 0.00858676 -0.060107738
000230 df 83 e5 bd 8e 0c 02 3e b3 fe 95 3d ea 9c fb b6
       -0.11206793 0.12700102 0.07323971 -7.49865e-06
000240 c0 14 65 3d cf 0c 53 be f5 1c 9e 3c be 02 d7 bd
       0.055927992 -0.20610355 0.019300917 -0.1049857
000250 c6 c3 0d b9 46 ce 23 be 2c 3c dd bd 87 77 18 be
       -0.00013519739 -0.15996656 -0.108024925 -0.14889346
000260 2f 46 af bc 4c 57 23 3e 19 aa b4 ba 97 3b 2c 3e
       -0.02139577 0.1595127 -0.0013783603 0.16819607
000270 57 53 48 3b cc e7 85 3d f8 d2 b8 3c 5a 5c 50 bc
       0.0030567253 0.06538352 0.022561535 -0.012717331
000280 b3 0e 0a bd ac ab 0f be 1e 40 7f bc b4 47 39 be
       -0.033705425 -0.14030331 -0.015579252 -0.18093759
000290 47 36 15 be 3c d2 84 bc 3f 56 cc bb 06 01 84 bd
       -0.14571486 -0.016213529 -0.0062358673 -0.06445508
0002a0 ad c2 67 3d 7e 36 57 3d 0a 6b 0c 3d 92 ac 8b bd
       0.05658214 0.052542202 0.034281768 -0.068200245
0002b0 ce d3 8b bd 49 e5 d2 bc e2 0b 12 3e 2a d8 81 bc
       -0.06827508 -0.025744097 0.14262345 -0.015850145
0002c0 f0 6f 3f be c8 72 fe bc 08 93 80 3d b7 8f 8e 3d
       -0.18695045 -0.031060591 0.06278044 0.06961005
0002d0 2f f9 b6 bd 18 99 b8 b9 7e cf 47 3d b0 d2 63 bd
       -0.08934247 -0.0003520928 0.048781864 -0.05562085
0002e0 c7 89 2c be ab 42 dc bc e0 5a ba 3d 63 b9 89 bc
       -0.16849433 -0.026887259 0.09099364 -0.016812032
0002f0 2a 77 c4 3d 3f 07 27 3d 7d 28 a7 bc 26 63 12 be
       0.09593041 0.040778395 -0.020405049 -0.14295635
000300 6d 6a 2c bd 64 30 80 3d 00 c0 79 3d 97 11 93 3d
       -0.042093683 0.0625923 0.06097412 0.07181089
000310 c4 3d 4d 3e f5 f8 16 3d 51 d2 dc bd e2 5a 00 3d
       0.20043093 0.036858518 -0.10782302 0.031336673
000320 75 89 e8 3d 48 89 a9 bd ab d0 5b 3c af 68 18 3e
       0.11354343 -0.082781374 0.01341645 0.14883684
000330 fa de ad 3c de 3c 57 be cb f5 49 3e c9 cc e6 3b
       0.021224488 -0.21019313 0.19722669 0.0070434553
000340 ac 96 ac bc fc 2a 7f 3e 73 47 13 3e 1d e6 5d 3e
       -0.02106794 0.24918741 0.14382724 0.21669813
000350 07 a2 47 bd b7 8c 54 3e f9 ae b4 bc c7 79 c5 bc
       -0.048738506 0.20756803 -0.02205609 -0.02410592
000360 04 2c f4 3d 33 36 4f bc 7a 33 eb bd ac 0e 01 bd
       0.11922458 -0.012647199 -0.11484428 -0.031508133
000370 2e 70 90 bb c9 5d 1c bd 91 f2 1a be 46 5a 3b bd
       -0.004407904 -0.038175378 -0.15131594 -0.04574039
000380 06 9d ea bd f8 6c 4d 3e 12 98 d1 3d 27 15 0b be
       -0.11455731 0.200611 0.10234083 -0.13582288
000390 f0 47 03 3e ea 6b d7 3c f1 78 12 3d b1 f1 98 be
       0.1282041 0.026296575 0.03575987 -0.29871896
0003a0 fe f2 05 be d0 5d 8d 3e 20 1c 22 bc d7 03 2f 3e
       -0.13080975 0.27610636 -0.009894401 0.17091309
0003b0 d3 3d 92 3e 17 78 38 bd 7f e8 6f bc 6f 40 9f bd
       0.28562793 -0.0450364 -0.014642834 -0.077759616
0003c0 3f 62 4b bd a3 61 0c bc d8 d7 fb bb f3 37 36 be
       -0.04965424 -0.0085682 -0.0076856427 -0.1779478
0003d0 e2 9c f2 3d 2d e5 c8 3b 94 04 50 3d 93 d7 68 3e
       0.11846329 0.0061308355 0.050785616 0.22738485
0003e0 b2 96 16 3e cd 35 89 bc d8 91 80 3d 5e 7c ad bd
       0.14705923 -0.016749287 0.062778175 -0.08470987
0003f0 65 45 ed 3c 88 57 91 3d 0a ae 2b 39 e0 5e 04 3e
       0.028963754 0.070967734 0.00016372665 0.12926817

b_play_habitat f4 [4]
000000 06 7d 9c 3c 58 a3 cc 3a 7a 08 91 3b 5a 89 cd bc
       0.019102585 0.0015612645 0.0044260593 -0.025089908

W_gain_food_primary f4 [192, 7]
000000 75 d2 b9 3d ec 1f f0 3c 65 46 10 3e 91 02 d7 3d
       0.090733446 0.029312097 0.14089353 0.104985364
000010 25 fa db 3c 7d 39 8c bd cd d9 cb 3b 9c 82 76 bd
       0.026852677 -0.068469025 0.0062210322 -0.060183153
000020 09 c9 ba bd 46 3d 89 bd fd 55 5a 3c f0 73 5a be
       -0.09120376 -0.0670114 0.013326165 -0.21333289
000030 d0 a8 ae 3c f5 cc 07 be 03 c5 5d 3d d1 12 3d bd
       0.02132073 -0.13261779 0.054142963 -0.046160523
000040 2e 28 c9 3c da 30 12 bd fa da f6 bc a1 c2 e0 3d
       0.024555292 -0.03569112 -0.030133713 0.109746225
000050 eb e3 33 3c 32 ef 15 3e 20 5f 3f 3d c8 38 62 bb
       0.010979633 0.14642027 0.046721578 -0.0034518708
000060 a2 70 8c 3d 89 18 c3 bb 90 42 c1 3d 20 0d 0a 3e
       0.068574205 -0.0059538526 0.09436524 0.1348157
000070 9b b6 62 3d c5 34 34 bc 20 80 85 bd 69 25 d0 bd
       0.055349927 -0.010998909 -0.065185785 -0.101633854
000080 49 ab 55 bc 0d 4a 8e 3d 94 22 47 3d f6 26 77 be
       -0.013041326 0.06947718 0.04861696 -0.24135956
000090 b9 dc a5 3d fc 25 88 3c e0 08 02 be 1a 84 3c 3e
       0.0809874 0.016619675 -0.12698698 0.18409768
0000a0 b0 e9 75 3e 14 f7 f3 bd 5b ac 02 be d5 99 9d 3d
       0.24014926 -0.11912361 -0.12761061 0.07695357
0000b0 e5 2e 77 bb 4f ae 5c bd c5 2d 2f 3d d3 c8 7e bc
       -0.003771716 -0.05387717 0.04276826 -0.01555081
0000c0 ac 3a 9c 3d a7 19 8a bd 40 2d 62 3c 1e 5b 0e 3e
       0.07628378 -0.06743174 0.013804734 0.13901946
0000d0 94 ce 01 3e d3 c3 24 3e 34 bd 38 3d a9 6d 58 3d
       0.1267646 0.16090326 0.045102313 0.052838955
0000e0 72 7f 05 bc e3 b6 3f be dc 6f 0e bd 30 ac d2 bd
       -0.008148061 -0.1872211 -0.034774646 -0.102867484
0000f0 26 8d 9f bd 8d a8 e8 3d 41 4b 34 3d e1 cd 82 3c
       -0.07790594 0.113602735 0.04401708 0.015967311
000100 fd 04 ed bd ce 8d eb 3c b6 95 a0 bb 24 37 97 3d
       -0.11573217 0.028754141 -0.0049006594 0.07383564
000110 8f bb 5f 3e eb aa 8f 3d 93 99 de bc 0f a4 02 3d
       0.21848892 0.07015022 -0.02717284 0.03189474
000120 40 bf 39 3e a2 10 7e bd 7e 42 01 3c 3c 75 30 bd
       0.18139362 -0.06202758 0.007889388 -0.043080553
000130 45 31 12 bd cc 61 15 bd 80 a0 0d 3e 23 4c 10 3e
       -0.03569152 -0.03647022 0.13830757 0.14091544
000140 30 b7 85 be e3 e9 d6 3d 42 4f 6a 3c fe cf a9 bc
       -0.26116323 0.10493829 0.014301123 -0.020729061
000150 95 cf 28 3e 63 45 26 3c 7c 5e 6a bd 7b 1e 12 bc
       0.16485436 0.010148379 -0.057219014 -0.0089184
000160 68 7d db 3b ac 3c 3f be 0f 4d 3c 3d d0 13 18 3e
       0.006698299 -0.18675488 0.045971926 0.14851308
000170 3c ed 34 bd 16 b6 e0 bb 8f d4 84 3c 61 4e 79 be
       -0.044171557 -0.006857644 0.016214637 -0.24346305
000180 35 94 d0 3c 18 bd 37 3c f7 f0 cd bc 98 39 bc 3c
       0.025461296 0.011214517 -0.025139315 0.022976682
000190 07 02 5f be 0b 90 bc bd 66 1f c1 bd d0 08 1f 3d
       -0.21778117 -0.092071615 -0.09429817 0.038826764
0001a0 1c 3b 81 3d 1e 67 fc 3d d2 7a ea 3c e7 3e be 3c
       0.06310102 0.123243555 0.028623018 0.023223354
0001b0 07 10 7e bc 07 f5 12 3e 24 e8 d9 3c 12 c0 a0 bd
       -0.015506751 0.14351283 0.026599951 -0.078491345
0001c0 f5 d3 3c 3e 1a 91 f0 3b 31 1c d0 bd ef 08 d5 3d
       0.1844023 0.007341516 -0.10161627 0.104020946
0001d0 75 f7 c9 bd 4a a9 e2 3c ac fe 0a bd 8c 78 7c 3d
       -0.09861652 0.027668614 -0.03393428 0.0616384
0001e0 28 f0 68 3d 73 b3 02 bd 5a 36 e2 3d 50 9b af 3c
       0.056869656 -0.031909417 0.11045523 0.021436363
0001f0 67 9a 9b bc 7b 80 06 be 8e 42 32 be 4e 22 54 be
       -0.018994523 -0.13134949 -0.17408201 -0.20716211
000200 46 d3 81 3d 3c 28 bb 3d 80 c5 17 bd 2d b3 d0 bd
       0.06339125 0.091385335 -0.037053585 -0.10190425
000210 c9 b1 eb 3d c7 c1 0c bd 49 85 8e 3d bb 43 b3 3d
       0.11508519 -0.034364488 0.06959016 0.08753153
000220 74 b9 cf 3d 39 56 1e be 0f 85 80 3d 4f 19 11 3e
       0.10142794 -0.15462579 0.06275379 0.1416981
000230 2f 8a 13 bd 93 d3 d8 3c 39 fe 87 be b5 f0 ff bd
       -0.036020454 0.026468074 -0.26561144 -0.12497083
000240 c0 61 8c 3c 77 0d 0c bc 0e 5d 1e 3e f6 da 65 3e
       0.017136455 -0.008548132 0.15465185 0.22446808
000250 2c 18 e1 bd f9 50 59 bd ff 7d b4 bc 13 d8 cb bd
       -0.109909385 -0.053055737 -0.022032736 -0.09953322
000260 d3 b8 61 3d 9d 19 75 bb ea 03 7f 3e 57 5e ce 3d
       0.055107903 -0.00373993 0.24903837 0.10076588
000270 2d 9e 62 bd aa a8 4f 3c c0 43 8c bc ed 25 ae 3d
       -0.05532663 0.01267449 -0.01712215 0.085033275
000280 92 31 de bd d5 d9 36 bd d1 8b 46 3d f3 af 87 bd
       -0.108492985 -0.044641335 0.048473183 -0.066253565
000290 79 8d b3 bd 8f 8c b0 3d 93 45 e7 3c cb c6 69 bc
       -0.08767218 0.086205594 0.028231418 -0.014268587
0002a0 46 f2 22 bb e4 a1 05 3e 85 28 36 bd d8 3d 7d be
       -0.0024863645 0.13050038 -0.044472236 -0.24730623
0002b0 93 c6 1e bd 2e da d6 3d fc e6 29 bc a7 b7 43 3e
       -0.038763594 0.10490833 -0.010370012 0.19113027
0002c0 d0 78 6a bc de ba 96 bd b5 94 a5 3d 8d f9 45 3d
       -0.0143110305 -0.07359861 0.08085004 0.048333693
0002d0 a4 ec c4 3b f7 b8 11 3e c2 9a 0e be ec 2f 28 bd
       0.006009655 0.14230715 -0.13926223 -0.041061327
0002e0 08 ae 7e 3d 40 d1 fb 3d b2 b0 a1 bd 50 66 9b 3c
       0.062177688 0.12295771 -0.0789503 0.018969685
0002f0 d1 30 0a bc 8d a1 9f 3d 15 70 28 3d 25 6e 22 bd
       -0.00843449 0.07794485 0.041122515 -0.039655823
000300 ce 86 ee 3c 2e 1d b1 bd ae ac 1f 3d 58 1b 18 be
       0.029117014 -0.08648144 0.03898304 -0.14854181
000310 1d a9 d6 bd 70 86 43 be 99 2a d9 3d 46 40 88 3d
       -0.104814745 -0.19094253 0.10603828 0.06652884
000320 b9 cf e6 3d 76 dc 18 3e 9a b5 78 3d e9 db b4 3d
       0.11270089 0.14927849 0.060720064 0.08831007
000330 a7 28 3e bd 44 c2 ee bd 66 62 22 3d 5a fb 1f 3d
       -0.046425488 -0.11658147 0.03964462 0.039058067
000340 e9 22 de 3d 3a 79 7b 3d 0c c0 87 bd e2 4b 3f 3e
       0.10846502 0.061394908 -0.06628427 0.18681291
000350 63 43 af bd 77 71 a2 3d 43 fe 9b 3d dd 62 07 be
       -0.08557775 0.07931798 0.07616856 -0.13221307
000360 c0 44 25 bd 21 29 b5 3c fc 73 10 3d 90 56 63 bc
       -0.04034877 0.022114338 0.03526686 -0.013875619
000370 42 c3 05 be ca 7f b1 bd db 6b d8 3c e0 03 02 bd
       -0.13062766 -0.08666952 0.026418617 -0.031741977
000380 e3 ba 62 3d 56 9b 1c 3e 8f 4a 66 be 1b a4 11 bd
       0.05535401 0.15293631 -0.2248938 -0.035556894
000390 65 de d7 3c c8 99 37 3d a3 78 0c 3e 2a 2d e7 3d
       0.026351163 0.04482439 0.13717894 0.11287911
0003a0 31 27 52 3c cf 7d 82 bd 6b 2b bc 3c 95 79 48 3d
       0.012826727 -0.06371652 0.022969922 0.048944075
0003b0 73 56 1a bb 4f 1c 8f bd 41 ac 92 bd 7e b3 fd bd
       -0.0023550063 -0.06987821 -0.07161761 -0.12387751
0003c0 11 0c a5 3d fa 6a 01 bd 07 3b 03 bc 59 63 bc bb
       0.08058942 -0.03159616 -0.008009679 -0.005749148
0003d0 ac e0 08 3e 9f 37 79 bd 48 28 c3 3d 5d c4 8a 3c
       0.13366956 -0.06084406 0.095291674 0.016939336
0003e0 ba a6 ea 3d 20 b9 c0 3d 52 04 13 3e 7f 75 99 bd
       0.11457582 0.0941031 0.14357117 -0.07493114
0003f0 8d 05 9b bd 7c 62 2d bd 6e 1f 46 bc a3 45 e1 3d
       -0.07569418 -0.04233025 -0.012092454 0.1099961

b_gain_food_primary f4 [7]
000000 ac fe a7 3a 79 1e 84 3b 5a f0 f5 bb ab bc 84 3b
       0.0012816987 0.004031953 -0.007505459 0.0040508113
000010 dd 85 af ba f6 14 0f 3c 77 99 17 bc
       -0.0013391335 0.008733025 -0.009252897

W_draw_mode f4 [192, 4]
000000 2f 8d ca 3d db 62 ce bd 63 6a db bd 38 3f 0b 3e
       0.0989021 -0.10077449 -0.10713651 0.13598335
000010 57 c0 ad 3c eb 77 29 bd b0 c6 3e 3d 62 02 4b bd
       0.021209879 -0.04137413 0.046576202 -0.04956282
000020 ef 21 60 bd e9 52 f3 bd 03 41 84 3c c0 1c 68 bd
       -0.05471986 -0.11881048 0.016144281 -0.056668043
000030 40 22 2e be de b5 c0 3d ed d0 a1 3d f8 36 25 be
       -0.17005253 0.094096884 0.079011776 -0.1613425
000040 0d 10 d0 bd 18 da 5f 3e f8 d9 7f 3e 0f 4e 04 bd
       -0.101593114 0.2186054 0.24985492 -0.032301005
000050 6d 53 8a 3d c2 e8 8c 3b 91 3c e4 bd 8a 3c 8e bd
       0.067541935 0.004300208 -0.111443646 -0.06945141
000060 f3 d0 60 3a 5a 8a e1 bd f7 f2 ac 3d 9a 32 26 be
       0.0008576058 -0.110127166 0.08444779 -0.1623024
000070 e1 b1 4b bc bf 4c 4d bd 98 1e df bc 8e c0 9f 3d
       -0.012432546 -0.05012202 -0.027236268 0.07800399
000080 44 19 7d bc 14 7a e5 3d 87 aa 29 3d 1d 99 a8 bb
       -0.015447918 0.11204925 0.041422393 -0.0051452057
000090 96 d5 4d 3d a0 5e 1f 3e d5 26 07 be ba c1 ee bc
       0.05025252 0.1556344 -0.13198407 -0.02914511
0000a0 b6 55 9e bd ff a3 2c 3d 5b c2 32 bc 17 ce 99 bc
       -0.07731192 0.042148586 -0.010910596 -0.01877503
0000b0 d1 0e 7a bd 78 80 c8 3d 9b e6 61 3e ca 22 b3 3d
       -0.061049286 0.097901285 0.22060625 0.0874687
0000c0 a2 d6 07 3c 84 b1 00 bc 16 ef 43 3e e7 19 4b be
       0.008290919 -0.007854823 0.19134173 -0.198341
0000d0 36 b7 87 bb ba 74 fc 3d 89 39 3f 3c 76 7e 3f 3d
       -0.0041417135 0.12326951 0.011671432 0.046751462
0000e0 20 9a 90 bc 2a af ba bd 2a ca 53 3e b5 c6 8a 3d
       -0.017651618 -0.09115441 0.20682588 0.067761816
0000f0 b4 64 e3 bc cc e8 81 3e 89 90 f9 bd a9 e1 0b bc
       -0.02775798 0.25372922 -0.12185771 -0.008537688
000100 84 8a f7 bd d8 6e 84 3d 23 a2 9d 3d 6a 55 c5 bd
       -0.12086967 0.06466454 0.07696941 -0.09635432
000110 21 4e 19 bd 60 13 79 3b 8b 6e 90 3d 42 92 1a 3d
       -0.037428025 0.0038005933 0.070523344 0.03773714
000120 90 54 2a bc 2d ce 29 3e 29 97 1d bd 18 08 aa bc
       -0.010396138 0.16582556 -0.038474236 -0.020755813
000130 93 33 fe bb 7f 21 9b 3d 02 77 1b 3e b1 0f c9 bc
       -0.007757613 0.07574748 0.15182117 -0.024543615
000140 41 d3 06 be 3f db 59 3e 99 05 0f be 00 a6 37 be
       -0.13166524 0.21275042 -0.13966979 -0.17934418
000150 a2 3f 11 3e 0a f6 0e bc a8 9a 9d bd bc 1a 80 3d
       0.1418443 -0.0087256525 -0.07695514 0.06255099
000160 cc 4c 93 bd b1 8a ba bd d9 5c ea 3c de 07 57 3d
       -0.07192382 -0.091084845 0.028608726 0.052497737
000170 e9 78 18 be 8d af b7 bd a6 79 90 bd bb 39 0f be
       -0.14889874 -0.089690305 -0.070544526 -0.13986866
000180 43 66 b4 bc 3a 77 31 bd ef 51 a8 3c 0e 8f 1d 3a
       -0.022021418 -0.043326594 0.020546881 0.00060103915
000190 04 3a c0 bd bd 90 b9 bc 66 89 cd bb ae 1d a9 bd
       -0.093860656 -0.022652024 -0.0062724827 -0.08257614
0001a0 0a aa 85 3d 31 0d f8 3a 0e 3c 2d bd d3 3d 93 3d
       0.06526573 0.001892483 -0.0422936 0.071895264
0001b0 dc fb 4c bd eb ce ee bc ea b1 86 3c 65 e7 3b bd
       -0.05004488 -0.0291514 0.016442258 -0.045874972
0001c0 aa 7d 63 bd 7e dd ba bb 88 57 e0 bc 2b c3 35 bd
       -0.055539764 -0.0057026735 -0.027385488 -0.04437558
0001d0 69 f4 ee 3d ea 69 83 bd 80 ef 9c 3b fa e7 23 be
       0.11667711 -0.06416686 0.004789293 -0.16006461
0001e0 44 43 bd bd fd 05 51 3c 58 c1 d5 bb 05 2b 1c 3e
       -0.092413455 0.012757775 -0.0065232925 0.15250786
0001f0 0d 8e e9 3c 99 a3 22 3d 05 b8 47 3d 09 36 4a bd
       0.028510118 0.0397068 0.04875948 -0.04936794
000200 f5 2f bd 3d 1d 0a b8 3d 34 0f d8 bc 66 11 23 3d
       0.09237663 0.08986304 -0.026374437 0.039811514
000210 34 2f 40 3e f8 68 df bd a2 0f 1a be ce 2f d0 3d
       0.18768007 -0.10908693 -0.15045026 0.10165368
000220 42 06 14 be e4 3f 74 bd b4 12 3c 3e e2 b5 60 bd
       -0.14455512 -0.059631243 0.1836651 -0.054860957
000230 4d d3 f6 bb ba 65 96 3c 21 91 1d be 43 f7 9c 3d
       -0.0075325132 0.018359054 -0.15387394 0.07664349
000240 86 6e 39 be 64 0e 58 bd f1 64 5f 3d af fe e2 bd
       -0.18108568 -0.0527481 0.054539625 -0.11083733
000250 d2 16 02 3c 2c 92 b7 bd dd 84 d2 bd 80 25 22 be
       0.007940011 -0.08963427 -0.10279248 -0.15834618
000260 ea 63 a7 bd 05 76 00 be d2 bb c4 3c 3b db b5 3d
       -0.08173354 -0.12545021 0.024015341 0.088797055
000270 b6 83 0e be d5 46 bd bd 35 ea 03 3d 3b 60 7f 3d
       -0.13917431 -0.09242026 0.03220578 0.062347632
000280 40 e8 fe bd 8e a5 b5 bb cb 85 ad 3d f2 57 6d 3c
       -0.12446642 -0.0055434173 0.084727846 0.0144863
000290 df 18 a0 3c ce 8f 86 bd bd ee 75 3d 49 cb c0 bd
       0.01954311 -0.06570397 0.06004213 -0.094137736
0002a0 b1 a3 cb bc d4 9b 44 3e 69 df 0f be 45 93 9f 3d
       -0.024858328 0.19200069 -0.14050068 0.07791761
0002b0 a0 db 0b 3d 9f 07 aa 3d 19 01 3c 3d 56 09 cb 3d
       0.034144998 0.08302235 0.045899484 0.0991389
0002c0 6a ee 08 3d d1 96 25 bd 63 c6 85 3c bd 50 8e 3d
       0.033430494 -0.040427033 0.01632995 0.06948993
0002d0 10 43 95 bc 63 6b bd 3d fc bf 83 bd 76 af d0 bd
       -0.018220454 0.09248998 -0.064331025 -0.101897165
0002e0 69 7d 9a 3c 30 89 09 bc bd ff cd bd fb fd 84 bd
       0.018858628 -0.008394524 -0.10058544 -0.064937554
0002f0 8f 33 16 3e 35 26 49 bc 8a ac aa bd 5c ad 13 3e
       0.14668106 -0.012277176 -0.083336905 0.144216
000300 2e af b4 bd a5 9e a6 bd ea 39 3b be 59 2e 7e bc
       -0.088224754 -0.08135728 -0.18283811 -0.01551398
000310 2d a9 32 3e 39 f3 11 3d a3 a7 1f bd f7 61 76 3e
       0.17447348 0.035632346 -0.03897823 0.24060808
000320 1a 24 b3 3d b2 c4 f8 3d 8e a6 65 bd 06 55 e2 bd
       0.0874712 0.12146892 -0.056067042 -0.11051373
000330 fe e8 36 bd 00 f4 2b 3e 4d 0c 33 3d a4 1a 47 be
       -0.044655792 0.16792297 0.043712903 -0.19443756
000340 c9 46 a5 3d ed df c0 bc 6f 26 4c be 30 1c a6 3d
       0.08070142 -0.023544276 -0.19936536 0.08110845
000350 37 d4 03 bd 32 35 9d bd 65 15 0f be 27 d3 de 3d
       -0.032184806 -0.07676162 -0.13973005 0.10880118
000360 21 7c 66 3d d6 d0 91 3e da d7 7d bd 4a f6 ac 3c
       0.056270722 0.28479642 -0.06197343 0.021113534
000370 ca 95 6f 3c 15 51 33 3d 7a 4c 95 3d 62 38 42 bc
       0.014623115 0.043778498 0.07289977 -0.011854263
000380 6b 56 8f 3d 21 15 0b 3e 04 17 12 3d bf cd 8e bd
       0.06998905 0.13582279 0.03566648 -0.06972837
000390 50 25 a1 3d f8 0a b8 3d ab b2 ef 3d c3 ff 0b 3e
       0.07868445 0.08986467 0.11704 0.13671784
0003a0 07 d5 97 3c cd a2 06 bd 51 89 11 3b 33 25 83 3d
       0.018534197 -0.032870103 0.002220709 0.064035796
0003b0 96 ec 2e bd c4 43 08 be 05 fe 80 3e 40 c0 d8 3d
       -0.042706095 -0.133071 0.25193802 0.10583544
0003c0 30 45 ba bd c0 2b 29 be 79 42 c3 3d 24 11 db bd
       -0.09095228 -0.16520596 0.09534163 -0.10696629
0003d0 31 9f 6c bb 89 05 72 3d 8c 15 cc bd 64 10 0c bd
       -0.0036105628 0.05908731 -0.09965047 -0.03419532
0003e0 dc 0f d7 3d 8e 9d 71 3a 77 d4 1b bd f4 19 6d 3d
       0.10501072 0.0009216898 -0.03804442 0.05788608
0003f0 35 94 45 3d 17 de be bc 42 9f 1c bd e1 27 39 3e
       0.048237044 -0.02329926 -0.038237818 0.18081619

b_draw_mode f4 [4]
000000 4d 09 62 bc e5 a9 bb 3c 34 df 30 bc 76 a5 dc 3a
       -0.013796163 0.02290816 -0.010795403 0.0016833979

W_lay_eggs_bin f4 [192, 11]
000000 f4 09 62 3d 82 cb 11 be 07 42 59 bb 64 07 74 3d
       0.055185273 -0.14237788 -0.0033150928 0.05957736
000010 3e 6e e5 ba f7 08 d2 3c 16 d4 37 be 5e b2 14 3d
       -0.0017504168 0.02563904 -0.17951998 0.036302917
000020 db f3 39 3d dc 69 f7 bc 67 e5 e3 3c 22 59 16 3d
       0.045398574 -0.030201845 0.027819348 0.036706097
000030 b2 12 50 be 82 b7 d1 3d 15 e3 55 3c 45 8c 5c be
       -0.20319632 0.102400795 0.013054629 -0.21537884
000040 d9 f9 64 be bd 9b 9e bd 51 99 de 3d d3 5c b0 3d
       -0.22360934 -0.077445485 0.108690865 0.08611455
000050 bc 03 93 3d 42 ad 73 bd f9 df ea 3a db ef 64 3d
       0.07178447 -0.059491403 0.0017919532 0.055892807
000060 3a a1 bb 3d 55 51 0a be 44 91 a9 bd db f5 bc bd
       0.09161611 -0.13507588 -0.0827966 -0.09226581
000070 bb 89 d5 3d 4e 61 a1 bc 3e be c7 3c b8 32 6d 3d
       0.104266606 -0.019699719 0.024382707 0.057909697
000080 83 35 3d bd 2f 2b d5 bd d6 d2 e8 3d fb 7a 5f bd
       -0.04619361 -0.10408627 0.11368339 -0.054560643
000090 15 61 5c be ad 49 9c 3c aa ce f9 3b 95 69 44 be
       -0.21521409 0.0190781 0.007623513 -0.19180901
0000a0 b9 f4 94 bd f4 50 a8 bd 37 f2 44 bc 57 4a b4 bc
       -0.0727324 -0.082185656 -0.012020639 -0.022008104
0000b0 cf 78 9f 3c 0a 53 e7 bd ff d8 ec 3c f1 87 e9 3c
       0.019466786 -0.11295135 0.028912066 0.028507205
0000c0 38 d1 33 be af a7 56 3e 7b 76 44 bd 78 9d 8a 3e
       -0.1756028 0.20962404 -0.047964554 0.27073264
0000d0 3b f0 26 3e aa c1 61 3b 62 89 5d 3e 24 93 13 3e
       0.16302578 0.0034447708 0.21634439 0.14411598
0000e0 23 df 70 3e e4 aa 99 3d 10 e9 d7 3c b6 31 2b bd
       0.2352262 0.07503298 0.02635625 -0.041795455
0000f0 b3 69 ec 3d fc 5e 0b be 6f 0f 73 bd ab 70 5c 3d
       0.11543598 -0.13610452 -0.05934089 0.053818386
000100 62 e4 1b be d2 d0 f3 bc 12 34 bb 3d f3 29 c9 3c
       -0.1522384 -0.02976266 0.09140791 0.024556136
000110 ab f0 c4 3d 8d dc b1 bd ed a7 4c be 85 f2 07 3d
       0.09616216 -0.08684645 -0.19985934 0.03319027
000120 cb 58 70 bc bd 0a 94 bd 86 b5 6b be 9a 0d ab 3c
       -0.014669607 -0.07228611 -0.23018464 0.02088051
000130 e5 35 25 3e 31 aa f0 bd e4 0c 77 be 67 0e 71 bd
       0.1613384 -0.117512114 -0.24126011 -0.058851626
000140 6c 17 16 3e fd ee 50 bc 4d 2e b3 bd 7b 27 1a 3d
       0.14657372 -0.012752292 -0.087490655 0.037635308
000150 47 99 47 3c be e8 8d 3d 06 9c 7e bc 75 ba 56 3c
       0.01218254 0.06929158 -0.015540129 0.013105978
000160 a0 a5 bc 3d 64 cb 34 bd cc 55 07 be a6 cd 72 3d
       0.09211278 -0.04413928 -0.13216323 0.059278153
000170 ac 97 f0 3d ad ea 52 bd 34 5c d3 bb aa 1e 38 3e
       0.11747679 -0.051493336 -0.0064502005 0.17980447
000180 91 90 7c 3c 9b d5 32 be a0 5a 2f 3d 0b 46 10 3d
       0.015415327 -0.17464297 0.042811036 0.03522305
000190 e0 1f ec bd 27 de 0d be 10 7a da 3c 99 07 c8 bd
       -0.11529517 -0.13854276 0.026669532 -0.09767074
0001a0 b7 48 85 3e 58 82 03 3c d7 e5 f0 3d 40 3b 80 bd
       0.2603204 0.008026682 0.117625885 -0.06261301
0001b0 5b f2 ab 3d 78 a3 cf 3d 2e 41 e8 bd 3f 5b e5 bc
       0.08395835 0.10138601 -0.11340557 -0.027997611
0001c0 7e c0 86 bd 1a 9f 9c 3c cd 67 0b 3e 49 0a 87 3d
       -0.06579684 0.019118834 0.13613816 0.065937586
0001d0 5b 17 a5 3c b8 82 d5 3d b4 99 ba bd ed ef 59 be
       0.020152738 0.10425323 -0.09111348 -0.2128293
0001e0 85 52 0b be 44 d4 46 3c cd 80 01 bc d1 fb 94 bd
       -0.13605697 0.012135569 -0.007904244 -0.07274593
0001f0 e0 4e 01 3d 48 16 a2 bd 60 02 b6 3d e0 37 88 be
       0.03156936 -0.07914406 0.08887172 -0.2660513
000200 44 c4 0e bd f9 02 83 bb b7 14 9a bd fb 4c 06 3e
       -0.034855142 -0.003998157 -0.07523482 0.13115303
000210 ec 26 19 be 5b 93 28 3e 08 ec 44 bd 81 f0 b0 3d
       -0.14956254 0.16462462 -0.04807666 0.086396225
000220 0b d6 9c 3d 7f 08 95 3d 5c fe 6b 3c 4d 9d 9c 3d
       0.07658013 0.07277011 0.014403906 0.0764719
000230 80 69 b0 3c da b5 da 3d 59 3c 53 3e 87 5b 51 3c
       0.021534681 0.10679217 0.2062849 0.0127781695
000240 32 02 89 be ef e1 4a be 26 cd a1 bd d4 ba 92 3d
       -0.26759487 -0.1981275 -0.07900457 0.07164541
000250 e9 1d 05 3e 31 b2 65 bc 5c ed 13 be d9 38 a8 3c
       0.12999691 -0.014019535 -0.14446014 0.02053492
000260 86 6e 8b bc aa 44 a2 bb 4e 39 c5 3d a9 7e ef 3d
       -0.017020475 -0.004952033 0.096300706 0.116940804
000270 0a b2 42 3d 95 c2 9c 3b fe 2a d0 bd 73 2b 0e 3d
       0.047533073 0.004783938 -0.1016445 0.034709405
000280 8a 35 17 be 12 fc f0 3d d3 16 a5 bd dc 70 8e bc
       -0.14766517 0.117668286 -0.08060994 -0.0173878
000290 0e 79 12 3e b0 af a3 bd 9d 41 59 bd 17 69 95 bd
       0.14303991 -0.07992494 -0.05304109 -0.07295435
0002a0 73 9c b5 3d 9e 1b ff bd 5a 2e cf b9 6e 24 10 be
       0.08867731 -0.124564394 -0.0003951665 -0.14076397
0002b0 06 39 28 be d3 37 38 bd 37 dd b5 bd 34 4c 20 3d
       -0.16428003 -0.044975113 -0.08880084 0.039135173
0002c0 b9 5f 45 be d8 bf 1f 3c 1f 92 aa bb 0f 62 3b 3d
       -0.19274797 0.009750329 -0.0052054073 0.045747813
0002d0 bf 9d e4 3d a8 87 a9 3c 2a b0 f5 3d 76 19 db 3d
       0.111629 0.020694569 0.11996491 0.10698216
0002e0 e1 29 47 be e2 77 07 3e bf 9b e6 3d 2b ee 24 3e
       -0.1944957 0.13229325 0.11260175 0.16106479
0002f0 1e 51 fd 3c c8 42 30 3e de 05 17 3e f6 a2 57 3d
       0.030922469 0.17212975 0.14748332 0.052645646
000300 80 85 24 3e 85 ad 69 bd 83 78 c4 bd 5b a9 06 be
       0.16066551 -0.057050247 -0.09593298 -0.13150541
000310 d9 63 8b be 30 31 d5 bd 79 12 9f 3c fd 9d 2e bb
       -0.27224615 -0.104097724 0.019417988 -0.0026644461
000320 fd 9f 6b 3d cb 64 15 bd 79 fc ee bd e0 f1 c4 bc
       0.057525624 -0.036473077 -0.11669249 -0.024041116
000330 7e e3 4a 3d 85 ee 1a be e0 81 fe 3d b0 36 8c bd
       0.04953336 -0.1513005 0.124271154 -0.06846368
000340 e7 fb cf bc df 99 0f 3d 2f 25 0f be 0a 55 95 3d
       -0.025388671 0.035058852 -0.13979028 0.072916105
000350 a2 a0 5e bd 17 62 76 bc 01 a3 a8 3d f6 82 cc 3d
       -0.05435241 -0.015038035 0.082342155 0.09985916
000360 9e 88 bd 3d cf 49 a7 bd 1e 55 c9 bd 01 e2 92 3d
       0.09254573 -0.08168375 -0.09830688 0.07172013
000370 45 d9 75 3d 7a 44 29 3c 03 fb 4b 3d b2 79 88 3d
       0.060021657 0.0103312675 0.04979993 0.066638365
000380 19 7d e3 3d 2f 73 15 bd c4 79 e1 3b 33 98 b4 bb
       0.11107845 -0.0364868 0.0068809707 -0.0055113076
000390 14 ea cf 3c 24 fc 39 3e 29 62 4f bd 4c 40 13 3e
       0.025380172 0.1816259 -0.050630722 0.14379996
0003a0 7f 21 ca bd 19 7f 7b 3d 73 18 08 3c 4b 10 bc bd
       -0.0986967 0.061400507 0.00830661 -0.09182795
0003b0 71 0e 62 bd 45 f3 e8 3d e5 96 22 3d 6a 1d c3 bd
       -0.055189554 0.11374525 0.039694685 -0.09527095
0003c0 db 43 2d bc 0a 92 86 3d 00 2b 9d 3b 96 93 53 bd
       -0.01057526 0.065708235 0.0047963858 -0.05165442
0003d0 e9 4b ea bd 2f 9c 51 3d 98 90 c8 bb d6 33 6d be
       -0.1144026 0.05117434 -0.0061207525 -0.23164305
0003e0 ca bf 04 bd 33 4b d6 bd 7f 0d 3d 3d a4 98 0a bd
       -0.032409467 -0.10463562 0.04615545 -0.033836976
0003f0 be f0 19 3d 2c ca b8 bd 19 66 2d be 80 e8 4d 3e
       0.037583105 -0.09022936 -0.16933478 0.20108223

b_lay_eggs_bin f4 [11]
000000 97 f7 84 bb e6 ac 97 3b 04 66 0b 3d 1d 60 73 3b
       -0.0040578353 0.0046287654 0.034032837 0.0037136145
000010 c7 9d 2e 3b 1d d7 3e bb cd 02 93 bc 2b 71 14 bc
       0.0026644336 -0.0029119917 -0.017945671 -0.0090601845
000020 a8 3c a2 bb de 2c 23 bb 04 70 6d bb
       -0.0049510784 -0.002489857 -0.0036230097
