reports/ml/sweeps/seed_53/iter_001/factorized_model.npz (npz, 72213 bytes, 17 tensors)

W1 f4 [48, 192]
0.014168317 0.3033375 0.03577633 0.06938213 -0.18115734 0.1097253 -0.30780974 0.12745167
-0.15073793 0.10023716 0.16156952 0.38486916 -0.2752387 0.18030006 -0.015587057 -0.03316301
0.27986208 0.105753526 -0.3609261 0.12080032 -0.23852709 -0.012348351 -0.22245064 -0.1927545
0.5903823 0.34713423 0.015409171 0.04400138 -0.06620735 0.032376774 0.22795248 -0.16197993
0.27564126 -0.2010763 0.34845212 -0.020660449 -0.09199697 -0.11143631 0.048307694 -0.2740084
-0.04701491 -0.18489638 0.25228843 0.39511594 -0.087367125 0.3872167 0.17627469 0.12020462
0.07631333 -0.04581493 0.21144988 0.15209664 0.048906863 0.27779916 -0.0694802 0.22308479
0.21976385 0.15405345 -0.08954709 0.13857485 -0.27909803 0.2670716 -0.21716492 0.06710318
-0.08910752 0.38721377 -0.004490663 -0.046673156 0.16190132 0.4247295 0.25564605 0.25893927
0.41676396 0.4287781 0.7346844 -0.17160466 0.019542541 0.18635385 0.5847723 0.17310697
0.5943446 -0.3323203 -0.26519653 -0.057293054 0.11298337 -0.18964921 -0.15942048 0.34684408
-0.22206697 -0.06476447 0.25913912 0.57345426 -0.26812664 -0.26497716 -0.28085348 0.05614619
-0.029769273 0.19338503 0.18960507 -0.2227437 0.33291978 0.09467363 -0.011915725 0.102908865
0.07213096 -0.002144414 0.28076792 0.014784677 -0.4295948 0.10072691 0.43241647 0.3412061
0.21212853 0.5274434 0.16945975 -0.33084083 0.13494228 0.12973852 0.089149855 -0.24548136
0.23369643 -0.02011183 0.029851826 -0.09869468 0.053345308 -0.2268757 0.1975006 0.09924549
0.20864382 -0.21192007 0.23947619 0.131205 0.120925784 0.42654243 0.40018666 -0.22477317
-0.08588258 -0.16246478 -0.14127918 0.37760183 0.085770644 -0.23812076 0.21629724 0.16817299
-0.08436267 -0.11633199 -0.13947962 -0.16969307 -0.35658747 0.3836215 -0.082813166 0.4356108
0.15562816 -0.03213848 -0.18795584 -0.007961198 -0.2770953 0.13048251 0.089576855 -0.09501816
-0.47689578 0.26157707 -0.016256347 -0.060331374 0.27958277 0.26953417 0.16618894 -0.044178575
0.052080642 -0.21014898 0.37948817 -0.43488356 0.04883489 0.10536013 0.548852 0.088865176
-0.07365516 -0.055742636 -0.48823395 0.34764868 0.38520315 0.09333872 0.00349712 0.3088323
-0.16195798 -0.25051686 0.0175927 -0.0070763594 0.065343104 0.29060274 -0.18687454 0.39479104
0.004494897 0.02369472 0.12742946 0.14456183 0.2996367 0.036140498 -0.16311342 0.55351126
-0.39998713 0.011111486 -0.018392093 0.17295846 -0.15319988 0.14709492 -0.10905746 -0.28141502
0.2819185 -0.18845533 0.033513848 -0.15775721 -0.34468755 0.023093032 -0.28230223 0.10336093
0.14507128 -0.15947111 -0.3286819 -0.45100844 -0.235984 0.12071021 0.05482658 0.05614848
0.24432482 -0.19886538 -0.16814649 0.005035157 0.21223034 0.0500309 0.21678214 -0.40269858
-0.29736346 0.13476272 -0.08190214 0.18268956 0.50754625 -0.06165618 -0.12562394 0.08204392
-0.15034343 -0.079710424 0.14557076 0.17878985 -0.27976963 -0.02784768 -0.26791593 0.08263897
-0.05574828 -0.5098788 0.05823348 0.16445358 0.1538632 -0.103561945 -0.10101232 0.25860125
00000000: 3b22 683c 0e4f 9b3e 338a 123d 3818 8e3d
00000010: 4f81 39be a8b7 e03d 3d99 9dbe b182 023e
00000020: 0b5b 1abe 2449 cd3d 7b72 253e 920d c53e
00000030: 16ec 8cbe 94a0 383e db60 7fbc f0d5 07bd
00000040: 154a 8f3e 4e95 d83d 4ecb b8be 2866 f73d
00000050: 7240 74be bd50 4abc 1aca 63be 7061 45be
00000060: 4b23 173f 94bb b13e bf76 7c3c cb3a 343d
00000070: b897 87bd 829d 043d 606c 693e 11de 25be
00000080: da20 8d3e f2e6 4dbe 5168 b23e 1a40 a9bc
00000090: e868 bcbd b838 e4bd 4ade 453d d44a 8cbe
000000a0: b592 40bd 7a55 3dbe f32b 813e a34c ca3e
000000b0: 89ed b2bd 4441 c63e 5a81 343e d72d f63d
000000c0: 2a4a 9c3d 70a8 3bbd 5186 583e 39bf 1b3e
000000d0: 9052 483d b13b 8e3e a34b 8ebd 5770 643e
000000e0: c609 613e 30c0 1d3e 7764 b7bd 91e6 0d3e
000000f0: f0e5 8ebe 9cbd 883e 7b60 5ebe 646d 893d
00000100: 017e b6bd e240 c63e 6926 93bb 5a2c 3fbd
00000110: 76c9 253e 2576 d93e 0ae4 823e b093 843e
00000120: 1662 d53e ce88 db3e 4714 3c3f 22b9 2fbe
00000130: ae17 a03c 8bd3 3e3e a3b3 153f f442 313e
00000140: f826 183f e325 aabe d7c7 87be 1fac 6abd
00000150: d363 e73d 6733 42be 1f3f 23be 8c95 b13e
00000160: 8665 63be 3ca3 84bd e2ad 843e e6cd 123f
00000170: e547 89be 16ab 87be 07cc 8fbe 8cf9 653d
00000180: b1de f3bc ba06 463e d527 423e ed16 64be
00000190: 7674 aa3e 40e4 c13d 2c3a 43bc e2c1 d23d
000001a0: 66b9 933d 4c89 0cbb d0c0 8f3e 6e3b 723c
000001b0: daf3 dbbe e949 ce3d b165 dd3e 91b2 ae3e
000001c0: 3938 593e 8806 073f db86 2d3e f863 a9be
000001d0: 4f2e 0a3e 2dda 043e 3394 b63d 775f 7bbe
000001e0: 1e4e 6f3e 91c1 a4bc d18b f43c 7020 cabd
000001f0: 9c80 5a3d 1a52 68be 993d 4a3e 3841 cb3d
00000200: baa6 553e 9301 59be 3f39 753e 9b5a 063e
00000210: f0a7 f73d c563 da3e 44e5 cc3e f02a 66be
00000220: 35e3 afbd 2b5d 26be 7dab 10be 0755 c13e
00000230: 85a8 af3d eed5 73be 067d 5d3e 8a35 2c3e
00000240: 56c6 acbd 773f eebd bfd3 0ebe 05c4 2dbe
00000250: a292 b6be 0a6a c43e f399 a9bd 6108 df3e
00000260: fd5c 1f3e a4a3 03bd 7f77 40be af6f 02bc
00000270: 6fdf 8dbe 359d 053e 1274 b73d e298 c2bd
00000280: af2b f4be 6eed 853e 082c 85bc 081e 77bd
00000290: 7925 8f3e 6200 8a3e 6f2d 2a3e 98f4 34bd
000002a0: 8352 553d 4b31 57be 464c c23e 0fa9 debe
000002b0: 1807 483d 0dc7 d73d 9181 0c3f f2fe b53d
000002c0: 84d8 96bd 6452 64bd cdf9 f9be 02ff b13e
000002d0: 5939 c53e 5f28 bf3d f02f 653b 441f 9e3e
000002e0: 50d8 25be bf43 80be 911e 903c cee0 e7bb
000002f0: 9bd2 853d e2c9 943e 0a5c 3fbe 0d22 ca3e
00000300: ee49 933b 6e1b c23c de7c 023e 0408 143e
00000310: fb69 993e 0f08 143d 3407 27be eab2 0d3f
00000320: 1dcb ccbe f30c 363c 04ab 96bc 061c 313e
00000330: 6ee0 1cbe 0da0 163e 8559 dfbd a115 90be
00000340: 9f57 903e 6ffa 40be d145 093d 1b8b 21be
00000350: e37a b0be 992d bd3c eb89 90be e5ae d33d
00000360: 918d 143e 654c 23be fe48 a8be 94ea e6be
00000370: caa5 71be ea36 f73d d691 603d f3fb 653d
00000380: 4930 7a3e 5ea3 4bbe 982e 2cbe f5fd a43b
00000390: e952 593e 33ed 4c3d 23fc 5d3e 822e cebe
000003a0: 0640 98be 3dff 093e 4fbc a7bd f912 3b3e
000003b0: 8dee 013f 318b 7cbd 90a3 00be a506 a83d
000003c0: a1f3 19be 383f a3bd 8010 153e b014 373e
000003d0: f73d 8fbe d120 e4bc 472c 89be 9f3e a93d
000003e0: 4f58 64bd 6b87 02bf 3b86 6e3d 8566 283e
000003f0: 518e 1d3e 4918 d4bd 8cdf cebd 6267 843e

b1 f4 [192]
-0.05438638 0.18500412 0.3152448 0.051980678 -0.010936516 -0.034882233 -0.008055643 0.0071443263
-0.00017245063 0.00097321346 0.15247178 0.45597395 0.0 0.067078926 -0.00013488052 0.00018243253
0.12871793 0.047991745 2.1978272e-05 0.15179403 0.0 0.22882482 -0.0010574807 0.008640139
0.55872315 0.28401497 -0.0009967675 -0.028376939 -0.017803732 -0.02771863 0.2103102 -0.006102278
0.047116756 -0.0010585443 0.30502054 -0.000442242 0.074935466 0.045293555 -0.081434645 -0.0013298662
0.0 0.0007632791 0.19524522 0.17843945 0.008356771 0.061228175 0.00082606304 0.09791981
0.007548652 -0.020773683 -0.0050154785 0.032336436 -0.06527263 0.37050012 0.00091107824 -0.010643466
0.28369364 -0.00029584081 0.0008839102 -0.005920357 0.0 0.04587766 -0.001271669 -0.042201772
0.0 0.38017946 -0.0056064483 -0.016172487 0.11967876 0.48319474 0.094216086 0.24676606
0.38306567 0.21378405 0.35515645 0.01144092 0.11585995 0.14209718 0.38033575 0.2878183
0.51301646 0.02764627 0.0015341627 -0.010853449 -0.019481538 0.10488717 -0.019754218 0.21941726
0.05730845 0.00295505 0.15942886 0.14653708 0.00018449346 -7.289223e-05 -0.021597782 -0.050760485
0.29680273 0.019606678 0.10178457 -0.03610201 0.06646217 0.015055481 -0.0069844783 -2.284777e-05
0.022193652 0.22374827 0.43251586 0.13473725 0.000117408716 -0.0022653104 0.3491122 0.43901178
0.19779408 0.055794183 0.19696581 0.0798741 0.010299956 0.00043254526 -0.0144428285 -0.0067232857
-0.017505432 0.027290206 -0.006796423 0.18286903 -0.012813651 0.0033753302 0.10184187 0.021059874
0.15029211 0.0010029526 0.13848771 0.22449626 -0.016861318 0.0723758 0.16458237 0.0
-0.027340965 0.08519789 -0.0029578093 0.2282724 0.09507764 0.07479141 0.15255564 0.33116174
-0.008135664 0.13250324 0.11237932 0.17426203 4.290885e-05 0.42886755 0.00024871816 0.30155814
0.025168022 -0.0031040173 0.007720056 -0.018434903 0.003165724 0.012091367 0.04778575 0.002566746
0.0140720215 -0.0040398487 0.11422896 -0.07350234 0.21209535 0.12644684 0.19899023 0.0
0.22072402 -0.009198387 0.24913283 -0.058431853 0.37188724 0.17670806 0.40768597 -0.04365459
-0.024699682 0.0012794229 0.00032177416 0.35189435 0.33524063 0.1954872 -0.040800147 0.30310842
0.00018720108 0.00076611375 0.01343543 0.13197066 0.06091495 0.04755879 0.083134115 0.2721293
00000000: 41c4 5ebd b871 3d3e c467 a13e b1e9 543d
00000010: 132f 33bc ace0 0ebd d1fb 03bc f41a ea3b
00000020: ddd3 34b9 401f 7f3a 9021 1c3e 6b75 e93e
00000030: 0000 0000 ad60 893d b76e 0db9 5c4b 3f39
00000040: a2ce 033e fe92 443d fb5d b837 e56f 1b3e
00000050: 0000 0000 0e51 6a3e 2a9b 8aba 5f8f 0d3c
00000060: 7b08 0f3f 696a 913e f8a5 82ba c176 e8bc
00000070: 22d9 91bc 2e12 e3bc 8f5b 573e 9ef5 c7bb
00000080: 80fd 403d dabe 8aba a72b 9c3e b7dc e7b9
00000090: c477 993d bc85 393d 35c7 a6bd e84e aeba
000000a0: 0000 0000 cb16 483a 5dee 473e d5b8 363e
000000b0: d7ea 083c 65ca 7a3d 278c 583a 2e8a c83d
000000c0: af5a f73b 922d aabc e258 a4bb 3673 043d
000000d0: a8ad 85bd 31b2 bd3e 6dd5 6e3a ef61 2ebc
000000e0: 4b40 913e 151b 9bb9 36b6 673a 8eff c1bb
000000f0: 0000 0000 37ea 3b3d 22ae a6ba c4db 2cbd
00000100: 0000 0000 e2a6 c23e 4cb6 b7bb 2a7c 84bc
00000110: 231a f53d 4d65 f73e 5df4 c03d 3eb0 7c3e
00000120: 2f21 c43e 35ea 5a3e 11d7 b53e b272 3b3c
00000130: fb47 ed3d ec81 113e 5ebb c23e ec5c 933e
00000140: 0c55 033f 6e7a e23c f515 c93a aad2 31bc
00000150: bf97 9fbc 16cf d63d 99d3 a1bc ebae 603e
00000160: 44bc 6a3d 83a9 413b 5241 233e d10d 163e
00000170: 9674 4139 b8dd 98b8 d5ed b0bc 3aea 4fbd
00000180: 87f6 973e 2f9e a03c 6e74 d03d b4df 13bd
00000190: 511d 883d 44ab 763c 0dde e4bb 36a9 bfb7
000001a0: 76cf b53c 441e 653e b872 dd3e 90f8 093e
000001b0: 5339 f638 9a75 14bb d6be b23e 27c6 e03e
000001c0: 888a 4a3e 7188 643d 68b1 493e 0895 a33d
000001d0: 26c1 283c 3ec7 e239 9da1 6cbc 024f dcbb
000001e0: 8d67 8fbc b68f df3c 87b4 debb 0542 3b3e
000001f0: 59f0 51bc a534 5d3b 7892 d03d c285 ac3c
00000200: 2de6 193e 8175 833a b9cf 0d3e 59e2 653e
00000210: bf20 8abc c339 943d 4888 283e 0000 0000
00000220: 29fa dfbc 3b7c ae3d ced7 41bb 3dc0 693e
00000230: 11b8 c23d 3d2c 993d 8c37 1c3e 088e a93e
00000240: 734b 05bc eeae 073e 2127 e63d bf71 323e
00000250: 07f9 3338 8794 db3e 6366 8239 d465 9a3e
00000260: 2b2d ce3c c56c 4bbb 86f8 fc3b cb04 97bc
00000270: 0978 4f3b de1a 463c feba 433d da36 283b
00000280: 568e 663c b560 84bb dff0 e93d 6588 96bd
00000290: 862f 593e 487b 013e 18c4 4b3e 0000 0000
000002a0: 7a05 623e d5b4 16bc ad1c 7f3e 3d56 6fbd
000002b0: 0168 be3e f5f2 343e 37bc d03e 28cf 32bd
000002c0: fd56 cabc 4fb2 a73a ccb3 a839 7f2b b43e
000002d0: a9a4 ab3e cc2d 483e 0e1e 27bd 0731 9b3e
000002e0: 684b 4439 06d5 483a 4720 5c3c 5123 073e
000002f0: f481 793d 01cd 423d 3842 aa3d 8854 8b3e

W_action_type f4 [192, 4]
-0.014613649 0.22011283 -0.042667825 0.10955416 0.11826701 -0.013714351 0.06658543 0.07631685
0.018007863 0.23420343 -0.07693025 -0.009745932 0.1557607 -0.08860854 -0.09732397 -0.008882278
-0.13705534 0.040973507 0.18729934 0.010225726 0.1434587 -0.08223079 0.08253078 0.06245911
-0.10213838 -0.16107513 -0.0651321 0.014519134 0.033790782 0.2593252 -0.06207237 0.017810807
-0.072845444 -0.08438353 0.03338362 0.049991187 0.02390384 0.1702918 -0.12956688 -0.18827567
0.056635026 -0.057107266 0.1340232 -0.110231206 -0.028679186 0.10546414 0.08055916 -0.1440262
0.0099925995 -0.117824286 0.02455893 0.052299127 -0.0027871924 -0.1470094 -0.037727423 -0.10636116
0.036538005 -0.022710899 0.091928445 0.08200462 -0.033051975 0.077266015 0.051811565 -0.14387475
0.0005684531 -0.15828945 -0.03864021 -0.2465252 -0.029799482 -0.08718793 0.12848549 -0.0013442349
0.009842372 -0.27133706 -0.027411385 0.208357 0.05629246 -0.0039733155 -0.009703276 -0.053410634
0.11910989 -0.10386809 -0.13575213 -0.18122178 0.09082881 0.1100014 -0.076814376 -0.05058299
-0.11475468 0.030490141 -0.11036291 0.057763543 -0.20751175 -0.013995739 -0.15668286 0.11437021
-0.08436703 -0.11817725 0.22432327 0.11131596 0.145675 -0.005466509 -0.07380184 -0.025326358
0.0769114 0.032355558 0.10680479 0.050543997 0.06664964 0.06468743 0.04881352 0.08786495
-0.06694207 -0.0069350176 -0.18858205 0.020053765 -0.10234315 -0.13536638 0.00716704 -0.20373987
-0.15795203 -0.04099831 -0.029683925 0.07941783 -0.01009063 0.03592286 -0.009102549 -0.05098799
-0.110505626 0.13654467 0.07693149 -0.019619709 -0.061085537 0.005896775 0.07272402 -0.050640963
0.10406795 0.011490208 -0.079597384 0.10329426 0.06406578 -0.028653279 0.06778749 -0.09588985
0.036284342 0.02153531 -0.023886908 -0.101016626 -0.052005433 -0.076902956 -0.023239443 -0.14588816
0.15447569 -0.042848732 0.057168726 0.0915045 0.122624405 -0.0044929334 0.10001928 0.055194896
0.069843136 -0.041779418 0.08108138 -0.03166761 0.21510597 0.083160855 0.030518085 0.27445665
-0.17131124 -0.007865675 -0.11599034 0.020754213 -0.21236965 -0.01662782 -0.009051214 0.052862022
0.06108289 -0.07547259 -0.12886398 -0.16491628 -0.01426976 0.06993792 0.023026546 0.023214407
0.094700105 -0.061379634 0.00031969429 -0.07337782 -0.07045711 0.07490149 0.04067113 -0.16881749
-0.27818495 0.095290326 0.0032548413 -0.026548937 0.030500531 -0.12075872 0.025790816 0.05114169
0.1710951 -0.04778173 -0.10826852 0.03554562 0.034324124 0.13223773 -0.035052594 0.10161957
-0.016130485 -0.019022143 -0.032708827 -0.07870112 -9.242785e-05 0.10261086 0.17918798 0.08346117
0.0038180714 -0.054646943 -0.059745114 0.01142887 -0.25609657 -0.14179255 -0.118019395 0.09376498
-0.049067967 -0.14522088 0.08909402 -0.067585245 -0.105068244 -0.010758491 0.016560534 0.018221002
-0.12589931 0.09014009 0.13471034 -0.041824974 -0.12131787 -0.078775294 0.017544914 0.1198574
-0.07180162 -0.03411878 0.118215956 -0.09324763 -0.17647201 -0.0939753 0.047466096 0.04667723
0.2453591 -0.0037082876 0.009835353 -0.046257243 -0.09894358 0.03625869 0.28719753 -0.04599807
00000000: 166e 6fbc 4265 613e 75c4 2ebd ee5d e03d
00000010: f935 f23d 28b2 60bc f15d 883d 024c 9c3d
00000020: 3a85 933c 06d3 6f3e 9b8d 9dbd 67ad 1fbc
00000030: bc7f 1f3e 6578 b5bd ca51 c7bd f986 11bc
00000040: 3c58 0cbe d6d3 273d 66cb 3f3e ce89 273c
00000050: d6e6 123e 9e68 a8bd e605 a93d 20d5 7f3d
00000060: ed2d d1bd e1f0 24be fa63 85bd a9e1 6d3c
00000070: 3468 0a3d 46c6 843e 993f 7ebd f8e7 913c
00000080: fe2f 95bd 46d1 acbd 43bd 083d 8fc3 4c3d
00000090: fcd1 c33c f960 2e3e 2ead 04be 56cb 40be
000000a0: 21fa 673d 4fe9 69bd 613d 093e e6c0 e1bd
000000b0: 9df0 eabc 95fd d73d 33fc a43d 9b7b 13be
000000c0: 00b8 233c dc4d f1bd cf2f c93c 9c37 563d
000000d0: 54a9 36bb a289 16be 1288 1abd e1d3 d9bd
000000e0: e0a8 153d 350c babc fb44 bc3d 0af2 a73d
000000f0: 8261 07bd a53d 9e3d 5d38 543d e753 13be
00000100: 3e04 153a a116 22be 3245 1ebd 1a71 7cbe
00000110: 0b1e f4bc 968f b2bd b391 033e 0a31 b0ba
00000120: e641 213c b1ec 8abe d78d e0bc 8a5b 553e
00000130: ec92 663d 9632 82bb 7dfa 1ebc 1cc5 5abd
00000140: e3ef f33d cbb8 d4bd 9b02 0bbe 3492 39be
00000150: 7504 ba3d 6a48 e13d db50 9dbd 1c30 4fbd
00000160: 8004 ebbd 76c6 f93c f305 e2bd 7799 6c3d
00000170: f67d 54be 624e 65bc 7971 20be ee3a ea3d
00000180: 9fc8 acbd ea06 f2bd 00b5 653e 9ff9 e33d
00000190: d42b 153e 6720 b3bb 6b25 97bd 3979 cfbc
000001a0: b983 9d3d 4387 043d 78bc da3d 3907 4f3d
000001b0: 9b7f 883d d87a 843d b0f0 473d 8af2 b33d
000001c0: ed18 89bd 253f e3bb a71b 41be cb47 a43c
000001d0: 4999 d1bd 7c9d 0abe 7dd9 ea3b 2fa1 50be
000001e0: 2dbe 21be d8ed 27bd b42b f3bc d1a5 a23d
000001f0: 2b53 25bc d923 133d dc22 15bc c8d8 50bd
00000200: c650 e2bd 5ed2 0b3e 428e 9d3d 83b9 a0bc
00000210: d434 7abd bc39 c13b 55f0 943d e66c 4fbd
00000220: 9421 d53d 6d41 3c3c f403 a3bd f18b d33d
00000230: eb34 833d 48ba eabc 2bd4 8a3d e661 c4bd
00000240: e49e 143d d26a b03c 7aae c3bc cee1 cebd
00000250: a603 55bd 4c7f 9dbd a560 bebc b563 15be
00000260: e02e 1e3e 2782 2fbd c129 6a3d b666 bb3d
00000270: 8122 fb3d 7539 93bb e9d6 cc3d 0b14 623d
00000280: eb09 8f3d e520 2bbd ff0d a63d e5b5 01bd
00000290: bd44 5c3e 3d50 aa3d 1001 fa3c 9585 8c3e
000002a0: 376c 2fbe 08df 00bc 588c edbd bd04 aa3c
000002b0: 6e77 59be 1137 88bc 8b4b 14bc d985 583d
000002c0: 0d32 7a3d 6091 9abd ebf4 03be d0df 28be
000002d0: b6cb 69bc 9d3b 8f3d 2ba2 bc3c 242c be3c
000002e0: 21f2 c13d 3669 7bbd a49c a739 1c47 96bd
000002f0: d14b 90bd f465 993d c596 263d 7ede 2cbe
00000300: 426e 8ebe 9327 c33d 2d4f 553b 287d d9bc
00000310: 40dc f93c 5950 f7bd 4347 d33c f379 513d
00000320: 8e33 2f3e c6b6 43bd e3bb ddbd 4998 113d
00000330: 7497 0c3d 5469 073e 4f93 0fbd ec1d d03d
00000340: 1424 84bc 53d4 9bbc b1f9 05bd 0e2e a1bd
00000350: d3d5 c1b8 a425 d23d 0e7d 373e b1ed aa3d
00000360: 9c38 7a3b 79d5 5fbd 4bb7 74bd 2840 3b3c
00000370: 171f 83be 1132 11be 27b4 f1bd db07 c03d
00000380: 7efb 48bd c8b4 14be ed76 b63d 226a 8abd
00000390: 052e d7bd 6244 30bc f5a9 873c 3644 953c
000003a0: c0eb 00be 5e9b b83d 82f1 093e aa50 2bbd
000003b0: 8175 f8bd f154 a1bd 5aba 8f3c cc77 f53d
000003c0: ba0c 93bd 22c0 0bbd 351b f23d 9df8 bebd
000003d0: 14b5 34be 1f76 c0bd cf6b 423d a030 3f3d
000003e0: 6a3f 7b3e be06 73bb 7624 213c 3c78 3dbd
000003f0: efa2 cabd fe83 143d 8e0b 933e 7968 3cbd

b_action_type f4 [4]
0.0032502906 -0.006288107 0.0029013997 0.00013641517
00000000: d402 553b 770c cebb 6925 3e3b ab0a 0f39

W_play_habitat f4 [192, 4]
0.03580693 0.07348112 0.017057747 -0.09751985 6.1476676e-05 0.0355911 0.0011327111 0.039289653
0.14301911 -0.04498447 -0.08467168 -0.03663008 -0.039306287 -0.063719824 -0.07945257 0.058399916
0.025904948 -0.16350766 0.030796383 -0.054068968 0.044294845 -0.068750575 -0.005741444 -0.020437224
-0.15600999 -0.09463036 -0.014949393 -0.034656882 -0.11319249 0.07830918 -0.030692559 -0.11803449
-0.0412882 0.012078977 -0.074127086 -0.20656098 -0.051079456 -0.07077101 -0.08165758 0.117588945
0.14689872 0.009567036 0.06380938 -0.047978975 -0.054585848 0.22882272 0.08662327 0.014231593
0.082852945 -0.04334396 0.06970077 0.117985435 -0.09131385 -0.081565976 -0.06886215 -0.011324657
0.061167378 -0.12612766 0.10204734 -0.14457306 -0.12221913 -0.07514131 0.040426623 -0.052571546
0.091948606 -0.0003270756 -0.09985303 0.029350825 0.07765606 -0.08770685 -0.17423803 -0.2869419
0.03578935 0.034290887 -0.07115719 0.0487922 -0.0631265 0.078467645 -0.022001592 -0.037148375
0.13693227 0.16047694 0.123420104 -0.2504727 -0.15006132 0.058135405 -0.06457196 0.07390756
-0.018131832 -0.16201581 0.059898574 0.06299866 0.05968204 0.05364572 -0.06036724 -0.06576191
0.060334846 0.119249724 -0.16078128 -0.045854814 -0.08306067 0.12777309 -0.15418231 0.08979686
0.15992011 -0.07163014 -0.13604355 -0.06695933 0.024181891 0.032457784 0.0072222324 0.13575387
0.025023632 -0.009176892 0.09184387 0.07922083 0.2671605 0.006108223 -0.09159442 0.149507
-0.01391238 0.0061248583 0.10213936 -0.02433099 0.12564132 0.11416139 -0.012370189 -0.017346423
-0.067345954 -0.1547923 0.029575447 0.09222227 0.108534925 0.11625333 0.00906138 -0.18946597
0.18092711 0.0027607917 0.022961205 -0.05767032 0.07979066 -0.06599446 -0.055712506 -0.06007672
-0.07503954 -0.07239535 0.17287666 0.012842636 -0.01740497 -0.020702353 0.029062841 0.08333728
-0.024365952 -0.13114001 -0.063179664 0.10335676 -0.015290694 -0.022798885 -0.041838985 -0.00264711
-0.14466573 -0.010132134 -0.07630724 0.06444322 0.06716807 -0.0010496874 0.08451428 0.017620247
0.061799433 0.08956955 -0.06918246 0.006510942 0.048951082 0.07766609 -0.10783005 0.0688573
-0.01952541 0.029984485 0.055615228 -0.014556939 -0.038019992 0.045278624 0.23925015 0.10625513
0.026657987 0.07334979 -0.0347638 0.27542543 -0.14644647 -0.16600251 0.045028046 0.15516475
0.08228492 0.0889857 0.0043122824 -0.028314725 -0.04278719 -0.11399036 -0.10322355 0.14992808
0.010736351 -0.10591834 -0.076779306 -0.18780027 0.005527476 -0.20682077 -0.075 0.0015932573
-0.13224183 -0.15348004 -0.10309781 0.061213933 -0.12962545 -0.066518895 0.011252133 -0.10797226
-0.027772505 -0.2708979 0.0078646075 0.047271386 0.17556326 0.14387573 0.17400926 0.040449694
0.06691814 0.08976672 0.093214676 -0.04526431 -0.06755142 -0.033004466 -0.15698351 0.048660215
0.0805349 0.012593484 0.02463137 0.011420225 -0.0804007 -0.21121295 0.17750981 0.05834239
-0.11441894 0.12773928 0.085397065 0.03753394 -0.07937118 -0.0643258 -0.07271054 -0.17015217
-0.11827654 0.006110068 -0.066921815 -0.08168744 0.13871215 -0.18963178 0.12875324 0.07074304
00000000: 4aaa 123d 457d 963d b0bc 8b3c 7db8 c7bd
00000010: 0aed 8038 f9c7 113d 7a77 943a 30ee 203d
00000020: 9a73 123e a341 38bd 5968 adbd 6c09 16bd
00000030: a1ff 20bd 8a7f 82bd 07b8 a2bd c034 6f3d
00000040: 9d36 d43c 8d6e 27be b248 fc3c 6c77 5dbd
00000050: 836e 353d 1acd 8cbd b922 bcbb f76b a7bc
00000060: 15c1 1fbe 90cd c1bd 4dee 74bc 60f4 0dbd
00000070: 77d1 e7bd 9060 a03d f66e fbbc 11bc f1bd
00000080: d11d 29bd e7e6 453c f1cf 97bd b984 53be
00000090: b138 51bd 64f0 90bd 173c a7bd 79d2 f03d
000000a0: 9e6c 163e 0fbf 1c3c 7eae 823d 9a85 44bd
000000b0: 6995 5fbd 8150 6a3e 8a67 b13d a12b 693c
000000c0: ceae a93d 7089 31bd 47bf 8e3d 59a2 f13d
000000d0: c102 bbbd 100c a7bd 9907 8dbd 0e8b 39bc
000000e0: a58a 7a3d 9c27 01be 32fe d03d f60a 14be
000000f0: 064e fabd b0e3 99bd 6396 253d 4355 57bd
00000100: 8d4f bc3d 587b abb9 bf7f ccbd 2471 f03c
00000110: 240a 9f3d a69f b3bd 746b 32be 0cea 92be
00000120: da97 123d 9a74 0c3d dcba 91bd 54da 473d
00000130: 7748 81bd a5b3 a03d af3c b4bc e528 18bd
00000140: f937 0c3e 1154 243e aec3 fc3d f53d 80be
00000150: ada9 19be 641f 6e3d 4e3e 84bd d95c 973d
00000160: 3589 94bc 79e7 25be 3558 753d 7105 813d
00000170: 2875 743d 9dbb 5b3d a443 77bd 2eae 86bd
00000180: ac21 773d 3339 f43d d9a3 24be 42d2 3bbd
00000190: b61b aabd f3d6 023e f8e1 1dbe 6be7 b73d
000001a0: 19c2 233e d3b2 92bd 004f 0bbe f921 89bd
000001b0: 1a19 c63c 74f2 043d 7aa8 ec3b 1003 0b3e
000001c0: 5cfe cc3c ad5a 16bc a418 bc3d 883e a23d
000001d0: 43c9 883e 7d27 c83b db95 bbbd 5d18 193e
000001e0: c0f0 63bc 09b3 c83b 712e d13d c951 c7bc
000001f0: 1ea8 003e 72cd e93d 55ac 4abc 161a 8ebc
00000200: adec 89bd df81 1ebe 3548 f23c 08df bc3d
00000210: 8f47 de3d 3a16 ee3d 2f76 143c 5e03 42be
00000220: f544 393e 66ee 343b 2319 bc3c b737 6cbd
00000230: 4969 a33d 1a28 87bd cc32 64bd 0213 76bd
00000240: 55ae 99bd 0344 94bd 9406 313e eb69 523c
00000250: de94 8ebc fb97 a9bc 3215 ee3c bcac aa3d
00000260: 1b9b c7bc 9149 06be 5764 81bd b6ac d33d
00000270: d285 7abc bac4 babc 5b5f 2bbd 237b 2dbb
00000280: 4123 14be 4001 26bc f846 9cbd cffa 833d
00000290: 6a8f 893d aa95 89ba d315 ad3d 5658 903c
000002a0: 6721 7d3d 3d70 b73d 89af 8dbd bd59 d53b
000002b0: ee80 483d 660f 9f3d 00d6 dcbd 0e05 8d3d
000002c0: c1f3 9fbc 06a2 f53c cbcc 633d 3a80 6ebc
000002d0: daba 1bbd 1476 393d fefd 743e 4a9c d93d
000002e0: da61 da3c 6a38 963d 7d64 0ebd 9004 8d3e
000002f0: 10f6 15be 90fc 29be 546f 383d 82e3 1e3e
00000300: ff84 a83d 223e b63d 0c4e 8d3b 48f4 e7bc
00000310: 9f41 2fbd c773 e9bd de66 d3bd bf86 193e
00000320: 85e7 2f3c b7eb d8bd 783e 9dbd b74e 40be
00000330: d41f b53b d3c8 53be 9a99 99bd d8d4 d03a
00000340: 676a 07be df29 1dbe f224 d3bd 76bb 7a3d
00000350: 89bc 04be 0f3b 88bd de5a 383c 8f20 ddbd
00000360: 2a83 e3bc 21b3 8abe 8eda 003c a49f 413d
00000370: dbc6 333e 2954 133e 7c2f 323e 94ae 253d
00000380: 610c 893d 9dd7 b73d 56e7 be3d 1267 39bd
00000390: 6658 8abd b12f 07bd 49c0 20be ef4f 473d
000003a0: 7bef a43d e654 4e3c bac7 c93c e51b 3b3c
000003b0: 1fa9 a4bd 3548 58be 22c5 353e 6ef8 6e3d
000003c0: 7a54 eabd 16ce 023e a8e4 ae3d 30bd 193d
000003d0: 5b8d a2bd 3fbd 83bd 43e9 94bd 5f3c 2ebe
000003e0: f83a f2bd f736 c83b 4e0e 89bd bf4b a7bd
000003f0: 8f0a 0e3e d52e 42be e4d7 033e bae1 903d

b_play_habitat f4 [4]
-0.007442833 0.018560607 0.0057156617 -0.01683344
00000000: 02e3 f3bb 6a0c 983c 724a bb3b 48e6 89bc

W_gain_food_primary f4 [192, 7]
0.090896204 -0.109469004 0.19508487 0.012745484 0.026761841 -0.080118746 0.023477525 -0.03537536
-0.049225893 0.07167837 0.18431947 0.045161936 0.11926788 -0.14948986 -0.2216311 0.17005068
0.19253506 0.066754974 0.065347366 0.073220134 0.123918906 -0.08888021 0.059207253 0.08801154
0.20361082 0.021936083 0.15661928 0.008241443 0.039260235 0.017037611 0.02906699 0.015743306
-0.15294625 -0.23483051 -0.0018264011 0.047608078 0.11471628 -0.04143754 -0.053041782 -0.13124825
0.09270253 0.0901564 -0.09960363 0.13136631 -0.091668434 0.029802524 -0.044619434 -0.090162404
0.068266645 -0.08724308 0.071888715 0.2274246 -0.083749615 0.082931764 -0.0818271 0.019003913
-0.076664 0.14569151 -0.015602274 0.027679874 0.046134323 0.014176245 0.11844105 -0.1279292
0.070444204 0.06457992 -0.03373333 -0.038201787 -0.1307988 -0.022910358 0.13673389 0.0721927
-0.012919366 0.004183397 0.18980697 -0.09832427 -0.07883925 -0.047157023 0.030806083 -0.048419453
0.0844092 -0.14912383 0.114902206 -0.0014154314 0.0201622 0.07721551 -0.13541615 0.017284008
-0.012783962 0.12342526 -0.067183495 -0.048607796 -0.15801531 -0.017241793 -0.05770742 -0.11842038
-0.047451798 -0.00088709587 -0.15874413 0.0990586 0.0011014194 0.059938513 -0.023275644 -0.002632728
0.07860714 0.08271612 -0.068817474 0.08569647 -0.11696339 -0.10355337 -0.022293888 -0.11928312
-0.042292755 -0.13538171 -0.15858065 0.058089193 0.1610742 0.05109869 -0.023479592 0.09655119
-0.09254746 -0.041170795 0.068568684 -0.16216005 -0.12644209 -0.0806966 -0.077150665 0.00013069164
-0.080779284 -0.11609678 0.21133628 -0.27083308 0.033099487 -0.082805954 0.06874344 -0.09413283
-0.06384126 0.060207903 -0.014589123 0.04509638 0.026948607 -0.025190147 0.07305042 -0.19409636
0.12367835 0.005677325 0.025602104 -0.18206935 -0.13777559 0.115628615 -0.08779292 0.114892036
-0.10471233 -0.088946484 -0.027047196 0.06741065 -0.16572578 -0.05909219 0.018318579 -0.0151637485
0.022560323 -0.009792343 0.056927636 0.0142030865 -0.01742053 -0.037192088 0.13362534 0.0013355585
0.06013032 0.027870005 0.068735726 -0.075513855 -0.049158093 0.10976165 0.10297669 0.03652494
-0.1559195 -0.07842235 0.10238124 -0.03298656 -0.06592198 0.06308822 0.14188012 -0.013089117
-0.15570149 -0.20352875 -0.14363043 -0.130815 0.051094543 0.06962087 -0.2957825 0.056255452
-0.0425985 -0.17727046 -0.12895696 0.02857027 0.09490513 -0.0020040807 -0.13086018 -0.023112293
0.12827599 -0.052248687 -0.020191547 -0.14092833 -0.07566269 0.025813906 0.038981184 -0.03773557
0.023174372 -0.06470952 -0.095636904 -0.09925294 0.17080297 0.13559192 0.016416548 -0.014662221
0.020599457 -0.034565806 0.01136669 0.05951901 0.11557949 -0.05441647 -0.12092485 -0.10884268
0.034577254 0.1024789 0.0069901566 0.044006415 -0.08002303 -0.0129584065 -0.089511074 0.03830982
-0.07918105 0.034418058 0.04142295 0.04407339 0.03785697 -0.024242003 -0.0395364 -0.015492008
-0.023900785 0.0071184062 0.036525957 -0.1315023 -0.05722505 0.0013923367 -0.01811087 -0.041558526
0.001393561 0.122877486 -0.11966826 0.030880157 0.080174975 0.012208971 -0.08070579 -0.12830113
00000000: ca27 ba3d 4931 e0bd 54c4 473e 6fd2 503c
00000010: a63b db3c 4c15 a4bd f053 c03c c1e5 10bd
00000020: 17a1 49bd 1ccc 923d 3ebe 3c3e b9fb 383d
00000030: b842 f43d df13 19be 43f3 62be c421 2e3e
00000040: e927 453e d5b6 883d d7d4 853d 70f4 953d
00000050: 32c9 fd3d d406 b6bd 4e83 723d 653f b43d
00000060: 5b7f 503e 4db3 b33c ce60 203e 1e07 073c
00000070: 57cf 203d 7692 8b3c e51d ee3c 1bf8 803c
00000080: f19d 1cbe 6977 70be da63 efba b000 433d
00000090: 5ef0 ea3d 69ba 29bd 5742 59bd f165 06be
000000a0: d3da bd3d eba3 b83d fdfc cbbd e484 063e
000000b0: a9bc bbbd 6c24 f43c dec2 36bd 11a7 b8bd
000000c0: 62cf 8b3d 80ac b2bd 643a 933d ffe1 683e
000000d0: eb84 abbd 21d8 a93d f794 a7bd 18ae 9b3c
000000e0: 0402 9dbd 2830 153e aea0 7fbc e7c0 e23c
000000f0: 58f7 3c3d 7b43 683c 3991 f23d dfff 02be
00000100: 0d45 903d 7a42 843d f62b 0abd 7a79 1cbd
00000110: 1ff0 05be 81ae bbbc f803 0c3e c4d9 933d
00000120: c0ab 53bc e114 893b c25c 423e 3c5e c9bd
00000130: 7976 a1bd b927 41bd 0a5d fc3c 7a53 46bd
00000140: bbde ac3d ebb3 18be d951 eb3d ff85 b9ba
00000150: 332b a53c 2a23 9e3d 88aa 0abe 3197 8d3c
00000160: d373 51bc 62c6 fc3d 8097 89bd f818 47bd
00000170: c4ce 21be a93e 8dbc 9e5e 6cbd 6286 f2bd
00000180: d15c 42bd ff8b 68ba d28d 22be 3cdf ca3d
00000190: 815d 903a 1682 753d 90ac bebc d989 2cbb
000001a0: c8fc a03d 1267 a93d 2df0 8cbd a281 af3d
000001b0: 808a efbd ca13 d4bd aca1 b6bc b54a f4bd
000001c0: 2b3b 2dbd 81a1 0abe f762 22be efee 6d3d
000001d0: a3f0 243e dc4c 513d 4658 c0bc a1bc c53d
000001e0: 8689 bdbd b5a2 28bd bd6d 8c3d 490d 26be
000001f0: 097a 01be 4244 a5bd 2b01 9ebd 450a 0939
00000200: 9c6f a5bd 26c4 edbd 8a68 583e a2aa 8abe
00000210: 5493 073d 2b96 a9bd 5cc9 8c3d b7c8 c0bd
00000220: 35bf 82bd 909c 763d 3807 6fbc fbb6 383d
00000230: 53c3 dc3c 915b cebc 759b 953d 32c1 46be
00000240: 134b fd3d db08 ba3b 81bb d13c 6370 3abe
00000250: 0b15 0dbe b2ce ec3d c6cc b3bd 844c eb3d
00000260: 6b73 d6bd 9329 b6bd 1592 ddbc 980e 8a3d
00000270: 05b4 29be a70a 72bd d810 963c 5f71 78bc
00000280: 6dd0 b83c 1070 20bc f42c 693d 10b4 683c
00000290: 80b5 8ebc bb56 18bd 15d5 083e e80d af3a
000002a0: 364b 763d a34f e43c 51c5 8c3d 02a7 9abd
000002b0: ff59 49bd b7ca e03d 71e5 d23d 2d9b 153d
000002c0: 5da9 1fbe e69b a0bd 41ad d13d ea1c 07bd
000002d0: 1a02 87bd 6634 813d 0649 113e bc73 56bc
000002e0: 3670 1fbe d769 50be db13 13be 5ef4 05be
000002f0: 8348 513d 6395 8e3d ce70 97be 1e6c 663d
00000300: c47b 2ebd 6386 35be 4b0d 04be 330c ea3c
00000310: 9f5d c23d e556 03bb 3600 06be fe55 bdbc
00000320: c85a 033e b802 56bd be68 a5bc 844f 10be
00000330: 0af5 9abd af77 d33c bcaa 1f3d 9d90 1abd
00000340: 2ed8 bd3c 6d86 84bd 48dd c3bd 2045 cbbd
00000350: f9e6 2e3e 9cd8 0a3e ff7b 863c d039 70bc
00000360: 31c0 a83c e094 0dbd 5a3b 3a3c 35ca 733d
00000370: f1b4 ec3d cee3 5ebd 73a7 f7bd e9e8 debd
00000380: e1a0 0d3d 75e0 d13d af0d e53b 1240 343d
00000390: 1de3 a3bd 7f4f 54bc 9551 b7bd c2ea 1c3d
000003a0: ad29 a2bd f3f9 0c3d 1cab 293d 4d86 343d
000003b0: e90f 1b3d 2a97 c6bc ecf0 21bd 31d2 7dbc
000003c0: 94cb c3bc 8541 e93b 3e9c 153d 8aa8 06be
000003d0: d064 6abd 117f b63a 3f5d 94bc 4639 2abd
000003e0: 26a8 b63a 31a7 fb3d a214 f5bd 62f8 fc3c
000003f0: c732 a43d 2308 483c 1449 a5bd 5f61 03be

b_gain_food_primary f4 [7]
0.012346552 -0.006054146 0.0014658805 0.017205834 -0.017096367 0.0044883816 -0.0123561565
00000000: 3149 4a3c dc61 c6bb ca22 c03a 40f3 8c3c
00000010: ae0d 8cbc 4613 933b 7a71 4abc

W_draw_mode f4 [192, 4]
-0.18465322 -0.069150805 0.010808943 -0.05676953 0.15657331 0.21329513 -0.09279064 0.07172348
-0.13488919 0.12371505 -0.026772305 -0.09850112 -0.22380683 -0.052009206 -0.06241315 -0.060643274
-0.0945371 0.12619768 0.16401371 -0.014399392 -0.12560828 -0.09558813 -0.091886744 -0.12890722
0.1759451 -0.015985418 -0.045959365 -0.011037675 0.007233066 -0.032104205 -0.09387083 0.046118148
-0.17034875 -0.10253693 -0.099427566 0.15879475 0.23324436 0.051006682 -0.03984662 0.09255354
0.07377657 -0.018691763 -0.06591312 0.003187119 -0.06973765 0.07261387 -0.080116905 -0.06247274
0.05081148 -0.044026736 -0.156722 0.09779365 0.09724082 -0.04260127 0.025570722 -0.095644236
0.058539964 -0.16046493 -0.10701696 -0.07270582 0.06804559 0.012801882 -0.03935511 0.09553775
-0.018515458 0.13227724 0.14134829 -0.14338376 -0.033489972 0.09937615 -0.06774118 -0.15070711
0.0308722 -0.004125195 -0.17406283 0.13585848 -0.1200194 0.060806844 0.025819331 0.013745344
0.06395807 -0.15546969 0.15339965 -0.008120994 -0.082849614 -0.057700377 -0.16499996 -0.14176865
0.0034495469 0.04474006 -0.016070457 0.07225536 -0.12851484 0.0055289767 0.17353436 0.10384761
0.02412298 0.09391121 -0.13367338 0.051811796 0.03171231 0.115415074 -0.20265354 0.13093884
0.13280697 -0.1868076 0.18126674 0.048425686 -0.00010629131 0.20935643 0.06368953 0.018855697
0.042240128 -0.040636323 0.15681733 0.22180526 0.16525078 -0.01929227 -0.1401748 -0.016165268
-0.19819786 0.010856712 0.011474611 0.17388782 0.15826504 -0.057072 0.1545123 -0.05162984
0.0545242 0.13502407 -0.003685232 0.095324405 0.07112038 -0.11518631 0.12920488 0.13404539
0.12452494 -0.075278595 -0.085491054 -0.054473415 0.12604073 0.012040815 0.046900783 0.058300734
-0.008428 -0.08676835 -0.051780768 0.058825646 -0.107533254 0.13438207 0.03527974 0.15215437
-0.050580762 -0.285719 0.08036179 -0.11727401 0.03353605 -0.12810253 -0.1375907 0.013297612
0.06795687 -0.029778332 -0.09226767 -0.16179928 -0.19949906 0.0344687 0.15887226 0.006271519
-0.002583661 0.12351941 0.1024736 0.03960844 -0.0043643177 -0.16644523 -0.12460547 0.0282697
-0.10589369 0.15016198 0.06774242 0.16763486 -0.023308482 -0.05619807 0.031745434 -0.14408316
0.06974758 0.10919317 0.04503217 -0.04976547 -0.009673672 -0.0014378631 -0.21677743 0.28221443
0.105138674 0.09854665 -0.12390486 0.12093236 0.2353902 0.13555783 0.10924235 -0.0801757
0.08215812 0.004442249 0.044067983 0.064542055 -0.03980737 0.17814477 -0.11248647 -0.031488843
0.100520186 -0.052077778 -0.08546291 0.036738418 0.106934674 -0.035419654 0.14809762 -0.012231735
-0.026149571 -0.15024395 -0.069043055 -0.036752857 -0.067533866 -0.08776675 0.026775317 0.041454833
-0.050451234 0.11172264 0.10543147 0.06568592 -0.1470176 0.005457053 -0.1309775 -0.053336143
-0.062707506 0.10206433 0.026461884 0.022319773 0.16564819 0.048683044 -0.17550433 0.023629729
0.10816783 0.13250032 -0.04844768 0.06343043 0.012531071 0.25167012 0.0048556677 -0.034128703
-0.11206776 0.022009172 -0.0106004905 0.11951498 -0.06380505 -0.024058206 0.00068449206 -0.1529908
00000000: bc15 3dbe f09e 8dbd fe17 313c 2b87 68bd
00000010: c154 203e 0a6a 5a3e 0509 bebd c3e3 923d
00000020: 6420 0abe 515e fd3d 9851 dbbc f5ba c9bd
00000030: 9e2d 65be 9b07 55bd eea4 7fbd 1565 78bd
00000040: ab9c c1bd f739 013e 36f3 273e 6deb 6bbc
00000050: 759f 00be b6c3 c3bd 1e2f bcbd 4100 04be
00000060: f42a 343e daf3 82bc e33f 3cbd 5dd7 34bc
00000070: 5b03 ed3b b37f 03bd 5a3f c0bd 62e6 3c3d
00000080: e76f 2ebe e2fe d1bd aea0 cbbd 179b 223e
00000090: 9cd7 6e3e 62ec 503d 3636 23bd b68c bd3d
000000a0: 2c18 973d 781f 99bc 75fd 86bd fcde 503b
000000b0: 9dd2 8ebd 95b6 943d 5514 a4bd 6ae3 7fbd
000000c0: b31f 503d 6155 34bd bb7b 20be 0a48 c83d
000000d0: 3226 c73d ab7e 2ebd b179 d13c 20e1 c3bd
000000e0: 9ac7 6f3d eb50 24be b52b dbbd cae6 94bd
000000f0: 7c5b 8b3d fcbe 513c d332 21bd 4ca9 c33d
00000100: bbad 97bc af73 073e 9bbd 103e 31d3 12be
00000110: c82c 09bd b985 cb3d e3bb 8abd f752 1abe
00000120: b2e7 fc3c a52c 87bb 873d 32be 7c1e 0b3e
00000130: bbcc f5bd 9910 793d 1083 d33c 2734 613c
00000140: 73fc 823d 7233 1fbe cc14 1d3e eb0d 05bc
00000150: 0fad a9bd 3b57 6cbd c0f5 28be cd2b 11be
00000160: cb11 623b 5a41 373d 31a6 83bc 9efa 933d
00000170: 6599 03be 6b2c b53b feb2 313e 0eae d43d
00000180: 8e9d c53c 8554 c03d ade1 08be 9b38 543d
00000190: c4e4 013d bd5e ec3d 6984 4fbe d514 063e
000001a0: 8dfe 073e 7e4a 3fbe fd9d 393e 035a 463d
000001b0: b6e8 deb8 8861 563e a86f 823d 4377 9a3c
000001c0: fc03 2d3d 4672 26bd b994 203e eb20 633e
000001d0: 8037 293e d30a 9ebc fc89 0fbe 066d 84bc
000001e0: 61f4 4abe 5ae0 313c 0200 3c3c a60f 323e
000001f0: 3b10 223e 54c4 69bd 7938 1e3e d079 53bd
00000200: c454 5f3d c043 0a3e ef83 71bb 7139 c33d
00000210: 90a7 913d cde6 ebbd 494e 043e 3243 093e
00000220: ef06 ff3d aa2b 9abd ef15 afbd 841f 5fbd
00000230: d210 013e d746 453c 091b 403d c0cc 6e3d
00000240: 9815 0abc 9bb3 b1bd 1218 54bd 29f3 703d
00000250: 653a dcbd 749b 093e 7d81 103d 5bce 1b3e
00000260: c62d 4fbd c349 92be b994 a43d 5b2d f0bd
00000270: 195d 093d 4f2d 03be 94e4 0cbe 3ade 593c
00000280: f92c 8b3d b0f1 f3bc d5f6 bcbd b6ae 25be
00000290: 7b49 4cbe 0d2f 0d3d 69af 223e 5181 cd3b
000002a0: a352 29bb bff7 fc3d aedd d13d 763c 223d
000002b0: 8d02 8fbb 9e70 2abe 2731 ffbd dc95 e73c
000002c0: cade d8bd 10c4 193e 8abc 8a3d 79a8 2b3e
000002d0: 6ef1 bebc f32f 66bd 8007 023d 898a 13be
000002e0: d2d7 8e3d aba0 df3d a773 383d e1d6 4bbd
000002f0: 527e 1ebc ae76 bcba e7fa 5dbe 697e 903e
00000300: f252 d73d d3d2 c93d d5c1 fdbd 63ab f73d
00000310: 210a 713e accf 0a3e 74ba df3d 2833 a4bd
00000320: 8442 a83d 4990 913b a180 343d a02e 843d
00000330: 0e0d 23bd 956b 363e 4e5f e6bd 72fa 00bd
00000340: 87dd cd3d 824f 55bd 2e07 afbd 067b 163d
00000350: 9100 db3d 3314 11bd e7a6 173e 9d67 48bc
00000360: a037 d6bc 8dd9 19be 7266 8dbd 2a8a 16bd
00000370: 324f 8abd 0ebf b3bd e957 db3c 8bcc 293d
00000380: f4a5 4ebd d7ce e43d 74ec d73d 5786 863d
00000390: c88b 16be 14d1 b23b f71e 06be 0077 5abd
000003a0: cb6c 80bd 1a07 d13d 98c6 d83c f5d7 b63c
000003b0: ae9f 293e df67 473d 68b7 33be 2293 c13c
000003c0: 1887 dd3d 2aae 073e 1371 46bd d0e7 813d
000003d0: 1f4f 4d3c e8da 803e 4b1c 9f3b 8aca 0bbd
000003e0: c883 e5bd 944c b43c aead 2dbc 45c4 f43d
000003f0: 39ac 82bd b715 c5bc 7c6f 333a 9fa9 1cbe

b_draw_mode f4 [4]
-0.00896337 0.036167633 -0.021229114 -0.005975138
00000000: 19db 12bc 8324 143d aee8 adbc 17cb c3bb

W_lay_eggs_bin f4 [192, 11]
0.015466209 -0.1090818 -0.046623982 0.048252065 -0.10219927 -0.060236346 0.08383243 -0.105919994
0.08928538 -0.1161531 0.19391003 -0.021983344 -0.0368426 -0.033249073 -0.004412149 -0.10657273
-0.00031935627 -0.07804265 -0.18160795 -0.061427828 0.013162575 0.15900046 -0.04643707 -0.05337616
0.010671614 -0.0052939807 0.082922116 0.07073925 -0.08592869 -0.18201919 -0.02232974 -0.024812916
0.023087062 -0.013278573 0.10251623 0.0020880427 0.026223706 0.00405651 -0.031103762 0.13462219
-0.15095271 0.012836757 -0.016363677 -0.062494352 -0.043639954 0.14484732 -0.06117948 0.029118355
0.17609894 -0.025611738 -0.066743076 0.078606464 0.049202625 0.08230639 0.1840568 -0.047838397
0.13262065 -0.1231364 0.09119329 -0.10471023 -0.14226277 0.15015538 0.080141686 0.019137628
-0.0034568412 -0.16914141 -0.06619009 -0.053553425 0.08821706 0.06795768 0.067453235 -0.16529197
-0.083354965 0.11693 0.20746508 0.017066104 0.037157044 -0.17471388 0.029534927 0.12369373
0.01634101 0.11802412 0.045667306 -0.0998791 0.22164266 -0.008968643 0.12000343 -0.0079723615
0.046267644 -0.02099893 0.059394997 -0.048455793 -0.054022547 0.097751476 -0.017715046 -0.1074003
-0.17867526 0.0655696 -0.01444988 -0.09588648 0.08857919 0.035606954 0.23180684 0.04610232
0.0078057107 -0.09093677 0.06134294 0.05062657 -0.030834798 0.17915301 0.04413054 -0.051196955
0.07628608 -0.10188117 0.020532273 -0.103320606 0.10479258 0.1165128 -0.03989174 -0.08311209
0.097173095 -0.006717726 -0.040513244 0.060130667 -0.026724717 -0.015433048 0.027479265 -0.003406348
0.08805624 -0.0007468664 -0.089752875 -0.115881234 0.23239844 0.025574094 0.0028121572 0.06513045
0.053697698 0.0838716 0.1444317 0.074610285 0.06989571 -0.09456879 0.19241425 -0.087785155
0.15902972 0.023287838 0.026395608 0.030212894 0.07563152 -0.1041425 0.11790284 0.013850231
0.010665617 -0.10065201 -0.16291475 -0.005112258 -0.04381802 -0.01815371 0.17203227 -0.0343956
0.0763646 0.13251126 -0.10219196 -0.094597094 0.057204813 -0.012730117 -0.16230193 -0.016407795
-0.051440734 -0.07493916 0.006026813 -0.114839286 0.027498815 -0.13144222 0.16561107 -0.07214353
0.06550863 0.07227301 0.15847963 -0.1005255 0.068432756 0.09540684 0.068545155 -0.020022178
-0.08671258 -0.049439143 -0.13196583 0.19965124 -0.030815156 -0.057956584 -0.044660956 -0.10398994
-0.28010932 -0.042675804 0.01249579 0.0936508 -0.01422711 -0.087626785 0.08586447 -0.25770363
0.08497017 0.08841566 0.11455218 0.0009371786 -0.030917302 -0.21520245 -0.066671945 0.124255724
-0.06958724 -0.061132643 0.027523523 -0.011276522 0.07991657 0.061376866 -0.011173262 -0.13937414
-0.005482693 -0.12755188 0.034002926 0.061728816 0.019652959 0.12790951 0.07374666 -0.06042263
0.08084506 -0.14773239 0.07511193 0.029285703 0.108361945 0.03455219 0.29851782 0.02589592
0.032082893 0.12931074 0.046351515 0.16888519 0.11135068 0.09339333 -0.06668565 -0.07581934
-0.22449505 0.030654173 0.0096061565 0.1600318 -0.09906263 0.06408909 0.040151905 0.056354564
-0.0210193 0.010125179 0.017060742 0.096408434 0.11298545 -0.15631899 0.047363468 -0.0036135246
00000000: fb65 7d3c 4766 dfbd caf8 3ebd f5a3 453d
00000010: da4d d1bd 63ba 76bd 56b0 ab3d 95ec d8bd
00000020: 41db b63d ade1 edbd 5a90 463e 6a16 b4bc
00000030: 44e8 16bd 2e30 08bd ca93 90bb ce42 dabd
00000040: 466f a7b9 d3d4 9fbd 6ff7 39be bf9b 7bbd
00000050: d7a7 573c 04d1 223e cc34 3ebd f6a0 5abd
00000060: fed7 2e3c 2179 adbb 12d3 a93d bddf 903d
00000070: 62fb afbd 3d63 3abe dcec b6bc 7544 cbbc
00000080: 1421 bd3c 5f8e 59bc 07f4 d13d 8bd7 083b
00000090: 19d3 d63c 79ec 843b 51cd febc 66da 093e
000000a0: 5993 1abe 4351 523c 1e0d 86bc 14fa 7fbd
000000b0: cfbf 32bd db52 143e 5697 7abd 9e89 ee3c
000000c0: 4853 343e b5cf d1bc 98b0 88bd 6dfc a03d
000000d0: b188 493d 4190 a83d 6379 3c3e 32f2 43bd
000000e0: b5cd 073e f02e fcbd 8cc3 ba3d 5172 d6bd
000000f0: 55ad 11be 55c2 193e 5321 a43d 84c6 9c3c
00000100: 2c8c 62bb 6833 2dbe ab8e 87bd d65a 5bbd
00000110: 25ab b43d 652d 8b3d ec24 8a3d 4c42 29be
00000120: 02b6 aabd ff78 ef3d ba71 543e 37ce 8b3c
00000130: fc31 183d 32e8 32be 3bf3 f13c 2353 fd3d
00000140: 95dd 853c a1b6 f13d a40d 3b3d 6a8d ccbd
00000150: 4bf6 623e 37f1 12bc 5cc4 f53d 829e 02bc
00000160: 2483 3d3d f305 acbc 2b48 733d 9579 46bd
00000170: bf46 5dbd ed31 c83d 251f 91bc b0f4 dbbd
00000180: a6f6 36be 5b49 863d 31bf 6cbc 2160 c4bd
00000190: 0269 b53d 99d8 113d c65e 6d3e c9d5 3c3d
000001a0: 0cc7 ff3b 0f3d babd bc42 7b3d ce5d 4f3d
000001b0: 4299 fcbc e373 373e 3ac2 343d e6b3 51bd
000001c0: e03b 9c3d 13a7 d0bd 4c33 a83c c199 d3bd
000001d0: 7e9d d63d 439e ee3d 8565 23bd ac36 aabd
000001e0: b002 c73d 5f20 dcbb 37f1 25bd 934b 763d
000001f0: cbed dabc e5da 7cbc 321c e13c 093d 5fbb
00000200: d456 b43d 5bc9 43ba 5bd0 b7bd 2453 edbd
00000210: dbf9 6d3e c380 d13c 2b4c 383b 1d63 853d
00000220: 1ef2 5b3d e0c4 ab3d e7e5 133e 47cd 983d
00000230: 7b25 8f3d 48ad c1bd 3e08 453e b4c8 b3bd
00000240: b0d8 223e 23c6 be3c 9a3b d83c 0881 f73c
00000250: b3e4 9a3d aa48 d5bd 0b77 f13d 14ec 623c
00000260: d7be 2e3c a422 cebd 20d3 26be ba84 a7bb
00000270: 867a 33bd 17b7 94bc 3a29 303e 67e2 0cbd
00000280: 0b65 9c3d 08b1 073e 054a d1bd 1fbc c1bd
00000290: 984f 6a3d fb91 50bc 7a32 26be a469 86bc
000002a0: 85b3 52bd b479 99bd 927c c53b dc30 ebbd
000002b0: 3245 e13c ca98 06be f395 293e fdbf 93bd
000002c0: 6329 863d df03 943d 7c48 223e 50e0 cdbd
000002d0: 7926 8c3d a964 c33d 6761 8c3d 8d05 a4bc
000002e0: 5d96 b1bd b380 4abd 0d22 07be 6071 4c3e
000002f0: 1170 fcbc e263 6dbd 68ee 36bd adf8 d4bd
00000300: 7d6a 8fbe d3cc 2ebd 24bb 4c3c fecb bf3d
00000310: d318 69bc ac75 b3bd b6d9 af3d bbf1 83be
00000320: d704 ae3d 4513 b53d 559a ea3d feac 753a
00000330: 4846 fdbc 085e 5cbe 4d8b 88bd c979 fe3d
00000340: c183 8ebd 3966 7abd 0379 e13c 29c1 38bc
00000350: 4cab a33d 4f66 7b3d 0f10 37bc 18b8 0ebe
00000360: 2aa8 b3bb f69c 02be a746 0b3d 5bd7 7c3d
00000370: 3eff a03c b6fa 023e 7d08 973d b87d 77bd
00000380: 1892 a53d 2947 17be 49d4 993d 92e8 ef3c
00000390: deec dd3d 9986 0d3d 54d7 983e ae23 d43c
000003a0: 5a69 033d 096a 043e 16db 3d3d 3df0 2c3e
000003b0: d30b e43d 0145 bf3d 7c92 88bd 2c47 9bbd
000003c0: 08e2 65be 761e fb3c 2463 1d3c 60df 233e
000003d0: 59e1 cabd 2441 833d 5376 243d 0bd4 663d
000003e0: ab30 acbc 14e4 253c f8c2 8b3c c971 c53d
000003f0: ea64 e73d 1612 20be 3200 423d e2d0 6cbb

b_lay_eggs_bin f4 [11]
-0.002623815 -0.0015374263 0.008932273 0.019380808 0.0002710442 -0.0028012719 -0.0061493274 -0.0007825724
-0.0034982972 -0.0020492715 -0.009142141
00000000: 50f4 2bbb 7783 c9ba ab58 123c 80c4 9e3c
00000010: f01a 8e39 8b95 37bb 4c80 c9bb 8b25 4dba
00000020: b043 65bb 124d 06bb ebc8 15bc

W_play_cost_bin f4 [192, 7]
-0.031911593 -0.2102228 -0.19083837 -0.057681322 0.031306382 0.020006662 0.065921105 -0.031052921
0.08017175 0.04790015 -0.10599444 -0.13124001 0.103296295 0.078634776 -0.11051655 -0.07220287
-0.06901999 -0.07640586 0.05961913 -0.19392191 -0.046458907 -0.09025835 -0.24799867 -0.057309482
-0.034608614 0.11524507 -0.18384431 0.077513546 -0.048860542 0.0089959195 0.06248968 -0.04894012
0.031247249 0.027609209 0.13720766 0.12167999 0.050002005 -0.124936104 -0.043239735 0.020005204
0.07353234 0.12946811 -0.13561481 -0.22846103 -0.16583748 0.02532603 -0.03945277 0.10411494
-0.05352594 0.066694245 0.043430395 0.008933161 -0.06961471 0.06755791 -0.10638808 -0.035260443
0.021480585 -0.027656967 -0.07486381 0.027750524 -0.14452192 -0.00060288515 -0.13836661 0.010173667
-0.20097384 -0.036610957 -0.14779565 0.15747201 0.05979291 -0.031508062 0.14642656 0.20406853
0.14146443 0.0461486 -0.11301813 -0.01057033 0.09498226 0.0009663714 0.007962298 0.16867422
0.0624591 -0.10984092 0.049564578 0.00036085228 0.05913078 -0.012481945 -0.15293106 0.14567608
-0.0026710432 0.02838307 0.16655001 0.13592437 0.043595254 0.11870292 0.038888123 -0.0783817
0.107597776 0.093747236 -0.030458923 -0.12552978 0.030314727 0.054055117 -0.022996252 0.103214495
0.10126734 0.1007412 0.071271576 2.6498614e-05 -0.10792459 -0.11178471 0.05132646 -0.087620504
-0.284825 -0.040193584 0.07700834 -0.052947175 0.014886074 -0.10133759 0.024066137 0.14545587
0.053606145 -0.12441323 -0.0028645736 -0.009144307 0.084450126 -0.0042216587 -0.0070756027 0.09877326
-0.033518884 -0.11349058 0.046605635 0.029444814 0.30660713 0.033809666 0.016060542 0.118104525
-0.017011492 0.0069250064 0.05274357 -0.11281411 0.022821918 -0.10674591 0.03781279 0.06314766
0.021938605 -0.21244024 -0.085262045 -0.052082486 -0.049424455 -0.043790102 0.0050561037 0.07841552
0.06619081 -0.15107459 -0.016113719 0.058409624 0.024102405 0.11602757 0.16750254 0.036032323
0.049450718 0.09529097 -0.0601084 0.13863659 0.003997833 0.0526801 0.12966998 0.12002909
0.03589335 0.04208793 -0.007475604 -0.019107442 0.17202476 -0.099777825 0.055047628 0.14547144
-0.25523078 0.10295026 0.12919506 -0.18809208 0.008380739 0.076609954 0.06566967 -0.2665369
-0.16141975 0.012546705 0.09306298 -0.07792314 0.014951938 -0.14246413 -0.054375235 -0.016886463
0.11077616 -0.07460202 0.018500945 0.03149705 0.120201975 -0.18849431 0.0054371487 0.13296667
0.06106141 0.085344955 0.028084747 -0.05626771 0.053838924 0.019568473 0.10609661 0.17206883
-0.02445891 0.096182644 -0.063879915 -0.030302195 -0.057562944 0.10651158 -0.0044105127 -0.23825303
0.085893415 0.024589982 0.108710244 -0.058688518 -0.11386738 -0.0061359243 0.07207007 -0.10202622
0.17899515 0.1330459 -0.08125876 -0.09903158 -0.124135055 -0.028477386 0.022873394 0.09156816
0.19989541 -0.114032924 0.018629951 0.14692155 -0.16013865 0.03757143 0.13316166 -0.0911814
0.18535535 0.02439838 -0.18920891 0.020982023 -0.06687552 0.007660903 0.050647385 0.019395806
-0.06567582 -0.18570375 0.04683301 -0.027858363 -0.003794827 -0.10562217 0.08189097 -0.015775317
00000000: bbb5 02bd a544 57be 226b 43be 4043 6cbd
00000010: 1f3b 003d 03e5 a33c a501 873d b262 febc
00000020: 1631 a43d f332 443d 9d13 d9bd c863 06be
00000030: 028d d33d 450b a13d 8056 e2bd 19df 93bd
00000040: 5a5a 8dbd ad7a 9cbd 3033 743d 7793 46be
00000050: b24b 3ebd 5fd9 b8bd 5df3 7dbe 59bd 6abd
00000060: c3c1 0dbd 9b05 ec3d af41 3cbe 6cbf 9e3d
00000070: fe21 48bd 9f63 133c 2ef5 7f3d 6f75 48bd
00000080: 3bfa ff3c b52c e23c 2a80 0c3e 5c33 f93d
00000090: e7ce 4c3d 80de ffbd 261c 31bd f4e1 a33c
000000a0: 2098 963d 4a93 043e 9cde 0abe b0f1 69be
000000b0: 4dd1 29be 8978 cf3c 3a99 21bd 373a d53d
000000c0: 043e 5bbd fe96 883d 12e4 313d 655c 123c
000000d0: 2892 8ebd cd5b 8a3d fee1 d9bd 416d 10bd
000000e0: 0df8 af3c dd90 e2bc 3252 99bd 1155 e33c
000000f0: 8efd 13be f00a 1eba faaf 0dbe 74af 263c
00000100: 16cc 4dbe 5ff5 15bd be57 17be 5840 213e
00000110: 69e9 743d 990e 01bd d8f0 153e 57f7 503e
00000120: 0ddc 103e 5006 3d3d 0d76 e7bd 2d2f 2dbc
00000130: 0f86 c23d 1654 7d3a 4c74 023c efb8 2c3e
00000140: 1dd5 7f3d 47f4 e0bd 3a04 4b3d c630 bd39
00000150: 1e33 723d 1281 4cbc f699 1cbe 1c2c 153e
00000160: ab0c 2fbb 9d83 e83c 168c 2a3e c22f 0b3e
00000170: f090 323d 841a f33d 2749 1f3d 9686 a0bd
00000180: 395c dc3d 8dfe bf3d fe84 f9bc e18a 00be
00000190: 9756 f83c e668 5d3d a362 bcbc 1f62 d33d
000001a0: 4065 cf3d 6751 ce3d d5f6 913d 5749 de37
000001b0: 9107 ddbd 62ef e4bd b23b 523d 6172 b3bd
000001c0: 95d4 91be 07a2 24bd 8cb6 9d3d 23df 58bd
000001d0: b8e4 733c 158a cfbd 5926 c53c 62f2 143e
000001e0: 1e92 5b3d 5dcc febd 92bb 3bbb 01d2 15bc
000001f0: 30f4 ac3d d755 8abb 75da e7bb a349 ca3d
00000200: 194b 09bd c06d e8bd 8de5 3e3d 4036 f13c
00000210: 9cfb 9c3e 017c 0a3d 6691 833c c9e0 f13d
00000220: af5b 8bbc 2aeb e23b a409 583d 160b e7bd
00000230: 08f5 ba3c 9a9d dabd 96e1 1a3d 8f53 813d
00000240: 97b8 b33c ef89 59be de9d aebd 7254 55bd
00000250: 4c71 4abd 405d 33bd acad a53b 5198 a03d
00000260: 0c8f 873d 4cb3 1abe eb00 84bc ee3e 6f3d
00000270: 6872 c53c dd9f ed3d c985 2b3e a196 133d
00000280: d68c 4a3d e927 c33d 3a34 76bd c0f6 0d3e
00000290: 4100 833b 17c7 573d 35c8 043e d0d1 f53d
000002a0: e804 133d 6564 2c3d e9f5 f4bb 3687 9cbc
000002b0: 4227 303e 5158 ccbd 9f79 613d 77f6 143e
000002c0: 9cad 82be 96d7 d23d b64b 043e 369b 40be
000002d0: 5e4f 093c aee5 9c3d d27d 863d 8677 88be
000002e0: 384b 25be b290 4d3c ce97 be3d 2b96 9fbd
000002f0: f9f8 743c 1ee2 11be 91b8 5ebd 7b55 8abc
00000300: 9dde e23d f2c8 98bd 4b8f 973c 0d03 013d
00000310: 742c f63d a704 41be 1c2a b23b 6a28 083e
00000320: 871b 7a3d 56c9 ae3d fc11 e63c f878 66bd
00000330: 3486 5c3d 104e a03c 2e49 d93d d032 303e
00000340: 0d5e c8bc 68fb c43d 79d3 82bd 4f3c f8bc
00000350: 1fc7 6bbd be22 da3d 1086 90bb 9af8 73be
00000360: e3e8 af3d ee70 c93c 7aa3 de3d 5f63 70bd
00000370: 4d33 e9bd dd0f c9bb 7999 933d 1ff3 d0bd
00000380: 814a 373e 2f3d 083e fe6a a6bd 12d1 cabd
00000390: 853a febd 6849 e9bc fc60 bb3c 1688 bb3d
000003a0: 62b1 4c3e 188a e9bd d79d 983c 9a72 163e
000003b0: 63fb 23be 80e4 193d 885b 083e 50bd babd
000003c0: cbcd 3d3e 1ddf c73c fbbf 41be 7ee2 ab3c
000003d0: 08f6 88bd 5008 fb3b a273 4f3d f4e3 9e3c
000003e0: 0b81 86bd 2029 3ebe f8d3 3f3d 3937 e4bc
000003f0: a2b2 78bb 7050 d8bd 74b6 a73d 3d3b 81bc

b_play_cost_bin f4 [7]
-0.015835641 0.009594186 0.0116742365 0.011537132 -0.0053755734 -0.004917817 -0.0066765375
00000000: bfb9 81bc ef30 1d3c 4c45 3f3c 3d06 3d3c
00000010: 9425 b0bb a425 a1bb dbc6 dabb
