reports/ml/sweeps/seed_52/iter_001/factorized_model.npz (npz, 72196 bytes, 17 tensors)

W1 f4 [48, 192]
000000 b6 97 18 3e 2c e4 d4 bd 8c 75 f9 3d fc eb 94 bd
       0.14901623 -0.10395083 0.121806234 -0.07271573
000010 c8 0a 85 bd 18 a0 0c 3e 8c cb 88 bd 41 12 1e bd
       -0.06496197 0.13732946 -0.066794485 -0.038591627
000020 4d 1d d0 3d e4 e8 b5 be 50 98 84 3d 0b 44 9a 3d
       0.10161839 -0.35529244 0.06474364 0.075325094
000030 3d 30 35 be 6a 04 2f 3e 01 13 6b 3d 75 f2 7d bd
       -0.17694183 0.17091528 0.05739117 -0.061998803
000040 e7 5a 35 be 5a 1b 01 3d 8c 27 47 be c3 0f 99 be
       -0.17710458 0.031520225 -0.1944868 -0.29894838
000050 a6 ea f4 3d 71 99 a7 be c6 de 13 3f 5d 3c a7 bd
       0.11958818 -0.32734254 0.577618 -0.0816581
000060 0e 56 b7 bd 9d 08 38 3e 65 2e 9d 3e 04 90 a5 3e
       -0.089519605 0.17972036 0.3069946 0.32336438
000070 81 8f bb 3e 30 66 f5 3e 4e 8b db bd 6e de 7a 3f
       0.36632922 0.47929525 -0.1071993 0.9799565
000080 a5 d3 0d be df ee 21 be d7 a6 33 3e c4 41 6a bd
       -0.13850267 -0.15813778 0.17544113 -0.057191625
000090 01 d6 12 ba 5c b4 c8 be 63 db 20 3e 2a b2 00 be
       -0.0005601347 -0.39200103 0.1570869 -0.12567964
0000a0 e4 bd 7d 3e 5d 76 7b 3e 61 ba 89 3e af 55 03 be
       0.24779469 0.24556871 0.26900008 -0.12825654
0000b0 e4 27 45 be 81 18 32 bd 1d f6 a4 3e 3f 99 e5 3d
       -0.19253498 -0.0434804 0.3221902 0.1121087
0000c0 40 d6 5a 3d c0 ce 81 be d3 4a a4 3d 92 e9 4e be
       0.05342698 -0.2535305 0.08022084 -0.20206288
0000d0 c0 92 8f 3d e7 7d 1e be bb 72 b7 3e 7b 26 52 3e
       0.07010412 -0.15477715 0.3582972 0.20522492
0000e0 ad 7b de 3d 8c d9 18 be 88 9a 5c be c3 c1 a9 3d
       0.10863433 -0.14926738 -0.21543324 0.0828891
0000f0 cf 65 a7 3e 2c a9 9a 3d 83 98 8a bc 59 9c e5 3e
       0.3269486 0.07551798 -0.016918426 0.44845846
000100 b5 e1 74 3e 62 d6 81 be 0e c5 84 3d 73 2f 7e be
       0.23914225 -0.25358874 0.06482898 -0.24822788
000110 01 e3 7e 3e 72 3e 7e bd c4 6e ce be e7 05 99 3d
       0.24891283 -0.06207127 -0.40318882 0.07471829
000120 3c ba 89 3e 5e 16 dc 3e d6 46 9f bd 9d 11 35 bd
       0.26899898 0.42985815 -0.07777183 -0.04420625
000130 1c 9b db 3b aa e3 ab be fb 1f ab bd 19 49 ca 3e
       0.00670184 -0.3357213 -0.08355709 0.39508894
000140 6c 1f 7e 3e e6 e8 d1 3d e7 2b a7 be a0 58 25 3f
       0.24816674 0.102495 -0.32650682 0.64588356
000150 78 d0 e6 3e ba de 39 3d 47 0a 09 3f 47 4b 68 3e
       0.45080924 0.045378424 0.53531307 0.22684966
000160 0d d0 b8 bd 84 f2 de 3d 0f 42 b0 3e ec c4 0b bd
       -0.090240575 0.108861 0.344254 -0.034123346
000170 6f cc 82 3e 18 76 a3 3e a4 07 fd 3e dd 7c 24 3f
       0.25546595 0.31926036 0.49419892 0.64253026
000180 39 88 c2 b9 f2 de eb 3e 1f ba 83 be df b7 f1 3e
       -0.00037104057 0.4606853 -0.25727937 0.47210595
000190 af 43 d6 bd 36 e1 01 3e e0 2e 2a bd b6 a8 7f 3d
       -0.10462128 0.12683567 -0.04154861 0.062416755
0001a0 21 42 cd bd 8b 10 1a be d8 36 ae 3c 4d fe 2d be
       -0.10022379 -0.15045373 0.021266386 -0.1699154
0001b0 f5 c9 db 3e 03 27 91 be 4b 16 a6 bd 8e 6d cc 3d
       0.42927518 -0.28350076 -0.08109721 0.099818334
0001c0 28 33 b7 3e cb 50 89 3b fa 0f ac bd 50 75 82 bc
       0.35781217 0.0041905395 -0.08401485 -0.01592508
0001d0 b5 2c 3e 3d 1e 3b a0 be 0c 27 ff bc 8f 78 36 bd
       0.046429355 -0.31295103 -0.031146549 -0.044548567
0001e0 73 a3 ba 3e b7 de aa 3d 76 d6 9e 3b 67 c0 7e be
       0.36452827 0.08343261 0.004847343 -0.24878083
0001f0 e6 6d c5 be 43 c4 55 3e 16 02 0e be 41 6c 35 be
       -0.38560408 0.20875649 -0.13867983 -0.17717077
000200 21 c8 33 3c 22 8a 9a 3e 95 4a ab be f2 2b 77 3d
       0.010973007 0.30183512 -0.3345534 0.060344644
000210 5c 92 f3 bc 89 53 6d be be c5 bb be 81 9a a6 bc
       -0.029732876 -0.23176397 -0.36674303 -0.020337345
000220 45 83 64 3e c2 7c 0e be 42 ca 1b be 45 17 0b 3d
       0.223157 -0.13914779 -0.15213874 0.03395774
000230 83 f0 be 3d bc 28 02 3e bb 99 1d be 12 54 80 be
       0.09323218 0.12710851 -0.15390675 -0.2506414
000240 4f 03 16 3f 27 6c a4 3e 7b 46 45 3d ed 1f 11 be
       0.585988 0.32113764 0.04816292 -0.14172335
000250 1f 25 ca 3d 06 ed 93 3d 21 90 94 bd e3 ce 2c 3e
       0.098703615 0.07222943 -0.07254053 0.16875796
000260 b6 fb 4b be e2 d5 48 3f 27 d7 0c bd 4b bd 6c 3d
       -0.19920239 0.7845136 -0.034384873 0.05779771
000270 94 62 1f 3e 85 0f 1e 3f 67 ae ae 3d 20 02 3e 3e
       0.15564948 0.6174243 0.08529358 0.18555498
000280 51 90 5f ba c2 ca 4c 3e 63 c9 27 be 4f 9f 98 be
       -0.000852828 0.19999221 -0.16385417 -0.29809043
000290 72 f3 d0 bd 4c eb 1d 3f 1b 47 ac 3c 52 63 e2 3e
       -0.102026835 0.6168716 0.02103 0.442164
0002a0 90 a9 60 bd 04 84 46 3e a7 06 1c be ac 5f d2 3b
       -0.054849207 0.19386297 -0.15236913 0.0064200964
0002b0 70 d0 9e bc 45 4f 27 bd aa 04 ea 3c a0 d8 db 3d
       -0.0193865 -0.04084708 0.028566677 0.10734677
0002c0 6d 33 c1 bd 3f 75 44 bd b0 43 f9 3d c5 2d 10 be
       -0.09433637 -0.047963377 0.121711135 -0.1407996
0002d0 13 8d a1 be f9 7a b5 be 9d d6 e6 3c 89 ed b5 3b
       -0.31552944 -0.35445383 0.028178507 0.005551998
0002e0 e8 ad 02 3e ee 76 07 be 7a 29 3b 3d 91 c8 33 3e
       0.12761652 -0.13228962 0.045693852 0.17556979
0002f0 64 49 68 bb 9f 44 84 3c 6e 11 64 be fb 22 39 be
       -0.0035444135 0.016146002 -0.22272274 -0.1807975
000300 ab 33 f9 bb 7c 20 04 be ff 17 87 3d 5b f9 dc 3e
       -0.0076050363 -0.12903017 0.06596374 0.43158993
000310 ec cc 23 be 02 b6 05 3f 45 b3 5f bd b5 b9 89 3e
       -0.1599614 0.52230847 -0.054614324 0.26899496
000320 a4 0d 6c 3c 9d 07 8b 3d bd d1 26 3d 28 58 77 be
       0.014407549 0.067885615 0.040727366 -0.24154723
000330 67 e2 8f 3d 48 bb 2a 3e 3c 87 54 3e 1d 0a a2 be
       0.07025605 0.16673005 0.20754713 -0.3164834
000340 c7 dd 65 be bc fb d3 3d d7 24 b3 bc c1 4d 05 3e
       -0.22447883 0.10350749 -0.021868153 0.13017942
000350 b6 e3 cc 3c 61 af 69 3d 3d 65 ce be 5f 3a fc 3d
       0.025010925 0.05705202 -0.40311614 0.12315821
000360 6a ae 29 be db 43 07 3e ab 0e e7 be 7a 5c 7f bd
       -0.1657044 0.13209479 -0.45128378 -0.062344052
000370 96 cf cc bd 50 ff 58 3e 06 33 0a be a5 2e 88 bc
       -0.100005314 0.21191144 -0.13496026 -0.016623804
000380 a0 48 4d be 32 fe a5 bc f1 c8 24 be cb 13 83 3e
       -0.20047235 -0.020262811 -0.16092278 0.25601038
000390 87 4d 28 3e b0 2a 19 3f 6a 5c 21 be 60 52 93 be
       0.16435824 0.5983076 -0.1575791 -0.28773785
0003a0 36 f5 ed 3c 2c 6f 8a 3d 1b fd 61 3e c3 64 84 3e
       0.02904759 0.067594856 0.22069208 0.25858125
0003b0 ca 7a d9 be 6e 97 7c bd 9c f2 d8 3d 59 f7 2b be
       -0.42476493 -0.061667852 0.10593149 -0.16793574
0003c0 64 f8 fa be 54 44 0e 3e 58 96 ed bc 38 65 38 3e
       -0.49017632 0.13893253 -0.029002354 0.18007362
0003d0 94 58 30 3e 30 70 0e 3b 16 5c 59 3e e2 4e 1e 3e
       0.1722129 0.002173435 0.21226534 0.15459779
0003e0 bd c4 91 be 28 14 ba 3d ed 37 04 3e 75 d4 a5 3d
       -0.28470412 0.09085876 0.12911959 0.080971636
0003f0 0a d1 be be 29 55 8f 3d 08 5a 8d be e6 e1 54 3e
       -0.3726886 0.06998665 -0.2760775 0.20789298

b1 f4 [192]
000000 f5 85 55 3e ed 73 38 bb a0 ed 00 3e ed 30 ef bb
       0.20851882 -0.002814527 0.12590647 -0.0072995336
000010 fa 4e 93 bc 56 a9 bb 3e 4e 7d 1e bd 8b a9 32 bd
       -0.017981995 0.3665263 -0.03869372 -0.04361872
000020 4e 17 95 3e c0 0e 9c 3c a0 12 04 bc 25 dd 11 bc
       0.29119343 0.019050002 -0.008061081 -0.008902823
000030 08 ed 97 3e ff b6 a5 3e 9a 6a 52 bd 00 00 00 00
       0.29673028 0.32366177 -0.051371194 0.0
000040 94 46 89 3d 00 00 00 00 84 c0 b7 3b 71 7e fe bc
       0.06702915 0.0 0.0056076664 -0.031066151
000050 cb 54 9e 3b 43 a3 8f 3a 89 4d 22 3f 99 83 34 bd
       0.0048318855 0.001095869 0.6339956 -0.044070814
000060 a8 cd ce 3e b7 fe b9 3e 2c c8 9d 3e eb 72 be 3e
       0.40391278 0.36327145 0.30816782 0.3719705
000070 98 b7 0c 3e 43 06 ed 3e 6e f7 2a 3e 44 7e 33 3f
       0.1374191 0.4629384 0.1669595 0.7011454
000080 03 dc 66 bb 8f e7 3f 3c 0a db 73 3e bc a2 0c 3d
       -0.0035226352 0.011712923 0.23814026 0.034334883
000090 b3 9c 04 bc 30 b0 fa bb 2b 1b 0e 3c 32 3e 95 bc
       -0.008094001 -0.0076503977 0.00867347 -0.018218134
0000a0 a7 8a 30 bb b5 56 5e 3c 8a 72 f8 3e fd f4 81 ba
       -0.0026938112 0.013570477 0.48524886 -0.0009914931
0000b0 f4 ee 08 bc f8 94 26 3b 89 83 c1 3e 26 60 55 3e
       -0.008357752 0.0025418382 0.37795666 0.20837459
0000c0 b5 0b 8d 3e 10 e4 b4 3c bf 60 ab 3d a6 32 14 3e
       0.27547994 0.022081405 0.08368062 0.14472446
0000d0 2e f9 c3 bd 10 e2 0e 3d c8 1e 07 3f 33 e6 55 3e
       -0.09569012 0.03488356 0.52781343 0.20888595
0000e0 63 a7 02 3e 81 64 d3 ba bb 6b 43 bd 81 f7 99 bd
       0.12759165 -0.0016127975 -0.04771016 -0.07517911
0000f0 33 2f a2 3a 0d 7a d2 3d d1 fd 55 3e 9a 12 07 3f
       0.0012373686 0.102771856 0.20897605 0.5276276
000100 3b 58 89 3e 7a 53 de 3b 24 5f 9e bc 9c 23 3b 3c
       0.26825127 0.0067848535 -0.019332476 0.011422064
000110 49 18 5d 3c 47 5c 2f 3d df e3 8f bc c7 59 58 bc
       0.01349456 0.042812612 -0.017564712 -0.013204998
000120 ea f9 0a 3e 9c 2e 02 3b 00 00 00 00 26 ea 9b bd
       0.13571897 0.0019864207 0.0 -0.0761302
000130 43 88 19 bb 0d f9 00 3c c7 14 7e bd a4 f7 ea 3e
       -0.0023427166 0.007871878 -0.062031534 0.4589206
000140 b5 cb 90 3e 46 62 e5 3e da c4 3b bb d6 5d a0 3e
       0.28280416 0.4480154 -0.0028651268 0.3132159
000150 1b 84 be 3c 73 ab d2 39 49 2c 25 3f 38 82 11 3e
       0.023256352 0.0004018206 0.645207 0.14209831
000160 45 55 71 bb c1 e0 a8 3d 00 d7 12 3c a3 6b e1 bc
       -0.0036824506 0.082459934 0.008962393 -0.027517145
000170 64 fc 31 3d 69 b7 18 3e 40 0c 51 3e da d9 5f 3e
       0.04345359 0.14913715 0.20414829 0.21860448
000180 7e ff 6d 3c 20 ea 0c 3f c8 2e eb bc 21 05 5e 3e
       0.014526246 0.55044746 -0.02870883 0.21681644
000190 ab 9c cb 39 ce ca 61 3e de ec 12 3e b5 36 37 3d
       0.00038835904 0.2205002 0.1434817 0.044729907
0001a0 cd e6 ce ba f3 40 e4 3d e2 8b 86 3c 07 5e b9 3c
       -0.0015785337 0.111452006 0.016424123 0.022627844
0001b0 4f f3 9e 3e cb f0 23 bd 95 d8 ac bc 3a 6b 72 bc
       0.31045005 -0.04002456 -0.021099368 -0.014796073
0001c0 de 93 1b 3e a6 f2 8c 3e 00 00 00 00 b8 20 44 3d
       0.15193126 0.27528876 0.0 0.047882766
0001d0 5d 33 b6 3e 58 00 3a 3d 3f 2d 9e 3d 8a 2c f5 3b
       0.35586062 0.045410484 0.07723474 0.007482116
0001e0 0b b9 a1 bc d5 17 0c 3e d2 53 6f bc cb a5 06 3d
       -0.019741556 0.13680966 -0.014607387 0.032872956
0001f0 27 3e 2d bd 8d 30 a3 3b 00 00 00 00 00 00 00 00
       -0.0422956 0.004980153 0.0 0.0
000200 0a ef 80 bc 82 59 a2 3e 44 79 ec bc 89 e0 5d 3d
       -0.015738983 0.31708914 -0.028866418 0.05416921
000210 66 bc 20 3d 84 a0 a2 3a 00 00 00 00 a2 b9 22 3d
       0.03924217 0.0012407457 0.0 0.039727814
000220 da 2f 76 bd c1 72 a8 bc ca 3d ff 3d bd c3 f7 3c
       -0.06010423 -0.020562531 0.12462957 0.030244702
000230 6a 87 42 3e 40 ed 25 3d b7 07 1c 3a 86 01 9f 3c
       0.18996969 0.040509462 0.00059520773 0.019409906
000240 4c 80 08 3f 12 99 3f 3e fd d0 a7 3c 2a 2e db b8
       0.53320765 0.18710735 0.020485396 -0.000104513325
000250 be fa da bc b7 87 9d ba f4 68 45 3d ae 67 97 3e
       -0.026730891 -0.0012018596 0.048195794 0.2957129
000260 c0 da 4a bc 78 4a 48 3f 4e 21 8e bc a0 19 46 3e
       -0.012381256 0.7823863 -0.017349865 0.19345713
000270 33 77 d9 3b 97 e3 0f 3d 06 25 12 bc cf 30 9e bc
       0.006636524 0.035129156 -0.00891996 -0.019310383
000280 33 c6 05 3e 29 3b 82 bd 4f 7e 5c b8 d6 b3 f8 b8
       0.13063888 -0.0635894 -5.256972e-05 -0.000118590586
000290 6b ba 39 b8 01 89 12 3f bb 31 b2 ba 95 fd d9 3d
       -4.4281052e-05 0.572403 -0.0013595143 0.1064407
0002a0 a7 26 ee 3d 96 14 11 3c 0b 0b 98 3d 91 8e 14 b7
       0.11628466 0.008855006 0.07423981 -8.854681e-06
0002b0 98 1b 75 3e 50 69 cd 3d 13 a9 87 bc cc 8f a7 ba
       0.23936307 0.100298524 -0.016560113 -0.0012783944
0002c0 d4 6d ce 39 5f 14 e5 bc 3b 99 8b 3e 48 74 f4 3b
       0.0003937321 -0.027963815 0.27265343 0.007460151
0002d0 2b e2 8c 39 e7 b1 17 3d e0 8e 39 3e 1f 61 3b 3c
       0.0002687139 0.037034895 0.18120909 0.01143673
0002e0 2c 6d 24 3e 2f 69 f0 3d df 18 40 3e 81 08 d2 3c
       0.16057271 0.11738812 0.18759488 0.02563882
0002f0 a5 88 89 3c f3 70 8f 3c 00 00 00 00 09 09 2c 3d
       0.01678879 0.017509913 0.0 0.042000804

W_action_type f4 [192, 4]
000000 08 7c 7e 3e 78 51 ba bd c8 67 5f be 08 93 4b 3b
       0.24852002 -0.0909757 -0.21816933 0.003106298
000010 f9 60 94 bd 1e 44 cc bd 05 e3 87 bd c8 a3 64 bd
       -0.072450586 -0.0997393 -0.066350974 -0.055820256
000020 17 bf 79 bd 4d 8b aa 3d fe 69 80 3e 51 eb b8 bb
       -0.060973253 0.08327351 0.25080866 -0.0056432863
000030 bb 4d 27 be 51 aa f8 3c 26 8a 09 3e c8 42 eb bd
       -0.16338246 0.03035465 0.13431606 -0.11487347
000040 6f da ac 3d a9 ee fc bb a2 94 35 3d 48 88 29 3d
       0.084401004 -0.00771888 0.0443312 0.041389734
000050 4d 43 e6 3d 89 db 17 bd f4 52 79 3e a7 d7 a4 3d
       0.11243305 -0.0370746 0.2434805 0.08048945
000060 3d c2 8c 3d 8f bd b6 3d 4f 6d 09 be 81 3b bb bd
       0.068729855 0.08922874 -0.13420604 -0.09142209
000070 a5 c2 53 3d c7 7b d3 bd c1 24 63 3d 5c b4 48 3d
       0.0516993 -0.10326343 0.055454973 0.04900013
000080 b5 56 0c bd cb 5e b9 bc 4b b8 07 be 5f 8f 0d 3e
       -0.034262378 -0.022628209 -0.13253896 0.13824223
000090 a8 be 56 3c fa 33 b3 3d 99 90 2f 3d bf dc 5c 3d
       0.013106979 0.08750148 0.04286251 0.053921457
0000a0 93 1d 1e be 2d 73 04 3d dc a6 1f be df fb 1a 3d
       -0.15440969 0.032336403 -0.15590996 0.03783786
0000b0 fd b2 38 3d 85 3b 6e bd 81 ab 12 3e 82 35 5a bd
       0.04509257 -0.05816223 0.14323236 -0.053273685
0000c0 f7 8b 1d bd 64 ce 9d 3d 5b e8 e1 3d 18 fe aa 3d
       -0.03846356 0.077053815 0.110306464 0.08349246
0000d0 1d c7 9d bd 0f 5d 55 bd 58 4e 28 be 0d 02 88 3d
       -0.077039935 -0.0520907 -0.16436136 0.06641016
0000e0 c6 c2 8d 3d 92 d2 04 bc 5d 71 10 be b6 e6 cb 3c
       0.06921916 -0.0081068445 -0.14105745 0.024890285
0000f0 b4 f6 a1 3c 79 74 49 3e 73 01 97 3d 66 01 d8 bd
       0.019770958 0.19673337 0.07373323 -0.10547142
000100 70 e9 27 bd 8c fb b9 3d 0d 95 bc bc 9d 69 f8 bc
       -0.040994108 0.09081182 -0.023020292 -0.030323798
000110 fc 4f 41 bb 52 50 58 3e d0 50 32 3b f2 db 9c bd
       -0.0029497137 0.2112439 0.0027208813 -0.07659139
000120 b0 98 2f 3d a1 d8 da 3c 64 65 a1 3d e0 0d 35 bc
       0.042870224 0.026714625 0.07880667 -0.011050671
000130 8c ce 52 bc 55 db bf bc 1d 54 aa bd bd ae cb 3c
       -0.012866627 -0.023420015 -0.083168246 0.024863595
000140 47 d1 c8 bd 5f e7 05 be aa 90 f6 ba 1e 4b 10 3e
       -0.098055415 -0.13076542 -0.0018811424 0.14091155
000150 b8 db ca bd 4d f2 18 be 86 3c 05 be 75 5c fc 3c
       -0.09905189 -0.1493618 -0.13011369 0.030805806
000160 30 76 1a be 74 cf 62 3c ec 33 e1 3a 6c 06 7b 3d
       -0.15084147 0.013843406 0.0017181612 0.06128542
000170 1d 8b ce bc 8d 9d 12 3e 03 9b 95 3b 71 03 ca bd
       -0.025212819 0.14317913 0.004565598 -0.09863938
000180 fc 2c 3d bb 71 6e aa 3d a0 4e 69 3e d2 78 83 3d
       -0.0028865924 0.08321846 0.227839 0.06419529
000190 7e f9 19 3d 2c 17 85 3d e1 ff 54 bd 41 f6 ab 3d
       0.03759145 0.0649856 -0.052001838 0.083965786
0001a0 54 5b 17 be eb 4d 2a bd 75 c6 21 bd 01 e0 26 bd
       -0.14780933 -0.041578215 -0.039495904 -0.04074097
0001b0 47 23 bd 3c e8 bc b2 3d f8 3f ef 3d af 60 ff 3d
       0.02308811 0.08727437 0.11682123 0.12469613
0001c0 d4 c8 62 3c aa 00 20 3e d5 a3 2b be 7a c4 4d 3d
       0.0138418265 0.15625253 -0.16761716 0.050236203
0001d0 35 6f 28 3e b5 f5 99 bd c1 63 9b bc 33 2b c4 3d
       0.16448672 -0.07517568 -0.018968465 0.09578552
0001e0 9b c1 38 bd 35 7c 0e bd f8 d5 bc 3d 10 a3 d2 bc
       -0.04510651 -0.03478642 0.09220499 -0.02571252
0001f0 54 1e b8 3b 9b 12 f4 3c 16 83 04 3d 4e d1 27 be
       0.00561885 0.029794028 0.032351576 -0.16388437
000200 69 41 19 3e 7c cb aa bd 04 b8 89 3d d4 4c 8d 3d
       0.14966358 -0.08339593 0.06724551 0.068994194
000210 07 3d b0 3c 65 53 b2 3d 5c 9d 10 be ca 77 a3 3d
       0.021513475 0.087073125 -0.14122528 0.07981832
000220 e8 74 c7 3b 7d 92 83 bd 0c 0d cd 37 c2 74 45 3d
       0.0060869344 -0.06424425 2.444398e-05 0.048207052
000230 2b ac 2c 3d bb b9 33 3d 9b c3 f2 3c 64 0a db 3b
       0.04215638 0.0438783 0.029634288 0.0066845883
000240 26 97 2a 3d e2 8a 1f bc 83 27 e3 3d ad de ec 3d
       0.041648053 -0.009737702 0.11091521 0.115659095
000250 76 9d d0 3d 44 77 dc bd 8a a2 be 3d 06 4e 86 be
       0.10186283 -0.107649356 0.093083456 -0.26231402
000260 ed ce 44 3d f8 1d f3 3d 6a 27 fd bd 08 1d ac bc
       0.048048902 0.118709505 -0.12361033 -0.021009937
000270 0a 93 cc bd 79 64 71 bd 9e 58 8b 3c ea b4 cd 3c
       -0.09988983 -0.05893371 0.01701003 0.02511068
000280 7a bf fb bd d4 c0 08 3d 82 39 24 3d e2 1d c1 bd
       -0.12292381 0.03338702 0.040093906 -0.09429528
000290 02 c4 4d be b7 0b 2f bd 90 2e cb 3d f2 b0 b3 bc
       -0.20094302 -0.04273578 0.099209905 -0.02193496
0002a0 a3 18 b5 bc 1e 17 71 be 2d 43 c8 bd c0 80 b7 3d
       -0.022106474 -0.23543975 -0.09778438 0.08960104
0002b0 5d 48 74 bc f4 a4 4c 3d 36 59 65 3c 02 78 ed 3c
       -0.014909831 0.049962 0.01399832 0.028987888
0002c0 61 cc d4 bd dd f6 03 bd ac da 97 3a 62 e4 36 bd
       -0.10390545 -0.03221785 0.0011585555 -0.044651397
0002d0 bd db 0e 3c 42 c7 44 be 3d 14 84 3d d8 46 e6 bc
       0.008719382 -0.19216636 0.06449173 -0.028109953
0002e0 44 85 af 3d d2 b8 8e 3d d7 d3 a5 3d 93 6d f7 3d
       0.0857034 0.069688454 0.08097046 0.120814465
0002f0 f8 d3 a6 bd dc 29 ab 3d c7 bb 94 3b 80 cf 68 3d
       -0.081458986 0.083575934 0.0045389864 0.056838512
000300 12 58 99 3d 0d 31 73 bd 91 c9 92 3c b8 05 41 3d
       0.07487501 -0.05937295 0.01791838 0.047124594
000310 fa bf 3b be d0 a2 ab 3d 57 a1 0b be e7 1f cc bd
       -0.18334952 0.083806634 -0.13635765 -0.099670224
000320 c1 08 5c 3e 4a c0 1b 3d 05 e0 11 3e 38 b4 4d 3e
       0.21487714 0.038025178 0.14245613 0.20088279
000330 5d a8 b8 bb f2 9c 58 3e a1 9c 08 bd c7 d8 f9 bc
       -0.005635305 0.2115362 -0.033352498 -0.030498875
000340 73 9e 03 3e 3c 2e 05 bb 2c 3d 10 3d d0 51 d3 ba
       0.12853412 -0.0020321747 0.035214588 -0.0016122404
000350 53 b3 ff bd ab 7d ee bb d2 34 c5 3d 79 94 a9 3c
       -0.12485375 -0.0072781644 0.09629215 0.02070068
000360 ab 80 ac 3c 85 fc a0 bc c6 3d 8f 3d a5 d9 83 be
       0.021057447 -0.01965166 0.06994204 -0.25751987
000370 a5 da d9 bd 31 df 14 be 6f 78 8a bd b7 96 97 bd
       -0.10637406 -0.14538266 -0.06761252 -0.074017935
000380 ad 18 2d 3e fd 12 07 3a 75 07 64 bd 3c f6 04 3d
       0.16903944 0.0005152671 -0.055671174 0.03246139
000390 7a d3 0b be 91 56 1b be 04 ea 75 bc b4 86 1d 3d
       -0.1365489 -0.15169741 -0.015009407 0.03845854
0003a0 6f 08 ed 3d 75 c2 8e 3e 7a c0 33 bd 7a 7d 22 3c
       0.11573874 0.27882734 -0.04388473 0.009917611
0003b0 61 92 26 3e c2 d8 16 bc 5a 6f f5 3c 96 b8 63 bd
       0.16266777 -0.0092069525 0.029960323 -0.055595957
0003c0 bf 2c df 3c 33 da 14 be 8d 1f 7d be 8f d8 12 3e
       0.027243016 -0.14536361 -0.24719067 0.14340423
0003d0 eb 8b ca 3b a5 b4 31 3e d8 41 06 3e ba 26 37 bd
       0.0061812303 0.17354067 0.13111055 -0.044714667
0003e0 5c 51 13 be a4 6e 8c bd 2c 40 02 3e 0d 81 8f 3c
       -0.14386505 -0.068570405 0.12719792 0.01751759
0003f0 fe 7a 6c 3d 0c 8c 3c 3d e4 95 2b be 50 74 06 3d
       0.057734482 0.046031997 -0.16756397 0.032825768

b_action_type f4 [4]
000000 b8 be 68 ba ff d0 5b bb ea 57 88 bc ff 17 ab 3c
       -0.0008878517 -0.003354132 -0.016643483 0.020885466

W_play_habitat f4 [192, 4]
000000 14 1d 01 bc 49 17 a7 3d 57 4c 5f bd f5 b0 12 3d
       -0.007880468 0.08158738 -0.054516163 0.03581329
000010 35 9f 4c 3b ac 6f df bc 77 f5 83 3e 9a ee f4 3d
       0.0031222824 -0.027274929 0.25773212 0.11959572
000020 27 f2 f2 bc a0 fc 1c 3d a5 7c 07 3e 30 6e b2 bb
       -0.029656483 0.03832686 0.13231142 -0.0054452643
000030 ee f5 a7 3d 75 e5 62 3d 50 e0 d0 bb 6c de 05 3d
       0.08201204 0.05539461 -0.0063743964 0.03268282
000040 59 69 57 bd 22 9a dd bc 52 aa 19 3d f3 72 49 bd
       -0.0525907 -0.027051035 0.037515946 -0.04918189
000050 8b 06 a3 3c 04 68 59 bc 4e 2d 0d bc 20 31 62 be
       0.01990058 -0.013269428 -0.0086167585 -0.22089052
000060 19 18 1c 3e 78 c1 19 be 5c 4b 35 bd b2 c0 d5 3b
       0.15243568 -0.15015209 -0.04426132 0.006523215
000070 5e 34 b1 3d 97 30 68 3d 59 8a 67 3d b4 e5 63 bd
       0.086525664 0.056686964 0.056528423 -0.055638984
000080 f9 2d 5d bd aa 7a ed bd fc 3e 03 3e 39 a1 37 be
       -0.05399892 -0.11595662 0.12816995 -0.17932595
000090 5d 38 1b be f6 8f 0c bd 6e 08 c1 bd 1d b8 16 be
       -0.1515822 -0.03431698 -0.09425436 -0.14718671
0000a0 a9 aa 3e 3e 28 cf e6 bd fb 9a e0 bd 28 27 19 be
       0.18619789 -0.11269981 -0.1096706 -0.14956343
0000b0 5a f9 f2 3c eb 6f 11 be 91 ee 02 bd e7 08 93 3d
       0.029659916 -0.1420285 -0.031965796 0.07179432
0000c0 86 31 90 3d 9f ba cc 3d 46 f3 c2 3d 64 b8 ec bd
       0.07040696 0.09996533 0.09519057 -0.11558607
0000d0 8f 38 0c 3d 12 b8 26 3e 54 c0 6c 3d f5 05 cf bd
       0.034233626 0.16281155 0.057800606 -0.10108558
0000e0 29 2b 9b bd 53 1e 25 3d bb 91 87 3d 0c ff 9f 3d
       -0.075765915 0.040312123 0.06619593 0.07812318
0000f0 b9 ff 61 3e 48 3b 73 bd 03 32 23 be d7 ad 01 be
       0.22070207 -0.059382707 -0.15937047 -0.12663971
000100 7b 66 07 3e 35 05 d8 3d f9 89 08 bd de 4a 1c be
       0.13222687 0.10547868 -0.033334706 -0.15262935
000110 eb 48 00 3e d0 11 02 3d 8d f5 b6 3c 7f fe 30 be
       0.12527816 0.03175527 0.022333885 -0.17284583
000120 79 3e a1 3b 30 20 c0 bd e6 58 34 bd 71 fe 15 3e
       0.0049207774 -0.09381139 -0.044030093 0.14647843
000130 75 76 24 be de 58 4c bd 44 b0 29 3e e1 bc fa 3d
       -0.16060813 -0.049889438 0.16571146 0.12243057
000140 b0 bc ec bc c5 7a 05 be 19 76 17 3e 32 44 e1 bd
       -0.028898567 -0.13035114 0.14791144 -0.10999335
000150 08 b2 5e bd a3 be b2 3d bc 1e 17 3e 89 b3 30 bd
       -0.054369003 0.08727767 0.14757818 -0.043139968
000160 73 15 a2 bd f0 59 fc bd 87 f4 02 3d ab 99 c9 bd
       -0.07914247 -0.12321842 0.03197148 -0.09843763
000170 42 57 b0 3d 4f 27 c7 bd 24 70 14 bd 66 2e 50 bd
       0.08610393 -0.097242944 -0.036239758 -0.0508255
000180 17 0b 62 bb 1e 90 2e bd 24 fe 72 bd 56 11 35 3d
       -0.0034491473 -0.04261791 -0.0593244 0.044205986
000190 06 6e 71 3d 17 a2 96 3d 94 63 b0 3d f4 43 0a ba
       0.058942817 0.07355135 0.08612743 -0.0005274408
0001a0 2f 4b 90 3d 25 c7 49 3d fc 42 da 3d f6 8c c9 3b
       0.0704559 0.049262185 0.106573075 0.006150837
0001b0 3c 21 0c bd 8b a9 d6 3b 06 15 4e be 40 ec ed 3d
       -0.034211382 0.006550973 -0.20125207 0.11617327
0001c0 48 73 13 be 23 a1 07 3c e4 69 02 be f6 76 b2 39
       -0.14399445 0.008278164 -0.12735707 0.00034039438
0001d0 80 63 ab 3c be dc 10 be 5b 48 b2 3c f4 5d e8 3d
       0.020921469 -0.14146706 0.021763017 0.11346045
0001e0 60 2f 03 3d f1 57 ed bc 9d a6 2c 3e 34 af 0c 3d
       0.032027602 -0.028972598 0.16860433 0.034346774
0001f0 4d e7 15 bd 86 57 f8 bd 13 9a b8 bb 73 ac c1 3d
       -0.03659754 -0.12126069 -0.0056336015 0.0945672
000200 c3 79 0e bd 53 37 a7 bd 14 13 38 3c 27 3d b5 bd
       -0.03478409 -0.08164849 0.011235017 -0.088495545
000210 98 e8 b6 bc de 98 6f bd 0e 9d 36 3e 3d 2f 6d 3d
       -0.022327706 -0.058495395 0.17833349 0.057906378
000220 f0 53 00 be 2b 19 a1 3d 15 7f ac bd 70 30 7d bc
       -0.1253202 0.078661285 -0.084226765 -0.015453443
000230 d3 4a 98 3c d7 cf bd 3c 49 2d 1c be 39 9f c0 bb
       0.018590366 0.023170395 -0.1525165 -0.005878356
000240 2e cb 3c bc f8 5a 80 bd 92 77 16 3e be c6 10 bd
       -0.011523051 -0.06267351 0.1469405 -0.035345785
000250 fb 96 10 3d e1 0b 47 bb 1a 7f a3 bc e7 91 0a bb
       0.035300236 -0.003037207 -0.019958068 -0.0021144093
000260 a3 5f 72 3d 30 0e 7d bc a4 05 93 3c cd f7 b7 3c
       0.059173238 -0.015445277 0.017947026 0.022457028
000270 84 de 56 bd 1a 89 21 bd 6b 85 9e 3d 3e b3 88 3d
       -0.0524583 -0.03943739 0.07740291 0.06674813
000280 8b f8 46 be 54 4a 9d be 0b 37 1e be 40 32 a7 3d
       -0.19430749 -0.3072077 -0.15450685 0.08163881
000290 12 d3 d9 3d b4 ae 27 3e 05 0f 02 3e 50 5c de 3c
       0.106359616 0.16375238 0.12701042 0.027143627
0002a0 05 39 8c bd c5 ee 46 3d e3 97 db 3d 5e 53 36 3d
       -0.06846813 0.048567552 0.107223295 0.0445131
0002b0 00 eb 83 3c da 58 16 3d fc 86 a2 3b 92 10 38 3c
       0.016103268 0.03670583 0.004959939 0.011234419
0002c0 73 03 bd 3d 91 29 17 bd fc 64 93 3b 51 15 36 3d
       0.092291735 -0.036904875 0.0044981223 0.044453923
0002d0 2c 54 1c bd 8c 01 e6 bc 1b ee 4e 3d 99 1d 4b 3e
       -0.03816621 -0.02807691 0.050520044 0.1983551
0002e0 50 9b 6f 3e 5b eb 72 bd e9 25 e8 3d ca b5 09 be
       0.23399091 -0.059306484 0.11335356 -0.13448253
0002f0 86 cf e8 3b 49 22 e6 bd 91 76 8c 3d f3 4d 32 bd
       0.007104817 -0.11237008 0.06858552 -0.04353137
000300 f6 c0 01 be ec 66 b5 3b 94 64 cf 3c 4d 7b 5b bd
       -0.12671265 0.005535951 0.025316514 -0.053584386
000310 67 26 77 bd 40 86 45 3e ba fa f9 3d e6 cf 65 3e
       -0.060339358 0.19289494 0.122060254 0.22442588
000320 f8 4d ce bc a6 cb 0e be 52 ab 9f bd dd 0e 4b bd
       -0.025183663 -0.13944873 -0.07796349 -0.04957472
000330 03 7d 50 be 83 45 f6 bc 74 c5 fb bc 11 39 44 bd
       -0.20360188 -0.030062443 -0.030733801 -0.047905985
000340 78 75 e8 3d 70 41 7d 3d 4b 68 90 3d 8d 3c 78 3c
       0.113505304 0.061829984 0.07051142 0.015151155
000350 17 79 c9 bd 98 06 55 3d 76 29 84 be 35 73 ca 3d
       -0.09837549 0.05200824 -0.25812882 0.09885255
000360 69 8c d3 3d 7a 31 de 3d bd 0f 10 be 58 ad 6d bc
       0.103295155 0.10849281 -0.14068504 -0.01450666
000370 39 9e d8 3b 92 39 99 3c ea 0d f5 bd c6 66 82 3d
       0.0066106585 0.01870421 -0.119655445 0.06367259
000380 28 69 c4 bd 48 9b bb bd 19 56 30 3e d7 04 b3 3d
       -0.095903695 -0.09160477 0.17220344 0.087411575
000390 9d b1 bf 3d 12 73 63 bd c6 48 0b 3d 8f 67 85 bd
       0.09360049 -0.05552966 0.03400495 -0.06513893
0003a0 ad ff 4e bd 9b ad a6 3c 23 80 83 3d d7 d8 1a bd
       -0.0505368 0.020346453 0.064209245 -0.03780445
0003b0 a7 00 9d 3d c2 49 37 bc 57 a6 f3 3d 06 18 cd bd
       0.0766614 -0.011187019 0.11896961 -0.10014348
0003c0 cc 1f fa bd 04 7c 35 be f8 19 41 3c 4a 90 9d 3d
       -0.12213096 -0.1772309 0.011785977 0.076935366
0003d0 be 27 01 3d 23 db f2 3b 0d d8 b8 bb 04 8c d2 bb
       0.03153204 0.007411377 -0.0056409896 -0.0064253826
0003e0 58 93 5e 3e b8 3b e8 bc 22 9a a8 bd b7 37 06 bd
       0.21735895 -0.028348789 -0.082325235 -0.032767978
0003f0 fc 9a 5f bd fd 1e ff bd 88 2c ea 3d d1 85 db bc
       -0.054591164 -0.124570824 0.11434275 -0.026797207

b_play_habitat f4 [4]
000000 6d 8d 28 3c 9a 8e a2 bb a3 31 1e bb d2 e6 3e bb
       0.010287625 -0.004960847 -0.0024138473 -0.002912928

W_gain_food_primary f4 [192, 7]
000000 0b c9 30 3e 89 e3 a2 bb 2a cc 72 3e 07 e5 56 3c
       0.17264192 -0.004970972 0.23710695 0.013116128
000010 f6 70 54 3d e4 dd 69 bc ab 6b 8f 3c 84 5f 83 be
       0.05186554 -0.014274094 0.017507395 -0.2565881
000020 a6 f6 35 be c1 d5 74 bc 16 3b bd 3c df 89 b7 bc
       -0.1776987 -0.014943541 0.023099463 -0.02240461
000030 a9 e3 5f be fd f9 15 3d f0 07 d8 bc 20 1d 1c bc
       -0.21864189 0.03661536 -0.026370972 -0.009528428
000040 43 f9 87 bd 4b 6a e8 3d b7 65 32 3d 0b 24 32 3c
       -0.0663934 0.11348399 0.043554034 0.010872851
000050 88 70 6b 3d 8b 9f 7d 3e 91 b7 a2 bd 44 54 e3 bd
       0.057480365 0.24767892 -0.07945169 -0.11100057
000060 7c a2 a0 bd 88 53 dc 3d f2 14 8f 3e 61 31 82 3d
       -0.078434914 0.1075812 0.27945668 0.063570745
000070 62 2a 0a be 36 c0 c3 bd 53 cd 89 3c c8 32 cc ba
       -0.1349273 -0.09558146 0.016821539 -0.0015579099
000080 a4 dc 0f 3e 86 2b 2b 3d 54 00 06 3b f9 66 19 3e
       0.14049011 0.041789554 0.0020446973 0.14980687
000090 c7 a3 ea bd 21 d6 15 3a 89 5f a1 3d 2d 6b 5b 3d
       -0.11457019 0.00057158066 0.0787955 0.053569008
0000a0 40 0e 18 bb be c5 3a be 21 d8 c6 bd f4 f5 32 3e
       -0.0023201853 -0.18239495 -0.09709192 0.17476636
0000b0 12 15 be 3d 2a 12 e0 3d 2c 75 b0 3c 79 00 8a bd
       0.092813626 0.109409645 0.021540247 -0.067383714
0000c0 91 61 3f bd 16 0d 00 3e a8 48 1a be 26 a4 d0 bd
       -0.046723906 0.12504992 -0.15066779 -0.10187559
0000d0 6c 7c 86 bd 97 36 4e bc 41 9f 82 3e 42 61 5a 3d
       -0.065667 -0.012586257 0.25512126 0.05331541
0000e0 50 e3 e7 3d 34 0d 78 bd e6 4a e1 bd 2e f0 37 bb
       0.11322653 -0.060559466 -0.11000614 -0.0028066742
0000f0 db 8f b9 bd e8 e5 74 bd d6 61 ce bc 66 61 f0 bd
       -0.090606414 -0.05978957 -0.025193136 -0.11737327
000100 96 a7 77 bd 75 e0 be 3d a7 c3 8c 3d 42 b3 0f 3c
       -0.060462557 0.093201555 0.06873255 0.008770766
000110 90 e0 51 bc 8a 8a 10 bd 2a e7 bf 3a b7 01 cc bd
       -0.0128098875 -0.03528837 0.0014641036 -0.099612646
000120 fe 98 18 3e 25 84 a0 3d b6 ad 2a 3d 29 ca 4e bd
       0.14902112 0.078377046 0.04166957 -0.050485764
000130 06 a6 0a 3e a8 c0 99 3d e3 da aa bc d1 92 bc bd
       0.13539895 0.075074494 -0.020856326 -0.092076905
000140 a3 e7 1e bd 9d f0 8b 3d 8b 0d 27 be d9 8c e2 3d
       -0.038795125 0.06833003 -0.1631376 0.11062021
000150 23 96 a8 3a 77 7f 97 3d 68 98 64 3d be 8e 6d 3e
       0.0012862127 0.07397359 0.05580941 0.23198983
000160 e8 d3 12 bc 03 a3 08 3e a4 01 fb 3c 62 aa 3d 3d
       -0.008961655 0.13343434 0.03064043 0.046305068
000170 57 8e d7 3d 9c 57 10 be ed cc aa 3d 59 8f 41 bd
       0.10525196 -0.1409592 0.08339868 -0.047255848
000180 03 73 53 bd aa b9 f4 3c ee 64 38 be fe 78 80 bd
       -0.051623356 0.029873688 -0.18007252 -0.062730774
000190 c2 be 3f 3d 9f 48 22 be 7c 35 f9 3d a4 3b d2 3d
       0.04681278 -0.15848015 0.121684045 0.10265282
0001a0 57 06 05 bd b8 e2 0e bd 0b 5a cd bd 60 c5 dd bd
       -0.03247675 -0.034884185 -0.1002694 -0.10828662
0001b0 5a 77 c6 3d 56 ca 1b 3c 6e 6b 40 3d 0f 1f 3f 3e
       0.09690733 0.00950869 0.046977453 0.18664192
0001c0 49 33 9b bd 6d 7a 3a bc b2 8e 6c 3d 54 fc 1a 3d
       -0.07578141 -0.011381728 0.057753272 0.037838295
0001d0 4b a2 45 3c 45 4e 2a 3d d7 e4 77 3b 61 1a 7b 3d
       0.012062619 0.04157855 0.0037825608 0.061304454
0001e0 95 54 ff bd 75 1d c1 bd fc 62 7d bd ed 31 f4 bb
       -0.124673046 -0.094294466 -0.061861977 -0.0074522407
0001f0 fb aa 7b bc be 0c 6f 3c bc ce c7 3d 20 ad 48 bc
       -0.015360589 0.01459044 0.09756228 -0.0122483075
000200 5e 79 4f bd 3f 6c 2e bc ca a8 39 3e c5 31 a8 3d
       -0.050652854 -0.010645925 0.18130794 0.08212618
000210 27 aa 19 bd 8b ae 19 3e 6b d7 38 be 95 7c 4a 3e
       -0.037515786 0.15007989 -0.18050925 0.19774087
000220 af 5f 12 3d eb 04 9e bd d0 12 85 ba fe 65 a3 3d
       0.035735782 -0.07715782 -0.0010152701 0.07978438
000230 07 e4 57 bd d8 ce a4 bb 3d 7f 18 bd f0 39 d2 bc
       -0.0527077 -0.0050295405 -0.03723072 -0.025662392
000240 53 8c 13 3d 24 20 d8 3d 97 8d 8c 3d ba 1b 80 3d
       0.036022495 0.10553005 0.068629436 0.062552884
000250 41 ca 3c 3e 69 91 26 bd 51 e5 f3 3d 1a ad 34 3d
       0.18436529 -0.040666018 0.11908973 0.044110395
000260 8b f6 33 3e 75 a8 b4 3d a1 82 9a 3c a8 49 c2 bd
       0.17574517 0.08821193 0.018861117 -0.09486705
000270 21 91 84 bd 43 30 a0 3d 8d a2 25 be f1 d3 11 be
       -0.06472994 0.07821705 -0.1617529 -0.14241005
000280 7d cc d3 bd 96 93 a4 bd 7a 4c 0e be d6 4e 5f bd
       -0.103417374 -0.08035962 -0.13896361 -0.054518543
000290 c8 e2 ea 3d 90 0b a2 3d 8c 61 d8 bd e9 16 8d bc
       0.11469036 0.079123616 -0.105654806 -0.017222838
0002a0 14 59 89 3c 0b 80 ea 3c 57 2a 27 3c 50 43 c9 bc
       0.016766109 0.028625509 0.010202966 -0.02456823
0002b0 15 80 c8 bd d2 c7 3f 3d c3 9e 02 3e 35 76 bc 3d
       -0.09790055 0.046821423 0.12755875 0.09202234
0002c0 77 14 98 bd 4d af 0b bd c3 20 dd 3d ca 36 22 bc
       -0.07425778 -0.034102727 0.107972644 -0.009900758
0002d0 ef 06 4e 3d 53 12 f0 3d 4e a1 1c 3e 34 b6 0c 3e
       0.05029958 0.11722245 0.15295908 0.1374138
0002e0 ab bc 84 3d 9c 96 50 be 47 8e b9 bd 8d a2 bc 3c
       0.06481298 -0.20369953 -0.090603404 0.023026729
0002f0 f5 1f d1 3d 02 a6 36 3c 2b 1b 3e ba 93 be 0c bd
       0.102111734 0.011147978 -0.0007251973 -0.034361433
000300 1f d2 ae 3d 18 f1 60 bc e8 71 81 3c 8e 34 93 bd
       0.08536171 -0.013729356 0.015801385 -0.071877584
000310 c7 48 7a 3e b1 34 f3 3d 15 18 53 3d da 58 c5 3d
       0.24441825 0.118752845 0.05153664 0.09636088
000320 10 9b 35 bd d4 02 14 3d 30 37 f2 bd 67 2f a2 bd
       -0.044337332 0.03613551 -0.118269324 -0.079191975
000330 7d 97 1c be cd 31 bb bd e5 0d 93 ba 30 f6 20 3d
       -0.15292163 -0.09140358 -0.0011219351 0.039297283
000340 46 33 4c 3d 5f 59 25 3e b7 ab b1 bd bb 48 09 be
       0.049853586 0.16147374 -0.0867533 -0.1340665
000350 53 01 82 bd 85 2c 18 be 83 cc 00 be 7c f3 eb 3d
       -0.06347909 -0.14860733 -0.12578015 0.1152105
000360 39 ed e4 3d 18 c2 e4 3d e1 a6 90 bc 95 41 ea 3c
       0.11178059 0.11169833 -0.017657699 0.028595725
000370 32 ca 97 3d 9d 6e e5 3c 82 45 48 3e 49 e4 46 bd
       0.074116126 0.028006846 0.19557765 -0.048557553
000380 0d 57 aa 3d b7 37 b3 bd db 89 08 3e bb 3e d6 bd
       0.08317385 -0.08750861 0.13333838 -0.10461184
000390 b5 87 70 3e d9 ce 3b 3e 6d 13 ae 3d 71 78 8d 3d
       0.23489268 0.18340625 0.08499799 0.06907738
0003a0 ec a4 00 be 80 46 8a bc d1 b0 ba be 73 74 d5 bd
       -0.12562913 -0.01687932 -0.36463025 -0.104226016
0003b0 7a 69 1c 3d 61 73 0a bc 0c f5 bd bd 31 41 fe 3d
       0.038186528 -0.00845036 -0.092752546 0.12414778
0003c0 29 02 b1 bd 02 36 b4 ba 1a 27 32 3c 9e 42 d3 bd
       -0.0864299 -0.0013749006 0.01087358 -0.103154406
0003d0 66 17 13 bd bd 94 8f 3b 66 d6 a1 bc b7 82 e3 3a
       -0.035910986 0.0043817447 -0.019755553 0.0017357682
0003e0 63 8f b6 bd 6c 24 06 3d e2 0e a2 3d 0b be 15 3e
       -0.089140676 0.03274958 0.07912995 0.14623277
0003f0 25 0d bf bd 4c 63 f2 bc 16 40 fa bb 21 87 c8 3d
       -0.09328679 -0.029588364 -0.007637034 0.09791399

b_gain_food_primary f4 [7]
000000 70 c2 0c 3c 71 8b bb 3a 96 de 0e 3c 87 fb 74 bb
       0.008591279 0.0014308525 0.008720061 -0.0037381367
000010 2f b2 1e bc 8e 23 c1 3a 9d 8b de bb
       -0.009686037 0.0014735328 -0.0067915455

W_draw_mode f4 [192, 4]
000000 16 06 fe 3d b0 be 81 3d da ee 2d 3d 6f df de 3d
       0.124035046 0.06335199 0.042464115 0.1088246
000010 31 e0 ee 3c ce 77 a3 bd d0 7e c7 bd d8 90 91 bd
       0.029159637 -0.07981835 -0.097409844 -0.07107705
000020 86 3c 23 3e 38 fc d8 3c d6 38 4f bd 97 49 0a 3d
       0.15941057 0.026487455 -0.050591312 0.033761587
000030 a9 30 84 3e 8c 93 77 bd 70 6a 90 bc 20 7a 96 bd
       0.25818375 -0.060443446 -0.017628878 -0.07347512
000040 e5 fe cd bd 07 b5 a0 3d 5a d1 26 be 3e 1a 91 3c
       -0.10058383 0.07847028 -0.16290799 0.017712709
000050 18 8d bd 3d 89 42 88 be b4 0e f8 bc 35 de c0 3d
       0.09255427 -0.26613262 -0.030280448 0.09417383
000060 a8 96 d9 3d 31 3b 90 bd 71 c6 a5 3d 8e 59 43 bd
       0.106244385 -0.0704254 0.0809449 -0.047692828
000070 82 85 1c 3d e8 20 16 3e d1 1d 3b be 81 c7 14 3d
       0.03821326 0.1466099 -0.18273093 0.036323074
000080 27 da 3b bd 37 c3 30 3d 99 53 d1 3d bb a6 6e bd
       -0.045862343 0.04315492 0.10221023 -0.058264475
000090 37 09 11 3e 45 d5 3a 3e 90 d2 94 3d f1 87 52 3e
       0.14163671 0.18245418 0.07266724 0.2055967
0000a0 18 ab a7 bd 44 7c c1 3c c5 de 88 bd 14 9c 1c 3e
       -0.081869304 0.023618825 -0.06683115 0.15293914
0000b0 5c 16 fa bd eb 69 a1 3d a6 c4 01 bd f6 53 0d be
       -0.12211296 0.078815304 -0.03168168 -0.1380156
0000c0 91 32 48 bc cf 74 04 3e 51 5a 43 3d fe b3 13 3d
       -0.012219087 0.12935184 0.047693554 0.036060326
0000d0 b2 c9 42 bd 17 71 d0 3d cb ee 07 be b9 d3 53 3e
       -0.047555633 0.1017782 -0.13274686 0.20686235
0000e0 33 df e9 3c 3f c7 91 3c 42 65 9d bd 07 ce df bc
       0.028548812 0.017795203 -0.07685329 -0.027319921
0000f0 d3 9d 3a bd 7c 3b 20 bd c5 24 9d 3d 04 b3 0d be
       -0.04556067 -0.03911923 0.07673029 -0.1383782
000100 9a 5f 13 3d e2 e0 1e bd 46 01 b6 3d 69 fb ac 3d
       0.035979845 -0.038788684 0.08886962 0.0844639
000110 3d 25 01 3c 67 f8 f0 3c 70 62 96 bc db f8 2a bd
       0.007882413 0.029415322 -0.018357486 -0.041741233
000120 6e 2b 5f be 1d a4 02 be 00 c9 54 3d de eb 93 be
       -0.21793911 -0.12757917 0.0519495 -0.2889089
000130 56 0f cc 3d bc 1a 80 3d ad 7f d8 3d 96 0e 4a 3d
       0.099638626 0.06255099 0.10571227 0.049330316
000140 78 a6 21 3c 04 88 c5 3c ab 95 2e 3c 0c fd c2 3d
       0.009866349 0.024112709 0.010655801 0.09520921
000150 0a ac 74 3e 61 c1 c4 3d a4 d6 1d 3e 70 e2 ed 3d
       0.23893753 0.096071966 0.1541391 0.11615455
000160 d0 91 cf bd 09 36 4d 3e 14 a6 7f be 58 35 d3 bd
       -0.101352334 0.20040144 -0.24965698 -0.10312909
000170 b1 ec d6 3d bd 4e 18 be 2f 17 70 3c ab f8 a0 bd
       0.10494364 -0.14873786 0.014653965 -0.0785993
000180 bc f4 46 bd a8 d5 57 be 9e 5e 4e bd 10 06 2c bd
       -0.04857324 -0.21077597 -0.050383203 -0.04199797
000190 28 89 df b9 b6 2b 20 3e 8b b2 da bc 9a 27 74 bd
       -0.00042636064 0.15641674 -0.026696464 -0.05960808
0001a0 41 d1 a1 3d 00 42 db 3d 6d e3 37 be af fc 5a 3c
       0.0790124 0.10705948 -0.1795785 0.0133659085
0001b0 93 d2 85 bd 63 12 a5 bd a6 66 f7 bc 74 e3 aa bc
       -0.065343045 -0.080601476 -0.030200314 -0.020860411
0001c0 05 83 91 bd bb c4 e3 bc a5 63 fe 3d 3f aa a7 bd
       -0.07105068 -0.02780377 0.124213494 -0.08186769
0001d0 06 48 c1 bd c1 08 ee 3d 61 5c 88 3d 2e d2 40 3c
       -0.094375655 0.116227634 0.06658245 0.011768861
0001e0 f4 2e 3f bb 80 90 9e 3c 14 9f e3 3a 0a 73 2c bd
       -0.0029172273 0.019356012 0.0017366135 -0.042101897
0001f0 fe e7 35 3d 75 b8 f4 3b 2b 86 b7 bd 22 95 68 3d
       0.044410698 0.007468278 -0.089611374 0.05678285
000200 50 e6 ca 3d 25 25 aa ba 87 17 b8 bd d5 1c a4 3d
       0.0990721 -0.0012981041 -0.089888625 0.08013312
000210 c3 0a f5 3d 35 13 b0 bd d5 38 e2 3c 6c 93 51 bd
       0.11964943 -0.085974135 0.02761499 -0.051165983
000220 05 45 ec 3c 8c f2 d0 bd 25 90 d6 bd b7 be 7c 3e
       0.028841505 -0.10202512 -0.10476712 0.24682127
000230 d3 57 6f be b2 1b 20 bd ad ae f8 3b 13 a3 34 3e
       -0.23373346 -0.039088912 0.0075891824 0.17640333
000240 4f 73 b1 3d 2b 3e 42 3e 21 1d ab 3c b8 c7 97 3d
       0.086645715 0.18969028 0.020887913 0.0741114
000250 21 a1 7d be 54 fc 23 3d 90 c6 b0 3d 04 51 a0 3c
       -0.24768497 0.04003556 0.08631623 0.019569881
000260 93 51 f6 bd 9e 3f e7 3c 67 1b d8 bd 9e 30 3f be
       -0.12027278 0.028228577 -0.105521016 -0.1867089
000270 69 ec 29 bd 23 94 86 3d 45 66 a1 bd 09 44 f7 3d
       -0.041485224 0.065712236 -0.078808345 0.120735236
000280 38 e8 ba 3c a5 b4 2c be fd 2a 66 3d 07 bf c2 3d
       0.022815809 -0.16865785 0.05619334 0.09509092
000290 5e 7c 36 3e 58 c6 9b bd 8e e4 11 bd a3 35 28 bd
       0.1782088 -0.076061904 -0.035618357 -0.041066777
0002a0 90 17 83 bd fd f7 cd 3d 09 be 42 be 46 ae 04 bd
       -0.064009786 0.10057066 -0.19017805 -0.032392763
0002b0 38 14 22 bc 98 6f 9a 3b 44 be f2 bd 7a 5e 13 be
       -0.009892516 0.00471301 -0.118526965 -0.14391509
0002c0 20 c2 e7 bd da 42 00 be ef 1f 9b 3d e4 2d 52 bd
       -0.11316323 -0.12525502 0.0757445 -0.051313296
0002d0 63 60 e5 3d bf 8d 85 3c d3 ee 8c 39 a5 4c 6f 3d
       0.11200025 0.016302941 0.0002688082 0.058422703
0002e0 69 81 24 3e 1c d0 ef 3c 12 73 21 3d 8e 07 c3 bd
       0.16064991 0.029274039 0.03941638 -0.09522925
0002f0 bd fd f7 bc 20 88 94 bd cd 56 40 3e c0 39 9e bd
       -0.030272359 -0.07252526 0.18783112 -0.07725859
000300 14 ff 2d be 3b 94 35 3d 6b 51 02 3d e1 a2 bd bd
       -0.16991836 0.044330817 0.031815927 -0.09259582
000310 5a ce 3e 3d 9a ab 04 bc 04 d8 f8 bd 8d a4 65 3d
       0.04658351 -0.008097554 -0.12150577 0.05606513
000320 c7 41 07 3d 81 9c 2c bd 22 ff 03 3e ce 96 47 bd
       0.033021715 -0.04214144 0.12890294 -0.048727803
000330 8c ed e6 bc b9 e7 0f 3d 5f 0e e0 bd 6f 99 bc 3c
       -0.028189443 0.035133097 -0.10940241 0.023022382
000340 4b 0c 0f 3e 55 94 18 3d 94 47 a3 bd bf c2 92 3d
       0.13969533 0.037250835 -0.07972637 0.07166051
000350 93 91 21 be 6d 4d 36 bc 6b 66 38 be 96 82 0b be
       -0.15778188 -0.011126858 -0.1800782 -0.13624033
000360 05 41 07 be c4 49 14 bd d4 a4 80 bd 16 dd 8b 3d
       -0.13208397 -0.03620316 -0.062814385 0.06829278
000370 2e fb dd bd 1c f3 0b bd 7e 49 e7 3c 0a b4 8c 3d
       -0.10838924 -0.034167394 0.028233286 0.06870277
000380 0e 20 dc bd 98 d2 71 bc 9d f3 0a 3c 72 25 51 3d
       -0.107483014 -0.014759682 0.0084809335 0.0510611
000390 01 d7 5c bd ae 6a 00 3d 1c 30 25 3d a1 a3 06 3e
       -0.05391598 0.031351738 0.040329084 0.13148357
0003a0 75 19 33 3e 10 b5 19 be 5d 7b a3 bb 82 29 83 3e
       0.1749018 -0.15010476 -0.0049890713 0.25617605
0003b0 d4 0e 8b bc 0e 81 f4 bc d7 89 0d 3e 72 ef f9 bd
       -0.016974844 -0.029846694 0.13822113 -0.12203874
0003c0 7b 49 02 bc c1 7e 44 3d 7b 7f 8a 3c 71 c4 df bc
       -0.007952089 0.047972444 0.01690649 -0.02731535
0003d0 8d c7 2c bd 8e c8 2f 3e 4f dd 9e bc 40 46 40 3d
       -0.042182494 0.1716635 -0.019392638 0.046941996
0003e0 10 27 97 bd 8c 31 4d 3c f8 b3 4d be 1b 26 92 bd
       -0.073804975 0.01252402 -0.20088184 -0.07136174
0003f0 13 4f 40 bd 6d 71 5a bd 42 d7 d3 3d 05 d0 e0 bd
       -0.04695041 -0.053330828 0.103437915 -0.109771766

b_draw_mode f4 [4]
000000 9b 10 8a bb 01 b0 74 3c f3 d6 2d bb f1 31 04 bc
       -0.0042134053 0.014934541 -0.0026525825 -0.008068548

W_lay_eggs_bin f4 [192, 11]
000000 a9 98 48 bd 48 e0 c9 bd a5 46 ca bc 26 71 2a 3d
       -0.048973713 -0.098572314 -0.024691889 0.041611813
000010 20 ba 41 3e 12 5f 4d bb 6d 90 88 bd 75 68 b2 3d
       0.18918657 -0.0031337184 -0.06668172 0.0871133
000020 e3 1d 8d bd cd d1 b4 bb 91 f2 7e 3d 98 34 29 3e
       -0.06890466 -0.0055181743 0.062243048 0.16523969
000030 2a e3 b4 bd 70 67 df bd 39 cb 61 bd 27 86 f9 3d
       -0.088323906 -0.10908401 -0.05512545 0.12183791
000040 63 65 6c 39 b2 72 0c 3e 47 48 4f bc 01 a6 4c bd
       0.00022544483 0.13715628 -0.01265151 -0.049963
000050 a4 8c be bd 2e 56 f8 3d 59 75 4d bc c1 b9 11 bb
       -0.09304169 0.121258125 -0.012540185 -0.0022235962
000060 c4 cd 28 bd 0a b4 30 3c 4e e4 4c 3c 94 5b e4 bd
       -0.04121186 0.010785112 0.012505604 -0.1115028
000070 a3 66 58 3c c2 03 6d be cf c7 06 bd 6d ea db 3c
       0.013208064 -0.23145965 -0.032905396 0.026845181
000080 4f 1e 77 3d 42 b3 7b bc 10 3e e3 3d ce 52 63 bc
       0.06033164 -0.015362563 0.11095822 -0.013874723
000090 8b 16 0c 3e d6 20 e7 bd 64 d3 e9 3d 95 3a ca bc
       0.13680474 -0.1128556 0.11417273 -0.024686137
0000a0 85 e6 5f 3d fa a0 f6 bd c3 1e 79 bd d6 66 5e 3d
       0.0546632 -0.120424226 -0.060820352 0.05429729
0000b0 24 53 32 be f2 c6 3c bc 68 d2 07 3e 71 23 b8 bd
       -0.17414528 -0.011522042 0.13263857 -0.08991135
0000c0 18 e8 b3 3c 96 c1 27 3c 73 97 78 bd 66 f0 70 be
       0.021961257 0.010239026 -0.06069131 -0.23529205
0000d0 4a a6 02 3d 1e 7d 65 3d 73 27 f5 3c f6 db fb bb
       0.031896867 0.056027524 0.029926037 -0.0076861335
0000e0 f6 c4 0d be 80 43 54 3c 4f 9b e0 3c 75 2a 23 3d
       -0.13844666 0.012955546 0.027417807 0.039835412
0000f0 df 38 63 3d a2 33 5e 3e 60 e6 93 3d 42 c9 72 bd
       0.05547416 0.21699384 0.07221675 -0.059273966
000100 64 21 3a 3d 29 fd 66 3c a2 22 58 3d 9b 55 2c be
       0.045442 0.014098444 0.052767403 -0.16829531
000110 5e d4 8b 3c b8 7a c2 bd 04 0f d6 3c ef 48 22 3d
       0.017069038 -0.09496063 0.026130207 0.039620336
000120 2b 26 02 be bf 34 f6 3d 89 52 82 bc 4a 1b 1a 3d
       -0.12709872 0.12021779 -0.015908496 0.03762368
000130 e9 17 31 bc ae 15 a8 bd de 16 26 bd 83 3d bf bc
       -0.010808923 -0.0820726 -0.04054915 -0.02334476
000140 91 96 cf bd a0 3c e8 3b 9c 5e 09 3d 77 0b d7 bd
       -0.1013614 0.007087305 0.033537492 -0.105002336
000150 53 50 1d bd ac 42 f8 3d 8a 78 b6 3d 40 02 b1 3d
       -0.03840668 0.12122092 0.0890971 0.08643007
000160 4c 02 c4 bc aa e6 30 3d 60 85 b8 bd 86 ca 1c be
       -0.023926876 0.04318873 -0.09009814 -0.15311632
000170 cb 22 0a be 36 5e bc bd 53 64 7b 3d e2 4b a2 3d
       -0.13489835 -0.09197657 0.061374974 0.0792463
000180 da 57 82 bd 13 7f 90 3d 26 c0 bb bd 14 45 78 3e
       -0.063644126 0.070554875 -0.09167509 0.24245101
000190 26 13 61 be 70 65 95 bc 3e ee 96 3d 84 5f ec bc
       -0.21979961 -0.018236846 0.0736966 -0.02885414
0001a0 25 96 b1 bd a8 79 a3 3c cf 61 15 be d4 16 9b bc
       -0.08671216 0.019955471 -0.14588092 -0.018931784
0001b0 70 3c b0 3d 86 9b 30 be fe 35 2d bd dd 06 9e 3d
       0.086052775 -0.17246827 -0.04228782 0.07716153
0001c0 cd 2b ff 3c 00 18 59 bd ef 26 f9 ba e0 8b 32 be
       0.031148816 -0.053001404 -0.0019008795 -0.1743617
0001d0 f4 de 12 3e 18 10 09 3d 45 60 ce bd f1 53 d3 3b
       0.14342862 0.033462614 -0.10076956 0.0064492156
0001e0 3f 79 4a be 0e da 2d bd cc 8c dc 3d 3f 1d e2 bd
       -0.19772814 -0.04244428 0.107690424 -0.110407345
0001f0 66 c3 27 3e ea 8c d5 3d d6 49 bc 3d 1e eb 08 bd
       0.16383132 0.10427268 0.091937706 -0.03342735
000200 09 ee 39 3d 35 d8 f6 3d b1 03 aa bd b3 1a 20 3d
       0.045393024 0.12052957 -0.08301485 0.039087962
000210 3e b3 87 3c 08 61 8c bc 58 1b 2a ba a9 70 5a 3c
       0.016564962 -0.017136112 -0.000648906 0.013332524
000220 02 69 1e bc 0d 63 67 bd d5 67 40 3d 62 58 e2 3c
       -0.0096685905 -0.056490947 0.046974022 0.027630035
000230 f1 30 7d bd 03 44 4f 3e 59 f2 5f bc 98 71 80 bb
       -0.061814252 0.20240788 -0.01366862 -0.0039197914
000240 e1 41 aa bd 7e e8 d5 bc 53 53 e4 3d a7 59 91 bd
       -0.08313347 -0.026111837 0.11148705 -0.07097178
000250 76 05 6b bd 80 ff 1e bd 49 3b a2 3d 2e 0a fd 3c
       -0.057378255 -0.038817883 0.07921464 0.030888643
000260 31 92 93 bd 77 72 00 be af 10 1f bc c4 20 4f bd
       -0.07205618 -0.12543665 -0.0097085675 -0.050568357
000270 ff 8e 65 3d 7c e3 2e 3b 0f cd 75 3d 03 ca 3f bd
       0.056044575 0.0026685884 0.060010012 -0.046823513
000280 13 dd ac 3d 4b 42 f9 3d 7e d2 d0 3c 9c c5 f5 bb
       0.08440604 0.121708475 0.025490995 -0.0075003635
000290 81 8c 85 3d cb d2 5d bd 11 a1 12 be 2e 35 0c 3d
       0.065209396 -0.054156106 -0.14319254 0.034230404
0002a0 92 a4 08 3e 37 17 7c be ba 5f 53 3e 8d 75 2c be
       0.13344029 -0.24618231 0.20641986 -0.16841717
0002b0 33 37 fb 3d 37 cb de 3d d2 3d a9 3d cb 72 2e bd
       0.12266388 0.10878604 0.082637444 -0.042589944
0002c0 4a 64 64 3d ba a8 ae bd 21 de 04 3c 55 58 e9 3d
       0.055759706 -0.08528276 0.0081096 0.11393801
0002d0 f7 32 96 bd 60 f5 0c 3e 1c 8a 5b bd d7 d1 ed 3b
       -0.073339395 0.13765478 -0.05359851 0.007257681
0002e0 87 a4 b6 3d 0e 14 67 be 37 19 82 bd 43 2d 07 bc
       0.089181 -0.22566244 -0.063524656 -0.008250537
0002f0 61 66 ab 3d c6 ab 1d 3e 77 65 44 3b e1 04 55 3d
       0.083691366 0.15397558 0.0029967704 0.052006606
000300 b3 f8 cf 3d eb 1d 49 3e ec 7c db 3d dc ae 45 3e
       0.101548575 0.19640319 0.10717186 0.19304985
000310 ab cd 0a be 70 56 c9 3b 35 56 ea 3c 85 e4 2a 3e
       -0.13555019 0.0061443374 0.02860556 0.16688736
000320 ca 99 a9 3d 23 9a 04 3d 26 20 92 3d 00 e5 97 3d
       0.08281286 0.03237356 0.07135038 0.07416725
000330 6f a9 05 be 8c 26 48 be 5a a3 a0 3c ba 8e 92 bd
       -0.13052915 -0.19545954 0.019609142 -0.07156129
000340 69 1b b9 3d 8a af 3c 3e c0 a6 36 3e ad 6d 91 bd
       0.09038431 0.18426338 0.17837048 -0.07100997
000350 e7 c2 c5 bd 74 06 ed 3d 46 0b 88 bc 41 e3 9f bd
       -0.09656315 0.115734965 -0.016606938 -0.07807017
000360 60 9e d2 bd 89 97 87 3d e8 94 a5 bd eb d3 02 3e
       -0.10284114 0.066207 -0.08085042 0.12776153
000370 87 8b f4 3b 6d 5f 69 3c b3 0d 33 be 38 8c 06 be
       0.007462922 0.014243943 -0.17485695 -0.13139427
000380 72 80 4e bd 5f fe 47 3e 67 a3 c5 bc 66 87 ae bd
       -0.050415464 0.19530629 -0.024125768 -0.08521919
000390 c8 ed a8 bd 70 e9 da bc 49 4e d0 bc 2b a9 b7 bb
       -0.08248478 -0.02672264 -0.025427954 -0.005604883
0003a0 32 b0 6a 3e 07 fe b0 bd 8f 85 17 3e a3 e8 d9 3d
       0.22918776 -0.08642202 0.14797042 0.10640075
0003b0 42 7c 0f be b3 94 f0 3d 34 ad e0 3d 27 19 a2 3d
       -0.14012244 0.11747112 0.10970536 0.07914954
0003c0 da 96 37 bd 5f 79 de bd cb 19 d5 3c e0 4f fc bd
       -0.044821598 -0.108629934 0.026013276 -0.123199224
0003d0 f3 34 84 bc 19 8e 3b bc 59 f8 10 3d 73 7b 42 be
       -0.01613853 -0.011447453 0.035393093 -0.18992405
0003e0 ff 4d dc bd 3b 8a 95 bd f6 20 17 bd e1 c0 1c 3e
       -0.10757064 -0.07301756 -0.03689667 0.15307952
0003f0 f5 01 f2 3d 72 20 67 bd 8b 92 f2 bc 6f 5f ea 3c
       0.118167795 -0.056427427 -0.029610893 0.02860996

b_lay_eggs_bin f4 [11]
000000 22 ad 47 bc 15 85 5d 3a 58 ba d2 3c 09 11 37 3c
       -0.012187274 0.0008450312 0.025723621 0.011173495
000010 13 c0 37 bb d8 ec 04 bc f6 3d 16 bb c2 41 a5 bb
       -0.002803807 -0.008113109 -0.0022925115 -0.0050432393
000020 f5 fa ca b9 55 e0 ee ba 8d df a6 bb
       -0.0003871542 -0.0018224815 -0.0050925673
