reports/ml/sweeps/seed_54/iter_001/factorized_model.npz (npz, 72152 bytes, 17 tensors)

W1 f4 [48, 192]
0.21706423 -0.15736967 0.64120543 -0.29064038 0.21320103 0.121198066 0.3736202 0.09104494
0.47974703 0.120925225 -0.31813946 0.018628098 -0.22337583 0.20399511 -0.24118283 -0.08399834
-0.11493983 0.08770834 0.023004713 0.1588476 0.22523805 -0.09905391 0.037790056 0.21899305
-0.21825883 -0.2262327 -0.15428138 0.038264226 0.15241648 0.40645868 -0.047963355 0.07386134
0.46231645 -0.22844894 -0.17848949 -0.1067223 0.45138666 0.03850429 -0.18626964 0.16342211
-0.03520846 0.27816343 0.27487507 0.097439885 0.3120613 0.14182633 -0.12939028 0.094128914
0.5886667 0.38469887 0.04503711 -0.20525074 0.19840246 -0.027950235 0.13905117 -0.44185165
0.21303721 0.16361703 -0.14943838 0.0053714234 -0.36022586 0.46418512 -0.080209985 -0.0070548067
-0.11296898 0.07812842 -0.1879594 -0.47322991 0.05623635 0.2962157 0.42055187 0.019699877
-0.57248455 0.26955038 -0.048575282 0.07302877 -0.5069731 0.21755646 0.060558874 0.22624378
0.19100697 -0.14692448 0.339153 0.013750381 -0.18966596 0.0030396034 -0.13837007 -0.2264452
0.4096514 0.23373944 -0.08600412 -0.13107246 0.08416436 0.04421542 0.51566905 -0.17347571
-0.11621994 0.25426072 0.16053592 0.016485425 0.08949203 -0.31383717 0.165644 0.06971825
-0.029154383 -0.2150948 0.17565976 -0.102405265 0.11629359 0.0024722319 -0.24369234 -0.3148291
-0.38570526 0.15068595 0.07910883 -0.0144767575 0.594956 -0.14077285 0.5996917 -0.4906258
-0.21503147 0.00083713455 0.15695776 0.17441408 0.0024313154 0.088205636 -0.4111093 0.651535
0.2632707 -0.32595804 0.46245173 0.24336408 0.27654114 0.31811172 0.7194097 0.19235049
-0.1524098 0.29969412 -0.36084628 0.22260234 -0.30737495 0.23294528 0.33370352 -0.12626012
-0.09538237 0.17517594 0.12540808 0.54874647 -0.18742661 0.35227528 0.14749625 0.09691374
-0.07855589 0.5917628 0.21991076 0.020309975 -0.09558882 -0.0557338 0.10996685 0.40924892
-0.13480943 -0.12710536 -0.18927787 0.15873519 0.21247451 0.03905248 -0.2833973 -0.011863788
0.31614113 0.35702565 -0.08718787 0.45285016 0.49370384 -0.042750247 0.3112206 -0.30035838
0.18307157 0.03551212 0.24471512 0.413897 -0.5358534 -0.05300167 -0.2642212 0.015755925
0.359697 -0.022407157 -0.025914513 -0.027018435 -0.15439583 0.04636496 -0.06140003 -0.19366185
-0.01593924 0.2508153 -0.097721405 0.11467243 0.26202515 -0.077545084 -0.09572653 -0.07713659
-0.2174457 0.3013306 -0.48943567 0.16479434 0.16312309 -0.064729236 -0.5440041 -0.009223078
-0.2561864 0.13708228 -0.33207598 -0.29772446 0.03886942 -0.12962599 0.19171959 -0.11480864
-0.08426582 -0.24940658 0.09455255 -0.22553723 -0.113715366 0.20221476 0.011221728 -0.28014445
0.28936177 -0.07093337 -0.02642353 0.19373569 0.19237924 0.16620083 0.12582135 -0.17563544
-0.0010837244 -0.07421257 -0.19396141 0.27493295 0.18389055 -0.20915122 -0.0026042701 -0.16396816
-0.022622699 -0.30775774 0.2619174 0.27412584 0.11112086 -0.11447221 0.05195412 -0.030729983
-0.07431552 0.34534428 0.2183181 0.32671335 0.1448733 0.17474532 0.19180596 -0.31323388
00000000: 1646 5e3e 8425 21be 0a26 243f d1ce 94be
00000010: 5f51 5a3e b136 f83d 264b bf3e c575 ba3d
00000020: 67a1 f53e a5a7 f73d 2de3 a2be f499 983c
00000030: a2bc 64be 18e4 503e a2f8 76be 5207 acbd
00000040: 9365 ebbd 6ea0 b33d 6174 bc3c f2a8 223e
00000050: cea4 663e c7dc cabd bfc9 1a3d b73f 603e
00000060: 3e7f 5fbe 8ba9 67be f0fb 1dbe f3ba 1c3d
00000070: 1113 1c3e 5a1b d03e 3975 44bd 9d44 973d
00000080: beb4 ec3e 85ee 69be f3c5 36be 3991 dabd
00000090: 271c e73e adb6 1d3d 78bd 3ebe 2058 273e
000000a0: bf36 10bd 706b 8e3e 6dbc 8c3e 908e c73d
000000b0: 80c6 9f3e ec3a 113e e37e 04be a9c6 c03d
000000c0: dcb2 163f 40f7 c43e d578 383d 402d 52be
000000d0: 042a 4b3e e4f7 e4bc 6e63 0e3e 613a e2be
000000e0: 6d26 5a3e 398b 273e 6006 19be c402 b03b
000000f0: 866f b8be aca9 ed3e 2245 a4bd 022c e7bb
00000100: 485c e7bd cb01 a03d 6e78 40be 314b f2be
00000110: 1658 663d 96a9 973e 9352 d73e a361 a13c
00000120: 598e 12bf 8202 8a3e e0f6 46bd 1c90 953d
00000130: fdc8 01bf 1fc7 5e3e 950c 783d 73ac 673e
00000140: 5597 433e 5f73 16be 76a5 ad3e 4749 613c
00000150: cb37 42be 1534 473b e2b0 0dbe 40e1 67be
00000160: d4bd d13e 6459 6f3e ee22 b0bd dc37 06be
00000170: 5d5e ac3d 3a1b 353d e302 043f 9ea3 31be
00000180: b804 eebd 762e 823e 8763 243e 710c 873c
00000190: 9947 b73d 44af a0be 959e 293e 71c8 8e3d
000001a0: 2cd5 eebc d041 5cbe 27e0 333e dab9 d1bd
000001b0: 552b ee3d 2b05 223b 7c8a 79be 4831 a1be
000001c0: 297b c5be 6b4d 1a3e cf03 a23d ec2f 6dbc
000001d0: 094f 183f c226 10be 6585 193f 4e33 fbbe
000001e0: 3631 5cbe 2673 5b3a 89b9 203e 9b99 323e
000001f0: b456 1f3b 28a5 b43d eb7c d2be ffca 263f
00000200: 6bcb 863e f9e3 a6be 79c6 ec3e 6f34 793e
00000210: cd96 8d3e 8adf a23e 3c2b 383f 87f7 443e
00000220: 5111 1cbe 8271 993e d8c0 b8be def1 633e
00000230: 4060 9dbe 3589 6e3e 30db aa3e 554a 01be
00000240: d557 c3bd 5261 333e fa6a 003e a67a 0c3f
00000250: c3ec 3fbe 6d5d b43e 4209 173e b67a c63d
00000260: e9e1 a0bd c47d 173f 4930 613e 1b61 a63c
00000270: 12c4 c3bd 2049 64bd 4d36 e13d 1389 d13e
00000280: 7c0b 0abe e827 02be 0fd2 41be 7a8b 223e
00000290: eb92 593e 7ef5 1f3d 7319 91be 5560 42bc
000002a0: 40dd a13e 11cc b63e 8e8f b2bd fadb e73e
000002b0: c0c6 fc3e e21a 2fbd 4e58 9f3e 93c8 99be
000002c0: 1d77 3b3e 2875 113d 9a96 7a3e 4fea d33e
000002d0: b02d 09bf 4718 59bd 0048 87be 9212 813c
000002e0: 352a b83e 378f b7bc ac4a d4bc c455 ddbc
000002f0: f119 1ebe 2fe9 3d3d 997e 7bbd 4b4f 46be
00000300: 0293 82bc dd6a 803e 2922 c8bd 61d9 ea3d
00000310: 2928 863e f5cf 9ebd 450c c4bd caf9 9dbd
00000320: 16aa 5ebe 0148 9a3e 5097 fabe d9bf 283e
00000330: bd09 273e c390 84bd da43 0bbf 651c 17bc
00000340: dd2a 83be 4c5f 0c3e dd05 aabe 576f 98be
00000350: 8a35 1f3d adbc 04be 2452 443e cb20 ebbd
00000360: 8f93 acbd 7064 7fbe c4a4 c13d 3bf3 66be
00000370: 9ae3 e8bd 6311 4f3e 57db 373c 186f 8fbe
00000380: 3a27 943e 8445 91bd 2976 d8bc a662 463e
00000390: 10ff 443e 8d30 2a3e 50d7 003e c7d9 33be
000003a0: c20b 8eba c3fc 97bd d29d 46be 03c4 8c3e
000003b0: ce4d 3c3e bd2b 56be 67ac 2abb 45e7 27be
000003c0: 3d53 b9bc 6c92 9dbe 0a1a 863e 395a 8c3e
000003d0: 5593 e33d 6870 eabd d8cd 543d 72bd fbbc
000003e0: bc32 98bd f7d0 b03e c88e 5f3e f946 a73e
000003f0: ab59 143e 70f0 323e c868 443e 3160 a0be

b1 f4 [192]
0.3046269 0.012568169 0.31715435 0.0 0.23458366 0.041993868 0.33636057 -0.041736107
0.22133628 -0.055204123 -0.0012976653 -0.008333175 0.10884738 0.24779496 0.008943525 0.030885695
0.0006147633 0.27209452 0.012601216 -0.025664976 0.20846961 -0.00018883724 0.0 0.21562018
-0.000101063626 0.0 -0.045310218 -0.07710861 0.2816202 0.34844276 0.047968697 0.0013495036
0.27432996 0.010459189 0.0062535387 0.016257623 0.49976742 0.00040353436 3.1956533e-05 0.014018175
-0.0035180845 -0.009477761 0.04143477 0.002259694 0.21873666 0.04675572 0.012991728 0.19124657
0.48099318 0.25861079 -0.0058746287 0.01573413 0.18223529 0.014560033 0.00032898504 0.0021941825
-0.036017884 0.29803336 0.0009147698 0.23942983 -0.008639665 0.33484083 0.12259616 0.012343511
-0.037320424 0.103855565 0.015811779 0.006034215 0.17968355 0.086923376 0.20197043 -0.01833487
-0.019598648 0.018536525 -0.0053674695 -0.0012010469 0.0 -4.3176944e-05 0.18832596 0.08846668
0.15432252 -0.028283436 0.10467323 0.061525334 0.0882093 0.091147825 0.17159688 -0.015445816
0.41425937 0.12811564 0.006566995 0.010884534 0.22929807 -0.010566051 0.38465893 0.00054052385
0.0 0.17059332 -0.00863396 0.0026513396 0.091998205 0.011699526 -0.01653951 -0.043485086
-0.045033734 0.0030868112 0.00019654965 -0.0055481833 0.026576659 -0.026288185 -0.0460291 -0.038264707
0.03851697 0.2542366 -0.0031962518 0.052044343 0.39862922 0.011197491 0.4554412 -0.0024714496
0.027909392 0.15795183 0.02984594 -0.000121517514 -0.0061641163 0.005708173 0.03987194 0.5619783
0.14079693 0.00041789352 0.46784055 0.23309757 0.43436292 0.44325602 0.3247476 0.02622873
0.111157686 0.19151103 -0.018734492 0.008142968 0.050342944 0.21311483 -0.029590746 0.019022789
0.031384725 0.17675631 0.12673289 0.083049335 -0.0015028685 0.038064364 0.14044066 0.00016835467
-0.010112086 0.3188195 -2.6746518e-06 -0.015420753 0.3034269 0.12239234 0.054582473 0.3586358
-0.0073963394 0.007088393 0.21039952 0.009214857 0.43854257 0.06940598 0.043811318 -0.015149875
0.34538344 0.121401 0.010289438 0.21170871 0.3160491 -0.011302679 0.32966566 -0.00054264045
0.36695334 0.06882811 0.08709025 0.11335433 0.0 -0.0004925619 -0.026486024 0.0020708172
0.16455057 0.04702201 0.33906356 0.060857877 0.0 0.10048428 0.005318315 0.03135275
00000000: 0ff8 9b3e b9ea 4d3c 0e62 a23e 0000 0000
00000010: b336 703e c301 2c3d 7437 ac3e 7bf3 2abd
00000020: faa5 623e b81d 62bd 6c16 aaba df87 08bc
00000030: 60eb de3d f6bd 7d3e dd87 123c ff03 fd3c
00000040: 1128 213a f94f 8b3e 5575 4e3c 5b3f d2bc
00000050: 0f79 553e 9c02 46b9 0000 0000 89cb 5c3e
00000060: 1ff2 d3b8 0000 0000 3597 39bd 1eeb 9dbd
00000070: 8630 903e 1767 b23e d37a 443d d4e1 b03a
00000080: fa74 8c3e 055d 2b3c 7cea cc3b b52e 853c
00000090: 84e1 ff3e 7791 d339 1109 0638 7dac 653c
000000a0: aa8f 66bb 9c48 1bbc 81b7 293d 6017 143b
000000b0: 81fc 5f3e ed82 3f3d 42db 543c 24d6 433e
000000c0: bd44 f63e a268 843e f57f c0bb dde4 803c
000000d0: e39b 3a3e 348d 6e3c a07b ac39 46cc 0f3b
000000e0: 7d87 13bd d497 983e 29cd 6f3a 182d 753e
000000f0: 628d 0dbc 4270 ab3e b213 fb3d 703c 4a3c
00000100: 4ddd 18bd 3ab2 d43d b487 813c aaba c53b
00000110: f7fe 373e e204 b23d 56d1 4e3e 0233 96bc
00000120: 588d a0bc e9d9 973c 99e1 afbb 726c 9dba
00000130: 0000 0000 e418 35b8 85d8 403e 052e b53d
00000140: b906 1e3e aab2 e7bc eb5e d63d fd01 7c3d
00000150: 14a7 b43d b6ab ba3d 18b7 2f3e 7310 7dbc
00000160: ce19 d43e bf30 033e f22f d73b 0b55 323c
00000170: 1dcd 6a3e 3b1d 2dbc 04f2 c43e f1b1 0d3a
00000180: 0000 0000 04b0 2e3e 7475 0dbc 19c2 2d3b
00000190: 8e69 bc3d 5eaf 3f3c de7d 87bc 6b1d 32bd
000001a0: 4b75 38bd 194c 4a3b e518 4e39 89cd b5bb
000001b0: 4bb7 d93c 525a d7bc 0289 3cbd 74bb 1cbd
000001c0: f8c3 1d3d 4d2b 823e 3578 51bb 732c 553d
000001d0: 2119 cc3e ae75 373c 972f e93e 0bf8 21bb
000001e0: 3da2 e43c 20be 213e 797f f43c 38d7 feb8
000001f0: 5bfc c9bb a00b bb3b c250 233d cfdd 0f3f
00000200: 122d 103e b818 db39 cc88 ef3e 21b1 6e3e
00000210: d164 de3e 74f2 e23e 5145 a63e a2dd d63c
00000220: a4a6 e33d 781b 443e 1479 99bc 156a 053c
00000230: 6734 4e3d c63a 5a3e 4b68 f2bc aed5 9b3c
00000240: 458d 003d 9bff 343e 44c6 013e c515 aa3d
00000250: e6fb c4ba 61e9 1b3d adcf 0f3e 5d88 3039
00000260: 2aad 25bc 4f3c a33e 2b7e 33b6 53a7 7cbc
00000270: c55a 9b3e d6a8 fa3d df91 5f3d 1d9f b73e
00000280: fe5c f2bb c045 e83b f972 573e e9f9 163c
00000290: a788 e03e b924 8e3d 7f73 333d 2e37 78bc
000002a0: 19d6 b03e 16a1 f83d 0895 283c 2bca 583e
000002b0: 30d1 a13e df2e 39bc f0c9 a83e fc3f 0eba
000002c0: 4fe1 bb3e c1f5 8c3d 5f5c b23d 5126 e83d
000002d0: 0000 0000 451f 01ba 38f9 d8bc 8cb6 073b
000002e0: f27f 283e 279a 403d bd99 ad3e 1c46 793d
000002f0: 0000 0000 b4ca cd3d 4245 ae3b be6b 003d

W_action_type f4 [192, 4]
-0.10509188 -0.07014259 0.022767274 -0.08070219 -0.02366854 0.020870488 -0.12839924 -0.051039338
0.007472081 0.061780263 0.0844689 -0.10854406 0.028130857 -0.063150406 -0.041610487 0.12634045
-0.056445226 0.03655554 0.053797577 0.06068828 0.004497532 -0.032588363 -0.073637344 -0.1449406
0.02839725 0.067433745 0.080087356 -0.0076394677 0.05932315 0.046224125 0.078082874 0.03605784
0.041997638 0.040784262 -0.01832126 -0.017290205 0.048221868 -0.045274407 -0.28897652 0.08710216
-0.041954514 0.021406475 -0.13650185 0.036448825 -0.081905566 0.096035935 0.10404676 -0.04832327
0.020657819 0.20393123 -0.22168298 0.028664606 0.0051138285 -0.054478593 0.02204875 -0.030082088
0.02953968 0.03303966 -0.13680775 0.28250584 -0.003507821 0.061984774 0.22884181 0.028862247
0.0024800845 -0.019922217 -0.04587674 -0.0015677601 -0.011763387 -0.023910752 0.03450503 0.018279484
-0.10109251 -0.032249443 0.0116416635 -0.052447103 -0.06911517 -0.006616469 -0.06805058 0.13017887
-0.0012468342 -0.10542972 -0.17284232 0.123076305 0.07281004 0.014588483 0.031597562 -0.20273744
-0.2022233 -0.048039567 -0.06815595 -0.053132776 -0.10762273 -0.07895754 0.05385678 0.1414508
-0.0034560307 -0.16538073 -0.0035327203 -0.006390287 0.04768136 0.0003256646 -0.13540848 -0.069247596
-0.036824025 -0.006396744 -0.022193028 7.134936e-05 0.092626736 0.11431794 0.08705001 -0.085024156
-0.12892137 0.07139662 0.13979241 -0.061464943 -0.11828642 0.19397657 0.16812837 0.0021602367
0.081966296 0.023132294 -0.045062732 0.028232247 0.16787545 0.08735284 0.022957554 -0.009137173
-0.07384421 -0.015265589 0.18274271 0.13393185 -0.029408878 0.037624326 -0.06678886 0.08196837
-0.15160659 -0.09653897 0.0857373 0.0064386935 0.0687777 0.100969754 -0.14690131 0.033161275
0.1506547 -0.22862065 -0.039515875 0.07712537 0.15016833 -0.05972814 -0.13542145 0.16078559
-0.1674793 -0.07790402 0.018760083 -0.025278673 0.14037818 -0.03632349 -0.061553176 0.045711454
0.1374222 0.1681168 -0.06502363 -0.0259688 -0.06406495 -0.07693041 -0.1288888 0.12911735
-0.16417271 0.11544171 -0.021559538 -0.09806901 -0.005947489 -0.13469101 -0.092302166 0.05485559
0.07415836 0.1249364 -0.025555413 -0.039997436 -0.05472247 0.045012236 -0.06237103 0.09751725
0.20625846 0.16336408 0.023069978 0.03855928 0.07834907 -0.12215749 0.2547472 0.16532749
-0.24280229 -0.05923882 0.2178166 -0.09181855 -0.107677996 -0.0006003945 0.011225183 0.002753808
-0.07884952 -0.14002097 0.09921195 0.013681736 -0.038908325 0.34364328 -0.08570213 0.17353259
0.094634436 -0.07607047 -0.013170848 0.046374697 -0.08440509 -0.044958986 -0.07232027 0.15636559
-0.07050936 0.10493327 0.13479011 -0.15928286 -0.09531471 -0.02343897 -0.1025142 -0.006576439
-0.006302551 0.04645126 0.066312715 -0.01231551 0.19407046 -0.05703583 0.039080016 -0.055556864
-0.10514848 0.11273147 -0.06378579 -0.060289793 0.0011316452 -0.02310026 0.03487856 0.045700338
-0.25382558 -0.026116446 0.06834444 0.087820284 -0.083759405 0.1234028 -0.028225616 -0.019132014
-0.05555447 0.07038781 -0.07653517 0.09607689 0.10741256 0.018832587 -0.051475864 -0.13191506
00000000: 693a d7bd eba6 8fbd 6f82 ba3c 3147 a5bd
00000010: 87e4 c1bc 96f8 aa3c 177b 03be a00e 51bd
00000020: 5cd8 f43b 4d0d 7d3d 08fe ac3d 594c debd
00000030: af72 e63c 0055 81bd c26f 2abd 645f 013e
00000040: 1c33 67bd 43bb 153d d95a 5c3d 4694 783d
00000050: 0860 933b 607b 05bd 2dcf 96bd 4f6b 14be
00000060: 5aa1 e83c b41a 8a3d d704 a43d 8054 fabb
00000070: d5fc 723d 8255 3d3d eae9 9f3d 63b1 133d
00000080: b705 2c3d 660d 273d 7816 96bc 30a4 8dbc
00000090: 4b84 453d a871 39bd bbf4 93be 9e62 b23d
000000a0: 7fd8 2bbd a25c af3c 24c7 0bbe 5d4b 153d
000000b0: 1bbe a7bd 7dae c43d 7816 d53d 9fee 45bd
000000c0: 963a a93c 59d3 503e dd00 63be 09d2 ea3c
000000d0: e791 a73b f224 5fbd 959f b43c b66e f6bc
000000e0: 33fd f13c 9854 073d 5517 0cbe 9ba4 903e
000000f0: 78e3 65bb bfe3 7d3d 8255 6a3e 8570 ec3c
00000100: ea88 223b eb33 a3bc 40e9 3bbd 4d7d cdba
00000110: 39bb 40bc 7be0 c3bc 2555 0d3d dbbe 953c
00000120: 9709 cfbd fe17 04bd adbc 3e3c c6d2 56bd
00000130: 418c 8dbd f7ce d8bb 1a5e 8bbd 9c4d 053e
00000140: d06c a3ba 89eb d7bd 94fd 30be 6e0f fc3d
00000150: 6e1d 953d 8804 6f3c 726c 013d 679a 4fbe
00000160: a013 4fbe 23c5 44bd 5995 8bbd c1a1 59bd
00000170: 4e69 dcbd 7eb4 a1bd ed98 5c3d 7ad8 103e
00000180: 937e 62bb 9159 29be 3685 67bb 9d65 d1bb
00000190: 884d 433d f6bd aa39 85a8 0abe afd1 8dbd
000001a0: cad4 16bd c79b d1bb 27ce b5bc 65a1 9538
000001b0: 16b3 bd3d 861f ea3d 4747 b23d 2521 aebd
000001c0: f703 04be 6438 923d be25 0f3e aac2 7bbd
000001d0: 2740 f2bd cba1 463e d829 2c3e c292 0d3b
000001e0: f2dd a73d f07f bd3c b393 38bd 5047 e73c
000001f0: 8be7 2b3e 0ce6 b23d 7b11 bc3c 15b4 15bc
00000200: a23b 97bd 851c 7abc e820 3b3e 6e25 093e
00000210: e3ea f0bc f71b 1a3d 99c8 88bd 08df a73d
00000220: c23e 1bbe 39b6 c5bd 0a97 af3d adfb d23b
00000230: 53db 8c3d 3bc9 ce3d 4c6d 16be 1ed4 073d
00000240: 3a45 1a3e 881b 6abe 66db 21bd e8f3 9d3d
00000250: bac5 193e 7ea5 74bd ecab 0abe faa4 243e
00000260: b27f 2bbe 258c 9fbd bfae 993c 3815 cfbc
00000270: 4cbf 0f3e f1c7 14bd 2f1f 7cbd ef3b 3b3d
00000280: 68b8 0c3e cf26 2c3e 1c2b 85bd 85bc d4bc
00000290: 7c34 83bd b18d 9dbd 6dfb 03be 5737 043e
000002a0: e41c 28be b46c ec3d a19d b0bc 68d8 c8bd
000002b0: 27e3 c2bb 71ec 09be eb08 bdbd 41b0 603d
000002c0: 57e0 973d a8de ff3d 9659 d1bc 5ad4 23bd
000002d0: ab24 60bd c05e 383d c478 7fbd 20b7 c73d
000002e0: 6b35 533e ea48 273e 40fd bc3c 56f0 1d3d
000002f0: 7a75 a03d b52d fabd 3a6e 823e 9c4b 293e
00000300: 2aa1 78be 68a4 72bd 510b 5f3e 5d0b bcbd
00000310: 4886 dcbd cb63 1dba d4e9 373c 3b79 343b
00000320: db7b a1bd a861 0fbe a32f cb3d 5c29 603c
00000330: 565e 1fbd 03f2 af3e 9984 afbd 87b2 313e
00000340: b3cf c13d d6ca 9bbd 8aca 57bc 65f3 3d3d
00000350: 93dc acbd ea26 38bd a61c 94bd 4d1e 203e
00000360: 3667 90bd 41e7 d63d 6b06 0a3e 0c1b 23be
00000370: 5c34 c3bd 1503 c0bc f7f2 d1bd 2b7f d7bb
00000380: a185 cebb ad43 3e3d f6ce 873d fec6 49bc
00000390: 68ba 463e 679e 69bd 5e12 203d 988f 63bd
000003a0: 1658 d7bd c2df e63d 20a2 82bd 6ef2 76bd
000003b0: b653 943a c23c bdbc d2dc 0e3d 4730 3b3d
000003c0: 6df5 81be 28f2 d5bc 2bf8 8b3d 1fdb b33d
000003d0: 0d8a abbd 9bba fc3d 6839 e7bc beba 9cbc
000003e0: 158d 63bd 7c27 903d 79be 9cbd f6c3 c43d
000003f0: 1efb db3d cc46 9a3c 5bd8 52bd be14 07be

b_action_type f4 [4]
-0.012442925 -0.008168295 0.008352453 0.012258782
00000000: 69dd 4bbc 50d4 05bc bad8 083c 0fd9 483c

W_play_habitat f4 [192, 4]
0.011220959 -0.10609519 -0.06643567 0.13277853 -0.011152842 0.09078104 0.09384133 0.015843026
0.07746798 -0.21173082 -0.15483402 -0.09275402 -0.121867076 0.060811374 -0.07430872 0.08919639
0.047668904 0.026529422 -0.018617824 0.029375732 -0.10176541 0.07007378 -0.09207815 -0.13633585
0.008659462 -0.03928925 -0.061580114 0.0503211 -0.037628707 0.058179326 -0.13499038 0.13081597
-0.105379894 0.08218974 0.036554668 -0.06465871 -0.11597406 -0.049516987 0.21125162 -0.015420922
0.022882257 0.020690698 -0.04201757 -0.02249327 -0.03597341 -0.033817682 0.11394594 0.12968168
-0.023321878 -0.09707589 -0.032546144 0.07596196 -0.057465762 0.20508961 -0.045845013 -0.07880084
0.13368274 0.17558286 0.044107087 0.03461117 0.05970119 0.07193286 0.030343877 -0.16074763
-0.042522855 -0.17292531 -0.13435514 -0.07419288 -0.16171587 -0.1527246 -0.15791547 0.014727329
0.038552053 0.13302141 0.054694165 0.009196659 0.08353353 -0.10789156 0.065429054 -0.008874455
-0.01598582 0.003341315 -0.051813673 0.05957225 -0.08428717 -0.061128296 -0.12643823 0.060034383
0.023447081 0.13353886 -0.02144146 -0.18529934 0.05978563 -0.14426854 -0.16946037 -0.21025656
0.07736843 -0.019422118 -0.046325836 -0.043454476 -0.07300955 -0.0012014181 0.02673892 0.111195855
0.057540655 -0.14960457 0.029913012 -0.02038867 -0.10847293 0.06987145 -0.012741558 -0.0036886863
0.016072283 -0.09210759 -0.10998662 -0.05782309 0.07202101 0.14284304 -0.0024427555 -0.038363148
-0.07515188 0.07885311 -0.20945212 -0.10390706 0.20379747 0.07660563 -0.22832249 -0.025239855
-0.025370307 -0.051307384 0.017416062 0.078408465 0.16080348 -0.07916471 0.24148786 -0.041327126
-0.107612915 0.056261294 0.016430482 -0.1354983 -0.057103846 -0.21642335 0.030134154 0.017178731
0.253175 0.020990083 0.1511166 -0.026208596 0.019929823 0.09542056 0.013230874 0.037092887
0.011335523 2.8142746e-05 0.097485416 -0.25758126 0.047840465 0.0923662 0.093331344 -0.09024096
0.24025162 0.05048902 0.055614658 -0.057194557 0.124035895 0.10378685 -0.16700804 -0.07892329
0.120813675 0.03820455 -0.103164345 -0.069443375 -0.08462448 -0.06525691 0.17841965 0.047208615
-0.11024208 -0.21099739 -0.065107234 -0.1084258 0.061626673 -0.09616768 -0.046952013 0.04688311
-0.0575035 0.0051473053 0.056002602 -0.033312503 -0.023108354 0.010949426 0.111588 -0.1384994
-0.13191932 -0.06109662 0.091752425 0.030207044 0.008430256 0.13105828 -0.0036772266 -0.12325544
-0.17241266 -0.07433836 0.063821204 -0.00877083 -0.21527714 -0.13268334 0.046097778 -0.042318013
-0.03614134 -0.16134521 -0.01608297 -0.10058174 -0.13879232 0.047944117 0.17104173 0.088570535
0.069249086 -0.019737933 -0.13986215 0.2227793 0.09274879 -0.21980034 -0.20456654 -0.0010608379
-0.12825574 -0.0015823583 -0.01751488 -0.10730544 -0.11839542 0.1755927 0.013227629 0.1559761
0.03524004 0.018735114 -0.022099871 -0.0053595444 -0.048509154 -0.16039333 -0.107938685 -0.096328765
-0.013832626 -0.014046934 -0.07556234 -0.031171724 -0.003956816 0.03204411 0.10694751 0.02443068
-0.106017575 -0.10751429 0.010114066 -0.09085842 0.071872756 0.16807854 -0.039238293 -0.0666227
00000000: 1dd8 373c 6f48 d9bd 6d0f 88bd 18f7 073e
00000010: 69ba 36bc 69eb b93d e22f c03d 3cc9 813c
00000020: 88a7 9e3d f7cf 58be cf8c 1ebe d2f5 bdbd
00000030: 7295 f9bd 5915 793d 2c2f 98bd 99ac b63d
00000040: 7840 433d 3b54 d93c 6884 98bc 60a5 f03c
00000050: 626a d0bd d882 8f3d 7893 bcbd a09b 0bbe
00000060: 6be0 0d3c c4ed 20bd 6e3b 7cbd 7f1d 4e3d
00000070: 8f20 1abd 724d 6e3d eb3a 0abe 9ff4 053e
00000080: 6ad1 d7bd 1853 a83d 59ba 153d c96b 84bd
00000090: cf83 edbd 53d2 4abd 5852 583e 09a8 7cbc
000000a0: 9273 bb3c 8a7f a93c 9e1a 2cbd ce43 b8bc
000000b0: db58 13bd 6984 0abd 7d5c e93d 46cb 043e
000000c0: 860d bfbc b9cf c6bd 1b4f 05bd f291 9b3d
000000d0: 3861 6bbd 0303 523e fbc7 3bbd 5662 a1bd
000000e0: 21e4 083e fecb 333e a2a9 343d 71c4 0d3d
000000f0: 3c89 743d 8951 933d b993 f83c 079b 24be
00000100: 722c 2ebd 5513 31be 6594 09be 70f2 97bd
00000110: d898 25be d663 1cbe 98b4 21be e54a 713c
00000120: c2e8 1d3d c436 083e fd06 603d 95ad 163c
00000130: a113 ab3d 40f6 dcbd abff 853d 2966 11bc
00000140: b2f4 82bc f7f9 5a3b 933a 54bd 0802 743d
00000150: c09e acbd aa61 7abd 0679 01be 9de6 753d
00000160: 1814 c03c 69be 083e 00a6 afbc 1cbf 3dbe
00000170: c7e1 743d 22bb 13be 0587 2dbe 7f4d 57be
00000180: 5773 9e3d 221b 9fbc 29c0 3dbd 52fd 31bd
00000190: 0886 95bd e778 9dba 940b db3c a7ba e33d
000001a0: c0af 6b3d f131 19be 220c f53c 2406 a7bc
000001b0: 0e27 debd c318 8f3d f8c1 50bc e3bd 71bb
000001c0: 05aa 833c e7a2 bcbd aa40 e1bd e8d7 6cbd
000001d0: c07f 933d 7245 123e a316 20bb ad22 1dbd
000001e0: 3be9 99bd bd7d a13d 9e7a 56be 3acd d4bd
000001f0: 49b0 503e 6ae3 9c3d 5fcd 69be d0c3 cebc
00000200: 64d5 cfbc b127 52bd 21ac 8e3c 9e94 a03d
00000210: aba9 243e 1c21 a2bd 9848 773e a246 29bd
00000220: 2964 dcbd 3e72 663d 3899 863c 11c0 0abe
00000230: b9e5 69bd 159e 5dbe e7db f63c 69ba 8c3c
00000240: 27a0 813e 65f3 ab3c 4fbe 1a3e 69b3 d6bc
00000250: de43 a33c db6b c33d 4fc6 583c b6ee 173d
00000260: a1b8 393c 1614 ec37 6fa6 c73d b1e1 83be
00000270: 5df4 433d 7e2a bd3d 8124 bf3d 41d0 b8bd
00000280: 8504 763e 93cd 4e3d 32cc 633d d744 6abd
00000290: 8806 fe3d 338e d43d 2804 2bbe 89a2 a1bd
000002a0: 296d f73d 607c 1c3d d447 d3bd 5438 8ebd
000002b0: 994f adbd 6aa5 85bd a4b3 363e d25d 413d
000002c0: 9ac6 e1bd b30f 58be f156 85bd 590e debd
000002d0: 406c 7c3d 90f3 c4bd c150 40bd 8108 403d
000002e0: ca88 6bbd baaa a83b fc62 653d b172 08bd
000002f0: bb4d bdbc 3965 333c 4088 e43d c9d2 0dbe
00000300: dc15 07be 7340 7abd b2e8 bb3d c374 f73c
00000310: 0e1f 0a3c 2434 063e a0fd 70bb 596d fcbd
00000320: f28c 30be b63e 98bd b1b4 823d 87b3 0fbc
00000330: 9c71 5cbe 24de 07be 06d1 3c3d a755 2dbd
00000340: f108 14bd ae37 25be 6fc0 83bc cdfd cdbd
00000350: 931f 0ebe 0d61 443d 9025 2f3e 7864 b53d
00000360: 77d2 8d3d 72b1 a1bc 0638 0fbe 4220 643e
00000370: 14f3 bd3d 5713 61be e479 51be d00b 8bba
00000380: 7955 03be 2267 cfba 5e7b 8fbc f4c2 dbbd
00000390: 4c79 f2bd 93ce 333e b2b8 583c 33b8 1f3e
000003a0: dc57 103d 627a 993c ca0a b5bc 1e9f afbb
000003b0: 89b1 46bd 263e 24be f50e ddbd 0448 c5bd
000003c0: 3da2 62bc 1d25 66bc 6ec0 9abd d85b ffbc
000003d0: 2ea8 81bb af40 033d 4c07 db3d d922 c83c
000003e0: be1f d9bd 7430 dcbd 78b5 253c fb13 babd
000003f0: 0632 933d c81c 2c3e 55b8 20bd 7b71 88bd

b_play_habitat f4 [4]
0.0044379593 0.01315897 -0.0028162987 -0.014780632
00000000: 4d6c 913b b898 573c a791 38bb 772a 72bc

W_gain_food_primary f4 [192, 7]
0.026005624 -0.002096516 0.1060047 -0.11322285 0.17333704 0.11312345 0.12469599 0.018825896
-0.06736524 -0.0062547997 -0.101417124 0.020083131 -0.030985085 -0.046083715 -0.0908279 -0.08154385
0.115347564 -0.093470804 -0.18566239 -0.09951777 0.17656237 -0.042394828 -0.10314253 -0.04314518
0.08697905 -0.015871175 0.16212973 -0.1403852 -0.021953305 0.021930099 -0.055019014 -0.03184379
-0.09693712 -0.11143062 -0.06115887 0.082011335 0.092935264 -0.02374047 0.08619809 0.12117111
-0.03147779 -0.13445392 0.053891517 0.15194872 0.024258155 0.014482723 0.089422196 -0.09517189
0.043040775 -0.004921565 0.1054198 0.012892404 0.14622559 -0.11941425 -0.11851938 -0.05300995
0.05580796 -0.023859968 -0.024711967 0.07898763 -0.062826045 0.0359824 -0.029910915 0.009955958
-0.16738261 -0.044401545 -0.08762298 0.12128469 0.043733817 -0.027348539 -0.0040658596 -0.07279152
0.064474806 -0.12601668 0.14933851 -0.12248729 -0.1623977 -0.012907744 -0.0416346 -0.13616897
-0.0378965 0.020812929 0.08320937 -0.14065823 0.09659414 0.07281522 0.0728402 0.07991309
-0.11950513 0.2472641 0.116403714 -0.16965917 0.09129864 -0.07257964 0.13213526 -0.0023542342
0.037978254 -0.0039438987 0.055381883 -0.022401214 -0.17443511 -0.020863453 -0.010756543 -0.02088148
0.13715279 0.014369003 -0.031207586 -0.026441991 0.0024273642 -0.084488474 0.18727326 0.011661315
0.03512506 0.14915608 -0.12973651 0.092576765 -0.09976678 -0.028302247 0.004366603 0.14731357
-0.09174108 0.07589353 0.080367886 0.12750322 0.11974051 -0.18726099 -0.05034358 -0.058636285
-0.12920749 0.18571058 0.016900655 -0.08857652 -0.013904127 -0.06437234 0.089990616 0.016108602
-0.0004758775 0.01785895 -0.04360433 0.058105167 -0.064657696 -0.11247601 -0.005698521 0.01815777
0.16644712 0.068228245 -0.006911487 0.13845368 -0.037417676 -0.1252986 0.048639826 0.011319474
0.060422316 0.05340268 -0.10218113 -0.0122180665 0.11260635 0.08508024 -0.052600767 -0.029030351
-0.115372404 -0.20909637 -0.025043368 -0.20292225 -0.009224653 -0.23204641 0.022269301 -0.086119704
0.014033694 0.09226356 -0.0017799906 0.02376487 0.13837413 0.03433368 0.063572146 0.22519132
-0.05046591 -0.046404526 -0.08453469 0.1251866 0.046660107 -0.07017891 0.031770967 -0.14100511
-0.050966736 -0.008398587 -0.10687155 -0.0931619 0.09777821 0.099303626 0.029096974 0.045597065
-0.041744456 -0.13622668 0.037354052 0.040312666 0.07532867 0.059383 0.09423041 -0.016060313
0.06473749 -0.008026134 0.13764113 -0.07495929 0.046348985 -0.0129081 -0.16787179 0.011145657
-0.11526078 0.0556133 -0.017527018 0.052860957 0.045215268 -0.019364893 -0.051488146 0.105650045
0.15889928 -0.00061361503 -0.13140844 0.015175208 0.12649885 -0.13019428 -0.13600983 0.07346954
0.10771381 -0.0016322063 0.042190757 0.33803445 0.02673117 -0.122026786 -0.1247345 -0.06632265
-0.041688405 -0.13764243 0.03773586 -0.026362777 -0.0458636 0.017083295 -0.013999925 0.024084844
0.0640579 0.016607897 -0.035247196 0.1011217 -0.085071504 -0.015990581 0.0502554 0.11620394
-0.2098001 -0.15842661 -0.094084755 0.04580566 0.06036322 -0.15656914 -0.0033295897 -0.07573717
00000000: bf09 d53c b465 09bb fe18 d93d 62e1 e7bd
00000010: 447f 313e 44ad e73d 9c60 ff3d c438 9a3c
00000020: c9f6 89bd 10f5 ccbb c8b3 cfbd 6185 a43c
00000030: 6fd4 fdbc 47c2 3cbd fa03 babd 7600 a7bd
00000040: 583b ec3d 9f6d bfbd 481e 3ebe f9cf cbbd
00000050: c4cc 343e 33a6 2dbd 643c d3bd 00b9 30bd
00000060: 1222 b23d 4404 82bc 5605 263e 23c1 0fbe
00000070: 6bd7 b3bc c0a6 b33c 9e5b 61bd a26e 02bd
00000080: f886 c6bd bd35 e4bd b981 7abd 8ff5 a73d
00000090: d854 be3d 607b c2bc a088 b03d 8f28 f83d
000000a0: dbee 00bd 4aae 09be 5abd 5c3d 7298 1b3e
000000b0: 0ab9 c63c f148 6d3c fc22 b73d 7be9 c2bd
000000c0: 864b 303d 1445 a1bb 56e6 d73d a93a 533c
000000d0: 29bc 153e 758f f4bd 4aba f2bd f620 59bd
000000e0: e396 643d fb75 c3bc c070 cabc 44c4 a13d
000000f0: f1aa 80bd 4862 133d bc07 f5bc 511e 233c
00000100: 5966 2bbe 65de 35bd ad73 b3bd 1c64 f83d
00000110: 3b22 333d 0b0a e0bc e73a 85bb b813 95bd
00000120: 5e0b 843d 840a 01be 32ec 183e 9eda fabd
00000130: 954b 26be 017b 53bc 0b89 2abd e16f 0bbe
00000140: 5c39 1bbd e07f aa3c ad69 aa3d b608 10be
00000150: 26d3 c53d 2520 953d 3e2d 953d 79a9 a33d
00000160: 1bbf f4bd cd32 7d3e 1265 ee3d 22bb 2dbe
00000170: c8fa ba3d a2a4 94bd 774e 073e 7f49 1abb
00000180: 168f 1b3d d23b 81bb 1dd8 623d c082 b7bc
00000190: 1e9f 32be d5e9 aabc 363c 30bc a30f abbc
000001a0: c871 0c3e f76b 6b3c 0da7 ffbc e09c d8bc
000001b0: 6a14 1f3b 4b08 adbd 90c4 3f3e 1a0f 3f3c
000001c0: 4bdf 0f3d 5fbc 183e a6d9 04be e398 bd3d
000001d0: 8752 ccbd 1dda e7bc b915 8f3b 5ed9 163e
000001e0: bfe2 bbbd 116e 9b3d eb97 a43d 3490 023e
000001f0: 833a f53d 58c1 3fbe 1235 4ebd 9a2c 70bd
00000200: f84e 04be ea2a 3e3e 3e73 8a3c 9b67 b5bd
00000210: 23ce 63bc a5d5 83bd 004d b83d 30f6 833c
00000220: 327f f9b9 ef4c 923c 749a 32bd afff 6d3d
00000230: 416b 84bd d359 e6bd a9ba babb 9bbf 943c
00000240: 1d71 2a3e 40bb 8b3d c179 e2bb cdc6 0d3e
00000250: 4743 19bd 474e 00be 8e3a 473d 5175 393c
00000260: 647d 773d c5bc 5a3d 5744 d1bd 492e 48bc
00000270: 289e e63d 8d3e ae3d e773 57bd 0fd1 edbc
00000280: 5e48 ecbd 5c1d 56be c027 cdbc daca 4fbe
00000290: 0023 17bc 939d 6dbe 1c6e b63c 875f b0bd
000002a0: 94ed 653c adf4 bc3d 934e e9ba 8bae c23c
000002b0: f3b1 0d3e 79a1 0c3d 1d32 823d 8e98 663e
000002c0: 58b5 4ebd ac12 3ebd 8620 adbd eb30 003e
000002d0: ab1e 3f3d f6b9 8fbd 4622 023d a563 10be
000002e0: 7fc2 50bd 3a9a 09bc 79df dabd abcb bebd
000002f0: f13f c83d b35f cb3d c75c ee3c fdc3 3a3d
00000300: 3cfc 2abd 027f 0bbe 9000 193d e51e 253d
00000310: eb45 9a3d 973b 733d e0fb c03d eb90 83bc
00000320: 1795 843d 0c80 03bc ccf1 0c3e 4284 99bd
00000330: 6fd8 3d3d 7f7c 53bc 95e6 2bbe 469c 363c
00000340: d80d ecbd c6ca 633d d294 8fbc bb84 583d
00000350: a533 393d 20a3 9ebc 3ce5 52bd 0d5f d83d
00000360: 7eb6 223e 02db 20ba ef8f 06be 70a1 783c
00000370: ea88 013e a651 05be 2946 0bbe 3377 963d
00000380: 0f99 dc3d c1ef d5ba 37d0 2c3d da12 ad3e
00000390: 54fb da3c 2ee9 f9bd cd74 ffbd 2bd4 87bd
000003a0: 76c1 2abd 23f2 0cbe eb90 1a3d c0f6 d7bc
000003b0: 78db 3bbd 44f2 8b3c f15f 65bc 944d c53c
000003c0: ca30 833d 490d 883c 5d5f 10bd e518 cf3d
000003d0: f839 aebd aefe 82bc 9bd8 4d3d 55fc ed3d
000003e0: d6d5 56be 963a 22be 82af c0bd b79e 3b3d
000003f0: 6c3f 773d a953 20be 3f35 5abb 171c 9bbd

b_gain_food_primary f4 [7]
0.0077959327 0.0020300827 0.005311297 0.00479786 -0.0065640607 -0.00039182662 -0.012979279
00000000: 0675 ff3b 230b 053b 630a ae3b 5e37 9d3b
00000010: 5517 d7bb 146e cdb9 0ba7 54bc

W_draw_mode f4 [192, 4]
0.10385052 0.13324997 -0.14500691 0.100629024 0.039794113 -0.13920374 0.005450032 0.017917616
0.01875429 -0.07279462 -0.10866295 -0.008358251 0.089008816 0.08883984 -0.15618955 0.061442956
-0.09180678 0.090166524 -0.049885955 0.060561344 0.084676966 -0.082209 -0.017384348 -0.12663077
-0.0076520736 0.16220586 -0.18873943 0.05125692 -0.10001167 0.04906119 0.14748788 0.16770145
0.10577582 0.099782705 -0.1860372 0.12028041 -0.005111316 0.053937975 0.0070214127 -0.011509501
0.03621129 0.04580812 0.031271238 -0.03326686 0.027347395 0.07958639 0.03673736 0.086309746
-0.004831678 0.05022447 0.023174277 -0.012282206 0.120631725 -0.04428939 -0.17401081 0.0211575
0.047267318 -0.15641415 -0.008699423 -0.09264825 -0.059873667 -0.04372621 0.12288972 -0.14641038
-0.037859507 -0.011604694 -0.11813614 -0.043407395 0.077520445 0.023042535 -0.104670376 0.13070004
-0.07699505 0.047649786 0.17163427 -0.21309713 -0.13434927 0.03562605 -0.044361625 0.13781938
0.038587674 0.054993257 -0.065364115 -0.058891747 -0.059725855 -0.20753416 -0.115418404 -0.22813296
-0.100843295 0.03504331 0.11803907 0.052652735 -0.01893195 -0.041427117 0.085167795 -0.0071393745
-0.17363524 -0.15608789 -0.0722628 -0.011353267 -0.19044243 -0.061595015 0.021701872 -0.046453044
0.10878088 0.06860912 -0.0142875 -0.11058338 0.098243274 -0.10783603 -0.15200336 0.15419324
0.12984195 0.17230116 0.0034987952 0.05302583 0.051580407 -0.15606953 0.08991198 0.059198648
0.054476537 0.062488556 -0.11133848 -0.01575005 -0.047509987 -0.076552644 -0.032858282 -0.013105656
0.164986 -0.038280737 -0.23090793 0.0722003 0.016146146 -0.076781414 -0.107174434 -0.108498186
0.043217905 0.09763661 -0.1444295 0.026248058 0.12930153 -0.08418806 -0.016247708 0.03086241
0.1552005 0.3423669 0.07475152 0.05280207 0.14247818 0.06375878 -0.05954592 0.16629134
-0.16874556 0.026591852 -0.06310111 0.044500854 -0.054013193 0.09156002 -0.14108112 -0.07350538
-0.018023534 -0.012806703 0.1690743 -0.1220049 -0.062659875 -0.033872522 0.19773015 0.04716259
-0.10367513 -0.008795186 0.0062662135 0.11021639 0.06246897 -0.11410052 0.11880585 -0.0010945007
-0.1230581 0.026552843 -0.03357774 0.010872522 -0.028289838 0.17284735 -0.062466297 -0.16753463
-0.105295114 -0.02504777 0.10924152 0.06573651 -0.10071527 -0.16069171 -0.022666294 -0.040149707
-0.05620576 0.308989 -0.06196571 0.035568934 -0.1313646 0.062447924 -0.049733873 0.015498716
-0.14475286 -0.0077869007 0.092197336 0.07754234 0.19998711 0.21848068 0.021219723 0.035446193
0.0032954796 -0.106630236 0.11304961 0.10684862 -0.01966773 -0.08052944 0.018118663 0.035188597
0.133377 0.06106673 0.29052588 0.10438469 -0.014148225 0.043402396 -0.09661054 0.008462444
-0.026689688 -0.1849146 -0.13649853 -0.0018856501 -0.011907204 -0.15566841 -0.004228546 0.080802314
-0.0078023607 0.05791553 0.083629325 -0.044617195 0.022150418 -0.12701389 0.13215053 -0.05499422
-0.078198545 0.041558787 0.103378154 -0.0049028806 -0.11157112 -0.02253774 -0.19118194 -0.09682195
-0.020690707 0.08212863 0.024768777 -0.2598429 0.028144805 0.10249341 -0.028393893 0.03049685
00000000: 95af d43d ae72 083e b17c 14be 9716 ce3d
00000010: 27ff 223d 6d8b 0ebe 2f96 b23b f7c7 923c
00000020: 99a2 993c 5915 95bd ae8a debd 0cf1 08bc
00000030: 414a b63d a9f1 b53d 27f0 1fbe 9cab 7b3d
00000040: 3105 bcbd 3aa9 b83d 3755 4cbd 2c0f 783d
00000050: 1e6b ad3d 315d a8bd 9f69 8ebc 7fab 01be
00000060: 3fbe fabb 4b19 263e e944 41be c7f2 513d
00000070: ebd2 ccbd 63f4 483d 1007 173e eeb9 2b3e
00000080: fea0 d83d e05a cc3d 8980 3ebe 9355 f63d
00000090: d47c a7bb 11ee 5c3d e113 e63b 5992 3cbc
000000a0: 4a52 143d 4ca1 3b3d 4516 003d d542 08bd
000000b0: a507 e03c 30fe a23d ea79 163d 2ac3 b03d
000000c0: 0d53 9ebb 2db8 4d3d fbd7 bd3c 4e3b 49bc
000000d0: c40d f73d cb68 35bd e42f 32be 7e52 ad3c
000000e0: 609b 413d 082b 20be 0688 0ebc 5ebe bdbd
000000f0: 173e 75bd 411a 33bd 9bad fb3d 9aec 15be
00000100: 9212 1bbd 9d21 3ebc 5cf1 f1bd f4cb 31bd
00000110: 0ac3 9e3d b3c3 bc3c 6c5d d6bd 3bd6 053e
00000120: 95af 9dbd 6c2c 433d e5c0 2f3e 2236 5abe
00000130: db92 09be 9fec 113d 89b4 35bd 8620 0d3e
00000140: 1c0e 1e3d 9c40 613d 9fdd 85bd 7938 71bd
00000150: 19a3 74bd d683 54be 7c60 ecbd b09b 69be
00000160: ee86 cebd 9389 0f3d 78be f13d 65aa 573d
00000170: 2d17 9bbc 7baf 29bd 746c ae3d 6af1 e9bb
00000180: 70cd 31be 81d5 1fbe 85fe 93bd 0e03 3abc
00000190: 5703 43be 0e4b 7cbd 20c8 b13c 8c45 3ebd
000001a0: 83c8 de3d f082 8c3d 1e16 6abc 8a79 e2bd
000001b0: c533 c93d 23d9 dcbd c5a6 1bbe d5e4 1d3e
000001c0: 4af5 043e b76f 303e 0b4c 653b 9d31 593d
000001d0: fa45 533d b1d0 1fbe c623 b83d 487a 723d
000001e0: ca22 5f3d 00f4 7f3d 6e05 e4bd 4006 81bc
000001f0: d599 42bd a2c7 9cbd 6896 06bd 1bb9 56bc
00000200: 17f2 283e 43cc 1cbd 2173 6cbe c0dd 933d
00000210: ec44 843c 933f 9dbd 457e dbbd 4c34 debd
00000220: 4205 313d b4f5 c73d 54e5 13be 2b06 d73c
00000230: 9f67 043e ca6a acbd ea19 85bc 2ad3 fc3c
00000240: e1ec 1e3e b74a af3e 5317 993d fc46 583d
00000250: cde5 113e f793 823d 6ce6 73bd 4748 2a3e
00000260: a3cb 2cbe 28d7 d93c 283b 81bd 8746 363d
00000270: f03c 5dbd d283 bb3d 9277 10be fd89 96bd
00000280: 17a6 93bc 35d3 51bc d021 2d3e b4dd f9bd
00000290: d253 80bd eabd 0abd c679 4a3e 8f2d 413d
000002a0: a053 d4bd af19 10bc cf54 cd3b 21b9 e13d
000002b0: 76df 7f3d 89ad e9bd 7b50 f33d 5975 8fba
000002c0: e305 fcbd 5985 d93c d088 09bd aa22 323c
000002d0: 17c0 e7bc e5fe 303e a9dc 7fbd 338e 2bbe
000002e0: f7a4 d7bd fb30 cdbc 05ba df3d dda0 863d
000002f0: cf43 cebd 5e8c 24be aaae b9bc 0574 24bd
00000300: 0338 66bd ce33 9e3e c2cf 7dbd bbb0 113d
00000310: 7184 06be 65c9 7f3d bfb5 4bbd 54ee 7d3c
00000320: 183a 14be 4229 ffbb f5d1 bc3d 85ce 9e3d
00000330: 6cc9 4c3e 66b9 5f3e fcd4 ad3c 0730 113d
00000340: f9f8 573b f460 dabd 8e86 e73d 73d3 da3d
00000350: 381e a1bc 9eec a4bd 976d 943c eb21 103d
00000360: fb93 083e 1c21 7a3d cfbf 943e a4c7 d53d
00000370: f5cd 67bc b6c6 313d bfdb c5bd 10a6 0a3c
00000380: 55a4 dabc 415a 3dbe 45c6 0bbe eb27 f7ba
00000390: 6f16 43bc 8a67 1fbe 9d8f 8abb af7b a53d
000003a0: f2aa ffbb d638 6d3d da45 ab3d 85c0 36bd
000003b0: cb74 b53c ee0f 02be 7852 073e 9f41 61bd
000003c0: 8f26 a0bd 8c39 2a3d edb7 d33d 58a8 a0bb
000003d0: 667f e4bd 11a1 b8bc 33c5 43be 964a c6bd
000003e0: 8f7f a9bc 0e33 a83d e4e7 ca3c 210a 85be
000003f0: ef8f e63c 11e8 d13d 4f9a e8bc 88d4 f93c

b_draw_mode f4 [4]
-0.015159054 0.02054129 -0.0065972046 0.0012149721
00000000: ae5d 78bc 3546 a83c 5d2d d8bb b33f 9f3a

W_lay_eggs_bin f4 [192, 11]
0.011319724 0.037039563 -0.14211151 -0.074495286 0.13888702 -0.17372973 -0.030621748 -0.08116108
0.016367171 -0.034539953 -0.099490464 0.0714814 -0.041504554 -0.029700134 0.067753404 -0.0008941686
0.06549178 0.14765853 0.15776394 0.059644267 -0.15487605 -0.1327266 0.036020815 -0.030038128
-0.098921455 -0.12017102 -0.22668399 0.12682103 0.07429564 -0.060330473 -0.16061245 -0.052400503
-0.075673066 -0.13119237 0.14114031 -0.07353476 0.18877818 0.032017753 -0.11922548 -0.009481825
-0.06984247 -0.13509195 0.07189041 -0.18726142 -0.020990573 0.09234007 0.024650902 -0.06284779
-0.12578072 0.04218693 -0.07610405 -0.06193552 -0.024246719 -0.048181996 -0.0629296 0.027683513
-0.1799611 -0.21964821 0.026908845 0.06825411 -0.1462947 -0.12167459 -0.23516954 0.08746155
-0.114449024 -0.043022156 -0.107296504 -0.053920545 0.060899153 0.019619815 0.009027762 0.008964324
-0.06365098 0.0046252133 0.01186828 -0.24876282 -0.11117496 0.12545034 -0.015260613 -0.05454822
-0.08502781 0.027731033 0.04367825 -0.24321006 0.04908731 0.085281864 -0.11800386 0.10980486
0.13497774 0.11467271 0.018849703 0.05152939 -0.08264859 -0.019363768 0.08955407 -0.029170088
0.010555545 0.035038985 -0.036750834 -0.05704096 -0.08729535 0.008050057 0.118840665 0.1771123
-0.052909378 0.25357616 0.03977777 0.056375068 -0.020593364 -0.03619406 -0.0087304115 -0.07454227
0.08883883 0.0005986612 0.018987577 -0.018718995 0.06100358 -0.128551 0.064547114 -0.15538014
-0.11127887 0.121441774 -0.1742014 0.015365182 0.016938655 0.18262964 0.06986924 -0.021764325
-0.036839228 0.10744428 0.22080578 0.017490728 -0.0066821314 0.0262887 -0.24918602 0.037727777
-0.09189891 -0.03107198 0.11490788 -0.03437768 0.01959631 0.15542348 -0.012691428 0.14684574
-0.114365466 0.037989333 0.047013972 -0.06117753 -0.041290596 -0.06456215 -0.10804335 -0.018261213
0.16836156 0.10559909 -0.06752153 0.065570496 -0.05257111 0.022917548 0.028516065 0.11925215
-0.049599584 -0.22831428 0.059104152 -0.020580329 0.05035439 0.043158844 0.011652046 -0.026951859
0.126416 -0.0053652106 -0.087189384 0.0046764244 0.10848427 0.16916335 -0.119383045 0.0049507297
-0.04204672 0.02103979 0.22286098 -0.012163252 -0.13036834 0.09127317 -0.022276217 -0.010676942
-0.059871025 0.05093067 0.11099646 0.268751 0.039895166 0.10926531 -0.043891422 -0.09656921
0.17744803 -0.12290951 0.033557016 -0.06610138 0.0002695972 -0.03693659 0.0437726 0.21724972
0.054463293 0.06698458 0.027747005 -0.1098569 0.093919516 -0.23201212 -0.14469254 -0.005936343
0.13130423 0.08215294 0.017891424 0.019043146 -0.046048112 0.038000453 -0.030223096 -0.09792332
0.03229304 0.13488273 -0.013107576 0.11437492 0.037027508 0.12143851 0.07176865 0.06481936
-0.02450077 0.08171601 -0.090378545 -0.09351762 -0.11331983 -0.11409404 0.23019804 0.05036778
0.042926103 -0.058259882 0.09014272 -0.19097577 0.12405402 -0.04186861 -0.20248991 0.06307747
0.044700596 -0.07298645 -0.03438624 0.049303178 -0.07096857 -0.10738941 -0.11754363 0.01145335
-0.08027092 0.043568518 -0.060717322 0.033148773 0.09510612 0.24489804 0.05928676 0.093645155
00000000: 5d76 393c ccb6 173d ae85 11be fc90 98bd
00000010: 6638 0e3e 35e6 31be 76da fabc c837 a6bd
00000020: 7214 863c c479 0dbd a8c1 cbbd d764 923d
00000030: ae00 2abd b24d f3bc 4cc2 8a3d a466 6aba
00000040: 8e20 863d cc33 173e df8c 213e 8c4d 743d
00000050: d497 1ebe 7be9 07be 908a 133d 8512 f6bc
00000060: 5597 cabd 391c f6bd d91f 68be 5fdd 013e
00000070: 5028 983d 161d 77bd 9777 24be e9a1 56bd
00000080: 7bfa 9abd 4b57 06be 1687 103e 6499 96bd
00000090: 114f 413e 0c25 033d 7d2c f4bd a859 1bbc
000000a0: 9209 8fbd 8b55 0abe 473b 933d 75c1 3fbe
000000b0: 6cf4 abbc ca1c bd3d b0f0 c93c 58b6 80bd
000000c0: a9cc 00be 34cc 2c3d 71dc 9bbd 1ab0 7dbd
000000d0: 0ea1 c6bc 7c5a 45bd 3ce1 80bd 89c8 e23c
000000e0: b947 38be 76eb 60be f06f dc3c d0c8 8b3d
000000f0: 47ce 15be 8730 f9bd 49d0 70be 0b1f b33d
00000100: 4064 eabd 0038 30bd 45be dbbd cadb 5cbd
00000110: 6471 793d bcb9 a03c 2ee9 133c 1adf 123c
00000120: 725b 82bd 1a8f 973b 2d73 423c aebb 7ebe
00000130: b3af e3bd 0e76 003e a607 7abc f46d 5fbd
00000140: 0f23 aebd 312c e33c f7e7 323d 0f0c 79be
00000150: c60f 493d 42a8 ae3d 02ac f1bd 5fe1 e03d
00000160: 9b37 0a3e 87d9 ea3d b16a 9a3c 7b10 533d
00000170: aa43 a9bd c4a0 9ebc 2068 b73d 1cf6 eebc
00000180: 2af1 2c3c 0a85 0f3d 0b88 16bd c8a3 69bd
00000190: e8c7 b2bd 63e4 033c bc62 f33d ed5c 353e
000001a0: 81b7 58bd bcd4 813e 04ee 223d 8be9 663d
000001b0: 6ab3 a8bc 3940 14bd 000a 0fbc 9ea9 98bd
000001c0: 22f1 b53d 79ef 1c3a d68b 9b3c 9458 99bc
000001d0: e4de 793d e0a2 03be 4731 843d f91b 1fbe
000001e0: 2de6 e3bd 77b6 f83d da61 32be 3fbe 7b3c
000001f0: efc2 8a3c 4403 3b3e 9b17 8f3d 194b b2bc
00000200: bbe4 16bd bf0b dc3d e91a 623e b748 8f3c
00000210: c8f5 dabb 665b d73c 9f2a 7fbe 7188 1a3d
00000220: 7f35 bcbd aa8a febc d354 eb3d 9ccf 0cbd
00000230: 7188 a03c 5527 1f3e b5ef 4fbc bb5e 163e
00000240: 7138 eabd b49a 1b3d b991 403d 4a95 7abd
00000250: 5420 29bd 2939 84bd d545 ddbd 8a98 95bc
00000260: f966 2c3e 5644 d83d ba48 8abd d349 863d
00000270: ce54 57bd 95bd bb3c 869a e93c 793a f43d
00000280: ef28 4bbd 38cb 69be 3217 723d 1498 a8bc
00000290: 6840 4e3d 54c7 303d 39e8 3e3c 25ca dcbc
000002a0: 3273 013e a6ce afbb 5990 b2bd b13c 993b
000002b0: 002d de3d 2839 2d3e 197f f4bd bb39 a23b
000002c0: 2e39 2cbd a35b ac3c ab35 643e 6048 47bc
000002d0: 477f 05be 6eed ba3d 9d7c b6bc 57ee 2ebc
000002e0: 523b 75bd ae9c 503d 1d52 e33d bb99 893e
000002f0: 1d69 233d 7ec6 df3d 7ec7 33bd 14c6 c5bd
00000300: f0b4 353e fbb7 fbbd 1573 093d 2960 87bd
00000310: b958 8d39 d24a 17bd e64a 333d b676 5e3e
00000320: e714 5f3d 362f 893d b04d e33c a8fc e0bd
00000330: e058 c03d 9694 6dbe 482a 14be a885 c2bb
00000340: 9e74 063e cd3f a83d 0991 923c 5f00 9c3c
00000350: f29c 3cbd 5da6 1b3d 6d96 f7bc 068c c8bd
00000360: b545 043d b31e 0a3e 29c1 56bc 663d ea3d
00000370: 28aa 173d c1b4 f83d 71fb 923d 03c0 843d
00000380: d7b5 c8bc b95a a73d 6318 b9bd 2a86 bfbd
00000390: 3a14 e8bd 23aa e9bd 09b9 6b3e 724e 4e3d
000003a0: 48d3 2f3d eaa1 6ebd bf9c b83d 278f 43be
000003b0: 0910 fe3d 6b7e 2bbd 8459 4fbe c32e 813d
000003c0: f917 373d eb79 95bd 96d8 0cbd 21f2 493d
000003d0: f857 91bd fbee dbbd b7ba f0bd d5a6 3b3c
000003e0: 1565 a4bd e774 323d bab2 78bd 02c7 073d
000003f0: ffc6 c23d 8dc6 7a3e acd6 723d 08c9 bf3d

b_lay_eggs_bin f4 [11]
-0.0070312773 0.00071049435 0.031145489 0.00582551 0.0025740773 -0.010530328 -0.0029041541 -0.002827352
-0.005372138 -0.006275568 -0.0053147464
00000000: a166 e6bb 7840 3a3a d324 ff3c ebe3 be3b
00000010: dab1 283b 6687 2cbc 9f53 3ebb 184b 39bb
00000020: c308 b0bb 48a3 cdbb 5327 aebb

W_play_cost_bin f4 [192, 7]
-0.004652569 -0.17237875 0.17044677 0.14455715 -0.15704817 -0.043513905 0.04198555 0.013845936
-0.035804212 0.094523996 -0.19379355 0.16846138 0.15162744 -0.08763298 0.13951178 0.04559675
-0.09247921 0.10087822 0.10346385 -0.03704399 0.061450224 -0.008765661 0.014999587 0.025835015
0.089954376 0.17732884 0.015342229 0.11750548 -0.036421157 0.0064066052 0.13328622 0.14970008
0.026282458 -0.039058357 -0.079955675 -0.09598503 -0.01820316 -0.08426063 -0.055918578 -0.028181687
-0.1052637 0.027885977 0.007071728 0.19654314 0.07999057 -0.015329997 -0.027125956 0.12804332
0.0027290685 -0.02774182 0.10817499 -0.10369899 0.013100048 -0.13354984 0.09104167 -0.051630717
0.0006751651 -0.041902035 -0.12534997 0.099624 0.0037303087 0.1302445 0.15286085 -0.16579188
0.02192751 -0.17100789 -0.080840334 0.005045108 -0.063182525 0.13874796 -0.0054785125 -0.09568721
-0.03592457 0.018850967 -0.00094251777 0.2560742 -0.08326417 0.071214095 -0.38658544 0.13936077
-0.13460557 -0.15731356 -0.06107138 0.1070178 -0.055038135 -0.096423686 0.1388105 0.05115848
0.012330705 0.060754705 0.056549415 0.025934845 0.015279873 -0.25078672 0.066435486 0.061161086
-0.01378022 -0.10765019 -0.126472 0.22077578 0.17094655 -0.16227126 0.21015805 0.054242
-0.070108116 -0.13799156 0.07131177 0.15219031 0.14815219 -0.06042704 -0.017925741 -0.035793953
0.024107926 -0.113990456 -0.06300487 -0.14829825 0.003483356 0.06783156 -0.074492335 0.250055
-0.025184015 0.060595103 0.15449074 -0.11499567 0.11646184 -0.025885265 -0.0021123332 -0.1209216
0.07808189 0.08432026 -0.05723221 0.072445765 -0.10125963 0.07386167 0.08552622 0.19308735
-0.13290286 0.028102616 0.10281336 0.11212192 -0.03637969 -0.06765749 -0.05975001 -0.04268947
-0.07931037 0.16817562 0.041602623 -0.058680646 -0.14671518 -0.12424306 -0.11594384 0.1323806
0.035136927 -0.22578485 -0.023085505 -0.008111365 -0.011279933 -0.09188896 0.0065937936 -0.114686735
-0.1208432 0.056976214 0.17951 0.28725922 0.044045437 -0.16982289 -0.033380568 0.018177398
-0.08285316 0.081617154 -0.21326181 -0.04153046 0.026679475 -0.066813186 0.007931422 -0.072815225
0.014283963 0.034633875 0.007504701 -0.10118988 0.18852179 -0.10977218 -0.18235147 0.07251413
-0.081113964 -0.0056491066 0.18220852 -0.03734088 -0.117568605 -0.06694421 -0.12474784 -0.015992528
-0.04581958 0.03506518 0.048830703 0.054113537 -0.12046142 -0.06435209 0.07086138 -0.15316878
0.20725654 -0.15404709 -0.16554661 -0.055157322 0.072249934 -0.09514258 0.057236705 -0.08653713
0.112984404 0.062411346 0.2534327 0.07569138 -0.076833025 0.021841072 0.04459009 0.08493875
0.046366867 -0.15409464 0.108071275 0.21468648 0.16627385 -0.14770344 -0.16627735 -0.13654782
-0.2916498 -0.008237458 0.026510213 -0.083720274 0.033796526 0.0548355 -0.033864252 0.04598875
0.07356911 0.08906481 0.0398486 0.020993121 -0.06342033 0.05966836 -0.17709084 -0.0988875
0.040929545 -0.04121011 0.047263745 0.05060139 -0.18592782 -0.061226737 -0.13822627 -0.01824356
-0.18740734 -0.038817797 -0.004757348 -0.012816488 0.070781894 0.23043741 -0.13565515 0.07087356
00000000: 9474 98bb 0e84 30be 9989 2e3e ca06 143e
00000010: 3cd1 20be a33b 32bd 0af9 2b3d 11da 623c
00000020: 70a7 12bd cc95 c13d d171 46be 2481 2c3e
00000030: 3944 1b3e eb78 b3bd 2ddc 0e3e a8c3 3a3d
00000040: bd65 bdbd 3d99 ce3d dbe4 d33d 70bb 17bd
00000050: 3bb3 7b3d d99d 0fbc d4c0 753c f4a3 d33c
00000060: 003a b83d b195 353e f95d 7b3c b7a6 f03d
00000070: 5a2e 15bd 80ee d13b 2f7c 083e fa4a 193e
00000080: 4f4e d73c a8fb 1fbd cdbf a3bd cd93 c4bd
00000090: cb1e 95bc d690 acbd e10a 65bd 48dd e6bc
000000a0: 7f94 d7bd 2271 e43c f4b9 e73b 9b42 493e
000000b0: 19d2 a33d ab2a 7bbc 4137 debc ca1d 033e
000000c0: 2cda 323b d042 e3bc d98a dd3d 2360 d4bd
000000d0: 95a1 563c 4ac1 08be 0e74 ba3d bb7a 53bd
000000e0: 90fd 303a 78a1 2bbd be5b 00be ab07 cc3d
000000f0: 3278 743b d05e 053e 8e87 1c3e 59c5 29be
00000100: 52a1 b33c b11c 2fbe 9e8f a5bd 6f51 a53b
00000110: d765 81bd f213 0e3e 1885 b3bb a8f7 c3bd
00000120: a425 13bd 586d 9a3c 4c13 77ba 281c 833e
00000130: 6886 aabd b2d8 913d 87ee c5be 97b4 0e3e
00000140: 0bd6 09be ce16 21be fc25 7abd 262c db3d
00000150: ab6f 61bd c879 c5bd 5724 0e3e 8e8b 513d
00000160: ba06 4a3c edd9 783d 5ca0 673d 5075 d43c
00000170: 6f58 7a3c 1e67 80be 540f 883d 0c84 7a3d
00000180: 6fc6 61bc b477 dcbd e081 01be 0c13 623e
00000190: 9d0c 2f3e 702a 26be ac33 573e dc2c 5e3d
000001a0: d894 8fbd a94d 0dbe e80b 923d c7d7 1b3e
000001b0: 35b5 173e 5882 77bd 01d9 92bc ae9c 12bd
000001c0: fc7d c53c d473 e9bd b308 81bd 7fdb 17be
000001d0: 0449 643b 46eb 8a3d 708f 98bd 3507 803e
000001e0: b54e cebc 9232 783d d232 1e3e da82 ebbd
000001f0: 8c83 ee3d 560d d4bc 126f 0abb bea5 f7bd
00000200: 66e9 9f3d 1ab0 ac3d 526c 6abd 725e 943d
00000210: 3561 cfbd ca44 973d 5f28 af3d b1b8 453e
00000220: b017 08be 7537 e63c d08f d23d 2da0 e53d
00000230: df02 15bd 0390 8abd 6dbc 74bd 27db 2ebd
00000240: 7a6d a2bd 3b36 2c3e 8367 2a3d 1e5b 70bd
00000250: 813c 16be 2573 febd f773 edbd c88e 073e
00000260: bdeb 0f3d 2534 67be d01d bdbc 88e5 04bc
00000270: 78cf 38bc 4730 bcbd c010 d83b e1e0 eabd
00000280: a47c f7bd e45f 693d 78d1 373e a413 933e
00000290: fd68 343d 0de6 2dbe 10ba 08bd c4e8 943c
000002a0: ebae a9bd e526 a73d 4e61 5abe d81b 2abd
000002b0: ea8e da3c 5ad5 88bd ccf2 013c 2620 95bd
000002c0: 4807 6a3c 40dc 0d3d ffe9 f53b a43c cfbd
000002d0: db0b 413e 3dd0 e0bd 58ba 3abe 4a82 943d
000002e0: 141f a6bd 241c b9bb df94 3a3e c0f2 18bd
000002f0: cfc7 f0bd 0c1a 89bd cc7b ffbd c302 83bc
00000300: 50ad 3bbd 82a0 0f3d b402 483d 28a6 5d3d
00000310: 7ab4 f6bd 07cb 83bd c51f 913d 47d8 1cbe
00000320: 0f3b 543e 85be 1dbe 0d85 29be a5ec 61bd
00000330: c6f7 933d 1dda c2bd 0971 6a3d 613a b1bd
00000340: 5e64 e73d 0aa3 7f3d eec1 813e 1504 9b3d
00000350: a25a 9dbd 0cec b23c 19a4 363d 5ef4 ad3d
00000360: 2feb 3d3d fcca 1dbe 7954 dd3d c6d6 5b3e
00000370: b143 2a3e 923f 17be 9c44 2abe 31d3 0bbe
00000380: 1f53 95be 67f6 06bc f22b d93c 8975 abbd
00000390: 3a6e 0a3d 309b 603d 3eb5 0abd b35e 3c3d
000003a0: 67ab 963d 9c67 b63d 4938 233d c4f9 ab3c
000003b0: 85e2 81bd cf66 743d 4d57 35be 8885 cabd
000003c0: bda5 273d efcb 28bd a197 413d 6743 4f3d
000003d0: dd63 3ebe e3c8 7abd 308b 0dbe 8573 95bc
000003e0: b6e7 3fbe 69ff 1ebd 87e3 9bbb 3ffc 51bc
000003f0: 19f6 903d c9f7 6b3e 2fe9 0abe 2826 913d

b_play_cost_bin f4 [7]
-0.002611954 0.0024731176 0.013159669 0.013932349 -0.0014314065 -0.019434948 -0.006086823
00000000: 512d 2bbb 0714 223b a79b 573c 8244 643c
00000010: 089e bbba 0a36 9fbc f973 c7bb
