reports/ml/auto_improve_factorized_long_live/iter_003/factorized_model.npz (npz, 72116 bytes, 17 tensors)

W1 f4 [48, 192]
000000 77 e6 06 be 1e e8 bc 3e 51 7e d6 bd 29 0a 74 bd
       -0.13173853 0.3689584 -0.10473312 -0.059580002
000010 1b c8 42 be 0a 05 d3 3d fc 2b 00 be 35 3c 8a 3d
       -0.19021647 0.103036955 -0.12516779 0.06749765
000020 cd 2b d6 3d ae 89 22 be 1e 45 9f 3e 4a 75 31 be
       0.10457573 -0.15872833 0.3110742 -0.17329898
000030 07 e4 dd bb 5e 95 d1 bd bd 62 89 be 64 e7 98 3d
       -0.0067715677 -0.10233568 -0.26833144 0.07466009
000040 3c c3 d1 bd 88 9f bd 3e a6 ba 97 bd 96 20 26 be
       -0.10242316 0.37035775 -0.07408647 -0.16223368
000050 03 40 3d 3e 8b d9 b8 bd 4a ee f3 bd db 6a 11 3d
       0.1848145 -0.09025868 -0.119106844 0.035502296
000060 44 ad d5 3d 71 94 48 3e 2b 41 ad 3e 31 97 d6 3d
       0.104334384 0.19587876 0.33838782 0.10478056
000070 eb 2e 19 3e ac ff 8b bd 0e 88 87 3e 2c 58 09 3d
       0.14959304 -0.06835875 0.2647099 0.033531353
000080 ae 29 47 3b c2 81 a0 3d 4e 4e 45 bd a2 08 31 be
       0.0030389833 0.07837249 -0.04817038 -0.1728845
000090 15 12 da bd a5 1d 8d 3c f8 da 8e be b6 3f 39 3e
       -0.1064798 0.01722605 -0.27901435 0.1809071
0000a0 73 68 28 3a f1 66 2b 3d 06 38 50 bd 65 de a0 be
       0.00064242556 0.04184622 -0.050834678 -0.31419674
0000b0 a9 f8 c6 be 81 87 08 bf cf e1 84 be 90 55 56 3c
       -0.38861588 -0.5333176 -0.25953528 0.013081923
0000c0 fc a5 43 3e a8 e4 51 bd 36 7d ef 3c 41 eb c0 3e
       0.19106287 -0.051243454 0.02923451 0.37679484
0000d0 92 4c 71 bd 68 f5 c4 bd fd 31 e5 bc 76 be 66 3e
       -0.058910914 -0.0961712 -0.027977938 0.22533593
0000e0 a2 8c ae 3e f2 3a bd bd ec 18 a7 3c ba 06 9e 3e
       0.3409167 -0.092397586 0.020397626 0.30864507
0000f0 9d d3 0b 3c 39 94 2b bd d0 b6 7a be eb e2 56 be
       0.008534339 -0.041889403 -0.244838 -0.20985
000100 28 5e 44 3d 1c 8e 8b be 3c b8 ca bd 09 1a b1 3e
       0.047941357 -0.27256858 -0.09898421 0.34590176
000110 ee 78 72 be 81 ba cd 3e 91 23 42 be 41 7f 3a 3e
       -0.23678944 0.40181354 -0.1895888 0.18212606
000120 98 69 6f 3e e2 1f 34 3d b0 79 89 be 80 b8 eb 3d
       0.23380125 0.04397572 -0.26850653 0.115098
000130 5a d6 c2 bc 41 8c 78 be c5 4f 39 be 27 0c 02 be
       -0.023783851 -0.24272253 -0.18096836 -0.12699948
000140 33 0c 0d bf af d3 e2 3d ce 4c c4 be 34 34 ec bd
       -0.5509674 0.11075532 -0.38339847 -0.115333945
000150 72 62 48 be 60 ee b5 bc 20 d2 9f 3e 36 4d 82 3e
       -0.19568804 -0.022208393 0.31215 0.25449532
000160 27 28 12 be 80 9d de be 1b 9a 27 bd 81 f7 cd bd
       -0.1427313 -0.43479538 -0.04091845 -0.10056973
000170 ce 45 ba be 32 4c 58 be d7 49 b0 3c fc 03 d6 bd
       -0.36381382 -0.21122816 0.021519585 -0.10449979
000180 6a d3 d8 3d e8 63 02 bf 7b aa b2 be aa 0f 00 be
       0.10587199 -0.50933695 -0.3489569 -0.12505975
000190 b8 53 81 3e 54 7e 95 be 69 5e e2 be 02 40 1d bd
       0.25259185 -0.29197943 -0.44212654 -0.03839112
0001a0 60 4f 1a 3f 31 7a a1 3d 2c a5 66 be 3c bd 56 be
       0.60277367 0.07884634 -0.22523946 -0.20970625
0001b0 97 2d f6 3c 2b f2 2c bd af 30 ef 3d 47 46 0a 3d
       0.030051036 -0.042223137 0.116792075 0.033758428
0001c0 ef 87 16 3f 55 7e 09 3d 70 b8 84 3e 66 3a d7 bd
       0.5880117 0.033567745 0.25921965 -0.105091855
0001d0 62 b7 22 3e a4 9a 77 3e fa 18 80 3e b1 a3 1a 3e
       0.15890267 0.24180084 0.25019056 0.15101506
0001e0 59 18 97 3c c9 8b 82 bc c7 70 20 bd 48 02 8e 3d
       0.018444227 -0.015935795 -0.039170053 0.06934029
0001f0 5c 14 f5 3c 25 ae a7 bd 40 7e 18 bd 80 e8 10 be
       0.029916935 -0.08187512 -0.037229776 -0.14151192
000200 66 f7 83 3e 28 94 94 bd 0b 8c fb 3d 8f 30 24 3d
       0.25774688 -0.07254821 0.122825705 0.04008537
000210 8b 8a 02 be 4a 80 8d bd 57 0a 5f 3e 54 a7 bb 3d
       -0.12748162 -0.06909235 0.21781288 0.09162775
000220 72 46 ae bd 48 a2 a4 3d 7d cb 35 bd f1 69 af bd
       -0.0850953 0.08038765 -0.044383515 -0.085651286
000230 e8 8b 81 bc 9a 45 06 be e9 b1 17 be 8e 73 ee bd
       -0.015813783 -0.13112488 -0.14813961 -0.11643134
000240 f4 d4 66 3e 3a 85 e0 be 46 82 16 be 4f 90 0f 3e
       0.22542173 -0.43851644 -0.14698133 0.14019893
000250 63 b9 01 3e 17 5a ac 3e 61 91 67 bd ba 0f bf bd
       0.12668376 0.33662483 -0.05653513 -0.093291715
000260 80 f9 8a bd 9f fa bf be 56 bf ea 3e a0 ac 9a be
       -0.067858696 -0.37495896 0.45849103 -0.30209827
000270 9f 71 64 be 49 91 2a bd a4 b2 01 3c a8 3c c3 be
       -0.22308968 -0.04164246 0.007916126 -0.38132215
000280 f5 51 12 3b c8 13 3c 3e 7b c8 d0 3d 5b 50 39 bd
       0.0022326682 0.18366921 0.101944886 -0.04524265
000290 52 ff 08 3e 73 dd f2 bd 9d c1 06 3e 83 c8 a9 3d
       0.13378647 -0.11858644 0.13159795 0.08290198
0002a0 82 c1 15 be 0f 73 95 3c 37 ca b5 bd d9 88 57 bd
       -0.14624599 0.01824334 -0.0887646 -0.052620742
0002b0 88 91 0e 3e 29 13 fb bd a9 7e b1 be 5b 16 2f 3e
       0.13922703 -0.12259514 -0.34666947 0.17098372
0002c0 2f 21 0b be c0 e1 bc be d5 5f af be 95 d8 97 be
       -0.13586877 -0.36890984 -0.34252802 -0.29657426
0002d0 ea b8 cc bd 8a ed 82 3d 9d f8 ff bd 36 a9 e7 bc
       -0.09996207 0.06392963 -0.12498591 -0.028278928
0002e0 72 60 87 bd 4e de 29 bc 65 92 0d be 02 61 8f 3e
       -0.06610192 -0.010367943 -0.13825376 0.280037
0002f0 a1 00 4e 3e c5 41 a1 bd b8 f4 84 bc b1 8c d7 be
       0.20117427 -0.07873873 -0.016229972 -0.42099527
000300 01 5d 54 bd cb ff 56 3e 6d 61 f2 be 11 2b d6 3d
       -0.051846508 0.20996015 -0.47339955 0.10457433
000310 e2 52 c9 3d 4e d5 55 be e7 75 a3 3e 85 f1 46 3e
       0.09830262 -0.2088215 0.3192589 0.1942807
000320 91 69 2b 3e 5b e2 2c 3e 31 3b 26 3e 94 d1 c4 3d
       0.16739489 0.16883223 0.16233517 0.09610286
000330 30 a4 b7 bd 01 6a 3f be 51 32 28 3d bb 43 c1 bd
       -0.08966863 -0.18692781 0.04106361 -0.09436747
000340 21 e1 07 be 47 9f 8c be f2 f6 99 3e f7 ee c4 3d
       -0.13269474 -0.2746527 0.30071217 0.096158914
000350 a6 80 28 be 04 3c 0d 3e 88 9d 1d 3e 8c cd 21 3d
       -0.16455325 0.13792425 0.15392125 0.039502665
000360 ea 3f 0d 3e ad 4c 56 be ab b5 ee 3e 39 3b 87 be
       0.13793913 -0.20927687 0.46622977 -0.2641237
000370 b8 5c 9c 3e f6 38 aa bd e0 22 bc bd ca 8e 78 be
       0.3053949 -0.08311646 -0.091863394 -0.2427322
000380 74 ca c8 be 29 61 a2 3e 58 7d 2c be d7 78 8b 3e
       -0.3921696 0.31714752 -0.1684469 0.2724063
000390 1b a4 91 3d d9 d7 80 3e b6 2c 05 bf 60 f2 32 3e
       0.07111379 0.2516468 -0.5202135 0.17475271
0003a0 19 13 a9 3c 73 56 1a be d0 55 6f 3e cc ce 15 3e
       0.02063899 -0.1507204 0.23372579 0.14629668
0003b0 b8 98 3d be 2c 8a 8a 3d 2f 7e 51 3e ba 70 b3 3d
       -0.18515289 0.067646354 0.20458291 0.08761735
0003c0 37 0c 2a be ba d2 21 be ae 5e 26 3d 42 1f 3e be
       -0.16606222 -0.15803042 0.040617637 -0.18566611
0003d0 0b 4f 9d 3e fa d9 23 be 75 f4 38 3e 9c 8f b4 3e
       0.30724367 -0.1600112 0.18062003 0.35265815
0003e0 ae fa c3 3d 0a bf 1d 3e e5 db 93 bd 4c ae ad be
       0.09569298 0.15404907 -0.07219676 -0.3392204
0003f0 99 d7 40 be ff c1 46 3e 5d ed 19 3e 71 5e 1f be
       -0.18832244 0.19409941 0.15031953 -0.1556337

b1 f4 [192]
000000 60 52 f5 3a 15 c6 67 3b 99 2f 0c bc 75 3e 9c 3b
       0.0018716566 0.0035365869 -0.00855627 0.0047681876
000010 cd ac 7c 3b fb 15 3e ba b0 9f 1f 3c 00 00 00 00
       0.0038555146 -0.00072512 0.009742662 0.0
000020 eb 39 56 39 6d a2 9e b9 5a 13 72 bb 23 a0 c8 3b
       0.00020430206 -0.00030257125 -0.0036937804 0.0061226054
000030 91 5b cc ba b2 98 19 37 a6 f2 43 b6 8a a5 a8 b9
       -0.0015591254 9.155063e-06 -2.9198504e-06 -0.00032166793
000040 c5 75 89 bb b4 1d d1 bc 01 9b 5c bc d0 d4 8a b9
       -0.0041949474 -0.025526859 -0.01346469 -0.0002647997
000050 66 59 19 bb 0f dd d4 39 00 00 00 00 33 04 14 ba
       -0.0023399233 0.00040600493 0.0 -0.00056463777
000060 c7 c8 c0 3b 2f 56 41 bb 9b 5a 2c 3a 60 c4 ed bb
       0.0058833095 -0.0029500832 0.00065747806 -0.0072560757
000070 05 48 87 3c 53 79 83 3c 9b 8c a5 bb 2d c7 be bc
       0.016513834 0.016049063 -0.005052162 -0.023288334
000080 00 00 00 00 2c 34 c9 39 a1 9a ee ba 47 31 51 bb
       0.0 0.0003837658 -0.0018204042 -0.003192024
000090 0b c7 37 bb 9f 49 21 3c 04 de c4 37 29 7e 91 3c
       -0.0028042223 0.009844213 2.3468405e-05 0.017760353
0000a0 00 00 00 00 02 11 c5 3a 8b c3 84 3c 07 8a 4f b9
       0.0 0.0015034976 0.016206523 -0.00019792478
0000b0 32 91 20 bb f1 9c 7a bc 37 91 af bb f9 8b 21 b9
       -0.0024500606 -0.015296207 -0.005357887 -0.000154063
0000c0 63 d3 d5 3a 82 9d 00 ba ae a9 f9 b9 a1 a9 9a bb
       0.0016313609 -0.0004906283 -0.00047619402 -0.0047199284
0000d0 99 ac 60 3a da 34 9e 3b 20 7a 42 bc 3d de f4 bb
       0.0008570641 0.0048280777 -0.011869937 -0.007472782
0000e0 fc f9 0e 3c 3a b9 1c bb a4 8d b5 b9 9b f8 f7 bb
       0.008726593 -0.0023914115 -0.0003462854 -0.007567478
0000f0 fb c5 36 bc 2a 08 5f 38 9c 45 c6 b7 a6 62 57 3c
       -0.011155601 5.3174947e-05 -2.3635854e-05 0.013146078
000100 ca ae bf b9 45 f0 da 38 41 3d cd bb 26 dd c9 3b
       -0.00036560587 0.00010439804 -0.0062634056 0.006160396
000110 00 00 00 00 97 53 fc bb 7a 3b 51 bb b3 0a 1e 3b
       0.0 -0.0077003944 -0.003192632 0.0024115264
000120 9b 7b e5 bb fe f4 a7 ba 62 98 84 39 04 31 6c ba
       -0.0070032603 -0.0012814102 0.00025290536 -0.00090099894
000130 e1 7f c3 39 00 00 00 00 65 7e 4c bb 42 78 c7 bb
       0.00037288576 0.0 -0.0031203267 -0.006087334
000140 f1 43 d3 bb 62 7b 2d bb a9 a7 20 3a f5 cb 29 ba
       -0.006447308 -0.0026471247 0.0006128499 -0.00064772303
000150 e7 35 ae bb 7a 62 8b 3a b7 84 5b ba 3f c1 6f bb
       -0.0053164843 0.0010634207 -0.0008373963 -0.003658369
000160 3c ed 3c bc 00 00 00 00 94 31 c0 bb 32 a0 e5 38
       -0.01153117 0.0 -0.005865285 0.000109494096
000170 5e 54 df b9 00 00 00 00 cd e9 a2 bb 0d c3 be 3a
       -0.00042596733 0.0 -0.004971719 0.0014553979
000180 9b d5 64 3c 20 5e 7c 3c 2b 76 2e 3a 89 56 87 3c
       0.013966943 0.0154033005 0.00066551816 0.016520755
000190 d4 74 31 3b ea 04 91 bc 00 00 00 00 2d 4e 3f 39
       0.0027077692 -0.017702539 0.0 0.00018244302
0001a0 91 32 28 bb 00 00 00 00 00 00 00 00 a2 4c 92 3b
       -0.0025664906 0.0 0.0 0.0044647017
0001b0 9f 37 22 bb 70 7f 22 3a c9 74 15 b8 7e bc 4e 3a
       -0.002475239 0.0006198799 -3.5633133e-05 0.0007886364
0001c0 72 f0 8e bc f0 fa 92 bb be d8 99 3a 52 48 9a b8
       -0.017448638 -0.0044854805 0.0011737568 -7.356763e-05
0001d0 40 dc 22 3c e8 e0 be 3b 0b 1c 08 37 9f a9 a3 bb
       0.009940207 0.0058251508 8.112761e-06 -0.0049945856
0001e0 21 91 a3 3a 90 49 91 3b 74 73 84 3b 6e 10 41 b9
       0.0012479165 0.004433818 0.0040420834 -0.00018412035
0001f0 00 00 00 00 da 8c 0f 3c 7d b6 e9 3b b8 00 16 bb
       0.0 0.008761609 0.00713235 -0.0022888612
000200 68 4c a7 3b 54 18 86 bb f0 a6 e1 37 37 c8 8a bc
       0.005105544 -0.0040922556 2.6899826e-05 -0.016941173
000210 86 15 37 3a 17 aa e8 bb 5d 3a e8 3a e4 28 96 3b
       0.0006984103 -0.0071003544 0.0017717589 0.0045825113
000220 a0 0c 8b bc fb 4b be 3b 5c 2d 53 38 24 fa a5 ba
       -0.016973794 0.0058073974 5.0348564e-05 -0.0012663049
000230 8c b2 6a 3c 96 b8 a9 39 62 12 b2 3b 00 00 00 00
       0.014324795 0.0003237172 0.0054343203 0.0
000240 a6 ce 6d 3b 00 00 00 00 62 f2 03 bb 10 a4 8e 3a
       0.0036286502 0.0 -0.0020133485 0.0010882635
000250 a2 f7 ef 38 2f 4b 90 bc 62 55 7a 3c e9 c2 7e b8
       0.00011442533 -0.017613975 0.015279146 -6.0739843e-05
000260 28 9e 14 3b e8 70 df bb df 93 c9 bb c2 0e 99 3a
       0.0022677276 -0.0068188794 -0.006151661 0.0011677372
000270 4a 09 8b ba 37 32 a2 bb 00 00 00 00 16 4f fe 3a
       -0.0010607627 -0.0049498337 0.0 0.0019402232
000280 5e 7f 32 37 2c f7 14 3c 28 ee 2e 3b 58 2f 5e 3b
       1.0639282e-05 0.0090921335 0.0026692245 0.003390273
000290 87 56 dc 3b e4 51 78 38 8b 3b 36 bc 1b 18 15 bb
       0.006724182 5.9204074e-05 -0.011122595 -0.0022749964
0002a0 82 b2 46 b9 27 57 de bb 8e 82 35 ba f3 7a ec 3c
       -0.00018949251 -0.0067852917 -0.0006924056 0.02886722
0002b0 bc 67 ec 3a b3 9f a5 ba dc a5 b7 39 8a c5 3e bb
       0.0018036286 -0.0012636095 0.00035028055 -0.0029109442
0002c0 00 00 00 00 ab 4b 1b ba 00 00 00 00 53 01 ba b6
       0.0 -0.0005924056 0.0 -5.543386e-06
0002d0 e1 d4 31 bb 5c 10 6a 3c 54 56 bb bb 64 06 da ba
       -0.0027134942 0.014286127 -0.005717078 -0.0016633985
0002e0 c9 e7 93 ba 00 00 00 00 fa db 56 bc 24 a1 36 3c
       -0.0011284287 0.0 -0.01311397 0.011146817
0002f0 8a d3 a3 3c 00 00 00 00 f5 fe be bb a6 58 db 3a
       0.01999833 0.0 -0.005828733 0.0016734793

W_action_type f4 [192, 4]
000000 ae d0 71 3d f5 1e 98 bc 01 c9 6c bd b5 9c 13 be
       0.059036903 -0.018569449 -0.05780888 -0.14415248
000010 ca 5b 9d bb 9a ba 6c bd bc 4d 23 3e 88 e8 6e bd
       -0.004802202 -0.057795145 0.15947622 -0.058327228
000020 0f a4 45 bd 67 d9 e9 bd ad 93 28 3e 3f 78 5a bc
       -0.04825216 -0.11418419 0.16462584 -0.013334333
000030 61 cb 25 3d 11 50 fa 3d 64 55 d3 39 22 58 df 3a
       0.04047716 0.12222303 0.00040308677 0.0017039815
000040 54 02 0b 3e d9 8c c8 3c f3 9b 9b bd 8d 43 71 3e
       0.13575107 0.024481224 -0.07598104 0.23560925
000050 b7 ff 88 3d 71 77 a8 bd 0c eb c5 3d 31 54 2a bc
       0.06689399 -0.08225907 0.09663972 -0.010396049
000060 c1 5c 25 be fe 5a ad 3d dd 0e 14 be 02 37 e0 3d
       -0.16148664 0.08464621 -0.14458795 0.10947992
000070 aa ff 04 be 4b 39 31 3e 62 c4 32 bd 77 6f f0 bd
       -0.12988153 0.17307012 -0.043644316 -0.1174001
000080 4e 95 a7 3a d7 79 70 3e 87 04 8b bd e3 1f 26 be
       0.0012785585 0.23483978 -0.06787973 -0.16223101
000090 90 9d ab bc cc 43 c1 bd a9 3e 54 be d6 31 2b bd
       -0.020949155 -0.09436759 -0.20727028 -0.041795574
0000a0 48 82 3d bc 29 6b 59 bd 7a 39 c0 3d e9 ce 98 bc
       -0.011566706 -0.05308071 0.09385963 -0.01865335
0000b0 0f 9e cf bd e8 5d 03 3e f9 a3 85 3d 34 88 d8 3d
       -0.10137569 0.12828791 0.06525416 0.10572854
0000c0 d1 4c 49 bd 65 0e 58 3e 0c 96 63 3d 88 dd 4b bd
       -0.049145523 0.21099241 0.055563018 -0.049771816
0000d0 16 c9 22 3e be de 57 bd 20 3a 8a bd 08 bd 1d be
       0.1589702 -0.052702658 -0.06749368 -0.15404141
0000e0 87 d7 44 3d 09 a6 d9 bc 77 1c 99 bd 45 a3 2b 3d
       0.048057105 -0.02656843 -0.07476132 0.041903753
0000f0 c9 94 fe bc fd 91 83 3d 6c cc a3 bd 19 21 94 3d
       -0.031076806 0.064243294 -0.07997975 0.072328754
000100 2b 48 c8 3d d8 34 2c 3d a3 b6 5a be 9c 05 60 3b
       0.0977939 0.042042583 -0.21358733 0.003418303
000110 1a 28 33 3d fb 34 4c be 30 f9 ae 3c b9 2b 8c 3d
       0.043739416 -0.19942085 0.021359056 0.06844277
000120 7d 96 da bd 48 f4 0e 3e 14 2e 04 3d 72 65 13 3e
       -0.106732346 0.13960373 0.032270506 0.14394167
000130 40 ef c3 bd 21 3c 03 bc 98 38 f1 3c ea 1f 45 be
       -0.09567118 -0.008009941 0.029445931 -0.19250455
000140 04 7a 01 bc 91 2f 8a 3c 5e 6d 81 3d e6 cc 4c be
       -0.007902626 0.016868385 0.06319688 -0.20000038
000150 6a eb 12 bd 22 41 34 3e 59 6f 60 3c a1 5f b3 bd
       -0.03586904 0.17602971 0.013698422 -0.08758474
000160 f4 3e 09 be 2b fa 5a 3e e5 17 77 bd 57 fa 16 bc
       -0.13402921 0.21384494 -0.060325522 -0.009214959
000170 9a d4 da bd f4 bb ab 3d ea 97 02 3e 10 dc e4 bd
       -0.10685082 0.083854586 0.12753263 -0.11174786
000180 6e a9 4a 3e 25 e0 07 be a2 68 b8 bc e5 02 e5 3c
       0.19791195 -0.13269098 -0.02251083 0.027955482
000190 34 22 6d bd aa d8 fb bc 1d 87 18 bc fe 37 8e 3d
       -0.057893947 -0.030742962 -0.009309557 0.069442734
0001a0 21 62 c2 3d 68 5e d5 bd bb 54 c1 bc f8 66 b9 bc
       0.09491373 -0.10418397 -0.023599973 -0.022632107
0001b0 9c 30 0a bd 8c 16 31 bd 68 4b c3 bd 59 03 9a 3c
       -0.033737764 -0.043234393 -0.09535867 0.018800424
0001c0 3d ef 8c 3d 38 a2 66 3d e4 13 27 be 66 8b 88 3e
       0.068815686 0.056307048 -0.16316181 0.26668853
0001d0 e9 59 cd 3c 92 78 24 3e 2d 13 0a bb 9f 1e 56 3d
       0.025067287 0.16061619 -0.0021068559 0.052275296
0001e0 d6 5a ef 3d a7 02 3b 3d 73 a6 cd bd 11 8a b6 bd
       0.116872475 0.045656826 -0.10041513 -0.08913053
0001f0 30 f1 c2 3d 74 d3 0a 3d c5 75 19 3e d3 1a c9 bc
       0.09518659 0.033893064 0.14986332 -0.024548924
000200 cb 9e a2 3d d0 9f 29 3e 9b 6e 5a 3d e2 a7 bf 3b
       0.079404436 0.1656487 0.053328138 0.0058488706
000210 85 cf 41 3e 08 00 c0 bb 94 79 1f 3e cb 9e 19 3e
       0.18926819 -0.0058593787 0.15573722 0.15001981
000220 4a 03 c4 3d 19 49 7e 3d 3a aa f9 bd c6 82 1a be
       0.0957094 0.06208143 -0.12190671 -0.15088949
000230 7f 2b 96 3d 24 1b 05 be 08 6b 24 3e 3a 95 26 be
       0.07332515 -0.12998635 0.16056454 -0.16267863
000240 26 ef cd 3c 2b 0b f4 3b 6e c4 7a 3d 48 2d 68 bc
       0.025138449 0.0074476204 0.061222486 -0.014170952
000250 98 bf 20 3e ab 90 20 3e e5 3d aa 3d d9 5d 2e be
       0.15698087 0.15680186 0.08312587 -0.17027988
000260 68 4d 37 be 71 35 3b bd 08 62 04 be a3 e1 57 3d
       -0.17900622 -0.045705263 -0.12928021 0.05270542
000270 64 1b fc 3d e7 6d 54 bd 57 b6 88 be 33 62 08 3e
       0.12309912 -0.051862624 -0.26701614 0.1331871
000280 ee 58 c0 bd d4 25 f7 3d de e8 dc bd f0 9d 22 bd
       -0.09391962 0.12067762 -0.107866034 -0.039701402
000290 62 2c 1a bd db 63 3a bd 1e 29 18 3e ae 71 2f 3e
       -0.037639983 -0.045505386 0.14859435 0.17133209
0002a0 5f 5e 97 3d 5c b4 a5 bd fe 42 0e 3c 1f 31 90 bd
       0.07391047 -0.080910414 0.008682964 -0.07040619
0002b0 08 5e 7a be 1e 88 03 3e 86 03 8d 3c b9 44 59 be
       -0.24449933 0.12844893 0.017213594 -0.21217622
0002c0 9a e4 bc bc 33 09 2c be 30 b1 21 be 58 b7 a9 bd
       -0.023058224 -0.16800384 -0.15790248 -0.08286923
0002d0 8a c6 e0 bc 0b d5 d0 3d 97 d7 26 3d a2 04 a5 bd
       -0.02743842 0.10196885 0.040732946 -0.08057524
0002e0 e6 e5 dc be 38 26 f3 bd 83 c7 0f 3e e4 9b 5b bc
       -0.4314415 -0.11872524 0.14040951 -0.013403866
0002f0 f6 b4 c4 3d 09 36 e4 bc 1b b3 99 bd 56 f0 f7 3c
       0.09604828 -0.027857797 -0.07504865 0.030265968
000300 fd 07 6f 3d 68 01 52 bd 10 7b 25 bd 2c df 37 bd
       0.058357228 -0.051270872 -0.040400565 -0.044890568
000310 6f 89 47 be 4a f2 5d 3d 40 02 ab 3d 45 77 09 3e
       -0.1948602 0.054186143 0.083500385 0.13424404
000320 20 e2 88 bd 00 90 2e 3d f7 36 d0 bd 55 32 a2 3d
       -0.06683755 0.042617798 -0.10166734 0.07919756
000330 2b da 54 bd ce 6b 69 bc e6 8b 04 3e 17 02 83 3e
       -0.051965874 -0.014246894 0.12943992 0.25587532
000340 86 98 8f 3d d3 d3 08 3e 58 3c 57 bd d6 f8 65 bc
       0.070115134 0.13362055 -0.052547783 -0.014036378
000350 23 e7 f3 3d 8f 8a d7 bd dc e0 4f bd 3a 4c 8a 3b
       0.1190932 -0.10524475 -0.050751552 0.0042205127
000360 79 47 d3 3c a1 22 c5 3d 04 09 b0 3d ad b9 1b 3d
       0.025790917 0.096257456 0.085954696 0.03801887
000370 3c 99 b6 bc e3 15 8a 3c dc e1 d0 3d 96 0a ad 3d
       -0.022289865 0.01685614 0.10199329 0.08449285
000380 cf b2 03 bc 5a 60 f3 bd 5c 36 10 be 9e 8e 0f bd
       -0.008038237 -0.11883612 -0.14083236 -0.03504812
000390 7f 4b d9 3c 2f e0 d9 3b c3 9d 51 3c 95 c7 b6 bd
       0.026525257 0.006649039 0.012793961 -0.08924786
0003a0 e9 e0 1a bd 5f 45 fa 3d fc c7 84 3d 11 b4 6c 3d
       -0.037812147 0.12220263 0.064834565 0.057788912
0003b0 a9 dc ff 3c 80 4d 74 3c 3b 18 32 3e ca a0 8d bd
       0.031233149 0.014911056 0.17392056 -0.06915434
0003c0 64 81 d3 bd c6 bc 45 3d e7 c3 b4 bd 9c 83 f9 bd
       -0.10327414 0.04827573 -0.08826428 -0.121833056
0003d0 50 ff 83 bd c6 70 43 be 16 a7 fc 3c eb 8c 0a bd
       -0.06445181 -0.19085988 0.030841392 -0.033825796
0003e0 7f a2 55 3d 20 de 1c be c1 f7 1d 3e da b4 c9 3d
       0.05215692 -0.15319109 0.15426542 0.09848948
0003f0 1f 79 f7 3a b2 dd b4 3d 03 4c 83 be bb 40 0c 3e
       0.0018880701 0.088313475 -0.2564393 0.13696568

b_action_type f4 [4]
000000 3d 4b fd bb 60 e9 00 3c 1a 5c 98 bc 3b 3a 97 3c
       -0.0077299164 0.007868141 -0.018598605 0.018460384

W_play_habitat f4 [192, 4]
000000 8f 15 a9 bc e1 16 0d 3d ef 07 bf bd 1e a5 46 3d
       -0.020640163 0.034445647 -0.09327685 0.04849731
000010 1b 03 24 3e 4e a8 29 3d 63 cc 57 bd 41 70 94 bd
       0.1601681 0.041420273 -0.052685153 -0.07247973
000020 58 de 02 3e dd d0 4b bd 15 2b 3d 3d e4 f6 56 3c
       0.1278013 -0.049759734 0.046183664 0.013120387
000030 99 39 4e bd 17 e0 6e bd c0 fa 5c bd 46 ec 26 be
       -0.0503479 -0.058319177 -0.05395007 -0.16301069
000040 05 d5 5c bd 97 54 59 bd 97 a4 bd 3d 86 ce 3d 3d
       -0.05391409 -0.053059187 0.09259909 0.046339534
000050 77 ec 9a bd 64 16 76 3c 9b 1e 4c be 1f 36 3f bd
       -0.07564633 0.015019987 -0.1993355 -0.046682473
000060 cf f7 bb bc 74 1f 09 3d 48 20 91 bd 48 96 aa 3d
       -0.022945313 0.03347726 -0.07086235 0.08329445
000070 9c 14 44 3e 4c 77 ef 3c f3 df 10 3e a1 36 3a 3d
       0.19148487 0.02923169 0.1414793 0.045462254
000080 26 be 87 3c 63 b9 db 3d 4d 59 a2 bd 26 15 3c be
       0.016570162 0.10728719 -0.07927189 -0.18367442
000090 e0 a6 da 3d d3 62 d3 3d c4 88 74 3d 9e fd b6 bd
       0.1067636 0.103215836 0.059700742 -0.089350924
0000a0 25 af 84 3d eb d5 39 3c 52 fc 64 be b4 9a 23 3e
       0.06478719 0.011342506 -0.22361878 0.15976983
0000b0 3f 1b f9 bd 4b a0 c6 bd cf 4d ec bd 0f 09 22 be
       -0.121634 -0.09698542 -0.11538278 -0.15823768
0000c0 f4 19 e1 bd 7b 2a 65 3d 9c 20 9e 3d 8a b4 2d bd
       -0.10991278 0.055948716 0.077210635 -0.042408504
0000d0 af 96 67 bd 7f 5e d9 3c 0a 1c e4 3c 64 d5 cc bd
       -0.056540187 0.026534317 0.027845401 -0.100016385
0000e0 12 4d 40 3d b3 79 07 3e 89 2f 7d bd b4 db 0e be
       0.0469485 0.13230018 -0.06181291 -0.13950998
0000f0 32 b4 8c bb f5 29 67 bd f2 20 a6 3d 7f 4f 7b 3e
       -0.004293942 -0.056436498 0.081117526 0.24542044
000100 67 cf 6f bd 6e 23 a9 3d d5 50 04 bd 1a 33 26 3e
       -0.058547404 0.08258711 -0.03230365 0.16230431
000110 55 7b 48 be d5 3a ae bd 20 f2 c9 3d 0b 2c 18 3e
       -0.19578297 -0.08507315 0.09860635 0.14860551
000120 a8 67 1f bb fd b4 44 bb 61 a0 3f bd ce cd 03 3e
       -0.0024323259 -0.0030015104 -0.04678381 0.12871477
000130 de e3 09 3d 93 4f 29 3d b3 54 fe bd d3 08 0f be
       0.033664577 0.041335654 -0.12418499 -0.1396821
000140 fc 32 25 bd 34 78 38 bc c0 dc 8a 3c 4f d0 66 3d
       -0.040331826 -0.011259127 0.016950965 0.056351002
000150 e5 ea 54 bd 44 16 09 be f5 c3 37 3e 78 12 1c bd
       -0.051981825 -0.133874 0.17945845 -0.03810355
000160 72 51 70 3c 14 c4 f9 bb 3d 05 72 bd ac 03 b1 be
       0.014667856 -0.0076222513 -0.059087027 -0.34573114
000170 94 6b f8 bc 57 77 1b 3e 6a 85 72 3d f6 f3 c2 3b
       -0.030324735 0.15182243 0.059209265 0.0059494926
000180 85 91 4c 3c a4 68 6e 3e 6b e0 27 3c eb 31 ce bd
       0.012485866 0.23282105 0.0102463765 -0.10068115
000190 f2 97 b0 3d 94 e8 29 be da 8c a8 3d 0c 47 f1 3c
       0.08622731 -0.16592628 0.0822999 0.029452823
0001a0 1e 30 67 3d 46 62 2d 3e 36 e8 2c bd ba 85 18 bc
       0.056442373 0.1693202 -0.04221364 -0.009309227
0001b0 63 82 35 be 06 58 55 bd 04 df db 3d 7c d7 b4 3c
       -0.1772552 -0.0520859 0.10735896 0.022075407
0001c0 0f 15 6e 3e 31 9f 3e be f9 45 42 bb 51 35 8c bd
       0.2325022 -0.18615414 -0.0029643758 -0.06846107
0001d0 79 8f 85 3c a0 3f f8 bd 19 5b 0a 3e 85 35 2a be
       0.016303765 -0.121215105 0.13511313 -0.16621979
0001e0 89 78 5e bc 8c 74 a8 bd 72 0c 88 3d 0e 5d b5 3d
       -0.0135785425 -0.082253546 0.06642999 0.088556394
0001f0 14 f7 07 be 5c a7 6d be 34 e6 21 3e 36 6b 2c be
       -0.13277847 -0.23208374 0.15810472 -0.16837773
000200 a9 6a 29 3c 45 e4 93 3c 56 fd 40 3e 43 07 59 b9
       0.010340371 0.018053183 0.1884664 -0.00020697438
000210 e6 e6 b4 bc f7 c8 b3 bb ca ed a8 3d a1 41 45 bd
       -0.022082757 -0.0054866034 0.0824848 -0.04815829
000220 9d 98 65 3e 29 46 95 3d 76 9c ae bc ab 45 0a 3e
       0.22421499 0.072887726 -0.02131484 0.13503139
000230 c9 b7 91 3a 06 32 0d bd d9 b1 7f bd 50 ce 52 be
       0.0011117394 -0.034471534 -0.062425468 -0.20586514
000240 0a 88 0b 3d 98 c7 67 3d 2f 88 9a bd 2a 3a 48 be
       0.034065284 0.05658683 -0.07545506 -0.19553438
000250 11 63 6a bd 99 51 eb 3d 77 83 b8 3d 52 b3 8d bc
       -0.057223383 0.11490173 0.0900945 -0.01729742
000260 4f b1 a8 3d 54 19 a4 3d 01 7c d0 3d bf 70 bc 3d
       0.08236944 0.080126435 0.10179902 0.09201192
000270 b9 52 ce 3d 38 76 45 bd d7 13 31 3e ea 67 5a be
       0.10074372 -0.048208445 0.17292725 -0.21328703
000280 97 37 6c be f3 c7 68 3c c9 c9 13 3e e7 77 26 be
       -0.23068081 0.014207828 0.14432444 -0.16256677
000290 d1 2a 48 3d ee aa ff 3d a6 73 74 3b 7f b8 52 bd
       0.048868958 0.12483774 0.0037300377 -0.05144548
0002a0 f8 9b 21 bd 46 09 01 3e bb 2f da bd 10 29 0a 3e
       -0.039455384 0.12601194 -0.10653635 0.13492227
0002b0 a4 6e 20 3e de 69 80 3e 45 00 d3 bc b1 2c bd 3d
       0.15667206 0.2508077 -0.025756964 0.0923704
0002c0 c5 1c c5 3c 40 bf 94 3d c0 8a 0b 3e d6 e5 ef 3d
       0.02406157 0.072630405 0.13627148 0.117137596
0002d0 61 2d 7b be 26 b0 d3 3c 4b 47 af 3d 43 87 e3 bd
       -0.2452903 0.02584083 0.0855852 -0.111097835
0002e0 72 ce c8 bc b0 1c 0b 3e 47 d2 52 3b 39 92 64 3c
       -0.024512503 0.13585162 0.0032168792 0.013950878
0002f0 37 81 05 3e 50 46 a3 3d d8 26 12 3c 9e e1 41 3d
       0.13037573 0.079723954 0.008920394 0.047334306
000300 23 8a a0 3d b5 be b5 bc fe 5a 04 3b fb 86 da bd
       0.078388475 -0.022185663 0.0020195837 -0.10670277
000310 24 0b dd 3c 83 fe 15 3d ec 25 a4 3d 70 e2 15 bb
       0.026982851 0.036619674 0.080150455 -0.0022870563
000320 da 06 cb bd 28 40 a1 ba 1e d7 93 3c 82 6f b0 3b
       -0.09913416 -0.0012302445 0.018046912 0.0053843865
000330 19 2c cb 3d 93 86 0a bd 77 cd fe 3d 86 14 19 3d
       0.0992052 -0.033819746 0.12441533 0.03737309
000340 7b 1f 84 bd 7c 3e 37 bb 79 e2 c4 3d 4b f1 25 3d
       -0.06451317 -0.0027960828 0.09613509 0.040513318
000350 15 ae e1 3d c0 70 5e bc 3f 67 27 3d 20 44 11 3e
       0.11019532 -0.013576686 0.040869948 0.14186144
000360 02 f5 90 bc 55 9b a5 3c c1 00 0b be a1 1a 45 bd
       -0.017694954 0.02021567 -0.13574506 -0.0481211
000370 a6 5a cc 3d 96 91 0e 3d b8 b7 73 bd 78 e6 d4 bd
       0.09978227 0.03480681 -0.05950138 -0.10395521
000380 0f bf 30 be f0 c5 14 be f3 f1 1c 3d 77 c7 28 3e
       -0.17260383 -0.14528632 0.03831668 0.1648234
000390 b3 44 25 3d 63 fa 2e bd 6d 7a 34 be 0a 66 b4 bc
       0.04034872 -0.042719256 -0.17624827 -0.022021312
0003a0 b8 b9 1d bd bb b9 cb bc 7f a1 47 3e c1 99 c6 bd
       -0.038507193 -0.024868837 0.194952 -0.09697295
0003b0 f1 f8 d8 bc e3 9f ce 3d c3 fa c3 bd 4d 9a 8c 3d
       -0.026485892 0.1008909 -0.095693134 0.06865368
0003c0 50 be 06 3d 8e cf 81 3d 10 30 94 bb b0 34 b1 3d
       0.03289634 0.06338416 -0.004522331 0.086526275
0003d0 7a 7b cc bd 3f ec 9c 3c 8c 87 da bd 47 6f 13 3e
       -0.09984489 0.01915562 -0.10670385 0.14397918
0003e0 7e 51 47 3d 70 b9 a8 bc 25 93 c8 3d d1 4e fc bc
       0.0486617 -0.020596236 0.097936906 -0.030799301
0003f0 90 1e 40 bb 13 01 96 3d 8a 87 91 bd a5 17 e2 bd
       -0.0029315092 0.07324424 -0.0710593 -0.11039666

b_play_habitat f4 [4]
000000 38 de 1b 3c 45 fb 6d 3b fe 39 7d bb 89 0e 18 bc
       0.00951343 0.0036313098 -0.0038639302 -0.009280809

W_gain_food_primary f4 [192, 7]
000000 1e 17 be bd 82 a1 12 3e 6a 3e 04 bd b6 22 13 bd
       -0.09281753 0.14319423 -0.032286085 -0.035921775
000010 98 8f e0 bd 9e 6f af bd 12 a6 d1 3d 0d 64 04 bd
       -0.10964888 -0.08566211 0.102367535 -0.03232198
000020 a4 69 0a bd 0c 1b 98 3d bc 51 8d 3c 83 98 8c 3d
       -0.033792153 0.07427034 0.017250888 0.06865027
000030 a9 5c dc bc 9c 2f 86 3e 80 45 17 be d6 b5 a8 3d
       -0.026899653 0.26208198 -0.14772606 0.082378075
000040 5e 03 45 bd 4d ce 82 bc 7e 50 6e 3d 76 1b 21 be
       -0.048098914 -0.015967513 0.058182232 -0.15733132
000050 61 21 9a bd 9b 17 ac 3d e8 61 bd bd 55 d6 0b 3d
       -0.07525898 0.0840294 -0.0924719 0.03413995
000060 97 60 3f 3c 2f 84 89 3d 47 4d b5 3d 9d f3 24 bc
       0.011680744 0.06714665 0.0885263 -0.010067848
000070 77 17 17 bd 00 42 ad 3d 6b 31 16 bd 64 3a ad bc
       -0.036887612 0.08459854 -0.036668222 -0.021146007
000080 8b 08 0c 3e 84 87 cc bc b4 a8 d6 bd 8f fc 1b bc
       0.13675134 -0.024966963 -0.10481396 -0.009520664
000090 9e 6f fd bc a7 7c 27 bd a3 2c fb 3c 48 32 ae bd
       -0.030937012 -0.040890362 0.030660933 -0.08505684
0000a0 b3 13 b6 bd 42 e7 95 3d 20 5d a2 bc 2a 9d 89 bc
       -0.08890476 0.073194996 -0.019819796 -0.016798574
0000b0 5c 0f 1e 39 88 f8 fc 3b c3 05 dd bc e7 a2 df 3d
       0.00015073776 0.007720057 -0.026980286 0.10919743
0000c0 db 99 f4 3d 1d b2 7b 3d a6 ec 4c 3c 62 d4 fe bc
       0.11943408 0.06144916 0.012507593 -0.031107131
0000d0 28 65 bd 3d fe 81 06 3e fe fa f6 bc f2 2f 1b 3e
       0.0924781 0.13135526 -0.03014898 0.15155008
0000e0 22 0f d3 3c cc 55 4c 3c f4 09 f1 3d bd e1 bf 3d
       0.025764052 0.012471627 0.117694765 0.09369228
0000f0 74 63 98 3d 3d 14 00 bd 1d 1e 55 bc 00 99 32 3e
       0.07440844 -0.0312693 -0.013007668 0.17441177
000100 d9 0c 21 3e f6 73 db 3d cf 76 12 be 0d 34 3d be
       0.15727557 0.10715477 -0.14303134 -0.18476887
000110 ef 22 8e bd a5 75 ac bd a3 09 8e 3d b3 6c cf bd
       -0.06940257 -0.084208764 0.06935432 -0.101281546
000120 d1 47 44 3b d1 4c 89 3d 72 d4 e1 3c f3 ff 96 bd
       0.0029950032 0.06704105 0.027567122 -0.07373037
000130 92 a6 ac 3d 12 63 b5 3c 76 d5 c3 3d 82 3c 85 bd
       0.08430208 0.022141967 0.09562199 -0.065056816
000140 1c 1a 32 be ff 9a 33 be 86 43 94 3a de ff 19 3e
       -0.17392772 -0.17539595 0.0011311627 0.15039012
000150 94 29 8d 3d 75 42 ca bd bc 41 ba 3a 5a b5 ca 3d
       0.06892696 -0.09875957 0.0014210264 0.09897871
000160 c6 ee dc bc 1f 06 63 bd 0d 99 24 3d da 95 49 be
       -0.026969325 -0.05542576 0.040185023 -0.1968607
000170 5f 10 0b bd 91 48 15 bd 3d 1c 11 be db c9 88 bd
       -0.03395116 -0.036446158 -0.14170928 -0.06679126
000180 83 93 a7 3d 0c 49 80 3d db 5f a4 3d 0d 99 a4 3c
       0.081824325 0.062639326 0.080260955 0.020092512
000190 0a 49 c9 3d a4 c0 12 3e 98 37 92 bb 13 72 ec 3b
       0.09828384 0.14331299 -0.0044621937 0.007215747
0001a0 07 d0 20 3d 77 33 5e be d1 44 9e bd 65 97 12 be
       0.03926089 -0.2169932 -0.077279694 -0.14315565
0001b0 7a a8 09 be 77 45 9d 3d aa 86 85 be 85 1d 08 3d
       -0.13443175 0.07679265 -0.26079303 0.033231277
0001c0 8a c1 98 bd b9 cc 5c 3c af 9e f4 3d e4 89 0a 3e
       -0.0745879 0.013476544 0.11944329 0.13529164
0001d0 f9 20 41 bd f3 9a 51 bd db fa e4 3c 97 9d f5 3d
       -0.047150586 -0.05117316 0.027951648 0.119929485
0001e0 39 8a da 3d d6 45 f8 3d 2c 8a d4 b8 6d 3f 0a 3e
       0.10670895 0.12122695 -0.00010134684 0.13500758
0001f0 2c 79 87 bd 2a 6a af 3b f9 b4 e0 3c 88 4f ee 3b
       -0.066149086 0.005353232 0.027430044 0.0072726645
000200 77 2f 4c be 65 bd cd bd 89 c2 d7 3c f0 fc 31 be
       -0.19939981 -0.1004589 0.026337879 -0.17381644
000210 7e 8d 20 be 41 09 35 be ca 0c 35 bc d9 54 fe bc
       -0.15678975 -0.17679311 -0.011050412 -0.031046318
000220 27 51 a7 bd 3a 10 49 be 29 e6 2a 3d dc 5d 81 3d
       -0.081697755 -0.19635096 0.041723404 0.063167304
000230 cb fd 9a 3d 98 63 87 3d d5 b5 f5 3d 80 f5 55 bd
       0.075679384 0.06610793 0.11997572 -0.05223608
000240 2e 0a a4 bd b8 c3 64 3d da e8 64 bd 74 6d e2 3d
       -0.08009754 0.055850714 -0.055886127 0.11056033
000250 01 02 47 be 62 f8 14 3c a6 94 1b 3e b2 91 96 3d
       -0.19434358 0.009092422 0.15193424 0.07352008
000260 dc 44 14 be 78 4f 2d be 67 ea ee bd ef 51 1e 3e
       -0.14479393 -0.16924846 -0.116658024 0.15460943
000270 14 45 30 be 15 75 14 bd 9f 03 f1 bc 7e 95 1c be
       -0.17213851 -0.03624447 -0.029420672 -0.15291402
000280 5b d5 58 3d 8a 83 3b 3d 1f d7 2d 3d a9 80 86 3d
       0.052937847 0.045779742 0.042441484 0.06567509
000290 19 f2 a6 bb c5 b4 9d bd 02 f7 9b 3d e3 5b f9 bd
       -0.0050947783 -0.07700495 0.076154724 -0.12175729
0002a0 5e f9 39 3d 16 bf 20 be 7d ad cf 3d 1e bb 8d 3e
       0.04540383 -0.15697894 0.10140512 0.27681822
0002b0 74 ef 13 be a4 65 79 be 3f 09 9b bc 56 72 30 bd
       -0.14446813 -0.24355179 -0.018925307 -0.04307779
0002c0 2c 3b 0a 3e a6 18 f0 3d 53 83 15 3d 96 57 0e be
       0.13499135 0.11723451 0.036502194 -0.13900599
0002d0 03 ee d0 bd c0 1d b9 3b 39 3e da bd bc 47 00 bc
       -0.10201647 0.0056492984 -0.10656399 -0.007829603
0002e0 09 1a fc 3c 1c ee f6 3d 14 3a 35 3c 4f 09 29 bd
       0.030774133 0.120571345 0.01106121 -0.041268643
0002f0 30 07 f8 b8 48 ea 75 3c dd 6f 31 bc f5 bf 46 3e
       -0.000118269 0.01500947 -0.010829893 0.19409163
000300 37 f4 c5 bd b7 ca 59 3c 36 bf 69 3d 22 15 ae 3d
       -0.09665721 0.01329296 0.05706712 0.085001245
000310 8a b7 bd 3d 48 eb d4 bc ed 51 c1 3b 74 21 22 bd
       0.09263523 -0.025991097 0.005899659 -0.039582685
000320 6a 96 06 be 25 a2 c8 bb f3 a9 eb bd f7 33 58 bb
       -0.13143316 -0.0061228448 -0.115070246 -0.0032989958
000330 53 ae d4 bd 48 3f 97 3d 37 6d 5a 3d c3 30 10 ba
       -0.10384812 0.07385117 0.05332681 -0.000550043
000340 8d 4c 0e be f2 ac e4 3d f1 51 df 3b b6 48 cd 3d
       -0.1389639 0.11165799 0.006815188 0.10023634
000350 a6 19 e0 bc 56 08 fe 3d 88 d3 2a 3e 76 4c 19 be
       -0.02735598 0.12403934 0.16682255 -0.14970574
000360 e9 c1 1f 3e 14 65 10 bd db 4b 36 3d bc 78 45 bd
       0.15601315 -0.035252646 0.044505935 -0.048210844
000370 d6 c6 91 3d 4b bd aa bd 88 11 a9 bc 1b 83 4d 3d
       0.07118003 -0.08336886 -0.020638242 0.05017386
000380 fe c3 4c be 9f b2 fb 3c f7 6e e1 bc 03 4e 99 3b
       -0.1999664 0.030724822 -0.027518732 0.004678489
000390 02 58 eb bd 49 f1 12 3e 58 78 0d bc 4f 97 4d 3e
       -0.114913955 0.14349855 -0.008634649 0.20077251
0003a0 3d d9 b5 3d 30 63 7b 3d 4b 70 22 bd 87 54 2e 3c
       0.088793255 0.06137389 -0.039657872 0.01064027
0003b0 3a 29 b1 3d 7e d6 52 3e cd bd 08 be c9 c7 3b be
       0.086504415 0.20589635 -0.13353653 -0.1833793
0003c0 9a 2d 71 bd d4 91 f0 bd 6d 1f 53 be cb e5 18 bc
       -0.05888138 -0.117465645 -0.20617457 -0.009332131
0003d0 03 23 0e be a6 ad 08 be 26 7a 82 3c af d9 b1 3d
       -0.13880543 -0.13347492 0.015927386 0.08684098
0003e0 37 53 e3 bd 7e ed 06 bd ae 26 ea bd b4 85 10 b4
       -0.11099856 -0.032941334 -0.11433159 -1.3459686e-07
0003f0 fd f4 8b 3d 19 42 ad 3c 91 93 01 3d 7f f8 a4 bd
       0.06833837 0.021149682 0.03163487 -0.08055209

b_gain_food_primary f4 [7]
000000 1a 2e 76 3b 43 fa b6 bc 26 bf a5 3b 1c 4a f6 3b
       0.00375641 -0.022336131 0.005058187 0.0075161587
000010 db 87 49 ba 7b 43 81 3c 1e 8a 13 bc
       -0.00076877855 0.015779248 -0.009005098

W_draw_mode f4 [192, 4]
000000 61 4c 7b bd b7 6d 59 3d b0 aa a4 3d 60 ee b7 3c
       -0.061352137 0.053083148 0.080403686 0.022452533
000010 08 b4 88 3d 12 40 56 3d e1 48 d2 3d 4c 7e 7c bc
       0.06674963 0.052307196 0.10267807 -0.015410971
000020 c0 4c 0e 3a 5c ff 1e 3e 0b 9a 54 3e 20 2c 1c bd
       0.0005428307 0.155271 0.20761888 -0.03812802
000030 5c 9d ed 3c 2b 5f a2 3d d8 d2 8a bd f4 fd b8 3d
       0.029005699 0.07928308 -0.067784965 0.09032813
000040 87 9e c3 3d 19 34 b4 bc 61 56 2f 3d e3 88 27 3e
       0.09551721 -0.021997498 0.042806987 0.16360812
000050 8e 1f ea 3d 68 3b f1 3c 0b 5b ca 3a 7a 1f 01 be
       0.114318 0.029447272 0.001543851 -0.12609664
000060 c9 f2 03 3c b8 d1 3d 3e da e8 44 3d 27 74 20 be
       0.00805349 0.18537033 0.048073627 -0.15669309
000070 d7 39 9d 3d e7 63 8e bd e4 57 33 be 29 8c e0 3d
       0.07677048 -0.069526486 -0.17513996 0.109642334
000080 ad c8 85 3e 74 f9 3a bd fe 21 25 be 3e 2d b3 39
       0.26129666 -0.045648053 -0.16126248 0.0003417525
000090 5b d0 6b bc bc db 50 3d 46 74 7c bd d3 c4 1d be
       -0.0143929375 0.050990805 -0.061634324 -0.15407114
0000a0 23 22 86 3b 9f 03 0d bc 86 6f 80 bd 44 1d 10 3e
       0.004093425 -0.00860682 -0.062712714 0.14073664
0000b0 3d 79 24 3e 33 86 aa 3d 30 4e fe bc d0 30 f7 bb
       0.16061874 0.08326378 -0.031043142 -0.0075436607
0000c0 e4 ff 98 3d 38 fa bb 3d b2 90 06 be 65 52 b7 bc
       0.07470682 0.09178585 -0.13141134 -0.022378156
0000d0 3f 83 7c bd 48 e2 73 be 69 42 7e 3e ba a8 58 bd
       -0.061648604 -0.23816788 0.24830021 -0.052895285
0000e0 82 7b cc bd 5d 38 03 bd 06 e3 f2 3c 64 1c d2 3d
       -0.09984495 -0.032036174 0.029649269 0.10259321
0000f0 f5 db 50 be 7b 88 3c 3d d6 74 b5 3c 20 43 13 bd
       -0.20396407 0.046028595 0.022150438 -0.035952687
000100 63 1a ba 3c 48 30 1d be c3 d6 a5 bc 95 08 4a be
       0.02271766 -0.15350449 -0.020244008 -0.19729836
000110 25 ab c1 3d 2e ae b5 bd 12 3f 93 3d 99 33 a2 3b
       0.09456471 -0.08871113 0.07189764 0.0049499986
000120 5d 75 a6 3b 3a 4e de 3d 53 04 4b 3e a8 73 85 bc
       0.0050799088 0.10854764 0.19825868 -0.0162905
000130 50 f5 ec 3d 4b f7 00 bd 95 41 00 3e 49 0e 49 3e
       0.11570227 -0.031485837 0.12525018 0.19634356
000140 4e 4b c4 bd 1b f4 8d 3d 38 ab 63 3b d5 a5 ba 3c
       -0.09584676 0.06931325 0.0034739505 0.022784153
000150 37 6f 0b 3e d0 4b be 3d 2a 9f 92 be 51 dd af bd
       0.13616644 0.09291804 -0.28637058 -0.08587135
000160 bd 66 b0 3d 82 16 9b 3d ca a1 8d bc 69 d0 0b bd
       0.08613346 0.075726524 -0.017289061 -0.034134302
000170 c8 de 95 3d 7c 16 0b be 62 87 98 3d 75 b3 12 3e
       0.07317883 -0.13582796 0.07447697 0.1432627
000180 66 7b ce 3d 60 65 26 3e 8a 5d a4 3c 5d f5 3e bd
       0.1008213 0.16249609 0.020064134 -0.046620715
000190 b4 62 ad bd bb 6a 11 bd 5e 3d e9 bd 70 e6 88 bd
       -0.08466092 -0.035502177 -0.11388658 -0.066845775
0001a0 39 aa 34 be 6c ac 9f bc cf 17 9c 3d 4c 24 da 3b
       -0.1764306 -0.019491397 0.07621729 0.006657159
0001b0 f6 ae e3 bd e7 2d 24 be 37 06 f6 3d b6 ec f5 3c
       -0.111173555 -0.16033135 0.12012904 0.0300201
0001c0 2b d6 94 bd a5 1b 25 3d 9c 81 23 be 18 c0 d9 bd
       -0.07267412 0.040309567 -0.15967411 -0.10632342
0001d0 b7 6c e9 bc b9 0a 3e 3e de 4b 45 3d 3c f9 65 bd
       -0.028494222 0.18558778 0.048168056 -0.05614589
0001e0 e3 a8 15 bd 17 92 29 be b3 49 c5 bd c7 f6 29 3e
       -0.036538016 -0.16559635 -0.09633198 0.16598044
0001f0 bb 44 28 3e df 86 45 3d ac e6 70 3d 4b 19 dd 3d
       0.16432469 0.048224326 0.058813736 0.1079584
000200 11 70 a5 bd 4d 99 54 bd e7 16 fa bd 03 7e 4f 3d
       -0.080780156 -0.05190401 -0.122113995 0.050657284
000210 69 17 0e be 83 79 e6 3c 67 b2 8f bd a4 20 1b be
       -0.13876118 0.028134113 -0.070164494 -0.1514917
000220 b3 94 fd bc 77 66 02 bd 83 e0 4b 3e 1a 22 85 bd
       -0.030954694 -0.031836 0.19909863 -0.06500645
000230 bf 99 11 be 98 c4 e7 3c 60 36 ad 3d 69 42 6c 3d
       -0.14218806 0.028291985 0.08457637 0.05768052
000240 04 cd 87 3d 84 6c 9d bd cb 5f 84 bc 12 1e a7 bd
       0.066309005 -0.07686713 -0.016158959 -0.08160032
000250 b6 6d 8c bc ef 68 0c 3e 47 01 13 be bf bf f5 3c
       -0.017142158 0.13711904 -0.14355956 0.029998658
000260 a1 1a 3a 3d 58 b8 87 bb f2 49 b7 3d 47 72 06 bd
       0.04543555 -0.0041418485 0.08949651 -0.032823827
000270 3b 96 65 bd 53 d8 b4 3d 49 84 16 3b 04 8d 14 bd
       -0.056051474 0.08830323 0.0022967032 -0.036267295
000280 1a f6 03 3e 58 e9 00 3c 4f 8f 0a bd 9c 54 83 bd
       0.12886849 0.0078681335 -0.033828076 -0.06412622
000290 ae f2 d9 3d 41 51 8f bd a1 9c 0f bd c9 69 7f bc
       0.106419906 -0.0699792 -0.035061482 -0.015589186
0002a0 08 8f c4 3d 44 fd 8b 3e 76 00 5d be 25 09 44 bd
       0.095975935 0.27341664 -0.21582207 -0.047860283
0002b0 1c 94 44 3d d7 10 0d 3e 35 1d 1e 3e 13 84 cc bc
       0.04799281 0.13775955 0.15440829 -0.024965322
0002c0 15 ea fc 3b 0d 18 18 bd ec b7 8e bc b3 8d 97 3d
       0.0077183344 -0.03713231 -0.017421685 0.07400074
0002d0 2c ff 2c bc 72 99 c2 bd d4 02 6a bc 38 ef cc 3c
       -0.010558885 -0.095019236 -0.014282901 0.025016412
0002e0 3e cf fa 3c b7 ba e0 bd cd 28 83 3e e7 48 d3 3d
       0.030616399 -0.10973113 0.25617066 0.103166394
0002f0 20 9b 28 3d 97 22 58 bd 52 ec a2 bd 57 18 5a 3d
       0.041163564 -0.052767362 -0.07955231 0.05324587
000300 e6 d9 05 bd 6d b6 0b 3e c3 2e 84 3d 2f 35 69 3e
       -0.032678507 0.13643809 0.064542316 0.22774194
000310 af 10 e3 bc 2b 82 64 3d d3 c0 88 3d d7 cf e6 bc
       -0.027717916 0.0557882 0.06677403 -0.028175278
000320 68 1b 52 bc 17 cf 13 be 6f 73 a6 bc 07 60 f5 bd
       -0.012823917 -0.14434467 -0.020318715 -0.119812064
000330 a7 f1 09 be 10 2b 5c be 97 75 0a be 4e 1d ad bc
       -0.1347109 -0.21500802 -0.1352142 -0.021132138
000340 18 35 2c 3c 42 32 31 3e c0 49 bd bd 32 6d e6 3d
       0.010510705 0.17304328 -0.09242582 0.11251296
000350 cb 32 79 bc d4 b9 d6 3d f6 3a 49 bd 07 63 a5 bb
       -0.015209864 0.10484663 -0.049128495 -0.0050472054
000360 df 83 77 3d 5e 94 89 bd 77 ae b1 3d 28 d9 89 3c
       0.060428496 -0.06717752 0.08675855 0.016827181
000370 8d 1d 31 3e 96 77 cd 3d 9c c2 02 3d 6b 31 f5 bb
       0.17296429 0.10032575 0.031923875 -0.0074826977
000380 c8 0a 70 bc 2d f7 3e 3e 7f 87 23 be fc f8 2a 3e
       -0.014651008 0.18648978 -0.15969656 0.16696543
000390 47 7d 54 3d 52 c5 a8 3c ff ab e1 3c ab a5 d8 bc
       0.051877286 0.020601902 0.027547834 -0.026446184
0003a0 65 f0 2d 3d d2 e7 9a 3d 89 51 fd 3d 73 50 38 be
       0.042465586 0.075637475 0.12369067 -0.17999439
0003b0 8d 66 71 3d e8 c4 bc bd 85 9f e8 bc 7f 41 0a bc
       0.05893569 -0.092172444 -0.028396377 -0.008438467
0003c0 c4 0a ec 3c 35 ef 8e ba 84 eb aa bd 12 52 b0 3d
       0.028813727 -0.001090503 -0.08345702 0.08609404
0003d0 b0 e3 79 3d 24 ce e8 3d 51 1a b9 bd 2d f6 80 3d
       0.061008155 0.11367443 -0.090382226 0.06296954
0003e0 70 b7 01 3e f5 2b f9 bb 52 c3 7d bd 07 c0 16 bd
       0.12667632 -0.007604117 -0.06195385 -0.036804225
0003f0 33 cb 91 3d f7 f6 bb 3d 8b 2d fb 3b 7f 42 88 3c
       0.07118835 0.09177964 0.0076653413 0.01663327

b_draw_mode f4 [4]
000000 d3 eb 08 bd eb fa ac 3d 7e d0 ee bc 9d 43 b3 bc
       -0.033428025 0.08446296 -0.029152151 -0.021882826

W_lay_eggs_bin f4 [192, 11]
000000 21 fe ca bd ff d5 d5 3d 68 ef 95 3d 39 cd ce 3c
       -0.099117525 0.10441207 0.07321054 0.025244342
000010 95 06 57 bd b9 bc 87 bd af e3 a4 bb 31 fe b2 bc
       -0.05249651 -0.06627793 -0.005032025 -0.021849724
000020 3f 78 ea ba db b7 b8 bb 3c ba c0 bd 84 e3 ba bd
       -0.0017888619 -0.0056371517 -0.094105214 -0.091254264
000030 fc aa 98 bc d7 56 e4 3d 9e a9 bb 3d 1f 85 54 bc
       -0.01863622 0.11149376 0.09163211 -0.012971192
000040 65 5a b0 3d 95 b2 d7 bd ad 5d 95 3c a1 28 f0 3d
       0.086109914 -0.10532109 0.018233145 0.11726499
000050 9e bb 87 bd 17 51 d5 bd 98 f2 59 3d 70 f3 dc bd
       -0.06627582 -0.10415857 0.05320987 -0.107886195
000060 11 5c 33 bd d8 9c 37 3d 90 ec 4c 3d de 5d 85 3c
       -0.043788973 0.044827312 0.05003029 0.01628011
000070 be 62 d2 3d ec c4 bc 3d 16 af aa bd fd 29 ae bd
       0.1027274 0.09217247 -0.08334176 -0.085041024
000080 a1 79 11 be d5 31 ed bd 37 68 7f bd fd b6 83 bd
       -0.14206554 -0.1158177 -0.062355246 -0.064313866
000090 49 17 fc 3d 74 75 bb 3d 52 bb 4c 3e d1 bc a7 3b
       0.12309129 0.09153262 0.19993332 0.005118944
0000a0 54 b3 27 bd 53 2d 21 bd c0 02 1d 3e 26 23 9c 3d
       -0.040942505 -0.039349865 0.1533308 0.076238915
0000b0 95 de 1e 3e 02 83 1f bd f5 3b 1a 3e ce 39 58 3d
       0.15514596 -0.0389433 0.15061934 0.0527895
0000c0 81 2c c5 bd e5 78 8b 3e f5 bb 91 bc ef 33 11 be
       -0.09627629 0.27240673 -0.01778982 -0.14179967
0000d0 ea 06 47 bc fb 05 ef bd c8 e5 3c bc b9 17 17 3e
       -0.012147645 -0.116710626 -0.0115293935 0.14755143
0000e0 a7 89 b6 bc 20 91 a4 3d d6 57 03 be 6a 86 26 3d
       -0.022282435 0.08035493 -0.12826476 0.04065553
0000f0 be 8c 20 bd df 02 1c bd 42 ce f9 bd 40 e7 92 3d
       -0.039196722 -0.038088676 -0.12197544 0.07173014
000100 e3 09 06 bc 60 f5 ea bc 3a ec d0 3d a5 7e 0c bc
       -0.008181068 -0.028681457 0.10201307 -0.008575116
000110 9a 4e 19 be ba 18 44 bd a0 2c 8a bc 38 b2 80 3d
       -0.1497139 -0.047875144 -0.016866982 0.062839925
000120 7c 21 5a bd ed 17 bd bd 05 a4 db bd 9b 0c 86 3c
       -0.05325459 -0.09233079 -0.107246436 0.016363433
000130 51 84 31 be 54 2b 10 bd ed 9c 9b bd 2f 4e b9 3b
       -0.17335631 -0.03519757 -0.075982906 0.005655072
000140 ea ce 9f 3d 2a a2 de 3d 69 9c 06 bd 50 77 a8 3d
       0.078031376 0.10870774 -0.032864008 0.08225882
000150 59 78 48 3d f0 f5 10 be ae 9c c1 bc 63 ed ec 3d
       0.048942897 -0.14156318 -0.023634281 0.115687154
000160 2d 5c f8 bd c4 11 03 3e f7 db ab 3c c8 fb 60 bc
       -0.12126956 0.12799746 0.02097891 -0.013731904
000170 08 82 2b bd bf 73 94 3b 56 b8 10 bc 2d 53 c2 bd
       -0.041872054 0.0045303996 -0.008833012 -0.09488521
000180 e5 ae 77 be 4e 58 cc 3c e2 7f d8 bc e0 09 24 bd
       -0.2418781 0.02494445 -0.026428167 -0.04004848
000190 f4 c1 62 3d 3b 3e 59 3a ea a7 81 be 48 80 52 be
       0.05536075 0.0008287166 -0.2532342 -0.20556748
0001a0 50 b2 d0 3d 46 4d b3 bc 71 ee 2f 3d 0b b4 ab bd
       0.101902604 -0.021887433 0.042952005 -0.0838395
0001b0 f2 7d 0e be c3 a5 7a bc c8 59 f2 bd 7e 3c 6d 3e
       -0.13915232 -0.01529831 -0.11833531 0.23167607
0001c0 12 2e f2 bd db 25 98 bd a3 f5 6d bd 50 0e e1 bc
       -0.118251935 -0.07429095 -0.058095586 -0.027472645
0001d0 cd dc 77 bd 12 7c 38 ba e2 39 a6 bd ed 8e 23 3d
       -0.060513306 -0.0007037531 -0.08116509 0.039931227
0001e0 01 b0 a5 bd 35 8b be 3d 59 5f 01 be 01 4a ed 3d
       -0.08090211 0.093038954 -0.12634028 0.11586381
0001f0 bc 5f f7 3c 8e 13 a3 ba 14 50 a2 b9 59 32 b8 3d
       0.030197017 -0.0012441741 -0.0003095871 0.08993978
000200 a8 79 ac 3d ef 79 82 3d d2 2f 8f bd 36 a1 aa bd
       0.084216416 0.06370913 -0.06991543 -0.0833153
000210 e9 cb bf bc c7 eb cd bd a0 0f 85 bd 87 fa 4f be
       -0.023412662 -0.100547366 -0.06497121 -0.20310412
000220 2d ea 8e bd 5b f0 28 3d b8 20 e5 bd ea bb bb 3d
       -0.06978259 0.041244846 -0.11187881 0.09166701
000230 3b e4 18 bc dd 38 a2 bc b3 db 16 bc 43 27 53 3d
       -0.009331758 -0.019802505 -0.009207654 0.051551115
000240 88 ba e4 3d af 63 41 bc ca 93 dd 3d 99 88 ce bd
       0.111683905 -0.011803552 0.10819204 -0.10084648
000250 e9 22 f1 bd 5b e2 37 3c fe 34 21 be ee 73 12 be
       -0.11774237 0.011223401 -0.15742871 -0.14302036
000260 0d d2 3b be 02 17 19 be 68 6f ba 3d 2e 42 50 3d
       -0.18341847 -0.14950183 0.0910328 0.050844364
000270 d7 78 59 bd 28 75 16 3e 71 8f d6 3d 4c 6e 99 bd
       -0.053093757 0.14693129 0.10476578 -0.074917406
000280 98 bd 11 3e 68 8c 90 3d a5 f4 c3 3d 3e 57 98 be
       0.1423248 0.0705803 0.095681466 -0.2975406
000290 0e 8d 02 3d 4c 28 64 3d 35 48 8d bd 4c 6c 60 bd
       0.0318728 0.055702493 -0.06898538 -0.05479078
0002a0 b5 a2 37 3e 5c 41 1d 3d 95 f7 a2 3d 13 0d da bd
       0.17933162 0.03839241 0.07957379 -0.10647025
0002b0 33 56 fb 3d cb cc cf bc 5d 02 e8 bc 42 7e 62 3d
       0.122723006 -0.025366208 -0.02832144 0.05529619
0002c0 ac 3c d8 bb 2d 94 06 bd 6b d2 11 3d d5 e3 15 3d
       -0.0065990295 -0.032856155 0.03560106 0.03659423
0002d0 67 0a 9f 3d 0c bf 19 3d 5b 39 94 bd 71 47 0f be
       0.07765656 0.037535712 -0.07237502 -0.13992096
0002e0 70 2b b7 bd db 30 c3 bc e7 eb ea 3d 16 2b 58 3d
       -0.08943832 -0.023827007 0.11470776 0.052775465
0002f0 93 69 31 bd 07 cb 7b bd ec fd f5 bc a8 9c 8a bc
       -0.043313574 -0.06147292 -0.030028306 -0.016920403
000300 43 5c e7 3c 05 db 09 3e 0a e0 75 bc 5c d2 1d bc
       0.028242236 0.13462456 -0.015007028 -0.009632673
000310 ae 05 15 be 39 a3 86 3d 51 bf 80 be 61 1d c2 3d
       -0.14552948 0.06574101 -0.25145963 0.0947826
000320 01 63 a7 bd 62 81 f3 bd a7 f2 79 3d fa e8 77 3c
       -0.0817318 -0.11889912 0.061022427 0.01513123
000330 5e 52 5a bd 79 c2 18 bd 1c c3 10 bd 05 4c d7 3d
       -0.053301208 -0.03729484 -0.03534232 0.105125464
000340 f6 06 51 3e 4f 40 8a be e2 4f 59 be bd 13 99 bc
       0.20412812 -0.2700219 -0.21221879 -0.01868617
000350 c5 fd 2e 3e c9 bb 0b 3e 95 1c ad bc bf fc 78 bc
       0.17088993 0.13645853 -0.021131793 -0.015196978
000360 1c 1f 59 bd 96 10 6d 3d 45 a6 ba bc 6b c3 87 3c
       -0.053008184 0.057877146 -0.022784362 0.016572675
000370 c5 b3 e8 3b 95 9f b2 bd 48 bc 34 bd bf d8 28 be
       0.0071015083 -0.08721844 -0.04412487 -0.16488932
000380 8c e9 14 be 13 8a 02 be bf 0b 91 bc c4 00 45 bd
       -0.14542216 -0.12747984 -0.017705796 -0.048096433
000390 fb c7 79 3d a1 d2 7c 3d d4 8d 6c 3d 93 41 c8 bd
       0.06098173 0.06172431 0.057752445 -0.09778132
0003a0 4c 8d 29 be be b9 7d be 57 1d 02 3d 9d 82 a2 bd
       -0.16557807 -0.24777886 0.031766262 -0.07935069
0003b0 11 88 83 3d 0a fa aa 3d 5f e9 d2 bd 5c fc cd bd
       0.06422437 0.083484724 -0.10298418 -0.10057899
0003c0 60 9e e5 3d a8 77 f1 3c 4d b7 58 bd 2d 46 df 3d
       0.11211848 0.029476002 -0.052909184 0.10902057
0003d0 47 a1 1b bd be 13 cf 3d 78 76 c9 3c d2 dd 56 3d
       -0.037995603 0.101111874 0.024592623 0.052457638
0003e0 fc 33 25 3d 8d b8 2b 3d 79 06 15 be ba 85 b3 bd
       0.04033278 0.04192405 -0.1455325 -0.08765741
0003f0 0d e4 75 3d e9 92 2e 3e b5 2a 26 be d1 d6 37 be
       0.06003194 0.1704823 -0.16227229 -0.1795304

b_lay_eggs_bin f4 [11]
000000 3a 9f c5 bb 82 92 cc bb 2a fb dd 3c 9c 41 12 3c
       -0.006030944 -0.006243051 0.027097303 0.008926775
000010 3d 78 1b bb 67 f9 73 bb 01 b6 04 bb 1f 09 6e bb
       -0.002372279 -0.0037227513 -0.0020250084 -0.0036321355
000020 6c 0a 53 bb fd e7 bc bb 26 71 45 bb
       -0.0032202257 -0.00576496 -0.0030127256
