reports/ml/auto_improve_factorized_gentle_step2/iter_001/factorized_model.npz (npz, 72019 bytes, 17 tensors)

W1 f4 [48, 192]
00000000: 4f17 803e 38fa d6bd 211e af3d 59c4 38be
00000010: d003 c63b a5e0 b13e f897 2bbe 1771 cd3c
00000020: d105 df3d 66c1 e03c 7a2b 1ebd 5bf6 be3e
00000030: ec21 2f3e 0b13 cb3e 3bf1 bfbe 72ef 23be
00000040: 2614 b6be 13bc 06be b7e8 e13d 325a 243d
00000050: 6477 b5be 3f47 1f3e 84d3 8b3d c9ab e03c
00000060: 82f7 723e a4e5 f03d f344 873d 143a 063e
00000070: 5bf8 b5bd 3e31 3b3e 05dd 12bd 1ce1 91bc
00000080: 6b51 d43d 2ce9 8dbb fbd8 67be e3d3 003f
00000090: 97eb dc3e 0bc5 013e 5841 2fbe 83d6 ca3c
000000a0: 3817 953d a8e4 06be 481c fb3d 5fa6 073e
000000b0: b8a3 95bd 7beb 703e 4916 703e 5e49 a5bd
000000c0: 1c07 89bc fe2f 7c3c 968a 65be cda6 cf3c
000000d0: 6600 163e 1661 65bd 97f6 df3d 2888 0cbe
000000e0: 736b 77be 91f9 9cbe e3c6 b73e a57a 8b3e
000000f0: bae2 9d3b bdf6 5e3e e489 71bd eba3 ac3e
00000100: 0a04 96bd 753e 5a3d 6604 393e 884a 8ebd
00000110: 249d 9d3e 6818 3abd 88c0 eb3d c4a0 83bd
00000120: 74d1 a9be 8593 053c 3448 bebe 31ce 91bc
00000130: 4a76 84be 5434 833e c217 df3d 0f58 6e3e
00000140: 37e7 1bbe b7de 72be 15aa 18be 6e87 103e
00000150: b25f df3d d0d2 3abe e186 443e b2cf 0e3e
00000160: 0c14 83be a1e0 f13c b3ba bcbd 64b2 f0bd
00000170: 0d60 c53e 3245 3f3e 43aa 8fbe 5da4 83be
00000180: 2e8e c93d 5280 993e acc3 ecbd 365e ef3d
00000190: b573 17be 09c1 b7bd 3b3d 53be 6c38 2e3e
000001a0: e873 4b3e 97a7 ac3d 38b5 6ebe 900b 673e
000001b0: cb69 3a3e 46af 2fbe 4079 29bc 8930 b03e
000001c0: 593a 0d3e 1491 14bd 84c8 9f3d 25d0 c1bb
000001d0: 26f3 6b3e 772f febd 2d18 843e 3d0e b43d
000001e0: e65f 2d3c afef 94be 7af3 f23c 2c18 fd3c
000001f0: db31 373e 6d7f f0bc 2241 8c3c 7a71 0a3f
00000200: 436f a1bd c222 c4be ade6 df3e b723 df3e
00000210: 77a5 8a3d 4dbb 61bd 7e88 763e 4f10 12be
00000220: ce92 cb3d 75e2 c1bd 2ab9 3c3c 6d5d c9be
00000230: 54d6 97be e1d3 b5bd 734d 8d3e 92b2 56be
00000240: b41d b6bc db76 903e dbed 89be 633a ad3d
00000250: 0264 0a3e 176d 4b3e d507 dc3d 52d4 8b3e
00000260: 135e 783d 7f92 11bf 8681 3e3e a283 a93c
00000270: 74fc 79be 6546 1b3e 65b6 c3bc d771 dbbd
00000280: 9f66 cabd dc90 babc 431b ca3d 35a0 8dbe
00000290: b02f b4bd 9dc6 b5bc fa57 1e3e 07dd 75be
000002a0: 3323 1fbe f5a3 76bd 6cd9 043e ec63 8e3e
000002b0: fdee 8bbd a134 90be 65f6 87bd be5a bb3e
000002c0: c355 253e 6f69 2e3e f5d7 05be a8c0 a7be
000002d0: 70bc 52be 72bf b53e 29d1 5c3d fbd0 583a
000002e0: 8aeb 31bd abc3 a0bc ec2d 90be ff49 95be
000002f0: c07c b13e 1b0c 58bc 35bd 34be 18fe 16be
00000300: d99f 51be c36e 853d 3568 803d 44c2 e0bd
00000310: 9fae ecbd f66f 8dbd 2219 e83d b7f4 1e3e
00000320: 4026 53be caf8 45bd 8aaf b43d c4dc 15be
00000330: fe88 a5bd 95c2 7f3e 35ee 95bd 8952 ff3d
00000340: 62eb 9d3d 5108 b63e 8c5b 41be 3fae 533d
00000350: 0e8f 323d 26b9 113e f489 b9bc 658f 25be
00000360: bc30 c8ba dabd 14be ec33 f9bd 7aac 503c
00000370: 38cc be3b 8ede 13be 8212 333e 2258 98be
00000380: 9ffa f43e f75e 1abd 579a b23d 55e9 2ebe
00000390: 9bfa ec3d 4bf4 d83e 43c5 5ebd 4f3f debd
000003a0: 2531 463e 810d ab3e 5ad2 573d 2518 8a3d
000003b0: ee88 943e 4788 5bbe 14d5 143e f0b3 9a3e
000003c0: ebd9 21bd 984c 8a3e 8b77 cebd 1003 dabd
000003d0: 4a0c 0e3c 7e81 923d f0b9 c0be 658d 0f3f
000003e0: d995 55be a19c 7cbe 6724 a23e db65 7a3e
000003f0: cf12 353d 3561 4c3d 1c7b aa3e 133d c23d
0.25017783 -0.10496944 0.085506685 -0.1804365 0.006042935 0.34741703 -0.1675719 0.02507834
0.10889781 0.02743597 -0.03861568 0.3729733 0.17102784 0.39662966 -0.37488732 -0.1600931
-0.35562247 -0.13157682 0.11030715 0.04012508 -0.3544265 0.15554522 0.06827453 0.027425664
0.23727229 0.117625505 0.06604948 0.13108093 -0.08885261 0.18280503 -0.035855312 -0.017807536
0.10367092 -0.004330775 -0.22641365 0.50323313 0.4314849 0.12672822 -0.1711477 0.02476049
0.07279819 -0.13173163 0.122612536 0.1324706 -0.073066175 0.23527329 0.23446001 -0.08070634
-0.016727023 0.015392302 -0.22416148 0.025348091 0.1464859 -0.05600079 0.10935705 -0.13723814
-0.24162082 -0.30659154 0.35893926 0.27242008 0.0048182877 0.2177381 -0.058969393 0.3371881
-0.07324989 0.05328222 0.18068084 -0.069478095 0.3078395 -0.045433432 0.11511332 -0.06427148
-0.33167613 0.008152847 -0.37164462 -0.017798515 -0.25871497 0.2562586 0.10893203 0.23275779
-0.1522492 -0.23717771 -0.14908631 0.14114162 0.10906924 -0.18244481 0.19192077 0.13946417
-0.25601232 0.029526057 -0.092152975 -0.11752775 0.38549843 0.1867874 -0.28059587 -0.25711337
0.09841572 0.29980713 -0.11560759 0.11687891 -0.14790232 -0.089723654 -0.20628826 0.1701371
0.19868433 0.08430403 -0.23311317 0.22563004 0.1820442 -0.17156705 -0.01034385 0.3441203
0.13791789 -0.03627117 0.07801917 -0.0059147053 0.23041973 -0.12411397 0.25799695 0.08791778
0.010581946 -0.29089114 0.029657114 0.030895315 0.17890112 -0.029357636 0.017120901 0.540794
-0.078825496 -0.38307768 0.4373068 0.43581936 0.06769841 -0.055110265 0.24075505 -0.14264034
0.0994011 -0.094670214 0.011518756 -0.3932909 -0.29655707 -0.08878303 0.27598152 -0.20966557
-0.02223096 0.2821568 -0.26939282 0.08458402 0.13514712 0.19865833 0.10743681 0.27310425
0.06063659 -0.5686416 0.18604097 0.02069265 -0.2441271 0.15163572 -0.023890683 -0.107150726
-0.09882855 -0.022774152 0.09868481 -0.2766129 -0.08798158 -0.022189433 0.15463248 -0.24010096
-0.15540771 -0.060214955 0.12973565 0.2781061 -0.06832693 -0.28165153 -0.06638793 0.36592668
0.16145997 0.17032407 -0.13070662 -0.32764173 -0.20579696 0.35497624 0.05391041 0.00082708866
-0.04343752 -0.019624552 -0.28160036 -0.29158017 0.3466549 -0.01318648 -0.17650302 -0.14745367
-0.20471133 0.06515267 0.06269876 -0.10974553 -0.11556744 -0.069061205 0.11332919 0.15523039
-0.2062006 -0.048332967 0.08822544 -0.14634997 -0.0808277 0.24976571 -0.07320825 0.12466914
0.07710911 0.3555322 -0.18882579 0.051679846 0.04359346 0.14230785 -0.022648789 -0.16167982
-0.0015273313 -0.14525548 -0.121681064 0.012736434 0.0058226846 -0.14440367 0.17487529 -0.2975474
0.4784746 -0.03768822 0.08720844 -0.17081197 0.11571237 0.4237388 -0.054387342 -0.10851919
0.19354685 0.3340874 0.05269084 0.067428865 0.2901072 -0.21438704 0.14534408 0.30215406
-0.039514463 0.2701156 -0.10081395 -0.106451154 0.008669922 0.07153605 -0.3764186 0.56075126
-0.20857944 -0.24669124 0.31668398 0.24452917 0.04420739 0.04989739 0.3329705 0.09484305

b1 f4 [192]
00000000: c766 373e 9462 533d 13da 903a 0000 0000
00000010: 9f80 1838 c342 a33d ea3c 9bba fba1 a7ba
00000020: 9d3b 5c3b d1d7 b33d c02c 363d 2309 243d
00000030: 0000 0000 7d15 2f3e 6297 a63c 5ab4 cb3c
00000040: 8189 56bb 0000 0000 0000 0000 49fe 4cbb
00000050: 9642 1a3d c27d 253e 6a5a e9b8 d69b 733d
00000060: 6891 a9bc 610a 133e f739 e237 5a65 bc3a
00000070: 1bd3 9739 46e7 fc3c 3622 11ba 2d04 843d
00000080: 5258 593c 6139 b13d 4dd5 2cbc e0b2 053e
00000090: b799 433e 5cd4 563a 41ab 59bc f099 80bb
000000a0: 4149 983d 84b8 8d3b a4b1 e4bc 8e29 27bb
000000b0: 4e69 da3b 284a f83b fde4 5a39 d4db 6bbb
000000c0: 0fc1 f53c 1c30 bcbc a9f3 8538 7d9f 953b
000000d0: eceb 45b9 f787 4dbc d58d 30bc e34b ca3d
000000e0: bcdb 783c 0000 0000 f09e 923d 1d42 47bc
000000f0: 34d1 a13c 88b3 3bbc ecbd cf3d 6c6f b73d
00000100: 55a3 873d 5882 5db9 11ed c73d d469 953a
00000110: 2faa 2e3d f36e 133d c92f 58ba 1d9d 043e
00000120: fc15 f23d 8bab 923d 0000 0000 9fb5 f0bc
00000130: 0000 0000 5967 e6bc 38f6 39ba 2078 b53d
00000140: 58f5 b83d 2870 6437 2d2c ab3b 7397 b43d
00000150: 34af 9a3d edd3 04bb 9458 5fbc ae62 4b3d
00000160: 0000 0000 c237 093d f9d6 933b 00c0 fd3b
00000170: dfca 963d b4d8 f13c 400b a1ba 0000 0000
00000180: a7fa d2bb b383 11ba a447 513c b20a 013d
00000190: 51fa 4438 e0ac 033d 0000 0000 9666 9a3d
000001a0: d0cf 0ebc 3125 9b3c 14e1 6d3d 8f67 1dbc
000001b0: f590 86bd d910 983c 267c a83d b613 d13c
000001c0: abc2 fb3d 4f3e 3d3c d48c 4b3d 6833 4735
000001d0: 3c49 6abd 4167 c63c 6381 f73d 8d48 1ebc
000001e0: 20c7 dcbc edda 7aba a7ef bcb7 98b6 0d3d
000001f0: ab34 873d 660a dabb 4fab 83bc ab00 843d
00000200: 5a8e a0bc 0000 0000 a730 8a3d 63ff 863a
00000210: b9ea 503d 336a c5bb 43f8 bd39 c642 693a
00000220: 0000 0000 fb43 d33c 5908 023d eb6e 303c
00000230: 255d 5f39 e002 b03b f3a4 3abb da5a 053e
00000240: 4aea c739 2d62 e73b c4c6 b9b9 5fd2 443e
00000250: 82bf 9f3c e01f 943c 0000 0000 820a ad3d
00000260: 51f0 943d 79dd 22b8 d87a 863e 5a9f e83a
00000270: 2a62 e93b cb61 253d 288f a53c a863 e2b9
00000280: 1fe6 01bc 500e 9039 b643 803d ca2e 35ba
00000290: 0000 0000 6112 2f3d 82cf 74bb fe0c de3c
000002a0: 0c8f ab39 0000 0000 25a3 97bb 9ff4 083d
000002b0: f9c3 e83d 8d8e 9bbc 783e b53d 9eab 8a3d
000002c0: bcfc e23d 88fc 05bb 221f a03a 2644 753c
000002d0: 15ee 9cb8 5059 053c 544a d139 0000 0000
000002e0: 7f2d 3d3b 181f bd3a a514 18bc c2ee 88ba
000002f0: b601 3c3e 2785 06ba 255e d037 a8fe 03bc
0.179103 0.051607683 0.0011051319 0.0 3.635941e-05 0.07971718 -0.0011843715 -0.0012789363
0.0033604868 0.08781398 0.04447627 0.040047776 0.0 0.17098041 0.020335857 0.024866272
-0.0032735767 0.0 0.0 -0.0031279495 0.037661158 0.16161254 -0.00011127147 0.05947479
-0.020699218 0.14359428 2.6968291e-05 0.0014373467 0.0002895825 0.030871999 -0.0005536409 0.06446109
0.013265686 0.08653522 -0.010548902 0.13056517 0.19101606 0.0008195096 -0.013285459 -0.003924601
0.07435847 0.0043249745 -0.027916737 -0.0025506946 0.0066653853 0.0075771995 0.00020875405 -0.0035989182
0.029999284 -0.02297216 6.3873194e-05 0.0045661316 -0.00018875272 -0.012544624 -0.010776003 0.098777555
0.0151891075 0.0 0.07159221 -0.012161759 0.019753076 -0.011456378 0.101436466 0.08956799
0.0662295 -0.00021124759 0.09762014 0.0011399337 0.04264277 0.03599448 -0.00082468666 0.12950559
0.118205994 0.071616255 0.0 -0.029383479 0.0 -0.028125452 -0.00070938794 0.08860803
0.090311706 1.3615972e-05 0.005223772 0.08817949 0.075529486 -0.002026792 -0.0136319585 0.049654655
0.0 0.03350044 0.0045117107 0.0077438354 0.07362913 0.029522277 -0.0012286678 0.0
-0.0064385715 -0.0005550936 0.012773428 0.03150434 4.6963167e-05 0.03214729 0.0 0.07539098
-0.008716539 0.018938633 0.05807598 -0.00960721 -0.06570617 0.018562721 0.082268044 0.025522094
0.12292989 0.0115505 0.04969485 7.4208083e-07 -0.057198748 0.024219157 0.120852254 -0.009660852
-0.026950419 -0.00095693656 -2.2522943e-05 0.034597963 0.066018425 -0.0066540716 -0.016072897 0.0644544
-0.019599129 0.0 0.06747561 0.00102995 0.0510051 -0.006024623 0.0003623386 0.00088981946
0.0 0.025789252 0.031746242 0.010768632 0.00021301636 0.0053714365 -0.0028479665 0.13022938
0.00038130797 0.007061264 -0.00035434042 0.19220875 0.019500498 0.018081605 0.0 0.0844927
0.07272399 -3.8830072e-05 0.26265597 0.0017747686 0.007122298 0.040376466 0.020209864 -0.0004318033
-0.0079284 0.00027476484 0.06262915 -0.0006911574 0.0 0.042742137 -0.003735513 0.027105805
0.0003272224 0.0 -0.0046276026 0.033436414 0.11365504 -0.018988872 0.088498056 0.06771015
0.110833615 -0.002044471 0.001221631 0.014969861 -7.483006e-05 0.00813897 0.00039918965 0.0
0.002886623 0.0014428822 -0.009282266 -0.0010447132 0.18360028 -0.00051315356 2.4839372e-05 -0.00805632

W_action_type f4 [192, 4]
00000000: e0f7 553c c4c2 70be 4e70 1cbd 2e5a 373e
00000010: 5ef7 4a3d a06d a8bd 4ade 36bd 72d0 d1bd
00000020: f6e3 9ebd af44 d83d 837a 1f3e 287f 6bbd
00000030: 6e01 04be 3077 61bd f3de 9fbd b8f7 983d
00000040: 3522 5a3e 7936 c33c a36b 89bd bb23 4a3d
00000050: caf8 ae3d 68b6 8c3d 0e29 823c de4d 723e
00000060: 6cb6 bcbd 4d0f 493d e1a0 cb3d a53a 553d
00000070: 7dfa 0dbd ead8 fe3c dbba 14be fe6f 543e
00000080: 9cd3 9f3d 2354 de3d 1c61 0a3e 0118 323c
00000090: 255e 113e 59f6 03be a10c 5c3e a3eb 4a3e
000000a0: 620c 633e 948e 763d 9350 59be 7bd1 85bd
000000b0: d4be 4dbe ac69 513e 9fc5 4d3e 254c 1ebd
000000c0: b17c a43d 4aa5 563e 1f84 a4bd d974 a33a
000000d0: cc16 c2bd a1e0 d53b 3ca4 803c ace8 cb3d
000000e0: 7d89 703c a407 2c3e 9746 c6bd 0d13 83bd
000000f0: e7b0 da3c bc5d 2bbc 8c65 13be 266f 64bb
00000100: 9e83 16be 8506 0d3e f27c e9bd 8e62 e43d
00000110: bcaa a3bd a4a2 0ebe 6120 c03b ba3f d83d
00000120: 7039 a33d 17ba 43bd 12de d9bc 6860 243e
00000130: e67f 793d ad85 983d 226b 9ebd 50ba b43b
00000140: b026 4f3d 0824 833e 35fb 993d a535 babd
00000150: 4eaa ed3d fc92 163e 5335 8dbd 71d2 ebbc
00000160: ee27 323d 2fbf 013d bf22 45be 503a 5a3e
00000170: eb6e fabc 54a5 313d e627 d43d ced7 eb3c
00000180: 55b5 133e ee56 31be d57d 6e3d 50c7 1bbe
00000190: 52a7 523c e13b 353e ea74 333e b39d cabc
000001a0: 7b7b 46bd 4e8c 673c 8a81 763e 7717 91bd
000001b0: 8c1d 7ebd 649e c63d dfe1 8cbd fcbe 4b3b
000001c0: 51df 1bbe ca99 cd3d 8c8e 64be e731 c9bd
000001d0: 5df1 263e 91c3 313d aff2 97bd 7eac 8ebd
000001e0: a7d1 74bc 719b ccbc 5a95 953d 4f00 d4bd
000001f0: 4f32 e1bc 03d3 823d 5679 bd3d 3438 573e
00000200: 7243 b6bb 29e2 513d 35d2 a6bd c32f 7d3c
00000210: 10b4 ef3c dccc 113e d4ab 963d bdf7 ed3c
00000220: cac3 e03d 4b57 1d3d 551e debd da4a 953d
00000230: 9ce9 aa3c 754b 7ebb b558 18be 7da3 3fbd
00000240: eae8 0a3d e950 2ebd 6204 7a3d b36b beb9
00000250: eaf5 85bd 1346 a8bc e3e6 093d 8ba6 c43d
00000260: ba26 56bc 4ae0 a53d 9fd8 c9bd 5ca4 073d
00000270: 1d60 dcbc 2fe7 07be 6c9f da3d 6b6b c63d
00000280: 296e d0bd ee69 0f3e 797c 2c3c 2aea 113e
00000290: 4a64 c4bd 3b06 52bc f544 06be bb5f 57be
000002a0: 6b72 103b 7b88 c6bd 1175 a13d 90cc 70bd
000002b0: 5d53 ac3c 3014 a93c 2334 b53d 8cfc 303e
000002c0: a363 e3bd cefd b53d ceea 2a3e 377f 763d
000002d0: 2244 5fbd 545a 25bd bbd6 03bc a5cc 423d
000002e0: 16e7 d43c cd1e 243d 50c6 8b3d c730 0d3e
000002f0: 3dc8 803d 1850 e7bd e1cc 99bd 0388 aebd
00000300: 966b 9dbd feae d6bc d882 eabd 9ab1 d2bc
00000310: 25b8 e63c 67d8 1fbd 8dae ae3d 92e0 18bd
00000320: c2d5 833e 765e d8bc 40aa f03d ce2f 2f3e
00000330: 1f9d 02be be68 a23d 9012 1a3e 21c2 783d
00000340: 93c3 c03d 3e14 93bd fd0c 19bd 536f 81bc
00000350: 8dac 5ebd 21b6 88bd fe2b 55bb 378f 6fbd
00000360: d82d 0bbe c180 f63d c2ad ea3d 8b0d 72bd
00000370: 74e9 c9bd 08bb 0d3c b3aa 073d 0393 36bd
00000380: 59fc 453d 285e 13bd 36b2 26bc fd5a 0dbb
00000390: 1da4 573c 77bd 9cbc d74c 2fbd 6867 16bd
000003a0: 644b 043e aec7 eabc 14a6 07bc 2465 603e
000003b0: 44cd 8abd 6520 1f3e a539 10be 7bac 203d
000003c0: 99a0 eabd 6ac7 0c3e bdde 8e3d 7936 9b3d
000003d0: ab6f 6c3c 8db3 59bd c5aa a63d b06c 163e
000003e0: 6498 5c3c 9e29 a3bd 4c2b 653d 2de0 7fbb
000003f0: 9a8a e0bd 18cf 0e3c 1ceb 27be 1b3f d4bd
0.013059586 -0.23511797 -0.03819304 0.17905495 0.049552314 -0.08224034 -0.044645585 -0.10244836
-0.07758324 0.10559975 0.15574078 -0.057494313 -0.1289117 -0.055045307 -0.07806196 0.074691236
0.21302111 0.023829686 -0.06709983 0.04935048 0.085435465 0.06870729 0.015888717 0.23662516
-0.09214482 0.049086858 0.099427946 0.05205788 -0.034662712 0.031109292 -0.14524405 0.20745847
0.07804033 0.108558916 0.13513607 0.010869981 0.1419607 -0.12886943 0.21489193 0.19816451
0.22172692 0.060194567 -0.21222143 -0.06534096 -0.20092326 0.20450467 0.20094918 -0.038646836
0.080315955 0.2096149 -0.080330126 0.0012470736 -0.094770044 0.006527022 0.015703313 0.09956488
0.014681217 0.1679979 -0.09681433 -0.06400118 0.026695682 -0.01045936 -0.14394206 -0.0034856289
-0.14698645 0.13772018 -0.114007846 0.1115161 -0.079915494 -0.1392923 0.005863235 0.1055903
0.0796994 -0.04778489 -0.02659515 0.16052401 0.06091299 0.07447372 -0.07735278 0.0055153742
0.050574005 0.25613427 0.07518617 -0.09092263 0.11604749 0.14704508 -0.068949364 -0.02878687
0.04349511 0.031676468 -0.19251536 0.21311307 -0.030570468 0.04337056 0.103591725 0.028789427
0.14424641 -0.17318317 0.05822547 -0.1521275 0.012857275 0.17698623 0.17525068 -0.0247334
-0.048457604 0.014132572 0.24072853 -0.07084554 -0.062039897 0.09698179 -0.06879019 0.0031089177
-0.15221907 0.100390986 -0.22320002 -0.09823971 0.1630301 0.043399397 -0.07419335 -0.06966494
-0.014942563 -0.024976464 0.07303877 -0.10351621 -0.02748981 0.063879035 0.092516586 0.21017534
-0.0055622393 0.051241074 -0.081455626 0.015453282 0.029260665 0.14238304 0.07356992 0.029048795
0.10974844 0.038413327 -0.10845629 0.072896674 0.020863347 -0.00388023 -0.14877589 -0.046786774
0.03391353 -0.04255763 0.061039336 -0.00036319866 -0.06541045 -0.020541226 0.033667456 0.09602078
-0.013070757 0.0809942 -0.0985577 0.03311573 -0.0269013 -0.13271783 0.106749386 0.09688457
-0.101772614 0.14005253 0.0105277235 0.14249483 -0.09589441 -0.012818868 -0.13112243 -0.21032612
0.0022040855 -0.09694 0.07883657 -0.058788836 0.021035844 0.020639509 0.08847835 0.17283839
-0.111029886 0.088863 0.16691133 0.060179915 -0.054508336 -0.040369347 -0.008046801 0.047558445
0.025989097 0.040068436 0.068249345 0.13788138 0.062881924 -0.112945735 -0.07509781 -0.08522036
-0.07686536 -0.02620649 -0.11450738 -0.025719453 0.028163979 -0.039024737 0.08529387 -0.037323542
0.25749022 -0.02641223 0.117512226 0.1710808 -0.1275525 0.07930134 0.15046144 0.06073201
0.09412303 -0.07181595 -0.037365902 -0.015800154 -0.054363776 -0.06675363 -0.0032527442 -0.05848619
-0.13591707 0.120362766 0.11458923 -0.059094947 -0.09858981 0.008650549 0.033121776 -0.044573795
0.04833636 -0.035978466 -0.010174325 -0.0021569126 0.013161686 -0.019133313 -0.04279789 -0.03671971
0.12919384 -0.028659668 -0.008279342 0.21913582 -0.067774326 0.15539701 -0.1408449 0.03922699
-0.11456413 0.13747945 0.06976078 0.07578749 0.014430921 -0.05314975 0.081380405 0.14689898
0.013464067 -0.07966922 0.055949494 -0.0039043531 -0.10963936 0.008716367 -0.16398281 -0.10363599

b_action_type f4 [4]
00000000: 4f4e 3e3b 490f da3b 0336 bbbb d600 7cbb
0.0029038375 0.006654654 -0.005713226 -0.0038452647

W_play_habitat f4 [192, 4]
00000000: f02c 5c3e eb11 a0bd fd48 0fbc 3c91 23bd
00000010: 7116 9d3d 8b27 97be 01bc debd 0ecf 603d
00000020: 0d9d df3c 4941 283d b5bc 163d 1266 b43d
00000030: 5731 a93d 70b7 c5bc c3ec cf3d 6629 74bd
00000040: 0167 d43d 50b6 e6bd 2f20 74bd a60a 273e
00000050: 59fe f53d c752 3e3d 1519 563d 222c 7c3d
00000060: 764f 13be 6f6b c03a e70c ffbd 62b9 98bd
00000070: 4e15 65bd 363c 19be 1b7e 863c 876c 27be
00000080: b01c 403d 35cc c13d 0a47 013e 7097 433e
00000090: 4955 8bbd d2cd 6abc 486e dabd 0c3a c63b
000000a0: ae15 82bd 919f 163c f186 4c3c 7b8b a53d
000000b0: d651 1bbe 8838 8e3d 95a4 c0bd 9491 91bc
000000c0: ace8 043d 70d2 59be cdd3 53bd 7e5e 36be
000000d0: eaba 963d cea3 d73d d273 cb3d 26cb 34bc
000000e0: f8aa 43bd 58c1 b53c bbad cdbd 4772 c7bd
000000f0: 2d8a 96bd f341 25be 4f81 523d 7b6d 933d
00000100: 5c14 8a3b f52f 9d3d fb84 ab3d 7d8d 95bd
00000110: fac4 9e3c 8b6c 0c3d b161 27bd 26c0 9b3d
00000120: 9d0f a8bc e232 2b3e dc46 a8bc fa69 433d
00000130: c2cb 4fbe 12f4 a43c 2d02 b33d 0dcc 713b
00000140: f66a aa3d 1cef ddbc e1c1 803c 55e2 583c
00000150: 22aa e63d 69a5 11bd 1906 5d3d 3b3c b43d
00000160: 5ef6 263e 77d7 3dbd ee13 f9bd c75e 853d
00000170: 65ba 2abe cfc3 243e ab60 5dbb 4996 2a3d
00000180: f0c8 a7bd 640a ebbd a858 5b3d 6c19 1c3d
00000190: 2668 0b3e 3d62 783c 25e6 13be 18df ba3c
000001a0: 0c8a 2d3e 07e6 b9bc 9393 aa3d a7b8 bebd
000001b0: fbb5 683d b985 a13d e8b9 a03d 45da 98bd
000001c0: b7ae d73d b44d 0bbe ee2b b03d 5204 143d
000001d0: 27a3 03be 6125 853c 3b28 283e 1b46 a7bc
000001e0: bbe2 7dbe fb3a 6a3c 12bc d43c 2078 933b
000001f0: 8302 a53b 0675 9cbd b8db 31be a991 173c
00000200: f163 0a3c de73 f9bc 46cf 23be 9c60 663c
00000210: f2c6 a5bc 075b a13d 6ace 1abe 9e37 63bd
00000220: d285 e4bd c14a 013e 5fab 95bc d71d f5bb
00000230: 71f7 8f3e 2a05 0fbe 87e0 213d 76a3 ecbc
00000240: 121c 36bd aedb 383d 1544 433d 5b1a 3abd
00000250: 7081 90bd 3a71 04be b199 a6bd 2cd6 b7bd
00000260: ebc9 5dbc 85c9 62bc 32ed a33c 862c dfbc
00000270: 9f7e 1d3e a8f7 aa3d 7358 b23d 8293 04be
00000280: c50f eabd 37ae 55be 8deb c23c abce 9bbc
00000290: 9236 f83d 6ffd e63c 3c68 9dbd b1ec ecbc
000002a0: 460e 413d 3613 0dbe c14f 1ebd cb0c 043b
000002b0: 5121 83bc a44c f53b 27d5 e83d 37ef adbb
000002c0: cb65 7cbd 5965 c63d aeaa ae3d 78ba 703c
000002d0: 348b 5dbd 7c0a 95bd 879e 04bd 53df 9e3c
000002e0: 7a07 c8bd 8566 e83d feda 0cbc 1249 913d
000002f0: 6fa7 053e ebca 00be d98b 523d deee 303e
00000300: 42e0 273d 0636 aabc 689f f53b 4fa1 22be
00000310: 9858 413d 34f3 61bd 0c04 a4bd 11c3 0f3e
00000320: 1eb5 a93d 5ab9 9fbc 5e23 583b 5a3c 893b
00000330: 3fcc 903d 9199 ecbd a8fb dc3d d656 3b3e
00000340: e99f d5bb cd88 953b 05db 753d 2181 f43d
00000350: 4217 02bd 9b75 4b3d 59ea 11be 6ece e9bd
00000360: 2fcd 67bb 33ae 523c af8c bbbd f999 a33b
00000370: 2c6d a33d 3353 d83c 89b0 76bd 9f22 13be
00000380: 5f10 edbd fb29 d13c 93dc b0bd dd4e 0cbe
00000390: dbc4 0e3c e934 11be 2aaf e43d e62b a93a
000003a0: f7d4 e13d 561c 37bc 8acc 143e ac26 50bb
000003b0: ba66 513d 667e 05be 14e6 97bd 380f 113e
000003c0: ee5c 8bbd 6936 7d3d 81a9 09be 8370 df3d
000003d0: 08fb d7bd 6a8d c33c cfb3 26be 19fc 8bbd
000003e0: 31a4 18bd e548 cbbd 08db 483d 6655 3b3c
000003f0: b342 4d3e ae96 553e 6562 a2bd a0fb 5bbe
0.21501517 -0.078159176 -0.008745429 -0.03993343 0.07670296 -0.29522356 -0.10875703 0.054884963
0.027296567 0.041077886 0.03680106 0.08808531 0.08261364 -0.024135321 0.101525806 -0.059609793
0.10371209 -0.11265242 -0.059601005 0.16312656 0.120114036 0.04646566 0.052270014 0.061565526
-0.1438578 0.0014680455 -0.12453633 -0.07457234 -0.05592852 -0.14964375 0.016417554 -0.16349994
0.04690236 0.094627775 0.12624756 0.19100738 -0.06803376 -0.014331298 -0.10665566 0.0060494
-0.06351791 0.009193317 0.012483344 0.080832444 -0.15167937 0.06944376 -0.094063915 -0.017769612
0.032448456 -0.21271682 -0.05171566 -0.17809483 0.0735987 0.1052929 0.099342 -0.0110347625
-0.04777047 0.02218692 -0.10042902 -0.097385935 -0.07350574 -0.16138439 0.05139285 0.07198616
0.004213853 0.07675163 0.083749734 -0.073023774 0.019381035 0.034283202 -0.04086465 0.07605009
-0.020515257 0.16718629 -0.0205416 0.04770849 -0.20292571 0.020135913 0.08740649 0.0036895305
0.083211824 -0.027091555 0.015717449 0.0132375555 0.11262919 -0.035558138 0.053960893 0.088005506
0.16304919 -0.04634806 -0.121620044 0.06512218 -0.16672666 0.1609032 -0.0033779542 0.04164723
-0.08192623 -0.11476591 0.053551346 0.03811018 0.13613948 0.015160141 -0.14443262 0.022811458
0.16947192 -0.022692693 0.08328929 -0.093125634 0.056814175 0.07886834 0.07847959 -0.074635066
0.10531371 -0.1360386 0.08602129 0.036136933 -0.12855206 0.016253175 0.16421597 -0.020419171
-0.24793522 0.014296289 0.025968585 0.004500404 0.0050357 -0.07639508 -0.17368972 0.009251037
0.008446679 -0.030450758 -0.15997037 0.014061119 -0.020236466 0.0787869 -0.15117803 -0.055472963
-0.11158337 0.12626173 -0.018270193 -0.007480364 0.2811847 -0.13966814 0.039520767 -0.028886538
-0.044460364 0.045131378 0.04767235 -0.04543529 -0.07055938 -0.12933818 -0.08134783 -0.08976397
-0.0135369105 -0.013841991 0.020010564 -0.02724291 0.15380333 0.08348018 0.087082766 -0.12946895
-0.11428789 -0.20867239 0.02379396 -0.019019445 0.121197835 0.028197018 -0.07685897 -0.028921457
0.047132753 -0.1377686 -0.038650278 0.0020149227 -0.016007097 0.007485943 0.113687806 -0.0053080576
-0.061620515 0.09687299 0.08528648 0.014692895 -0.054087833 -0.0727739 -0.032377746 0.019393599
-0.09767051 0.11347679 -0.008597134 0.07094015 0.13052152 -0.12577407 0.0514029 0.1727862
0.040985353 -0.020777714 0.0074958093 -0.15881847 0.04720363 -0.055163577 -0.080085844 0.14039256
0.082864985 -0.019497562 0.0032980065 0.0041881027 0.07070207 -0.11552728 0.10790187 0.18294844
-0.006519307 0.004563427 0.060023326 0.11938692 -0.03176046 0.049672704 -0.14249553 -0.114163265
-0.0035370102 0.012858915 -0.09157693 0.00499272 0.07979807 0.02640686 -0.06022695 -0.14368676
-0.11575388 0.025532713 -0.08635821 -0.13701959 0.008713926 -0.1418034 0.111662224 0.001290676
0.11026948 -0.011176189 0.1453115 -0.0031761331 0.05112336 -0.13036498 -0.07416931 0.14165962
-0.06804834 0.061819468 -0.13443567 0.10910132 -0.10545927 0.023871142 -0.16279529 -0.06835193
-0.03726596 -0.09926013 0.04903701 0.011433935 0.20044975 0.20858261 -0.079289235 -0.21482706

b_play_habitat f4 [4]
00000000: e68d 9ab9 84a6 7b38 45c0 913a fff3 65ba
-0.00029478892 5.9998143e-05 0.0011119923 -0.0008772015

W_gain_food_primary f4 [192, 7]
00000000: d243 debc 49d0 ab3d d876 943c ea72 033d
00000010: 8c80 b1be e642 03be 7462 0dbe 0642 dabd
00000020: 8195 083e 10e1 db3d e27d e4bd 4c0c 483d
00000030: 8531 d53c 9712 e13d f31f 13bd 4cc3 e83d
00000040: 95ec a4bd 03a5 363e 3743 a4bd d503 55bd
00000050: d572 ee3c ff71 f53c cfb5 9a3d e185 113e
00000060: a9bc c13b fe10 cc3d 6e17 c2bd 883a 0ebe
00000070: b3bc 0ebd 23fc 06be eb36 7a3c fb34 d0bd
00000080: 6455 1fbe a601 d03d 7f05 4cbe b219 64bc
00000090: 90e4 ac3c 116f 0bbe e937 f6bd bde0 033e
000000a0: 54fd e4bc 7f15 19be b8b1 a73b f82d 91bd
000000b0: ceb1 073e abc0 d33d 9e5c c7bc 53ee f33c
000000c0: c5a0 9ebd 1edc 06be da63 903c cefa 38bc
000000d0: 4da7 c7bc 0503 41bc ab83 a9ba a539 033e
000000e0: aab4 f03b c3e5 363e 3d2a 7d3c 07b2 783d
000000f0: 4968 1dbe 8628 5e3d 8c20 5f3d 8df4 1d3e
00000100: 4977 6bbc 5c64 b7bd 0ad7 43bd 3ec4 a7bd
00000110: 482f bfbc 3e57 b13d 35c2 443c 63d8 053e
00000120: d9ba c93d 966b 233c 3bd3 fd3c fe87 dd3d
00000130: 370a d03d 9f8c 3fbe 465a 073d bd18 6dbd
00000140: ebe7 2b3e 1acd 6e3c b096 07bd ddf1 bf3d
00000150: b428 b0bd dc6f aebb ed52 de3b d359 29bc
00000160: 8375 6f3c 8395 bbbd 8218 06be cd25 17be
00000170: 229f b53c 3b2c 5a3e b669 d5bc a4db 1b3e
00000180: 4e4d efbc 56af ed3d 022a ca3d ff59 d03d
00000190: 53b9 1a3e 383c 843b 53fe 47bd 8eb3 a3be
000001a0: 46a2 013e 567b cb3d 3151 c9bc 47b2 42be
000001b0: 11dd 2d3d 7e89 94bc 7ec9 303e d05a ac3d
000001c0: c668 b8bc 335a c73c d021 34be ab03 803d
000001d0: ff81 b6bd e23f 8d3d a49c 03be 63db 703d
000001e0: 5404 a03d 8cc9 4b3e 42b4 bfbd c25b 873e
000001f0: 0c3d 99bd f19b 2e3d 4d0e 02be 7872 83bc
00000200: 968d 87bd 77bf 9fbd 5874 963d 38e2 423d
00000210: ca68 7abd cf7d 8dbd c15b 6ebd 22b3 853c
00000220: 8b55 953d 350d 87be 02c1 d6bd 37d2 2fbc
00000230: a2f7 ce3d cfe8 97bd 84d4 033c 609e 6ebe
00000240: f940 d2bc 2c4c 343c af0e 40be b1d5 413c
00000250: da9a 443d 3ed2 0ebe 0e2f db3d 8f57 01bd
00000260: 049a 3c3e 3928 8abd 7276 77ba ce04 973d
00000270: 9bfe 463e 7e7d a43c c038 a8bd 6bf6 823d
00000280: f500 2dbe ea30 0b3e 20ca a43d 13a9 733d
00000290: d9eb d9bd da71 4cbe 7619 3b3e 7114 18be
000002a0: b07f 21be f70a 4dbe 4ba3 87bd 73e1 f5bc
000002b0: 87de afbd db87 34bd 601c 0b3e e38a e83d
000002c0: c549 903d a44e 3ebe fb44 26bd 0512 89bd
000002d0: 994f ddbd 80d1 44bb bd8a 67bd 7bad 083e
000002e0: 5df1 59bd 1d4a 21be 9cfd 01be 340a b0bc
000002f0: 974c b73d 966c 35bd 2c44 2a3e f07f 50bd
00000300: 73b0 de3d 8fb9 9f3d 73d8 ef3d 4999 79bc
00000310: dd86 76bc e0c7 29be ff2d 32bc 02b7 dcbd
00000320: 16e8 393c 29c3 ad3d 819e 86bd ce9b 55bd
00000330: 56d2 c73d 5415 aebd 38da 42be 8288 e3bc
00000340: 1437 33be 7dc7 d6bd ed75 21be e7f0 febd
00000350: 12b4 1c3c 6d3e 023d bef9 16bd 0c93 55be
00000360: 76e9 e4bd c623 2fbe d5a1 f8bc 441f 6abe
00000370: 015e fcbd 1f41 2cbd f514 4ebe 692f 8abc
00000380: f616 58be b450 c83d d0f9 2a3d 5656 d43d
00000390: 1655 81be cb66 473d 1a67 fbbd 65c8 94bd
000003a0: beb8 66be 5ff4 143e 31a0 cf3d 3e12 12be
000003b0: fed2 1d3e 0052 673d 0efe 27be 1ea0 7e3d
000003c0: 502d bd3b dfe0 983b dc18 5a3e d014 9bbd
000003d0: b2ea 393e da2c 9a3d 724f 2dbd ce15 ca3c
000003e0: 42a2 833d 4278 9abd 4107 2c3e 48e2 0fbe
000003f0: 75ee 3c3d 5bca 483d 01cf a63d 9468 123e
-0.027131949 0.083893366 0.018123075 0.032092012 -0.34668386 -0.12818488 -0.13807088 -0.10657124
0.13338281 0.10736287 -0.11156823 0.048839852 0.02602459 0.10989874 -0.03591914 0.11365375
-0.08052937 0.17836384 -0.08020633 -0.052005608 0.02910749 0.029961584 0.075542085 0.14211227
0.0059123826 0.099641785 -0.09477125 -0.13889515 -0.034847926 -0.1318212 0.0152718825 -0.10166355
-0.15559918 0.101565644 -0.19923972 -0.013922142 0.02110508 -0.13616587 -0.12022383 0.128787
-0.027952828 -0.14949606 0.0051176213 -0.07088846 0.13251421 0.10339483 -0.024336156 0.029776728
-0.07745508 -0.13169906 0.017625738 -0.011290265 -0.024371767 -0.011780505 -0.0012932917 0.12814958
0.0073457556 0.17861085 0.015451965 0.060716655 -0.15371813 0.054237865 0.0544744 0.1542532
-0.0143717015 -0.08954689 -0.0478125 -0.08191727 -0.023337975 0.08659218 0.012009193 0.13070826
0.098500915 0.009974381 0.030984512 0.10816954 0.10158198 -0.18705986 0.033045076 -0.05788492
0.16787688 0.014575267 -0.03310269 0.09372304 -0.086015135 -0.0053233933 0.006784788 -0.010336357
0.014615419 -0.091593765 -0.13095286 -0.14760514 0.022170607 0.21305935 -0.026051383 0.15220505
-0.029211666 0.11605708 0.098712936 0.101734154 0.15109758 0.004035499 -0.048826527 -0.31972927
0.12659559 0.09935634 -0.024574848 -0.1901332 0.042447153 -0.018131968 0.17264363 0.084157586
-0.022510897 0.024335003 -0.17591023 0.062506996 -0.089115135 0.0689695 -0.12852722 0.058802973
0.078133255 0.19901103 -0.09360553 0.26437193 -0.07482347 0.042629186 -0.12700768 -0.016045794
-0.06618802 -0.07800191 0.073464096 0.04757902 -0.06113509 -0.06908762 -0.058192972 0.016320769
0.07291707 -0.26377264 -0.10486032 -0.0107312715 0.10105826 -0.074174516 0.008046273 -0.23302603
-0.025665747 0.011004489 -0.18755601 0.011830733 0.04799924 -0.13947389 0.10702334 -0.031577643
0.18418127 -0.06745953 -0.0009439952 0.07373963 0.19433062 0.02007937 -0.08213949 0.06394657
-0.16894896 0.13592878 0.08046365 0.059487414 -0.106406875 -0.19965306 0.18271431 -0.14851548
-0.15771365 -0.20023714 -0.066229425 -0.03001473 -0.085873656 -0.044074874 0.13585043 0.113546155
0.070453204 -0.18584687 -0.04059313 -0.0669289 -0.10806198 -0.0030032098 -0.056528796 0.13347428
-0.053208698 -0.15750928 -0.126944 -0.02148924 0.08950155 -0.04429301 0.16627568 -0.05090326
0.10873499 0.07799064 0.11711206 -0.0152343 -0.015046802 -0.16580153 -0.010875224 -0.107770935
0.0113468375 0.084844895 -0.06573201 -0.05215054 0.09756915 -0.08500162 -0.19028556 -0.027775053
-0.1750148 -0.10487268 -0.15767641 -0.12448292 0.0095644165 0.031797815 -0.036859266 -0.20856875
-0.11177342 -0.1710349 -0.030350605 -0.2286349 -0.12322617 -0.04205429 -0.20125182 -0.01686831
-0.21102509 0.09781018 0.041742146 0.1036803 -0.25260228 0.048682015 -0.122755244 -0.07264785
-0.22531411 0.14546345 0.10137976 -0.14264771 0.15412518 0.056474686 -0.16405508 0.06216442
0.005773224 0.0046654786 0.21298546 -0.07572329 0.18155935 0.07528086 -0.042312093 0.0246686
0.064274326 -0.075424686 0.16799642 -0.14051163 0.046125848 0.049021106 0.081449516 0.14297706

b_gain_food_primary f4 [7]
00000000: af42 853a 7674 15bb e817 bfb8 fd83 853a
00000010: 73aa 80ba a33b ea3a bff5 f5b9
0.0010166968 -0.0022805012 -9.1120426e-05 0.001018643 -0.0009816423 0.0017870556 -0.00046913137

W_draw_mode f4 [192, 4]
00000000: abe8 1a3e bd74 873d d0c8 143d 75ca 353e
00000010: a42e bc3c ad39 05bd c3ee 8e3d 750d 8fbd
00000020: 9081 c63d 8752 043d 767c 0d3e ac63 3f3d
00000030: 2932 17bc cc2a b7bd 14f3 413c dd08 64bd
00000040: d000 96bd ee33 d9bd cb45 eebd 2031 8ebc
00000050: 0cf4 ba3c 5da3 283d 5d7c 5f3c 981f 313c
00000060: 0507 dabb 6550 273e 2702 24bc 3be1 233c
00000070: 1d11 5c3d 7fd9 023e 6bfb 153d 6dd9 a5bd
00000080: 76e1 5ebd 2ef3 a23d ef4f 31bd b944 d83d
00000090: b719 afbc 7731 7c3c d694 ccbd e575 0b3e
000000a0: b419 a93d 21b5 8dbd 4474 2d3e 2a63 d73d
000000b0: 0810 c93d bd24 17be 1d4d 54be 22d5 9abd
000000c0: 689b 9c3d ae9a 973d 2082 ff3d db30 26bc
000000d0: daff e6bc a4b5 4dbd eb02 e0bd 7a6b b4bc
000000e0: 2e03 0dbe cb82 1dbe cbd8 93bc 8904 f5bc
000000f0: 5808 92bd 23f1 f9bd 035f 353d 4fe0 08bd
00000100: 5771 61bd 5492 4e3c c794 4938 5350 0d3d
00000110: c02b e4bd 8ddc 8339 afeb b8bc aeec c33d
00000120: facf 11bd cd6b e8bd 7ff3 b8bc 42a5 523e
00000130: 0781 97bd a1d6 0bbd 48c5 25bd 14a9 16bd
00000140: a81f 903e 93a3 d6bb 33ec 01be 4751 50bd
00000150: d4d0 babd ddf2 4fbe bd33 64bd 5975 e0bd
00000160: 9544 9bbd a38f 283d 5503 033e 60d8 b8bc
00000170: 7641 aa3b b41f 95bd bbc2 ba3c ef75 2a3c
00000180: fc20 28bd 52d2 cfbd a934 463d 43e5 c5bd
00000190: c34a f33d f5c7 903d 7e86 ec3d fe5a 8ebc
000001a0: 0040 91bd 3c4c e0bc 68fe e63c 658c 113e
000001b0: 6527 a2bd d20e cd3d d42c 203e ce44 e93d
000001c0: a47f 943d 4efb 19be 13d3 2d3e 744a fbbd
000001d0: d3e6 3cbd edd6 0dbe 2d15 2f3c 2df0 0cbe
000001e0: a3a1 2bbc 118c 4c3e f8b3 a9bd a331 f03d
000001f0: d513 9b3d ee45 28bd ffb2 0a3e f701 943c
00000200: 5b65 9d3e daea 083d b473 8a3c 3f0a 003e
00000210: 6322 6bbc 0729 1d3e b554 60bd 45e9 00be
00000220: d4c5 f1bb 8561 9c3d f6d8 0a3d 669f 8abc
00000230: ad6b d53d a2f9 e63b 5233 91bd adb5 87bc
00000240: 56c7 f93d 647d 80bd dd19 70bd c304 d9bd
00000250: a401 c1bc 8cf0 6939 8665 2fbd 72fe fbbd
00000260: 1d78 b1bd 36db 063d 4ce9 073d baa7 8fbd
00000270: 70c2 1abd 034e 19be ed60 0cbe 539d 5fbd
00000280: b908 49be 7562 e4bc 8167 233c 7ff5 bdbc
00000290: 00a1 d73d 5145 0cbd feea 2a3e 1b2d bf3c
000002a0: cdc2 d43c 3149 8e3b 9354 c5bc 0a18 8cbd
000002b0: d673 03bc 1af4 b6bd 0a82 a33d cc57 f5bd
000002c0: 0fb4 d23d 79a9 dcba 3529 ddbc dde4 d43c
000002d0: c7a6 d2bd 9e92 ba3d 2681 203b 7e9d 373d
000002e0: ac0e 59bd b648 34be 86b1 bfbc bbe5 bf3d
000002f0: 7216 f3bc ab08 41bd 10f6 f5bd 27ee 703d
00000300: df2c d6bc 2d82 20bd c46f 153d 53be 91bb
00000310: 1756 433c 0e6c 6ebc 4b41 4c3e a887 0cbe
00000320: fae7 b5bd 60b8 8c3c 3a46 023d 9dad a13b
00000330: 5341 4fbc 795c 9c3e 5140 8b3d fee5 c7bc
00000340: 21dd b9bd b3f2 31be 61e5 053e 0a46 df3d
00000350: 8d75 4a3c a7cc d43d f1d8 173d a0f8 253d
00000360: fd9b d93c dc26 113d 91ef f7bd 5329 cf3c
00000370: 6c0d 763d 4a99 353d 24bf a63d edd5 32be
00000380: 71df 92bd 1544 b93d d98f 61bd b885 b43d
00000390: 07b6 063b 3601 be3d f8a1 1dbe d637 163e
000003a0: 25c8 7e3e 0bab db3d e64e a4bd a3a8 0bbe
000003b0: e6b0 0b3e 0c9c bebd 2674 133d 9519 123e
000003c0: 5fa8 13bd c64d 19bd 4b44 27be 2b40 b93c
000003d0: 2a87 4c3d 7bfd 023d afe2 093e 39b6 953d
000003e0: 569e bd3d 8b1a eb3d 538a 8abd e848 f5bc
000003f0: 5d23 3b3e 5c62 9bbd 7843 0a3e cbd8 0abd
0.15127818 0.06614063 0.036324322 0.17753012 0.022971459 -0.032525707 0.06979134 -0.069849886
0.09692681 0.032305267 0.1381701 0.046725914 -0.009228268 -0.0894371 0.0118377395 -0.055672515
-0.07324374 -0.10605608 -0.11634406 -0.017357409 0.022821449 0.04117142 0.01364049 0.010810755
-0.006653669 0.16339262 -0.010010279 0.01000243 0.053727258 0.1277828 0.036616724 -0.08098111
-0.054414235 0.07956539 -0.04328912 0.10559983 -0.021374566 0.015392653 -0.09989326 0.13619192
0.082568556 -0.06919313 0.16938883 0.10516961 0.09817511 -0.14760108 -0.20732541 -0.07560183
0.07646829 0.0740255 0.12475991 -0.010143484 -0.028198171 -0.050222054 -0.109380566 -0.022023905
-0.13770744 -0.15381925 -0.01804771 -0.02990939 -0.07130498 -0.12204196 0.044280063 -0.033417042
-0.05503973 0.0126081295 4.8060694e-05 0.03450043 -0.11141157 0.0002515059 -0.02257332 0.095666274
-0.035598733 -0.11348686 -0.022577045 0.20570853 -0.07397657 -0.034140233 -0.040471345 -0.03678234
0.28149152 -0.0065502613 -0.12687759 -0.050858762 -0.09121862 -0.20307489 -0.055713404 -0.10959882
-0.0758144 0.041152608 0.1279424 -0.022564113 0.005195792 -0.072814375 0.022797933 0.010404094
-0.04104708 -0.10147537 0.048390064 -0.09662869 0.11879494 0.07069389 0.1154909 -0.017377373
-0.07092285 -0.027380101 0.028197482 0.14213713 -0.0791767 0.100125924 0.156421 0.113900766
0.07250908 -0.15037271 0.1697505 -0.1227006 -0.04611857 -0.13851519 0.010686201 -0.13763495
-0.010475549 0.19975306 -0.082862794 0.117282175 0.07572142 -0.041082315 0.13544844 0.018067343
0.3074139 0.033427097 0.016900875 0.12503909 -0.01435146 0.15347682 -0.054768283 -0.12588985
-0.0073783193 0.07635788 0.033898316 -0.01692171 0.10420928 0.0070488015 -0.07089867 -0.016566122
0.121962234 -0.06273916 -0.058618415 -0.10596611 -0.023560353 0.00022310222 -0.04282143 -0.12304391
-0.08665488 0.0329239 0.033181474 -0.07014413 -0.037783086 -0.14971165 -0.13708849 -0.054593395
-0.19632234 -0.02787898 0.009973408 -0.02318835 0.10528755 -0.034245793 0.16691205 0.023336938
0.025971795 0.004342221 -0.02408818 -0.068405226 -0.008023223 -0.089332774 0.07983787 -0.119796365
0.1028825 -0.0016835175 -0.026997188 0.025988037 -0.102857165 0.09109996 0.002449104 0.04482793
-0.052992508 -0.17605862 -0.02340008 0.093699895 -0.029673789 -0.047127407 -0.12009823 0.05882087
-0.026144443 -0.039186645 0.03648354 -0.0044477372 0.011922381 -0.014552129 0.19946782 -0.13723624
-0.08882137 0.01717776 0.031805255 0.0049340264 -0.012649852 0.305393 0.06799377 -0.024401661
-0.0907538 -0.17377739 0.13075782 0.10902031 0.012357128 0.10390597 0.037072126 0.04052031
0.026563639 0.03543745 -0.121062405 0.02528826 0.060071394 0.04433564 0.08141926 -0.17464419
-0.07171524 0.09046189 -0.055068824 0.08814567 0.0020555274 0.09277575 -0.15393817 0.14669737
0.24881037 0.10725983 -0.08022861 -0.13638549 0.136417 -0.09307107 0.03599944 0.14267571
-0.036049243 -0.037427686 -0.16334645 0.022613605 0.04993359 0.03198002 0.13465379 0.07310147
0.09258716 0.11479672 -0.067646645 -0.029941991 0.18275209 -0.0758712 0.135023 -0.033898156

b_draw_mode f4 [4]
00000000: c4ae 07bc 9cbe 703c becc 89bb eca5 10bb
-0.0082814135 0.014693882 -0.0042053154 -0.0022071553

W_lay_eggs_bin f4 [192, 11]
00000000: b06c 563d 55c8 d4bb d1a8 ed3c 2a3c ebbb
00000010: e12c a5bd f173 183d cc25 8abb 28f3 373e
00000020: dbc4 d1b9 0c82 46be 681d 1ebe b08a 8fbd
00000030: a638 3c3e 8e9b b23d ed0f adbc 415f 7dbc
00000040: a430 cdbd d148 8dbc 604a 653d c73f 46be
00000050: a9c3 26bd 8f78 4c3d 44d1 9a3d 59ae 8bbc
00000060: 131d bbbd 7ca0 413c b785 44be 4ca2 02be
00000070: 3744 3b3d 21eb 5f3d 61e8 233d 55ca 76be
00000080: bc7c 9d3c 4586 7a3d 12cd 6ebd 72c9 c9bd
00000090: 6ce0 913d ca6d a7bd d9da 283e 72d0 0b3e
000000a0: 1518 c33a 5c23 f43d 95d9 aebb a65e 81bd
000000b0: 4b2d 07bc 27fc 14be 4e68 fb3c b457 03be
000000c0: c85d a3bc ba61 1b3d 88f5 c3bd b957 19be
000000d0: be9f 7a3e 9cba 793c 6445 8abd c3ba c33d
000000e0: af2f 9a3d 2ac2 df3d bf60 8f3d ab25 75bd
000000f0: ed9f 8abb a40f 1a3d 6fff 063d 564c 5e3c
00000100: be57 3abb ab6e 043d 1b44 1dbe b5bb 09be
00000110: f109 733e e107 8e3c 5961 01be dba3 213e
00000120: 6eb2 06be 491e 43bc 9558 a1bc c406 c83c
00000130: 3798 40bd a805 eebd 8b45 3cbd bbf6 34bd
00000140: 4e5b d43d 315f 05be 128c 183d 0a50 7fbe
00000150: 8885 16bc c33d be3d b268 d6bd 9a67 c13d
00000160: 999a 98bd d84b b0bd 9f0b b7bd 2405 00be
00000170: 8be3 08be 086e 40bd ccd8 a83b 9972 d13d
00000180: d107 a6bb 8336 01be 969d dcbb 0684 b53d
00000190: 5a5a 853c 02f1 cebc 5655 0c3d a965 8fbc
000001a0: 469b 12bd 287a 26bd 92dd 833d 817b 5a3d
000001b0: 5260 573e a329 1bbd 42d2 d33c 25f3 c13c
000001c0: 5397 abbd 15e8 553d 757b e5bc 17a4 0abc
000001d0: 69f8 d93a 8c1e f5bc 6892 a6bb c0d4 103e
000001e0: 117f af3c 27c3 8c3b 3815 1d3e ae8f 5e3d
000001f0: f819 3a3d f942 023e 9f04 44be c562 f5bd
00000200: a5f8 bebc 56fc 54be d76f f63c e9dd 723e
00000210: ca59 85bd a2ef 853c ba1c 123e 2280 aabc
00000220: 99e2 363c 8156 d13d 830d 1e3e a3bb 5b3d
00000230: a397 e23d 17bb 803d 471a fc3c 37b0 b13d
00000240: 92b5 bb3d ffa3 4abd 23b5 dc3d 289b 31bc
00000250: 5993 40bc 0ed1 8d3d 378b 4cbd a0de a13d
00000260: 7f37 d53d f842 f63c 2415 4d3d e3c4 d6bd
00000270: de0e f6bd 6b9f 15bd ec02 55be 33c9 a73a
00000280: 4a2c 833d 4a3b 33bc 68c4 af3d c76a 5abc
00000290: 3082 5e3d c441 fdbd 4f69 15bd 915f 553d
000002a0: 9406 923d b96d 03be c17e a6bd d637 80bc
000002b0: 2a5f 2ebd a0cd e13d 8085 043d fbfb 203d
000002c0: 00b1 323d c94f a83d 6a86 9bbd cb18 00be
000002d0: 7bd3 06bd 8ff9 25be b013 f2bd 8395 923d
000002e0: fba2 8a3d 8ea0 14bd 5b54 0abd 232e 01be
000002f0: b336 043e a51a 27bd fac0 37be 5397 063e
00000300: da42 82bd 9e41 d2bd 24a6 3b3e 6ed7 233d
00000310: 648a 963d fcd2 77be ab2a 6ebe 876d f03d
00000320: 22f9 de3d 871f 3ebe c0b2 003e 475f 74bd
00000330: 7cfc 35bd 0627 e0bd 6e4a 6c3e 4210 9fbd
00000340: 578a f83c 29e5 9b3d 184e e5bd 3827 89bc
00000350: 31d6 bbbd db40 443d 1a82 653d 4025 163e
00000360: 2366 80be f0b0 28bd 87a3 1dbe dc62 f23d
00000370: 1ed0 02be 0334 ce3d 5405 463c ba05 af3d
00000380: 47ca bbbd 5fe1 0abd ee44 e33d c0ef b63d
00000390: 7daa d7bd bc2b bdbc a6b6 123e 471d 9fbd
000003a0: 77d8 80be 3b8a 823c 45f5 1ebe 3fb2 d7bd
000003b0: 5ba1 61be 1e84 f6bc 455c e63a 0fbd d1bc
000003c0: 638e fcba 0de2 ccbb d617 96bb 62e5 063e
000003d0: 1389 2fbe a0a4 cc3d 3920 2a3d f9fc 8c3d
000003e0: 14f3 b03d 9629 f5bc 92ce 0f3c b283 243d
000003f0: e24f fabd 522d 823d 8ceb 02bd a356 0abd
0.052349746 -0.006493608 0.029011162 -0.007178803 -0.080652006 0.037219945 -0.0042159315 0.1796385
-0.00040010255 -0.19385546 -0.15440905 -0.070088744 0.18380985 0.08721076 -0.021125758 -0.015464605
-0.10019043 -0.017246636 0.055979133 -0.19360267 -0.04071394 0.04991966 0.075594455 -0.017050909
-0.09136405 0.011818048 -0.19191633 -0.12757224 0.04571935 0.054667596 0.040016536 -0.24100621
0.019224517 0.061163206 -0.05830104 -0.09852876 0.07122883 -0.081752375 0.16489734 0.13653734
0.0014884496 0.11920807 -0.0053359964 -0.06316881 -0.008250545 -0.14549313 0.030689385 -0.12826425
-0.01994218 0.037934996 -0.09568316 -0.1497487 0.24475 0.015242245 -0.067515165 0.09557106
0.07528626 0.10925706 0.07000875 -0.059850376 -0.0042304904 0.037612572 0.032958444 0.013568005
-0.0028433646 0.032332104 -0.15358011 -0.13450511 0.23734261 0.017337741 -0.12634791 0.15785162
-0.13154003 -0.011909076 -0.01969556 0.024417289 -0.047020163 -0.116221726 -0.04596476 -0.044180613
0.103689775 -0.13024594 0.037242956 -0.24932876 -0.00918711 0.09289124 -0.10469188 0.094435886
-0.07451362 -0.08608216 -0.089377634 -0.12501961 -0.13368051 -0.046979934 0.0051527973 0.10226936
-0.0050668498 -0.12618451 -0.006732653 0.08863072 0.016278435 -0.025261406 0.03426107 -0.01750453
-0.03579261 -0.04064384 0.064387456 0.05334044 0.21032837 -0.037881505 0.025857095 0.02367551
-0.08378472 0.052223284 -0.02801297 -0.008461974 0.0016629818 -0.029921792 -0.005083371 0.14143658
0.021422895 0.004295725 0.15340126 0.054336242 0.045434922 0.1272086 -0.19142388 -0.119817294
-0.023311922 -0.20799384 0.030082626 0.23717465 -0.065112665 0.016349617 0.14268771 -0.020813052
0.0111624235 0.102215774 0.15434842 0.05364574 0.11064079 0.062856846 0.030774249 0.086761884
0.09165491 -0.049472805 0.107767366 -0.010840215 -0.01175388 0.0692464 -0.049937453 0.079037905
0.10410976 0.03006123 0.05006899 -0.10486772 -0.120145544 -0.036528986 -0.20801896 0.0012801051
0.06404932 -0.010939429 0.085823834 -0.013331122 0.054323375 -0.123660594 -0.036477383 0.052093092
0.07130161 -0.12834825 -0.08129645 -0.015651625 -0.042571224 0.11025548 0.032353878 0.039302807
0.04362583 0.08218343 -0.07593997 -0.12509458 -0.032916527 -0.1620848 -0.11820161 0.07157423
0.06769367 -0.03628593 -0.033771854 -0.12615256 0.12911491 -0.040796895 -0.17944708 0.13143663
-0.06360407 -0.10266422 0.18325096 0.04000037 0.07350615 -0.24201578 -0.23258464 0.11739641
0.10887362 -0.18566714 0.12568188 -0.059661176 -0.04443024 -0.10944943 0.23075268 -0.07766773
0.030339403 0.07612068 -0.11196536 -0.016742334 -0.09171713 0.047913413 0.056032278 0.14662647
-0.25077924 -0.041184366 -0.15394412 0.11835262 -0.12774703 0.10068514 0.012086231 0.08546014
-0.09169441 -0.033906337 0.11097132 0.089324474 -0.10530565 -0.023092143 0.14327487 -0.07769256
-0.2516515 0.015935054 -0.1552325 -0.105320446 -0.22034208 -0.030092295 0.0017575106 -0.025602845
-0.0019268509 -0.0062525333 -0.004580478 0.1317344 -0.17142133 0.09992337 0.041534636 0.06884188
0.086401135 -0.029927056 0.008777278 0.040164657 -0.12222268 0.063563004 -0.031962916 -0.03377403

b_lay_eggs_bin f4 [11]
00000000: aa36 30b9 2772 56b9 16c0 d33a a242 003a
00000010: a028 21b9 a9d7 17b9 feb2 54b9 74e9 c8b9
00000020: ac02 a3b9 ba54 93b9 b016 86b9
-0.00016805032 -0.00020451155 0.0016155269 0.00048927416 -0.0001536929 -0.00014480822 -0.00020284575 -0.0003832091
-0.00031091773 -0.0002810115 -0.00025575375

W_play_cost_bin f4 [192, 7]
00000000: 4fe5 46be 45b1 b53d 60d5 c33c 1657 a43d
00000010: 52c2 ef3d 8eef 3fbe cc36 3a3e 153d bebd
00000020: ce76 c23d 35bb 203d cced a53c 9f20 c8bb
00000030: fb0a 77bd df36 04be c039 8a3e 206a 01be
00000040: 9b2c e73d f6ad c53d e603 38be 7753 0d3c
00000050: ed45 9d3d c7ab ae3c 8690 083e 1872 433d
00000060: d3c7 8e3d e5b7 7c3e 1bc7 3b3e 3740 fa3d
00000070: 6c5b e83c 8d4c 073d 640e 1d3e fa63 96bd
00000080: 10a7 843c f123 8ebc 41c8 7fbe c308 52bd
00000090: bcfa a03d 29bf fcbd 2be3 3fbe 6283 8d3d
000000a0: e7ef 2f3e 8392 2b3d fda8 e0bb 0001 24bd
000000b0: 57c3 e8bd 9dcd 513c 16c9 43bc 8fe8 1abd
000000c0: 0de8 27be 439d 8abc f2e0 f93d 5a08 c33c
000000d0: 7d80 603d 2fb6 6d3d 443b 003d c17d b1bd
000000e0: 98d8 7fbb a4f7 973d 5f18 c93b bd83 ebbb
000000f0: 6626 d0bb 84bc b23c 2823 903d c5d2 edbd
00000100: ce19 9d3d bd69 cd3d a641 9bbd 6f96 403c
00000110: 0fcf 1f3c 6757 003e db63 fe3c c968 ea3d
00000120: 6663 683d 2683 0f3e 15b6 f2bc 52e7 7cbd
00000130: 270e 023c 09be cabc 4c00 0cbd 99ca 6ebd
00000140: 1968 c8bd 9f22 26be c38e 0bbe 3d13 67bd
00000150: e429 eb3c 84f4 2b3e 4b1e f4bd 0329 8b3b
00000160: db8f b3bd abfd 59bd 0276 2a3d 9a90 873c
00000170: 0584 273d 3eab 923c ce9b 6c3d 39f9 11bd
00000180: 8fd6 da3d 6337 193e 7f86 7d3d 924e 32bd
00000190: 30f9 8ebc 0afc ed3d 85e1 603d 57d4 fdbc
000001a0: 0e3b edbd 374c 0abd a864 d83d ac40 7bbc
000001b0: 03f5 763c ce86 c83c d1ba b2bd 4a56 6a3e
000001c0: e43f 06bd 1452 db3c c0a0 23be fda3 1bbc
000001d0: 95b1 fb3d adf9 9cbc 1cd3 3e3d acc0 ffbc
000001e0: 406d 4f3c 9d10 cebc 9663 61bc a150 9d3d
000001f0: 2e13 0ebe 892f 6b3b 8dc8 b93d d819 6ebc
00000200: cfea 133d 1cf4 2e3e 0731 8f3d 9554 dabd
00000210: 4c63 1ebe fd9f 8f3d d4f9 303e 67c7 e93c
00000220: a6e8 2fbd 9df2 d23d daa9 093b 5f35 e53d
00000230: 01ea 9bbd c274 52bd 55c8 973d 7855 313e
00000240: d41e 00be 818f 6cbd f8ce a1bd 3cf1 7cbd
00000250: 70b4 c8bd 57a0 02bd 661f 4cbd 5cb6 06be
00000260: 5f44 6b3d f4b9 bbbd 6ce9 1dbd 3f89 e2bc
00000270: 2b27 11bd 8f7a 48be 6501 59bd c683 e73d
00000280: d8c7 6abd 0ed1 cfbd 44c4 0a3e fa32 a33c
00000290: c6de d9bd b873 4e3d 558a f4bc fd6e 523b
000002a0: f69e ad3d 5f09 c2bd b241 64bd 0822 d83d
000002b0: a943 06be 8174 283d 51b7 40bd 6bb1 043e
000002c0: 1824 1abe 25f6 90bc 3d91 043e e697 d33d
000002d0: 0c87 68bd 8b84 b0bd 963b 7d3c cda7 ad3d
000002e0: 4709 1e3d ea88 5fbd bf66 b73d 2f80 c4bc
000002f0: cdc9 22bd a4bf 22bc 8bed 2ebc e1af 25be
00000300: 6676 d6bc 72e3 bfbd b1b5 963d e389 4e3e
00000310: 5336 1f3d 80ea 20be a590 413e 99d8 c83d
00000320: 4bad efbc bcf2 213e 7ca7 9e3d ed7c 86bd
00000330: ddd0 69be ac43 06bd 263e 123e 7001 f43d
00000340: aed0 453e b726 aa3b f723 c43d ed88 7bbe
00000350: 48eb 1fbe 930e 5fbd a9ef 303e bd5a 693e
00000360: 5236 ad3d 746e cbbd 6a4e 563d 531e 4a3e
00000370: 956c 653e 653e 16bd 74f0 d73c af96 393c
00000380: a209 bb3c 3420 d23c da76 b83d 761d 7d3c
00000390: 6147 65bd f898 cdbc 5ddb cf3c 15f2 72bd
000003a0: 7ce5 d03d c102 8abd c599 cd3d 1cf2 14bd
000003b0: 8cda 313e 5839 d03d bb00 bd3d a2c6 93bb
000003c0: 7508 033d c9ef 8a3d 4a7e ef3c b299 c8bd
000003d0: fcf8 9c3d 0b41 21be 8028 b0bc 5c0f c1bd
000003e0: db6b 3ebd b593 19be ce51 063e 6ea9 0e3d
000003f0: 2039 a53c e7b9 9cbc 2862 71bc 8640 553d
-0.19423412 0.08871702 0.023905456 0.08024423 0.117069855 -0.18743727 0.18184966 -0.09288994
0.094953164 0.039241035 0.020254992 -0.0061074044 -0.060313206 -0.12911557 0.26997185 -0.1263814
0.11287805 0.09652321 -0.17970237 0.008625857 0.07679353 0.021322144 0.13336381 0.04771623
0.06971707 0.24679525 0.18337671 0.12219279 0.028363906 0.03303199 0.15337521 -0.07343288
0.016192943 -0.017351123 -0.24978735 -0.051277887 0.07860324 -0.123411484 -0.18739001 0.06909825
0.17181359 0.04188777 -0.0068560825 -0.040040016 -0.11365383 0.01280537 -0.011949798 -0.03781944
-0.16397114 -0.016920691 0.12201108 0.023807693 0.054810036 0.058035072 0.03130652 -0.08666564
-0.0039039012 0.074202806 0.0061369385 -0.0071873353 -0.0063522337 0.021818407 0.070379555 -0.11612467
0.076709375 0.100299336 -0.07580881 0.011754616 0.009753956 0.12533341 0.031053474 0.114457674
0.05673542 0.14014873 -0.02962784 -0.06174404 0.0079379445 -0.024748819 -0.03417997 -0.05829868
-0.0978548 -0.16224144 -0.13628678 -0.05641483 0.028706498 0.16792494 -0.119198404 0.0042468323
-0.08767673 -0.053220432 0.041616447 0.016548444 0.040897388 0.01790392 0.057765774 -0.035638068
0.10685455 0.14962535 0.061895844 -0.04353196 -0.017452806 0.11620338 0.054902572 -0.03098504
-0.115835294 -0.03376409 0.10566074 -0.015335243 0.015073064 0.024478342 -0.08727039 0.22884479
-0.032775775 0.026772536 -0.1597929 -0.009499547 0.122897305 -0.019162023 0.04658805 -0.031219803
0.012660325 -0.025154406 -0.013756653 0.07681394 -0.13874504 0.0035886487 0.09071455 -0.014532529
0.036112603 0.17085308 0.06991773 -0.10660664 -0.15467566 0.07012937 0.17282802 0.028537465
-0.04294648 0.10300181 0.002100578 0.1119182 -0.07612992 -0.05138088 0.07411257 0.1731776
-0.1251176 -0.057754043 -0.07900804 -0.061753497 -0.09800041 -0.031891193 -0.04983463 -0.13155502
0.05743825 -0.09166327 -0.038552687 -0.027653335 -0.035437744 -0.19578002 -0.052979846 0.11304431
-0.057319492 -0.10147296 0.13551432 0.019921768 -0.10638194 0.050403327 -0.029851118 0.0032109611
0.08477585 -0.09474444 -0.055726714 0.10553366 -0.13111748 0.04112673 -0.047049824 0.12958305
-0.15052831 -0.017695496 0.12946029 0.10331707 -0.056769416 -0.086190306 0.015456101 0.08479271
0.038583066 -0.05457393 0.08955144 -0.023986904 -0.039743233 -0.009933386 -0.010676752 -0.16180374
-0.026179504 -0.093695536 0.07358874 0.20169787 0.038870167 -0.15714455 0.18902834 0.09806938
-0.029257437 0.15815252 0.07746789 -0.065667965 -0.22833581 -0.03277938 0.1428152 0.11914337
0.19317886 0.0051926035 0.09577172 -0.24563952 -0.15617096 -0.05445726 0.17278923 0.2278852
0.084576264 -0.09933177 0.052320875 0.1973813 0.22404702 -0.036680598 0.026359774 0.01132743
0.022831742 0.025650121 0.09007044 0.015448919 -0.055976275 -0.025097355 0.025373155 -0.0593129
0.10200021 -0.067388065 0.10039095 -0.036363706 0.17368525 0.101671875 0.09228655 -0.004509763
0.031990487 0.06784017 0.029235024 -0.0979494 0.076646775 -0.15747468 -0.021503687 -0.09426758
-0.046489578 -0.14997752 0.13117144 0.03482955 0.02016884 -0.019131614 -0.014732875 0.052063487

b_play_cost_bin f4 [7]
00000000: f34e 6cb9 ff6b a039 9546 5d3a 576a c73a
00000010: 0663 b5ba 7218 edb9 42eb 1fba
-0.00022536125 0.00030598041 0.00084409985 0.0015214187 -0.0013838715 -0.00045222376 -0.0006100425
