reports/ml/auto_improve_factorized_long_live/iter_004/factorized_model.npz (npz, 72185 bytes, 17 tensors)

W1 f4 [48, 192]
00000000: 2d64 87be d628 7cbe f158 013e ae0a a4bd
00000010: eb3a 6cbe 2cce 03bd 454d d2be cccb d23e
00000020: 7d9f 17be a81b 20be 97c4 ff3d 3ac1 a33c
00000030: 7299 a7be babc 103e 2207 4abe 23fd 463e
00000040: da99 32be 0bf4 2ebc d2d2 ef3d d8ae d73d
00000050: 69b5 f73b e107 583e 6d92 393e 3338 c0bd
00000060: 33a0 a5bb baa0 aa3d 379a 32bc 005d 60bd
00000070: 34f2 043e 1b2b 0bbe c8de c8be 9e80 83be
00000080: f353 b33d a1ad 473e ff83 7abd fccd a53d
00000090: b5f3 483c 3d7d eb3d f5e1 d4bd f6ce 7ebd
000000a0: 5af0 ac3a f754 963e 31c5 b8be 41cf db3c
000000b0: c136 253f 7f39 cabd ca6a 61bd 0fa2 603e
000000c0: 98c8 35be 1546 3a3e 8d72 afbd deb3 86be
000000d0: b4c4 ca3c f63d 1abe 98cf d03e f698 333e
000000e0: f462 623e 8ffa 55be d92e 813e 5160 91be
000000f0: 66cb 463e 7f1a 2cbe 01b2 9d3c 9497 83bd
00000100: 5fff 913e 048c ab3e feda 3abc a33d a83d
00000110: 6bf3 9c3e 3fb3 443e 64fd 8fbc e787 81be
00000120: bb93 613e ce95 f1bb 86fe d93c bdfe 58be
00000130: b83e de3d d3d6 9b3e 5426 283e 06cf 12be
00000140: a321 ffbd c2fe f0bd c6f9 6fbe b2e9 e93d
00000150: 15df dd3d 337c 12be edbf d43d e903 893e
00000160: 22d0 7f3e e472 fc3c 62ca cf3e 1127 07bd
00000170: 75a1 febb 0a7e 393b 47e7 e83d ba0f fb3d
00000180: 1876 f23d 2530 fc3d 1120 0cbe 2858 acbd
00000190: 7117 953d e2a2 b13e a4f4 163e 1036 8dbd
000001a0: ca31 3d3e 5ba6 14be 4293 7e3d 087f 2f3e
000001b0: 1bbb c83d 21fc a03d 4eab 643c 497b c43e
000001c0: 35a7 6c3d 09cc ea3d afb1 f0bc 4f35 b6be
000001d0: 0a45 4ebe 5fde c23d 4e56 873d edab 0dbe
000001e0: d5fa b53d da90 21be fcea ef3e 4b79 cdbe
000001f0: f04e a7bd 91b3 3ebc 42be d83e e092 0bbe
00000200: bcc7 91be 36d1 1ebe 7895 923e dab1 993d
00000210: ab35 893e 9243 063e ab76 36bd 7155 eb3d
00000220: 447d 3fbe 4140 abbd 333d 8ebd ca3d 84be
00000230: f809 de3d 348b 893e 55c1 19be 002c 3abe
00000240: 565f 423e 592b ba3c 1942 53bd 249d e1bd
00000250: d2b8 093e dbaa 233e 8643 20be 0b0a 80bc
00000260: 37ad 8f3e c382 adbd 44ee 8d3d 6e2e 053d
00000270: 720f a13c 40bc 11be b169 8a3e b4ee 8fbe
00000280: c023 a0be 3192 08ba afc0 9b3e 2f25 b2be
00000290: 3a1b 8e3d 4a12 9b3c 2945 2fbe 3a57 663e
000002a0: a8b9 2d3c 1a86 2d3f 9ac8 5dbe b529 95be
000002b0: b159 70be 6ffb 963e 18f6 683d 61c0 8cbe
000002c0: d186 673d 3dbf 243e b676 893e 847b 9fbd
000002d0: cecc dd3b 56b1 493e 0342 05be 35fc be3d
000002e0: cf81 5e3e 99e4 37bc 04b7 c4bc d807 853e
000002f0: 4693 83be 4f14 123e fd14 a7be 9a57 a13d
00000300: 7dde 8c3d 95ec 2c3e 20d4 de3c 9004 82bb
00000310: 7890 92be e131 5c3e a8aa f0bb e6b3 243e
00000320: ba0f 17be 9e96 33be 7fa6 753e d03c d3bd
00000330: 1caf b1bc 860a fd3b ddea 4d3c 72d7 733e
00000340: 7916 5bbe d91a 68bc 4a16 f03c fc77 153d
00000350: e482 963d 8f10 863d 8e03 3cbe 2de1 1b3e
00000360: 1a13 e6bd 2ab9 833d 15b2 5cbe 6619 60be
00000370: cefa 703d 0275 303c fd75 ad3c d1d0 86be
00000380: a46b f53b 2145 4ebe 8dfc 5dbd cea9 ba3e
00000390: 76dd 363c 119b f4bd 6978 943e 006c 89be
000003a0: d066 973e e124 2fbe 1072 4a3d c209 8c3e
000003b0: 2b48 4abe 81a2 323d 5ba5 8bbe e64b 973e
000003c0: 31d7 e5bb f5b0 a4be 91aa 783b a649 b23e
000003d0: cd98 0ebd 4f0c 91bd 143a 0bbe 1b90 433e
000003e0: 3a09 85be 48fc a0bd 970b 153e 1a18 6cbc
000003f0: ca42 6c3d 0325 0f3e 7b1b 1bbe 33be f83d
-0.26443616 -0.24624953 0.12631585 -0.080098495 -0.2306935 -0.032179043 -0.41074577 0.4117111
-0.14806934 -0.1563555 0.124886684 0.019989599 -0.32734257 0.14134493 -0.19729283 0.19432501
-0.17441502 -0.010678302 0.11710133 0.10531396 0.0075594676 0.21096756 0.18122263 -0.09385719
-0.0050544976 0.083314374 -0.0109010255 -0.05477619 0.12983018 -0.13590662 -0.3923247 -0.25684065
0.087562464 0.19499828 -0.061161038 0.08095929 0.0122651355 0.11498497 -0.103946604 -0.062209092
0.0013194189 0.29361698 -0.36087945 0.026832225 0.6453667 -0.09874248 -0.055033483 0.2193682
-0.17752302 0.18190797 -0.08566771 -0.26309103 0.024751998 -0.15062699 0.4078338 0.17538819
0.2210806 -0.20896362 0.25231054 -0.28393796 0.19413528 -0.16806982 0.019249918 -0.064253956
0.28515145 0.3350526 -0.011404751 0.08214881 0.30654463 0.19209002 -0.01757688 -0.25298998
0.22029011 -0.0073725944 0.026610624 -0.21190925 0.108518064 0.30437335 0.16420871 -0.14336786
-0.124575876 -0.11767341 -0.23435125 0.11421527 0.10833565 -0.1430519 0.103881694 0.26760796
0.2498174 0.030816503 0.40584093 -0.03299624 -0.007770712 0.0028303885 0.11372238 0.12258859
0.11838931 0.1231387 -0.13684107 -0.08415252 0.07279862 0.34694582 0.1474176 -0.06895077
0.18476024 -0.14516585 0.062152155 0.17138302 0.098013125 0.0786059 0.013956858 0.3837531
0.05777665 0.11464698 -0.029381601 -0.35587546 -0.20143524 0.0951507 0.06608258 -0.13835116
0.08885733 -0.15777913 0.46858966 -0.40131602 -0.08169353 -0.011639492 0.42332655 -0.13630247
-0.28472698 -0.15509495 0.2862966 0.075046256 0.26798758 0.13111714 -0.044546764 0.11490906
-0.18700129 -0.08361865 -0.069452666 -0.2582839 0.10841745 0.26864016 -0.15015157 -0.18180847
0.1898168 0.022725748 -0.051576708 -0.110163 0.1344941 0.15983145 -0.15650758 -0.015629789
0.2806184 -0.084722064 0.06930211 0.032514982 0.019660685 -0.14231968 0.2703376 -0.28111804
-0.31277275 -0.00052097725 0.30420443 -0.34793994 0.06938787 0.01892962 -0.17116226 0.22494212
0.010603346 0.6778275 -0.21658555 -0.29133382 -0.23471715 0.29488704 0.05687532 -0.27490523
0.056525055 0.16088577 0.26848382 -0.077872306 0.0067687994 0.19696555 -0.13013463 0.093254484
0.21729206 -0.0112239355 -0.02401305 0.25982547 -0.25698298 0.1426556 -0.326332 0.07878037
0.06878374 0.16887124 0.027200758 -0.003967829 -0.28625846 0.21503402 -0.0073445626 0.16084251
-0.14752093 -0.17537925 0.23989294 -0.103143334 -0.021689944 0.0077222018 0.012568203 0.23812655
-0.21395291 -0.014166557 0.029307503 0.03649138 0.07349184 0.06546127 -0.18360731 0.15222616
-0.11234112 0.064318016 -0.21552308 -0.21884689 0.058832936 0.010770084 0.021174425 -0.2633119
0.0074896384 -0.20143558 -0.05419593 0.36457676 0.011161199 -0.11943639 0.28998116 -0.2684021
0.29570627 -0.17103912 0.049425185 0.27351195 -0.19754092 0.043612007 -0.27274594 0.29550093
-0.007014178 -0.32166258 0.0037943462 0.34821814 -0.03481369 -0.07082426 -0.13596374 0.1909794
-0.25983602 -0.07860619 0.14555202 -0.014410043 0.057680883 0.13978963 -0.15147202 0.121456526

b1 f4 [192]
00000000: 0000 0000 ccb3 a3b9 c9a1 0d3b 0000 0000
00000010: 1a40 99bb 66c5 513a 9450 35bb 61d1 433b
00000020: 608a 093c ac18 04bc b06a 6bbc fcbb a6bb
00000030: 4791 383b 0953 113a b71a db3a 8f68 37bc
00000040: 48db 7eb8 9596 93ba 96f1 423b 5c07 153a
00000050: 0363 c837 61aa 94b8 9285 793c b24a 09bb
00000060: a540 c239 ed52 11b9 71b8 cf3c 9cd3 c6b9
00000070: ed98 e438 96c2 f9bb 2440 5dbb 7979 2abb
00000080: 243d 973b 4837 36bb 0000 0000 f856 553c
00000090: f952 0b37 c3e0 1438 2dcb 69bb d502 4138
000000a0: 8de3 99bc 4be8 873c 136f 2539 41b2 d7bb
000000b0: 5d83 5e39 acad 3bbc 95fa da3b 849a e8b8
000000c0: 3059 98b7 7c34 083c 2c35 9ebb a67a 0a3b
000000d0: 664e af39 985d 47b8 687c aebb e2ec 713b
000000e0: 2589 05bc 8899 3c3c 4dc6 a73a d5ee febb
000000f0: 61a6 7139 6f36 223c d853 013b 8532 f63a
00000100: 5973 3b3c bbad 4f3c 44e6 8cb6 8a76 033a
00000110: 2a48 e1bb f630 15bb ecf9 d239 aa01 f937
00000120: ebb2 193c 6379 a1bc 3a1c eab9 f994 4937
00000130: 9f07 6fbb 8080 b5bb 35e7 56bc ec53 4ab6
00000140: 0000 0000 6626 24bb 6893 dcba 4cab a9ba
00000150: b887 2a3c d407 83ba 5930 ba3a ce15 ad3b
00000160: bcb3 d8bb 4666 143b e928 823c 1897 69ba
00000170: 66d1 943b 3a03 6dbb b03d c83b 0000 0000
00000180: d6e0 11ba 893a 3239 c4f9 cab7 2299 47b9
00000190: f39f 833c 0c10 df3b bbf3 8a3c 0000 0000
000001a0: 71e2 2539 26bc b2b5 6204 ed37 db85 173c
000001b0: 739d dfbb 8f28 223a 7d6d 12bc 280d 96bb
000001c0: 895c 54b8 da38 1dbb f145 c73a 96ef 743a
000001d0: b9ce 3538 df7c 3b3b 0fb8 04b8 0b27 67bb
000001e0: 78fa 63bc d797 6b35 80da 6c38 56ff e6ba
000001f0: 8e8c 0dbb de1e 183c 563c 953b 0000 0000
00000200: 2bda c9bb 3a33 aeba 09db 7fb9 caa5 833c
00000210: 16fc 913a 4775 1cbc abc3 103b 522d 973b
00000220: d208 963c f19d 0aba 0000 0000 4862 07ba
00000230: 134b 533c 5de2 2cbb f99b 1cba 25f1 1f3c
00000240: 525f 2e3c e008 0dbb 9b6d 9a3a ce0e 6637
00000250: 0f85 afbc a33a a5bb 0000 0000 ec6a 1bbc
00000260: 2b1a 27ba 034d 943c 27f9 2b39 2b0f 88b9
00000270: cf8a 03b7 8dcd 2f39 1f97 f0bb 54cc a63b
00000280: 6e76 8f3a e6eb 65ba 2c1f a839 2be9 a83b
00000290: 5388 6bb9 ab56 de39 3a8a 363b febe c03b
000002a0: f7f2 1fba 73b1 37bb d0e6 0e3a 92b9 03bb
000002b0: 0e24 72b7 3a76 c239 6e93 fc3b 05e0 a4bc
000002c0: 1620 d5bb 9317 c43b 95ee 39bc 4bff ea3b
000002d0: 9172 353c a881 d23b 1694 e0ba 6c1c e4ba
000002e0: 84dd 12b9 444d 853a 3879 fa37 72ac e0b9
000002f0: 87e2 b3bb b59b 40b7 8754 8eba e2af 27bb
0.0 -0.00031223742 0.0021611324 0.0 -0.004676831 0.0008002132 -0.0027666437 0.0029879438
0.008394808 -0.008062523 -0.014368698 -0.0050883275 0.0028162764 0.0005543684 0.0016716336 -0.011194362
-6.076254e-05 -0.0011260087 0.0029746047 0.00056849956 2.3887964e-05 -7.0889255e-05 0.0152296 -0.0020949063
0.00037050727 -0.0001385917 0.025356503 -0.00037923164 0.00010900372 -0.0076220734 -0.0033760155 -0.0026012345
0.004615443 -0.0027803946 0.0 0.013021223 8.304364e-06 3.5495275e-05 -0.003567408 4.6017423e-05
-0.018785262 0.016590258 0.00015777005 -0.006582529 0.00021220506 -0.011454981 0.0066827037 -0.00011091403
-1.8161343e-05 0.0083132945 -0.004828116 0.0021130233 0.00033437012 -4.7532463e-05 -0.005324889 0.0036914875
-0.008150374 0.011511214 0.0012800187 -0.007779936 0.00023045532 0.009900673 0.0019733813 0.0018783367
0.011441075 0.012675698 -4.1991316e-06 0.0005014917 -0.0068750577 -0.0022764779 0.00040240528 2.9683888e-05
0.009381036 -0.019711202 -0.00044652988 1.2015219e-05 -0.0036473048 -0.005539 -0.0131166475 -3.0149195e-06
0.0 -0.0025047301 -0.0016828598 -0.0012944727 0.010408334 -0.000999684 0.0014205083 0.0052821403
-0.006613223 0.0022643968 0.015888648 -0.00089107594 0.004541564 -0.0036165253 0.0061108693 0.0
-0.0005564814 0.00016997209 -2.4196583e-05 -0.00019035165 0.01606748 0.006807333 0.016961923 0.0
0.00015819982 -1.3316792e-06 2.8254643e-05 0.009248222 -0.0068241893 0.0006185853 -0.008937237 -0.004579205
-5.063092e-05 -0.0023990185 0.0015203339 0.00093435624 4.334629e-05 0.0028608365 -3.164267e-05 -0.0035271074
-0.013914697 8.776528e-07 5.647028e-05 -0.0017623703 -0.002159867 0.009284703 0.0045543117 0.0
-0.006160041 -0.0013290413 -0.00024400292 0.016070265 0.001113775 -0.0095494455 0.0022089283 0.004613557
0.018314753 -0.00052878173 0.0 -0.00051644864 0.012896317 -0.002638004 -0.00059741695 0.009762083
0.010642843 -0.0021520182 0.0011781933 1.3712515e-05 -0.021425752 -0.0050423904 0.0 -0.009485941
-0.0006374444 0.018103128 0.00016400647 -0.00025951242 -7.840527e-06 0.00016765874 -0.007342234 0.005090276
0.0010945329 -0.00087708083 0.00032066682 0.005154749 -0.00022462131 0.00042407712 0.0027853386 0.005882143
-0.0006101573 -0.0028029352 0.0005451264 -0.0020099622 -1.4432719e-05 0.0003709065 0.0077080047 -0.020126352
-0.006504069 0.0059842556 -0.011348386 0.0071715466 0.011074678 0.0064241476 -0.0017133977 -0.001740349
-0.00014006166 0.0010170122 2.985877e-05 -0.0004285309 -0.0054896506 -1.1480345e-05 -0.0010858931 -0.0025587012

W_action_type f4 [192, 4]
00000000: 6093 a93d ce18 16be 58aa c4bd f915 bb3d
00000010: ea79 cebb 1585 ca3d 6089 8c3e 18ce ecbd
00000020: fcb7 663d e93e 34be 3739 12be 2dd6 493e
00000030: 2b9f d9bd d4b9 39bd 967c ca3d 9695 a13c
00000040: c2f7 b5b7 e775 cdbd ce71 e5bb 10a3 c93d
00000050: dbfe a5b9 20df c3bd 8eb8 4a3e fac2 9f3c
00000060: 9170 85bd e9ce b3bc b04e f93d 9cc9 263d
00000070: 9c92 0dbe 2867 b0bb e551 0d3e bf60 96bd
00000080: 2535 133e df14 d13d 60c3 143b ee4f 27be
00000090: 7349 203d b061 713d 3417 96bd e6c7 093d
000000a0: 7077 c03d 5f6b 47be ea53 bc3d fd2a 1bbd
000000b0: 2290 f03d 74bc 80bd 9aae 34bd e8da 16be
000000c0: f910 623c 1e2e 6e3e a806 e9bc fe62 bebc
000000d0: 5304 8ebc 4d82 51ba 162c 56bd c4f9 42bc
000000e0: 8dfa 06be d1d6 183d ebac 25be ea8f 0d3d
000000f0: 8eff 6a3d 5b7c 8cbd d098 a8bc 397b c2bc
00000100: f213 22be bf6f ad3b 99dd 84bb 8842 373e
00000110: cc3a 41bd 338e 30be 883e bf3d 1037 223e
00000120: 8acf cebc be55 3e3b 0e4a 0c3d 535b 1c3e
00000130: 428f 82bc e657 013d d92e 213c a20f a03c
00000140: 851e a23d def6 893c 4282 d7bd 25a8 b9bc
00000150: e242 123e 55fc 0d3e cf6a 0fbd cda7 0abc
00000160: f1a4 9f3d 85bd ea3c 032a 00be 05f6 85bd
00000170: f802 5c3d 166c b13d 1a70 2b3e fee8 62bc
00000180: d7cd e13d 46ac 62bd d107 40bd f00e 16be
00000190: 3183 433c 49f2 953d 4de0 e8bc 5732 233e
000001a0: ccfd bf3d 4450 923d 4e30 52bd 2f3e 863d
000001b0: cef5 b03d 61b4 303d 2f5f df3d 9449 493e
000001c0: d651 023d 5b78 e83d 43b7 37be f51f 0b3d
000001d0: 0da2 243e f135 343d c060 f8bc c2e8 d4bd
000001e0: a0b1 4f3e 9b31 1cbe 1898 88bd 9ed1 7e3a
000001f0: 260d d73c 817f 4fbe 358f 93bd 256f 87bd
00000200: 9f0f ddba f7be d3bd ff8c de3c 783b a7bb
00000210: 392f 1c3d 98cd 0e3e 8724 b0bc 3e9f 7dbb
00000220: 7253 983b 4cb1 b13c 3ef9 88be 3a11 583d
00000230: 29b9 c5bd 41fa acbd a54b 82bd c4c5 113e
00000240: fd48 19bd 7ab1 90bd 1661 6c39 7e9d 90bd
00000250: d5ef 833e ac16 41be b305 6bbc 70fc 3ebc
00000260: 7c62 0cbd 5932 9d3d c729 303d d403 65bd
00000270: a6bc 703b f03f a5bc d1ac 77bc d5aa c3bd
00000280: f063 2ebd 7147 cb3d 43be 2fbd 18bc 123e
00000290: 7329 cc3d e98e f0bd a1ce a93d 3cec 153e
000002a0: c136 733d 1935 273d 59bf 153e 80bc 04be
000002b0: b41f c83d bc85 c93d faab bbbd 195d 27be
000002c0: 038b 72bd 7fb5 523d 74ce a93d 2dd1 4b3d
000002d0: 2ce7 b7bd 0456 4ebd 0455 043e de57 123e
000002e0: c2c8 9d3d bef4 dabd e8a6 a13c deb7 963d
000002f0: 134e 073d 0063 f1bd 365f fabd 5c97 043e
00000300: 8bcb 82bc 5690 06bd c28e 0a3d b7b8 173e
00000310: 9bca c2bd 9a98 563d ac50 d13d 2525 cb3d
00000320: 6ba1 f5bb 272e fd3d 2df5 453d 8c9d 503e
00000330: 24a2 99bd 5d17 aebd 0bac 333d adaa f5bd
00000340: 5b7f cf3d 05c4 7abd a517 183e f57e 053d
00000350: de8e 8d3d ce8a 463c a619 23be 12b4 38bd
00000360: 8e77 153d f42d d0bc f48f 81bd d8db d3bd
00000370: fdf6 3a3d c4c4 80be a253 6abd 1da1 7f3d
00000380: 862e 01bd 5225 b2bd 4689 b4bc 6d4b 37bb
00000390: 1811 52be 8ec7 a3bd 1790 9abc 19a3 7ebd
000003a0: 6cd1 7fbd b729 a13c 5a53 e13c 23e5 643e
000003b0: 4022 2b3c 5621 83bd bada 68bb f6fe 83bd
000003c0: 7350 e1bd 444e e73c ef2e c93d 8596 213d
000003d0: 1822 84bc 3f46 cfbb dee7 5b3c 9a53 a3bc
000003e0: 0848 d73d b694 743d efee b63a 49fe 433e
000003f0: 657a bfbd 961c 8dbd e111 393e ce6f 01be
0.08280063 -0.146579 -0.09602803 0.0913505 -0.0063011544 0.09888665 0.2744856 -0.11562747
0.056327805 -0.17602123 -0.14279638 0.19710608 -0.10626062 -0.045343235 0.09887044 0.019724648
-2.1692253e-05 -0.10032254 -0.007002092 0.09845555 -0.00031661135 -0.09564042 0.19796965 0.019502152
-0.06515611 -0.021949248 0.121732116 0.040719613 -0.13825458 -0.005383391 0.13800772 -0.073426716
0.14375742 0.10209059 0.002269946 -0.16339085 0.039132547 0.058931053 -0.073286444 0.033637904
0.09397781 -0.19474553 0.09195693 -0.037882794 0.11746241 -0.062859446 -0.044111826 -0.14731944
0.013797992 0.2325978 -0.028445557 -0.023240563 -0.017336046 -0.00079921336 -0.052288137 -0.011900369
-0.13181515 0.03731424 -0.16179244 0.034561075 0.057372622 -0.068596564 -0.02058068 -0.023740398
-0.15827921 0.005292862 -0.004054737 0.17896473 -0.047175214 -0.17241745 0.09338099 0.15841317
-0.025245447 0.0029042806 0.03425031 0.15269212 -0.015937451 0.031577967 0.0098378295 0.019538704
0.079159774 0.016841348 -0.105228916 -0.022663185 0.14283326 0.13865788 -0.03501397 -0.008462858
0.07795132 0.028654823 -0.12516026 -0.06541065 0.05371377 0.08663194 0.16741982 -0.013849495
0.11025589 -0.055340074 -0.046882454 -0.14654136 0.011933134 0.07321603 -0.028427267 0.15937172
0.0937458 0.07144216 -0.0513156 0.06554829 0.086406335 0.043140773 0.10906827 0.19656974
0.031816326 0.11351081 -0.17941003 0.033966023 0.16077442 0.043996755 -0.030319571 -0.103959575
0.20282602 -0.15253298 -0.066696346 0.00097205664 0.026251387 -0.20263483 -0.07205049 -0.06612996
-0.0016865617 -0.10339158 0.027166842 -0.005103525 0.038130973 0.13945615 -0.021501793 -0.0038699652
0.0046486193 0.021690987 -0.26752657 0.052750804 -0.09654457 -0.0844617 -0.06362084 0.14235598
-0.037423123 -0.07065101 0.00022542881 -0.07061289 0.25768915 -0.18856305 -0.0143446205 -0.0116568655
-0.03427361 0.07675619 0.043008592 -0.055911854 0.0036733537 -0.02017209 -0.015116886 -0.09554068
-0.042575777 0.09925736 -0.042906057 0.14329565 0.09968843 -0.11746008 0.082913645 0.14640898
0.05937839 0.040822122 0.14623775 -0.12962532 0.09771672 0.09839961 -0.09163661 -0.16344108
-0.059214603 0.05144262 0.08291331 0.049760032 -0.089796394 -0.050375 0.12923056 0.14291331
0.07704307 -0.10691212 0.019732907 0.07359289 0.03303344 -0.11786461 -0.12225191 0.12948364
-0.015966197 -0.032852493 0.03382755 0.14816557 -0.095113 0.052391626 0.10220465 0.09919194
-0.007496049 0.123623185 0.04832952 0.203726 -0.07501629 -0.0850055 0.043865245 -0.119954444
0.10131713 -0.061222095 0.1485277 0.03259178 0.069120154 0.012118055 -0.15927753 -0.045093603
0.03649097 -0.025412537 -0.06326285 -0.10344666 0.045645703 -0.2515012 -0.057208665 0.06240951
-0.03153851 -0.086985245 -0.022038113 -0.0027968541 -0.20514333 -0.079970464 -0.018867536 -0.06216726
-0.06245558 0.019673212 0.027505565 0.22353034 0.010445178 -0.06402843 -0.0035530762 -0.06445114
-0.110016726 0.028235562 0.09823405 0.039450187 -0.016129538 -0.0063255127 0.013421981 -0.019937325
0.10511786 0.059712134 0.0013956706 0.19139971 -0.09349517 -0.06890218 0.18073227 -0.12640306

b_action_type f4 [4]
00000000: b259 30bc e7d4 983c 0c3a f0bc f991 af3c
-0.0107635725 0.018656207 -0.029324554 0.02143191

W_play_habitat f4 [192, 4]
00000000: 9f82 2bbd ccf1 3dbd b9ec 163e c122 023e
00000010: 9c3d eabd 5456 4e3b 9972 c23c 8057 093e
00000020: 8297 783b b649 403e ca3b 183e bc0d c53c
00000030: 2def 8bbd 4ba1 3c3e e69a a83c cbdf ccbd
00000040: 24f4 40bd f752 933e 9518 7a3d 4211 6a3d
00000050: 22a5 5f3e 26c5 823d 9f18 01be a7df d2ba
00000060: fd24 2e3e 1023 343e 7286 f0bc c1bc b6bd
00000070: ae56 43bd 4d2d 873c e131 1d3e 75ad 57bc
00000080: 18c8 573d e57f fe3d c84f 17be f30d 3c3c
00000090: fca1 013e 5095 653d 2954 bfbc dacb 09bd
000000a0: 2a31 f4bd 47cc 0f3e f821 4c3d 6709 9b3b
000000b0: ecdb 11be c77b 073d c33e 8e3c f405 fcbd
000000c0: 4b48 d0bd 2b57 0b3e cb3e 97bd ec5e a2bd
000000d0: df8f c4b9 2aab 633d d87f 833e 55ce f53c
000000e0: cc78 01be c2f4 963d b860 293d c26c ef3c
000000f0: 63a1 1c3d 4670 8e3d 5298 143e 6f37 c73d
00000100: ed61 333d 62ae 81be 1e58 ea3c db0f c1bc
00000110: 494a 243d 32f2 033e dd00 02be 3af2 693e
00000120: e4cb 263e 0a77 8e3c 695c 38bd 7458 1b3b
00000130: 9d48 313d 9432 023e b161 13be e773 e13a
00000140: 2b63 c63d 05fb 6bbd a01a a1bb a404 3f3e
00000150: bd37 803d 4e97 a63d 4d76 19bd df44 19bd
00000160: 01ca c23d a06a 1fbe 356d c1bb e211 17bc
00000170: 5594 c3bc 4d31 3d3e d29e 543e 6694 0a3d
00000180: b5ee ee3c 317e 803c 36e0 78bc 1027 e83c
00000190: 3640 88bd 9cab 2b3d b7b8 15bd 6832 e63d
000001a0: cbf4 7dbd 4434 abbd f1d1 10be fa93 71be
000001b0: c7bc 1b3c f70e 5dbc 6713 c4bd 20d2 04be
000001c0: 7bc6 2b3c bad2 1f3d 9acf 52bd 4a6a f83d
000001d0: 55b9 6ebd 9980 093e 8e70 9d3d 4e06 e33d
000001e0: f8f7 e2bc 5a31 183d dc25 333d 0ded 90bc
000001f0: 8c3b 0d3d 5e5d f03c 0b92 783d db2a 423e
00000200: ed9b a53c 608b 91bd 9a64 8c3c 4e3e 433e
00000210: 8aca 273d 769d 643d 182d e63d 84a6 05be
00000220: 38e5 fcbd a2e6 243e 8cec b63b 9803 1c3e
00000230: 00a6 2abe ba98 e6bc b212 61bc 7255 8dbd
00000240: 8de3 033e 59a2 603d 8ee6 a4bd 9eb6 493b
00000250: 025b afbd 88a6 d73d 0a7f 3f3a d6e8 2dbd
00000260: 3d27 e73c 9c27 2a3d 6605 e03c e6e2 0ebd
00000270: 7a5f da3d 9297 69be e3c6 083e b8d9 d4bd
00000280: d9d5 a53d a36a d3bd b230 c03d 3d54 093d
00000290: 4bb3 d73d dfbb c0bd 8860 04bd 9387 3bbe
000002a0: 32ea b23c 7f3c 8bbd 5668 0ebe 2c6b 4bbd
000002b0: ad86 62bd 7756 3f3e 817c cb3d 43e7 aabd
000002c0: fed2 153e 4915 b3bd 8832 443d 0219 f93d
000002d0: 125a 523e 6e00 f33d e57d f93d d064 973d
000002e0: 6fc9 f7bd 0eb4 2d3d dcfe 093e a40c 1abe
000002f0: 168f 6e3c 00d8 88be 83c5 093b c260 cebc
00000300: 4927 2cbd f57f 2fbe a165 313d 1e42 923d
00000310: 8d84 ba3d 470d 5abd 89a6 d9bc b3d6 debd
00000320: 9fad 833d d89a 383e 586c c43d 015d 2cbd
00000330: d0d9 c63d c23a 423e ba1c 3c3d 5685 07bd
00000340: 7608 2bbd 7449 033e fc34 85bc 12e6 e3bb
00000350: fccd efbd 07f5 e6bd 0457 bd3c 3ed4 e1bd
00000360: ecbe 3c3d ae2a 5e3e 4503 6a3e c4c0 b93d
00000370: 0b61 26be 48e6 8b3d 1940 a3bd 6807 a8bd
00000380: eb74 ffbc f190 4ebe 34c9 a3bc 4a6d 67bd
00000390: 1bb9 7dbd 6e14 993d b9c0 203d 9aaf b0bd
000003a0: 751f 983c 92db ef3c 26b2 c03d 173f 1fbc
000003b0: 28cc cebd 43f3 a23d 04a9 24bd 0395 88bd
000003c0: 7c67 923c 0fbd 463d a7ff 043c 67d5 3cbd
000003d0: 0067 1d3d 9f49 7bbd 7607 b03d d5f3 c53d
000003e0: 753c 7dbd 82b9 66bd 3bd3 d23d 3f62 91bc
000003f0: 94a3 14bd 26eb 5ebd 3805 d8bc c94e a43c
-0.041872617 -0.046373174 0.1473874 0.1270857 -0.11437532 0.003148456 0.023736285 0.13412285
0.0037932103 0.18778118 0.14866558 0.0240544 -0.068327285 0.18420903 0.020581674 -0.100036226
-0.04710783 0.28774235 0.0610586 0.057145365 0.21840337 0.06385259 -0.12607048 -0.0016088382
0.17006297 0.175915 -0.029360984 -0.08922721 -0.047690086 0.016501093 0.15351059 -0.013163914
0.05268106 0.12426738 -0.14776528 0.011477935 0.12659448 0.0560506 -0.02335556 -0.033641674
-0.1192344 0.1404277 0.049837083 0.0047313455 -0.1424405 0.033077028 0.017363911 -0.12305823
-0.10170039 0.1360747 -0.07385024 -0.07928261 -0.00037491226 0.055583157 0.25683475 0.030005613
-0.12643737 0.073709026 0.041352004 0.029226664 0.038239848 0.06955008 0.1451123 0.0972737
0.04379456 -0.25328356 0.02860647 -0.02356713 0.040109906 0.12885359 -0.12695642 0.22846308
0.16288716 0.017390747 -0.045010004 0.0023703845 0.04328214 0.12714607 -0.14392735 0.0017200679
0.096868835 -0.057612438 -0.004916504 0.18654114 0.06260631 0.08134328 -0.037466336 -0.037419196
0.095111854 -0.15568018 -0.005902911 -0.009220572 -0.023874441 0.18475838 0.2076371 0.03383293
0.029166559 0.015685173 -0.015190175 0.028338939 -0.06652872 0.041911706 -0.03655311 0.11240083
-0.06200103 -0.08359578 -0.14142586 -0.23591605 0.009505457 -0.013492337 -0.09574013 -0.12970781
0.010484333 0.039019324 -0.051467516 0.12129648 -0.058282215 0.13427962 0.07687484 0.11085187
-0.027706131 0.03715644 0.043737277 -0.01769116 0.034480616 0.029341396 0.060686152 0.1896166
0.020215953 -0.07106662 0.017137814 0.19066736 0.04096464 0.05581423 0.1123907 -0.13051802
-0.123484075 0.16103604 0.005582398 0.15235746 -0.16664886 -0.028148998 -0.0137373675 -0.06901063
0.12879772 0.054842327 -0.08051787 0.0030779014 -0.0856228 0.1052981 0.0007305002 -0.042458378
0.028216952 0.04154168 0.027346324 -0.034884356 0.10662742 -0.22811726 0.1335712 -0.10393089
0.08097429 -0.10323074 0.09384288 0.0335276 0.10532244 -0.094108336 -0.032318622 -0.18313436
0.021840189 -0.06798648 -0.13906989 -0.049662754 -0.055304218 0.18685327 0.099358566 -0.08344891
0.14631268 -0.08744294 0.047899753 0.12162973 0.20542172 0.11865316 0.121822156 0.07392275
-0.12098967 0.04240804 0.13476127 -0.15043885 0.0145604815 -0.26727295 0.0021022267 -0.025192622
-0.042029653 -0.17138655 0.04330981 0.07141517 0.09107313 -0.05323532 -0.026568668 -0.108807944
0.064296 0.18027818 0.095909774 -0.042080883 0.09709513 0.18967727 0.045925833 -0.033086143
-0.041756116 0.12820989 -0.016260616 -0.0069549168 -0.1170921 -0.11277204 0.023112781 -0.1102681
0.046080515 0.21695969 0.2285281 0.0906997 -0.16247956 0.06831032 -0.0797121 -0.08204538
-0.03118368 -0.20172478 -0.019993402 -0.05650071 -0.06194411 0.074746 0.039246295 -0.08627243
0.018569687 0.029279504 0.09408979 -0.009719632 -0.100975335 0.07956555 -0.04020025 -0.06669047
0.01787161 0.048520144 0.008117593 -0.046101954 0.038428307 -0.061349507 0.08595173 0.09665648
-0.061825234 -0.056329258 0.10294195 -0.017747043 -0.036288813 -0.054423474 -0.026369676 0.020057099

b_play_habitat f4 [4]
00000000: bf1e e33b 2ad9 103c 8ea5 a6bb c615 2fbc
0.0069311555 0.008840838 -0.0050856536 -0.010686344

W_gain_food_primary f4 [192, 7]
00000000: 0f98 afbd 5d0a cd3a 8c62 d73d 697f d5bd
00000010: 2e7d 75bc 4f4a 96bc 5c2d 303d 9d08 8d3d
00000020: 444b 673d 95f3 b2bd 34a3 9ebd d61f 0c3d
00000030: 9a02 ed3d 7f52 b33c d6a1 5e3e b04c edbd
00000040: afbc 4ebe 363a f5bc 0fe4 06be abef 26bd
00000050: 8842 cbbd c1fb 0abd 41fc 9fbc fadb 7b3c
00000060: a06d 20be 2e2d 21be 3007 bc3d 36c8 ef3d
00000070: 8eb9 01be 7836 9a3d e89a a7bc 4b0d 663d
00000080: fe81 363e 2833 983c 639b 233e fe73 153e
00000090: e8a0 8bbd be45 c2bd 198d 00bd b356 f7bd
000000a0: 5559 963d ec45 93bc 5a95 063c 37df f3bc
000000b0: 0ed3 af3d 3643 b2bd 2392 3f3d 7784 a2ba
000000c0: b6f3 11bc 242e 83bd 6cdb dd3d 0105 2dbd
000000d0: 87f6 f73b 3673 bebd 3028 083e 5e64 bdbc
000000e0: abff d5bb e295 0f3d 604d 073d 47d1 5d3d
000000f0: 3c3f 5e3d e8ba 5c3d 4339 17bb 0a26 5bbe
00000100: 2214 933d d405 163c 780a 453e eae9 213d
00000110: 839e 27bd ed25 ea3b bdf5 b33c 7dfc 113e
00000120: d71f 453d 420d 023e 87be 07be 1856 06be
00000130: 209a e93d d526 5c3d 030d f1bd 830b 8fbd
00000140: 72e7 a6bd dbb7 fcbb 8f3b 31bd fd8b b23d
00000150: cd1f 5ebd bbf3 2cbe 913e 283d ebac e4bc
00000160: 10e6 76bc 5d86 a3bd 0dc6 b5bc 2ad2 c43d
00000170: c264 d53b ac69 973d 7a3f 78bd 6b0d 033e
00000180: 1029 143e 2484 1fbd 684b 0b3e 2322 243d
00000190: 7ad4 753c 2506 883c 8fe7 babd 1712 a93c
000001a0: ff2e 113e 7c33 d2bd e43a 6fbc 76a1 123e
000001b0: ddcf a2bd 4baf 93bd a98d 5abd 8f09 a63d
000001c0: 8306 7bbe d86a 2a3d d35e 973d 2dc0 df3c
000001d0: 6b53 90bd a907 01bd 8bd0 ecbb 4407 97bc
000001e0: 04b8 ecbc dd94 333d c20b 45be 7003 0c3c
000001f0: f5e9 fb3d 250c 4b3d 66b8 ae3c 6228 2d3d
00000200: c026 c23d 1580 0abe a5be 3b3c 70e5 17bc
00000210: 7e26 d4bd 6ef8 56bd f728 f1bc 7551 9bbc
00000220: a760 c3bd 256c 793d 58ac 73be fc9e e5bd
00000230: 8bba 99bd dfe9 293e 8fc5 fcbc 0928 573d
00000240: 9f35 2c3e 5b69 ef3c d0d0 1abd e0a2 abbd
00000250: fb05 133e 7850 05be 1b76 1ebd 4b0c 62bd
00000260: 6971 4dbd 678c eb3c 56a4 17be 6f2e 49bb
00000270: 6189 033d f2e7 14be 9104 11be a537 54be
00000280: c5f6 28be 98b6 89bd 8f02 1abe 801f 31bc
00000290: 2844 e83d 262a bfbd fef9 b8bd d251 903c
000002a0: d1ce ad3d b830 c43c b974 ef3d a8dd bf3d
000002b0: 2d2b 64bd b201 403e 2dc3 ef3d 6028 fabd
000002c0: 1dca 03bb ad53 773d ee11 043e 1f3b 50bd
000002d0: 4e0b a03c b2aa c03c 288e 003e 49fe 8c3b
000002e0: bfbd 0e3e 0362 14be dd7c d6bc 210d d7bb
000002f0: 17e9 f2bd ee5a 09be 2bf3 403d a590 db3c
00000300: ec38 983c 1054 583c 773f f8bd aac7 943d
00000310: 79e2 f4bd cf42 63bd 5e38 4b3e 67f1 5dbd
00000320: 9f3c 353e 1acc 7f3c a0e2 9abd ff61 e1bd
00000330: 1c34 4c3d 0a31 97bd ebe9 c93d dc38 f53c
00000340: c652 1cbd b5c8 683c d6be 523d ecab 633c
00000350: 4d51 193d 80e5 413d a264 bc3c c089 c0bd
00000360: 7af8 e2bd 9f0f 17be bcf8 97bd ac69 a53d
00000370: 6845 babd 8f9a 81bc f534 8c3d 92de 823e
00000380: b62b 773d 9a8e a13d 89e1 673c 838b 7cbc
00000390: 5b2b 6dbc 18a8 c73e fef3 5bbb a00a 663e
000003a0: f62f 5c3d 5ffa 2f3e ce8f 27bd 47e2 79bd
000003b0: 8907 403e f113 5f3d 8ad8 ef3d 8fba b3bd
000003c0: ac8a debd 7525 c1bd fe18 a33d 287f ef3d
000003d0: ac14 983d 0059 0f3e 4ed9 1cbd 22e0 27bd
000003e0: 5b13 983c 5344 743d 9d09 0bbd 06fd bbbd
000003f0: 44d1 803d be86 243e 9852 3a3e 6ace 073d
-0.08573925 0.0015643347 0.10516843 -0.10424692 -0.014983458 -0.01834598 0.043012008 0.068864085
0.056468263 -0.08737866 -0.07745972 0.03421005 0.11572762 0.021889923 0.21741423 -0.115868926
-0.20189165 -0.029934984 -0.13172935 -0.04075591 -0.09924799 -0.033931497 -0.019529464 0.015372271
-0.15666819 -0.15739891 0.091810584 0.11708109 -0.1266844 0.0752992 -0.020459607 0.05616502
0.17823026 0.01857908 0.15977244 0.14595029 -0.068178 -0.094859585 -0.03138456 -0.120770834
0.073412575 -0.017977677 0.008214319 -0.029769523 0.08585177 -0.08704226 0.046770226 -0.0012399097
-0.008908203 -0.06405285 0.10832867 -0.0422411 0.00756723 -0.092993185 0.1329658 -0.023119148
-0.006530722 0.03505505 0.033032775 0.05415466 0.054259524 0.053889185 -0.0023074902 -0.2140123
0.071815744 0.009156663 0.19242275 0.03952972 -0.040922653 0.0071456344 0.021967763 0.14256473
0.048126068 0.1270037 -0.13256274 -0.1311878 0.1140635 0.05374797 -0.1177006 -0.069846176
-0.081496134 -0.007712347 -0.04326969 0.08718107 -0.054229546 -0.16889851 0.041075293 -0.027914485
-0.0150695 -0.07984612 -0.022189165 0.09610398 0.0065122554 0.07393202 -0.06060741 0.12798087
0.14468789 -0.03894438 0.13602984 0.040071618 0.015004272 0.016604492 -0.091261975 0.020638509
0.14178084 -0.10263726 -0.014601443 0.14319405 -0.07949803 -0.07211169 -0.053357754 0.08107292
-0.24514203 0.0416058 0.07391133 0.027313316 -0.07047161 -0.031501446 -0.0072270087 -0.018436082
-0.02889634 0.04384314 -0.19242766 0.008545741 0.12300483 0.04957213 0.021328162 0.04227484
0.09480047 -0.13525422 0.011459027 -0.009271011 -0.10358904 -0.052483015 -0.029438479 -0.01895974
-0.09539919 0.06089415 -0.23796213 -0.112119645 -0.075062834 0.16593121 -0.030855922 0.052528415
0.1681733 0.029225042 -0.037796795 -0.08380675 0.1435775 -0.13018978 -0.038686853 -0.055187505
-0.050156984 0.028753472 -0.14808783 -0.0030697843 0.032113437 -0.14541605 -0.14161898 -0.20724352
-0.16500385 -0.0672428 -0.15040039 -0.010810733 0.11341125 -0.09334211 -0.09032057 0.01761714
0.08486713 0.023949012 0.11692185 0.093684494 -0.055705238 0.18750647 0.11707149 -0.12214732
-0.0020109483 0.060382534 0.12897465 -0.050837632 0.01953664 0.023518894 0.12554228 0.004302774
0.1393957 -0.14490514 -0.026182586 -0.0065628444 -0.118608646 -0.13413593 0.047106903 0.02680237
0.01858183 0.013203636 -0.1212148 0.072646454 -0.11957259 -0.055483636 0.19845721 -0.054185297
0.17698906 0.015612626 -0.075627565 -0.110050194 0.049854383 -0.073824 0.098590694 0.02993434
-0.038164876 0.014208009 0.051451527 0.01389597 0.03743105 0.04733801 0.022997204 -0.09401274
-0.110825494 -0.14752053 -0.07420489 0.08076796 -0.090952694 -0.01582077 0.06846038 0.25560433
0.06034442 0.07888527 0.014152893 -0.015414122 -0.014475669 0.38995433 -0.0033562179 0.2246499
0.053756677 0.17185353 -0.040908627 -0.06100681 0.18752874 0.054462377 0.117112234 -0.087758176
-0.10866293 -0.094309725 0.07963751 0.11694175 0.07425818 0.13998795 -0.038293175 -0.040985234
0.018563917 0.05963547 -0.033944715 -0.0917912 0.06289914 0.16067025 0.1819557 0.033155836

b_gain_food_primary f4 [7]
00000000: 4b1e 043c 8fdc f8bb eeca b13a 92cc d53b
00000010: 7ca7 183a a16d b83b ee90 6ebc
0.008063863 -0.007594652 0.0013564506 0.006524631 0.0005823297 0.005628303 -0.014560921

W_draw_mode f4 [192, 4]
00000000: 8987 6f3d abbb e63a 281c ba3d 86af ca3d
00000010: 0dc2 a8bd b6a4 853d 254f debd 5128 cc3d
00000020: 1cce 3a3e 83e6 40bc d80e 71be e43c 4bbd
00000030: f05a fbbd b25a e03b cb70 833e 66ba 863d
00000040: 5608 6bbd a07d c3bd ae48 aabd beab 443d
00000050: 769f ac3d cd31 e13d 1909 12bd 8e92 063d
00000060: e432 fdbd 87f6 c6bd e7c5 40bd c205 053e
00000070: 79bc efbd 3028 853e 0db9 093d cdab 36bd
00000080: 0e85 093d f294 283e 1e35 8ebc 1912 4ebd
00000090: 8dcf 5a3d 333c bebd dfa1 123d 099b 813e
000000a0: 8dde e33d 5c22 0cbd 499c 493d 83e9 90bd
000000b0: 4926 4c3d f1be 0abd e832 3e3d 9670 9ebd
000000c0: 3f7e f53c c9e4 0c3c 0d05 93bd 5f27 dbba
000000d0: ad3a f03d 8fa0 1b3d 3282 f13c 60cf d23d
000000e0: a634 29be 53f7 1cbe 4add 36be 42cb ccbd
000000f0: b20e 49bd ff86 6cbd 23b4 9fbd af65 e43c
00000100: 3652 bd3d 4d12 2fbd d9a2 553e c0b3 3f3e
00000110: 7302 933d ef94 1a3e 690a 4bbc c3dc e7bd
00000120: 4a9b fc3c 7009 c83c e496 403e 2125 c8bc
00000130: a3b2 aabd de05 96bd 74ab 2abe 468c 31bc
00000140: a0ba 103e 6751 153e 19b6 efbd 2ace 24bd
00000150: bb4f 9e3d 7dc3 3bbd 4526 893d 3069 47be
00000160: 35f3 a1bd 35e7 373e 13ac 6fbd 887d a93d
00000170: aa75 a1bd de5d 783a 248f 12be 43b0 9f3c
00000180: 058d 42bc 30d2 343e fbfd 14bd a5cf 30bd
00000190: 6a48 cf3d ba8c b2bd 062e 9f3d 0782 8fbd
000001a0: 3522 2b3d fb61 293e 23a9 13be 136c 63be
000001b0: 49dd 27be a8a4 bdbb 0dd7 4ebc 866b 87bd
000001c0: fc87 afbc 0144 193d 8f9e de3b 937c e1bc
000001d0: 1e53 973c 5bbb 63be 331f 04bd 03bb a9bd
000001e0: e63d 533d ff3f 13be dbfb 833c 4926 55bd
000001f0: 7ebc 20be bb01 fb3b 2b02 20be 1f67 1b3e
00000200: 0a32 5cbd b3d9 603d 1363 36be 6655 0b3d
00000210: 02ca 043e 6d89 fc3a 6c0c e43d f84a 7dbd
00000220: 3487 9e3d 0d04 c73d 3413 ccbd 2272 0f3e
00000230: 4649 933c 0ab0 fd3d 4aa7 ff3c 792b cfbd
00000240: 2c92 ca3d 6025 a9bb edce 2ebe f53f 83bd
00000250: b40d a93d 5788 033e 6ae1 933d 8a60 75be
00000260: 06b5 c43d 4267 08bd 44c9 883c 66b0 d43c
00000270: 1150 3d3e 6dab 09bc 8ff4 323d e646 83bd
00000280: 77c4 28bd b0a7 17bd f8ec 39bd dcdb 523e
00000290: 748c f7bd bf79 913e e658 793d 863b 8e3d
000002a0: 9de4 803c ad5a 7bbd f3c4 bbbd b784 e53b
000002b0: 5752 3d3e aff2 9cbd 5efb 42be 83ae 6f3d
000002c0: 2508 113d 5d80 873d f4be b7bd 7b1d ea3d
000002d0: 71a0 aa3b 7e39 bcbd e224 133e f28d 9dbd
000002e0: 217d 8b3c e738 3b3d 48ed 87be 8b98 a13d
000002f0: 4e51 0ebd b5d7 f7bb ae72 003c b7d5 c63d
00000300: fcdd ee3c 0f63 e1bc 029b 433e 9f91 c6bd
00000310: 82c6 0dbe c550 403c b6c4 b9bd 6b19 d7bd
00000320: 12b4 1ebd e766 1bbe 8f17 ddbc 8f80 27bd
00000330: 953f 543e 0e57 d33d a416 6dbe dc35 24be
00000340: ef75 4dbd a961 553c 5f7d 1d3d e0c8 48be
00000350: 2a38 033a 4f53 913d 0ec2 923d 3c94 053e
00000360: 1a6c c3bd c7d3 5cbe 7743 193b d644 0bbe
00000370: 6dad 723d dee5 453d 1e9a 4cbe b467 b7bd
00000380: e090 d8bd 1e2c f2bd 7a84 0ebe d5bd 4fbd
00000390: ea41 f73d 7386 763e 29b1 d3bd b1e7 4fbd
000003a0: 97fe e73d 2f77 4f3e 4b80 f73d 235b 923e
000003b0: b39c 86bb 991d b2bc 99c2 1e3d b876 d5bd
000003c0: 11cf f13c 0bee f73d 2183 b93d 43bc ea3d
000003d0: 1b2a 1b3e 0236 2f3e 0416 d43b 3101 91bd
000003e0: a09a fb3d 5c41 dc3d 50f7 503c fc33 ca3d
000003f0: 4049 0fbe 05d8 e13d 6a88 493d 2fd3 8cbc
0.058478866 0.0017603537 0.09087402 0.0989676 -0.08240137 0.06525557 -0.10854939 0.09968627
0.18242687 -0.011773708 -0.23540819 -0.049618617 -0.12273204 0.006846749 0.25671992 0.065785214
-0.057380997 -0.095454454 -0.08314644 0.04801535 0.08428852 0.10995827 -0.035653207 0.03285461
-0.12363222 -0.0971499 -0.047063734 0.12990478 -0.1170587 0.26007223 0.033623744 -0.044597436
0.033574156 0.16463068 -0.017359313 -0.050310228 0.053420592 -0.09288826 0.035798904 0.25313595
0.111264326 -0.034212455 0.04922131 -0.07075789 0.0498412 -0.033873502 0.046435267 -0.07736318
0.029967425 0.0085994685 -0.07178698 -0.0016720108 0.117299415 0.037994917 0.029481027 0.1029346
-0.1652399 -0.15328722 -0.17857853 -0.09999706 -0.04908628 -0.05774593 -0.0779803 0.027880518
0.09244196 -0.042742062 0.20862903 0.18720913 0.071782015 0.15095876 -0.012392619 -0.11321404
0.030835766 0.024418563 0.1880756 -0.024431767 -0.083348535 -0.07325338 -0.16666967 -0.010836666
0.14133692 0.14581834 -0.11704654 -0.040235676 0.07730051 -0.04584073 0.066967525 -0.1947372
-0.07907716 0.17959292 -0.058513712 0.08275896 -0.07883771 0.00094744365 -0.14312416 0.019493228
-0.011874442 0.17658305 -0.036375027 -0.043166775 0.10121234 -0.08718248 0.0777245 -0.070072226
0.04178067 0.16541283 -0.1441999 -0.22209196 -0.16393007 -0.005787451 -0.012624514 -0.06612305
-0.021427147 0.03741837 0.006793804 -0.027525222 0.01847225 -0.22239439 -0.032256316 -0.08287623
0.051572703 -0.14379881 0.016111305 -0.052038465 -0.15696904 0.0076601184 -0.15625827 0.15176056
-0.05375866 0.054895114 -0.17811231 0.03401699 0.12967685 0.001926703 0.11135182 -0.061839074
0.07740632 0.097175695 -0.099646 0.14008382 0.017979275 0.123870924 0.0312077 -0.101157136
0.09891161 -0.005161926 -0.17071123 -0.06408683 0.08254567 0.12844978 0.07220729 -0.23962608
0.0960484 -0.0333016 0.016697533 0.02596302 0.18487574 -0.0084026875 0.04369026 -0.06410007
-0.04120299 -0.037025154 -0.045392007 0.20591682 -0.12087336 0.28413197 0.060875796 0.06944947
0.015734011 -0.061365772 -0.091684245 0.0070043462 0.18488441 -0.07663476 -0.19041201 0.058516037
0.035408158 0.0661628 -0.08971968 0.11431404 0.0052071144 -0.09190653 0.14369538 -0.076930895
0.01702744 0.045708563 -0.2654822 0.078904234 -0.034745507 -0.007563556 0.007839842 0.097087316
0.029158585 -0.027513055 0.191021 -0.09695744 -0.13845256 0.011738007 -0.09070723 -0.10502895
-0.038745947 -0.15175973 -0.026988773 -0.040894087 0.2072738 0.10319339 -0.23153168 -0.1603617
-0.0501613 0.013023772 0.03844964 -0.19607878 0.00050056225 0.07095968 0.07165919 0.13044828
-0.09542103 -0.21565162 0.002338616 -0.13600478 0.059247423 0.04831492 -0.19980666 -0.08955327
-0.10574508 -0.11824821 -0.13917723 -0.050718147 0.12073119 0.24074726 -0.10336525 -0.050758068
0.11327856 0.20260309 0.12085017 0.28585157 -0.0041080355 -0.021742629 0.0387598 -0.104230344
0.029517682 0.1210595 0.09058214 0.11461689 0.1515278 0.17110446 0.006472351 -0.07080305
0.12285352 0.10754654 0.012754276 0.098731965 -0.13992786 0.110275306 0.04920236 -0.017190544

b_draw_mode f4 [4]
00000000: 26cf c1bc 7d2a a23d b2ad c2bc 8d16 02bd
-0.023658346 0.0791826 -0.023764465 -0.031759787

W_lay_eggs_bin f4 [192, 11]
00000000: ecb2 75bd c02b d93d b948 c8bd b145 c93d
00000010: 491f 51bd e400 37be 054a 02be 0f63 6cbc
00000020: c33d 1b3d 61ab a33d 3cd1 8fbd 5dc7 b2bd
00000030: 03a1 08be 2df8 0e3c e5ac 883d 0e59 d6bd
00000040: e9da 163e 7edc 843c 28fa ebbd 2822 d73c
00000050: 6c31 7fbd 16bd dd3d c676 403e 34c4 b53c
00000060: 6e36 c7bd 392f 6ebd 1d02 233d 6e1c b5bd
00000070: 7ada ca3d 8c14 7f3a f246 28be 8e8d b8b9
00000080: 3fa7 8dbd 33a6 503e cd98 fe3b 55f9 8e3c
00000090: cbc3 79bd 8d70 823d 1600 2b3d 1cd0 01be
000000a0: bdba 4a3d f937 ec3d 014e 04be dbb2 0ebe
000000b0: 7d17 99bd 3c08 a2bd d591 84bb e03f c9bd
000000c0: 6219 7bbd ab43 10be 7ea3 8b3d f423 5cbb
000000d0: 0ed3 d83d 7750 e03c 5f45 333c 19fb f539
000000e0: 846f 4bbd 461c e9bd 626b 8d3e 6860 0d3e
000000f0: 100a 34be 2b66 573d 7479 42be a84a 383e
00000100: fb42 96bd 4784 b03c 1519 1f3d abed 8bbd
00000110: a512 9dbd 7d23 a9ba a997 6dbe 5624 e23b
00000120: 538b a6bc 0e5f 153c d421 84bc eaa2 eb3d
00000130: ab85 973d bc44 473d b63f b03d 5592 24be
00000140: 6a9c 27be 5ef7 29bd 8b80 d63c 5579 f8bd
00000150: a6a4 623d a2be f23d adc6 093c 69f5 95bc
00000160: 0a07 d23d 4003 2b3d 67a4 1d3e 9faa 553d
00000170: bd96 0ebd 5bda 053d bea0 f7bc a75c ba3c
00000180: a2d6 633d 2b70 d73d dd6f ce3d a6ff 34be
00000190: cd06 ac3d 6079 fa3d 1227 173e a93d f0bc
000001a0: 3849 933d e2ab ea3c 6593 993d a0d7 263e
000001b0: f12b a4bc 0213 ecbc 41af 96bb 467d 2bbd
000001c0: fc7e 023e 1c91 143e 1695 17bd 98d9 083c
000001d0: 6e1c d13d acd5 a53d d705 48bb 3c76 42bd
000001e0: 85d0 46bd 82b2 e13c d5e9 893c d76c 1cbd
000001f0: d862 003e 166f 723d a192 cabd 354d 6cbe
00000200: 2371 e0bd 413b 2f3d 4897 a7bd f99e 273d
00000210: 7b26 7b3e d6f9 fdbd 4b36 a7bc a844 5fbe
00000220: a759 d83d 0388 babd 82e9 bcbd f4e6 2ebb
00000230: 84b0 22bd 2a48 53bd 213c be3c 644d 253e
00000240: 8f47 c53d bcf3 743d 9ee5 963d 289f afbc
00000250: c641 8dbe 2e57 9b3d 1838 7fbd b756 4a3d
00000260: e953 97bb 9c1a 28bd 425e a13a 4c04 99bc
00000270: 25a7 533d 8f31 1e3e fb4c b13b 3512 443d
00000280: 321e ef3d 9dd8 c93d 1d84 ab3c 00c7 77bd
00000290: 08fe 87bd 7eab c9bd 6c32 49bd dee4 7f3d
000002a0: 1300 bcbd 992c adbb 0d31 0f3d a3a8 a6bd
000002b0: 69f2 a23d b371 1bbd 2b5e d23c c84e bebd
000002c0: 8991 02be 9a88 aebc 8fbb 20be 2958 adbc
000002d0: 90ab e1bd c0c6 013e 0c13 a13d f979 06be
000002e0: fe4f a53d e345 a73d 542e 08bd d471 383d
000002f0: d558 16be 7283 a1bd 39af 20be f61d 26be
00000300: c729 033d f2ae 233e 2ad9 3cbc 3c2c 6f3b
00000310: 571f eebd b06f df3d ae72 19bc ab9e 4e3d
00000320: ca6b 39bd f20c a6bc b740 01bc b3f4 2abd
00000330: 7fae 5b3d 8dec 48be 8586 d23d 4193 d9bd
00000340: d7d7 8fbd f157 85bd 0207 f6bd 3f46 01bd
00000350: 397b e4bc 47b6 9c3d 644d 1b3e 3f5b 303e
00000360: f7b5 b1bd fc0d f43d 5c23 a13d 1c4a 6d3e
00000370: 83bb 7f3d 9a40 19bd 3142 a53d 3b96 e53c
00000380: d2d5 0ebe 2a96 ac3c 4a26 843d 9cbb a03d
00000390: f4e0 b7bd a5d9 4fbd 3e85 ce3d 1f98 cd3d
000003a0: ee06 05bd c347 803d 5b54 fd3d 74f1 55bd
000003b0: e7ba 703d d0fb 5f3d ca39 77bd ec53 da3c
000003c0: f65a 213e b6e4 20be 442f 213e 2d65 353d
000003d0: 89ed 973d e221 283c d4e1 cabd 31bd 28be
000003e0: 41eb 3dbe 3903 233d be2b d9bd c452 b23d
000003f0: e19a 3e3b bb59 e4bd 8618 7b3d 3238 46bc
-0.059985086 0.10604048 -0.09779496 0.09827746 -0.051055226 -0.17871433 -0.12723549 -0.014427914
0.037900697 0.07991672 -0.0702233 -0.08729432 -0.13342671 0.008726162 0.06673602 -0.104662046
0.14731945 0.01621842 -0.11522323 0.026261404 -0.06230299 0.10827081 0.18795308 0.022188284
-0.097271785 -0.058150504 0.039796937 -0.08843313 0.09904952 0.000973054 -0.16433313 -0.0003520068
-0.06916665 0.203759 0.00776968 0.017452875 -0.06097774 0.063691236 0.04174813 -0.12677044
0.049494494 0.115341134 -0.12920381 -0.13935415 -0.07475183 -0.07911727 -0.004045705 -0.09826636
-0.061303504 -0.14088313 0.06818293 -0.0033590766 0.105871305 0.027382119 0.010941832 0.00046917124
-0.049666896 -0.11382346 0.2762099 0.13806307 -0.17581964 0.05258767 -0.18991643 0.17997229
-0.07336994 0.02154745 0.03884228 -0.06832441 -0.07669572 -0.0012904253 -0.23202385 0.0069013042
-0.020330107 0.009116901 -0.016129412 0.11505683 0.07398542 0.048649535 0.08605902 -0.16071446
-0.16368261 -0.041495673 0.026184341 -0.12132517 0.055332802 0.118527666 0.008409184 -0.018305497
0.10255249 0.041751146 0.15394746 0.05216467 -0.034811724 0.032678943 -0.030228015 0.022749258
0.05562461 0.10519441 0.1007993 -0.17675647 0.08399735 0.12230182 0.14760998 -0.029326277
0.071917 0.028646413 0.074988164 0.16293192 -0.020040484 -0.028817657 -0.0045985286 -0.041867517
0.12743753 0.1450848 -0.037007414 0.00835266 0.10210501 0.08097395 -0.003052106 -0.04747604
-0.048538703 0.02755094 0.016835133 -0.038189735 0.12537706 0.05918797 -0.098912485 -0.23076327
-0.10959079 0.04278112 -0.081831515 0.040923093 0.24526398 -0.12401168 -0.020411631 -0.21803534
0.10563975 -0.091079734 -0.092242256 -0.0026687952 -0.03971912 -0.051582493 0.023222031 0.16142803
0.09632789 0.059802756 0.07368015 -0.021438196 -0.27589244 0.075849876 -0.062309355 0.049399104
-0.004618157 -0.041041 0.0012311416 -0.018678807 0.051673073 0.15448593 0.005410788 0.047868926
0.11675681 0.09855769 0.02093702 -0.060492516 -0.066402495 -0.09847163 -0.04912035 0.062474124
-0.09179702 -0.0052848575 0.034958888 -0.08137634 0.07956392 -0.03795023 0.025679668 -0.0929237
-0.1275083 -0.021305371 -0.15696548 -0.021160202 -0.11019051 0.12673473 0.07864961 -0.13132466
0.08071898 0.08167627 -0.033247307 0.04503043 -0.14682324 -0.07886399 -0.15691842 -0.16222367
0.032022264 0.15984705 -0.011526385 0.0036494872 -0.11627071 0.109099746 -0.009365721 0.050444286
-0.04526881 -0.020269845 -0.007888964 -0.04173727 0.05363321 -0.19621487 0.10279564 -0.106237896
-0.0702359 -0.06510914 -0.120130554 -0.031561133 -0.027890788 0.07651954 0.15166241 0.17222308
-0.08677285 0.1191673 0.078680724 0.23172802 0.062434684 -0.037415124 0.08069266 0.028025737
-0.13948753 0.021067698 0.064526156 0.07848284 -0.08978453 -0.05074467 0.10084008 0.100387804
-0.03247731 0.062636875 0.12369605 -0.05223222 0.058771994 0.054683506 -0.060357846 0.026651345
0.15757355 -0.15712246 0.15740687 0.044285942 0.07418353 0.010261985 -0.099063545 -0.16478421
-0.18546773 0.039797995 -0.10604046 0.087071925 0.0029084014 -0.11149927 0.061302684 -0.012098359

b_lay_eggs_bin f4 [11]
00000000: a351 b6bb 7bf0 47bb f7fc ce3c f6b5 2f3c
00000010: 1b42 b5ba b48f 8fbb af2a 08bb 430f a0bb
00000020: a028 bdbb 5a59 b0bb 381e 65bb
-0.005563931 -0.0030508328 0.025267107 0.010724535 -0.0013828905 -0.0043811444 -0.0020777395 -0.004884632
-0.005772665 -0.0053817453 -0.0034960639

W_play_cost_bin f4 [192, 7]
00000000: 4bd8 edbd 1a12 d03c e2ee 66bc cd23 f8bd
00000010: 757a 803d 9234 ca3d 056f b13d 6d6a 123d
00000020: 37bb c8bd bc52 febd 6946 d13c 4672 04be
00000030: d941 0c3e 7c83 aebd 35e3 91be c4e6 4b3d
00000040: f9d2 e5bd ba28 9bbd a8d4 ef3d 3420 983d
00000050: 3ca1 f33b daff f73d 1693 4d3d ee0b ae3d
00000060: a1e7 943b eb7f febd af7a 10bc f90f 853e
00000070: 19e1 d83a db95 90bd dc77 ea3d 49f1 45bb
00000080: d224 2e3d df6d 3cbe 8fe6 d23d 45aa 0cbe
00000090: 5b07 69bd 37b6 0b3d 42bf f4bd 4108 1fbe
000000a0: 0500 95bd cc32 333c 1924 443e f8b5 c83d
000000b0: 7fb7 f4bd 317d b53d 1f06 4ebe db05 193e
000000c0: 1749 0ebb dfb6 003d 0da8 423c f60a b9bd
000000d0: 1f4c dc3d 7d64 07be dbd7 b33c c9eb 23bd
000000e0: 045d 193e e7a0 bebc dd27 d93d 2d55 9b3d
000000f0: ff09 84bd bf27 0f3e 7a87 eebc a8c5 20be
00000100: b1fd f73d 5a13 253d f478 c43d bce2 2abe
00000110: 250e 10bd 11c7 80bc 0938 b23d 4568 c33d
00000120: c262 ab3d 4e1f 28bd 45d2 c3bb ca49 f3bd
00000130: e7a5 903d c607 dabc 1efb 0f3e d875 af3d
00000140: 73f1 693d d3ac b03d c263 9e3d 2cef f73c
00000150: 1559 78be 5f24 ac3d 1eda e7bd df04 cc3d
00000160: 4d3c 683d 8b6b 55be b05d ea3d 554d 85bd
00000170: 95a9 c93b 2d70 0b3e 6342 053d 9142 b4bd
00000180: b9bd a33e 3a14 2bbe 9a23 8ebe dae3 ca3d
00000190: ade9 bbbd 2e17 803d 3955 bcbd 7b2b c43c
000001a0: ef7a 65bd ca70 fcbd 7dd7 c13d 28ac 34be
000001b0: 8077 5cbd 45dd 1b3d fa85 41bc ccac 9cbc
000001c0: cecc a4bc 5099 f73d ef97 e8bd e564 373c
000001d0: 7b2a 9e3d 79ae d2bc 38cd 0abb fb4d d8bc
000001e0: daeb d33d ce80 01bc 9075 50be af19 f23c
000001f0: 7903 cb3d d6c7 cf3c b6af 00be 28a4 1fbd
00000200: baf8 fabc 4a53 3cbd 1e2a d3bd 9f9a 0fbe
00000210: 5be0 99bb 60f8 d7bd 7a46 523a c7fc a63b
00000220: 914b 5a3d 6e68 7cbd 21ad 2abd 9ad6 573e
00000230: 2be1 093d e590 3d3b bf20 363d 9850 3f3d
00000240: cc60 ca3d 1336 153e 7f3a 54be 05fe 063d
00000250: 00bb 2c3d 70f9 13be cfa6 a8bd 1c58 9f3d
00000260: 22b2 8dbd dca9 243d b3a3 29bd 8faa 08be
00000270: ddf6 2e3e 2d49 3fbe 15ec d0bd 3968 41be
00000280: 1ebd d9ba da6b 3fbe 447d 863d 4de7 57bd
00000290: 918d 893b 0e3d 59be aa1a 023d b3bf 1a3e
000002a0: b7ba a63d 1ea4 993d 1ed4 07be a171 18bd
000002b0: 265e 2e3d 62ab b3bd 7a0e 72bc deee b33d
000002c0: 92a6 e4bd ead3 0fbe 9cb0 1abb d1ca 32bd
000002d0: 96f3 a43d f9c8 c63d 12ba 9a3e ce92 073e
000002e0: 3ae4 ca3c 102a bb3c 7e99 86ba 429d 22bc
000002f0: 7356 053e 7ed0 acbc d722 74bd ac1b 5ebd
00000300: 24d2 4a3c ef73 fd3c a66c eb3d 49a8 143c
00000310: d46d 043e b781 56be 894f 3a3d 73eb 4f3b
00000320: 79d4 873d 4289 d8bb a7f7 b53d 66db c5bd
00000330: ae1d 11be 2fbc 273c 59c5 3a3e 49d4 a9bc
00000340: df67 d2bd 741a c33c a5ba b43d 3fff 5d3e
00000350: cf66 c3bd e4eb 8d3c c71d 083d 4863 1d3e
00000360: 259b 8c3d 1e39 d23c 81fd 213d 4702 353d
00000370: 0f00 11be d084 f0bd 3182 ccbd aa60 f63d
00000380: 9695 153d 082e 54be ad1c 913d c01f f33d
00000390: a63f 09be 5408 3fbd 7ad0 523e 1356 853d
000003a0: 6a64 babc 7ebb b3bc d3a3 873b 7875 39be
000003b0: 3e23 023c 794e 19be f53b f53d 9c38 103d
000003c0: 7067 a43b c5f9 003e d6be 87bd a935 4a3c
000003d0: c3b4 f5bc ea23 dfbc 6285 28bd ae6b dbbd
000003e0: 2c7a 35be d9c3 293d cbd5 0fbe 640c ebbd
000003f0: 8293 a3bd fc92 983d e3ca 2f3e bc09 0dbe
-0.1161352 0.025399256 -0.01409504 -0.121162035 0.06273357 0.09873308 0.086637534 0.035746027
-0.098013334 -0.12418124 0.02554627 -0.12934217 0.13696994 -0.085211724 -0.28493658 0.049780622
-0.112218805 -0.07576127 0.11710483 0.07428017 0.007434992 0.12109347 0.0501891 0.08498369
0.004544214 -0.12426742 -0.008818313 0.2598875 0.0016546577 -0.07059833 0.114486426 -0.0030203632
0.042515583 -0.18401287 0.10297882 -0.13736828 -0.05689178 0.03410932 -0.11950542 -0.15530492
-0.07275394 0.010937404 0.19154395 0.09800333 -0.119490616 0.08861769 -0.20119523 0.1494364
-0.0021711045 0.0314244 0.011880887 -0.09035294 0.107567064 -0.13221927 0.021953514 -0.040019784
0.14976889 -0.023270084 0.106033064 0.07584605 -0.06447219 0.13980006 -0.029117335 -0.157004
0.12108935 0.04030166 0.095933825 -0.16688055 -0.03516974 -0.015719922 0.08702094 0.09541372
0.08368446 -0.04104548 -0.005975994 -0.118793085 0.07062893 -0.026615035 0.14060637 0.08567399
0.05711503 0.086267136 0.07733871 0.030265413 -0.24252732 0.08405375 -0.113208994 0.099618666
0.056698132 -0.20841806 0.11443651 -0.065088905 0.006154249 0.1361701 0.032534014 -0.08801759
0.31980684 -0.16706935 -0.27761537 0.099067405 -0.091754295 0.06254421 -0.091959424 0.023946514
-0.05602544 -0.123262 0.09464929 -0.17643797 -0.0538249 0.038052816 -0.011811728 -0.019125365
-0.02011719 0.12089789 -0.11357104 0.011193489 0.07722946 -0.02571796 -0.0021179449 -0.026404371
0.103477195 -0.007904245 -0.20357347 0.029553263 0.09912772 0.025363844 -0.12567028 -0.03897491
-0.03063618 -0.04597787 -0.103107676 -0.14023827 -0.0046959347 -0.10545421 0.0008021366 0.0050960514
0.053294722 -0.06162303 -0.041669015 0.21077958 0.033662003 0.0028925475 0.044464823 0.04670772
0.09881744 0.14571409 -0.2072544 0.032957096 0.042170525 -0.14450622 -0.08234941 0.077804774
-0.06918742 0.040201053 -0.04141588 -0.13346313 0.17086358 -0.18680258 -0.10201279 -0.18887414
-0.0016612147 -0.18693486 0.06566861 -0.05271082 0.0041977842 -0.21214697 0.03176371 0.1511219
0.08141082 0.07502006 -0.1326451 -0.03721774 0.042570256 -0.08772923 -0.014773959 0.08785795
-0.11164583 -0.14045683 -0.0023603803 -0.043650452 0.08054273 0.09706301 0.30220085 0.13239595
0.02476703 0.022847205 -0.0010269133 -0.0099251885 0.13021259 -0.02109551 -0.05960354 -0.05422561
0.012379203 0.03093907 0.114953324 0.009073325 0.12932521 -0.2094792 0.045486007 0.0031726032
0.06632323 -0.0066081593 0.088851266 -0.096609876 -0.14171478 0.010237738 0.18239345 -0.020731108
-0.10273718 0.023816325 0.08824662 0.216794 -0.095410936 0.017324395 0.033231523 0.15369904
0.06865529 0.025662001 0.0395484 0.044191625 -0.14160179 -0.11744082 -0.099857695 0.12030156
0.03651961 -0.20720685 0.070855476 0.1187129 -0.13403186 -0.0466388 0.2058734 0.06510558
-0.02275296 -0.02193999 0.0041394024 -0.18111217 0.007942973 -0.14971341 0.119743265 0.035210237
0.0050172135 0.1259528 -0.06628196 0.012341895 -0.02999342 -0.027238805 -0.04114283 -0.10713898
-0.17722386 0.04144654 -0.140464 -0.11476973 -0.07987119 0.0744991 0.17167239 -0.13773245

b_play_cost_bin f4 [7]
00000000: d81f d3bb 393a 2e3c 140f 773c baa2 c03b
00000010: b718 91bb 7bde 48bc e49f 0abc
-0.006443005 0.010633999 0.0150792785 0.0058787735 -0.004427995 -0.012260075 -0.008460972
